Data/Player1/checkpoint-rndTest4.pth (torch, 176290 bytes, 20 tensors)

linear1.weight f4 [128, 34]
0.02169531 -0.013253217 -0.03544699 -0.1272811 0.00046937857 -0.11153367 -0.16511375 -0.15863584
-0.0022408562 -0.10327524 -0.2682708 -0.10747925 0.10867483 -0.0024276788 -0.10274892 -0.049291767
0.01831354 -0.0039162682 0.10091455 -0.062592044 -0.067395516 -0.034591846 0.0754257 0.30167302
0.038800422 -0.016760163 -0.11821283 -0.09152974 -0.30383575 0.029843248 -0.08596556 -0.00049456325
0.0041948077 0.17128786 -0.29069942 -0.0026684739 0.24993491 0.54422843 0.21560393 0.046000406
0.15080084 0.046885014 0.14385405 0.14348315 0.08050945 0.14694501 -0.05768188 0.14848502
-0.14467011 -0.17558485 -0.062476095 -0.0025952247 -0.006661435 -0.09929995 0.040988885 0.004321255
0.08530892 0.08323286 -0.09216335 -0.10970238 0.20669936 -0.07051174 -0.52061737 -0.047825113
-0.048812654 0.042430717 0.048158396 -0.04100205 0.111668386 0.16949297 0.5980423 0.4917502
-0.19094521 -0.22814243 0.00022380312 0.18272203 0.08971089 0.024740731 0.03610218 -0.008054836
-0.2221444 -0.19069965 -0.37559563 -0.33572224 0.029509006 0.26878375 0.05079513 -0.02223662
-0.009389172 0.061733484 0.02189095 0.06699484 0.058143422 0.006003569 0.2691627 -0.0010054832
0.5154826 0.066757955 -0.011003132 -0.010963277 -0.0045353607 0.00023256543 0.121154815 0.10540348
-0.385352 -0.4070383 0.34076652 -0.0031353484 0.12859143 0.26887804 0.09563439 0.22275008
-0.16511911 -0.14117931 -0.09765003 0.032787252 0.5574741 -0.009480694 0.10678845 -0.14217082
0.03239314 -0.06686164 -0.028801598 0.04168218 0.059203118 0.07351383 0.07724247 -0.0048463726
-0.13474594 -0.0994032 0.3243877 0.112163804 -0.016263377 -0.1319307 0.11672195 0.11279243
-0.2235835 -0.13149178 0.043301396 -0.117887095 0.006270771 0.06669725 0.013400096 -0.10270865
-0.057375513 -0.20084772 -0.097677425 -0.1283144 0.095670655 -0.057129085 0.05502283 -0.06461632
-0.017852865 -0.014848667 0.038058277 0.076622725 0.10422507 -0.023370897 0.15340036 0.027643839
0.15062512 -0.032707628 0.13896148 0.24438098 0.8020545 -0.15618157 0.17048006 -0.115482524
0.11990781 0.124171875 0.08761316 -0.10753866 -0.20715271 -0.17195469 0.22862658 -0.034738548
-0.10259854 0.06848399 0.008070771 0.28073153 -0.07262191 0.07646604 0.35440534 0.35057244
0.6343218 -0.24835677 -0.10565852 0.12207974 0.14090052 0.16049398 -0.08596141 0.029216962
0.047753736 -0.013213344 0.09881992 -0.0021733353 0.36733824 0.04572957 -0.73308975 -0.27766675
-0.05987837 0.08857291 -0.03426342 0.028220203 -0.10565878 0.04998653 0.04010713 0.08983935
0.13600184 0.19960634 0.018172555 0.14588204 0.19367188 0.16392548 0.17368601 0.07484444
-0.05874404 0.29409108 0.2928827 0.18599688 0.24760708 0.00722836 0.20595181 -0.07264753
0.15125726 0.15295137 -0.012801358 -0.10309436 0.048919443 -0.058318067 -0.024985172 -0.10197907
-1.5412518 -0.008198296 0.090031564 -0.1007819 -0.022634843 0.070105284 -0.05245387 -0.18610811
-0.26281255 -0.23107538 -0.3993006 -0.42200124 -0.17124835 -0.48125786 -0.027729472 -0.17953989
-0.17910887 -0.16640717 -0.21329589 0.056018222 0.067968376 0.14978988 0.2564527 -0.032094713
00000000: 5dba b13c 0524 59bc dd30 11bd fa55 02be
00000010: ed16 f639 c46b e4bd 9413 29be 6f71 22be
00000020: 54db 12bb f881 d3bd ca5a 89be 151e dcbd
00000030: e990 de3d b119 1fbb 076e d2bd 2ae6 49bd
00000040: 4706 963c 0a54 80bb 4aac ce3d 4230 80bd
00000050: a906 8abd 2eb0 0dbd ca78 9a3d e374 9a3e
00000060: 31ed 1e3d 9c4c 89bc 9119 f2bd f273 bbbd
00000070: 5c90 9bbe d479 f43c b60e b0bd 94a5 01ba
00000080: 9974 893b 1666 2f3e 8ed6 94be 90e1 2ebb
00000090: f0ee 7f3e 8e52 0b3f 47c7 5c3e ec6a 3c3d
000000a0: 896b 1a3e 800a 403d 7a4e 133e 3fed 123e
000000b0: 23e2 a43d c178 163e d643 6cbd 750c 183e
000000c0: 6724 14be 84cc 33be efe6 7fbd a514 2abb
000000d0: 2b48 dabb c65d cbbd f6e3 273d 5099 8d3b
000000e0: 71b6 ae3d fd75 aa3d 23c0 bcbd a4ab e0bd
000000f0: ffa8 533e 7668 90bd 2e47 05bf 44e4 43bd
00000100: c7ef 47bd d5cb 2d3d bd41 453d c4f1 27bd
00000110: 65b2 e43d 918f 2d3e 4d19 193f afc6 fb3e
00000120: 2487 43be 2b9e 69be b1ac 6a39 7c1b 3b3e
00000130: 58ba b73d 13ad ca3c e1df 133d 6ef8 03bc
00000140: d279 63be c546 43be 124e c0be c9e3 abbe
00000150: dfbc f13c 069e 893e 8e0e 503d 9229 b6bc
00000160: 0bd5 19bc 40dc 7c3d a654 b33c 9734 893d
00000170: cc27 6e3d 96b9 c43b b2cf 893e 6bca 83ba
00000180: abf6 033f 65b8 883d 7b46 34bc 519f 33bc
00000190: 5d9d 94bb cfdc 7339 0420 f83d c8dd d73d
000001a0: db4c c5be 5367 d0be f378 ae3e 6b7a 4dbb
000001b0: 79ad 033e 62aa 893e f7db c33d 9918 643e
000001c0: fc14 29be 4f91 10be bdfc c7bd ed4b 063d
000001d0: 9fb6 0e3f ea54 1bbc e7b3 da3d 3a95 11be
000001e0: abae 043d c1ee 88bd 54f1 ebbc efba 2a3d
000001f0: f87e 723d 6b8e 963d 4d31 9e3d 52ce 9ebb
00000200: d7fa 09be e893 cbbd 2516 a63e 23b6 e53d
00000210: c63a 85bc d718 07be eb0b ef3d b8ff e63d
00000220: 13f3 64be c8a5 06be ce5c 313d ca6e f1bd
00000230: 0a7b cd3b 9198 883d 148c 5b3c ea58 d2bd
00000240: 9602 6bbd 06ab 4dbe 1a0b c8bd da64 03be
00000250: faee c33d 3000 6abd 9e5f 613d 9055 84bd
00000260: 2c40 92bc d347 73bc ffe2 1b3d 60ec 9c3d
00000270: f473 d53d 5374 bfbc fc14 1d3e 5575 e23c
00000280: 793d 1a3e 6ff8 05bd eb4b 0e3e 023f 7a3e
00000290: 7253 4d3f 10ee 1fbe 5392 2e3e 1a82 ecbd
000002a0: 3a92 f53d d34d fe3d 876e b33d 3b3d dcbd
000002b0: d71f 54be e414 30be 161d 6a3e 024a 0ebd
000002c0: 2f1f d2bd 5641 8c3d 443b 043c 0bbc 8f3e
000002d0: ccba 94bd 3a9a 9c3d 9e74 b53e 3b7e b33e
000002e0: ea62 223f 3d51 7ebe 7e63 d8bd f104 fa3d
000002f0: 3a48 103e 8958 243e 890c b0bd 6958 ef3c
00000300: 6c99 433d c87c 58bc 1962 ca3d 846e 0ebb
00000310: c213 bc3e ee4e 3b3d c5ab 3bbf 562a 8ebe
00000320: 0643 75bd b765 b53d cd57 0cbd 0e2e e73c
00000330: a163 d8bd adbe 4c3d 6047 243d b1fd b73d
00000340: 1144 0b3e 9b65 4c3e 9cde 943c 1a62 153e
00000350: ec51 463e 15dc 273e bfda 313e 0b48 993d
00000360: 979d 70bd 1b93 963e b9f4 953e f775 3e3e
00000370: b68c 7d3e e1db ec3b 08e5 523e 3ac8 94bd
00000380: 2fe3 1a3e 499f 1c3e c9bc 51bc 2323 d3bd
00000390: c15f 483d edde 6ebd b4ad ccbc 67da d0bd
000003a0: bd47 c5bf 2552 06bc 7862 b83d be66 cebd
000003b0: b56c b9bc 5c93 8f3d dfd9 56bd 2093 3ebe
000003c0: 5e8f 86be 069f 6cbe 2171 ccbe 8c10 d8be
000003d0: ba5b 2fbe 6e67 f6be eb28 e3bc 4ed9 37be
000003e0: 5168 37be a466 2abe 3d6a 5abe 5d73 653d
000003f0: 0133 8b3d 8562 193e c54d 833e bf75 03bd

linear1.bias f4 [128]
-0.54596764 0.66444415 0.72997797 0.73367816 -0.5847827 0.51984936 0.81736755 -0.3432708
0.5076638 0.5573459 -0.6390961 0.64621437 0.061337437 0.3861559 0.19366802 0.8534261
-0.77015495 0.68824863 -0.44702694 0.5343556 0.5129296 0.7959057 -0.6823148 0.7955797
0.71270865 0.57665235 0.6410081 0.64946914 -0.28213403 -0.50558704 0.8426056 0.9918102
0.5906618 0.6354844 0.28360882 0.74584746 -0.5883817 -0.47562262 0.60865194 -0.5581563
0.72924846 0.62980396 0.7920911 0.53981376 0.46962902 0.5795942 0.39014032 0.7051672
0.8099116 -0.50649387 -0.012544508 0.77717984 0.79095703 0.70653623 -0.040164843 0.6947081
0.90656716 -0.5987981 0.7081466 -0.5940855 0.28683728 -0.5215992 0.6882061 0.72074497
0.69178647 0.6718029 0.7236306 0.593798 0.4780109 0.71005493 -0.410927 -0.5710988
-0.698047 0.4680759 -0.6696263 -0.6335809 0.72508556 0.6022642 -0.7662641 -0.68473625
0.71718276 -0.6672119 0.31251422 -0.64298695 -0.6431431 0.6774861 -0.4425537 -0.49496034
0.64868844 0.6146859 0.70756364 0.814173 0.62330353 0.38421524 -0.59544045 0.915547
0.36090907 -0.57072705 -0.63072777 -0.4718169 -0.45875192 -0.53616893 0.9734711 0.6662809
0.5096718 0.69623864 -0.48005313 0.72697425 -0.4656414 0.911372 0.61349225 0.7241342
-0.5349847 0.58460665 0.83155817 -0.41910174 -0.7252026 0.79661214 0.48009083 -0.6002898
-0.113074124 0.7837747 -0.24316481 -0.582407 -0.34157288 0.5512963 -0.40887964 -0.25404274
00000000: 89c4 0bbf 0319 2a3f d6df 3a3f 55d2 3b3f
00000010: 52b4 15bf d914 053f 003f 513f 31c1 afbe
00000020: 41f6 013f 39ae 0e3f cd9b 23bf 4e6e 253f
00000030: f73c 7b3d 3ab6 c53e e950 463e 227a 5a3f
00000040: e028 45bf 1031 303f b7e0 e4be 87cb 083f
00000050: 5b4f 033f 7ac0 4b3f 2fac 2ebf 1cab 4b3f
00000060: 1374 363f 7d9f 133f 1b19 243f 9c43 263f
00000070: df73 90be 276e 01bf 00b5 573f 46e7 7d3f
00000080: 9d35 173f 1baf 223f 2d35 913e dcef 3e3f
00000090: 2fa0 16bf cf84 f3be 9dd0 1b3f 55e3 0ebf
000000a0: 07b0 3a3f d53a 213f 7bc6 4a3f 3c31 0a3f
000000b0: 3773 f03e 4960 143f 79c0 c73e d685 343f
000000c0: 5e56 4f3f 95a9 01bf 7b87 4dbc 42f5 463f
000000d0: 297c 4a3f 8fdf 343f e483 24bd 64d8 313f
000000e0: c914 683f d54a 19bf 1849 353f fd15 18bf
000000f0: 56dc 923e 8687 05bf 462e 303f be82 383f
00000100: eb18 313f 46fb 2b3f db3f 393f 2503 183f
00000110: d8bd f43e 29c6 353f 0665 d2be 8833 12bf
00000120: 35b3 32bf a5a7 ef3e a16c 2bbf 5c32 22bf
00000130: 359f 393f fd2d 1a3f e229 44bf e04a 2fbf
00000140: 4a99 373f 66ce 2abf dd01 a03e cb9a 24bf
00000150: 07a5 24bf bb6f 2d3f 6696 e2be 716b fdbe
00000160: 7210 263f 0e5c 1d3f e422 353f a46d 503f
00000170: d290 1f3f dcb7 c43e c96e 18bf 4a61 6a3f
00000180: 13c9 b83e 2b1b 12bf 6077 21bf fc91 f1be
00000190: 88e1 eabe 5e42 09bf 6735 793f 6391 2a3f
000001a0: da79 023f b23c 323f 86c9 f5be fc1a 3a3f
000001b0: 8d68 eebe ad4f 693f d40d 1d3f dc60 393f
000001c0: c2f4 08bf c8a8 153f ffe0 543f 8194 d6be
000001d0: e1a6 39bf c6ee 4b3f 77ce f53e 98ac 19bf
000001e0: 6893 e7bd 75a5 483f 3200 79be a018 15bf
000001f0: a4e2 aebe c121 0d3f ac58 d1be e411 82be

linear2.weight f4 [64, 128]
-0.02547277 0.40605652 0.22133152 0.1235424 -0.13261624 0.31186542 0.225666 0.03987042
0.09736659 0.31089133 -0.055343818 0.25478554 0.1846729 0.3636378 0.06399587 0.41091964
-0.13132921 0.17862049 -0.00609241 0.19116414 0.2174244 0.23882228 -0.25255063 0.20225672
0.21636298 0.07543752 0.06384213 0.28565463 -0.34844986 -0.2659541 0.33766893 0.4329546
0.09580869 0.3676841 0.099533916 0.21806975 -0.3522283 -0.05591252 0.104166694 -0.0036366035
0.20791359 0.31460428 0.26532277 0.30189496 0.14851998 0.3784762 -0.07560663 0.20869087
0.14090031 -0.18156172 -0.38995448 0.10386795 0.34981322 0.13690205 0.029327538 0.25292602
0.48200807 -0.09484402 -0.018400425 -0.32648444 0.063316114 -0.273564 0.088844076 0.41932863
0.45055857 0.1312728 0.1988521 0.18904956 0.17791669 0.3791344 -0.052459195 -0.13781337
-0.3651258 0.6310427 -0.05179071 -0.26509097 0.18082277 0.25637054 -0.33101362 -0.07505157
0.23193155 -0.122277185 -0.05865667 -0.09145996 0.058323074 0.097197205 -0.03480895 -0.06130263
0.1158123 0.25353903 0.23640148 0.4290423 0.39785773 0.32524273 -0.079389915 0.4064205
0.03965566 -0.14207263 -0.12635203 -0.050547894 -0.010051954 -0.16110483 0.3268927 0.08587938
0.18421131 0.35357994 -0.15168849 0.38672736 -0.117959015 0.28647467 0.12527841 0.3405776
-0.52310765 0.31856117 0.13373156 -0.43779683 -0.10170671 0.44922557 0.1700668 -0.14849772
-0.094639346 0.49440423 -0.35622332 -0.23698173 -0.31963065 0.015463628 -0.10147848 -0.08656979
-0.05118676 0.40960032 0.33438748 0.3085517 -0.11743539 0.40009546 0.30306664 0.10997931
0.0400974 0.33383945 -0.07699412 0.26305047 0.21396236 0.3271484 0.12410259 0.4782602
-0.22431068 0.070800655 -0.16975372 0.2036664 0.16015564 0.14025722 -0.311136 0.31160992
0.20461641 0.16394909 0.073016025 0.3245038 -0.48588654 -0.19079737 0.28012845 0.39813477
0.12920423 0.4750482 0.1409314 0.17698735 -0.33646756 0.0059910296 0.1838214 -0.006101862
0.27266073 0.3315404 0.19273856 0.18002619 0.015870621 0.2034806 0.12375556 0.16055527
0.15982148 -0.1886097 -0.12767698 0.2528034 0.3610527 0.08495365 0.08826852 0.13789517
0.39965385 -0.22467224 0.11454593 -0.16572078 0.12607819 -0.18179823 0.10313772 0.5269417
0.4279738 0.12624966 0.12714054 0.24576823 0.2510686 0.43856677 -0.04572314 -0.20563895
-0.33391792 0.4158148 0.025068732 -0.19433172 0.17317957 0.1543065 -0.24403472 -0.18288884
0.33545747 -0.0028404342 -0.0021186217 -0.005022533 -0.03658596 0.09916025 0.03974031 -0.043241933
0.14918429 0.39389402 0.22627656 0.39080456 0.47068235 0.32483387 -0.06293514 0.4682947
0.08562021 -0.098818295 -0.011979567 -0.098477244 -0.03221481 -0.016436465 0.40624076 0.15735452
0.27300495 0.3186287 -0.24547075 0.4451493 -0.27120024 0.22520478 0.22006351 0.34153473
-0.28443962 0.258421 0.09817259 -0.51771545 -0.017597755 0.24382624 0.2534663 -0.05691912
-0.029581174 0.45064718 -0.4251366 -0.29401433 -0.30183572 0.06828244 -0.028200744 -0.08228837
00000000: 45ac d0bc a4e6 cf3e bba4 623e cc03 fd3d
00000010: 8dcc 07be d3ac 9f3e fd14 673e 2a4f 233d
00000020: 2268 c73d 262d 9f3e 33b0 62bd 4073 823e
00000030: e51a 3d3e bc2e ba3e 4410 833d 0f64 d23e
00000040: 2a7b 06be 4ae8 363e d7a2 c7bb 88c0 433e
00000050: 80a4 5e3e d48d 743e 514e 81be 631c 4f3e
00000060: 428e 5d3e fd7e 9a3d aabf 823d 5341 923e
00000070: 0568 b2be 232b 88be f1e2 ac3e 3aac dd3e
00000080: 5937 c43d 1741 bc3e 70d8 cb3d ad4d 5f3e
00000090: 4557 b4be 8704 65bd 5955 d53d 1554 6ebb
000000a0: 4de7 543e d013 a13e 63d8 873e fa91 9a3e
000000b0: 9f15 183e a2c7 c13e a6d7 9abd 0fb3 553e
000000c0: 2c48 103e 51eb 39be 1da8 c7be b8b8 d43d
000000d0: b81a b33e 0d30 0c3e 4e40 f03c 857f 813e
000000e0: c3c9 f63e 953d c2bd 7dbc 96bc f828 a7be
000000f0: e1ab 813d 9510 8cbe e2f3 b53d 3eb2 d63e
00000100: 9daf e63e 606c 063e e39f 4b3e 3596 413e
00000110: cb2f 363e e71d c23e 74df 56bd f31e 0dbe
00000120: c5f1 babe 048c 213f 7f22 54bd 01ba 87be
00000130: 9b29 393e 0043 833e 9e7a a9be a3b4 99bd
00000140: 777f 6d3e 766c fabd fa41 70bd 5c4f bbbd
00000150: 2de4 6e3d 540f c73d d493 0ebd 7718 7bbd
00000160: 002f ed3d decf 813e 3b13 723e 6fab db3e
00000170: 02b4 cb3e 3786 a63e 2e97 a2bd 5916 d03e
00000180: f96d 223d 7d7b 11be 6d62 01be 4f0b 4fbd
00000190: f3b0 24bc aaf8 24be 7b5e a73e 87e1 af3d
000001a0: e4a1 3c3e 6e08 b53e 3a54 1bbe 2101 c63e
000001b0: 7f94 f1bd cfac 923e fc48 003e 3060 ae3e
000001c0: 62ea 05bf 731a a33e edf0 083e e826 e0be
000001d0: 9c4b d0bd e500 e63e fe25 2e3e c90f 18be
000001e0: 46d2 c1bd 8d22 fd3e e762 b6be 57ab 72be
000001f0: a1a6 a3be 285b 7d3c f3d3 cfbd 814b b1bd
00000200: 35a9 51bd 22b7 d13e d634 ab3e 7dfa 9d3e
00000210: f781 f0bd 50d9 cc3e 8d2b 9b3e d53c e13d
00000220: 2c3d 243d 01ed aa3e 18af 9dbd 8dae 863e
00000230: f318 5b3e ff7f a73e 8029 fe3d 85de f43e
00000240: b3b1 65be efff 903d ebd3 2dbe ed8d 503e
00000250: d7ff 233e 979f 0f3e 384d 9fbe 568b 9f3e
00000260: f786 513e 45e2 273e 6d89 953d 5d25 a63e
00000270: 1fc6 f8be 6360 43be ff6c 8f3e 52d8 cb3e
00000280: 1d4e 043e 8539 f33e 5250 103e 2c3c 353e
00000290: 7a45 acbe 6650 c43b ad3b 3c3e 21f2 c7bb
000002a0: 309a 8b3e aabf a93e 425d 453e c958 383e
000002b0: 1b03 823c 385d 503e 8e73 fd3d 9a68 243e
000002c0: 3ea8 233e e722 41be c1bd 02be 726f 813e
000002d0: e6db b83e 2efc ad3d 20c6 b43d 6434 0d3e
000002e0: 6e9f cc3e 7b10 66be 0e97 ea3d b5b2 29be
000002f0: a41a 013e 5129 3abe de39 d33d a7e5 063f
00000300: 621f db3e 9747 013e 2131 023e abaa 7b3e
00000310: 108c 803e d38b e03e 3048 3bbd 0493 52be
00000320: 4af7 aabe ade5 d43e f15c cd3c e5fe 46be
00000330: fc55 313e 8602 1e3e 3de4 79be 3647 3bbe
00000340: 15c1 ab3e 9426 3abb 93d8 0abb 0f94 a4bb
00000350: 29db 15bd 8714 cb3d bcc6 223d 741e 31bd
00000360: c4c3 183e 7aac c93e 0bb5 673e 8917 c83e
00000370: 47fd f03e a050 a63e 24e4 80bd 53c4 ef3e
00000380: a659 af3d 3f61 cabd f245 44bc 70ae c9bd
00000390: adf3 03bd c4a5 86bc cafe cf3e 8b21 213e
000003a0: 4ec7 8b3e 4d23 a33e af5c 7bbe 9cea e33e
000003b0: c2da 8abe 159c 663e 5458 613e a4dd ae3e
000003c0: 12a2 91be c24f 843e b60e c93d 0089 04bf
000003d0: 2b29 90bc 96ad 793e 56c6 813e 0624 69bd
000003e0: 3854 f2bc 3abb e63e 81ab d9be 0c89 96be
000003f0: 368a 9abe aad7 8b3d 3f05 e7bc ce86 a8bd

linear2.bias f4 [64]
0.76637137 0.72170985 0.69255203 0.65789986 0.74880445 0.66688263 0.7427855 -0.16821687
-0.6077855 0.76749307 -0.3792936 -0.4405406 0.66057324 0.64326715 0.6742137 -0.37664878
-0.46009395 -0.4127573 0.6358046 -0.35127974 0.6536562 -0.5081507 0.7941206 0.66915774
0.6412207 0.7426957 -0.5076041 -0.42252088 0.7259456 -0.4559097 -0.43411338 0.78215665
0.6821586 -0.43512544 -0.34282064 0.7096191 -0.5579542 -0.17189217 0.6879804 -0.35534528
0.66301703 0.77585286 -0.3938384 -0.17691213 -0.5251558 0.69478136 -0.5247504 -0.49376798
-0.39798045 -0.56260085 -0.2251251 0.6340986 0.769473 0.6967802 0.69825 0.7694982
0.7495487 0.6333816 -0.5895109 -0.57110524 0.6401477 -0.48515534 -0.4855238 0.67315173
00000000: ea30 443f fac1 383f 174b 313f 206c 283f
00000010: a6b1 3f3f d2b8 2a3f 3127 3e3f 0b41 2cbe
00000020: d597 1bbf 6d7a 443f c532 c2be 8a8e e1be
00000030: 541b 293f 28ad 243f 4599 2c3f 1cd8 c0be
00000040: 6f91 ebbe ed54 d3be 17c4 223f f0da b3be
00000050: 0356 273f 2a16 02bf 7d4b 4b3f ec4d 2b3f
00000060: 0a27 243f 4e21 3e3f 58f2 01bf a854 d8be
00000070: 92d7 393f ff6c e9be 1c44 debe 6b3b 483f
00000080: f2a1 2e3f c3c8 debe 3086 afbe 99a9 353f
00000090: 16d6 0ebf 8004 30be 7c1f 303f d1ef b5be
000000a0: 7cbb 293f 4b9e 463f 30a5 c9be 7428 35be
000000b0: 9c70 06bf 31dd 313f 0b56 06bf 28cf fcbe
000000c0: 18c4 cbbe 9c06 10bf 3287 66be 4954 223f
000000d0: 2ffc 443f 3060 323f 83c0 323f d6fd 443f
000000e0: 6ce2 3f3f 4c25 223f 30ea 16bf f433 12bf
000000f0: b8e0 233f 4866 f8be 9396 f8be ac53 2c3f

output.weight f4 [1, 64]
0.5549595 0.47651514 0.42302307 0.6154675 0.548254 0.5965149 0.43719673 -0.81499
-0.4324706 0.4496726 -0.8166848 -0.9921109 0.63358104 0.54122096 0.59495956 -0.5749549
-1.2611699 -0.79731935 0.56469053 -1.0074048 0.52895623 -1.1145052 0.55567515 0.59663695
0.57688046 0.5201008 -1.1145109 -1.2929944 0.5933667 -0.8759499 -0.8837811 0.5682255
0.5799315 -1.1114229 -0.6666122 0.49104378 -0.9927876 -1.354452 0.5114783 -0.80422497
0.58465385 0.41658443 -0.454993 -0.5565882 -0.71414936 0.6010735 -0.8998634 -0.5340726
-1.3542695 -0.7994688 -0.6740961 0.5355891 0.5598909 0.60474855 0.6325699 0.50954974
0.39000747 0.6196449 -0.9112319 -1.1020844 0.4060713 -1.1019698 -0.68754655 0.5925679
00000000: d311 0e3f cbf9 f33e 7b96 d83e 478f 1d3f
00000010: 605a 0c3f 33b5 183f 40d8 df3e 2fa3 50bf
00000020: c96c ddbe 7d3b e63e 4112 51bf fbfa 7dbf
00000030: 5e32 223f 758d 0a3f 454f 183f 3f30 13bf
00000040: 046e a1bf 1f1d 4cbf 8f8f 103f a4f2 80bf
00000050: ad69 073f 1ba8 8ebf ba40 0e3f 33bd 183f
00000060: 70ae 133f 5325 053f 4ba8 8ebf d780 a5bf
00000070: e1e6 173f 413e 60bf 7a3f 62bf 3a77 113f
00000080: 6476 143f 1b43 8ebf 19a7 2abf 176a fb3e
00000090: 5427 7ebf af5e adbf 3ef0 023f b0e1 4dbf
000000a0: e0ab 153f 8e4a d53e d8f4 e8be 907c 0ebf
000000b0: 7ed2 36bf f4df 193f 735d 66bf fbb8 08bf
000000c0: b458 adbf fda9 4cbf 9091 2cbf 5e1c 093f
000000d0: 0355 0f3f cdd0 1a3f 1af0 213f da71 023f
000000e0: 0faf c73e 0ca1 1e3f 7e46 69bf 1a11 8dbf
000000f0: 94e8 cf3e 590d 8dbf 0d03 30bf 88b2 173f

linear1.weight f4 [128, 34]
0.02169531 -0.013253217 -0.03544699 -0.1272811 0.00046937857 -0.11153367 -0.16511375 -0.15863584
-0.0022408562 -0.10327524 -0.2682708 -0.10747925 0.10867483 -0.0024276788 -0.10274892 -0.049291767
0.01831354 -0.0039162682 0.10091455 -0.062592044 -0.067395516 -0.034591846 0.0754257 0.30167302
0.038800422 -0.016760163 -0.11821283 -0.09152974 -0.30383575 0.029843248 -0.08596556 -0.00049456325
0.0041948077 0.17128786 -0.29069942 -0.0026684739 0.24993491 0.54422843 0.21560393 0.046000406
0.15080084 0.046885014 0.14385405 0.14348315 0.08050945 0.14694501 -0.05768188 0.14848502
-0.14467011 -0.17558485 -0.062476095 -0.0025952247 -0.006661435 -0.09929995 0.040988885 0.004321255
0.08530892 0.08323286 -0.09216335 -0.10970238 0.20669936 -0.07051174 -0.52061737 -0.047825113
-0.048812654 0.042430717 0.048158396 -0.04100205 0.111668386 0.16949297 0.5980423 0.4917502
-0.19094521 -0.22814243 0.00022380312 0.18272203 0.08971089 0.024740731 0.03610218 -0.008054836
-0.2221444 -0.19069965 -0.37559563 -0.33572224 0.029509006 0.26878375 0.05079513 -0.02223662
-0.009389172 0.061733484 0.02189095 0.06699484 0.058143422 0.006003569 0.2691627 -0.0010054832
0.5154826 0.066757955 -0.011003132 -0.010963277 -0.0045353607 0.00023256543 0.121154815 0.10540348
-0.385352 -0.4070383 0.34076652 -0.0031353484 0.12859143 0.26887804 0.09563439 0.22275008
-0.16511911 -0.14117931 -0.09765003 0.032787252 0.5574741 -0.009480694 0.10678845 -0.14217082
0.03239314 -0.06686164 -0.028801598 0.04168218 0.059203118 0.07351383 0.07724247 -0.0048463726
-0.13474594 -0.0994032 0.3243877 0.112163804 -0.016263377 -0.1319307 0.11672195 0.11279243
-0.2235835 -0.13149178 0.043301396 -0.117887095 0.006270771 0.06669725 0.013400096 -0.10270865
-0.057375513 -0.20084772 -0.097677425 -0.1283144 0.095670655 -0.057129085 0.05502283 -0.06461632
-0.017852865 -0.014848667 0.038058277 0.076622725 0.10422507 -0.023370897 0.15340036 0.027643839
0.15062512 -0.032707628 0.13896148 0.24438098 0.8020545 -0.15618157 0.17048006 -0.115482524
0.11990781 0.124171875 0.08761316 -0.10753866 -0.20715271 -0.17195469 0.22862658 -0.034738548
-0.10259854 0.06848399 0.008070771 0.28073153 -0.07262191 0.07646604 0.35440534 0.35057244
0.6343218 -0.24835677 -0.10565852 0.12207974 0.14090052 0.16049398 -0.08596141 0.029216962
0.047753736 -0.013213344 0.09881992 -0.0021733353 0.36733824 0.04572957 -0.73308975 -0.27766675
-0.05987837 0.08857291 -0.03426342 0.028220203 -0.10565878 0.04998653 0.04010713 0.08983935
0.13600184 0.19960634 0.018172555 0.14588204 0.19367188 0.16392548 0.17368601 0.07484444
-0.05874404 0.29409108 0.2928827 0.18599688 0.24760708 0.00722836 0.20595181 -0.07264753
0.15125726 0.15295137 -0.012801358 -0.10309436 0.048919443 -0.058318067 -0.024985172 -0.10197907
-1.5412518 -0.008198296 0.090031564 -0.1007819 -0.022634843 0.070105284 -0.05245387 -0.18610811
-0.26281255 -0.23107538 -0.3993006 -0.42200124 -0.17124835 -0.48125786 -0.027729472 -0.17953989
-0.17910887 -0.16640717 -0.21329589 0.056018222 0.067968376 0.14978988 0.2564527 -0.032094713
00000000: 5dba b13c 0524 59bc dd30 11bd fa55 02be
00000010: ed16 f639 c46b e4bd 9413 29be 6f71 22be
00000020: 54db 12bb f881 d3bd ca5a 89be 151e dcbd
00000030: e990 de3d b119 1fbb 076e d2bd 2ae6 49bd
00000040: 4706 963c 0a54 80bb 4aac ce3d 4230 80bd
00000050: a906 8abd 2eb0 0dbd ca78 9a3d e374 9a3e
00000060: 31ed 1e3d 9c4c 89bc 9119 f2bd f273 bbbd
00000070: 5c90 9bbe d479 f43c b60e b0bd 94a5 01ba
00000080: 9974 893b 1666 2f3e 8ed6 94be 90e1 2ebb
00000090: f0ee 7f3e 8e52 0b3f 47c7 5c3e ec6a 3c3d
000000a0: 896b 1a3e 800a 403d 7a4e 133e 3fed 123e
000000b0: 23e2 a43d c178 163e d643 6cbd 750c 183e
000000c0: 6724 14be 84cc 33be efe6 7fbd a514 2abb
000000d0: 2b48 dabb c65d cbbd f6e3 273d 5099 8d3b
000000e0: 71b6 ae3d fd75 aa3d 23c0 bcbd a4ab e0bd
000000f0: ffa8 533e 7668 90bd 2e47 05bf 44e4 43bd
00000100: c7ef 47bd d5cb 2d3d bd41 453d c4f1 27bd
00000110: 65b2 e43d 918f 2d3e 4d19 193f afc6 fb3e
00000120: 2487 43be 2b9e 69be b1ac 6a39 7c1b 3b3e
00000130: 58ba b73d 13ad ca3c e1df 133d 6ef8 03bc
00000140: d279 63be c546 43be 124e c0be c9e3 abbe
00000150: dfbc f13c 069e 893e 8e0e 503d 9229 b6bc
00000160: 0bd5 19bc 40dc 7c3d a654 b33c 9734 893d
00000170: cc27 6e3d 96b9 c43b b2cf 893e 6bca 83ba
00000180: abf6 033f 65b8 883d 7b46 34bc 519f 33bc
00000190: 5d9d 94bb cfdc 7339 0420 f83d c8dd d73d
000001a0: db4c c5be 5367 d0be f378 ae3e 6b7a 4dbb
000001b0: 79ad 033e 62aa 893e f7db c33d 9918 643e
000001c0: fc14 29be 4f91 10be bdfc c7bd ed4b 063d
000001d0: 9fb6 0e3f ea54 1bbc e7b3 da3d 3a95 11be
000001e0: abae 043d c1ee 88bd 54f1 ebbc efba 2a3d
000001f0: f87e 723d 6b8e 963d 4d31 9e3d 52ce 9ebb
00000200: d7fa 09be e893 cbbd 2516 a63e 23b6 e53d
00000210: c63a 85bc d718 07be eb0b ef3d b8ff e63d
00000220: 13f3 64be c8a5 06be ce5c 313d ca6e f1bd
00000230: 0a7b cd3b 9198 883d 148c 5b3c ea58 d2bd
00000240: 9602 6bbd 06ab 4dbe 1a0b c8bd da64 03be
00000250: faee c33d 3000 6abd 9e5f 613d 9055 84bd
00000260: 2c40 92bc d347 73bc ffe2 1b3d 60ec 9c3d
00000270: f473 d53d 5374 bfbc fc14 1d3e 5575 e23c
00000280: 793d 1a3e 6ff8 05bd eb4b 0e3e 023f 7a3e
00000290: 7253 4d3f 10ee 1fbe 5392 2e3e 1a82 ecbd
000002a0: 3a92 f53d d34d fe3d 876e b33d 3b3d dcbd
000002b0: d71f 54be e414 30be 161d 6a3e 024a 0ebd
000002c0: 2f1f d2bd 5641 8c3d 443b 043c 0bbc 8f3e
000002d0: ccba 94bd 3a9a 9c3d 9e74 b53e 3b7e b33e
000002e0: ea62 223f 3d51 7ebe 7e63 d8bd f104 fa3d
000002f0: 3a48 103e 8958 243e 890c b0bd 6958 ef3c
00000300: 6c99 433d c87c 58bc 1962 ca3d 846e 0ebb
00000310: c213 bc3e ee4e 3b3d c5ab 3bbf 562a 8ebe
00000320: 0643 75bd b765 b53d cd57 0cbd 0e2e e73c
00000330: a163 d8bd adbe 4c3d 6047 243d b1fd b73d
00000340: 1144 0b3e 9b65 4c3e 9cde 943c 1a62 153e
00000350: ec51 463e 15dc 273e bfda 313e 0b48 993d
00000360: 979d 70bd 1b93 963e b9f4 953e f775 3e3e
00000370: b68c 7d3e e1db ec3b 08e5 523e 3ac8 94bd
00000380: 2fe3 1a3e 499f 1c3e c9bc 51bc 2323 d3bd
00000390: c15f 483d edde 6ebd b4ad ccbc 67da d0bd
000003a0: bd47 c5bf 2552 06bc 7862 b83d be66 cebd
000003b0: b56c b9bc 5c93 8f3d dfd9 56bd 2093 3ebe
000003c0: 5e8f 86be 069f 6cbe 2171 ccbe 8c10 d8be
000003d0: ba5b 2fbe 6e67 f6be eb28 e3bc 4ed9 37be
000003e0: 5168 37be a466 2abe 3d6a 5abe 5d73 653d
000003f0: 0133 8b3d 8562 193e c54d 833e bf75 03bd

linear1.bias f4 [128]
-0.54596764 0.66444415 0.72997797 0.73367816 -0.5847827 0.51984936 0.81736755 -0.3432708
0.5076638 0.5573459 -0.6390961 0.64621437 0.061337437 0.3861559 0.19366802 0.8534261
-0.77015495 0.68824863 -0.44702694 0.5343556 0.5129296 0.7959057 -0.6823148 0.7955797
0.71270865 0.57665235 0.6410081 0.64946914 -0.28213403 -0.50558704 0.8426056 0.9918102
0.5906618 0.6354844 0.28360882 0.74584746 -0.5883817 -0.47562262 0.60865194 -0.5581563
0.72924846 0.62980396 0.7920911 0.53981376 0.46962902 0.5795942 0.39014032 0.7051672
0.8099116 -0.50649387 -0.012544508 0.77717984 0.79095703 0.70653623 -0.040164843 0.6947081
0.90656716 -0.5987981 0.7081466 -0.5940855 0.28683728 -0.5215992 0.6882061 0.72074497
0.69178647 0.6718029 0.7236306 0.593798 0.4780109 0.71005493 -0.410927 -0.5710988
-0.698047 0.4680759 -0.6696263 -0.6335809 0.72508556 0.6022642 -0.7662641 -0.68473625
0.71718276 -0.6672119 0.31251422 -0.64298695 -0.6431431 0.6774861 -0.4425537 -0.49496034
0.64868844 0.6146859 0.70756364 0.814173 0.62330353 0.38421524 -0.59544045 0.915547
0.36090907 -0.57072705 -0.63072777 -0.4718169 -0.45875192 -0.53616893 0.9734711 0.6662809
0.5096718 0.69623864 -0.48005313 0.72697425 -0.4656414 0.911372 0.61349225 0.7241342
-0.5349847 0.58460665 0.83155817 -0.41910174 -0.7252026 0.79661214 0.48009083 -0.6002898
-0.113074124 0.7837747 -0.24316481 -0.582407 -0.34157288 0.5512963 -0.40887964 -0.25404274
00000000: 89c4 0bbf 0319 2a3f d6df 3a3f 55d2 3b3f
00000010: 52b4 15bf d914 053f 003f 513f 31c1 afbe
00000020: 41f6 013f 39ae 0e3f cd9b 23bf 4e6e 253f
00000030: f73c 7b3d 3ab6 c53e e950 463e 227a 5a3f
00000040: e028 45bf 1031 303f b7e0 e4be 87cb 083f
00000050: 5b4f 033f 7ac0 4b3f 2fac 2ebf 1cab 4b3f
00000060: 1374 363f 7d9f 133f 1b19 243f 9c43 263f
00000070: df73 90be 276e 01bf 00b5 573f 46e7 7d3f
00000080: 9d35 173f 1baf 223f 2d35 913e dcef 3e3f
00000090: 2fa0 16bf cf84 f3be 9dd0 1b3f 55e3 0ebf
000000a0: 07b0 3a3f d53a 213f 7bc6 4a3f 3c31 0a3f
000000b0: 3773 f03e 4960 143f 79c0 c73e d685 343f
000000c0: 5e56 4f3f 95a9 01bf 7b87 4dbc 42f5 463f
000000d0: 297c 4a3f 8fdf 343f e483 24bd 64d8 313f
000000e0: c914 683f d54a 19bf 1849 353f fd15 18bf
000000f0: 56dc 923e 8687 05bf 462e 303f be82 383f
00000100: eb18 313f 46fb 2b3f db3f 393f 2503 183f
00000110: d8bd f43e 29c6 353f 0665 d2be 8833 12bf
00000120: 35b3 32bf a5a7 ef3e a16c 2bbf 5c32 22bf
00000130: 359f 393f fd2d 1a3f e229 44bf e04a 2fbf
00000140: 4a99 373f 66ce 2abf dd01 a03e cb9a 24bf
00000150: 07a5 24bf bb6f 2d3f 6696 e2be 716b fdbe
00000160: 7210 263f 0e5c 1d3f e422 353f a46d 503f
00000170: d290 1f3f dcb7 c43e c96e 18bf 4a61 6a3f
00000180: 13c9 b83e 2b1b 12bf 6077 21bf fc91 f1be
00000190: 88e1 eabe 5e42 09bf 6735 793f 6391 2a3f
000001a0: da79 023f b23c 323f 86c9 f5be fc1a 3a3f
000001b0: 8d68 eebe ad4f 693f d40d 1d3f dc60 393f
000001c0: c2f4 08bf c8a8 153f ffe0 543f 8194 d6be
000001d0: e1a6 39bf c6ee 4b3f 77ce f53e 98ac 19bf
000001e0: 6893 e7bd 75a5 483f 3200 79be a018 15bf
000001f0: a4e2 aebe c121 0d3f ac58 d1be e411 82be

linear2.weight f4 [64, 128]
-0.02547277 0.40605652 0.22133152 0.1235424 -0.13261624 0.31186542 0.225666 0.03987042
0.09736659 0.31089133 -0.055343818 0.25478554 0.1846729 0.3636378 0.06399587 0.41091964
-0.13132921 0.17862049 -0.00609241 0.19116414 0.2174244 0.23882228 -0.25255063 0.20225672
0.21636298 0.07543752 0.06384213 0.28565463 -0.34844986 -0.2659541 0.33766893 0.4329546
0.09580869 0.3676841 0.099533916 0.21806975 -0.3522283 -0.05591252 0.104166694 -0.0036366035
0.20791359 0.31460428 0.26532277 0.30189496 0.14851998 0.3784762 -0.07560663 0.20869087
0.14090031 -0.18156172 -0.38995448 0.10386795 0.34981322 0.13690205 0.029327538 0.25292602
0.48200807 -0.09484402 -0.018400425 -0.32648444 0.063316114 -0.273564 0.088844076 0.41932863
0.45055857 0.1312728 0.1988521 0.18904956 0.17791669 0.3791344 -0.052459195 -0.13781337
-0.3651258 0.6310427 -0.05179071 -0.26509097 0.18082277 0.25637054 -0.33101362 -0.07505157
0.23193155 -0.122277185 -0.05865667 -0.09145996 0.058323074 0.097197205 -0.03480895 -0.06130263
0.1158123 0.25353903 0.23640148 0.4290423 0.39785773 0.32524273 -0.079389915 0.4064205
0.03965566 -0.14207263 -0.12635203 -0.050547894 -0.010051954 -0.16110483 0.3268927 0.08587938
0.18421131 0.35357994 -0.15168849 0.38672736 -0.117959015 0.28647467 0.12527841 0.3405776
-0.52310765 0.31856117 0.13373156 -0.43779683 -0.10170671 0.44922557 0.1700668 -0.14849772
-0.094639346 0.49440423 -0.35622332 -0.23698173 -0.31963065 0.015463628 -0.10147848 -0.08656979
-0.05118676 0.40960032 0.33438748 0.3085517 -0.11743539 0.40009546 0.30306664 0.10997931
0.0400974 0.33383945 -0.07699412 0.26305047 0.21396236 0.3271484 0.12410259 0.4782602
-0.22431068 0.070800655 -0.16975372 0.2036664 0.16015564 0.14025722 -0.311136 0.31160992
0.20461641 0.16394909 0.073016025 0.3245038 -0.48588654 -0.19079737 0.28012845 0.39813477
0.12920423 0.4750482 0.1409314 0.17698735 -0.33646756 0.0059910296 0.1838214 -0.006101862
0.27266073 0.3315404 0.19273856 0.18002619 0.015870621 0.2034806 0.12375556 0.16055527
0.15982148 -0.1886097 -0.12767698 0.2528034 0.3610527 0.08495365 0.08826852 0.13789517
0.39965385 -0.22467224 0.11454593 -0.16572078 0.12607819 -0.18179823 0.10313772 0.5269417
0.4279738 0.12624966 0.12714054 0.24576823 0.2510686 0.43856677 -0.04572314 -0.20563895
-0.33391792 0.4158148 0.025068732 -0.19433172 0.17317957 0.1543065 -0.24403472 -0.18288884
0.33545747 -0.0028404342 -0.0021186217 -0.005022533 -0.03658596 0.09916025 0.03974031 -0.043241933
0.14918429 0.39389402 0.22627656 0.39080456 0.47068235 0.32483387 -0.06293514 0.4682947
0.08562021 -0.098818295 -0.011979567 -0.098477244 -0.03221481 -0.016436465 0.40624076 0.15735452
0.27300495 0.3186287 -0.24547075 0.4451493 -0.27120024 0.22520478 0.22006351 0.34153473
-0.28443962 0.258421 0.09817259 -0.51771545 -0.017597755 0.24382624 0.2534663 -0.05691912
-0.029581174 0.45064718 -0.4251366 -0.29401433 -0.30183572 0.06828244 -0.028200744 -0.08228837
00000000: 45ac d0bc a4e6 cf3e bba4 623e cc03 fd3d
00000010: 8dcc 07be d3ac 9f3e fd14 673e 2a4f 233d
00000020: 2268 c73d 262d 9f3e 33b0 62bd 4073 823e
00000030: e51a 3d3e bc2e ba3e 4410 833d 0f64 d23e
00000040: 2a7b 06be 4ae8 363e d7a2 c7bb 88c0 433e
00000050: 80a4 5e3e d48d 743e 514e 81be 631c 4f3e
00000060: 428e 5d3e fd7e 9a3d aabf 823d 5341 923e
00000070: 0568 b2be 232b 88be f1e2 ac3e 3aac dd3e
00000080: 5937 c43d 1741 bc3e 70d8 cb3d ad4d 5f3e
00000090: 4557 b4be 8704 65bd 5955 d53d 1554 6ebb
000000a0: 4de7 543e d013 a13e 63d8 873e fa91 9a3e
000000b0: 9f15 183e a2c7 c13e a6d7 9abd 0fb3 553e
000000c0: 2c48 103e 51eb 39be 1da8 c7be b8b8 d43d
000000d0: b81a b33e 0d30 0c3e 4e40 f03c 857f 813e
000000e0: c3c9 f63e 953d c2bd 7dbc 96bc f828 a7be
000000f0: e1ab 813d 9510 8cbe e2f3 b53d 3eb2 d63e
00000100: 9daf e63e 606c 063e e39f 4b3e 3596 413e
00000110: cb2f 363e e71d c23e 74df 56bd f31e 0dbe
00000120: c5f1 babe 048c 213f 7f22 54bd 01ba 87be
00000130: 9b29 393e 0043 833e 9e7a a9be a3b4 99bd
00000140: 777f 6d3e 766c fabd fa41 70bd 5c4f bbbd
00000150: 2de4 6e3d 540f c73d d493 0ebd 7718 7bbd
00000160: 002f ed3d decf 813e 3b13 723e 6fab db3e
00000170: 02b4 cb3e 3786 a63e 2e97 a2bd 5916 d03e
00000180: f96d 223d 7d7b 11be 6d62 01be 4f0b 4fbd
00000190: f3b0 24bc aaf8 24be 7b5e a73e 87e1 af3d
000001a0: e4a1 3c3e 6e08 b53e 3a54 1bbe 2101 c63e
000001b0: 7f94 f1bd cfac 923e fc48 003e 3060 ae3e
000001c0: 62ea 05bf 731a a33e edf0 083e e826 e0be
000001d0: 9c4b d0bd e500 e63e fe25 2e3e c90f 18be
000001e0: 46d2 c1bd 8d22 fd3e e762 b6be 57ab 72be
000001f0: a1a6 a3be 285b 7d3c f3d3 cfbd 814b b1bd
00000200: 35a9 51bd 22b7 d13e d634 ab3e 7dfa 9d3e
00000210: f781 f0bd 50d9 cc3e 8d2b 9b3e d53c e13d
00000220: 2c3d 243d 01ed aa3e 18af 9dbd 8dae 863e
00000230: f318 5b3e ff7f a73e 8029 fe3d 85de f43e
00000240: b3b1 65be efff 903d ebd3 2dbe ed8d 503e
00000250: d7ff 233e 979f 0f3e 384d 9fbe 568b 9f3e
00000260: f786 513e 45e2 273e 6d89 953d 5d25 a63e
00000270: 1fc6 f8be 6360 43be ff6c 8f3e 52d8 cb3e
00000280: 1d4e 043e 8539 f33e 5250 103e 2c3c 353e
00000290: 7a45 acbe 6650 c43b ad3b 3c3e 21f2 c7bb
000002a0: 309a 8b3e aabf a93e 425d 453e c958 383e
000002b0: 1b03 823c 385d 503e 8e73 fd3d 9a68 243e
000002c0: 3ea8 233e e722 41be c1bd 02be 726f 813e
000002d0: e6db b83e 2efc ad3d 20c6 b43d 6434 0d3e
000002e0: 6e9f cc3e 7b10 66be 0e97 ea3d b5b2 29be
000002f0: a41a 013e 5129 3abe de39 d33d a7e5 063f
00000300: 621f db3e 9747 013e 2131 023e abaa 7b3e
00000310: 108c 803e d38b e03e 3048 3bbd 0493 52be
00000320: 4af7 aabe ade5 d43e f15c cd3c e5fe 46be
00000330: fc55 313e 8602 1e3e 3de4 79be 3647 3bbe
00000340: 15c1 ab3e 9426 3abb 93d8 0abb 0f94 a4bb
00000350: 29db 15bd 8714 cb3d bcc6 223d 741e 31bd
00000360: c4c3 183e 7aac c93e 0bb5 673e 8917 c83e
00000370: 47fd f03e a050 a63e 24e4 80bd 53c4 ef3e
00000380: a659 af3d 3f61 cabd f245 44bc 70ae c9bd
00000390: adf3 03bd c4a5 86bc cafe cf3e 8b21 213e
000003a0: 4ec7 8b3e 4d23 a33e af5c 7bbe 9cea e33e
000003b0: c2da 8abe 159c 663e 5458 613e a4dd ae3e
000003c0: 12a2 91be c24f 843e b60e c93d 0089 04bf
000003d0: 2b29 90bc 96ad 793e 56c6 813e 0624 69bd
000003e0: 3854 f2bc 3abb e63e 81ab d9be 0c89 96be
000003f0: 368a 9abe aad7 8b3d 3f05 e7bc ce86 a8bd

linear2.bias f4 [64]
0.76637137 0.72170985 0.69255203 0.65789986 0.74880445 0.66688263 0.7427855 -0.16821687
-0.6077855 0.76749307 -0.3792936 -0.4405406 0.66057324 0.64326715 0.6742137 -0.37664878
-0.46009395 -0.4127573 0.6358046 -0.35127974 0.6536562 -0.5081507 0.7941206 0.66915774
0.6412207 0.7426957 -0.5076041 -0.42252088 0.7259456 -0.4559097 -0.43411338 0.78215665
0.6821586 -0.43512544 -0.34282064 0.7096191 -0.5579542 -0.17189217 0.6879804 -0.35534528
0.66301703 0.77585286 -0.3938384 -0.17691213 -0.5251558 0.69478136 -0.5247504 -0.49376798
-0.39798045 -0.56260085 -0.2251251 0.6340986 0.769473 0.6967802 0.69825 0.7694982
0.7495487 0.6333816 -0.5895109 -0.57110524 0.6401477 -0.48515534 -0.4855238 0.67315173
00000000: ea30 443f fac1 383f 174b 313f 206c 283f
00000010: a6b1 3f3f d2b8 2a3f 3127 3e3f 0b41 2cbe
00000020: d597 1bbf 6d7a 443f c532 c2be 8a8e e1be
00000030: 541b 293f 28ad 243f 4599 2c3f 1cd8 c0be
00000040: 6f91 ebbe ed54 d3be 17c4 223f f0da b3be
00000050: 0356 273f 2a16 02bf 7d4b 4b3f ec4d 2b3f
00000060: 0a27 243f 4e21 3e3f 58f2 01bf a854 d8be
00000070: 92d7 393f ff6c e9be 1c44 debe 6b3b 483f
00000080: f2a1 2e3f c3c8 debe 3086 afbe 99a9 353f
00000090: 16d6 0ebf 8004 30be 7c1f 303f d1ef b5be
000000a0: 7cbb 293f 4b9e 463f 30a5 c9be 7428 35be
000000b0: 9c70 06bf 31dd 313f 0b56 06bf 28cf fcbe
000000c0: 18c4 cbbe 9c06 10bf 3287 66be 4954 223f
000000d0: 2ffc 443f 3060 323f 83c0 323f d6fd 443f
000000e0: 6ce2 3f3f 4c25 223f 30ea 16bf f433 12bf
000000f0: b8e0 233f 4866 f8be 9396 f8be ac53 2c3f

output.weight f4 [1, 64]
0.5549595 0.47651514 0.42302307 0.6154675 0.548254 0.5965149 0.43719673 -0.81499
-0.4324706 0.4496726 -0.8166848 -0.9921109 0.63358104 0.54122096 0.59495956 -0.5749549
-1.2611699 -0.79731935 0.56469053 -1.0074048 0.52895623 -1.1145052 0.55567515 0.59663695
0.57688046 0.5201008 -1.1145109 -1.2929944 0.5933667 -0.8759499 -0.8837811 0.5682255
0.5799315 -1.1114229 -0.6666122 0.49104378 -0.9927876 -1.354452 0.5114783 -0.80422497
0.58465385 0.41658443 -0.454993 -0.5565882 -0.71414936 0.6010735 -0.8998634 -0.5340726
-1.3542695 -0.7994688 -0.6740961 0.5355891 0.5598909 0.60474855 0.6325699 0.50954974
0.39000747 0.6196449 -0.9112319 -1.1020844 0.4060713 -1.1019698 -0.68754655 0.5925679
00000000: d311 0e3f cbf9 f33e 7b96 d83e 478f 1d3f
00000010: 605a 0c3f 33b5 183f 40d8 df3e 2fa3 50bf
00000020: c96c ddbe 7d3b e63e 4112 51bf fbfa 7dbf
00000030: 5e32 223f 758d 0a3f 454f 183f 3f30 13bf
00000040: 046e a1bf 1f1d 4cbf 8f8f 103f a4f2 80bf
00000050: ad69 073f 1ba8 8ebf ba40 0e3f 33bd 183f
00000060: 70ae 133f 5325 053f 4ba8 8ebf d780 a5bf
00000070: e1e6 173f 413e 60bf 7a3f 62bf 3a77 113f
00000080: 6476 143f 1b43 8ebf 19a7 2abf 176a fb3e
00000090: 5427 7ebf af5e adbf 3ef0 023f b0e1 4dbf
000000a0: e0ab 153f 8e4a d53e d8f4 e8be 907c 0ebf
000000b0: 7ed2 36bf f4df 193f 735d 66bf fbb8 08bf
000000c0: b458 adbf fda9 4cbf 9091 2cbf 5e1c 093f
000000d0: 0355 0f3f cdd0 1a3f 1af0 213f da71 023f
000000e0: 0faf c73e 0ca1 1e3f 7e46 69bf 1a11 8dbf
000000f0: 94e8 cf3e 590d 8dbf 0d03 30bf 88b2 173f

exp_avg f4 [128, 34]
-113.75293 2.8238754 -3.061297 -1.250714 -0.987323 2.622287 -1.3997611 0.655558
-1.8687184 -6.523816 -6.218264 -7.116055 19.160849 6.7382708 5.5681734 -3.832572
-9.470234 -2.4353013 3.4937773 -1.4982071 27.385185 -8.824375 34.106792 61.83761
3.3948498 16.752792 0.7833802 1.5863807 1.0250349 -3.6251585 -45.53815 -197.96585
74.65911 -84.81832 95.23993 35.893417 3.4885426 19.705078 2.7715228 -5.205599
-11.268508 -4.6434507 12.251491 23.012985 14.447786 8.285437 -67.37866 -43.32572
-39.60708 -13.036114 7.2459693 3.749065 8.15376 70.24309 -24.156002 61.35613
-44.35009 -101.65378 24.371986 46.50922 1.3081498 5.0267754 -4.3826385 3.1179295
510.9159 809.29144 -8.936005 333.7913 -23.801521 6.7894373 -4.932481 6.761723
7.3648634 -0.36604905 -4.385621 -0.66247416 6.5048504 14.474968 9.184668 28.436321
-69.35996 -32.63436 -35.75166 -15.495284 0.91078854 -0.19443989 -33.040825 17.440084
-28.03491 86.86739 23.483482 49.08051 42.836624 24.695324 1.6043372 10.783314
-7.3998704 -7.9394045 461.09833 460.86118 171.79312 226.64316 279.719 -11.053921
-5.066757 5.2505713 -4.403631 -1.7980671 1.6592062 -1.6279736 8.27673 10.828501
8.764513 22.012253 -34.50278 -19.656242 4.828445 -2.706278 10.646016 1.764082
-33.339077 3.8986187 -49.259403 28.253942 -63.871647 -156.61725 -24.322876 -52.309425
-3.884703 -5.348813 -5.2034097 -1.7404332 111.29963 405.05493 -120.53668 173.9759
-16.869034 3.568739 3.9019923 -4.935835 -2.6983008 3.180429 1.1901722 2.7652965
-2.125865 -4.1959343 -3.2815692 -7.511371 18.962746 8.811474 9.2110195 3.6507583
-4.996638 -1.3255688 -6.113573 -14.386503 6.845387 -10.595104 -0.20151997 16.273144
-11.70819 -14.044134 -0.8549622 -1.6808528 0.97291756 0.9231416 -137.52682 -186.37723
-37.070683 -104.198494 -44.34736 -30.360798 4.6407394 12.088185 -6.610164 0.20817372
2.0737958 -5.3705654 6.550459 0.96321535 12.088032 2.872872 -10.220446 -14.193202
-0.52820444 -2.3843105 27.8666 2.6517541 50.99327 45.495586 21.841835 -1.3229256
-0.33742142 -13.074749 57.466225 45.372795 -1.4925294 4.7655063 0.38326353 55.7096
345.97214 573.5854 19.654465 293.73828 61.666718 9.306957 -1.6153584 12.281392
4.123395 -3.601144 -5.142285 -4.093261 8.0316925 13.971419 10.423992 11.835727
-52.67666 -29.140518 -28.256464 -10.107058 7.899026 3.0574179 9.042084 52.00099
-21.322716 42.183933 -29.347084 -62.72678 29.01964 27.138233 0.6885959 3.4741483
-1.8916694 -6.881801 400.8522 543.51874 33.122807 225.55121 -55.94979 -21.454771
-1.5593724 -1.3554416 0.298088 1.0764753 1.3693342 0.6761189 -1.8357351 -5.0252786
-2.3391213 -0.3088473 18.305193 9.917788 4.932027 -0.036887586 0.9141265 0.74132824
00000000: 8081 e3c2 60ba 3440 4aec 43c0 6517 a0bf
00000010: 33c1 7cbf 8dd3 2740 5f2b b3bf a6d2 273f
00000020: 2a32 efbf 1ac3 d0c0 05fc c6c0 b9b6 e3c0
00000030: 6b49 9941 ea9f d740 7a2e b240 dc48 75c0
00000040: 1486 17c1 fadb 1bc0 0c9a 5f40 40c5 bfbf
00000050: dc14 db41 a430 0dc1 5b6d 0842 b659 7742
00000060: 3845 5940 b805 8641 9b8b 483f 860e cb3f
00000070: 5834 833f 9902 68c0 1127 36c2 42f7 45c3
00000080: 7751 9542 fba2 a9c2 d87a be42 dc92 0f42
00000090: 4844 5f40 00a4 9d41 a160 3140 4494 a6c0
000000a0: cf4b 34c1 2697 94c0 1b06 4441 981a b841
000000b0: 222a 6741 2691 0441 e0c1 86c2 8a4d 2dc2
000000c0: a66d 1ec2 ec93 50c1 fbde e740 aef0 6f40
000000d0: cd75 0241 767c 8c42 7e3f c1c1 ad6c 7542
000000e0: 7e66 31c2 bc4e cbc2 d4f9 c241 7109 3a42
000000f0: 7471 a73f 58db a040 933e 8cc0 288c 4740
00000100: 3c75 ff43 a752 4a44 e0f9 0ec1 49e5 a643
00000110: 8469 bec1 1243 d940 e2d6 9dc0 0960 d840
00000120: f6ac eb40 c86a bbbe 0257 8cc0 e897 29bf
00000130: bc27 d040 7899 6741 66f4 1241 967d e341
00000140: 4db8 8ac2 9689 02c2 b301 0fc2 afec 77c1
00000150: 7029 693f 401b 47be ce29 04c2 4b85 8b41
00000160: 7f47 e0c1 1bbc ad42 2cde bb41 7152 4442
00000170: b458 2b42 0690 c541 ec5a cd3f 7488 2c41
00000180: bdcb ecc0 9a0f fec0 968c e643 3b6e e643
00000190: 0acb 2b43 a6a4 6243 08dc 8b43 dcdc 30c1
000001a0: e022 a2c0 ae04 a840 8cea 8cc0 1027 e6bf
000001b0: de60 d43f 7061 d0bf 7c6d 0441 8a41 2d41
000001c0: 723b 0c41 1819 b041 d902 0ac2 fc3f 9dc1
000001d0: 9f82 9a40 a933 2dc0 1556 2a41 70cd e13f
000001e0: 375b 05c2 f882 7940 a109 45c2 1308 e241
000001f0: 917c 7fc2 049e 1cc3 4095 c2c1 da3c 51c2
00000200: f99e 78c0 7a29 abc0 5582 a6c0 84c6 debf
00000210: 6999 de42 0887 ca43 c812 f1c2 d5f9 2d43
00000220: c8f3 86c1 3866 6440 3eba 7940 5cf2 9dc0
00000230: f6b0 2cc0 268c 4b40 9057 983f 9efa 3040
00000240: 2c0e 08c0 1845 86c0 3b05 52c0 275d f0c0
00000250: b4b3 9741 ccfb 0c41 5660 1341 06a6 6940
00000260: 75e4 9fc0 3dac a9bf 64a2 c3c0 1e2f 66c1
00000270: 690d db40 8c85 29c1 405b 4ebe 662f 8241
00000280: bf54 3bc1 c6b4 60c1 cede 5abf 2f26 d7bf
00000290: 2011 793f 0253 6c3f de86 09c3 9260 3ac3
000002a0: 6148 14c2 a165 d0c2 b263 31c2 eae2 f2c1
000002b0: f080 9440 3569 4141 7786 d3c0 7e2b 553e
000002c0: 12b9 0440 acdb abc0 5c9d d140 4895 763f
000002d0: 9468 4141 23dd 3740 f286 23c1 5b17 63c1
000002e0: 6838 07bf 8b98 18c0 ccee de41 57b6 2940
000002f0: 1cf9 4b42 7bfb 3542 14bc ae41 a055 a9bf
00000300: 80c2 acbe 2c32 51c1 6add 6542 be7d 3542
00000310: 340b bfbf 077f 9840 1e3b c43e a1d6 5e42
00000320: 6ffc ac43 7765 0f44 583c 9d41 80de 9243
00000330: b8aa 7642 4ce9 1441 10c4 cebf 9580 4441
00000340: daf2 8340 2579 66c0 998d a4c0 fefb 82c0
00000350: d081 0041 ef8a 5f41 acc8 2641 235f 3d41
00000360: e6b4 52c2 c81f e9c1 3d0d e2c1 82b6 21c1
00000370: d2c4 fc40 bcac 4340 60ac 1041 0401 5042
00000380: ec94 aac1 59bc 2842 d4c6 eac1 39e8 7ac2
00000390: 3928 e841 1a1b d941 d247 303f 7258 5e40
000003a0: 3922 f2bf b737 dcc0 156d c843 33e1 0744
000003b0: c17d 0442 1c8d 6143 96cc 5fc2 5fa3 abc1
000003c0: 8499 c7bf 1c7f adbf fe9e 983e f1c9 893f
000003d0: 5846 af3f 2116 2d3f 5ef9 eabf 15cf a0c0
000003e0: 2ab4 15c0 3c21 9ebe 0971 9241 42af 1e41
000003f0: 2ad3 9d40 7017 17bd 3204 6a3f b0c7 3d3f

exp_avg_sq f4 [128, 34]
140744.38 35825.344 1616.9218 361.01294 314.83917 241.09816 179.3955 157.68721
216.69182 246.12617 257.15637 938.1741 4637.5415 520.6034 647.1776 466.74243
626.59436 532.40375 9471.996 1831.1715 5330.4116 13805.5205 34589.49 50770.54
30368.012 32414.26 31.69456 123.82001 147.35983 14826.192 151062.17 355067.44
154582.11 484307.44 1.4464371e+06 361527.1 12856.163 3899.4412 3778.384 3356.9504
2198.7747 1898.6791 2327.5405 2833.7053 2725.262 18671.033 82654.375 5576.1777
6205.7285 4454.31 9756.35 5396.4995 113602.766 23394.482 57012.18 144997.48
309683.0 402856.6 345211.66 354158.22 534.49225 1562.8485 679.45264 111932.09
2.1667498e+06 3.4868088e+06 1.4536426e+06 3.6850488e+06 449336.22 79834.5 2445.6501 1110.0146
1098.2748 2045.9517 843.1619 1043.4031 1086.8168 1036.8147 1219.0087 7833.0425
48261.94 2842.0645 3403.8545 1825.6079 4204.278 2136.6848 46546.016 6526.866
19977.412 56012.746 108534.66 144205.47 128309.72 118875.61 182.78426 528.8186
811.25 72119.26 672113.3 1.2512841e+06 516183.4 1.3000142e+06 603450.4 165213.61
10139.944 1541.2576 1589.431 1796.4071 1023.23834 1018.1584 1015.84216 1286.8817
1143.1372 6888.9326 40635.62 2812.4226 2654.4521 2121.5242 4878.366 2437.679
52589.766 9632.642 28000.848 77634.13 152530.0 197736.2 161179.56 164121.53
207.80745 645.1344 676.2767 59582.598 812660.25 1.4050921e+06 762948.25 1.8920575e+06
60864.33 19557.139 1315.9364 251.83232 289.39648 388.48682 144.88773 155.74289
142.0679 170.3333 162.53047 1948.3535 6212.752 286.48477 303.9374 226.34644
907.1151 291.1353 6942.9604 1089.8501 2371.4592 5716.672 12306.85 15492.473
18182.188 18216.6 43.00824 109.04163 115.99978 3897.595 143163.06 184257.02
95809.445 183193.12 475965.97 182537.05 11812.102 1726.5345 1896.6914 1869.2299
867.1191 826.85187 869.0004 1329.9839 1126.4785 9075.113 24239.496 1853.1394
1585.5348 1893.1665 4704.4272 2304.2515 50504.355 10941.013 20772.572 55849.207
111722.16 143171.36 134212.94 137786.9 297.94217 828.17035 135.31825 53549.145
901505.75 1.7545348e+06 544802.44 1.8414831e+06 664554.94 183628.6 10648.988 2038.4075
2132.6794 2836.1067 1230.9961 1277.0876 1207.4728 1502.9935 1431.698 13371.533
50742.594 2740.9067 2772.35 2161.3052 6933.8 2845.1646 65357.656 11488.231
27621.117 70778.6 139050.8 178732.84 176855.11 180592.67 309.49365 868.0958
143.20033 51329.75 1.1493485e+06 1.6573112e+06 776952.7 1.760396e+06 69411.18 15642.064
630.0762 157.21083 103.16774 72.4592 92.045044 71.94955 76.99725 110.74206
108.44897 252.08975 2533.7815 266.4191 299.21 206.15204 263.95215 233.22006
00000000: 1872 0948 58f1 0b47 7f1d ca44 a881 b443
00000010: 6a6b 9d43 2119 7143 3f65 3343 edaf 1d43
00000020: 1bb1 5843 4d20 7643 0494 8043 248b 6a44
00000030: 55ec 9045 9e26 0244 5ecb 2144 085f e943
00000040: 0aa6 1c44 d719 0544 fcff 1346 7de5 e444
00000050: 4b93 a645 15b6 5746 7d1d 0747 8a52 4647
00000060: 0640 ed46 853c fd46 758e fd41 d8a3 f742
00000070: 1e5c 1343 c5a8 6746 8b85 1348 6e5f ad48
00000080: 87f5 1648 6e7a ec48 2991 b049 e386 b048
00000090: a7e0 4846 0fb7 7345 2526 6c45 35cf 5145
000000a0: 656c 0945 bb55 ed44 a678 1145 491b 3145
000000b0: 3154 2a45 11de 9146 306f a147 6c41 ae45
000000c0: d4ed c145 7b32 8b45 6671 1846 ffa3 a845
000000d0: 62e1 dd47 f7c4 b646 2eb4 5e47 5f99 0d48
000000e0: 6036 9748 13b5 c448 758f a848 c7ed ac48
000000f0: 819f 0544 275b c344 f8dc 2944 0c9e da47
00000100: 773f 044a 63d1 544a 5572 b149 e3ea 604a
00000110: 0767 db48 40ed 9b47 67da 1845 78c0 8a44
00000120: cb48 8944 74be ff44 5dca 5244 e66c 8244
00000130: 23da 8744 129a 8144 4760 9844 57c8 f445
00000140: f185 3c47 08a1 3145 acbd 5445 7433 e444
00000150: 3962 8345 f58a 0545 04d2 3547 eef6 cb45
00000160: d312 9c46 bfcc 5a47 54fb d347 5ed3 0c48
00000170: dc9a fa47 ce2d e847 c5c8 3643 6434 0444
00000180: 00d0 4a44 a1db 8c47 1517 2449 a1be 9849
00000190: ed0a fc48 72b1 9e49 a653 1349 6757 2148
000001a0: c76f 1e46 3ea8 c044 cbad c644 078d e044
000001b0: 41cf 7f44 238a 7e44 e6f5 7d44 37dc a044
000001c0: 64e4 8e44 7647 d745 9fbb 1e47 c3c6 2f45
000001d0: 3ce7 2545 6398 0445 ee72 9845 dd5a 1845
000001e0: c46d 4d47 9182 1646 b2c1 da46 11a1 9747
000001f0: 80f4 1448 0d1a 4148 e466 1d48 6246 2048
00000200: b5ce 4f43 9a48 2144 b511 2944 99be 6847
00000210: 4467 4649 2185 ab49 4444 3a49 ccf6 e649
00000220: 54c0 6d47 47ca 9846 f77d a444 13d5 7b43
00000230: c0b2 9043 503e c243 42e3 1043 2ebe 1b43
00000240: 6211 0e43 5355 2a43 cd87 2243 508b f344
00000250: 0426 c245 0d3e 8f43 fdf7 9743 b058 6243
00000260: 5ec7 6244 5291 9143 aff7 d845 343b 8844
00000270: 5937 1445 60a5 b245 664b 4046 e411 7246
00000280: 600c 8e46 3351 8e46 7008 2c42 5115 da42
00000290: e3ff e742 8599 7345 c4ce 0b48 41f0 3348
000002a0: b920 bb47 48e6 3248 bf67 e848 4342 3248
000002b0: 6890 3846 1bd1 d744 2016 ed44 5ba7 e944
000002c0: 9fc7 5844 85b6 4e44 0740 5944 7c3f a644
000002d0: 50cf 8c44 74cc 0d46 fe5e bd46 76a4 e744
000002e0: 1d31 c644 54a5 ec44 6b03 9345 0604 1045
000002f0: 5b48 4547 0df4 2a46 2549 a246 3529 5a47
00000300: 1435 da47 d7d0 0b48 3c11 0348 ba8e 0648
00000310: 99f8 9443 e70a 4f44 7951 0743 252d 5147
00000320: 1c18 5c49 362d d649 2702 0549 59ca e049
00000330: af3e 2249 2653 3348 f463 2646 0acd fe44
00000340: df4a 0545 b541 3145 e0df 9944 cea2 9f44
00000350: 21ef 9644 cbdf bb44 56f6 b244 22ee 5046
00000360: 9836 4647 824e 2b45 9a45 2d45 e214 0745
00000370: 66ae d845 a2d2 3145 a84d 7f47 ed80 3346
00000380: 3cca d746 4d3d 8a47 b3ca 0748 368b 2e48
00000390: c7b5 2c48 2b5c 3048 30bf 9a43 2206 5944
000003a0: 4933 0f43 c081 4847 244d 8c49 fa4e ca49
000003b0: 8baf 3d49 60e4 d649 9791 8747 4268 7446
000003c0: e084 1d44 f935 1d43 e255 ce42 1ceb 9042
000003d0: 1017 b842 2be6 8f42 98fe 9942 ef7b dd42
000003e0: dfe5 d842 fa16 7c43 815c 1e45 a535 8543
000003f0: e19a 9543 ec26 4e43 e0f9 8343 5638 6943
