Data/Player1/checkpoint-advTest11.pth (torch, 500592 bytes, 28 tensors)

linear1.weight f4 [128, 34]
000000 1c 37 19 3f fc 1c 91 3e df 76 6b 3f e7 36 80 be
       0.59849715 0.28342426 0.9197826 -0.25041887
000010 e3 ed a6 be 92 95 3d bf 02 06 25 be 89 4f 39 3e
       -0.32603368 -0.7405635 -0.16115573 0.18096747
000020 88 df 9c 3e 73 26 4e be 87 1a 9f bf 33 cc cf bf
       0.3063929 -0.20131855 -1.242997 -1.6234192
000030 0b f4 01 bf 23 e7 43 bf c9 88 3d 3e a2 eb 8f 3f
       -0.50763005 -0.7652456 0.1850921 1.1243784
000040 e9 28 2d be 6d b7 86 be bd a3 e5 bc de a7 51 bf
       -0.16910137 -0.26311818 -0.028032178 -0.8189677
000050 b3 60 58 bf 51 c4 40 bf e9 bd a8 bd c4 93 a4 3e
       -0.8452255 -0.75299555 -0.082393475 0.32143986
000060 95 53 3b be 89 e0 f2 3e 2c 09 d0 3f c2 cc 0b c0
       -0.18293603 0.47436932 1.6252799 -2.1843724
000070 9b 4a 3d be b5 c9 89 3e 28 25 09 3f da 54 42 3e
       -0.18485491 0.26911703 0.5357232 0.18977681
000080 8a 71 45 bf 62 ed c8 bf 5f 19 27 bf 90 94 9e bf
       -0.7712637 -1.5697443 -0.6527309 -1.2389088
000090 22 45 65 be a9 68 4e bf f8 f4 92 bf 8a 68 bd be
       -0.22389653 -0.8062845 -1.1481009 -0.3699382
0000a0 46 e3 b1 bd 0f c5 28 bf 32 9d 1d bf 7f 5b 41 bf
       -0.08685927 -0.6592569 -0.61567986 -0.75530237
0000b0 d9 a4 aa bf a1 d5 e3 be ff 79 af bf a1 18 51 bf
       -1.3331558 -0.44498923 -1.3709105 -0.81678206
0000c0 48 d4 81 bf 97 cd 71 bf 2c d1 96 bf 4c 10 05 bf
       -1.0142908 -0.9445433 -1.1782584 -0.5197799
0000d0 20 05 c1 bf dd 38 e2 be 98 69 85 3e 24 51 4c bf
       -1.5079689 -0.44184008 0.26057124 -0.7981131
0000e0 96 bf 0a bf 25 db a7 3f 75 13 b9 bd 29 f7 12 be
       -0.54198587 1.3113753 -0.09036914 -0.14352097
0000f0 3f 6c ff bf 1e 0f f5 3e f1 0d d2 3e f1 be a4 be
       -1.9954909 0.47863096 0.4102626 -0.32176927
000100 69 03 a7 bc 9f 4a 18 bb ea 0a 0b 3e 72 5a e6 bd
       -0.020387368 -0.0023237837 0.13578382 -0.1124772
000110 eb 3a 33 3e 8a dd f0 3e 98 14 4e 3f c9 1c dc bd
       0.17502944 0.4704402 0.80500174 -0.10747678
000120 b1 96 23 bf 57 ac 63 bb 44 1d 96 be f4 23 0c 3e
       -0.6390181 -0.0034740174 -0.29319203 0.1368559
000130 dd e9 ee bd a8 e2 84 3e 61 7e 2c 3f 14 c4 f5 3e
       -0.116657 0.25954175 0.6738034 0.48001158
000140 59 db 2e 3f f0 95 0d bf 6b b7 86 3f be 4c 6f 3f
       0.6830345 -0.5530691 1.0524725 0.93476474
000150 71 30 ac 3f 4b e1 cb 3f 88 e7 1f bf 1b ab b2 bf
       1.3452283 1.5928129 -0.62462664 -1.3958467
000160 62 d7 7a 3f 8d 30 23 bf d5 93 52 bd 32 7b c0 bf
       0.979849 -0.6374596 -0.051410515 -1.5037596
000170 49 ca 60 bf c6 f7 e3 be 49 a6 74 3f 95 d5 08 3f
       -0.8780866 -0.44524974 0.9556623 0.534509
000180 c8 7e e1 be 58 da c0 ba a4 f2 0c 3e 4f c1 16 be
       -0.4404204 -0.0014713509 0.13764435 -0.14722179
000190 e9 9c b4 be 6b 99 43 be a4 10 f2 be 68 5d 82 40
       -0.35275963 -0.19101493 -0.4727832 4.073902
0001a0 71 a9 dd bf 11 09 aa be 07 20 a3 3e 27 73 0c 3f
       -1.7317334 -0.33210042 0.31860372 0.5486321
0001b0 c4 3e c4 3f 01 3d 36 3d 80 fe 0e 40 63 fe 97 3f
       1.5331655 0.04449177 2.2342834 1.1874508
0001c0 30 63 9b 3f 28 ed 93 3e a1 fd f8 bd 71 8e d6 bd
       1.2139645 0.28891873 -0.12157751 -0.10476387
0001d0 7c fe b6 be 22 e1 aa 3e bf ef b1 be 01 36 3b 3e
       -0.3574103 0.33374888 -0.34753224 0.1828232
0001e0 01 9d 05 3f 1b a4 1e 3e e3 70 9b 3e 4b 47 3a be
       0.52192694 0.15492289 0.30359563 -0.18191259
0001f0 2e 2f c8 3e a8 75 67 3c 12 11 a9 bd 9f ec c4 3d
       0.39098495 0.0141271725 -0.08255209 0.096154444
000200 73 c0 d5 bf 04 ee 9b 3f 19 d3 03 c0 5c d6 da be
       -1.6699356 1.2182012 -2.0597594 -0.42741668
000210 9c 68 4d 3d 5d e4 bd 3d e2 b1 8c 3d 59 9c 19 bd
       0.05014859 0.092720725 0.06869866 -0.03750262
000220 99 8b 20 40 5c 33 28 40 19 a7 87 3f 81 e1 a9 3e
       2.5085204 2.6281347 1.0597869 0.33179858
000230 00 be f1 bd 3f c0 0c 3f 2e b9 31 bf ea cf 15 3f
       -0.11803818 0.54980844 -0.69423187 0.58520377
000240 e9 98 64 3f 95 8a d6 bd 41 14 6e bf 27 e0 05 3e
       0.8929582 -0.10475651 -0.92999655 0.13073789
000250 e9 0d 08 bf 21 04 f7 3e da 59 92 3e 24 7e 12 3f
       -0.53146225 0.48245338 0.28584176 0.57223725
000260 be d3 74 3e 1e 52 10 3b 0e 22 71 3d da 8c 3c bd
       0.23908898 0.0022021602 0.058870368 -0.046032764
000270 55 99 47 bc b9 ff b6 3e ef 9d 82 bc a4 cb 26 be
       -0.012182553 0.35741976 -0.01594445 -0.1628862
000280 18 65 77 be d6 63 a9 be 93 21 94 3f 60 f3 e8 bf
       -0.24159658 -0.3308398 1.1572746 -1.8199272
000290 a2 1d 84 3c f5 be 69 3f 7e df 56 bf c5 c8 eb 3d
       0.016127411 0.91307 -0.8393477 0.11512903
0002a0 3e 03 58 bf 17 da d4 3d c8 2b 14 3f 0d bf 33 bf
       -0.8437995 0.1039316 0.57879305 -0.70213395
0002b0 87 43 af 3e b2 28 03 bd 8d 0a 58 3e e5 f8 f1 3d
       0.34231207 -0.032021232 0.21097775 0.11815051
0002c0 5a c4 79 3e b6 09 cb 3e 57 2c 38 3e a5 5f f7 3e
       0.24391308 0.39655846 0.17985664 0.48315158
0002d0 15 18 7e 3f 06 2b ba bf 0b fa c4 be 06 2e 88 bf
       0.99255496 -1.454438 -0.38472018 -1.0639045
0002e0 0d 31 32 3f c8 92 c6 ba 52 6f 83 3e 6e 63 cc bd
       0.69606096 -0.0015149945 0.25670868 -0.09979902
0002f0 e5 c8 d3 bf 04 a6 ef be 9b 1e f2 3e 46 67 ef bd
       -1.6545683 -0.46806347 0.47288975 -0.1168962
000300 93 7f ac be 02 f5 20 c0 59 1b 5d 3c f8 46 41 be
       -0.3369108 -2.514954 0.01349529 -0.18874729
000310 f0 da 15 40 20 0e 12 bf 97 37 95 3f cb 7b 89 3e
       2.341488 -0.57052803 1.165759 0.2685226
000320 9f a2 16 3e 5f f3 81 3d df 5f 24 be 18 b3 15 3e
       0.14710473 0.063452475 -0.16052197 0.146191
000330 e2 0b df 3e 37 a6 64 3f 9e d9 01 be 3a e0 52 3e
       0.43563753 0.89316124 -0.1268067 0.20593348
000340 30 74 fa 3e d9 89 46 be e4 75 18 40 e5 00 a9 bf
       0.4891677 -0.19388522 2.3821955 -1.3203398
000350 6a b8 9e bf 13 b3 ba be e1 b4 42 bf 8e 59 a2 3f
       -1.2400029 -0.36464748 -0.7605725 1.268358
000360 dc f9 a5 be 53 5e 65 be ff fb 2d be 97 60 64 bf
       -0.3241719 -0.22399263 -0.1699066 -0.89209884
000370 18 0b c9 bd 83 c1 c3 3d 2f 94 bd be 81 d3 a9 3d
       -0.09816569 0.09558394 -0.37027118 0.08292294
000380 79 c8 a4 be e0 fe 17 bf e8 54 46 bd 68 0a f1 bc
       -0.32184198 -0.59373283 -0.048420817 -0.029423907
000390 4a 69 60 be 63 3b b5 be b7 35 a0 3d a5 bd b6 3e
       -0.21915165 -0.3539687 0.07822745 0.35691562
0003a0 a3 7e 43 bf 76 3a 09 bf 00 2d a0 bf e0 0d 6d bf
       -0.7636511 -0.5360483 -1.2513733 -0.92599297
0003b0 a5 27 be 3e dc 72 8c b9 c9 81 c3 3e 5f 87 48 bf
       0.3713962 -0.00026788458 0.38184956 -0.7833156
0003c0 53 7d 49 bf be fa 2b bf 41 fc aa 3e bd 50 ad 3f
       -0.78706855 -0.6717948 0.3339558 1.3540264
0003d0 81 72 6c bf c2 e5 87 bd 10 30 a8 3f 83 b9 76 3d
       -0.9236222 -0.0663562 1.3139668 0.06023551
0003e0 68 64 92 3d 40 04 5c c0 ee f3 7d 3f d3 4f e2 bd
       0.07148057 -3.4377594 0.9920033 -0.110503815
0003f0 7d 83 18 be 3f 1b 9c 3e 12 e7 99 3f c1 a3 a7 3e
       -0.14893909 0.30489537 1.2023642 0.32742122

linear1.bias f4 [128]
000000 46 8c 1a be 9d 98 63 bf c0 a9 2a bf 68 a3 8e 3f
       -0.15092573 -0.88904744 -0.6666527 1.1143618
000010 4e 7e 12 bf a8 e5 4e be f8 c8 64 bd 95 bc 90 be
       -0.57223976 -0.20204794 -0.05585572 -0.28268877
000020 8e f5 4a 3f 76 25 17 be 55 09 c8 be 22 57 06 bf
       0.79280937 -0.14760384 -0.3906962 -0.52476704
000030 15 d1 d1 be 5e 55 d9 be d4 8b 55 be 42 e0 c3 be
       -0.4097983 -0.42447942 -0.20854121 -0.38257033
000040 c9 bd 95 be d1 b1 26 bf 2a d2 eb be 99 18 53 bf
       -0.29246357 -0.65115076 -0.4605878 -0.8245941
000050 11 23 9a be b4 13 9b be 83 a3 b9 be b6 06 06 bf
       -0.3010488 -0.3028847 -0.36257562 -0.5235399
000060 00 40 1a be ce 7c 0c bf a2 90 2f 3f 21 9d 81 3f
       -0.15063477 -0.54877937 0.6858007 1.0126077
000070 56 fe d7 3e 6a 7e d2 be 55 3b d4 bf 59 64 17 bf
       0.4218623 -0.4111207 -1.6580607 -0.59137493
000080 68 c4 b2 bf dd ae 24 bf 18 13 b4 3e 12 0f d0 be
       -1.3966188 -0.6432932 0.35170817 -0.40636498
000090 9d 7d ae 3e ed c6 55 bf 70 42 13 be c2 f9 18 3e
       0.3408021 -0.8350666 -0.14380813 0.14939025
0000a0 68 89 80 bf 47 a4 08 3f 71 bd 8d be e2 7c 7a 3f
       -1.0041933 0.5337567 -0.27683595 0.97846806
0000b0 0b 27 08 be a1 bc 21 3f 2c 2a 27 be 82 d3 ff bf
       -0.13296144 0.6317845 -0.16324681 -1.9986422
0000c0 90 01 fa 3e 41 03 88 3f 80 00 62 bf ff 8a ce be
       0.48829317 1.0625993 -0.8828201 -0.4034042
0000d0 38 06 01 bf 5b ad 77 bf c2 9d 68 bf 78 28 d5 bf
       -0.50400114 -0.96748894 -0.9086572 -1.6652975
0000e0 49 cb 58 bf 27 25 1a bf 96 8b 02 c0 5d 3c f2 bd
       -0.8468519 -0.6021294 -2.0397696 -0.1182792
0000f0 87 35 4a 3f 55 85 6a 3e 44 3a 4b be 33 13 3d 3f
       0.78987926 0.22902425 -0.19846445 0.7385742
000100 c6 c0 92 3e 2d 8d de bc 8d 99 ea bc ed ba 94 3f
       0.286627 -0.027166927 -0.028637672 1.1619545
000110 24 7b 46 bf f0 72 3b bf 57 92 cb bd 55 38 41 3f
       -0.7753165 -0.73222256 -0.099400215 0.7547658
000120 5a 88 75 bf 6e af 2c 3f d4 9f db be 61 a3 8b bf
       -0.9591118 0.67455184 -0.42895377 -1.0909234
000130 bf 01 4d bf a7 14 03 bf 80 54 59 bf a7 03 95 bf
       -0.8008079 -0.5120339 -0.8489456 -1.164174
000140 d1 d2 19 bf 83 2f 86 be 22 c0 22 3f 16 e8 0c bf
       -0.60087305 -0.26208124 0.6357442 -0.55041635
000150 76 c3 24 bf 5e 81 a9 3e 64 e6 8a be 3e 4b 17 bf
       -0.6436075 0.33106512 -0.271289 -0.59099185
000160 73 79 0e 3f a2 3e 4e bf 53 d8 aa bf d2 ee 7d 3e
       0.55654067 -0.8056432 -1.3347267 0.24798134
000170 5d 85 52 bf 21 45 06 3f b1 34 76 bf dd 0e 04 be
       -0.82234746 0.5244923 -0.9617415 -0.12896295
000180 b6 ec 4c 3f 83 69 df be 23 74 4d 3f b9 b3 89 3f
       0.8004869 -0.43635187 0.80255336 1.0757972
000190 b7 0f 87 bf b0 06 41 be f8 9a bb be 7f 38 86 be
       -1.0551671 -0.18850207 -0.3664167 -0.26214978
0001a0 dc a5 f1 bd 5c c8 5e 3e 64 6b e5 be a2 14 d2 be
       -0.11799213 0.21756119 -0.44808495 -0.41031367
0001b0 fe 12 c5 be da 32 40 3d 0b f2 34 3f 5e f9 a8 bf
       -0.38491052 0.046923496 0.7068183 -1.3201101
0001c0 0a dc 24 be 07 0a 59 bf 9e 6d 35 bf 06 85 3e be
       -0.16099563 -0.84780926 -0.7087039 -0.18605432
0001d0 76 44 3f bf 2d a0 48 be 81 d1 33 be bd ac 94 3e
       -0.7471384 -0.19592352 -0.17560388 0.2903804
0001e0 a7 9c 97 3e b1 3f 17 be 86 08 1f 3e 20 db 9b bf
       0.29611704 -0.1477039 0.15530595 -1.2176247
0001f0 7e e1 f1 be 70 97 fe be 40 12 0f be 68 29 29 bf
       -0.4724235 -0.49724913 -0.13971806 -0.66078806

linear2.weight f4 [128, 128]
000000 f3 1d a7 bd 8c 4a 71 be 34 e2 3e 3e 3a df 80 3f
       -0.08160009 -0.23563594 0.18640977 1.0068123
000010 69 49 a3 3d 27 f5 01 bf ac 20 82 3b eb 4f 3a 3f
       0.07972986 -0.507647 0.00397118 0.72778195
000020 cd d2 e7 3e fc 93 0c 3f de b2 bc 3e f4 e3 b3 3d
       0.45278016 0.54913306 0.36855215 0.08783713
000030 59 c4 f2 3e 3e d4 43 bf 62 6a 88 3d 40 f8 bb 3e
       0.47415426 -0.7649573 0.06660916 0.36712837
000040 4d 51 d5 3e 53 88 da be 4e ff 39 3b f3 e9 9d be
       0.4166359 -0.42682132 0.0028380933 -0.30842552
000050 37 43 f4 bd 7c f5 98 bc e6 80 8c 3f f5 e1 4b 3e
       -0.11926883 -0.018671744 1.0976837 0.19910415
000060 64 1a a4 bf a1 87 ac 3d 8d 44 67 3f 78 5d 67 3e
       -1.2820554 0.08424307 0.90338975 0.22594249
000070 ab bc 85 3f 8e 52 71 3f 0d 7f fd be 12 d0 e9 3e
       1.0448202 0.94266593 -0.49510995 0.45666558
000080 96 a4 33 be 51 6d ff be ef 4a 84 be fc 20 63 3f
       -0.17543253 -0.4988809 -0.2583842 0.88722205
000090 6f 63 ac bd e0 ba 2e bf 15 ac 14 3f 24 ad 66 bf
       -0.08417403 -0.682539 0.58075076 -0.9010794
0000a0 48 25 a1 3e 16 62 b2 be 02 f6 d6 be c7 19 e2 3e
       0.31473756 -0.3484046 -0.41984564 0.44160292
0000b0 44 f3 fd be b5 d3 32 be 6c ff 1f 3f 49 eb 1a bf
       -0.4959966 -0.17463572 0.6249912 -0.60515267
0000c0 db 5c 63 bd c5 b4 84 3e 74 6e 80 be e2 a4 ee 3c
       -0.055508476 0.25919166 -0.2508427 0.029131357
0000d0 b6 d7 98 bc c6 8f bf be 76 cf 10 bf db f2 cd be
       -0.018657546 -0.37414378 -0.5656656 -0.40224347
0000e0 20 cc 33 bf a7 3b 3c 3e d5 59 19 bf 03 8e b0 3e
       -0.70233345 0.1838213 -0.599027 0.34483346
0000f0 f6 53 2f 3f e9 55 15 3f 02 2f f2 3d 0e a8 29 3f
       0.6848749 0.58334213 0.11825372 0.66272056
000100 45 71 48 3f 40 d7 a1 3e 30 d1 8e 3e a3 a4 56 3f
       0.78297836 0.31609535 0.27893972 0.83844966
000110 f5 e4 00 3d 55 90 8b be 93 f7 cd 3e fa 45 bb 3e
       0.03146835 -0.27258554 0.40227947 0.36576825
000120 9d 87 7e be a3 27 16 3f 95 7f 1b bf e4 3d 19 bf
       -0.2485642 0.5865423 -0.6074155 -0.5986006
000130 56 24 13 bd 73 c5 0c bf af b2 cc 3d 29 ff f7 bd
       -0.035923325 -0.54988784 0.09995019 -0.12109215
000140 c2 0a 53 3f 99 2b 99 3e af 04 c1 3e 55 44 ba be
       0.8243829 0.29916075 0.37698886 -0.36380258
000150 0a 88 ae be 14 95 e2 3d 39 e1 66 bf 7f 46 07 bf
       -0.34088165 0.11063591 -0.9018741 -0.52841944
000160 4c 6e 79 3f 3e 9a 8c be 6d 82 95 be c2 75 7e 3d
       0.97433925 -0.27461427 -0.2920107 0.06212402
000170 58 59 99 3e d7 a3 9c 3f 71 56 ba be f3 b9 d7 bd
       0.29950976 1.22375 -0.36394075 -0.10533514
000180 a7 23 ec 3e d1 d7 47 3f f7 0c 56 3e 72 3d 03 3f
       0.4612095 0.78063685 0.20903383 0.51265633
000190 22 e1 b4 be b9 6f 5f bf 92 a4 cb be 21 ee 7f be
       -0.35328013 -0.8727985 -0.39773995 -0.24993183
0001a0 1e 2d 67 3f 5f 4d 8a 3e 06 83 64 bf 0f 63 0b 3f
       0.9030322 0.27012154 -0.89262426 0.54448026
0001b0 7a d9 c2 3e 52 bf d5 3d 74 03 12 3f cb 31 cd be
       0.38056546 0.10436882 0.5703652 -0.40077052
0001c0 23 e5 5e bf 3d a7 82 be c5 1d da be 9b 9d 58 3f
       -0.87068385 -0.25518218 -0.42600837 0.84615487
0001d0 fe 09 12 be eb c7 f7 bc 9d 39 68 3f 8f b8 18 3f
       -0.14261624 -0.030246696 0.9071291 0.59656614
0001e0 16 9e 5e 3f 29 b5 01 3e b2 0e c3 be a4 20 ba be
       0.8695997 0.12666763 -0.3809715 -0.36353028
0001f0 bb 47 36 3f c3 a5 53 3c 66 88 38 bd 3b 66 37 3e
       0.712032 0.012917939 -0.045051955 0.17910092
000200 2e 5f eb be f0 a8 31 3e e8 d8 9f 3e 5a 7b ee be
       -0.45971054 0.17349601 0.31220174 -0.46578485
000210 f5 95 3d be 0b 88 ab 3e 58 b9 16 bf 43 d4 7e 3e
       -0.18514235 0.3350223 -0.5887656 0.24885659
000220 a1 08 ae bd 16 e3 d1 bd 71 34 3f be da 11 79 3e
       -0.084977396 -0.10248391 -0.18672349 0.24323216
000230 9f 1a 0e bf 8d 4c 01 bf c4 ea da be b6 60 13 bf
       -0.5550937 -0.5050743 -0.42757237 -0.57569444
000240 a5 ad 45 be 75 97 50 bf f4 a3 a2 bd 32 c6 47 3e
       -0.19304521 -0.81481105 -0.07941428 0.195092
000250 6e c1 ac bf 30 b4 49 bf 66 6a 46 3e 23 6b 2b bf
       -1.349653 -0.7879057 0.19376525 -0.6696035
000260 d7 58 d3 bb 32 bd fa 3d 53 16 07 bf 8e f6 44 bf
       -0.0064497995 0.122431174 -0.5276844 -0.7693871
000270 7b 11 d6 be 16 f8 f6 3e 5a cc 29 3f 6c 3c 41 3e
       -0.41810212 0.4823615 0.6632744 0.18870705
000280 71 6c 14 3f 36 73 39 3f 33 57 95 bd 0b 2a 87 bc
       0.5797797 0.7244142 -0.072920226 -0.01649954
000290 18 f2 a4 bf 34 79 39 3e 76 77 c5 3e 1f 05 a7 bf
       -1.2886381 0.18112642 0.38567704 -1.3048438
0002a0 02 3e 29 bf e7 5e 12 bf 5d e8 6f bf be 92 e8 be
       -0.6611024 -0.5717606 -0.93713933 -0.45424455
0002b0 55 61 8d bf 28 58 b7 be b2 bc 08 bf 52 ee 42 3f
       -1.1045328 -0.35809445 -0.53412926 0.761449
0002c0 9a b6 56 bf 5c 43 46 bf 0b 55 16 bd 7a 82 89 be
       -0.8387238 -0.7744653 -0.036702197 -0.26857358
0002d0 ea 4a de 3d 38 96 1b 3e c3 91 17 3f 5c 41 3e 3f
       0.108541325 0.15194023 0.5920679 0.7431848
0002e0 cb 64 fd be 75 16 aa bf 76 0e 7f 3f 64 2d 9e be
       -0.4949096 -1.3288103 0.9963144 -0.30894005
0002f0 e9 31 38 bf 9f ba 14 bf 32 cd 88 be 49 58 a1 bf
       -0.71951157 -0.5809726 -0.26719052 -1.2605067
000300 6a c0 1a 3f 2e 71 08 bf ec fb 15 bf 86 6f d2 be
       0.6044985 -0.532977 -0.5858753 -0.4110071
000310 e4 c6 68 be 2f 5f 61 3f 45 43 67 3f 6a 88 a0 bf
       -0.22732121 0.88035864 0.9033702 -1.254163
000320 33 6c 97 3e 33 6f 16 3f fb 26 04 bf db 77 ef 3e
       0.29574737 0.58763427 -0.5162198 0.4677113
000330 71 be 9f be de 02 0b be 20 7b 1f 3c fe 26 8f 3f
       -0.31199983 -0.13575312 0.009733945 1.1183774
000340 08 1e b2 bc e1 1c 6e be b9 e6 b7 3e cb b7 b2 3e
       -0.021742836 -0.23253204 0.35918215 0.34905848
000350 2a 0b 63 3e d3 c7 ed bd ff cd df 3e c3 f2 0f be
       0.22172228 -0.11610379 0.4371185 -0.1405745
000360 4b ee 29 3d e8 b1 c0 3e 2d b9 18 3f d8 7f c5 be
       0.04148702 0.37635732 0.59657556 -0.385741
000370 ea e5 f0 3d a8 59 c3 bf 52 a1 59 3f 53 d1 9e 3e
       0.117626026 -1.5261736 0.8501178 0.31019077
000380 98 b3 02 3e d4 df b4 bd 4f d2 f4 3e 9c 34 0d bf
       0.12763822 -0.08831754 0.47816703 -0.551584
000390 80 f5 40 3e c6 5e 18 bf fc 03 82 bd c7 49 da 3d
       0.18843651 -0.5951961 -0.06348416 0.10658603
0003a0 71 04 23 be 12 8b 2a bf fc db c0 be 5e d9 72 be
       -0.15919663 -0.66618454 -0.37667835 -0.23715732
0003b0 3b 18 1c bf 88 d5 52 bf 9a c1 61 bf b2 5b a7 3e
       -0.6097447 -0.8235707 -0.8818604 0.32687145
0003c0 4c 73 58 bf 91 45 cd 3e 21 5d a7 3e 4f 65 6d 3e
       -0.8455093 0.40092137 0.3268824 0.23183177
0003d0 33 23 07 bf 1c 44 ab bd 00 d5 21 bf fe e0 2d bf
       -0.52788085 -0.083626 -0.6321564 -0.67921436
0003e0 2e 8d 3e 3e 2f 4c 10 bf 21 9c 6d 3e 4d 29 eb be
       0.18608543 -0.56366247 0.2320409 -0.45929947
0003f0 37 ae e7 be 16 1d 4f bc 9d a9 54 bf 11 8f 1b bf
       -0.45250103 -0.012641212 -0.8307131 -0.60765177

linear2.bias f4 [128]
000000 6c dd e5 3f 90 a4 f7 bf e5 09 d0 be 84 d9 fc bf
       1.7958198 -1.9347095 -0.4063255 -1.975388
000010 04 90 79 bf 61 51 84 bf 71 25 8b bf 74 d6 a5 bf
       -0.97485375 -1.0337335 -1.0870801 -1.2956071
000020 1e b8 25 bf 32 16 ab bf 3f 7c 4f bf db 5c 03 bf
       -0.64734066 -1.3366148 -0.8104896 -0.5131356
000030 e8 7d 78 be 22 21 9f 3f 1a 9d d0 3f 04 7a 0e 3e
       -0.2426678 1.2431986 1.6297944 0.13913733
000040 0d 38 31 bf a3 37 52 bf 4a 8c 6d bf 56 d9 47 3f
       -0.6922615 -0.82116145 -0.9279219 0.78066003
000050 ba c5 c8 bf 3a 6f 42 bf 1d f0 92 bf de 48 85 3e
       -1.5685341 -0.7595097 -1.1479527 0.26032156
000060 2d 89 92 bf 3b 0c 85 bf 60 2e d7 be 50 a4 92 bf
       -1.1448113 -1.0394357 -0.4202757 -1.1456394
000070 1e 95 bc bf 11 b7 43 bf d4 d7 8b bf 9d fc bf be
       -1.4733007 -0.7645121 -1.092524 -0.37497416
000080 8d 8f 9c bf c4 ec 41 bf 89 59 62 be 30 80 f2 bf
       -1.2231308 -0.757519 -0.22104467 -1.894537
000090 69 9a 83 bf 54 fa a5 bf da 09 ae 3e 79 35 08 be
       -1.0281497 -1.2967019 0.3399189 -0.13301648
0000a0 4a 12 f6 be 11 ab ab bf d1 b1 d5 be 99 5d 96 bf
       -0.48060828 -1.341158 -0.41737226 -1.1747314
0000b0 fc f6 88 3f 9a bb 6c bf b0 f3 2c bf 79 f2 aa bf
       1.0700374 -0.9247376 -0.6755934 -1.3355247
0000c0 1f 99 7a bf 66 9a 7b bf 12 6a a7 3f 2a 02 c2 bf
       -0.97889894 -0.9828247 1.3079245 -1.515691
0000d0 77 a9 29 bf b3 d9 ab be 34 e0 14 c0 bf 3b 0a bf
       -0.6627421 -0.3356453 -2.3261843 -0.53997415
0000e0 7f c1 8c 3e 0a 14 7b 3d 05 8c 42 bf ce 90 1a 3e
       0.27491376 0.061298408 -0.759949 0.15094301
0000f0 ff e8 c7 bf f4 b5 a7 bf d5 c3 ac be 5c 29 17 c0
       -1.561798 -1.3102403 -0.33743158 -2.3618994
000100 52 60 89 3d 61 46 d5 be f6 46 9e bf 75 e4 bb be
       0.06707825 -0.41655257 -1.2365406 -0.36697736
000110 b1 3a b9 bf eb 64 dd 3c 44 fd ed be 5d 9c 47 bf
       -1.4471036 0.02702566 -0.4648229 -0.77972966
000120 ce 9b 16 c0 af bc b1 be 18 ac fb bf ca 5b 71 bd
       -2.3532596 -0.34714267 -1.9661894 -0.058925427
000130 66 f5 fa be c8 fc a8 bf 47 f7 87 bf 50 39 a8 be
       -0.4901535 -1.3202143 -1.0622338 -0.32856226
000140 d0 0c d0 bf d8 f1 da 3d 79 65 52 bf d9 22 81 bf
       -1.625391 0.10690659 -0.82186085 -1.008876
000150 31 bb c3 bf 1e 7e 13 c0 49 70 da bf 89 82 38 be
       -1.5291501 -2.3045726 -1.7065517 -0.18018545
000160 99 1c ba bf 4b 0d 8c bf 9d 3c 1a be 8b 62 16 c0
       -1.4539977 -1.0941557 -0.15062185 -2.3497646
000170 4c c0 b3 bf fa a4 0a bf 81 59 2a c0 8a 17 96 be
       -1.4043059 -0.54157984 -2.661713 -0.29314834
000180 37 39 34 3f 7f 4f d8 be d8 69 2d bf 4f 0a af be
       0.703998 -0.4224815 -0.6773963 -0.34187552
000190 73 5e df bf 0f 61 13 bf 1f d4 9b bf b8 62 3e 3f
       -1.7450699 -0.57569975 -1.2174109 0.7436938
0001a0 7f 5e ad bf 82 1d 14 c0 9d f8 9e be 69 0b 8c bf
       -1.3544463 -2.314301 -0.31049052 -1.0940982
0001b0 e4 ed 10 bc c2 af 8e 3e c1 dd 22 bf 37 ac a4 be
       -0.00884578 0.27868468 -0.6361962 -0.3216264
0001c0 bb 3b 3d be db c7 cf bf 80 63 04 3f 33 bb 07 c0
       -0.18479817 -1.6232866 0.51714325 -2.1208007
0001d0 47 c7 ba bf 53 2f 44 3d d2 8d 9a be d9 6d b6 bf
       -1.4592065 0.047896694 -0.30186325 -1.4252273
0001e0 31 69 99 3e 18 c6 f8 bf ec b7 88 bf 8d d9 95 bf
       0.29963067 -1.9435453 -1.0681129 -1.1707016
0001f0 af eb 96 bf b6 0e 3a c0 68 16 9c bf fc 8a 45 bf
       -1.1790675 -2.907148 -1.2194338 -0.771652

linear3.weight f4 [64, 128]
000000 f0 7a 99 be 8b c7 fd 3c c1 53 cf 3e 25 9b 88 3f
       -0.29976606 0.030978939 0.40493587 1.0672346
000010 f0 e8 17 3e a8 0a 9c be a7 8b 96 bd 65 d3 2d 3f
       0.14834952 -0.3047688 -0.07350855 0.6790069
000020 44 8e 4b 3e 43 f7 02 3d ea aa e9 3e d3 77 0f be
       0.19878489 0.03197409 0.4563821 -0.14010553
000030 6f d5 df be 5b 3a 07 be ae f7 aa bc a2 ea 87 3e
       -0.43717524 -0.13205855 -0.020870056 0.26546198
000040 c0 25 72 bb 11 f2 fa bd 41 fe f9 3d a1 11 c4 be
       -0.003694877 -0.12253202 0.12206698 -0.382947
000050 fb b3 62 3f 91 f6 0b bc 23 8d 29 be b2 9c 87 3c
       0.8855588 -0.008542673 -0.16557746 0.01655421
000060 bf 35 ef 3e bd 4e 1e be 5f 4f a8 3e 65 18 01 3e
       0.46720693 -0.15459724 0.32873055 0.12606962
000070 02 9f 7f 3e 9e e1 a2 bd 02 2a ec bb 6f c1 28 3f
       0.24963 -0.07953189 -0.007207156 0.65920156
000080 7d cc 09 3e a0 60 44 be 63 83 a0 3e 89 62 06 3f
       0.13456912 -0.19177485 0.3135024 0.524941
000090 bd ab 61 be 1d 1f b2 3c bb 4b 89 be ee 81 00 be
       -0.22038169 0.021743352 -0.2681559 -0.12549564
0000a0 a2 56 08 3f 9c 18 08 be 09 69 6b 3d dc da 29 3f
       0.5325719 -0.13290638 0.057473216 0.6634958
0000b0 bc 83 4e be 4f 19 3f 3f 8e 34 94 3e c7 a8 f4 3e
       -0.2016744 0.7464799 0.28946346 0.47785017
0000c0 12 d4 5e bf b4 51 c8 be 42 ab cd bc 33 60 e7 bd
       -0.87042344 -0.39124835 -0.025106076 -0.112976454
0000d0 36 3c c0 be 22 c0 9e 3e f8 93 f1 bb e3 cd 41 3d
       -0.37545937 0.3100596 -0.0073723756 0.04731549
0000e0 57 d3 57 3d cf b6 0a 3e a7 5b 00 bf 42 61 b7 3c
       0.052691784 0.13546298 -0.5013985 0.022385243
0000f0 b8 f1 29 3d 44 1a 77 be 69 1e 2a 3f 2a 4b a0 3e
       0.041490287 -0.24131113 0.6645265 0.31307346
000100 8a b2 30 bc 7c 3d 51 3d 67 84 2c 3d f4 a4 d0 3c
       -0.0107847545 0.051084027 0.042118456 0.02546928
000110 80 33 5f be 65 b6 ef ba 3d 0f 96 bd 8a 6b f6 3e
       -0.2179699 -0.0018288611 -0.07327125 0.4812892
000120 e1 b7 32 bd 31 1e 6a 3f a9 8d d9 3e 93 1a 08 bd
       -0.04363239 0.9145232 0.4249089 -0.03322847
000130 20 a4 99 3e c1 65 9f 3e 34 d8 2e bf 4c 3c 32 bd
       0.3000803 0.3113232 -0.6829865 -0.043514535
000140 a6 a2 02 3f 14 46 11 bd a0 d5 1d b9 07 d2 0e 3f
       0.5102943 -0.035467222 -0.00015052268 0.55789226
000150 1d ab 93 3e 3a b8 28 3f 15 c1 5f bd 1d 9c a3 3e
       0.28841487 0.6590611 -0.054627497 0.31955042
000160 be 6e a6 3e ac 6c 26 be b0 50 2b be ef 8b e0 3e
       0.32506365 -0.16252393 -0.16729999 0.4385676
000170 2f 13 05 3f f0 27 ff 3e e8 3b 71 3f af 8c be 3e
       0.51982397 0.49835157 0.94232035 0.37216708
000180 5e 3b cb bd ee 13 d3 be d8 83 53 3f 7d 6c 48 3e
       -0.09923433 -0.41226143 0.8262305 0.19572635
000190 0b ef ab 3d d3 e9 ac 3d 7b 4d 4d 3d f4 3a d4 3e
       0.08395203 0.08443036 0.05012272 0.41451228
0001a0 0b f4 4c 3a 92 10 f8 3e 5f 8a 06 3f ee 5e be be
       0.00078183477 0.48450142 0.5255489 -0.371818
0001b0 5d 3f 70 be 7b 39 3f bf 49 c0 f4 3e 8a 8e a9 3e
       -0.23461671 -0.74697083 0.47802952 0.3311656
0001c0 76 54 5f 3e 23 a4 41 3f 05 99 ab 3c 45 0a 80 3e
       0.21809563 0.7564108 0.020946989 0.25007835
0001d0 de cd e6 bc 46 a0 65 3c 01 07 21 3f 11 60 53 3e
       -0.028174337 0.014015263 0.6290131 0.20642115
0001e0 e2 8e 12 be b4 e2 f8 3e 76 27 db bd 20 93 04 be
       -0.14312318 0.4861046 -0.10700886 -0.12946749
0001f0 27 c5 0f 3f 5a c3 01 3f 4f 39 12 be 32 79 ac 3e
       0.56160206 0.5068871 -0.14279674 0.33686215
000200 44 a2 0a bd 8a 18 60 3c ee 6a 15 be 87 c0 aa 3e
       -0.033846155 0.013677726 -0.14591572 0.33350012
000210 f7 9c 97 3e 2d cd db be a2 e3 20 3f 3a d5 1b 3f
       0.29611942 -0.42929974 0.6284734 0.6087223
000220 82 8c 02 3f 58 78 a3 3e 6c 75 0c bd 16 34 32 3d
       0.5099565 0.31927752 -0.03429167 0.043506704
000230 21 16 67 3f 8c 33 90 be 4a d3 86 be 51 d6 b2 3b
       0.9026814 -0.28164327 -0.26333076 0.0054576774
000240 dc 86 73 3e 11 62 3e bf ad 2e 51 bd c4 30 18 bf
       0.23781914 -0.7436839 -0.051069904 -0.5944941
000250 79 a5 8c 3b c0 77 8b 3d 6b 58 4c 3e 64 0f e3 be
       0.004292187 0.0680995 0.19955604 -0.4434768
000260 ea d8 74 be a3 d3 87 3e 33 b3 0f 3d 85 f5 1b 3e
       -0.23910871 0.26528654 0.035083007 0.15230377
000270 e6 7d 2f 3e 44 ba 77 be 74 06 02 3e 8a a1 bf be
       0.1713787 -0.24192148 0.12697774 -0.37427932
000280 48 1c eb 3e 59 f0 6c 3e de 76 bb 3e c5 a6 b0 3e
       0.45920014 0.2313856 0.36614126 0.34502235
000290 45 f3 f8 be 75 a3 a3 3e 12 6d 13 be c1 65 c6 3f
       -0.486231 0.31960645 -0.14397076 1.5499803
0002a0 38 e4 dd 3c 1c c0 56 be dc fc e5 3e 0a 9d 18 be
       0.027086362 -0.20971721 0.4491948 -0.14903656
0002b0 a7 be ed bc 35 ac d5 bc 8e 5b 4c 3f 7d 29 9d 3e
       -0.029021574 -0.026083091 0.798272 0.30695716
0002c0 e7 46 43 be 38 51 f1 bc e9 19 b6 be 77 9b 81 3e
       -0.19070016 -0.029457673 -0.35566643 0.25313923
0002d0 9b 50 8c be 29 0c 19 3f e9 d3 aa 3d b8 dc d6 be
       -0.27405247 0.5978418 0.083412 -0.4196527
0002e0 70 b2 9c 3e 65 3d 04 3f d3 3f 1a bf 4f 57 ac bd
       0.30604887 0.5165618 -0.6025364 -0.0841509
0002f0 8e d8 a1 3e 69 81 28 be 87 8f 7b 3d ec f8 f4 3d
       0.3161053 -0.16455616 0.061416175 0.119615406
000300 36 ca 53 bf 29 0a d1 bd bb 96 9e be a5 8e 15 bf
       -0.82730424 -0.10207016 -0.30974373 -0.58420783
000310 10 3c 21 3e b1 da 55 3f c3 9d 9b bf d9 bf 2a bf
       0.15745568 0.8353682 -1.215752 -0.66698986
000320 25 1a 98 3e 74 8e 22 bd bb 7d 06 bd 12 ca e8 be
       0.29707447 -0.039686635 -0.03283475 -0.45466667
000330 96 7d 8c 3e 87 90 80 be df b9 b1 3e b8 4a 7f be
       0.27439564 -0.25110266 0.3471212 -0.24930847
000340 e3 ce 97 be 60 be 70 be 51 ea 5e 3f 1f 53 58 3c
       -0.2965003 -0.23510122 0.8707629 0.013203411
000350 3d ab e3 3e c5 60 c6 3e 76 61 06 3e 57 64 1b be
       0.44466582 0.38745704 0.13123116 -0.15174995
000360 c0 2e 20 be da 31 57 be e4 83 a0 be 96 d7 e6 3d
       -0.15642834 -0.2101511 -0.31350625 0.112715885
000370 32 5f 4b bd 54 0a 17 be af 7d 48 3e ac 10 44 3f
       -0.049651332 -0.14750034 0.19579194 0.7658794
000380 fc 8d 50 3e 73 6f b0 bf 03 8f 89 3e a4 75 9f 3e
       0.20366663 -1.3784012 0.26866922 0.3114444
000390 ba 73 55 3e 3b 10 d5 bd 9a dd 85 be 30 55 f4 be
       0.20844927 -0.10403486 -0.2614563 -0.47721243
0003a0 87 26 08 bf 22 2b cd 3c af 53 ae bd db 83 92 3e
       -0.5318379 0.025044981 -0.08512055 0.28616223
0003b0 1d 64 32 3e af c2 af bd 6a 69 2a 3e 44 5b ff be
       0.17421003 -0.08582055 0.16641775 -0.49874318
0003c0 f9 57 dc be 65 2b 5c be 27 bf c6 bd fd 37 49 3e
       -0.43035868 -0.21500929 -0.09704428 0.19650264
0003d0 9a bd 40 3e 09 3a 3f bf 1a a1 45 3e 01 78 19 3c
       0.18822327 -0.7469793 0.19299737 0.00936699
0003e0 b9 5c 2e bf 8f 70 15 3f 48 d5 51 be d9 03 b3 3d
       -0.68110234 0.58374876 -0.20491517 0.08740968
0003f0 86 78 99 3d 8c 3c 82 3e 64 28 5c 3f 34 70 f0 3e
       0.07493691 0.2543682 0.8599913 0.46960604

linear3.bias f4 [64]
000000 d4 b7 bc bf 33 9c f8 3d 77 66 e2 bf 17 fc ad bf
       -1.47436 0.12139168 -1.768752 -1.3592557
000010 5b 10 97 3e fa e3 c4 be 44 29 a0 bf 55 fb c6 bf
       0.29504666 -0.38455182 -1.2512593 -1.554545
000020 78 f4 a9 be e8 99 e6 3d bc 79 be bf f6 8b a2 bf
       -0.33194327 0.11259824 -1.48809 -1.2698963
000030 c0 fd 8f bf 78 46 79 bf 92 ff e2 bf 2d 8e cd bf
       -1.1249313 -0.9737315 -1.7734244 -1.6059014
000040 63 1e c0 bf 22 c0 a5 bf 5d 1d 0f bf 48 44 ac bf
       -1.5009273 -1.2949259 -0.5590418 -1.3458338
000050 a4 39 c3 bd 43 32 fb be 44 e3 df 3f 93 42 0d bf
       -0.095324785 -0.49061784 1.7491231 -0.5517971
000060 78 de dd bf ae fe aa bf 25 af 8a bf 65 cf a5 bf
       -1.7333517 -1.3358972 -1.08347 -1.2953917
000070 0b ee 1e bf 6a 3e 98 bd 70 04 8a bc 4e a5 ab bf
       -0.62081975 -0.074337795 -0.01684782 -1.3409822
000080 36 13 bf bf 51 d6 c6 bf c8 26 e5 bf 5b 0c e8 bf
       -1.4927738 -1.5534154 -1.790246 -1.812877
000090 8f bd 0a 3f 4d a5 31 bf bc e2 bb bf 64 5a e4 bf
       0.54195493 -0.69392854 -1.4678569 -1.7840085
0000a0 0a b6 4f bf 19 37 10 be 37 98 93 bf 8a a8 79 bf
       -0.81137145 -0.14083518 -1.1530827 -0.97522795
0000b0 52 3f c4 bf 43 bc b7 bf f4 66 82 bf e5 eb d7 bf
       -1.5331824 -1.4354328 -1.0187669 -1.6868864
0000c0 90 96 cb bf 9c 17 a6 bf 05 c0 16 c0 ec 42 95 bf
       -1.5905323 -1.2975955 -2.35547 -1.1661048
0000d0 34 e3 b9 bf bb d7 8b bf f9 81 3f bf a7 3e 7e bf
       -1.4522462 -1.0925211 -0.748077 -0.9931435
0000e0 7a 90 fa bf 68 74 c7 bf ec c6 d0 bf 9f 63 c0 bf
       -1.9575341 -1.5582399 -1.6310706 -1.5030402
0000f0 79 c8 d1 bd c3 61 44 3e 0c 36 65 bf 37 8b 99 bf
       -0.10243315 0.19177918 -0.89535594 -1.199561

output.weight f4 [1, 64]
000000 5e 6b a9 be fc d6 51 3e ff ea 88 be b5 3e 7d be
       -0.33089727 0.20492166 -0.26741788 -0.24730952
000010 e7 b7 a7 3e 07 ed e4 bd 74 56 f5 be 24 79 79 be
       0.32757494 -0.11178022 -0.4791752 -0.24362618
000020 ea 64 fa 3d e4 2c be 3e 8b be c2 be 6a fd ea bd
       0.12226279 0.37143624 -0.38035998 -0.11474116
000030 88 cd a8 be f7 bc 1b bd 28 6e 67 be 3d d1 01 bf
       -0.32969308 -0.038022008 -0.22600615 -0.507099
000040 70 73 e1 be 2f 93 67 be b9 80 b4 3c 4b da 93 be
       -0.44033384 -0.2261474 0.022034036 -0.28877482
000050 54 bc f1 be 00 98 80 3e 00 06 e1 3d a3 d2 c1 be
       -0.47213995 0.25115967 0.109874725 -0.37856016
000060 57 8f 4d be 1a 1a 99 bd d4 00 2b 3e f2 b7 b6 be
       -0.20074211 -0.074756816 0.16699535 -0.35687214
000070 1c a5 92 be 13 25 00 be 40 27 6c be 42 ee 26 bd
       -0.28641593 -0.12514143 -0.23061848 -0.040754564
000080 12 0b 90 be 56 d2 20 3e cd 22 84 be 37 95 65 be
       -0.28133446 0.15705237 -0.258078 -0.22420202
000090 06 e6 be 3e 04 14 93 be c4 43 98 be 0b 59 70 3d
       0.3728487 -0.28726208 -0.297392 0.058678668
0000a0 d4 ea d7 be 28 46 80 3e 2e b5 c5 be 6c eb 07 3e
       -0.42171347 0.25053525 -0.38614792 0.132734
0000b0 16 f7 38 be 16 80 a3 be ff 12 28 3d 12 6c ef bd
       -0.18063006 -0.3193366 0.04103374 -0.11690535
0000c0 4a 55 9b be 8e 9d 08 bf f1 f6 ef bd 80 67 4b be
       -0.30338508 -0.5336541 -0.11717022 -0.19863701
0000d0 a5 71 c7 3d be f8 5c be a5 87 cd be 31 23 c6 3e
       0.09738473 -0.21579263 -0.4014255 0.38698724
0000e0 45 f8 70 be 6c 33 a0 be bf 8b 84 be 14 ec b8 be
       -0.23532207 -0.31289232 -0.25887868 -0.36117613
0000f0 15 6a 3a 3e f6 d0 6b bd 5a e6 ad 3d d4 a7 19 be
       0.1820453 -0.057572328 0.08491202 -0.15005428

linear1.weight f4 [128, 34]
000000 8c 04 63 3f c0 f9 8b bd 8c 48 9c 3f 3a e8 7d be
       0.88678813 -0.068347454 1.220964 -0.24795619
000010 8f 9f 03 be c2 f9 3e bf 8b 2f 9c 3e 89 0e 45 3e
       -0.12853836 -0.7459985 0.30505022 0.19243826
000020 ea c0 b5 3e 23 be 10 3a 8b 87 df bf 89 ed a5 bf
       0.35498744 0.00055214966 -1.746324 -1.2963115
000030 0b c1 62 be 82 08 7b bf 00 9a 7a 3e dd 57 62 3f
       -0.22143953 -0.98059857 0.24472809 0.8841532
000040 84 1c e4 bd f6 bc 85 be 74 87 0b 3e 8a b5 8c bf
       -0.111382514 -0.26120728 0.1362589 -1.0992901
000050 84 e8 9e bf fe 30 de be 17 7f 98 be 79 64 80 3d
       -1.2414708 -0.43396753 -0.29784462 0.06269164
000060 31 6c 85 be 26 0f ab 3e 04 e5 c6 3f d4 c9 ef bf
       -0.26059106 0.33409995 1.553864 -1.8733468
000070 08 fe fa 3e 5e be bc bd 02 2e dd 3e a1 b3 2a 3e
       0.49021935 -0.09215997 0.43199164 0.16670085
000080 b3 ba 80 bf fc c0 c8 bf b8 07 41 bf f9 65 72 bf
       -1.0056976 -1.5683894 -0.754024 -0.9468685
000090 d0 b3 7d be e4 e0 3c bf 7a 04 83 bf b0 32 e5 be
       -0.24775624 -0.73780656 -1.0235741 -0.44765234
0000a0 04 c9 96 3d 15 54 9c be d8 94 03 bf 01 e1 36 bf
       0.073625594 -0.305329 -0.5139899 -0.7143708
0000b0 cd 90 d2 bf 27 e3 09 bf 72 b3 ab bf 7f ad 85 bf
       -1.645044 -0.5386223 -1.3414137 -1.0443572
0000c0 18 81 b2 bf 3f f2 88 bf ba b0 77 bf 10 68 af be
       -1.3945646 -1.0698928 -0.9675404 -0.3425908
0000d0 9e e9 df bf 55 cd a3 be 6f 6c d3 3e 30 5b 4b bf
       -1.7493169 -0.31992593 0.41293666 -0.79436016
0000e0 a7 8d f7 be bf 77 a2 3f 9e 80 7f 3d 27 19 76 bd
       -0.4835026 1.2692794 0.06237852 -0.06008258
0000f0 78 bf 01 c0 6c 77 b2 3e 7f eb 5b 3f 34 77 56 be
       -2.0273113 0.34856737 0.85906214 -0.2094391
000100 bb f2 d2 bb 74 41 86 bd 9f f3 ad 3d 35 9c 1b be
       -0.006437627 -0.06555453 0.08493733 -0.15196307
000110 c9 b0 45 3e 27 07 ce 3e 19 03 22 3f 76 ed fc be
       0.1930572 0.40239832 0.63285977 -0.49399918
000120 7a 00 32 bf 09 03 26 bd 5f 26 f0 be 61 68 0a 3e
       -0.6953198 -0.04053024 -0.46904275 0.1351638
000130 67 6c ae 3a 3c e2 56 3e 03 bb 45 3f 79 78 3d 3f
       0.0013307453 0.20984739 0.7723848 0.7401195
000140 27 51 11 3f 91 92 3b bf e9 54 a7 3f 6d 94 83 3f
       0.56764454 -0.7327052 1.3072788 1.0279671
000150 18 d7 a7 3f a2 d2 e2 3f 50 c6 f7 be 1a 2c b1 bf
       1.3112516 1.772053 -0.48393488 -1.3841584
000160 e2 8e 91 3f 4d 79 76 bf 0d 74 bd bb cb 54 be bf
       1.1371729 -0.9627884 -0.0057816566 -1.4869627
000170 7a 87 3d bf eb 83 6a be c6 82 6a 3f ef 69 c6 3e
       -0.74034846 -0.22901885 0.91605794 0.38752696
000180 a7 0f 79 be 68 f2 f3 3d d4 7c 75 3e 34 fc 4b bd
       -0.24322377 0.1191147 0.239734 -0.049801067
000190 32 29 7c be c1 9b fc bd 3a d2 ad be cb a4 88 40
       -0.2462509 -0.12334395 -0.33949453 4.2701163
0001a0 c4 2e 97 bf 76 fe da be 6c 32 5c 3e 0c c6 1f 3f
       -1.1811147 -0.42772263 0.2150361 0.6241157
0001b0 2b f7 91 3f f3 4b 20 3e 1e 0d 3f 40 61 16 90 3f
       1.1403555 0.15653972 2.9851756 1.125683
0001c0 4d 65 4f 3f b0 9f 83 3e 8a b9 16 be 99 93 27 bf
       0.8101395 0.2570777 -0.14719215 -0.6545959
0001d0 21 2f 5e be da d6 dc 3e 91 6e f5 be 6a cf 1b 3f
       -0.21697666 0.4313267 -0.47935918 0.60863364
0001e0 3c a4 09 3f 13 de d9 3e a1 f3 6c 3e 0d c4 c6 be
       0.53766227 0.42552242 0.23139812 -0.3882145
0001f0 1f a8 1a 3b 73 10 15 3d 2c 4e 48 be cc 1b 20 bd
       0.0023598743 0.03639264 -0.1956107 -0.03908901
000200 04 f7 da bf 4f 29 bb 3f d7 a0 2d c0 eb 1a cf be
       -1.7106633 1.4621981 -2.712942 -0.40450224
000210 d2 9f c9 bc e4 1b a8 3d 74 0b f8 3c 71 3d dc 3d
       -0.024612341 0.08208445 0.030278899 0.107539065
000220 28 e8 2b 40 85 a4 18 40 71 7d 79 3f ef d1 31 3e
       2.6860447 2.3850415 0.97457033 0.1736524
000230 9a 94 3f 3e 30 f7 00 3f d9 ff 02 bf cd 6d a3 3e
       0.18709031 0.5037718 -0.5117164 0.3191971
000240 fe 04 17 3f 12 62 00 3e e4 83 24 bf 9e 64 c1 bc
       0.5899199 0.12537411 -0.6426375 -0.023607548
000250 02 56 2d be 9f 7b a1 3e d3 c3 f2 3e 3b b2 6e 3e
       -0.1692734 0.31539628 0.47415027 0.23310177
000260 45 df e4 3e 54 c9 a1 3d b6 a2 84 be 5a 5f e9 ba
       0.4470159 0.078997284 -0.2590539 -0.0017804906
000270 a5 f1 4a 3e e8 e0 9a 3b 9b 76 a1 3d 6a f7 90 be
       0.19818743 0.004726518 0.0788395 -0.28313762
000280 3f 18 2b bc f3 38 42 be 37 79 b7 3f 2d fc c7 bf
       -0.010442792 -0.18967037 1.4333867 -1.5623833
000290 38 82 bd bd be 5c 3b 3f d1 86 1c bf 7d b1 18 3e
       -0.09253353 0.7318839 -0.61143214 0.14911456
0002a0 9e ea 4e bf 57 3c 2d 3d b1 93 af 3e cc fc cb be
       -0.8082675 0.042293873 0.34292367 -0.39841306
0002b0 cf e4 14 3f b7 09 72 3d d1 97 4c 3e 11 26 25 3e
       0.58161634 0.059091296 0.19979788 0.16127802
0002c0 d0 ad 2f 3e 18 98 b7 3e 7c f4 ae 3d fa 86 4e 3f
       0.17156148 0.35858226 0.085427254 0.8067471
0002d0 4b 9d 25 3f 63 69 9e bf 15 c0 87 bd 27 55 b6 bf
       0.64693135 -1.2375911 -0.066284336 -1.4244736
0002e0 62 e4 9b 3f a9 ce 2e be aa 22 47 3e cf 51 9d be
       1.2179072 -0.17071022 0.19446817 -0.30726478
0002f0 fe 32 d7 bf c0 73 ab be c5 70 98 3e 1d 6d b0 bc
       -1.6812437 -0.33486748 0.29773536 -0.021536404
000300 23 d5 3b bf 83 2a 26 c0 82 8b 36 3e b9 c0 33 be
       -0.73372096 -2.5963447 0.17826656 -0.17553987
000310 4a fd 1a 40 49 69 50 bf b9 ef 30 3f 5e 75 29 3e
       2.4217095 -0.8141065 0.6911579 0.16548678
000320 54 0e 3a 3e 04 b4 ce 3d 6d 3c 61 be 42 d6 0b 3e
       0.18169528 0.10092929 -0.21995707 0.13655952
000330 21 14 d1 3e c2 59 6b 3f b0 bf f4 bd 40 f3 5d 3e
       0.4083567 0.91933835 -0.11950624 0.21674824
000340 fb 7d 11 3f 05 3c a9 be 9e fe 02 40 28 3f 33 bf
       0.56832856 -0.33053604 2.0467906 -0.70018244
000350 80 24 3d bf b4 3f 04 bf 00 e8 90 bf df c3 80 3f
       -0.7388382 -0.51659703 -1.1320801 1.0059775
000360 fa f2 47 be 10 54 88 bd 13 8d 0d be f5 a1 21 bf
       -0.19526282 -0.06656659 -0.13823347 -0.6313775
000370 88 07 62 3e f9 37 30 3e 9a 38 cd be 5b 56 05 3e
       0.22073185 0.17208852 -0.40082246 0.13021223
000380 c0 8c cf be 31 03 57 bf cf 17 3d 3e 98 03 a9 be
       -0.4053707 -0.83989245 0.18466114 -0.33010554
000390 a1 92 90 bd 2b 47 aa be 29 2a c0 3e 68 32 db 3e
       -0.07059217 -0.33257422 0.37532166 0.42811894
0003a0 e1 ce 95 bf f5 88 f7 be d5 07 be bf 35 61 89 bf
       -1.170376 -0.48346677 -1.484614 -1.073279
0003b0 d0 27 9c 3e a5 b0 e7 3c 43 12 c4 3e 9c f9 79 bf
       0.30499125 0.028282473 0.38295183 -0.976465
0003c0 b8 3e 2f bf a7 78 a4 be 3f a8 19 3f 7a 0f 8d 3f
       -0.68455076 -0.321233 0.6002235 1.1020348
0003d0 e4 0b 90 bf ce 54 dc bd d1 7b c4 3f e4 4f 1c 3e
       -1.1253629 -0.10758363 1.5350286 0.15264851
0003e0 e6 51 e3 3e c4 75 39 c0 2e 94 46 3f b0 1c f5 3d
       0.4439842 -2.8978128 0.77569854 0.11968362
0003f0 52 f7 3a 3e d7 b1 7e 3e 45 86 be 3f d0 4a 43 3e
       0.18258408 0.24872528 1.4884726 0.19071507

linear1.bias f4 [128]
000000 10 0c 1c be 3f f2 21 bf 74 45 fc be 51 02 64 3f
       -0.15238976 -0.63260263 -0.4927174 0.89066035
000010 a1 f8 ec be f7 e1 5d be 12 ce 44 bd 77 9e 1a be
       -0.4628344 -0.2166823 -0.048048086 -0.15099512
000020 25 05 42 3f 0d 48 93 bd 51 c5 ea be 4a bb 1a bf
       0.757891 -0.07191477 -0.45853665 -0.6044203
000030 a4 2a 01 bf 95 b7 ec be c8 c3 40 bd ae eb e2 be
       -0.5045569 -0.46233812 -0.04706171 -0.44320434
000040 14 a3 6c be f7 25 50 bf 62 cc 02 bf 39 d5 58 bf
       -0.23109084 -0.8130793 -0.51093113 -0.8470035
000050 4b 36 b2 be ea e4 a8 be 94 6b b6 be 22 08 ca be
       -0.34807047 -0.32987148 -0.3562895 -0.3945933
000060 3f 1d 5c be fb 77 c9 be f8 be 0d 3f 72 90 7a 3f
       -0.21495531 -0.3934935 0.5536952 0.97876656
000070 77 f2 80 3e 64 07 be be 8d 8c d0 bf 9c 6f 23 bf
       0.25184986 -0.37115014 -1.6292893 -0.6384218
000080 64 b4 a8 bf cd 24 e3 be 8a 50 86 3e 58 d0 0a bf
       -1.3180051 -0.44364014 0.2623332 -0.5422416
000090 94 40 bf 3e e4 13 1c bf 99 9a 3d be 99 1c 2c 3e
       0.37353957 -0.6096785 -0.18516006 0.16807784
0000a0 8f 53 37 bf 2f 91 ca 3e 12 68 cf bd b4 e4 6d 3f
       -0.71611875 0.3956389 -0.10127272 0.929271
0000b0 ad d7 d1 3d 06 a6 02 3f 01 f9 1e 3c ce 63 ef bf
       0.10246215 0.5103458 0.009702922 -1.8702333
0000c0 9d 7b d6 3e 4c 75 67 3f 48 0d 44 bf be 57 e6 be
       0.41891184 0.90413356 -0.76582766 -0.44988817
0000d0 d1 48 11 bf 9d 33 47 bf 24 0d 59 bf 75 f0 ca bf
       -0.56751734 -0.7781313 -0.84785676 -1.5854632
0000e0 c7 0c 4a bf 8e 47 15 bf 2c 90 01 c0 6f b2 49 bd
       -0.78925747 -0.5831231 -2.0244246 -0.049242433
0000f0 6d 53 87 3f 9b 64 22 3e 03 d9 f7 bb ff 01 1f 3f
       1.0572335 0.1585869 -0.0075637116 0.6211242
000100 2f 0b 23 3e f6 58 5c be b1 03 5f be 9c 3d 74 3f
       0.15922235 -0.21518311 -0.21778752 0.9540651
000110 97 62 36 bf 39 12 4d bf 75 30 c5 bd d4 4d 27 3f
       -0.71244186 -0.8010593 -0.09628383 0.6535313
000120 f2 08 a5 bf 00 7d 0c 3f 55 cd df be 83 48 93 bf
       -1.2893355 0.54878235 -0.43711343 -1.1506504
000130 03 d0 28 bf 1b 9f 13 bf f1 71 43 bf 82 e2 9c bf
       -0.659424 -0.5766465 -0.76345736 -1.2256625
000140 6c 7e 28 bf d5 d7 57 be 44 de 00 3f 92 2a 02 bf
       -0.65817904 -0.21078427 0.5033915 -0.5084621
000150 49 e3 14 bf 7a ab 5e 3e 9f 90 03 bf d3 2a ae be
       -0.5815931 0.217451 -0.5139255 -0.34017047
000160 f8 5a f1 3e 06 ab 4f bf cb 4b a9 bf c3 93 01 3e
       0.47139716 -0.81120336 -1.3226255 0.12654023
000170 3b ff 2d bf 9b 89 da 3e df 7e 6d bf 9e c3 94 be
       -0.67967576 0.4268311 -0.92771715 -0.29055494
000180 4f d1 34 3f 32 91 1a bf 77 5f 44 3f 5d 3f 80 3f
       0.7063188 -0.603778 0.7670817 1.0019337
000190 46 6c 8c bf 95 fc a7 be 4d 48 f9 be 47 f0 1f be
       -1.0970542 -0.32809892 -0.48687974 -0.15619002
0001a0 26 c4 3a be d0 43 f6 bc e9 3f bc be 8c 14 b8 be
       -0.18238887 -0.030061632 -0.3676751 -0.35953176
0001b0 43 ac 04 bf ad f8 07 be 6c bf 29 3f 4f 23 97 bf
       -0.5182535 -0.13278456 0.6630771 -1.180765
0001c0 47 c2 81 be 62 a1 30 bf ae 84 53 bf d3 be 5e be
       -0.25343534 -0.6899625 -0.8262433 -0.21752481
0001d0 59 8d 24 bf ee 19 92 be 17 50 5f be 67 35 8e 3e
       -0.6427818 -0.28535408 -0.21807896 0.27775118
0001e0 51 da 8a 3e 8a 81 2b bc 3c 4b 5d 3e 3e f8 94 bf
       0.27119687 -0.010467896 0.21610731 -1.1638258
0001f0 cd 64 dc be ea 43 bd be 4e f0 33 bd 3d ed 1c bf
       -0.43045655 -0.36965877 -0.043930344 -0.61299497

linear2.weight f4 [128, 128]
000000 9e 9e c1 3d 34 d8 bd bd 9b 80 b4 3e a6 50 99 3f
       0.09454082 -0.09269753 0.35254368 1.1977737
000010 39 a7 72 bd c1 c4 59 bf 4e 23 11 bb c6 8c 3a 3f
       -0.059241507 -0.8506585 -0.0022146287 0.72871053
000020 57 4a 1a 3f 9b cd ea 3e 89 60 be 3e 7a b9 4a 3e
       0.60269684 0.4585999 0.37183025 0.19797316
000030 cd 29 1f 3f 84 de 1b bf d5 0e 00 3e 8a a9 d5 3e
       0.6217316 -0.60886407 0.12505658 0.4173091
000040 5c a5 91 3e 5c ad 1e bf af 34 6e be e6 1e 27 3d
       0.28446472 -0.61983275 -0.23262285 0.04080095
000050 6c 0d 42 be 74 1d c5 bc 4b c6 7f 3f bf ea 5f 3e
       -0.18950433 -0.024061896 0.99911946 0.21866892
000060 9f 83 b5 bf 85 d8 c7 bd 02 7e 13 3f a0 6b d2 3e
       -1.4180793 -0.09758095 0.5761415 0.41097736
000070 38 0c 85 3f f6 55 78 3f 5f ca ed be 60 9d 58 3f
       1.0394354 0.97006166 -0.4644346 0.84615135
000080 5c a6 82 bd cf 20 ab be 1b 32 29 be 4e fb 98 3f
       -0.06379387 -0.33423468 -0.1652302 1.1951692
000090 f8 97 ff bc 1a 6d 2c bf 81 87 1a 3f f4 db 5f bf
       -0.031200394 -0.67353976 0.6036301 -0.87444997
0000a0 36 8f 80 3e c0 14 16 bd 76 5d dd be 2a 5d f5 3e
       0.2510926 -0.036640882 -0.43235368 0.4792264
0000b0 83 d2 02 bf 42 11 18 bc 60 47 f8 3e 49 34 1f bf
       -0.51102465 -0.009281458 0.48491955 -0.62189156
0000c0 4e dd 21 be e1 f0 bb 3e c1 10 b3 be 30 70 99 bc
       -0.15807077 0.36707214 -0.3497372 -0.018730253
0000d0 dc 82 5f 3d 99 22 2a bf c3 e8 2c bf 24 6b d4 be
       0.054568157 -0.6645904 -0.67542666 -0.41487992
0000e0 14 e2 14 bf 8d e0 32 3d 76 a4 05 bf 1b 19 7c 3e
       -0.5815747 0.04367118 -0.5220407 0.24618952
0000f0 c6 d8 1f 3f d3 1e 0c 3f 7d e7 97 bd 4b 3a 27 3f
       0.62440145 0.54734534 -0.074172 0.65323323
000100 34 0f 13 3f 99 5f d4 3e 6e 09 a5 3e a3 23 1f 3f
       0.57445073 0.41479185 0.32233757 0.6216375
000110 de da f9 bd d2 e9 f0 be f0 45 01 3f 1d 37 d8 3e
       -0.12199949 -0.4705339 0.5049734 0.42229548
000120 7b f1 85 be 90 c9 8f 3e c5 1c 84 bf 03 1e e3 be
       -0.26160797 0.28083467 -1.032128 -0.44358835
000130 7f de 36 be 3b e8 85 bf 40 78 7b 3e b6 62 11 bf
       -0.17858313 -1.0461496 0.2455759 -0.56791246
000140 91 3a f0 3e c5 65 1d 3f 7d 2b 94 3e 80 a7 61 be
       0.46919683 0.61483413 0.2893943 -0.22036552
000150 d2 92 60 be 91 4b 84 3c 11 39 e0 be d6 ba f3 be
       -0.21931008 0.016149314 -0.43793538 -0.47603482
000160 9f 05 3c 3f 8e 39 05 bd d9 4b 7a be 90 28 ad 3e
       0.7344608 -0.03252559 -0.24442996 0.3382001
000170 c4 06 a6 3e 31 75 ac 3f c0 50 5a be 7b 0d 57 bd
       0.32427037 1.3473264 -0.21319866 -0.05250309
000180 16 79 1a 3f c5 07 57 3f e6 ce 1d 3e c4 da f9 3e
       0.6034101 0.8399623 0.15410957 0.48799717
000190 d7 db 90 be 8e 43 79 bf 3e 35 c6 be 3c 8e 69 be
       -0.28292724 -0.97368705 -0.38712496 -0.22808164
0001a0 05 fa 87 3f 0a c8 03 3f 46 b6 3a bf 2a d1 12 3e
       1.0623175 0.5147711 -0.7293438 0.14337602
0001b0 b3 20 a3 be 87 7e 92 3e 95 cd 1e 3f a4 1d ff be
       -0.31860885 0.28612158 0.62032443 -0.49827302
0001c0 95 c9 26 bf 33 c6 3b be 59 03 ab bd 80 ce 99 3f
       -0.6515134 -0.18337326 -0.08350248 1.2016144
0001d0 85 a2 e1 be 97 1e c8 3d 7c 89 14 3f bd 9d 2c 3f
       -0.44069305 0.097714595 0.58022285 0.6742819
0001e0 a8 31 0f 3f d4 a3 9a 3d ec 2a 96 be 0e d6 ed be
       0.55935144 0.07550779 -0.29329622 -0.46452373
0001f0 60 43 45 3f f4 f4 d2 bd ef db 8a 3e eb bd 46 bd
       0.7705593 -0.10300627 0.2712092 -0.048520964
000200 ea c3 e9 be 9e 0b 8e 3e 38 19 89 3e b0 06 19 bf
       -0.45657283 0.27743238 0.26777053 -0.5977583
000210 54 03 59 bc 3a ab 66 3e e9 c0 d1 be ff 8a 0d bd
       -0.013245422 0.22526255 -0.4096749 -0.034556385
000220 0a e3 12 bf 29 2b 89 bd 99 b6 ac be 65 99 a7 3e
       -0.57377684 -0.06697685 -0.3373306 0.32734218
000230 d9 fe c9 be 5c 09 b3 bd 01 24 13 bf f3 e4 03 bf
       -0.39452246 -0.087420195 -0.5747681 -0.51521224
000240 cb 41 04 bd eb c9 87 be c4 f3 95 bd e6 58 03 3e
       -0.032289308 -0.2652124 -0.07321885 0.12826881
000250 2a df 72 bf 82 c9 5d bf ee 21 e9 3d bf b0 35 bf
       -0.9487177 -0.866356 0.11383425 -0.7097282
000260 af a9 2c 3e 6d fe e3 3d 3d 95 9a be df 4f 44 bf
       0.16861604 0.11132512 -0.30191985 -0.76684374
000270 2e 1d c8 be 00 a3 33 3f 5c 5c 2f 3f 2c 4f 5a bd
       -0.39084762 0.70170593 0.68500304 -0.05329816
000280 3d 1b 26 3f d1 97 2c 3f 43 ca 3f bd 29 72 bc 3c
       0.6488531 0.67419153 -0.04682375 0.023003655
000290 c0 fa ab bf 8f 1c 78 3e 53 87 d8 3c d9 f4 5d bf
       -1.3435898 0.24229644 0.026431715 -0.8670173
0002a0 16 ae 28 bf be 78 49 bf e7 2e 13 bf 86 d4 0b bf
       -0.65890634 -0.7869986 -0.5749344 -0.5462116
0002b0 6d 1a 81 bf a9 8e 03 bf 85 ef aa be 7e 2d 5a 3f
       -1.008619 -0.5138956 -0.33385864 0.85225666
0002c0 ec 21 c4 be 38 e4 89 bf 49 09 ce 3d 77 da b6 bd
       -0.3830713 -1.0772772 0.10060365 -0.089283876
0002d0 69 6b 8b bc 8e ea 98 3e 5f 8a b8 3e 07 2b 4e 3f
       -0.01701899 0.2986645 0.3604307 0.80534405
0002e0 05 69 25 bf 0d 4a a5 bf 97 33 88 3f b0 da ab be
       -0.6461337 -1.2913224 1.0640744 -0.33565283
0002f0 3b 8f 49 bf df 15 49 be 77 1c 8e be a4 ee 9d bf
       -0.7873418 -0.1963725 -0.27756092 -1.2338452
000300 9d be 21 3f 42 1c f9 be b0 e9 f3 be 61 d8 14 bf
       0.6318148 -0.48654372 -0.47639227 -0.5814267
000310 37 7f 1d 3e 8b 76 38 3f 6a a1 07 3f 86 a3 9f bf
       0.1538056 0.7205588 0.52980673 -1.2471778
000320 ea 27 dd 3e 6e 20 0d 3f 30 39 fd be 37 a3 2e 3f
       0.43194515 0.5512761 -0.49457693 0.68217796
000330 0c c0 9d bd 30 bf 1e be 08 70 96 3d 36 16 5c 3f
       -0.07702646 -0.1550262 0.07345587 0.8597139
000340 5a 50 7b 3c 8f 83 d4 be 8e 00 06 3f ac eb 03 3f
       0.0153389815 -0.4150662 0.52344596 0.5153148
000350 09 dd d0 3e ca f1 ba bd 3a e7 fe 3e 69 a2 08 be
       0.40793636 -0.09128149 0.49785787 -0.13343205
000360 79 f7 3e 3e 51 a2 ae 3e 2f 4d 29 3f 84 c0 1c bf
       0.18649091 0.34108213 0.661334 -0.61231256
000370 ca 3b b5 3e a1 55 c1 bf e0 76 91 3f 33 b5 11 3e
       0.35397178 -1.5104257 1.1364403 0.14229278
000380 03 37 04 3d 7c cf 69 3e ec c0 dd 3e da e1 17 bf
       0.032279026 0.22833055 0.4331125 -0.59329
000390 30 4b 31 3e f0 1a 69 be 80 8b 6b 3d e6 37 04 3d
       0.17313838 -0.22764182 0.057506084 0.03227987
0003a0 49 96 16 be 03 22 08 bf ac 85 b1 be 34 32 a1 bd
       -0.14705767 -0.531769 -0.34672296 -0.078709036
0003b0 fe d2 a1 be 26 45 47 bf ea c8 4c bf 36 1c d8 3e
       -0.31606287 -0.7783989 -0.7999407 0.42209023
0003c0 e6 c5 0b bf 19 0b 6a 3e 84 33 c9 3e 0b 44 92 3e
       -0.54598844 0.22855796 0.39297116 0.28567538
0003d0 bb b6 f8 be ac 12 02 be 8b da 6c 3d 7a e4 07 bf
       -0.48576912 -0.12702435 0.057825606 -0.53083
0003e0 a5 90 85 3d fd 84 0c bf 68 b5 39 3e 70 e7 13 bf
       0.065217294 -0.54890424 0.18135607 -0.5777502
0003f0 c7 fd c2 be 9d 58 6e be d8 2c 92 bf 75 bd 80 be
       -0.38084242 -0.23275991 -1.1419935 -0.25144544
