Data/Player1/checkpoint-regTest2.pth (torch, 517408 bytes, 20 tensors)

linear1.weight f4 [128, 34]
0	0xbdeea477	-0.11652463
1	0xbd59f04a	-0.053207673
2	0xbe0783b7	-0.13233839
3	0xbc7e9db9	-0.015540534
4	0xbd6476b1	-0.055777255
5	0x3dd227cf	0.10261499
6	0xbdd32517	-0.10309809
7	0xbc8d388f	-0.017238883
8	0x3deca360	0.11554599
9	0xbc7c0131	-0.015381143
10	0x3d9a6e63	0.07540586
11	0x3e2924c0	0.16517925
12	0xbd448de8	-0.047986895
13	0xbc98522e	-0.018593874
14	0x3d6c8dd8	0.05775246
15	0x3e5afa37	0.21384512
16	0x3c963ef9	0.018340575
17	0xbdb28932	-0.08717574
18	0xbc2c4c60	-0.010516256
19	0xbce0a53f	-0.027422545
20	0x3e316c4d	0.1732647
21	0x3e789cfc	0.24278635
22	0x3e05f3fa	0.13081351
23	0x3de4d2ef	0.11173045
24	0x3df75a4e	0.12077771
25	0xbc263eae	-0.01014678
26	0xbe16562b	-0.14681308
27	0xbcadfc45	-0.021238456
28	0xbffc15e8	-1.9694185
29	0xbde98cae	-0.11403786
30	0x3cda2c1c	0.026632361
31	0x3d79faf6	0.06103035
32	0xbdabc6ce	-0.08387528
33	0xbd429d05	-0.047513027
34	0xbee781d9	-0.45216253
35	0xbe2459ea	-0.16049924
36	0xbd2de12e	-0.042451076
37	0xbe0c90ea	-0.13727155
38	0x3d744d4b	0.059644025
39	0xbe1631da	-0.14667454
40	0xbe19d696	-0.15023264
41	0xbda3a2b5	-0.07990018
42	0xbe3af30f	-0.18256782
43	0xbe29e5c3	-0.16591553
44	0xbe50ad9f	-0.20378731
45	0xbe093608	-0.13399518
46	0xbe962bbc	-0.29330242
47	0xbe07b4de	-0.13252589
48	0xbe0a7a37	-0.13523184
49	0xbe4b54e5	-0.19856603
50	0xbcea0de6	-0.02857108
51	0xbdb294f1	-0.087198146
52	0xbdac3bee	-0.08409868
53	0x3b846c0c	0.0040412005
54	0xbc97e28e	-0.018540647
55	0x3f022e56	0.50851953
56	0x3d984b15	0.07436196
57	0xbd50f97c	-0.051019177
58	0xbc8d28a2	-0.01723129
59	0xbdda4d7f	-0.106593125
60	0xbf13e720	-0.57774544
61	0xbe14e198	-0.14539182
62	0x3f010f1e	0.5041369
63	0xbe58d839	-0.21176232
64	0x3c67b4ec	0.014142256
65	0xbd2ca478	-0.042149037
66	0x3d010ff7	0.031509366
67	0x3e3f9f19	0.18713035
68	0xbe81c26c	-0.25343645
69	0xbbc7aa57	-0.006093304
70	0xbed09e08	-0.40745568
71	0xbeb94dfe	-0.36192316
72	0xbe9d4325	-0.3071529
73	0xbd92e06b	-0.071717106
74	0x3a3b70f1	0.00071503135
75	0x3d60c4b2	0.054875083
76	0x3e1ba389	0.15199102
77	0x3e8b88fd	0.2725295
78	0xbe699c9e	-0.22813651
79	0x3cfa9402	0.030588154
80	0xbd205c88	-0.039150745
81	0x3dc13709	0.09434325
82	0xbe4b92cf	-0.19880222
83	0xbe7c36f3	-0.24630336
84	0xbe9aa9fa	-0.30207807
85	0xbd54e98c	-0.05198054
86	0xbd93e610	-0.07221615
87	0x3e37d799	0.17953338
88	0x3daa042a	0.083015755
89	0x3dd0ef3e	0.10201882
90	0x3d8ceba1	0.0688088
91	0xbd834bac	-0.06410918
92	0xbdb09b12	-0.08623327
93	0x3db32dce	0.08748971
94	0x3e92d64c	0.2867912
95	0xbeaeed15	-0.34165254
96	0x3e2fce78	0.17168605
97	0xbd9a21a9	-0.075259514
98	0xbea96d0f	-0.33091018
99	0xbd4e1017	-0.050308313
100	0xbd9c1391	-0.076209195
101	0x3e2274c2	0.15864852
102	0x3b1cc19d	0.0023919113
103	0xbe28639f	-0.16444252
104	0xbe202a28	-0.15641081
105	0xbe1f6c96	-0.15568766
106	0xbe4ac87d	-0.19803043
107	0xbd4c4498	-0.049870104
108	0xbe320341	-0.17384054
109	0xbe1c30c4	-0.15252978
110	0x3caa3289	0.02077605
111	0xbc66f438	-0.014096312
112	0xbde8f844	-0.11375478
113	0xbdf1b022	-0.11801173
114	0xbbee37c3	-0.007269831
115	0xbbdb08b9	-0.0066843894
116	0x3d9f3e84	0.07775596
117	0xbdeac861	-0.114640005
118	0xbe11d4cc	-0.14241332
119	0x3e049049	0.12945665
120	0xbbcf7354	-0.006330887
121	0xbd83761f	-0.06419014
122	0xbda15c51	-0.07878936
123	0xbd7a5815	-0.061119158
124	0x3ce0265c	0.027362041
125	0x3e430d50	0.19048047
126	0x3d79abf8	0.060955018
127	0xbd7fe6b7	-0.062475886
128	0x3e133907	0.14377223
129	0x3d9543a5	0.07288293
130	0x3e4b6e8e	0.19866392
131	0xbe258028	-0.16162169
132	0xbe245e4f	-0.16051601
133	0x3d4f3e0b	0.05059628
134	0x3db41cb2	0.08794536
135	0x3db61ac2	0.088918224
136	0xbe8d7ba6	-0.276334
137	0xbe1453a9	-0.14485039
138	0xbe2c0828	-0.16799986
139	0xbd8e3107	-0.06942945
140	0xbe01a228	-0.12659514
141	0xbe31e67a	-0.17373076
142	0xbd4306bb	-0.04761384
143	0xbdd0f805	-0.10203556
144	0xbd6a054c	-0.057133958
145	0xbe01342f	-0.12617563
146	0xbd64d011	-0.05586249
147	0xbe01dba0	-0.12681437
148	0xbe336828	-0.17520201
149	0xbda640e9	-0.081178494
150	0x3d5ef548	0.054433137
151	0xbde62e8f	-0.11239349
152	0x3d90a6ac	0.0706304
153	0x3da935c2	0.082622066
154	0xbe6bff31	-0.23046567
155	0x3c664104	0.014053587
156	0x3dfbc522	0.122934595
157	0x3e31f692	0.17379215
158	0x3ead1740	0.338068
159	0x3e16eab9	0.14737977
160	0x3ce7716d	0.028252328
161	0x3ab4d393	0.0013795964
162	0xbe987979	-0.29780176
163	0xbdc07618	-0.093975246
164	0xbd44d978	-0.048058957
165	0xbe6c617a	-0.2308406
166	0xbd0b5473	-0.034016084
167	0x3d356c5e	0.0442928
168	0x3cb0a0cf	0.021561055
169	0x3d991500	0.074747086
170	0xbd926074	-0.07147303
171	0xbe526db4	-0.20549661
172	0xbd0b05a8	-0.03394094
173	0xbe045f1f	-0.12926911
174	0xbe10fa7c	-0.14158052
175	0xbe0cc0ca	-0.13745418
176	0xbc27f82b	-0.010252039
177	0xbe18265d	-0.14858384
178	0xbe52b225	-0.20575769
179	0xbd1dc0f5	-0.038514096
180	0xbd917b14	-0.071035534
181	0xbd93e23a	-0.07220884
182	0xbdc1f196	-0.09469907
183	0xbe1d24f3	-0.15346126
184	0xbcf8e70b	-0.030383607
185	0x3d13f528	0.03612247
186	0xbdeada9e	-0.11467479
187	0xbe086192	-0.1331847
188	0xbdc07289	-0.09396846
189	0x3e26f724	0.16305214
190	0x3e0c16f6	0.13680634
191	0xbd3c632e	-0.045993023
192	0x3e62ab33	0.2213562
193	0x3da533bf	0.080665104
194	0xbe078a5f	-0.13236378
195	0xbdc50308	-0.09619719
196	0x3d53803e	0.051635973
197	0x3e0a2fd7	0.13494812
198	0xbd223d7e	-0.039609425
199	0xbc8cd8b8	-0.017193183
200	0x3e1d565b	0.15364973
201	0x3d2b2874	0.041786626
202	0x3d752da8	0.059857994
203	0x3d03cf29	0.032179985
204	0xbd750dbf	-0.059827562
205	0x3d3e6aea	0.04648868
206	0x3bf5d441	0.0075021093
207	0xbd8104fb	-0.06299778
208	0xbe36b5c7	-0.1784278
209	0x3c7eb1cd	0.015545321
210	0xbe505869	-0.20346226
211	0x3cf302fb	0.029664507
212	0xbddcfbd5	-0.10790221
213	0xbdc09edd	-0.09405301
214	0xbe95e19d	-0.29273692
215	0xbeaf6f92	-0.3426481
216	0x3d0549d6	0.03254112
217	0x3c7d39a7	0.01545564
218	0xbe16f456	-0.14741644
219	0xbd855f98	-0.06512374
220	0xbe9572e3	-0.29189214
221	0xbd8e33ba	-0.0694346
222	0xbe216e5f	-0.1576476
223	0x3dc83182	0.09775068
224	0xbd45db1c	-0.048304662
225	0xbb9f459c	-0.004860593
226	0x3e60bfc0	0.21948147
227	0x3e95d530	0.29264212
228	0x3d51bacb	0.05120353
229	0x3d28ac83	0.041180145
230	0xbddb2e2b	-0.10702165
231	0xbe916d9a	-0.28403932
232	0xbd44c5a4	-0.048040047
233	0x3e3fa692	0.18715885
234	0x3daf3017	0.08554094
235	0xbd8263b5	-0.06366674
236	0xbd8cbe32	-0.068722144
237	0x3de5ebd9	0.11226625
238	0x3d8c4b8a	0.068503454
239	0x3cd64a16	0.026158374
240	0xbdd8cc09	-0.105857916
241	0xbdd8da57	-0.1058852
242	0xbe28f89b	-0.16501085
243	0xbe7df5a4	-0.24800736
244	0x3ebdeb83	0.37093744
245	0x3dd19e6d	0.102352954
246	0xbe2656f1	-0.16244103
247	0x3e8ae829	0.2713025
248	0x3e06c1f1	0.1315992
249	0x3e3ce182	0.184454
250	0x3d9767f5	0.07392875
251	0xbddae049	-0.1068731
252	0xbd6ec868	-0.05829659
253	0x3d577467	0.052601244
254	0x3e02987a	0.12753478
255	0x3d846248	0.06464058

linear1.bias f4 [128]
0	0xbf15f40c	-0.5857551
1	0xbe022e5e	-0.12713
2	0xbdbe3a4b	-0.09288462
3	0xbeebf4d0	-0.46085215
4	0xbf43f6a9	-0.7654825
5	0xbf3149c5	-0.6925319
6	0xbf335cd3	-0.70063514
7	0x3dd46886	0.10371499
8	0x3e194485	0.14967544
9	0x3f245f87	0.64208263
10	0x3f5edff6	0.8706049
11	0x3f4d167d	0.8011244
12	0x3f6b9586	0.9202503
13	0xbed6db8e	-0.41964382
14	0x3f758aab	0.95914716
15	0x3ea6e636	0.32597512
16	0x3f2bc2f7	0.6709437
17	0xbf614ed3	-0.880109
18	0x3f6170ba	0.8806263
19	0x3f53627e	0.8257216
20	0x3f25a03b	0.6469762
21	0xbe66fd87	-0.2255765
22	0xbf2c0d28	-0.67207575
23	0x3f486274	0.7827523
24	0x3f4876a1	0.78306013
25	0xbead3081	-0.33826068
26	0xbefde5f9	-0.49589518
27	0x3eb6be5d	0.3569211
28	0xbf0c0168	-0.54689646
29	0x3f4dd30f	0.80400175
30	0x3f504932	0.8136169
31	0xbf3ebedf	-0.74509996
32	0x3f535fb7	0.82567924
33	0x3dd177e9	0.10227949
34	0x3f3c6829	0.73596436
35	0xbe188a9d	-0.14896627
36	0x3f34871d	0.70518667
37	0x3ea6b157	0.32557175
38	0xbf006b70	-0.50163937
39	0x3efe3484	0.4964944
40	0x3ec9a917	0.39386818
41	0xbe9fa8fb	-0.3118361
42	0x3f0f5de5	0.56002647
43	0x3e7691b8	0.24079025
44	0xbf605a3e	-0.876377
45	0x3f4c7ca1	0.7987767
46	0x3f10459a	0.56356204
47	0xbf439f4e	-0.76414955
48	0x3ea6441f	0.32473847
49	0xbf0e545f	-0.5559749
50	0xbec1064b	-0.37700114
51	0xbeab36be	-0.33440202
52	0xbe6cfaff	-0.23142622
53	0x3cae0301	0.021241667
54	0x3f4c4305	0.79789764
55	0x3f202d7f	0.6256942
56	0xbf359a77	-0.7093882
57	0x3f640d40	0.8908272
58	0xbf19d05d	-0.6008356
59	0xbf089ef2	-0.5336753
60	0x3f2e903f	0.6818885
61	0x3f14ea18	0.581697
62	0x3cae9e7e	0.02131581
63	0x3f812df4	1.0092149
64	0xbda8bb21	-0.08238817
65	0xbedce515	-0.43143526
66	0x3f69209b	0.91065377
67	0x3f3d759e	0.74007595
68	0xbf3cc059	-0.73731
69	0xbe399329	-0.18122543
70	0x3f87b403	1.060181
71	0x3efa4e4f	0.4888787
72	0xbe8a9377	-0.27065632
73	0xbea3cc3b	-0.31991753
74	0x3e39a07a	0.18127623
75	0xbeea9f04	-0.45824444
76	0x3f1269d1	0.57192713
77	0x3f3dee4d	0.74191743
78	0xbf48106c	-0.7815006
79	0xbda489f6	-0.080341265
80	0x3f3933d5	0.72344714
81	0x3ef02b19	0.4690788
82	0xbf5975be	-0.84945285
83	0x3f5d5af1	0.8646689
84	0xbf13444e	-0.575261
85	0xbf085c8a	-0.53266203
86	0xbe9c3dc4	-0.30515873
87	0xbeb91b68	-0.36153722
88	0x3f40abac	0.7526195
89	0x3f7d65f4	0.98983693
90	0x3ebc59bc	0.36787212
91	0xbf0a32a3	-0.53983516
92	0x3f13246b	0.57477444
93	0x3ee98bcc	0.4561447
94	0x3f460fc5	0.7736781
95	0x3f1b7423	0.60724086
96	0x3ebe996c	0.37226427
97	0x3f32c4a0	0.69831276
98	0xbf4bbeeb	-0.7958819
99	0x3e7beac3	0.24601273
100	0x3eaeb6af	0.34123752
101	0x3f06cea8	0.5265908
102	0x3f281088	0.65650225
103	0xbe256dd5	-0.16155179
104	0x3f5bfa0a	0.85928404
105	0x3eb6d568	0.3570969
106	0x3ee9b6e9	0.45647362
107	0x3ef7e79d	0.48418894
108	0x3e9ecfb3	0.31017837
109	0x3f00b11a	0.50270236
110	0xbf4fd155	-0.8117879
111	0xbf16b990	-0.58876896
112	0x3f2f35ba	0.68441355
113	0x3f53c374	0.8272011
114	0xbd9b19b0	-0.07573259
115	0x3f801f52	1.0009558
116	0x3f65ce8e	0.897683
117	0x3f57a67e	0.8423842
118	0x3ee27903	0.4423295
119	0x3ea77a4c	0.32710493
120	0x3f415d03	0.7553255
121	0xbf2ef2ed	-0.68339425
122	0xbecc5604	-0.39909375
123	0x3effb7b3	0.4994484
124	0xbec42e0a	-0.38316375
125	0xbeec9234	-0.46205294
126	0xbec4fe14	-0.38475096
127	0x3eaef8fb	0.34174332

linear2.weight f4 [64, 128]
0	0xbf02ad6c	-0.5104587
1	0xbf84457b	-1.0333704
2	0xbf327267	-0.69705814
3	0xbf8b207c	-1.0869288
4	0xbf16e920	-0.5894947
5	0xbf2283b1	-0.63482195
6	0x3e960d22	0.29306895
7	0x3e1d5014	0.15362579
8	0xbe153aa9	-0.14573158
9	0xbefad02d	-0.4898695
10	0xbd402eeb	-0.046919744
11	0x3dd81a22	0.105518594
12	0xbee87497	-0.4540145
13	0xbf07560d	-0.5286568
14	0x3ced475b	0.028964689
15	0xbf4fc506	-0.8116001
16	0xbf59038b	-0.8477103
17	0x3c3979bd	0.011320529
18	0xbf051d5d	-0.5199793
19	0x3b4b648e	0.0031035277
20	0xbcd91bff	-0.026502607
21	0x3ec4f72d	0.3846983
22	0xbee3dd47	-0.4450476
23	0xbe4a0b58	-0.1973089
24	0xbf117355	-0.5681661
25	0xbf526f80	-0.82201385
26	0x3d61ec2e	0.05515688
27	0x3eb7c3e3	0.35891637
28	0xbf8bdc6d	-1.0926644
29	0xbebe608f	-0.37183043
30	0xbeab290c	-0.33429754
31	0xbe6cd69f	-0.23128746
32	0xbdd0e4c5	-0.10199884
33	0x3ef9a31d	0.48757258
34	0x3e9fa523	0.31180677
35	0x3f22245b	0.63336724
36	0xbefdd7d5	-0.4957873
37	0xbead7c2c	-0.33883798
38	0x3e10460e	0.14089224
39	0xbe4b8331	-0.19874264
40	0xbe661cf3	-0.22471981
41	0x3e6add7a	0.22936049
42	0xbebe5949	-0.37177494
43	0x3e65fcdb	0.22459738
44	0xbcbef29d	-0.023309046
45	0xbda31355	-0.07962672
46	0xbb9ca332	-0.0047801966
47	0xbe23295f	-0.1593375
48	0x3ea74d86	0.32676333
49	0xbf6dedd5	-0.9294103
50	0x3ec3f4dd	0.38272753
51	0x3e3cc3bb	0.1843404
52	0x3e1637cf	0.14669727
53	0x3d235c10	0.03988272
54	0xbe254a16	-0.16141543
55	0x3e04780b	0.12936418
56	0x3e2b6247	0.16736709
57	0xbdb14c2d	-0.086571075
58	0xbfbc4c26	-1.4710739
59	0x3db7c5ed	0.08973298
60	0xbf37204f	-0.71533674
61	0xbd497644	-0.049185053
62	0xbc613cdc	-0.01374742
63	0xbf367efc	-0.7128751
64	0x3e064d5f	0.13115452
65	0x3e56c148	0.20972168
66	0x3e5573e2	0.20844987
67	0x3c79dba7	0.015250123
68	0x3e5ed79e	0.21761939
69	0xbe4fd909	-0.20297636
70	0xbf11b2eb	-0.5691363
71	0xbf9acbe5	-1.2093474
72	0x3d06e30b	0.03293137
73	0xbc3891ac	-0.0112652
74	0xbe417bb4	-0.18894845
75	0xbffdd50e	-1.9830644
76	0x3e0b766c	0.13619393
77	0xbe1ee1e2	-0.15515855
78	0x3dce0b7a	0.10060783
79	0xbd494659	-0.049139354
80	0x3daf6815	0.08564774
81	0xbef815d4	-0.48454154
82	0x3e1487f5	0.14504988
83	0xbf2827a0	-0.6568546
84	0xbe92d6ec	-0.28679597
85	0x3cedfae8	0.029050305
86	0xbe9d2b20	-0.30696964
87	0xbd863a49	-0.06554086
88	0x3dba3910	0.09092915
89	0x3dc80b68	0.097678006
90	0xbf915388	-1.1353617
91	0xbdfb2621	-0.12263132
92	0xbe3c2bcb	-0.1837608
93	0xbf0f78f5	-0.5604394
94	0xbead0f54	-0.33800757
95	0x3e89ba9c	0.26900184
96	0xbee9be5f	-0.45653054
97	0xbda0bf3e	-0.078489766
98	0xba441d46	-0.0007481169
99	0xbf478c5e	-0.7794856
100	0xbfa42d5b	-1.2826341
101	0xbf687545	-0.9080394
102	0xbe6cc10a	-0.23120514
103	0x3f7b424c	0.98148036
104	0xbe3beb70	-0.18351531
105	0x3e27dba7	0.16392384
106	0xbe7d92ce	-0.24763033
107	0xbedfc5a7	-0.43705484
108	0xbed6591b	-0.41864857
109	0x3e565366	0.20930251
110	0x3ecbb668	0.39787602
111	0x3e5be43d	0.21473785
112	0xbf6cfaf7	-0.9257044
113	0xbf0e8471	-0.5567084
114	0xbd94b439	-0.07260937
115	0xbef435c6	-0.47697276
116	0xbe138a11	-0.14408137
117	0x3d4d64a2	0.0501448
118	0xbf6b6700	-0.9195404
119	0xbeedf51f	-0.46476075
120	0xbdea01f7	-0.11426156
121	0xbe45d0a9	-0.19317879
122	0x3ddbb57a	0.10727973
123	0xbf44a60c	-0.7681587
124	0x3a4ce98b	0.0007816783
125	0x3dc4512a	0.09585793
126	0xbe46b641	-0.19405462
127	0x3e522c0b	0.20524614
128	0x3c5368b4	0.012903381
129	0x3e317950	0.17331433
130	0x3dfb4880	0.12269688
131	0x3c147ebc	0.009063419
132	0x3df28b17	0.118429355
133	0xbd12931c	-0.035784826
134	0xbd0adc21	-0.033901338
135	0x3d013787	0.031547096
136	0xbe67eb33	-0.22648315
137	0x3cba12f4	0.022714116
138	0x3e1efc67	0.15525971
139	0xbdbf72d6	-0.09348075
140	0x3ba3f683	0.0050037517
141	0x3deb7fb4	0.11498967
142	0x3e09073f	0.1338167
143	0xbe8816d2	-0.2657991
144	0xbb6d3bf8	-0.0036199074
145	0x3c7c38e7	0.015394426
146	0xbc30037c	-0.010743018
147	0xbe46b360	-0.19404364
148	0xbd9afe0b	-0.07567986
149	0x3e2face7	0.17155801
150	0x3d914f95	0.07095257
151	0x3e0b3e83	0.13598065
152	0x3e20b7f1	0.15695168
153	0x3d8b9fbf	0.068175785
154	0xbc14bf31	-0.009078787
155	0xbddbcd48	-0.10732514
156	0x3dc967d9	0.098342605
157	0x3dd80217	0.105472736
158	0x3cc66365	0.024217317
159	0x3e0704af	0.1318538
160	0xbdc89fe3	-0.09796121
161	0xbe24b2c0	-0.16083813
162	0xbd8f22b9	-0.06989045
163	0xbf09e8a7	-0.53870624
164	0x3d3a7f5b	0.045531612
165	0x3d98fb72	0.074698344
166	0xbdb5f89b	-0.08885308
167	0x3e1bb475	0.15205558
168	0x3d93f996	0.07225339
169	0x3d085138	0.03328058
170	0x3e272a45	0.16324718
171	0x3d8e5792	0.069502965
172	0x3d8247bb	0.06361338
173	0x3dc8852b	0.09791025
174	0x3de70211	0.11279691
175	0x3da5d0fa	0.080965
176	0x3be0ebae	0.0068640327
177	0xbd079b2d	-0.03310697
178	0xbe27de08	-0.16393292
179	0xbe24b6e7	-0.16085397
180	0xbda7f2a8	-0.0820058
181	0x3d46acec	0.048504755
182	0x3e2bf7fd	0.16793819
183	0x3b8bcc86	0.0042663245
184	0x3d1fcb0c	0.039012
185	0x3dc67b26	0.096914575
186	0x3b1f28ce	0.0024285796
187	0xbd8b32f7	-0.0679683
188	0x3c832a94	0.016011514
189	0xbd8d2262	-0.068913236
190	0x3c241dd3	0.010016876
191	0x3e13555c	0.14388031
192	0x3cf32c21	0.029684128
193	0xbdb1099e	-0.086444125
194	0x3dd95eac	0.1061376
195	0xbd56ed25	-0.052472252
196	0x3e1cd6c4	0.15316302
197	0x3db72782	0.089430824
198	0x3e59e584	0.2127896
199	0x3dea6b09	0.114461966
200	0x3e10336c	0.14082116
201	0x3d53113b	0.051530104
202	0xbebc5e42	-0.36790663
203	0x3d08b0fb	0.033371907
204	0xbdd122d7	-0.10211723
205	0xbbd92b5f	-0.0066274847
206	0x3ca6fd0c	0.020384334
207	0xbf060665	-0.5235351
208	0x3e4d84e0	0.20070219
209	0x3da7e7aa	0.08198483
210	0xbd0f57ae	-0.034995727
211	0x3e5c5b9a	0.21519318
212	0xbdcd85ca	-0.10035284
213	0xbca4520a	-0.02005865
214	0xbd0e0d48	-0.034680635
215	0x3dc42bd8	0.09578675
216	0xbd7d1d6b	-0.061795633
217	0x3dc77bbc	0.09740397
218	0x3dc6729c	0.09689829
219	0xbdfa8b27	-0.122335725
220	0x3d921e2a	0.071346596
221	0xbda35e4c	-0.0797697
222	0x3d792d6c	0.060834333
223	0xbcb47e0a	-0.022032756
224	0x3e19619a	0.14978638
225	0x3e15e714	0.1463893
226	0xbe01ca2f	-0.12674783
227	0x3e04b588	0.12959874
228	0x3d2b5398	0.041827768
229	0x3acc6a3c	0.0015595625
230	0xbd284728	-0.041083485
231	0xbf90cb5e	-1.1312063
232	0xbdab52f6	-0.08365433
233	0xbd445b4d	-0.047938634
234	0xbe9dc984	-0.30817807
235	0x3cc67149	0.02422394
236	0xbef1f693	-0.47258434
237	0xbe1631a2	-0.14667371
238	0x3e85f066	0.26159972
239	0xbdbba9a9	-0.091632195
240	0xbe57f435	-0.21089251
241	0x3e12139b	0.14265291
242	0xbe49523d	-0.19660278
243	0x3db1607f	0.08660983
244	0x3da7cc07	0.08193212
245	0x3d0890a8	0.03334108
246	0xbd8fd634	-0.07023278
247	0x3ddfa290	0.10919678
248	0xbcaac665	-0.020846555
249	0xbd4353d9	-0.047687385
250	0xbe82872a	-0.25493747
251	0xbd3b055f	-0.04565942
252	0xbe06dc69	-0.13170017
253	0x3d69fe87	0.0571275
254	0x3e0e5aea	0.13901868
255	0xbd1e74d6	-0.038685642

linear2.bias f4 [64]
0	0xbedaba1a	-0.4272011
1	0x3f550b9f	0.8322086
2	0x3f61de15	0.88229495
3	0xbed756ee	-0.4205851
4	0x3f23fe29	0.6405969
5	0x3f653e17	0.89547867
6	0x3f406f0a	0.7516943
7	0xbec9cdab	-0.39414725
8	0x3f39856e	0.7246922
9	0xbf0ba40e	-0.545472
10	0x3f5f489a	0.87220156
11	0x3f665818	0.8997817
12	0x3f49ef78	0.78881025
13	0xbf0475da	-0.5174233
14	0x3f61b7f9	0.88171345
15	0x3f51734e	0.81816566
16	0x3f401e6e	0.7504643
17	0x3f3df832	0.7420684
18	0xbef73836	-0.48285073
19	0xbee9507b	-0.45569214
20	0x3f681350	0.9065447
21	0x3f5f102a	0.8713404
22	0xbf161dee	-0.5863942
23	0x3f44413e	0.7666205
24	0xbf19b8e5	-0.6004775
25	0xbeddf00a	-0.43347198
26	0xbece0433	-0.4023758
27	0x3f436e1b	0.7633988
28	0x3f35f821	0.7108174
29	0xbf0f70e0	-0.5603161
30	0xbef5f981	-0.4804192
31	0x3f5dc459	0.8662773
32	0xbf1cb3c5	-0.61211807
33	0x3f5fb19a	0.87380373
34	0x3f5cf3c7	0.86309475
35	0xbee32828	-0.44366574
36	0xbf034738	-0.51280546
37	0x3e4391f6	0.19098648
38	0xbf183477	-0.59455055
39	0xbf58278e	-0.84435356
40	0x3f476f66	0.77904356
41	0x3f397e4d	0.72458345
42	0x3f4c312d	0.79762536
43	0xbf26038b	-0.64849156
44	0x3f6091a0	0.87722206
45	0x3f5c2017	0.85986465
46	0xbf35ca9a	-0.7101227
47	0xbf216891	-0.6305018
48	0x3f49ac03	0.78778094
49	0xbeed8ca1	-0.46396354
50	0xbf201a44	-0.6254008
51	0x3f2a371c	0.6649034
52	0xbf1bfe4e	-0.60934913
53	0x3f56cb32	0.839038
54	0xbf0fd89a	-0.5618988
55	0xbf0d4bdb	-0.5519387
56	0x3f36db47	0.7142834
57	0xbf10fa03	-0.5663149
58	0xbf204286	-0.62601507
59	0xbf01fc8f	-0.50776
60	0xbf0cb7d2	-0.5496799
61	0xbf10e23d	-0.5659521
62	0xbea2f6ce	-0.31828922
63	0x3f4ead60	0.807333

output.weight f4 [1, 64]
0	0xc03b3eaa	-2.9256997
1	0x3e911f3f	0.2834415
2	0x3e42a50d	0.19008274
3	0xbf447a84	-0.76749444
4	0x3ee84019	0.45361403
5	0x3f3b20d9	0.73096997
6	0x3ec71236	0.3888108
7	0xbf83ea9a	-1.030597
8	0x3f812d59	1.0091964
9	0xbf89a3ca	-1.075311
10	0x3e1e6662	0.15468743
11	0x3f38a905	0.72132903
12	0x3e692dfc	0.22771448
13	0xbee894a3	-0.454259
14	0x3e9f90ff	0.3116531
15	0x3ed0815e	0.407237
16	0x3ed30c4e	0.41220325
17	0x3e585a68	0.21128237
18	0xbeea41ab	-0.45753226
19	0xbf3197eb	-0.69372433
20	0x3ef00c9e	0.46884626
21	0x3ea3e215	0.32008424
22	0xbf452eed	-0.7702473
23	0x3efd943f	0.49527165
24	0xbf282a3d	-0.6568945
25	0xbf278548	-0.65437746
26	0xbfabb171	-1.3413526
27	0x3eee3bac	0.465299
28	0x3ec0ac7f	0.37631604
29	0xbf05445a	-0.5205742
30	0xbf0f6d0a	-0.56025755
31	0x3eefe149	0.46851566
32	0xbed487e6	-0.41509932
33	0x3ee15140	0.440073
34	0x3ea8b08e	0.329472
35	0xbf5be87f	-0.85901636
36	0xbf38bffb	-0.7216794
37	0x3f6a7ad4	0.9159367
38	0xbf2a5637	-0.66537803
39	0xbe2eb0b3	-0.17059593
40	0x3ee6d153	0.45081577
41	0x3edcdcae	0.43137115
42	0x3f23ff62	0.6406156
43	0xbed26c67	-0.4109833
44	0x3ee032c0	0.4378872
45	0x3e9047a3	0.28179654
46	0xbecd2b35	-0.40072027
47	0xbf56ed81	-0.8395615
48	0x3e4081ac	0.18799466
49	0xbf3bd38f	-0.7336969
50	0xbf73ddb9	-0.95260197
51	0x3f24ee87	0.64426464
52	0xbf0aa0ab	-0.5415141
53	0x3e5d2ddd	0.21599527
54	0xbf83ecfc	-1.0306697
55	0xbf5928cd	-0.8482788
56	0x3e6a5aee	0.2288625
57	0xbf39e027	-0.72607654
58	0xbf95fc0f	-1.1717547
59	0xbefaf11b	-0.49012074
60	0xbf1d8d7d	-0.6154402
61	0xbf0e5b03	-0.5560762
62	0xbf975882	-1.1823885
63	0x3ee2d394	0.44302046

linear1.weight f4 [128, 34]
0	0xbdeea477	-0.11652463
1	0xbd59f04a	-0.053207673
2	0xbe0783b7	-0.13233839
3	0xbc7e9db9	-0.015540534
4	0xbd6476b1	-0.055777255
5	0x3dd227cf	0.10261499
6	0xbdd32517	-0.10309809
7	0xbc8d388f	-0.017238883
8	0x3deca360	0.11554599
9	0xbc7c0131	-0.015381143
10	0x3d9a6e63	0.07540586
11	0x3e2924c0	0.16517925
12	0xbd448de8	-0.047986895
13	0xbc98522e	-0.018593874
14	0x3d6c8dd8	0.05775246
15	0x3e5afa37	0.21384512
16	0x3c963ef9	0.018340575
17	0xbdb28932	-0.08717574
18	0xbc2c4c60	-0.010516256
19	0xbce0a53f	-0.027422545
20	0x3e316c4d	0.1732647
21	0x3e789cfc	0.24278635
22	0x3e05f3fa	0.13081351
23	0x3de4d2ef	0.11173045
24	0x3df75a4e	0.12077771
25	0xbc263eae	-0.01014678
26	0xbe16562b	-0.14681308
27	0xbcadfc45	-0.021238456
28	0xbffc15e8	-1.9694185
29	0xbde98cae	-0.11403786
30	0x3cda2c1c	0.026632361
31	0x3d79faf6	0.06103035
32	0xbdabc6ce	-0.08387528
33	0xbd429d05	-0.047513027
34	0xbee781d9	-0.45216253
35	0xbe2459ea	-0.16049924
36	0xbd2de12e	-0.042451076
37	0xbe0c90ea	-0.13727155
38	0x3d744d4b	0.059644025
39	0xbe1631da	-0.14667454
40	0xbe19d696	-0.15023264
41	0xbda3a2b5	-0.07990018
42	0xbe3af30f	-0.18256782
43	0xbe29e5c3	-0.16591553
44	0xbe50ad9f	-0.20378731
45	0xbe093608	-0.13399518
46	0xbe962bbc	-0.29330242
47	0xbe07b4de	-0.13252589
48	0xbe0a7a37	-0.13523184
49	0xbe4b54e5	-0.19856603
50	0xbcea0de6	-0.02857108
51	0xbdb294f1	-0.087198146
52	0xbdac3bee	-0.08409868
53	0x3b846c0c	0.0040412005
54	0xbc97e28e	-0.018540647
55	0x3f022e56	0.50851953
56	0x3d984b15	0.07436196
57	0xbd50f97c	-0.051019177
58	0xbc8d28a2	-0.01723129
59	0xbdda4d7f	-0.106593125
60	0xbf13e720	-0.57774544
61	0xbe14e198	-0.14539182
62	0x3f010f1e	0.5041369
63	0xbe58d839	-0.21176232
64	0x3c67b4ec	0.014142256
65	0xbd2ca478	-0.042149037
66	0x3d010ff7	0.031509366
67	0x3e3f9f19	0.18713035
68	0xbe81c26c	-0.25343645
69	0xbbc7aa57	-0.006093304
70	0xbed09e08	-0.40745568
71	0xbeb94dfe	-0.36192316
72	0xbe9d4325	-0.3071529
73	0xbd92e06b	-0.071717106
74	0x3a3b70f1	0.00071503135
75	0x3d60c4b2	0.054875083
76	0x3e1ba389	0.15199102
77	0x3e8b88fd	0.2725295
78	0xbe699c9e	-0.22813651
79	0x3cfa9402	0.030588154
80	0xbd205c88	-0.039150745
81	0x3dc13709	0.09434325
82	0xbe4b92cf	-0.19880222
83	0xbe7c36f3	-0.24630336
84	0xbe9aa9fa	-0.30207807
85	0xbd54e98c	-0.05198054
86	0xbd93e610	-0.07221615
87	0x3e37d799	0.17953338
88	0x3daa042a	0.083015755
89	0x3dd0ef3e	0.10201882
90	0x3d8ceba1	0.0688088
91	0xbd834bac	-0.06410918
92	0xbdb09b12	-0.08623327
93	0x3db32dce	0.08748971
94	0x3e92d64c	0.2867912
95	0xbeaeed15	-0.34165254
96	0x3e2fce78	0.17168605
97	0xbd9a21a9	-0.075259514
98	0xbea96d0f	-0.33091018
99	0xbd4e1017	-0.050308313
100	0xbd9c1391	-0.076209195
101	0x3e2274c2	0.15864852
102	0x3b1cc19d	0.0023919113
103	0xbe28639f	-0.16444252
104	0xbe202a28	-0.15641081
105	0xbe1f6c96	-0.15568766
106	0xbe4ac87d	-0.19803043
107	0xbd4c4498	-0.049870104
108	0xbe320341	-0.17384054
109	0xbe1c30c4	-0.15252978
110	0x3caa3289	0.02077605
111	0xbc66f438	-0.014096312
112	0xbde8f844	-0.11375478
113	0xbdf1b022	-0.11801173
114	0xbbee37c3	-0.007269831
115	0xbbdb08b9	-0.0066843894
116	0x3d9f3e84	0.07775596
117	0xbdeac861	-0.114640005
118	0xbe11d4cc	-0.14241332
119	0x3e049049	0.12945665
120	0xbbcf7354	-0.006330887
121	0xbd83761f	-0.06419014
122	0xbda15c51	-0.07878936
123	0xbd7a5815	-0.061119158
124	0x3ce0265c	0.027362041
125	0x3e430d50	0.19048047
126	0x3d79abf8	0.060955018
127	0xbd7fe6b7	-0.062475886
128	0x3e133907	0.14377223
129	0x3d9543a5	0.07288293
130	0x3e4b6e8e	0.19866392
131	0xbe258028	-0.16162169
132	0xbe245e4f	-0.16051601
133	0x3d4f3e0b	0.05059628
134	0x3db41cb2	0.08794536
135	0x3db61ac2	0.088918224
136	0xbe8d7ba6	-0.276334
137	0xbe1453a9	-0.14485039
138	0xbe2c0828	-0.16799986
139	0xbd8e3107	-0.06942945
140	0xbe01a228	-0.12659514
141	0xbe31e67a	-0.17373076
142	0xbd4306bb	-0.04761384
143	0xbdd0f805	-0.10203556
144	0xbd6a054c	-0.057133958
145	0xbe01342f	-0.12617563
146	0xbd64d011	-0.05586249
147	0xbe01dba0	-0.12681437
148	0xbe336828	-0.17520201
149	0xbda640e9	-0.081178494
150	0x3d5ef548	0.054433137
151	0xbde62e8f	-0.11239349
152	0x3d90a6ac	0.0706304
153	0x3da935c2	0.082622066
154	0xbe6bff31	-0.23046567
155	0x3c664104	0.014053587
156	0x3dfbc522	0.122934595
157	0x3e31f692	0.17379215
158	0x3ead1740	0.338068
159	0x3e16eab9	0.14737977
160	0x3ce7716d	0.028252328
161	0x3ab4d393	0.0013795964
162	0xbe987979	-0.29780176
163	0xbdc07618	-0.093975246
164	0xbd44d978	-0.048058957
165	0xbe6c617a	-0.2308406
166	0xbd0b5473	-0.034016084
167	0x3d356c5e	0.0442928
168	0x3cb0a0cf	0.021561055
169	0x3d991500	0.074747086
170	0xbd926074	-0.07147303
171	0xbe526db4	-0.20549661
172	0xbd0b05a8	-0.03394094
173	0xbe045f1f	-0.12926911
174	0xbe10fa7c	-0.14158052
175	0xbe0cc0ca	-0.13745418
176	0xbc27f82b	-0.010252039
177	0xbe18265d	-0.14858384
178	0xbe52b225	-0.20575769
179	0xbd1dc0f5	-0.038514096
180	0xbd917b14	-0.071035534
181	0xbd93e23a	-0.07220884
182	0xbdc1f196	-0.09469907
183	0xbe1d24f3	-0.15346126
184	0xbcf8e70b	-0.030383607
185	0x3d13f528	0.03612247
186	0xbdeada9e	-0.11467479
187	0xbe086192	-0.1331847
188	0xbdc07289	-0.09396846
189	0x3e26f724	0.16305214
190	0x3e0c16f6	0.13680634
191	0xbd3c632e	-0.045993023
192	0x3e62ab33	0.2213562
193	0x3da533bf	0.080665104
194	0xbe078a5f	-0.13236378
195	0xbdc50308	-0.09619719
196	0x3d53803e	0.051635973
197	0x3e0a2fd7	0.13494812
198	0xbd223d7e	-0.039609425
199	0xbc8cd8b8	-0.017193183
200	0x3e1d565b	0.15364973
201	0x3d2b2874	0.041786626
202	0x3d752da8	0.059857994
203	0x3d03cf29	0.032179985
204	0xbd750dbf	-0.059827562
205	0x3d3e6aea	0.04648868
206	0x3bf5d441	0.0075021093
207	0xbd8104fb	-0.06299778
208	0xbe36b5c7	-0.1784278
209	0x3c7eb1cd	0.015545321
210	0xbe505869	-0.20346226
211	0x3cf302fb	0.029664507
212	0xbddcfbd5	-0.10790221
213	0xbdc09edd	-0.09405301
214	0xbe95e19d	-0.29273692
215	0xbeaf6f92	-0.3426481
216	0x3d0549d6	0.03254112
217	0x3c7d39a7	0.01545564
218	0xbe16f456	-0.14741644
219	0xbd855f98	-0.06512374
220	0xbe9572e3	-0.29189214
221	0xbd8e33ba	-0.0694346
222	0xbe216e5f	-0.1576476
223	0x3dc83182	0.09775068
224	0xbd45db1c	-0.048304662
225	0xbb9f459c	-0.004860593
226	0x3e60bfc0	0.21948147
227	0x3e95d530	0.29264212
228	0x3d51bacb	0.05120353
229	0x3d28ac83	0.041180145
230	0xbddb2e2b	-0.10702165
231	0xbe916d9a	-0.28403932
232	0xbd44c5a4	-0.048040047
233	0x3e3fa692	0.18715885
234	0x3daf3017	0.08554094
235	0xbd8263b5	-0.06366674
236	0xbd8cbe32	-0.068722144
237	0x3de5ebd9	0.11226625
238	0x3d8c4b8a	0.068503454
239	0x3cd64a16	0.026158374
240	0xbdd8cc09	-0.105857916
241	0xbdd8da57	-0.1058852
242	0xbe28f89b	-0.16501085
243	0xbe7df5a4	-0.24800736
244	0x3ebdeb83	0.37093744
245	0x3dd19e6d	0.102352954
246	0xbe2656f1	-0.16244103
247	0x3e8ae829	0.2713025
248	0x3e06c1f1	0.1315992
249	0x3e3ce182	0.184454
250	0x3d9767f5	0.07392875
251	0xbddae049	-0.1068731
252	0xbd6ec868	-0.05829659
253	0x3d577467	0.052601244
254	0x3e02987a	0.12753478
255	0x3d846248	0.06464058

linear1.bias f4 [128]
0	0xbf15f40c	-0.5857551
1	0xbe022e5e	-0.12713
2	0xbdbe3a4b	-0.09288462
3	0xbeebf4d0	-0.46085215
4	0xbf43f6a9	-0.7654825
5	0xbf3149c5	-0.6925319
6	0xbf335cd3	-0.70063514
7	0x3dd46886	0.10371499
8	0x3e194485	0.14967544
9	0x3f245f87	0.64208263
10	0x3f5edff6	0.8706049
11	0x3f4d167d	0.8011244
12	0x3f6b9586	0.9202503
13	0xbed6db8e	-0.41964382
14	0x3f758aab	0.95914716
15	0x3ea6e636	0.32597512
16	0x3f2bc2f7	0.6709437
17	0xbf614ed3	-0.880109
18	0x3f6170ba	0.8806263
19	0x3f53627e	0.8257216
20	0x3f25a03b	0.6469762
21	0xbe66fd87	-0.2255765
22	0xbf2c0d28	-0.67207575
23	0x3f486274	0.7827523
24	0x3f4876a1	0.78306013
25	0xbead3081	-0.33826068
26	0xbefde5f9	-0.49589518
27	0x3eb6be5d	0.3569211
28	0xbf0c0168	-0.54689646
29	0x3f4dd30f	0.80400175
30	0x3f504932	0.8136169
31	0xbf3ebedf	-0.74509996
32	0x3f535fb7	0.82567924
33	0x3dd177e9	0.10227949
34	0x3f3c6829	0.73596436
35	0xbe188a9d	-0.14896627
36	0x3f34871d	0.70518667
37	0x3ea6b157	0.32557175
38	0xbf006b70	-0.50163937
39	0x3efe3484	0.4964944
40	0x3ec9a917	0.39386818
41	0xbe9fa8fb	-0.3118361
42	0x3f0f5de5	0.56002647
43	0x3e7691b8	0.24079025
44	0xbf605a3e	-0.876377
45	0x3f4c7ca1	0.7987767
46	0x3f10459a	0.56356204
47	0xbf439f4e	-0.76414955
48	0x3ea6441f	0.32473847
49	0xbf0e545f	-0.5559749
50	0xbec1064b	-0.37700114
51	0xbeab36be	-0.33440202
52	0xbe6cfaff	-0.23142622
53	0x3cae0301	0.021241667
54	0x3f4c4305	0.79789764
55	0x3f202d7f	0.6256942
56	0xbf359a77	-0.7093882
57	0x3f640d40	0.8908272
58	0xbf19d05d	-0.6008356
59	0xbf089ef2	-0.5336753
60	0x3f2e903f	0.6818885
61	0x3f14ea18	0.581697
62	0x3cae9e7e	0.02131581
63	0x3f812df4	1.0092149
64	0xbda8bb21	-0.08238817
65	0xbedce515	-0.43143526
66	0x3f69209b	0.91065377
67	0x3f3d759e	0.74007595
68	0xbf3cc059	-0.73731
69	0xbe399329	-0.18122543
70	0x3f87b403	1.060181
71	0x3efa4e4f	0.4888787
72	0xbe8a9377	-0.27065632
73	0xbea3cc3b	-0.31991753
74	0x3e39a07a	0.18127623
75	0xbeea9f04	-0.45824444
76	0x3f1269d1	0.57192713
77	0x3f3dee4d	0.74191743
78	0xbf48106c	-0.7815006
79	0xbda489f6	-0.080341265
80	0x3f3933d5	0.72344714
81	0x3ef02b19	0.4690788
82	0xbf5975be	-0.84945285
83	0x3f5d5af1	0.8646689
84	0xbf13444e	-0.575261
85	0xbf085c8a	-0.53266203
86	0xbe9c3dc4	-0.30515873
87	0xbeb91b68	-0.36153722
88	0x3f40abac	0.7526195
89	0x3f7d65f4	0.98983693
90	0x3ebc59bc	0.36787212
91	0xbf0a32a3	-0.53983516
92	0x3f13246b	0.57477444
93	0x3ee98bcc	0.4561447
94	0x3f460fc5	0.7736781
95	0x3f1b7423	0.60724086
96	0x3ebe996c	0.37226427
97	0x3f32c4a0	0.69831276
98	0xbf4bbeeb	-0.7958819
99	0x3e7beac3	0.24601273
100	0x3eaeb6af	0.34123752
101	0x3f06cea8	0.5265908
102	0x3f281088	0.65650225
103	0xbe256dd5	-0.16155179
104	0x3f5bfa0a	0.85928404
105	0x3eb6d568	0.3570969
106	0x3ee9b6e9	0.45647362
107	0x3ef7e79d	0.48418894
108	0x3e9ecfb3	0.31017837
109	0x3f00b11a	0.50270236
110	0xbf4fd155	-0.8117879
111	0xbf16b990	-0.58876896
112	0x3f2f35ba	0.68441355
113	0x3f53c374	0.8272011
114	0xbd9b19b0	-0.07573259
115	0x3f801f52	1.0009558
116	0x3f65ce8e	0.897683
117	0x3f57a67e	0.8423842
118	0x3ee27903	0.4423295
119	0x3ea77a4c	0.32710493
120	0x3f415d03	0.7553255
121	0xbf2ef2ed	-0.68339425
122	0xbecc5604	-0.39909375
123	0x3effb7b3	0.4994484
124	0xbec42e0a	-0.38316375
125	0xbeec9234	-0.46205294
126	0xbec4fe14	-0.38475096
127	0x3eaef8fb	0.34174332

linear2.weight f4 [64, 128]
0	0xbf02ad6c	-0.5104587
1	0xbf84457b	-1.0333704
2	0xbf327267	-0.69705814
3	0xbf8b207c	-1.0869288
4	0xbf16e920	-0.5894947
5	0xbf2283b1	-0.63482195
6	0x3e960d22	0.29306895
7	0x3e1d5014	0.15362579
8	0xbe153aa9	-0.14573158
9	0xbefad02d	-0.4898695
10	0xbd402eeb	-0.046919744
11	0x3dd81a22	0.105518594
12	0xbee87497	-0.4540145
13	0xbf07560d	-0.5286568
14	0x3ced475b	0.028964689
15	0xbf4fc506	-0.8116001
16	0xbf59038b	-0.8477103
17	0x3c3979bd	0.011320529
18	0xbf051d5d	-0.5199793
19	0x3b4b648e	0.0031035277
20	0xbcd91bff	-0.026502607
21	0x3ec4f72d	0.3846983
22	0xbee3dd47	-0.4450476
23	0xbe4a0b58	-0.1973089
24	0xbf117355	-0.5681661
25	0xbf526f80	-0.82201385
26	0x3d61ec2e	0.05515688
27	0x3eb7c3e3	0.35891637
28	0xbf8bdc6d	-1.0926644
29	0xbebe608f	-0.37183043
30	0xbeab290c	-0.33429754
31	0xbe6cd69f	-0.23128746
32	0xbdd0e4c5	-0.10199884
33	0x3ef9a31d	0.48757258
34	0x3e9fa523	0.31180677
35	0x3f22245b	0.63336724
36	0xbefdd7d5	-0.4957873
37	0xbead7c2c	-0.33883798
38	0x3e10460e	0.14089224
39	0xbe4b8331	-0.19874264
40	0xbe661cf3	-0.22471981
41	0x3e6add7a	0.22936049
42	0xbebe5949	-0.37177494
43	0x3e65fcdb	0.22459738
44	0xbcbef29d	-0.023309046
45	0xbda31355	-0.07962672
46	0xbb9ca332	-0.0047801966
47	0xbe23295f	-0.1593375
48	0x3ea74d86	0.32676333
49	0xbf6dedd5	-0.9294103
50	0x3ec3f4dd	0.38272753
51	0x3e3cc3bb	0.1843404
52	0x3e1637cf	0.14669727
53	0x3d235c10	0.03988272
54	0xbe254a16	-0.16141543
55	0x3e04780b	0.12936418
56	0x3e2b6247	0.16736709
57	0xbdb14c2d	-0.086571075
58	0xbfbc4c26	-1.4710739
59	0x3db7c5ed	0.08973298
60	0xbf37204f	-0.71533674
61	0xbd497644	-0.049185053
62	0xbc613cdc	-0.01374742
63	0xbf367efc	-0.7128751
64	0x3e064d5f	0.13115452
65	0x3e56c148	0.20972168
66	0x3e5573e2	0.20844987
67	0x3c79dba7	0.015250123
68	0x3e5ed79e	0.21761939
69	0xbe4fd909	-0.20297636
70	0xbf11b2eb	-0.5691363
71	0xbf9acbe5	-1.2093474
72	0x3d06e30b	0.03293137
73	0xbc3891ac	-0.0112652
74	0xbe417bb4	-0.18894845
75	0xbffdd50e	-1.9830644
76	0x3e0b766c	0.13619393
77	0xbe1ee1e2	-0.15515855
78	0x3dce0b7a	0.10060783
79	0xbd494659	-0.049139354
80	0x3daf6815	0.08564774
81	0xbef815d4	-0.48454154
82	0x3e1487f5	0.14504988
83	0xbf2827a0	-0.6568546
84	0xbe92d6ec	-0.28679597
85	0x3cedfae8	0.029050305
86	0xbe9d2b20	-0.30696964
87	0xbd863a49	-0.06554086
88	0x3dba3910	0.09092915
89	0x3dc80b68	0.097678006
90	0xbf915388	-1.1353617
91	0xbdfb2621	-0.12263132
92	0xbe3c2bcb	-0.1837608
93	0xbf0f78f5	-0.5604394
94	0xbead0f54	-0.33800757
95	0x3e89ba9c	0.26900184
96	0xbee9be5f	-0.45653054
97	0xbda0bf3e	-0.078489766
98	0xba441d46	-0.0007481169
99	0xbf478c5e	-0.7794856
100	0xbfa42d5b	-1.2826341
101	0xbf687545	-0.9080394
102	0xbe6cc10a	-0.23120514
103	0x3f7b424c	0.98148036
104	0xbe3beb70	-0.18351531
105	0x3e27dba7	0.16392384
106	0xbe7d92ce	-0.24763033
107	0xbedfc5a7	-0.43705484
108	0xbed6591b	-0.41864857
109	0x3e565366	0.20930251
110	0x3ecbb668	0.39787602
111	0x3e5be43d	0.21473785
112	0xbf6cfaf7	-0.9257044
113	0xbf0e8471	-0.5567084
114	0xbd94b439	-0.07260937
115	0xbef435c6	-0.47697276
116	0xbe138a11	-0.14408137
117	0x3d4d64a2	0.0501448
118	0xbf6b6700	-0.9195404
119	0xbeedf51f	-0.46476075
120	0xbdea01f7	-0.11426156
121	0xbe45d0a9	-0.19317879
122	0x3ddbb57a	0.10727973
123	0xbf44a60c	-0.7681587
124	0x3a4ce98b	0.0007816783
125	0x3dc4512a	0.09585793
126	0xbe46b641	-0.19405462
127	0x3e522c0b	0.20524614
128	0x3c5368b4	0.012903381
129	0x3e317950	0.17331433
130	0x3dfb4880	0.12269688
131	0x3c147ebc	0.009063419
132	0x3df28b17	0.118429355
133	0xbd12931c	-0.035784826
134	0xbd0adc21	-0.033901338
135	0x3d013787	0.031547096
136	0xbe67eb33	-0.22648315
137	0x3cba12f4	0.022714116
138	0x3e1efc67	0.15525971
139	0xbdbf72d6	-0.09348075
140	0x3ba3f683	0.0050037517
141	0x3deb7fb4	0.11498967
142	0x3e09073f	0.1338167
143	0xbe8816d2	-0.2657991
144	0xbb6d3bf8	-0.0036199074
145	0x3c7c38e7	0.015394426
146	0xbc30037c	-0.010743018
147	0xbe46b360	-0.19404364
148	0xbd9afe0b	-0.07567986
149	0x3e2face7	0.17155801
150	0x3d914f95	0.07095257
151	0x3e0b3e83	0.13598065
152	0x3e20b7f1	0.15695168
153	0x3d8b9fbf	0.068175785
154	0xbc14bf31	-0.009078787
155	0xbddbcd48	-0.10732514
156	0x3dc967d9	0.098342605
157	0x3dd80217	0.105472736
158	0x3cc66365	0.024217317
159	0x3e0704af	0.1318538
160	0xbdc89fe3	-0.09796121
161	0xbe24b2c0	-0.16083813
162	0xbd8f22b9	-0.06989045
163	0xbf09e8a7	-0.53870624
164	0x3d3a7f5b	0.045531612
165	0x3d98fb72	0.074698344
166	0xbdb5f89b	-0.08885308
167	0x3e1bb475	0.15205558
168	0x3d93f996	0.07225339
169	0x3d085138	0.03328058
170	0x3e272a45	0.16324718
171	0x3d8e5792	0.069502965
172	0x3d8247bb	0.06361338
173	0x3dc8852b	0.09791025
174	0x3de70211	0.11279691
175	0x3da5d0fa	0.080965
176	0x3be0ebae	0.0068640327
177	0xbd079b2d	-0.03310697
178	0xbe27de08	-0.16393292
179	0xbe24b6e7	-0.16085397
180	0xbda7f2a8	-0.0820058
181	0x3d46acec	0.048504755
182	0x3e2bf7fd	0.16793819
183	0x3b8bcc86	0.0042663245
184	0x3d1fcb0c	0.039012
185	0x3dc67b26	0.096914575
186	0x3b1f28ce	0.0024285796
187	0xbd8b32f7	-0.0679683
188	0x3c832a94	0.016011514
189	0xbd8d2262	-0.068913236
190	0x3c241dd3	0.010016876
191	0x3e13555c	0.14388031
192	0x3cf32c21	0.029684128
193	0xbdb1099e	-0.086444125
194	0x3dd95eac	0.1061376
195	0xbd56ed25	-0.052472252
196	0x3e1cd6c4	0.15316302
197	0x3db72782	0.089430824
198	0x3e59e584	0.2127896
199	0x3dea6b09	0.114461966
200	0x3e10336c	0.14082116
201	0x3d53113b	0.051530104
202	0xbebc5e42	-0.36790663
203	0x3d08b0fb	0.033371907
204	0xbdd122d7	-0.10211723
205	0xbbd92b5f	-0.0066274847
206	0x3ca6fd0c	0.020384334
207	0xbf060665	-0.5235351
208	0x3e4d84e0	0.20070219
209	0x3da7e7aa	0.08198483
210	0xbd0f57ae	-0.034995727
211	0x3e5c5b9a	0.21519318
212	0xbdcd85ca	-0.10035284
213	0xbca4520a	-0.02005865
214	0xbd0e0d48	-0.034680635
215	0x3dc42bd8	0.09578675
216	0xbd7d1d6b	-0.061795633
217	0x3dc77bbc	0.09740397
218	0x3dc6729c	0.09689829
219	0xbdfa8b27	-0.122335725
220	0x3d921e2a	0.071346596
221	0xbda35e4c	-0.0797697
222	0x3d792d6c	0.060834333
223	0xbcb47e0a	-0.022032756
224	0x3e19619a	0.14978638
225	0x3e15e714	0.1463893
226	0xbe01ca2f	-0.12674783
227	0x3e04b588	0.12959874
228	0x3d2b5398	0.041827768
229	0x3acc6a3c	0.0015595625
230	0xbd284728	-0.041083485
231	0xbf90cb5e	-1.1312063
232	0xbdab52f6	-0.08365433
233	0xbd445b4d	-0.047938634
234	0xbe9dc984	-0.30817807
235	0x3cc67149	0.02422394
236	0xbef1f693	-0.47258434
237	0xbe1631a2	-0.14667371
238	0x3e85f066	0.26159972
239	0xbdbba9a9	-0.091632195
240	0xbe57f435	-0.21089251
241	0x3e12139b	0.14265291
242	0xbe49523d	-0.19660278
243	0x3db1607f	0.08660983
244	0x3da7cc07	0.08193212
245	0x3d0890a8	0.03334108
246	0xbd8fd634	-0.07023278
247	0x3ddfa290	0.10919678
248	0xbcaac665	-0.020846555
249	0xbd4353d9	-0.047687385
250	0xbe82872a	-0.25493747
251	0xbd3b055f	-0.04565942
252	0xbe06dc69	-0.13170017
253	0x3d69fe87	0.0571275
254	0x3e0e5aea	0.13901868
255	0xbd1e74d6	-0.038685642

linear2.bias f4 [64]
0	0xbedaba1a	-0.4272011
1	0x3f550b9f	0.8322086
2	0x3f61de15	0.88229495
3	0xbed756ee	-0.4205851
4	0x3f23fe29	0.6405969
5	0x3f653e17	0.89547867
6	0x3f406f0a	0.7516943
7	0xbec9cdab	-0.39414725
8	0x3f39856e	0.7246922
9	0xbf0ba40e	-0.545472
10	0x3f5f489a	0.87220156
11	0x3f665818	0.8997817
12	0x3f49ef78	0.78881025
13	0xbf0475da	-0.5174233
14	0x3f61b7f9	0.88171345
15	0x3f51734e	0.81816566
16	0x3f401e6e	0.7504643
17	0x3f3df832	0.7420684
18	0xbef73836	-0.48285073
19	0xbee9507b	-0.45569214
20	0x3f681350	0.9065447
21	0x3f5f102a	0.8713404
22	0xbf161dee	-0.5863942
23	0x3f44413e	0.7666205
24	0xbf19b8e5	-0.6004775
25	0xbeddf00a	-0.43347198
26	0xbece0433	-0.4023758
27	0x3f436e1b	0.7633988
28	0x3f35f821	0.7108174
29	0xbf0f70e0	-0.5603161
30	0xbef5f981	-0.4804192
31	0x3f5dc459	0.8662773
32	0xbf1cb3c5	-0.61211807
33	0x3f5fb19a	0.87380373
34	0x3f5cf3c7	0.86309475
35	0xbee32828	-0.44366574
36	0xbf034738	-0.51280546
37	0x3e4391f6	0.19098648
38	0xbf183477	-0.59455055
39	0xbf58278e	-0.84435356
40	0x3f476f66	0.77904356
41	0x3f397e4d	0.72458345
42	0x3f4c312d	0.79762536
43	0xbf26038b	-0.64849156
44	0x3f6091a0	0.87722206
45	0x3f5c2017	0.85986465
46	0xbf35ca9a	-0.7101227
47	0xbf216891	-0.6305018
48	0x3f49ac03	0.78778094
49	0xbeed8ca1	-0.46396354
50	0xbf201a44	-0.6254008
51	0x3f2a371c	0.6649034
52	0xbf1bfe4e	-0.60934913
53	0x3f56cb32	0.839038
54	0xbf0fd89a	-0.5618988
55	0xbf0d4bdb	-0.5519387
56	0x3f36db47	0.7142834
57	0xbf10fa03	-0.5663149
58	0xbf204286	-0.62601507
59	0xbf01fc8f	-0.50776
60	0xbf0cb7d2	-0.5496799
61	0xbf10e23d	-0.5659521
62	0xbea2f6ce	-0.31828922
63	0x3f4ead60	0.807333

output.weight f4 [1, 64]
0	0xc03b3eaa	-2.9256997
1	0x3e911f3f	0.2834415
2	0x3e42a50d	0.19008274
3	0xbf447a84	-0.76749444
4	0x3ee84019	0.45361403
5	0x3f3b20d9	0.73096997
6	0x3ec71236	0.3888108
7	0xbf83ea9a	-1.030597
8	0x3f812d59	1.0091964
9	0xbf89a3ca	-1.075311
10	0x3e1e6662	0.15468743
11	0x3f38a905	0.72132903
12	0x3e692dfc	0.22771448
13	0xbee894a3	-0.454259
14	0x3e9f90ff	0.3116531
15	0x3ed0815e	0.407237
16	0x3ed30c4e	0.41220325
17	0x3e585a68	0.21128237
18	0xbeea41ab	-0.45753226
19	0xbf3197eb	-0.69372433
20	0x3ef00c9e	0.46884626
21	0x3ea3e215	0.32008424
22	0xbf452eed	-0.7702473
23	0x3efd943f	0.49527165
24	0xbf282a3d	-0.6568945
25	0xbf278548	-0.65437746
26	0xbfabb171	-1.3413526
27	0x3eee3bac	0.465299
28	0x3ec0ac7f	0.37631604
29	0xbf05445a	-0.5205742
30	0xbf0f6d0a	-0.56025755
31	0x3eefe149	0.46851566
32	0xbed487e6	-0.41509932
33	0x3ee15140	0.440073
34	0x3ea8b08e	0.329472
35	0xbf5be87f	-0.85901636
36	0xbf38bffb	-0.7216794
37	0x3f6a7ad4	0.9159367
38	0xbf2a5637	-0.66537803
39	0xbe2eb0b3	-0.17059593
40	0x3ee6d153	0.45081577
41	0x3edcdcae	0.43137115
42	0x3f23ff62	0.6406156
43	0xbed26c67	-0.4109833
44	0x3ee032c0	0.4378872
45	0x3e9047a3	0.28179654
46	0xbecd2b35	-0.40072027
47	0xbf56ed81	-0.8395615
48	0x3e4081ac	0.18799466
49	0xbf3bd38f	-0.7336969
50	0xbf73ddb9	-0.95260197
51	0x3f24ee87	0.64426464
52	0xbf0aa0ab	-0.5415141
53	0x3e5d2ddd	0.21599527
54	0xbf83ecfc	-1.0306697
55	0xbf5928cd	-0.8482788
56	0x3e6a5aee	0.2288625
57	0xbf39e027	-0.72607654
58	0xbf95fc0f	-1.1717547
59	0xbefaf11b	-0.49012074
60	0xbf1d8d7d	-0.6154402
61	0xbf0e5b03	-0.5560762
62	0xbf975882	-1.1823885
63	0x3ee2d394	0.44302046

exp_avg f4 [128, 34]
0	0x403f73a0	2.9914322
1	0xbec5d108	-0.3863604
2	0x3e004978	0.12528026
3	0x3cb0e8f0	0.021595448
4	0xbe865d66	-0.26243132
5	0xbe43dac9	-0.19126429
6	0x3d6d7ab4	0.057978347
7	0x3e1545a9	0.14577354
8	0xbe4a6e81	-0.19768716
9	0x3e709cd7	0.2349733
10	0xbdded93c	-0.10881278
11	0xbf119770	-0.568717
12	0x3f04e632	0.5191375
13	0xbe674cf7	-0.22587954
14	0xbf1be1e0	-0.6089153
15	0xbdc87222	-0.09787394
16	0x3f0712c7	0.52763027
17	0xbca3b6a0	-0.019984543
18	0xbea9147e	-0.33023447
19	0xbf2a305b	-0.66480035
20	0xbf4220e8	-0.7583146
21	0x3e394f7c	0.18096727
22	0x3e4d8814	0.20071441
23	0xbf8d2ba3	-1.1028942
24	0xbf8809c0	-1.0627975
25	0xbfbdb630	-1.4821224
26	0x3c9d9443	0.019235736
27	0x3d8501ae	0.06494461
28	0xbd9a8b50	-0.07546103
29	0xbf23cdb2	-0.6398574
30	0x403f6871	2.9907496
31	0xbfa0cd34	-1.2562623
32	0x400abc8d	2.1677582
33	0xc04ba64c	-3.182025
34	0x3e2375e4	0.1596294
35	0xbbb6c900	-0.0055781603
36	0x3df2b086	0.118500754
37	0x3dfbf939	0.12303395
38	0x3d6f026c	0.05835192
39	0xbd841b86	-0.06450562
40	0xbdcbcb0a	-0.09950836
41	0x3ddffa70	0.10936439
42	0xbd387262	-0.04503096
43	0xbc975ec8	-0.018477812
44	0x3db53490	0.08847916
45	0x3e85998d	0.26093712
46	0xbec5d988	-0.38642526
47	0xbc51a34b	-0.01279528
48	0x3ccc2ab2	0.024922702
49	0xbde9142a	-0.11380799
50	0x3d56d1f8	0.052446336
51	0xbe1345e8	-0.14382136
52	0x3e9c58e2	0.30536562
53	0xbe78b804	-0.24288946
54	0xbe910f29	-0.2833188
55	0x3bdac700	0.0066765547
56	0xbc710c20	-0.0147123635
57	0xbd3ec4d4	-0.04657443
58	0xbe248508	-0.16066372
59	0xbe465646	-0.19368848
60	0xbcfede02	-0.031111721
61	0xbc64d372	-0.013966428
62	0x3d12473e	0.035712473
63	0xbe1acc70	-0.15117049
64	0x3f2645f1	0.6495047
65	0x3edc6a7e	0.43049997
66	0xbe6a0858	-0.22854745
67	0xbf6de982	-0.9293443
68	0x3fad0aee	1.351896
69	0x3ebce472	0.3689304
70	0x3ccafb2a	0.024777967
71	0x3e6688f5	0.22513182
72	0x3e117684	0.14205366
73	0xbdbcbd43	-0.09215786
74	0xbd123d9f	-0.035703298
75	0xbd11e92e	-0.035622768
76	0xbd841eb2	-0.06451167
77	0xba22591c	-0.0006193088
78	0x3d0482ca	0.032351293
79	0xbe320b34	-0.17387086
80	0xbc5e31d0	-0.013561681
81	0x3c65a6ba	0.0140168015
82	0xbc999c60	-0.018751323
83	0xbde6e939	-0.112749524
84	0x3e04e15e	0.12976596
85	0xbdb83269	-0.0899399
86	0xbe1639a2	-0.14670423
87	0x3c649c78	0.013953321
88	0xbea33784	-0.31878293
89	0xbe2eb9b6	-0.1706303
90	0xbc216d78	-0.00985276
91	0xbf920e50	-1.1410618
92	0xbf1df2f0	-0.6169882
93	0xbf2d03aa	-0.67583716
94	0x3cc36877	0.023853524
95	0x3d0a89aa	0.033822693
96	0xbe37b40c	-0.17939776
97	0xbe9f3cbc	-0.31101024
98	0xbe9dbdd0	-0.30808878
99	0xc02aa71f	-2.6664503
100	0xbecfec0b	-0.40609774
101	0xc03497c1	-2.8217623
102	0x3ff0e513	1.8819908
103	0x3ec8a990	0.39191866
104	0xbe4ee085	-0.20202835
105	0x3e070964	0.13187176
106	0xbcd5da2e	-0.026105013
107	0xbe1238d2	-0.14279488
108	0x3c3e68b3	0.011621642
109	0xbd99ac52	-0.075035706
110	0xbde00115	-0.109377064
111	0x3e0aadda	0.13542882
112	0x3d04254a	0.032262124
113	0xbf04fedc	-0.51951385
114	0x3ead3ca7	0.33835337
115	0xbdb510e3	-0.088411115
116	0xbedb489e	-0.4282884
117	0x3d432ee6	0.047652148
118	0x3e796e7c	0.24358553
119	0x3d0ff5d0	0.035146534
120	0xbee49c8f	-0.44650695
121	0xbe53bd7e	-0.20677754
122	0xbf14abe1	-0.58074766
123	0x3ec1d30e	0.37856334
124	0x3e8f2026	0.27954215
125	0xbfa416b0	-1.2819424
126	0xbf4169f8	-0.7555232
127	0xbf9e833c	-1.23838
128	0x3cfc0134	0.030762292
129	0x3d142225	0.036165375
130	0xbe1846fa	-0.14870825
131	0xbeb5188c	-0.3537029
132	0x3ebed240	0.37269783
133	0xbff82a4b	-1.9387907
134	0x3e065750	0.13119245
135	0xbffa2623	-1.9542888
136	0x400cd022	2.2002034
137	0xbee1e5a8	-0.44120526
138	0x3ea00cf6	0.31259888
139	0xbe000d44	-0.1250506
140	0xbe96e1d0	-0.29469156
141	0x3e60b098	0.21942365
142	0x3d03ed33	0.032208633
143	0x3e1e3aba	0.1545209
144	0xbd574c96	-0.052563272
145	0x3e6b2fb0	0.2296741
146	0x3cf3d80e	0.029766109
147	0xbec1d6fa	-0.37859327
148	0x3e767b9c	0.2407059
149	0xbdbc2988	-0.09187609
150	0xbef98689	-0.48735455
151	0xbcf59902	-0.029980186
152	0x3ecea3e7	0.40359423
153	0xbdad8b42	-0.08473827
154	0xbdb3e584	-0.08784011
155	0xbf558d76	-0.8341898
156	0xbf41afa8	-0.75658655
157	0x3db353e0	0.08756232
158	0x3eeb50b6	0.45960015
159	0xbf8045a2	-1.002125
160	0xbf035dc1	-0.5131493
161	0xbf9cd5f1	-1.225279
162	0xbac8b024	-0.0015311283
163	0xbc94608d	-0.018112445
164	0xbe71a65a	-0.23598614
165	0xbf042eeb	-0.5163409
166	0x40108a63	2.2584465
167	0xbf86806e	-1.0507944
168	0x3e8c566c	0.27409685
169	0xc08ba4ae	-4.3638525
170	0x4002e54d	2.0452454
171	0xbee8896a	-0.4541734
172	0x3cf5724c	0.029961728
173	0xbd6a9493	-0.057270598
174	0xbe9bc509	-0.30423763
175	0x3bc65b72	0.0060533816
176	0x3dbcfc54	0.09227815
177	0x3ddb56ae	0.10709892
178	0xbd21bf8e	-0.03948932
179	0x3e346b6b	0.17619102
180	0xbde39686	-0.111126944
181	0xbed825d1	-0.42216352
182	0x3f03fd12	0.5155803
183	0xbdcd836e	-0.10034834
184	0xbed039de	-0.4066915
185	0xbc1fecf9	-0.0097610885
186	0x3ecc5471	0.39908174
187	0xbb1b8340	-0.0023729354
188	0xbea867d0	-0.32891703
189	0xbf07ba9e	-0.5301913
190	0xbe85f3ea	-0.26162654
191	0x3e347696	0.17623362
192	0xbaebd600	-0.0017992854
193	0xbf364de2	-0.7121259
194	0xbea1fe66	-0.31639403
195	0xbf72e476	-0.94879854
196	0xbc01abf4	-0.007914532
197	0xbd2b2694	-0.041784838
198	0xbe52e0cb	-0.20593564
199	0xbebbb7bf	-0.36663625
200	0x3f0f80d8	0.56055975
201	0xbfde4cc6	-1.7367179
202	0x3eeb5850	0.45965815
203	0xc02e48ce	-2.7231936
204	0x4087800d	4.234381
205	0xbe85b173	-0.26111946
206	0x3ecf5791	0.40496495
207	0xbe335203	-0.17511754
208	0xbd930a3c	-0.071796864
209	0x3ec7a928	0.38996243
210	0x3e253f81	0.16137506
211	0xbe91d5d4	-0.2848345
212	0xbde05550	-0.10953772
213	0xbd59f0b4	-0.053208068
214	0xbe35623d	-0.17713256
215	0xbedb595e	-0.4284162
216	0x3d9830d2	0.07431187
217	0xbe65f2c5	-0.2245589
218	0xbd350d49	-0.044202123
219	0xbd5c362b	-0.053762596
220	0x3f151df6	0.5824884
221	0xbdd7fc05	-0.10546116
222	0xbec3e80a	-0.3826297
223	0xbecbf044	-0.39831746
224	0xbf4b82ed	-0.7949665
225	0x3dc49a28	0.095997155
226	0xbe2f5541	-0.17122366
227	0xc02f0387	-2.7345903
228	0xbfa90f02	-1.3207705
229	0xbf993ea4	-1.1972241
230	0xbd56420d	-0.052309085
231	0xbe2c58d7	-0.16830765
232	0xbf395dcb	-0.7240874
233	0xbf915787	-1.1354836
234	0x3fc69335	1.5513674
235	0xc0b72490	-5.723213
236	0x3e1b4f70	0.15167022
237	0xc104a5c5	-8.290471
238	0xbe16440b	-0.14674394
239	0x3e524da7	0.20537435
240	0xbe2ecc39	-0.17070092
241	0xbeda6380	-0.42654037
242	0xbe0fc6e0	-0.14040709
243	0x3d8c10da	0.06839152
244	0xb933733f	-0.00017113703
245	0xbcd57a13	-0.026059186
246	0xb9a02064	-0.0003054171
247	0xbcdfd20e	-0.027321842
248	0x3beac8c5	0.007165047
249	0x3d22704b	0.039657872
250	0x3e0c42b2	0.13697317
251	0x3be8d957	0.007105987
252	0xbd4197f8	-0.04726407
253	0x3c6a1819	0.014287972
254	0xbd08e491	-0.033421103
255	0x3b3147f0	0.0027050935
