Data/Player1/checkpoint-test5.pth (torch, 514651 bytes, 20 tensors)

linear1.weight f4 [128, 34]
-0.38559365 -0.26812425 -0.12471735 0.012026093 -0.2914353 0.4438232 -0.2799077 -0.20535219
-1.0660725 -0.6745022 -0.8236991 -2.343053 -0.62497604 -0.03713246 0.72087234 0.033502065
-1.5503143 0.8563226 -0.04295809 0.63056564 0.86628157 1.259407 0.60680103 1.2875077
0.08307735 -0.15089048 -1.0950966 -2.1558342 -1.9920774 0.06455339 0.26738963 0.08918385
0.07318092 -0.04903376 0.0711784 1.7829251 0.49431935 0.31177858 0.5901609 0.013456636
-1.1508069 0.7259641 0.4002691 1.7756917 1.7196409 -0.5600229 1.2171098 -2.4142082
0.08993111 -1.4794668 -1.6861554 -1.1948625 -0.16706571 0.25925255 -1.5401771 -0.7895657
0.11000227 -0.8055104 0.24311413 -0.058577873 0.59753513 -0.09582761 -1.9643751 -0.91446954
0.22305052 0.15018909 0.08665743 -0.20204231 0.53125703 0.15876143 0.10885075 0.24351446
0.2200172 0.043776937 -0.5623183 -0.19296055 0.90545994 -0.3389769 0.24589618 0.33225158
-0.7274516 -0.6663342 0.35499784 -0.7864704 -0.2422357 -1.7047726 0.37089717 -1.4816995
-0.5834593 -3.538674 -2.1985931 -1.4333272 0.04838413 0.31294793 -1.2022867 3.507812
3.626987 -0.69261414 -0.078270435 0.13885127 -0.06248933 0.08803799 -0.38855442 -0.0009269667
-0.19863495 0.32965258 0.09363458 0.6872515 1.6183819 1.1547942 2.019572 2.0409174
0.6023688 1.2230948 1.1761476 0.2769835 0.5534593 -0.19824162 0.122915424 0.014342464
0.00940601 0.23014003 -0.3350525 -0.6514481 -0.15229283 -0.98098344 0.21246329 0.52749985
1.6264782 0.7773993 -3.328675 0.25128254 -0.017765008 -0.08649103 -0.16297865 0.033235155
-0.05820466 0.6918986 0.6022356 -0.15820889 -0.1585705 0.097764455 0.5385845 -0.9404212
-1.0535284 -0.10263637 -0.6119072 0.015454276 0.24222533 1.0495585 0.5778738 0.7826761
-2.4952412 0.8371255 0.6063849 1.7660999 0.41008446 -2.7638066 -0.75237423 -1.8544618
-0.24047926 -0.35704497 1.3533392 1.1212239 -1.1569451 -0.7047003 -0.15369904 0.024256384
0.10138663 -0.20248549 -0.19763081 1.1542112 -0.023445157 -0.0066568716 0.211762 -0.34052312
-1.6655271 0.05035344 -1.1788567 -1.4925805 0.27177066 -0.36286497 -1.9882405 -0.9719352
0.3109069 -1.257938 -1.1803774 -0.077998675 0.4907463 0.050291263 -0.31688324 0.61014503
1.1218009 -0.5575224 0.046136998 -0.15737128 1.8248081 -0.11328289 -1.3522698 -0.17030251
-1.8861955 -0.7129231 -1.5939007 -0.19871765 -0.08134314 -0.11208399 -0.59481287 0.18986076
-0.22803651 -0.43256426 -0.39844164 -0.9679713 -0.5552629 -1.0862042 0.44055954 0.18281303
1.899192 -0.8176805 1.1505834 -0.21829331 0.59020495 1.4855055 -0.0006544243 0.095234804
0.17914756 1.1733409 0.6280346 0.3565286 -0.14208771 -0.25517628 -1.9230412 -1.9440844
-5.885935 0.69303626 0.20879842 0.004533716 -0.1348702 0.109605834 -0.6344105 -1.0588721
-0.2445851 -0.65107626 -1.0024394 -1.0715184 -0.23912424 -1.0081683 -0.37897813 -1.0196444
-1.1475972 -1.063467 -1.3042554 -0.97715837 -0.8441818 0.1053297 -0.76457685 -1.544656
00000000: 886c c5be 9547 89be cf6b ffbd 1709 453c
00000010: 0237 95be cb3c e33e 1050 8fbe d847 52be
00000020: 1075 88bf 2dac 2cbf f2dd 52bf 95f4 15c0
00000030: 6efe 1fbf 3518 18bd 178b 383f 7639 093d
00000040: b370 c6bf f537 5b3f d2f4 2fbd c06c 213f
00000050: a1c4 5d3f 4034 a13f 5057 1b3f 0dcd a43f
00000060: 7524 aa3d 0983 1abe 202c 8cbf 30f9 09c0
00000070: 64fc febf 9134 843d 4be7 883e 06a6 b63d
00000080: e1df 953d a0d7 48bd fbc5 913d e436 e43f
00000090: 6d17 fd3e 71a1 9f3e c914 173f 3979 5c3c
000000a0: a44d 93bf c9d8 393f 12f0 cc3e de49 e33f
000000b0: 311d dc3f a95d 0fbf 41ca 9b3f 6382 1ac0
000000c0: cd2d b83d 2b5f bdbf f1d3 d7bf 41f1 98bf
000000d0: 4613 2bbe c0bc 843e 8624 c5bf fa20 4abf
000000e0: df48 e13d ee35 4ebf e9f2 783e 5aef 6fbd
000000f0: 10f8 183f 4441 c4bd a570 fbbf ad1a 6abf
00000100: 5b67 643e 2bcb 193e 7379 b13d 2ee4 4ebe
00000110: 7600 083f 5b92 223e 24ed de3d db5b 793e
00000120: 304c 613e 724f 333d 18f4 0fbf 7397 45be
00000130: 39cc 673f 618e adbe 35cc 7b3e e11c aa3e
00000140: 453a 3abf e194 2abf 47c2 b53e 2056 49bf
00000150: a30c 78be fd35 dabf 3ce6 bd3e 54a8 bdbf
00000160: 975d 15bf a379 62c0 c0b5 0cc0 4477 b7bf
00000170: 702e 463d b63a a03e 88e4 99bf fe7f 6040
00000180: 8e20 6840 294f 31bf 404c a0bd 072f 0e3e
00000190: d0f4 7fbd 434d b43d 9bf0 c6be afff 72ba
000001a0: f666 4bbe 39c8 a83e 7dc3 bf3d b7ef 2f3f
000001b0: 2327 cf3f 4cd0 933f ab40 0140 649e 0240
000001c0: d734 1a3f 5f8e 9c3f 018c 963f c8d0 8d3e
000001d0: 82af 0d3f daff 4abe 15bb fb3d a7fc 6a3c
000001e0: aa1b 1a3c d4a9 6b3e 008c abbe 4dc5 26bf
000001f0: a7f2 1bbe bb21 7bbf fa8f 593e 3b0a 073f
00000200: 7030 d03f a403 473f 0309 55c0 1ba8 803e
00000210: ec87 91bc 3622 b1bd e0e3 26be 9621 083d
00000220: 0268 6ebd 4420 313f 1d2c 1a3f 8301 22be
00000230: 4e60 22be bb38 c83d ace0 093f 72bf 70bf
00000240: 05da 86bf 0433 d2bd f3a5 1cbf ef33 7d3c
00000250: eb09 783e ef57 863f 8aef 133f 765d 483f
00000260: 08b2 1fc0 db4d 563f 0a3c 1b3f 900f e23f
00000270: 97f6 d13e 35e2 30c0 999b 40bf 015f edbf
00000280: 3240 76be 99ce b6be 383a ad3f 4484 8f3f
00000290: c716 94bf 3d67 34bf 4863 1dbe 53b5 c63c
000002a0: cba3 cf3d 5b58 4fbe bb5f 4abe 31bd 933f
000002b0: 0f10 c0bc e321 dabb 23d8 583e 0c59 aebe
000002c0: fe2f d5bf 693f 4e3d c7e4 96bf e10c bfbf
000002d0: 8625 8b3e 70c9 b9be aa7e febf bfd0 78bf
000002e0: 302f 9f3e 1d04 a1bf 9b16 97bf c5bd 9fbd
000002f0: 1943 fb3e 36fe 4d3d 853e a2be 7732 1c3f
00000300: 2c97 8f3f cab9 0ebf 26fa 3c3d f025 21be
00000310: 5093 e93f dc00 e8bd 2d17 adbf c863 2ebe
00000320: db6e f1bf 2182 36bf f004 ccbf a47c 4bbe
00000330: 3b97 a6bd 4a8c e5bd a845 18bf dc6a 423e
00000340: 6782 69be 1079 ddbe 8b00 ccbe f8cc 77bf
00000350: b625 0ebf bd08 8bbf 0591 e13e 5733 3b3e
00000360: b918 f33f 8253 51bf 5146 933f 4888 5fbe
00000370: ac17 173f 0b25 be3f ac8d 2bba 770a c33d
00000380: 7572 373e 0930 963f e0c6 203f eb8a b63e
00000390: 717f 11be 77a6 82be 3726 f6bf c2d7 f8bf
000003a0: 9459 bcc0 d36a 313f 41cf 553e 918f 943b
000003b0: 6a1b 0abe 0679 e03d ba68 22bf 1f89 87bf
000003c0: 8474 7abe efac 26bf ef4f 80bf 8427 89bf
000003d0: fcdc 74be a90b 81bf 6c09 c2be b583 82bf
000003e0: 77e4 92bf b01f 88bf d7f1 a6bf 0d27 7abf
000003f0: 4c1c 58bf 19b7 d73d 4fbb 43bf 4ab7 c5bf

linear1.bias f4 [128]
-1.4044104 -1.6207632 0.117243856 2.6328597 -0.270752 0.47683918 -0.40081584 -1.5059263
-1.2612576 -0.20597044 -0.5841222 0.6199464 0.8243968 -0.47783545 1.3275067 0.2682964
0.24656501 -0.0072767106 1.3648136 -0.15269458 0.16516727 1.7162427 -0.018954743 1.4545102
0.8090559 0.56814295 0.41671398 -0.47415486 -1.7582971 -0.32245702 0.56082475 0.28820786
-0.52127254 0.043040022 -0.10278995 -0.61262596 -0.009578961 0.15327439 0.13041317 0.10341858
-1.2560645 -0.898928 1.8711462 -0.49220228 0.67462015 0.7585109 0.27021554 0.5865699
-0.55271894 -0.8054894 -1.1642694 1.2031868 -0.7267652 -0.2149814 0.98257494 0.40009356
-0.21851245 -1.1005417 1.311873 -0.036015816 0.0041350517 -0.090147726 -0.25494224 -1.4986684
-0.48389465 0.041141316 -0.43146458 -0.36275062 2.0609465 -1.1321869 1.2763916 -0.4562866
0.16504711 -0.45860797 1.0794309 1.1463609 -0.15004651 0.65815145 -1.3929958 1.5964409
-0.14333317 0.31611022 -0.9446578 0.7858033 0.8728496 0.3295401 0.8049927 -1.0724328
-1.0633711 -0.7295932 -0.51031715 -0.0041552386 0.040571533 1.915454 0.03773917 0.23537903
-0.8198893 1.5973067 -0.052217063 1.9849584 -0.017304415 -0.44553134 0.540119 -0.90639764
-0.4476893 -0.7107311 0.4231394 0.21307905 0.4384745 -0.54285115 1.3945186 -1.1631379
0.27262723 -1.2839867 -0.43438166 0.2498494 -0.5915942 0.7779258 -0.40724942 0.80111015
0.20502698 0.98085153 0.087791264 -0.8300352 -1.0919154 -0.18165796 0.44125947 -0.0025078459
00000000: b8c3 b3bf 2b75 cfbf 8c1d f03d c680 2840
00000010: 02a0 8abe 4424 f43e bc37 cdbe 31c2 c0bf
00000020: e470 a1bf eae9 52be 0889 15bf cfb4 1e3f
00000030: ab0b 533f d9a6 f4be bdeb a93f 255e 893e
00000040: 8a7b 7c3e 7971 eebb 36b2 ae3f f85b 1cbe
00000050: 9c21 293e d7ad db3f fa46 9bbc 642d ba3f
00000060: 4a1e 4f3f d171 113f 895b d53e 6dc4 f2be
00000070: e10f e1bf 1619 a5be 3692 0f3f fb8f 933e
00000080: 1e72 05bf bc4a 303d 8a83 d2bd 0ed5 1cbf
00000090: 13f1 1cbc f6f3 1c3e 088b 053e 1fcd d33d
000000a0: b9c6 a0bf 2520 66bf b881 ef3f f001 fcbe
000000b0: e8b3 2c3f c52d 423f b159 8a3e 7229 163f
000000c0: fd7e 0dbf 8e34 4ebf c806 95bf 0602 9a3f
000000d0: 490d 3abf 1624 5cbe 088a 7b3f 10d9 cc3e
000000e0: bac1 5fbe 8dde 8cbf 74eb a73f 5285 13bd
000000f0: 547f 873b 5f9f b8bd ca87 82be 5ed4 bfbf
00000100: 0ac1 f7be cc83 283d ede8 dcbe 73ba b9be
00000110: 8ce6 0340 80eb 90bf cd60 a33f 669e e9be
00000120: 1c02 293e aace eabe cb2a 8a3f f4bb 923f
00000130: cba5 19be 9d7c 283f b04d b2bf 2d58 cc3f
00000140: eec5 12be 33d9 a13e 18d5 71bf 682a 493f
00000150: 1273 5f3f 7bb9 a83e 0014 4e3f 7a45 89bf
00000160: 8b1c 88bf 9fc6 3abf 25a4 02bf ab28 88bb
00000170: 562e 263d 992d f53f 6394 1a3d 3307 713e
00000180: 44e4 51bf 8c74 cc3f 8fe1 55bd 1e13 fe3f
00000190: fdc1 8dbc af1c e4be 3d45 0a3f ad09 68bf
000001a0: 8837 e5be 79f2 35bf baa5 d83e 6531 5a3e
000001b0: bb7f e03e 4bf8 0abf 967f b23f b4e1 94bf
000001c0: cc95 8b3e ad59 a4bf 4667 debe 85d8 7f3e
000001d0: b872 17bf 2526 473f ff82 d0be 8e15 4d3f
000001e0: 98f2 513e 1619 7b3f e8cb b33d 307d 54bf
000001f0: e2c3 8bbf 8b04 3abe c3ec e13e ac5a 24bb

linear2.weight f4 [64, 128]
-0.75768715 -0.62129855 -0.2389999 -0.4486428 -1.3300039 -0.24927053 -0.23323157 -0.3699771
-1.3993257 -0.12440361 -0.6538101 -0.92466813 -0.636781 0.039906688 0.08759827 0.38073394
-1.0906688 -0.13633485 -1.3246273 -0.11315988 -0.11685773 -0.111373246 -0.68465483 -0.7056113
0.27116022 -0.67713976 0.18066308 0.07281268 -0.112078026 -0.5043441 0.11842164 -0.35813877
-0.9705134 -0.036413487 -1.5624589 0.066323854 -0.8121931 -1.8800188 -0.6085194 -1.8594298
-0.060691882 0.61939657 -0.490136 0.11249766 -0.54002964 -0.5401723 -0.015492967 0.18419877
-0.10722571 -1.0082552 0.4673106 0.17309253 0.31964067 -1.7316328 -0.18573263 -0.61115587
-1.226385 0.09569694 -1.1075348 -0.15989548 -0.37244633 -0.50570214 0.2906119 0.07249306
-0.719894 -1.9333638 0.9717249 -0.42443186 -1.2498745 -1.3238243 1.1643667 -0.32321128
0.5374708 -0.60367006 -1.3894974 -0.28374103 0.13515095 -0.059560485 -0.051544372 0.22138427
-1.401129 -0.5052351 -0.25636134 -0.6571234 -0.7915155 -0.3678432 -0.631241 -1.5114518
-1.6126949 -0.9690148 -0.6887137 -1.0173484 -1.1371965 0.22198686 0.08124312 -0.6108568
1.0804318 -0.31523848 -0.3921256 -0.7213729 -0.16066915 0.65217197 -0.73576105 -0.14660247
-1.0904632 -1.4800644 -0.8617583 -0.00703973 0.7837714 -0.45091313 -0.9687959 -0.17524225
0.12220735 -2.4280577 0.16764228 -1.1755106 -0.678613 -0.64771825 -0.39871636 -0.05531256
-1.4194643 0.08779018 0.100755945 -0.63895357 0.21726052 -0.047769826 -0.33910888 -1.0572739
0.6674528 -0.07395532 0.020376487 -0.7002169 -0.21018408 -0.6887907 0.080764785 -0.6311643
-0.022290707 -0.6480714 -0.44104347 -0.3186087 -0.25493106 0.24372873 -0.47521493 -0.31809345
-0.28744903 -0.39538565 -1.2809601 0.29931328 0.8704457 -1.3858192 0.14153025 -0.7853129
0.41994828 -0.19303106 0.91682565 0.5149978 0.350907 -0.6108347 -0.93687224 0.39355057
0.5683548 -0.36988246 -0.4120227 0.49348354 -0.11891173 -0.108079255 0.15900403 -0.2142789
0.47138378 -0.12988688 0.44842955 1.2847344 -0.3871041 -0.1749738 -0.032446362 -0.6774583
0.59285706 0.45961887 -0.21140411 -0.26425245 0.02657136 0.4420299 0.22085965 -0.05248368
-0.49297592 -0.3202675 -0.4467496 -0.114746235 -0.13922442 -0.8981082 0.09864671 -0.28269374
-0.3871973 -0.3075373 0.2813737 -0.06243706 -0.9637403 0.4736857 -0.6811046 0.5005687
-0.023573503 -0.35803592 -0.9995634 -1.1095403 0.2746598 -1.2028923 0.042962387 0.105749205
-0.36856076 -0.74450237 -0.04351835 -0.65088326 0.098902464 -0.08243609 -0.47696748 0.08737869
-0.5164372 -0.73553306 0.44040024 -0.40307212 -0.35856062 -0.9460083 -0.5941818 -0.30202487
-0.3627572 0.04338813 0.30397815 -0.061603114 0.6169457 -0.116204426 1.4207544 -0.6323268
-0.46603295 -0.6888384 -0.6071511 -0.692679 0.59022266 0.9673407 -0.7897137 -0.052576937
-0.44468388 0.5879965 -0.46147686 -0.8333977 -0.22190663 -1.0017173 -0.6006173 -0.03392944
-0.46253192 0.15214702 -0.44617507 0.7862609 0.26538566 0.12727956 -0.23492973 -0.39356995
00000000: c9f7 41bf 6c0d 1fbf 64bc 74be 82b4 e5be
00000010: 913d aabf c640 7fbe 42d4 6ebe a36d bdbe
00000020: 1b1d b3bf 52c7 febd 1960 27bf 0db7 6cbf
00000030: 1404 23bf 3275 233d b966 b33d 8fef c23e
00000040: 099b 8bbf 5d9b 0bbe 638d a9bf 5ec0 e7bd
00000050: 1b53 efbd a817 e4bd 8a45 2fbf f1a2 34bf
00000060: 83d5 8a3e 0859 2dbf beff 383e d01e 953d
00000070: 2a89 e5bd b21c 01bf 0b87 f23d f75d b7be
00000080: 9173 78bf 4f26 15bd a7fe c7bf cdd4 873d
00000090: e3eb 4fbf 75a4 f0bf edc7 1bbf cc01 eebf
000000a0: 0d98 78bd c690 1e3f 1bf3 fabe 2c65 e63d
000000b0: 623f 0abf bb48 0abf 37d6 7dbc 9a9e 3c3e
000000c0: 2799 dbbd 820e 81bf 5643 ef3e 2b3f 313e
000000d0: f1a7 a33e 25a6 ddbf b230 3ebe b674 1cbf
000000e0: 2ffa 9cbf c2fc c33d b3c3 8dbf a4bb 23be
000000f0: 49b1 bebe b275 01bf 15cb 943e 3e77 943d
00000100: f94a 38bf 7778 f7bf f7c2 783f 224f d9be
00000110: e3fb 9fbf 1373 a9bf f809 953f f37b a5be
00000120: b097 093f 1f8a 1abf 0ddb b1bf 8146 91be
00000130: 0365 0a3e b2f5 73bd 3120 53bd 8fb2 623e
00000140: 3258 b3bf 1657 01bf cb41 83be 3d39 28bf
00000150: c3a0 4abf f255 bcbe 0399 21bf 4177 c1bf
00000160: c96c cebf 5b11 78bf 8b4f 30bf 7938 82bf
00000170: a88f 91bf 8650 633e cb62 a63d 1c61 1cbf
00000180: 974b 8a3f f066 a1be b0c4 c8be e5ab 38bf
00000190: 7486 24be bef4 263f d65a 3cbf f51e 16be
000001a0: 4c94 8bbf c072 bdbf 319c 5cbf 89ad e6bb
000001b0: 3ea5 483f 16de e6be 0203 78bf b472 33be
000001c0: d947 fa3d 4c65 1bc0 6baa 2b3e 2277 96bf
000001d0: 95b9 2dbf ddd0 25bf 8d24 ccbe 6c8f 62bd
000001e0: 02b1 b5bf 57cb b33d 2259 ce3d 7692 23bf
000001f0: 8b79 5e3e 4baa 43bd ae9f adbe c054 87bf
00000200: 30de 2a3f e375 97bd 97ec a63c 6a41 33bf
00000210: 7f3a 57be 9654 30bf 0268 a53d fc93 21bf
00000220: 009b b6bc 02e8 25bf 73d0 e1be ae20 a3be
00000230: 5386 82be 0694 793e 5f4f f3be 25dd a2be
00000240: 852c 93be fd6f cabe 80f6 a3bf 973f 993e
00000250: 88d5 5e3f 8662 b1bf 4eed 103e 440a 49bf
00000260: 7603 d73e efa9 45be 16b5 6a3f e5d6 033f
00000270: 15aa b33e aa5f 1cbf dcd6 6fbf 767f c93e
00000280: b37f 113f 3c61 bdbe a4f4 d2be e0a9 fc3e
00000290: fe87 f3bd a858 ddbd f4d1 223e ee6b 5bbe
000002a0: 3759 f13e 1101 05be 8f98 e53e 2d72 a43f
000002b0: 8232 c6be 552c 33be 7ae6 04bd e86d 2dbf
000002c0: 7bc5 173f 2a53 eb3e 527a 58be 194c 87be
000002d0: 2eac d93c be51 e23e 0829 623e 21f9 56bd
000002e0: 5767 fcbe 1afa a3be 5dbc e4be 1300 ebbd
000002f0: d990 0ebe 6bea 65bf 4907 ca3d 3cbd 90be
00000300: b93e c6be 8775 9dbe 3710 903e 01be 7fbd
00000310: afb7 76bf ef86 f23e df5c 2ebf 4525 003f
00000320: 381d c1bc 7c50 b7be 63e3 7fbf 6b05 8ebf
00000330: 36a0 8c3e 60f8 99bf 54f9 2f3d 0a93 d83d
00000340: ffb3 bcbe b597 3ebf 4c40 32bd 49a0 26bf
00000350: 608d ca3d 41d4 a8bd 1535 f4be 99f3 b23d
00000360: 3a35 04bf e54b 3cbf 247c e13e 785f cebe
00000370: 4295 b7be 9a2d 72bf 4c1c 18bf 01a3 9abe
00000380: 50bb b9be c0b7 313d 06a3 9b3e 8c53 7cbd
00000390: 27f0 1d3f 96fc edbd 48db b53f 2be0 21bf
000003a0: df9b eebe b757 30bf 416e 1bbf 6953 31bf
000003b0: d518 173f a4a3 773f ad2a 4abf ea5a 57bd
000003c0: 9bad e3be f086 163f b246 ecbe 8d59 55bf
000003d0: 7e3b 63be 4638 80bf 0ec2 19bf 99f9 0abd
000003e0: fcd0 ecbe 6ecc 1b3e 0f71 e4be 6548 493f
000003f0: a1e0 873e 9355 023e 6b91 70be 0082 c9be

linear2.bias f4 [64]
-1.0094491 -2.3280861 -2.6499465 0.92030674 -1.1482877 -0.45783702 0.72781086 1.4275311
-0.4453094 -2.010265 -1.0414776 -0.35372636 -1.3656621 -2.1641774 -0.39705634 -0.8235623
-1.7617819 -0.020981431 -2.5429087 1.2071309 0.8360735 0.94661605 2.4248319 0.49510607
2.2144496 -0.7956461 2.9622421 -1.155695 0.9132978 -1.5743476 1.1814575 -1.0821518
-2.1486108 -0.88802725 -0.41427663 -1.7486475 -0.5495739 -0.009259805 -3.974686 -0.3576048
-1.9170932 -1.7261385 -0.31398287 0.62767226 -0.1256757 -1.775028 -2.25586 -0.47601077
-1.5935916 0.71770275 -1.4167829 1.5464889 -2.7667947 0.79003954 3.1416385 -0.8001098
1.5248259 -1.002274 1.541085 -0.71417934 0.6034498 1.4253198 3.2422411 2.9327064
00000000: a135 81bf 5dff 14c0 b998 29c0 3999 6b3f
00000010: 17fb 92bf 9d69 eabe d051 3a3f 57b9 b63f
00000020: 98ff e3be 2fa8 00c0 234f 85bf 9f1b b5be
00000030: 04ce aebf e281 0ac0 f84a cbbe fbd4 52bf
00000040: 1282 e1bf 40e1 abbc 04bf 22c0 4483 9a3f
00000050: ea08 563f 6e55 723f 7230 1b40 8b7e fd3e
00000060: 8bb9 0d40 76af 4bbf 6095 3d40 d0ed 93bf
00000070: e2cd 693f 3984 c9bf 003a 973f f383 8abf
00000080: d782 09c0 c155 63bf 111c d4be aed3 dfbf
00000090: e0b0 0cbf 70b6 17bc 4161 7ec0 fa17 b7be
000000a0: 4f63 f5bf 1bf2 dcbf 5dc2 a0be 21af 203f
000000b0: 21b1 00be 1e34 e3bf 0360 10c0 afb7 f3be
000000c0: cffa cbbf 5ebb 373f 2459 b5bf 59f3 c53f
000000d0: 2a13 31c0 0840 4a3f 9b10 4940 ffd3 4cbf
000000e0: 7f2d c33f 844a 80bf 4642 c53f 75d4 36bf
000000f0: b07b 1a3f e170 b63f e180 4f40 76b1 3b40

output.weight f4 [1, 64]
-0.6817433 -0.6636496 -0.7144715 0.4569573 -0.81271374 -0.40163654 1.2625827 0.24475583
-0.27846146 -0.531992 -0.8882011 -0.3807012 -0.9235845 -0.6592016 -0.48990172 -0.43563953
-0.8717375 0.71268386 -0.8045887 0.26384577 0.42813307 0.6398326 0.17107977 0.23275319
0.10329334 -0.58461696 0.13672474 -0.63627356 0.83498746 -0.87931913 1.140514 -0.89726776
-0.6301878 -0.45597294 -0.20656215 -0.9218735 -0.6920535 -0.85139567 -0.15013163 -0.18029448
-0.73762333 -0.64201593 -0.5432025 0.90424895 -0.1848603 -0.93848556 -0.98455095 0.9063537
-0.4811681 0.4984911 -0.8503733 0.35836923 -1.3280562 0.9987955 0.24973084 -0.5722031
0.46403855 -0.6979653 1.2786252 -0.1129055 0.5204615 0.6101555 0.19559395 0.14309163
00000000: bb86 2ebf f1e4 29bf 9be7 36bf 4ff6 e93e
00000010: 020e 50bf 4ea3 cdbe 4f9c a13f 46a1 7a3e
00000020: 8092 8ebe a130 08bf 2661 63bf 45eb c2be
00000030: 0970 6cbf 70c1 28bf 66d4 fabe 250c dfbe
00000040: 302a 5fbf 7372 363f 86f9 4dbf cb16 873e
00000050: 4234 db3e 12cc 233f 892f 2f3e da56 6e3e
00000060: 758b d33d 75a9 15bf 9201 0c3e d3e2 22bf
00000070: bdc1 553f 0f1b 61bf 5dfc 913f 57b3 65bf
00000080: fd53 21bf 4975 e9be 0785 53be e7ff 6bbf
00000090: 6b2a 31bf 11f5 59bf 1bbc 19be 1e9f 38be
000000a0: e2d4 3cbf 285b 24bf 520f 0bbf dc7c 673f
000000b0: 054c 3dbe 9740 70bf 880b 7cbf cc06 683f
000000c0: aa5b f6be 3a3a ff3e 11b2 59bf 2c7c b73e
000000d0: bffd a9bf 10b1 7f3f 71b9 7f3e e77b 12bf
000000e0: 7696 ed3e dbad 32bf fea9 a33f 003b e7bd
000000f0: f73c 053f 2733 1c3f c849 483e 9d86 123e

linear1.weight f4 [128, 34]
-0.38559365 -0.26812425 -0.12471735 0.012026093 -0.2914353 0.4438232 -0.2799077 -0.20535219
-1.0660725 -0.6745022 -0.8236991 -2.343053 -0.62497604 -0.03713246 0.72087234 0.033502065
-1.5503143 0.8563226 -0.04295809 0.63056564 0.86628157 1.259407 0.60680103 1.2875077
0.08307735 -0.15089048 -1.0950966 -2.1558342 -1.9920774 0.06455339 0.26738963 0.08918385
0.07318092 -0.04903376 0.0711784 1.7829251 0.49431935 0.31177858 0.5901609 0.013456636
-1.1508069 0.7259641 0.4002691 1.7756917 1.7196409 -0.5600229 1.2171098 -2.4142082
0.08993111 -1.4794668 -1.6861554 -1.1948625 -0.16706571 0.25925255 -1.5401771 -0.7895657
0.11000227 -0.8055104 0.24311413 -0.058577873 0.59753513 -0.09582761 -1.9643751 -0.91446954
0.22305052 0.15018909 0.08665743 -0.20204231 0.53125703 0.15876143 0.10885075 0.24351446
0.2200172 0.043776937 -0.5623183 -0.19296055 0.90545994 -0.3389769 0.24589618 0.33225158
-0.7274516 -0.6663342 0.35499784 -0.7864704 -0.2422357 -1.7047726 0.37089717 -1.4816995
-0.5834593 -3.538674 -2.1985931 -1.4333272 0.04838413 0.31294793 -1.2022867 3.507812
3.626987 -0.69261414 -0.078270435 0.13885127 -0.06248933 0.08803799 -0.38855442 -0.0009269667
-0.19863495 0.32965258 0.09363458 0.6872515 1.6183819 1.1547942 2.019572 2.0409174
0.6023688 1.2230948 1.1761476 0.2769835 0.5534593 -0.19824162 0.122915424 0.014342464
0.00940601 0.23014003 -0.3350525 -0.6514481 -0.15229283 -0.98098344 0.21246329 0.52749985
1.6264782 0.7773993 -3.328675 0.25128254 -0.017765008 -0.08649103 -0.16297865 0.033235155
-0.05820466 0.6918986 0.6022356 -0.15820889 -0.1585705 0.097764455 0.5385845 -0.9404212
-1.0535284 -0.10263637 -0.6119072 0.015454276 0.24222533 1.0495585 0.5778738 0.7826761
-2.4952412 0.8371255 0.6063849 1.7660999 0.41008446 -2.7638066 -0.75237423 -1.8544618
-0.24047926 -0.35704497 1.3533392 1.1212239 -1.1569451 -0.7047003 -0.15369904 0.024256384
0.10138663 -0.20248549 -0.19763081 1.1542112 -0.023445157 -0.0066568716 0.211762 -0.34052312
-1.6655271 0.05035344 -1.1788567 -1.4925805 0.27177066 -0.36286497 -1.9882405 -0.9719352
0.3109069 -1.257938 -1.1803774 -0.077998675 0.4907463 0.050291263 -0.31688324 0.61014503
1.1218009 -0.5575224 0.046136998 -0.15737128 1.8248081 -0.11328289 -1.3522698 -0.17030251
-1.8861955 -0.7129231 -1.5939007 -0.19871765 -0.08134314 -0.11208399 -0.59481287 0.18986076
-0.22803651 -0.43256426 -0.39844164 -0.9679713 -0.5552629 -1.0862042 0.44055954 0.18281303
1.899192 -0.8176805 1.1505834 -0.21829331 0.59020495 1.4855055 -0.0006544243 0.095234804
0.17914756 1.1733409 0.6280346 0.3565286 -0.14208771 -0.25517628 -1.9230412 -1.9440844
-5.885935 0.69303626 0.20879842 0.004533716 -0.1348702 0.109605834 -0.6344105 -1.0588721
-0.2445851 -0.65107626 -1.0024394 -1.0715184 -0.23912424 -1.0081683 -0.37897813 -1.0196444
-1.1475972 -1.063467 -1.3042554 -0.97715837 -0.8441818 0.1053297 -0.76457685 -1.544656
00000000: 886c c5be 9547 89be cf6b ffbd 1709 453c
00000010: 0237 95be cb3c e33e 1050 8fbe d847 52be
00000020: 1075 88bf 2dac 2cbf f2dd 52bf 95f4 15c0
00000030: 6efe 1fbf 3518 18bd 178b 383f 7639 093d
00000040: b370 c6bf f537 5b3f d2f4 2fbd c06c 213f
00000050: a1c4 5d3f 4034 a13f 5057 1b3f 0dcd a43f
00000060: 7524 aa3d 0983 1abe 202c 8cbf 30f9 09c0
00000070: 64fc febf 9134 843d 4be7 883e 06a6 b63d
00000080: e1df 953d a0d7 48bd fbc5 913d e436 e43f
00000090: 6d17 fd3e 71a1 9f3e c914 173f 3979 5c3c
000000a0: a44d 93bf c9d8 393f 12f0 cc3e de49 e33f
000000b0: 311d dc3f a95d 0fbf 41ca 9b3f 6382 1ac0
000000c0: cd2d b83d 2b5f bdbf f1d3 d7bf 41f1 98bf
000000d0: 4613 2bbe c0bc 843e 8624 c5bf fa20 4abf
000000e0: df48 e13d ee35 4ebf e9f2 783e 5aef 6fbd
000000f0: 10f8 183f 4441 c4bd a570 fbbf ad1a 6abf
00000100: 5b67 643e 2bcb 193e 7379 b13d 2ee4 4ebe
00000110: 7600 083f 5b92 223e 24ed de3d db5b 793e
00000120: 304c 613e 724f 333d 18f4 0fbf 7397 45be
00000130: 39cc 673f 618e adbe 35cc 7b3e e11c aa3e
00000140: 453a 3abf e194 2abf 47c2 b53e 2056 49bf
00000150: a30c 78be fd35 dabf 3ce6 bd3e 54a8 bdbf
00000160: 975d 15bf a379 62c0 c0b5 0cc0 4477 b7bf
00000170: 702e 463d b63a a03e 88e4 99bf fe7f 6040
00000180: 8e20 6840 294f 31bf 404c a0bd 072f 0e3e
00000190: d0f4 7fbd 434d b43d 9bf0 c6be afff 72ba
000001a0: f666 4bbe 39c8 a83e 7dc3 bf3d b7ef 2f3f
000001b0: 2327 cf3f 4cd0 933f ab40 0140 649e 0240
000001c0: d734 1a3f 5f8e 9c3f 018c 963f c8d0 8d3e
000001d0: 82af 0d3f daff 4abe 15bb fb3d a7fc 6a3c
000001e0: aa1b 1a3c d4a9 6b3e 008c abbe 4dc5 26bf
000001f0: a7f2 1bbe bb21 7bbf fa8f 593e 3b0a 073f
00000200: 7030 d03f a403 473f 0309 55c0 1ba8 803e
00000210: ec87 91bc 3622 b1bd e0e3 26be 9621 083d
00000220: 0268 6ebd 4420 313f 1d2c 1a3f 8301 22be
00000230: 4e60 22be bb38 c83d ace0 093f 72bf 70bf
00000240: 05da 86bf 0433 d2bd f3a5 1cbf ef33 7d3c
00000250: eb09 783e ef57 863f 8aef 133f 765d 483f
00000260: 08b2 1fc0 db4d 563f 0a3c 1b3f 900f e23f
00000270: 97f6 d13e 35e2 30c0 999b 40bf 015f edbf
00000280: 3240 76be 99ce b6be 383a ad3f 4484 8f3f
00000290: c716 94bf 3d67 34bf 4863 1dbe 53b5 c63c
000002a0: cba3 cf3d 5b58 4fbe bb5f 4abe 31bd 933f
000002b0: 0f10 c0bc e321 dabb 23d8 583e 0c59 aebe
000002c0: fe2f d5bf 693f 4e3d c7e4 96bf e10c bfbf
000002d0: 8625 8b3e 70c9 b9be aa7e febf bfd0 78bf
000002e0: 302f 9f3e 1d04 a1bf 9b16 97bf c5bd 9fbd
000002f0: 1943 fb3e 36fe 4d3d 853e a2be 7732 1c3f
00000300: 2c97 8f3f cab9 0ebf 26fa 3c3d f025 21be
00000310: 5093 e93f dc00 e8bd 2d17 adbf c863 2ebe
00000320: db6e f1bf 2182 36bf f004 ccbf a47c 4bbe
00000330: 3b97 a6bd 4a8c e5bd a845 18bf dc6a 423e
00000340: 6782 69be 1079 ddbe 8b00 ccbe f8cc 77bf
00000350: b625 0ebf bd08 8bbf 0591 e13e 5733 3b3e
00000360: b918 f33f 8253 51bf 5146 933f 4888 5fbe
00000370: ac17 173f 0b25 be3f ac8d 2bba 770a c33d
00000380: 7572 373e 0930 963f e0c6 203f eb8a b63e
00000390: 717f 11be 77a6 82be 3726 f6bf c2d7 f8bf
000003a0: 9459 bcc0 d36a 313f 41cf 553e 918f 943b
000003b0: 6a1b 0abe 0679 e03d ba68 22bf 1f89 87bf
000003c0: 8474 7abe efac 26bf ef4f 80bf 8427 89bf
000003d0: fcdc 74be a90b 81bf 6c09 c2be b583 82bf
000003e0: 77e4 92bf b01f 88bf d7f1 a6bf 0d27 7abf
000003f0: 4c1c 58bf 19b7 d73d 4fbb 43bf 4ab7 c5bf

linear1.bias f4 [128]
-1.4044104 -1.6207632 0.117243856 2.6328597 -0.270752 0.47683918 -0.40081584 -1.5059263
-1.2612576 -0.20597044 -0.5841222 0.6199464 0.8243968 -0.47783545 1.3275067 0.2682964
0.24656501 -0.0072767106 1.3648136 -0.15269458 0.16516727 1.7162427 -0.018954743 1.4545102
0.8090559 0.56814295 0.41671398 -0.47415486 -1.7582971 -0.32245702 0.56082475 0.28820786
-0.52127254 0.043040022 -0.10278995 -0.61262596 -0.009578961 0.15327439 0.13041317 0.10341858
-1.2560645 -0.898928 1.8711462 -0.49220228 0.67462015 0.7585109 0.27021554 0.5865699
-0.55271894 -0.8054894 -1.1642694 1.2031868 -0.7267652 -0.2149814 0.98257494 0.40009356
-0.21851245 -1.1005417 1.311873 -0.036015816 0.0041350517 -0.090147726 -0.25494224 -1.4986684
-0.48389465 0.041141316 -0.43146458 -0.36275062 2.0609465 -1.1321869 1.2763916 -0.4562866
0.16504711 -0.45860797 1.0794309 1.1463609 -0.15004651 0.65815145 -1.3929958 1.5964409
-0.14333317 0.31611022 -0.9446578 0.7858033 0.8728496 0.3295401 0.8049927 -1.0724328
-1.0633711 -0.7295932 -0.51031715 -0.0041552386 0.040571533 1.915454 0.03773917 0.23537903
-0.8198893 1.5973067 -0.052217063 1.9849584 -0.017304415 -0.44553134 0.540119 -0.90639764
-0.4476893 -0.7107311 0.4231394 0.21307905 0.4384745 -0.54285115 1.3945186 -1.1631379
0.27262723 -1.2839867 -0.43438166 0.2498494 -0.5915942 0.7779258 -0.40724942 0.80111015
0.20502698 0.98085153 0.087791264 -0.8300352 -1.0919154 -0.18165796 0.44125947 -0.0025078459
00000000: b8c3 b3bf 2b75 cfbf 8c1d f03d c680 2840
00000010: 02a0 8abe 4424 f43e bc37 cdbe 31c2 c0bf
00000020: e470 a1bf eae9 52be 0889 15bf cfb4 1e3f
00000030: ab0b 533f d9a6 f4be bdeb a93f 255e 893e
00000040: 8a7b 7c3e 7971 eebb 36b2 ae3f f85b 1cbe
00000050: 9c21 293e d7ad db3f fa46 9bbc 642d ba3f
00000060: 4a1e 4f3f d171 113f 895b d53e 6dc4 f2be
00000070: e10f e1bf 1619 a5be 3692 0f3f fb8f 933e
00000080: 1e72 05bf bc4a 303d 8a83 d2bd 0ed5 1cbf
00000090: 13f1 1cbc f6f3 1c3e 088b 053e 1fcd d33d
000000a0: b9c6 a0bf 2520 66bf b881 ef3f f001 fcbe
000000b0: e8b3 2c3f c52d 423f b159 8a3e 7229 163f
000000c0: fd7e 0dbf 8e34 4ebf c806 95bf 0602 9a3f
000000d0: 490d 3abf 1624 5cbe 088a 7b3f 10d9 cc3e
000000e0: bac1 5fbe 8dde 8cbf 74eb a73f 5285 13bd
000000f0: 547f 873b 5f9f b8bd ca87 82be 5ed4 bfbf
00000100: 0ac1 f7be cc83 283d ede8 dcbe 73ba b9be
00000110: 8ce6 0340 80eb 90bf cd60 a33f 669e e9be
00000120: 1c02 293e aace eabe cb2a 8a3f f4bb 923f
00000130: cba5 19be 9d7c 283f b04d b2bf 2d58 cc3f
00000140: eec5 12be 33d9 a13e 18d5 71bf 682a 493f
00000150: 1273 5f3f 7bb9 a83e 0014 4e3f 7a45 89bf
00000160: 8b1c 88bf 9fc6 3abf 25a4 02bf ab28 88bb
00000170: 562e 263d 992d f53f 6394 1a3d 3307 713e
00000180: 44e4 51bf 8c74 cc3f 8fe1 55bd 1e13 fe3f
00000190: fdc1 8dbc af1c e4be 3d45 0a3f ad09 68bf
000001a0: 8837 e5be 79f2 35bf baa5 d83e 6531 5a3e
000001b0: bb7f e03e 4bf8 0abf 967f b23f b4e1 94bf
000001c0: cc95 8b3e ad59 a4bf 4667 debe 85d8 7f3e
000001d0: b872 17bf 2526 473f ff82 d0be 8e15 4d3f
000001e0: 98f2 513e 1619 7b3f e8cb b33d 307d 54bf
000001f0: e2c3 8bbf 8b04 3abe c3ec e13e ac5a 24bb

linear2.weight f4 [64, 128]
-0.75768715 -0.62129855 -0.2389999 -0.4486428 -1.3300039 -0.24927053 -0.23323157 -0.3699771
-1.3993257 -0.12440361 -0.6538101 -0.92466813 -0.636781 0.039906688 0.08759827 0.38073394
-1.0906688 -0.13633485 -1.3246273 -0.11315988 -0.11685773 -0.111373246 -0.68465483 -0.7056113
0.27116022 -0.67713976 0.18066308 0.07281268 -0.112078026 -0.5043441 0.11842164 -0.35813877
-0.9705134 -0.036413487 -1.5624589 0.066323854 -0.8121931 -1.8800188 -0.6085194 -1.8594298
-0.060691882 0.61939657 -0.490136 0.11249766 -0.54002964 -0.5401723 -0.015492967 0.18419877
-0.10722571 -1.0082552 0.4673106 0.17309253 0.31964067 -1.7316328 -0.18573263 -0.61115587
-1.226385 0.09569694 -1.1075348 -0.15989548 -0.37244633 -0.50570214 0.2906119 0.07249306
-0.719894 -1.9333638 0.9717249 -0.42443186 -1.2498745 -1.3238243 1.1643667 -0.32321128
0.5374708 -0.60367006 -1.3894974 -0.28374103 0.13515095 -0.059560485 -0.051544372 0.22138427
-1.401129 -0.5052351 -0.25636134 -0.6571234 -0.7915155 -0.3678432 -0.631241 -1.5114518
-1.6126949 -0.9690148 -0.6887137 -1.0173484 -1.1371965 0.22198686 0.08124312 -0.6108568
1.0804318 -0.31523848 -0.3921256 -0.7213729 -0.16066915 0.65217197 -0.73576105 -0.14660247
-1.0904632 -1.4800644 -0.8617583 -0.00703973 0.7837714 -0.45091313 -0.9687959 -0.17524225
0.12220735 -2.4280577 0.16764228 -1.1755106 -0.678613 -0.64771825 -0.39871636 -0.05531256
-1.4194643 0.08779018 0.100755945 -0.63895357 0.21726052 -0.047769826 -0.33910888 -1.0572739
0.6674528 -0.07395532 0.020376487 -0.7002169 -0.21018408 -0.6887907 0.080764785 -0.6311643
-0.022290707 -0.6480714 -0.44104347 -0.3186087 -0.25493106 0.24372873 -0.47521493 -0.31809345
-0.28744903 -0.39538565 -1.2809601 0.29931328 0.8704457 -1.3858192 0.14153025 -0.7853129
0.41994828 -0.19303106 0.91682565 0.5149978 0.350907 -0.6108347 -0.93687224 0.39355057
0.5683548 -0.36988246 -0.4120227 0.49348354 -0.11891173 -0.108079255 0.15900403 -0.2142789
0.47138378 -0.12988688 0.44842955 1.2847344 -0.3871041 -0.1749738 -0.032446362 -0.6774583
0.59285706 0.45961887 -0.21140411 -0.26425245 0.02657136 0.4420299 0.22085965 -0.05248368
-0.49297592 -0.3202675 -0.4467496 -0.114746235 -0.13922442 -0.8981082 0.09864671 -0.28269374
-0.3871973 -0.3075373 0.2813737 -0.06243706 -0.9637403 0.4736857 -0.6811046 0.5005687
-0.023573503 -0.35803592 -0.9995634 -1.1095403 0.2746598 -1.2028923 0.042962387 0.105749205
-0.36856076 -0.74450237 -0.04351835 -0.65088326 0.098902464 -0.08243609 -0.47696748 0.08737869
-0.5164372 -0.73553306 0.44040024 -0.40307212 -0.35856062 -0.9460083 -0.5941818 -0.30202487
-0.3627572 0.04338813 0.30397815 -0.061603114 0.6169457 -0.116204426 1.4207544 -0.6323268
-0.46603295 -0.6888384 -0.6071511 -0.692679 0.59022266 0.9673407 -0.7897137 -0.052576937
-0.44468388 0.5879965 -0.46147686 -0.8333977 -0.22190663 -1.0017173 -0.6006173 -0.03392944
-0.46253192 0.15214702 -0.44617507 0.7862609 0.26538566 0.12727956 -0.23492973 -0.39356995
00000000: c9f7 41bf 6c0d 1fbf 64bc 74be 82b4 e5be
00000010: 913d aabf c640 7fbe 42d4 6ebe a36d bdbe
00000020: 1b1d b3bf 52c7 febd 1960 27bf 0db7 6cbf
00000030: 1404 23bf 3275 233d b966 b33d 8fef c23e
00000040: 099b 8bbf 5d9b 0bbe 638d a9bf 5ec0 e7bd
00000050: 1b53 efbd a817 e4bd 8a45 2fbf f1a2 34bf
00000060: 83d5 8a3e 0859 2dbf beff 383e d01e 953d
00000070: 2a89 e5bd b21c 01bf 0b87 f23d f75d b7be
00000080: 9173 78bf 4f26 15bd a7fe c7bf cdd4 873d
00000090: e3eb 4fbf 75a4 f0bf edc7 1bbf cc01 eebf
000000a0: 0d98 78bd c690 1e3f 1bf3 fabe 2c65 e63d
000000b0: 623f 0abf bb48 0abf 37d6 7dbc 9a9e 3c3e
000000c0: 2799 dbbd 820e 81bf 5643 ef3e 2b3f 313e
000000d0: f1a7 a33e 25a6 ddbf b230 3ebe b674 1cbf
000000e0: 2ffa 9cbf c2fc c33d b3c3 8dbf a4bb 23be
000000f0: 49b1 bebe b275 01bf 15cb 943e 3e77 943d
00000100: f94a 38bf 7778 f7bf f7c2 783f 224f d9be
00000110: e3fb 9fbf 1373 a9bf f809 953f f37b a5be
00000120: b097 093f 1f8a 1abf 0ddb b1bf 8146 91be
00000130: 0365 0a3e b2f5 73bd 3120 53bd 8fb2 623e
00000140: 3258 b3bf 1657 01bf cb41 83be 3d39 28bf
00000150: c3a0 4abf f255 bcbe 0399 21bf 4177 c1bf
00000160: c96c cebf 5b11 78bf 8b4f 30bf 7938 82bf
00000170: a88f 91bf 8650 633e cb62 a63d 1c61 1cbf
00000180: 974b 8a3f f066 a1be b0c4 c8be e5ab 38bf
00000190: 7486 24be bef4 263f d65a 3cbf f51e 16be
000001a0: 4c94 8bbf c072 bdbf 319c 5cbf 89ad e6bb
000001b0: 3ea5 483f 16de e6be 0203 78bf b472 33be
000001c0: d947 fa3d 4c65 1bc0 6baa 2b3e 2277 96bf
000001d0: 95b9 2dbf ddd0 25bf 8d24 ccbe 6c8f 62bd
000001e0: 02b1 b5bf 57cb b33d 2259 ce3d 7692 23bf
000001f0: 8b79 5e3e 4baa 43bd ae9f adbe c054 87bf
00000200: 30de 2a3f e375 97bd 97ec a63c 6a41 33bf
00000210: 7f3a 57be 9654 30bf 0268 a53d fc93 21bf
00000220: 009b b6bc 02e8 25bf 73d0 e1be ae20 a3be
00000230: 5386 82be 0694 793e 5f4f f3be 25dd a2be
00000240: 852c 93be fd6f cabe 80f6 a3bf 973f 993e
00000250: 88d5 5e3f 8662 b1bf 4eed 103e 440a 49bf
00000260: 7603 d73e efa9 45be 16b5 6a3f e5d6 033f
00000270: 15aa b33e aa5f 1cbf dcd6 6fbf 767f c93e
00000280: b37f 113f 3c61 bdbe a4f4 d2be e0a9 fc3e
00000290: fe87 f3bd a858 ddbd f4d1 223e ee6b 5bbe
000002a0: 3759 f13e 1101 05be 8f98 e53e 2d72 a43f
000002b0: 8232 c6be 552c 33be 7ae6 04bd e86d 2dbf
000002c0: 7bc5 173f 2a53 eb3e 527a 58be 194c 87be
000002d0: 2eac d93c be51 e23e 0829 623e 21f9 56bd
000002e0: 5767 fcbe 1afa a3be 5dbc e4be 1300 ebbd
000002f0: d990 0ebe 6bea 65bf 4907 ca3d 3cbd 90be
00000300: b93e c6be 8775 9dbe 3710 903e 01be 7fbd
00000310: afb7 76bf ef86 f23e df5c 2ebf 4525 003f
00000320: 381d c1bc 7c50 b7be 63e3 7fbf 6b05 8ebf
00000330: 36a0 8c3e 60f8 99bf 54f9 2f3d 0a93 d83d
00000340: ffb3 bcbe b597 3ebf 4c40 32bd 49a0 26bf
00000350: 608d ca3d 41d4 a8bd 1535 f4be 99f3 b23d
00000360: 3a35 04bf e54b 3cbf 247c e13e 785f cebe
00000370: 4295 b7be 9a2d 72bf 4c1c 18bf 01a3 9abe
00000380: 50bb b9be c0b7 313d 06a3 9b3e 8c53 7cbd
00000390: 27f0 1d3f 96fc edbd 48db b53f 2be0 21bf
000003a0: df9b eebe b757 30bf 416e 1bbf 6953 31bf
000003b0: d518 173f a4a3 773f ad2a 4abf ea5a 57bd
000003c0: 9bad e3be f086 163f b246 ecbe 8d59 55bf
000003d0: 7e3b 63be 4638 80bf 0ec2 19bf 99f9 0abd
000003e0: fcd0 ecbe 6ecc 1b3e 0f71 e4be 6548 493f
000003f0: a1e0 873e 9355 023e 6b91 70be 0082 c9be

linear2.bias f4 [64]
-1.0094491 -2.3280861 -2.6499465 0.92030674 -1.1482877 -0.45783702 0.72781086 1.4275311
-0.4453094 -2.010265 -1.0414776 -0.35372636 -1.3656621 -2.1641774 -0.39705634 -0.8235623
-1.7617819 -0.020981431 -2.5429087 1.2071309 0.8360735 0.94661605 2.4248319 0.49510607
2.2144496 -0.7956461 2.9622421 -1.155695 0.9132978 -1.5743476 1.1814575 -1.0821518
-2.1486108 -0.88802725 -0.41427663 -1.7486475 -0.5495739 -0.009259805 -3.974686 -0.3576048
-1.9170932 -1.7261385 -0.31398287 0.62767226 -0.1256757 -1.775028 -2.25586 -0.47601077
-1.5935916 0.71770275 -1.4167829 1.5464889 -2.7667947 0.79003954 3.1416385 -0.8001098
1.5248259 -1.002274 1.541085 -0.71417934 0.6034498 1.4253198 3.2422411 2.9327064
00000000: a135 81bf 5dff 14c0 b998 29c0 3999 6b3f
00000010: 17fb 92bf 9d69 eabe d051 3a3f 57b9 b63f
00000020: 98ff e3be 2fa8 00c0 234f 85bf 9f1b b5be
00000030: 04ce aebf e281 0ac0 f84a cbbe fbd4 52bf
00000040: 1282 e1bf 40e1 abbc 04bf 22c0 4483 9a3f
00000050: ea08 563f 6e55 723f 7230 1b40 8b7e fd3e
00000060: 8bb9 0d40 76af 4bbf 6095 3d40 d0ed 93bf
00000070: e2cd 693f 3984 c9bf 003a 973f f383 8abf
00000080: d782 09c0 c155 63bf 111c d4be aed3 dfbf
00000090: e0b0 0cbf 70b6 17bc 4161 7ec0 fa17 b7be
000000a0: 4f63 f5bf 1bf2 dcbf 5dc2 a0be 21af 203f
000000b0: 21b1 00be 1e34 e3bf 0360 10c0 afb7 f3be
000000c0: cffa cbbf 5ebb 373f 2459 b5bf 59f3 c53f
000000d0: 2a13 31c0 0840 4a3f 9b10 4940 ffd3 4cbf
000000e0: 7f2d c33f 844a 80bf 4642 c53f 75d4 36bf
000000f0: b07b 1a3f e170 b63f e180 4f40 76b1 3b40

output.weight f4 [1, 64]
-0.6817433 -0.6636496 -0.7144715 0.4569573 -0.81271374 -0.40163654 1.2625827 0.24475583
-0.27846146 -0.531992 -0.8882011 -0.3807012 -0.9235845 -0.6592016 -0.48990172 -0.43563953
-0.8717375 0.71268386 -0.8045887 0.26384577 0.42813307 0.6398326 0.17107977 0.23275319
0.10329334 -0.58461696 0.13672474 -0.63627356 0.83498746 -0.87931913 1.140514 -0.89726776
-0.6301878 -0.45597294 -0.20656215 -0.9218735 -0.6920535 -0.85139567 -0.15013163 -0.18029448
-0.73762333 -0.64201593 -0.5432025 0.90424895 -0.1848603 -0.93848556 -0.98455095 0.9063537
-0.4811681 0.4984911 -0.8503733 0.35836923 -1.3280562 0.9987955 0.24973084 -0.5722031
0.46403855 -0.6979653 1.2786252 -0.1129055 0.5204615 0.6101555 0.19559395 0.14309163
00000000: bb86 2ebf f1e4 29bf 9be7 36bf 4ff6 e93e
00000010: 020e 50bf 4ea3 cdbe 4f9c a13f 46a1 7a3e
00000020: 8092 8ebe a130 08bf 2661 63bf 45eb c2be
00000030: 0970 6cbf 70c1 28bf 66d4 fabe 250c dfbe
00000040: 302a 5fbf 7372 363f 86f9 4dbf cb16 873e
00000050: 4234 db3e 12cc 233f 892f 2f3e da56 6e3e
00000060: 758b d33d 75a9 15bf 9201 0c3e d3e2 22bf
00000070: bdc1 553f 0f1b 61bf 5dfc 913f 57b3 65bf
00000080: fd53 21bf 4975 e9be 0785 53be e7ff 6bbf
00000090: 6b2a 31bf 11f5 59bf 1bbc 19be 1e9f 38be
000000a0: e2d4 3cbf 285b 24bf 520f 0bbf dc7c 673f
000000b0: 054c 3dbe 9740 70bf 880b 7cbf cc06 683f
000000c0: aa5b f6be 3a3a ff3e 11b2 59bf 2c7c b73e
000000d0: bffd a9bf 10b1 7f3f 71b9 7f3e e77b 12bf
000000e0: 7696 ed3e dbad 32bf fea9 a33f 003b e7bd
000000f0: f73c 053f 2733 1c3f c849 483e 9d86 123e

exp_avg f4 [128, 34]
-1.6643332 -0.21202719 0.13331243 0.038206406 0.18093379 0.025211439 0.15761615 0.067326784
0.0019139554 0.08888165 0.0007340908 0.22208095 0.04718394 0.07264543 -0.06982751 0.19160612
0.12576264 -0.27197212 0.34948942 0.379823 -0.35791284 0.38922328 0.2916655 -0.04534023
0.39626884 0.82222027 0.11724419 0.06452149 -0.025039187 0.16988744 2.708985 3.1856146
2.0502732 2.3050761 0.42950863 -0.10016741 0.012015373 -0.03392699 -0.023052836 -0.12809752
-0.01810485 -0.05423719 -0.014820078 0.021338085 0.006955794 0.085439734 -0.044916138 0.015844565
0.008238152 0.0040652445 -0.029180199 0.03435438 -0.18388265 0.121623084 0.07117321 -0.068845786
-0.046555962 -0.017610196 -0.23653778 -0.12105929 -0.017637441 0.030380012 -0.00013399616 -0.0009930469
-0.39497203 -0.23784903 -0.37246227 -0.15302913 0.085981674 0.17638566 0.55162364 -0.021881778
-0.002156334 0.08882708 -0.048574314 -0.07962743 0.022005107 -0.029834427 -0.009607333 -0.30097896
0.23654434 -0.057539754 -0.030355457 0.02030881 -0.12271269 -0.04160805 -0.47140372 0.10873021
-0.17048089 0.11435776 -0.047264133 -0.06298306 -0.1195634 -0.13653764 0.013006274 -0.06291856
0.012216805 -0.004102192 -2.2688193 -2.263101 -0.38640594 -0.5127065 2.4800065 -0.30816582
-0.6422644 -0.010064572 -0.066046074 -0.085936755 -0.20974115 0.1027375 -0.077092536 -0.05807324
-0.3164803 -0.38360113 -0.24647403 -0.013026624 0.1228271 -0.017205201 0.047104415 0.18288112
-0.04232654 -0.57666796 0.2610152 0.12986274 0.14741206 -0.69506264 -0.26312596 -0.34266454
-0.06430937 -0.030894702 0.011733609 -0.29606307 -2.6601965 -2.0883384 -3.5134697 -2.3421316
-1.2424636 -0.3118798 -0.16874881 0.17741345 0.18677947 0.061749756 0.21295772 0.016666329
0.01245535 -0.033371747 -0.019706327 0.06814369 -0.048157774 0.113572724 0.06920932 -0.02062482
0.07425559 -0.060505424 0.63919675 0.36286092 -0.038907718 -0.08508235 -0.030716155 -0.08932527
0.1876249 0.31979683 0.16129832 -0.0027347517 -0.00018456129 0.009619698 -0.4466316 -0.56984544
1.7887235 1.6354007 -0.16594091 -0.0968903 -0.054624457 0.010905956 0.0894012 0.013848659
0.004118974 0.0032925508 -0.0038563716 -0.005958684 0.012700751 0.053303193 -0.068723306 0.02504515
0.010082489 -0.005095831 0.022355687 0.021814445 0.15407547 0.05227844 -0.06625263 -0.014144703
0.091979995 -0.043625116 0.17127712 0.16952577 0.0064636236 0.0015085461 -0.00038137528 0.044664335
-0.052682094 0.0014884155 -0.031067822 0.0073237517 -0.036552325 -0.027077094 -0.46176296 -0.053442497
-0.17419605 -0.025144659 -0.013342213 -0.032888915 -0.0008473201 0.10494656 0.1426478 0.20454592
-0.11963432 -0.02615381 -0.0050187875 0.055969648 -0.015702933 0.09594312 0.12480844 -0.1285902
0.11896499 -0.182257 0.26849192 0.0637555 0.3906418 0.09725149 0.006014607 0.00015695137
0.0030878657 -0.11359179 1.3867297 -0.08690873 2.2411385 1.1765542 -1.1476656 -0.092396066
-0.11800282 -0.029929383 -0.11247997 -0.03561592 0.017231833 -0.028635003 -0.016641464 0.09016798
0.14377408 0.27288288 0.1959835 0.054935053 0.005863535 0.19727759 0.025755778 -0.12420027
00000000: df08 d5bf a81d 59be 0e83 083e 527e 1c3d
00000010: b546 393e 3888 ce3c 2166 213e a0e2 893d
00000020: b0dd fa3a 9507 b63d 0070 403a 3069 633e
00000030: f243 413d 21c7 943d ba01 8fbd 6534 443e
00000040: ecc7 003e ee3f 8bbe 47f0 b23e 2978 c23e
00000050: 5a40 b7be 4648 c73e 2e55 953e adb6 39bd
00000060: c0e3 ca3e 077d 523f b91d f03d d823 843d
00000070: fb1e cdbc f9f6 2d3e 0360 2d40 1ce1 4b40
00000080: ad37 0340 5e86 1340 8ee8 db3e 9224 cdbd
00000090: 21dc 443c 07f7 0abd 4dd9 bcbc ff2b 03be
000000a0: 9f50 94bc d127 5ebd eacf 72bc 35cd ae3c
000000b0: 6eed e33b 07fb ae3d fcf9 37bd 76cc 813c
000000c0: 50f9 063c be35 853b 500b efbc 2eb7 0c3d
000000d0: bc4b 3cbe 8615 f93d 43c3 913d 05ff 8cbd
000000e0: 77b1 3ebd 4243 90bc f636 72be efed f7bd
000000f0: 657c 90bc 81df f83c 5281 0cb9 2029 82ba
00000100: c639 cabe b28e 73be 60b3 bebe abb3 1cbe
00000110: 2917 b03d 719e 343e 3537 0d3f 6a41 b3bc
00000120: 4851 0dbb f9ea b53d dcf5 46bd b513 a3bd
00000130: 0e44 b43c 5467 f4bc 1368 1dbc ea19 9abe
00000140: ae38 723e ceae 6bbd 02ac f8bc a95e a63c
00000150: ca50 fbbd 346d 2abd d45b f1be f2ad de3d
00000160: 8b92 2ebe 6734 ea3d 0998 41bd 43fd 80bd
00000170: a8dd f4bd 86d0 0bbe 4418 553c 72db 80bd
00000180: fe28 483c ae6b 86bb 5634 11c0 a6d6 10c0
00000190: 00d7 c5be bc40 03bf 6db8 1e40 e9c7 9dbe
000001a0: 716b 24bf e0e5 24bc 2a43 87bd 9cff afbd
000001b0: 62c6 56be 0a68 d23d b1e2 9dbd 35de 6dbd
000001c0: b509 a2be 5e67 c4be b063 7cbe 9f6d 55bc
000001d0: c68c fb3d ecf1 8cbc 8ff0 403d 3045 3b3e
000001e0: 985e 2dbd 83a0 13bf c9a3 853e bdfa 043e
000001f0: 30f3 163e a0ef 31bf 72b8 86be ba71 afbe
00000200: a2b4 83bd e316 fdbc 533e 403c 9495 97be
00000210: a940 2ac0 56a7 05c0 b0dc 60c0 7ce5 15c0
00000220: 0c09 9fbf b6ae 9fbe 7dcc 2cbe dfab 353e
00000230: 1e43 3f3e 50ed 7c3d 9711 5a3e d387 883c
00000240: 8611 4c3c d0b0 08bd 2a6f a1bc eb8e 8b3d
00000250: 1641 45bd d198 e83d 9ebd 8d3d 62f5 a8bc
00000260: 5113 983d 89d4 77bd 66a2 233f e8c8 b93e
00000270: b35d 1fbd a83f aebd 72a0 fbbc 2bf0 b6bd
00000280: be20 403e 69bc a33e 632b 253e 8539 33bb
00000290: cb86 41b9 f09b 1d3c e6ac e4be 64e1 11bf
000002a0: e4f4 e43f cf54 d13f 6aec 29be 6c6e c6bd
000002b0: e5bd 5fbd e5ae 323c fa17 b73d 7ce5 623c
000002c0: 75f8 863b d6c7 573b 2ebb 7cbb 1041 c3bb
000002d0: d016 503c 7354 5a3d cebe 8cbd 7d2b cd3c
000002e0: 0631 253c eefa a6bb 4623 b73c 35b4 b23c
000002f0: f6c5 1d3e eb21 563d 75af 87bd 2fbf 67bc
00000300: 0260 bc3d 40b0 32bd 4563 2f3e 2a98 2d3e
00000310: cecc d33b 68ba c53a 53f3 c7b9 f3f1 363d
00000320: 2ec9 57bd f016 c33a f281 febc 15fc ef3b
00000330: e4b7 15bd c8d0 ddbc 326c ecbe 85e6 5abd
00000340: 7360 32be 2cfc cdbc 4c99 5abc 87b6 06bd
00000350: b01e 5eba 39ee d63d 4412 123e 7c74 513e
00000360: d702 f5bd 8440 d6bc a474 a4bb 6e40 653d
00000370: 70a3 80bc d47d c43d 919b ff3d 26ad 03be
00000380: eba3 f33d 94a1 3abe c677 893e 3e92 823d
00000390: 3402 c83e ca2b c73d 2e16 c53b 5093 2439
000003a0: ca5d 4a3b d0a2 e8bd 5c80 b13f 34fd b1bd
000003b0: d06e 0f40 5499 963f b5e6 92bf 263a bdbd
000003c0: 76ab f1bd 772e f5bc e65b e6bd 00e2 11bd
000003d0: c629 8d3c f493 eabc ae53 88bc fda9 b83d
000003e0: 8339 133e 4eb7 8b3e e6af 483e 9403 613d
000003f0: e622 c03b 2303 4a3e c8fd d23c b65c febd

exp_avg_sq f4 [128, 34]
69.67518 4.1936016 4.763116 1.187766 2.1107275 1.5528917 0.38392985 0.25591856
0.2691883 0.47833362 0.4086124 0.58928084 0.6094236 0.2183455 0.30425018 0.32617018
0.55180305 0.55614483 13.219443 1.2224004 1.3826404 1.7200158 2.8714864 3.1186073
10.726401 10.662557 0.16828908 0.23475496 0.045992326 5.961948 174.61876 165.26494
114.961136 136.85243 21.166742 0.5518601 0.65983987 0.31646731 0.6271896 0.71835446
0.07973794 0.10814723 0.10752472 0.17879497 0.13525727 0.458158 0.23454317 0.07463917
0.05750254 0.07413314 0.30066115 0.12857929 4.709374 0.46949714 0.34392676 0.28099087
0.6915104 0.4911236 3.1221309 3.0572686 0.012639015 0.11885459 0.00053866004 0.00057002425
92.93179 68.650955 38.884323 23.023993 9.337977 2.456621 6.407359 0.35076588
0.6170571 5.2271657 0.13799374 0.21932986 0.09350189 0.2884976 0.1488604 6.389188
4.3807383 0.11833951 0.13545056 0.108338386 1.8587142 0.38081247 10.756571 0.55577296
0.6503011 0.42786127 0.5374114 0.91623944 7.070724 7.3421183 0.083892055 0.18911481
0.020537538 0.016154384 157.70692 118.5378 71.41877 47.0576 55.684574 9.312112
12.760459 0.8572276 1.7181349 3.0746472 0.4557186 0.34633997 0.40020725 0.58943886
0.39930618 4.015374 2.195391 0.35695544 0.328811 0.44825533 1.4038185 0.7704334
14.715075 1.8160414 1.7594032 1.7342492 3.7727885 3.264071 16.837206 16.166887
0.20180453 0.35142627 0.0038420153 2.6166074 297.5658 257.26923 152.55742 140.85693
29.883871 1.3471107 1.7357047 0.96869844 0.57695717 1.1289859 0.25031543 0.123326994
0.1266776 0.07985674 0.1866778 0.40082774 0.35017905 0.18235269 0.13268077 0.17613547
0.11218139 0.22162923 9.684381 0.44244957 1.5629508 0.39952776 0.39420292 0.3704768
4.0472736 3.6150322 0.11683864 0.0757362 2.8132277e-05 0.007892096 53.63643 37.169193
55.637615 38.814606 2.2844622 0.12516539 0.24988467 0.030420505 0.056211896 0.108687356
0.012736977 0.0132048605 0.028706187 0.009529325 0.011702006 0.07767912 0.04372934 0.009322309
0.012874338 0.015326316 0.033904143 0.019917987 0.4116407 0.0705426 0.055457514 0.14844705
0.15459026 0.20896305 0.6361091 0.62938213 0.00921592 0.0107423505 0.0020974409 1.0806623
0.060366176 0.0715447 0.047361773 0.059972685 16.445814 1.4813415 2.153199 0.29401764
0.5146054 0.5712708 0.13780814 0.060102876 0.089811206 0.08478796 0.18203054 0.5434965
0.24821147 0.06661275 0.10176419 0.12662281 0.24551155 0.1858057 2.928103 0.3834814
0.5128199 0.37982467 0.8370095 0.72917545 2.5509415 2.2958186 0.02588875 0.05837288
0.0045327847 2.5290883 40.45819 45.87826 25.774416 49.033478 20.709778 2.5668318
2.6427097 0.2714879 0.30266738 0.9283695 0.16454741 0.11142325 0.1181801 0.2432464
0.19157377 1.4525104 0.93376356 0.07717533 0.10385422 0.12924194 0.51172394 0.2175456
00000000: b159 8b42 fc31 8640 726b 9840 b708 983f
00000010: 2916 0740 28c5 c63f 7492 c43e c207 833e
00000020: 0dd3 893e 25e8 f43e a535 d13e 1cdb 163f
00000030: 2f03 1c3f f695 5f3e aec6 9b3e c7ff a63e
00000040: f742 0d3f 825f 0e3f d782 5341 9e77 9c3f
00000050: 5cfa b03f 7a29 dc3f 6fc6 3740 4397 4740
00000060: 579f 2b41 d599 2a41 f953 2c3e 9b63 703e
00000070: 7362 3c3d 47c8 be40 679e 2e43 d343 2543
00000080: 1aec e542 39da 0843 7d55 a941 b446 0d3f
00000090: 44eb 283f 0108 a23e 7f8f 203f 14e6 373f
000000a0: a54d a33d 4c7c dd3d ec35 dc3d 0716 373e
000000b0: e280 0a3e af93 ea3e 162c 703e 6cdc 983d
000000c0: c987 6b3d 1ed3 973d 42f0 993e 4aaa 033e
000000d0: 31b3 9640 ee61 f03e 2b17 b03e 09de 8f3e
000000e0: d306 313f 8d74 fb3e fed0 4740 4aaa 4340
000000f0: df13 4f3c 096a f33d dd34 0d3a ae6d 153a
00000100: 14dd b942 4a4d 8942 8c89 1b42 2331 b841
00000110: 5b68 1541 4739 1d40 1609 cd40 9697 b33e
00000120: 74f7 1d3f f144 a740 3b4e 0d3e 0298 603e
00000130: eb7d bf3d f5b5 933e dc6e 183e 3a74 cc40
00000140: 022f 8c40 fc5b f23d 8db3 0a3e 84e0 dd3d
00000150: 59ea ed3f daf9 c23e ea1a 2c41 2347 0e3f
00000160: 227a 263f a210 db3e cb93 093f ab8e 6a3f
00000170: 5f43 e240 a2f2 ea40 99cf ab3d 50a7 413e
00000180: 573e a83c 3356 843c f9b4 1d43 5b13 ed42
00000190: 69d6 8e42 fb3a 3c42 01bd 5e42 69fe 1441
000001a0: d72a 4c41 4573 5b3f d8eb db3f 05c7 4440
000001b0: f353 e93e 7953 b13e f7e7 cc3e 77e5 163f
000001c0: dc71 cc3e f27d 8040 4981 0c40 ddc2 b63e
000001d0: ea59 a83e b981 e53e 53b0 b33f 203b 453f
000001e0: f270 6b41 0b74 e83f 2034 e13f e1fb dd3f
000001f0: 5e75 7140 8ae6 5040 99b2 8641 c955 8141
00000200: d9a5 4e3e 25ee b33e 52ca 7b3b 7f76 2740
00000210: 6cc8 9443 76a2 8043 b38e 1843 60db 0c43
00000220: 2b12 ef41 206e ac3f 922b de3f 9ffc 773f
00000230: 77b3 133f 9c82 903f 5829 803e dd92 fc3d
00000240: c6b7 013e ee8b a33d 7728 3f3e 4b39 cd3e
00000250: ab4a b33e aaba 3a3e 78dd 073e db5c 343e
00000260: 5bbf e53d c6f2 623e 39f3 1a41 c088 e23e
00000270: c60e c83f e78e cc3e f7d4 c93e 23af bd3e
00000280: 4483 8140 b05c 6740 1949 ef3d 951b 9b3d
00000290: 9bfd eb37 da4d 013c b48b 5642 41ad 1442
000002a0: eb8c 5e42 2842 1b42 a134 1240 5b2b 003e
000002b0: c4e1 7f3e 6c34 f93c 723e 663d 7a97 de3d
000002c0: c1ae 503c 3359 583c 3d29 eb3c e320 1c3c
000002d0: c5b9 3f3c 3b16 9f3d 891d 333d 99bc 183c
000002e0: e3ee 523c 3a1b 7b3c 12df 0a3d 0c2b a33c
000002f0: 92c2 d23e a378 903d 6b27 633d 8102 183e
00000300: e94c 1e3e 69fa 553e 0cd8 223f 301f 213f
00000310: 5ffe 163c af00 303c 3875 093b 2453 8a3f
00000320: 8642 773d 0786 923d 6bfe 413d eba5 753d
00000330: 0791 8341 999c bd3f 03ce 0940 7b89 963e
00000340: 2ebd 033f ce3e 123f 941d 0d3e 6f2e 763d
00000350: f0ee b73d 4fa5 ad3d 3766 3a3e 9622 0b3f
00000360: 262b 7e3e 446c 883d be69 d03d 69a9 013e
00000370: 6167 7b3e d943 3e3e 0a66 3b40 ad57 c43e
00000380: 2a48 033f 6178 c23e 4146 563f 3eab 3a3f
00000390: a042 2340 b1ee 1240 a514 d43c 6718 6f3d
000003a0: c187 943b 95dc 2140 30d5 2142 5783 3742
000003b0: 0132 ce41 4822 4442 a0ad a541 f946 2440
000003c0: 2822 2940 7600 8b3e 38f7 9a3e a0a9 6d3f
000003d0: 1e7f 283e df31 e43d 6908 f23d 9615 793e
000003e0: ea2b 443e dceb b93f 210b 6f3f 190e 9e3d
000003f0: 85b1 d43d 0058 043e 5700 033f 46c4 5e3e
