Data/Player1/checkpoint-advTest3.pth (torch, 359006 bytes, 20 tensors)

linear1.weight f4 [128, 34]
00000000: f8f4 31be 796e 35bd a48f 2c3f 5d6a 3b3e
00000010: 6b46 323d c95b 323e a0f4 ad3d f3fd c8bd
00000020: c3d1 08be d6e2 103e 4dce 7b3c e1f1 3f3e
00000030: 1e0d 263e 1bb2 793c d550 093e b697 023e
00000040: a747 adbc 0b58 a83d 111d a4bd dc69 433d
00000050: 0175 d3bd ef95 2bbe 6f26 2ebd e026 24bd
00000060: 59fe 87bd 7573 57bd 3d19 10be ecfd 703e
00000070: a890 81bc dc9e eebc 09f3 a2bb 527d 8fbd
00000080: 5be0 ee3c d092 253e 154a a83d 6716 71bd
00000090: 38bf 79bd d5d3 773d fdd5 9d3c c95c 4b3d
000000a0: c5e8 d73b 5eb4 edbb be8c a7bd 50b3 cc3d
000000b0: 7278 12bc a360 403d 4672 25be d0d1 4e3d
000000c0: 0334 52be 79a5 38bd 5f64 8a3e 887a b6bd
000000d0: c59f a6bc c12d 0dbe 6dd5 0e3e e4a3 b13e
000000e0: e68a 203e 8572 113e c11f 453e 85a7 83bd
000000f0: d71f d7bf cd18 8e3e 9df9 00be 70b4 55be
00000100: 96fe e3bd aecd 0b3e 7304 18bd fe09 c03d
00000110: a7af d73d 6b8c a53d 15e0 8a3b f665 df3d
00000120: b46b b03d bf0b 833d 7e58 3c3e f8e2 2f3e
00000130: 64b1 353e 73b3 a13d 160b a1bd 7eab d53d
00000140: 2369 603c 59e8 19bc e340 ad3d 347c 9a3d
00000150: 3165 3a3d 7692 2abd 4f63 803d 79e4 c63c
00000160: 018c e4bd 9264 563d fe6f 213d 91ee 543d
00000170: 44fb 0e3d ebd1 ccbd c563 b2be c92c 4a3d
00000180: 1ba7 c73d 3ebd 3cbc 7918 e5be a2e6 c2bb
00000190: 15f4 2ebf 1757 1fbe f341 ba3e 8ee9 16be
000001a0: 911f 7f3d 1ec3 393e d285 22be 5b5e 0abd
000001b0: ec6a 9abc b83e acbd a691 873e d0c8 8cbe
000001c0: fff8 fc3c d579 01bc 79ef 563e 8d51 d63c
000001d0: 8dc0 723e 33bd 7a3e 5c6f 41be d0a0 cfbd
000001e0: 0fa2 1f3d 8524 f73c 6aca a13c 078c 923d
000001f0: aa39 52bd d925 6b3d 750c 653c 918f f2bb
00000200: d089 f03b 23f0 193e f827 48bf d58b 57bc
00000210: 0587 323c 4237 833c 904b 7e3c 5563 abba
00000220: 4f3b 67bd f25e 45be 9540 05be 4f5b 8abe
00000230: b4b8 f3bd 5ec6 11be da02 94be 8734 c2bd
00000240: 5f7e 16be f9a2 cf3d e53f 1cbe 0dc8 2a3e
00000250: 6a1b 82be 8fe3 88bd b0b4 073e 3dff 3d3b
00000260: a5ac 533c 2993 d8bd edac d43e 5d22 103e
00000270: 4270 843e 76cc 62ba 0aba 023e 915b 533e
00000280: 1241 e8bc 1bc0 d0bb 5a50 b33e 638f eabe
00000290: 3f9c 26be f526 c7bd 0013 d53c 88db 2e3c
000002a0: 4d50 1cbd b672 a53d 689d b0bd 73c1 d2bd
000002b0: 62a6 e43d 7620 febd 8585 263e 0068 ce3b
000002c0: 0cd2 103f be5d 04bd 53f3 13bf d073 363d
000002d0: 83c0 183d 1635 063e 7f12 0cbe ee6c 56be
000002e0: 55fe 98be 5917 043e 1850 41bd 8422 b0bd
000002f0: e4f5 b53e 2cac df3c 2e8f 103d 1729 13bc
00000300: 1c95 a6bc 9622 44ba 51d3 f63d b50a 75bd
00000310: 7f1c 60bd d0b5 9d3e 72ee 28be bb24 463c
00000320: 1a37 eabd 3b49 053e 1b45 923d bc53 8ebd
00000330: 9cf5 5c3a 7d7e 443e 5861 663e 4c1f 563e
00000340: e32e dd3e dfaf 04be a294 8f3d b5ba 7ebe
00000350: 107a b7bb 43d5 f8be c88e a2be 5a6f 013e
00000360: ebc3 593c 1933 0a3e 99a0 543e 8450 813d
00000370: 696c 94bd 4a7e 58be 62cc b2bc 4b20 1ebd
00000380: 7cea d2bc 62f3 573d 9edd 223b d110 9bbe
00000390: 65bb 1ebc 4934 fcbb 584c 73be 6328 263e
000003a0: de7d 6cbf 4e2a cebd c9c6 05bc 4ffc 01bb
000003b0: 2640 2c3e cba1 b8bd 4287 1c3d ba98 22be
000003c0: b125 f7bd 60e3 0a3d 92e3 8abc 584f de3d
000003d0: 68d3 403d b469 00be b8f0 29be 5633 0e3e
000003e0: feed 9abd a655 51be 08a5 bfbd e88d bfbd
000003f0: d688 203e 0375 8c3e 257f 153d a13b a43d
-0.17378604 -0.044294808 0.6740668 0.18302293 0.043524187 0.17417826 0.08493924 -0.09814062
-0.13361268 0.14149031 0.01536901 0.18744613 0.16215941 0.015240218 0.13409741 0.12753186
-0.02115233 0.08219918 -0.080133565 0.047708377 -0.10325051 -0.16756414 -0.042517122 -0.040076137
-0.0664031 -0.052600343 -0.14072128 0.23534364 -0.015816048 -0.029128484 -0.0049728197 -0.07006325
0.029159715 0.16169286 0.08217255 -0.058859255 -0.060973376 0.060504753 0.019267077 0.049649034
0.0065890276 -0.0072541675 -0.08181141 0.09995139 -0.008939849 0.04696716 -0.16156873 0.05049306
-0.20527653 -0.045079682 0.27029702 -0.0891009 -0.020339856 -0.13786985 0.13948603 0.3469535
0.15677986 0.14203842 0.19250394 -0.06428436 -1.6806592 0.27753296 -0.1259522 -0.20869613
-0.11132543 0.1365268 -0.037113618 0.09376906 0.1053155 0.08083423 0.0042381384 0.109081194
0.08614293 0.06398725 0.18393132 0.17176425 0.1774345 0.07895555 -0.078634426 0.104331
0.013696942 -0.009393775 0.08459642 0.07543221 0.04550666 -0.041643582 0.062689416 0.024278866
-0.11159516 0.052342005 0.039413445 0.051985327 0.034907594 -0.10000976 -0.34841743 0.049359117
0.0974867 -0.011519728 -0.44745234 -0.0059479037 -0.6834119 -0.15560566 0.3637844 -0.14737532
0.062285963 0.18140838 -0.15871361 -0.03378139 -0.018849812 -0.084104 0.26478308 -0.27496958
0.03088045 -0.007902582 0.20989789 0.026161933 0.23706265 0.24486236 -0.18890136 -0.101380944
0.03897291 0.030168781 0.019749839 0.07155614 -0.051324524 0.05740914 0.013980021 -0.0074023684
0.0073406473 0.15033011 -0.7818599 -0.013155897 0.010896449 0.01601756 0.015520945 -0.0013075868
-0.056453045 -0.192745 -0.13012917 -0.27022788 -0.11900464 -0.14235827 -0.28908426 -0.09482675
-0.14696644 0.101385064 -0.15258749 0.16677876 -0.2541154 -0.06684028 0.1325252 0.0028991245
0.01291958 -0.105749436 0.41538182 0.14075609 0.25866896 -0.0008651683 0.12766281 0.20640399
-0.02835134 -0.006370557 0.3502224 -0.4581252 -0.1627054 -0.09724227 0.026010036 0.0106724575
-0.03816252 0.0807852 -0.08623773 -0.10290804 0.111645475 -0.12408535 0.16261871 0.006299019
0.56570506 -0.032315962 -0.5779316 0.04454404 0.03729297 0.13106188 -0.1367893 -0.20939991
-0.2988154 0.12899531 -0.047195524 -0.08600333 0.35539162 0.027303778 0.035292797 -0.008981965
-0.020334773 -0.00074819603 0.12052024 -0.059824664 -0.054714676 0.30802774 -0.1649721 0.012093718
-0.11436291 0.13016216 0.07142087 -0.06949565 0.00084289326 0.19188876 0.22498071 0.20910376
0.43199834 -0.12957714 0.07010771 -0.2487591 -0.005599268 -0.48600206 -0.31749558 0.12640134
0.013291339 0.13496055 0.20764388 0.06314185 -0.0724724 -0.21141925 -0.021825973 -0.038605016
-0.025746576 0.052722342 0.0024851332 -0.30286267 -0.009688233 -0.0076966626 -0.23759592 0.16226344
-0.9237956 -0.10066663 -0.00816507 -0.0019834226 0.16821346 -0.090152346 0.03821493 -0.15878573
-0.12067736 0.033908248 -0.016954217 0.10854977 0.047076613 -0.12540323 -0.16595733 0.1388677
-0.07564925 -0.20442829 -0.09357649 -0.09353238 0.15677199 0.27433023 0.036498208 0.08019186

linear1.bias f4 [128]
00000000: 771c 843e 790b 27bf ea7d 5a3e 8d08 ee3e
00000010: f9ed b2be 4704 853e 4da5 953e a438 5abe
00000020: 0274 803d d389 df3e 0500 093f 5433 a93d
00000030: 4269 833e 6754 d1bd 64c3 f2bd 8c5e 933e
00000040: 531c 893e edc0 90be c527 af3e 7294 8fbe
00000050: 1b01 4cbe b307 a33e 1701 95bd 138f 8b3e
00000060: 7d46 533d 5c1b e2be 30a2 d83c a90f 94be
00000070: e0f5 de3e 384c 29be 55a0 adbe 5a9a 2bbf
00000080: e1a5 dd3e aade 863d 8b11 5bbd 8515 08bf
00000090: f15f a8bc 983b ecbc 27d1 8c3e 3978 e43c
000000a0: 6514 a0ba c239 dc3e 250a 9ebb 291a 013f
000000b0: e49e afbe 50b7 07bf e858 02be 9b88 2f3e
000000c0: f34c e13e b466 fb3e 381e bfbd c829 5dbe
000000d0: 7bc1 7a3e 7f06 a73e 0641 3a3e efbd 4fbe
000000e0: ee97 ddbe 9045 22be 9be8 223f 17a3 593d
000000f0: be60 9a3e 28b5 b23e 1400 f3bd eeff d9be
00000100: 967b 04be f18a f4be 7524 5dbe ff8d 48be
00000110: 8038 ab3e 4e0d 7c3e 8ac6 363e fe1a bf3d
00000120: 3c5d 853e 7e84 283e 207c f43d 61cf 6f3d
00000130: df71 0f3f cf1b bc3e 2f41 95be b3b8 11bf
00000140: 31a9 d4be b7df 7ebd 118c 523e 9d3e 9d3e
00000150: 674c f13d 400a fb3e de8e 323e 6b4e ee3e
00000160: 77ee 993e 2ee4 7c3e 9bcf 3abe bae7 52be
00000170: 3011 85be 4528 b13e f45a 19bf 65d5 c93d
00000180: f9d4 71bc 0c25 27bf 73e3 8a3c 3942 f8be
00000190: e71d 113f b9ad 8d3d 9912 283e e37b ee3e
000001a0: 7ec5 3d3e 6341 163e f558 2c3f 20d8 d73e
000001b0: 8516 dcbe 0623 013f 3f44 d53d 9fa9 f0be
000001c0: 652c 90be d4dd 75be dcd5 a5bd 0c03 8b3e
000001d0: 386e 053f f057 853e 37d2 193d 7283 5ebd
000001e0: 0b8e 72be 2978 26bf 7142 b3be eed7 203f
000001f0: 4376 c7be 8098 d63e 32d3 28bf 9e65 a6be
0.25802967 -0.6525188 0.21337095 0.464909 -0.34947184 0.25979826 0.29227677 -0.21310669
0.06272127 0.4365984 0.53515655 0.08261743 0.25666243 -0.102211766 -0.11853674 0.2878307
0.26779422 -0.2827219 0.3421003 -0.28042942 -0.19922297 0.31841812 -0.072755985 0.27257594
0.051580895 -0.441615 0.026444525 -0.28918198 0.43546963 -0.16532981 -0.33911386 -0.67032397
0.43290618 0.065854385 -0.053483527 -0.53157836 -0.02055356 -0.02883701 0.2750332 0.027889358
-0.0012213109 0.43012816 -0.0048229867 0.5043054 -0.3430091 -0.5301409 -0.12729228 0.17141955
0.4400402 0.49101794 -0.09331936 -0.2159797 0.2448787 0.32622144 0.18188867 -0.20287298
-0.43279976 -0.15846848 0.6363618 0.05313405 0.30151933 0.34903836 -0.11865249 -0.4257807
-0.1293777 -0.47762254 -0.21595939 -0.19585417 0.33441544 0.2461445 0.17849174 0.0933132
0.26047695 0.16456792 0.119377375 0.05854738 0.5603313 0.36739966 -0.29151294 -0.56922454
-0.41535333 -0.06222507 0.20561244 0.30711833 0.11782151 0.49031258 0.17437312 0.46544203
0.30064747 0.24696419 -0.18243258 -0.20596209 -0.25989676 0.34601036 -0.5990441 0.09855155
-0.014760249 -0.65290904 0.01695416 -0.48488024 0.5668625 0.069179006 0.16413344 0.46578893
0.18532369 0.1467338 0.6732324 0.42157078 -0.4298593 0.50444067 0.104134075 -0.4700441
-0.2815887 -0.24010402 -0.08097431 0.27150762 0.52121305 0.26043653 0.037553992 -0.054324575
-0.23686998 -0.650271 -0.35011628 0.6282948 -0.38957414 0.41913223 -0.6594726 -0.32499403

linear2.weight f4 [64, 128]
00000000: 33fe 2dbd 76a3 7a3d 5438 ffbd 4c8d 69bc
00000010: 735f 453e f34e 98bc 7f98 27bd 73f8 34bd
00000020: 88d5 273d bd11 a4bd 1512 a4bd f8f6 933e
00000030: 90ed e3bd 9d0c 183d 2c0f a23d 7af9 85bc
00000040: b212 5b3d 5098 013e d67c 1ebe e75e 22bd
00000050: 1c9b 393e aff5 27be a810 8a3d 666e 24be
00000060: 68ab 08bd 8333 8f3d a642 38bd 3819 993c
00000070: 0650 943d 2e08 963c 1f91 a73d 9557 3d3e
00000080: ea72 fabc 7bf7 153d ad51 273d 5c40 6e3e
00000090: 7cde 41be 8b12 113d 9ce0 bdbd b120 e0be
000000a0: 870e ff3d 82c7 593d 37af bd3d fb85 463d
000000b0: 82f6 813d 2fe5 0b3e d947 bf3d 3500 f13d
000000c0: 49a2 3abe 7696 623d adaf 2abd 0b71 6c3e
000000d0: 0055 13be caa2 70be e622 0fbe 9815 96bf
000000e0: 6cda 6e3e 5918 2b3e a95f 4cbd 1245 013e
000000f0: b0d1 dabd d84a 6bbe 907b c33d 033b 073e
00000100: b64f d33d f9b1 403d 6aa4 9d3e 70e8 a3be
00000110: a39f 9fbb e0ed eebc 6ea6 95bd bde9 c33d
00000120: 64f7 45bd 726f de3e 1eaa 22be 7ac1 9fbe
00000130: 0904 79bd e471 af3a 343e b33d 38ec 313e
00000140: 67ac 363e e699 703e 053c 49be ae4e 80bd
00000150: 6c1c a63d feb0 b3bd aafd 9bbe 05e4 88be
00000160: 18fa c2bb c6f0 5a3d 9b2c d5bb e42b d7bc
00000170: 5dda 0d3e 8cc2 c6bd 9b4d 9a3e a2ec a33e
00000180: 5d7d 163f bdc7 b73d 0a3f fd3d 41de 2f3e
00000190: 51e3 94b9 199f 88bc 104c 17bd 9206 27be
000001a0: a549 2cbe a68d 173e dbd4 823d 9db9 25be
000001b0: 41b8 1339 6da1 f63a a7ef 20be eecf 043e
000001c0: 95bc 5f3d 26c6 cf3d 26d7 143e 8881 38be
000001d0: 46b6 cbbd 93bb 7e3d 4953 453d 7ddc 3cbc
000001e0: 288b 033e 9fbd 013d 8e17 e63d 2820 3ebe
000001f0: 3bb0 e13d c21b d8bc c8c8 193e b161 b23d
00000200: 4d4a 363c d979 643d a432 5d3e 213b e43d
00000210: 4e52 963d 2db9 ef3d 20b3 033e 7647 753d
00000220: a32e a9be 7de1 6ebd f795 483e 8c48 8a3c
00000230: cc78 36be 1f03 593d 0c14 9cbe b73c ac3d
00000240: 2d6f 043e 5655 1abe 5644 52bd 5351 6cbe
00000250: 6f8c c7bd 0c56 d73d 8e50 033c 1ade f5bb
00000260: 8039 9fbc 09c8 f3bd d1bf a1b6 e6dd 893c
00000270: 785d 1e3e 533d 0cbd 449e 23be 7582 b8bd
00000280: 7d7a 9d3e d4a3 83bd ed8d 183e 5488 563d
00000290: c010 843e 8ff2 3c3d 3f64 cd3d 69ba 693d
000002a0: baa1 1fbd 0eb6 5fbd 0bc2 933d ce2e 2f3c
000002b0: 9574 31be b534 f43c ea30 df3d 7ba5 0ebe
000002c0: 0195 a3bc 8d5f a7bb 4cdf 163c 3811 a0bd
000002d0: 99ba a03c 296f b53d a77b 103e b808 883d
000002e0: 6c08 81bd 041a 793e 63b9 4d3d d5de a8bd
000002f0: 2988 fe3c 2ee2 8e3d df12 55be e13a 903d
00000300: 5b2a f43c 9a83 ca3c 63d1 56bb 3035 e4bd
00000310: 68fb 103e 9782 f43d 3878 293d 7025 36be
00000320: c205 bd3d bd74 98bd be8a 23bc 15fc d23d
00000330: d7cd c9bd e844 ca3d b865 4cbe ddcb 10bd
00000340: 7e9b 3bbc 374d ed3c 530e 563d 3c14 b1bd
00000350: d91b 673d 3df0 2abe bde6 653e bea2 0dbd
00000360: 7d2d e53d 65ef b0bd c090 20be 7a17 2cbd
00000370: 2f11 30be 04a5 3c3c 4282 f63c bf84 df3c
00000380: 4af6 533e de24 acbd 642f 593e c77a 27bd
00000390: b671 df3d 80be a1bd d2db 8cbd 0588 83bd
000003a0: 3432 0b3d 9dce 9d3d 94dc 18be 6890 2d3e
000003b0: 75c4 fc3c 2c9b f839 5239 133e 9394 22be
000003c0: 3068 e93d 0038 8fbd 2b8d a8be 3127 923c
000003d0: 5f68 4c3c 5e2a e3bc d61c ff3c cd3e aa3e
000003e0: 6fc9 d0bd 6838 fbbc 473d 103d 2a35 f8bd
000003f0: d1a2 06be 7b6f 4c3d 4b8d 2ebc 6a0c 673c
-0.04247875 0.061191045 -0.124619156 -0.014254879 0.19274692 -0.018592333 -0.040916916 -0.044182252
0.040975124 -0.08011196 -0.080112614 0.2889936 -0.11129296 0.037121404 0.0791305 -0.016354311
0.053484626 0.12655759 -0.15477309 -0.039641287 0.18125576 -0.16402315 0.06741458 -0.16057739
-0.03336659 0.06992247 -0.044985436 0.018688783 0.07241826 0.018314447 0.081819765 0.18490441
-0.030572373 0.03661297 0.040849376 0.23266739 -0.18932527 0.035418075 -0.092713565 -0.43774942
0.12453943 0.05316878 0.09261935 0.048467617 0.06345846 0.13661645 0.09339876 0.117676176
-0.1822597 0.055319272 -0.041671444 0.23089997 -0.14387894 -0.23499599 -0.13978156 -1.172534
0.23325509 0.16708507 -0.049895916 0.12624004 -0.10684526 -0.2297777 0.09545052 0.13206105
0.10317938 0.047044728 0.307895 -0.32013273 -0.004871325 -0.029166162 -0.073071346 0.095660664
-0.048331633 0.434444 -0.15885207 -0.31202298 -0.060794864 0.0013385382 0.08752099 0.17375267
0.17839204 0.23496208 -0.19651802 -0.06265007 0.0811089 -0.08773993 -0.30466968 -0.26736465
-0.0059502237 0.053452276 -0.0065055615 -0.026266046 0.1385283 -0.097050756 0.30137333 0.32016474
0.5878504 0.08973644 0.12365539 0.17174627 -0.00028398124 -0.016677426 -0.036937773 -0.163111
-0.16824968 0.14800128 0.06388255 -0.16184087 0.00014087652 0.0018816419 -0.1571642 0.12969944
0.054623205 0.10145216 0.14535198 -0.18018162 -0.09946875 0.062190603 0.04817513 -0.011527178
0.12846053 0.031674977 0.112349615 -0.18566954 0.110199414 -0.026380423 0.15017998 0.087100394
0.011126113 0.055780265 0.21601349 0.111440904 0.07339917 0.11705241 0.128613 0.059882604
-0.33043393 -0.05832051 0.19588457 0.016880296 -0.17819518 0.052981492 -0.30484045 0.08410018
0.12933035 -0.15071616 -0.0513347 -0.23077898 -0.097435825 0.10514459 0.008014811 -0.007503283
-0.019436598 -0.11903388 -4.8205043e-06 0.016829442 0.15465343 -0.03423817 -0.15978342 -0.09009258
0.30757514 -0.06427732 0.1489789 0.052376106 0.2579403 0.04612976 0.10028886 0.05706254
-0.038972594 -0.05461698 0.07214745 0.010692311 -0.17329629 0.029810289 0.108980015 -0.13930313
-0.019968512 -0.005107826 0.009208512 -0.07815784 0.019620227 0.08859093 0.1410967 0.06642288
-0.063004345 0.2432633 0.050225627 -0.08245627 0.031070786 0.06976734 -0.2080798 0.0704248
0.029805353 0.024720956 -0.0032778613 -0.11142957 0.14158404 0.119389705 0.041374415 -0.17787719
0.09229614 -0.07444141 -0.009981809 0.10301987 -0.09853714 0.09876424 -0.19960678 -0.03535067
-0.011450646 0.028967483 0.052259754 -0.086464375 0.056423042 -0.16693206 0.22451301 -0.03457903
0.11190317 -0.08639411 -0.15680218 -0.042014576 -0.17194055 0.011513952 0.030091409 0.027284978
0.2069942 -0.08405469 0.21209484 -0.040888574 0.109103605 -0.07897663 -0.06877865 -0.06422428
0.033983424 0.07705424 -0.14927894 0.16949618 0.030855397 0.00047417858 0.14377335 -0.15876989
0.11396825 -0.06993103 -0.32920203 0.017840954 0.012476056 -0.027730163 0.03114168 0.33251038
-0.101946704 -0.030666545 0.03521469 -0.12119515 -0.13148047 0.049911004 -0.010653804 0.014102081

linear2.bias f4 [64]
00000000: 4178 afbe 0809 763e 6858 2abf 1c75 a83e
00000010: 651f bc3e a8c6 82be 280f 8dbe eaed e43e
00000020: d736 aa3e a4df b13e f1d7 cc3e df5a bf3e
00000030: 99eb c63e 700f 723e 2d6d 0bbf 4752 85be
00000040: a891 9f3e d143 8abe d3a0 4d3e a01b 513e
00000050: 62f6 aabe 7415 a63e f92a 42be a2e3 07bf
00000060: c50a 9abe ad12 a4be 475e e3be f055 a23e
00000070: fda8 68bd f237 c5be 379f 39be 712f a23e
00000080: 6045 df3e cf56 30bc 8ca5 9cbe 7781 b73e
00000090: 2102 d2be 57f8 cabe f82b 82be f061 ebbe
000000a0: cc43 b63e 45bb 4ebe f4d8 533e f8a8 c0be
000000b0: 7170 42be 52b0 8ebe 6f3b 983e b1e3 aabd
000000c0: a5d9 983e 6ae8 dc3e 2fa6 c43e 97be 8fbe
000000d0: 95bb 6fbe 8fb2 a6be ea25 b1be d34d 8b3e
000000e0: 89fb 273e a93f d23e cc95 c13e 412a aebe
000000f0: c292 943e 6c12 0d3e c3c5 943e 8f32 943e
-0.34271434 0.24026883 -0.6654115 0.32901847 0.36742702 -0.25542188 -0.27550626 0.44712764
0.33244964 0.34740937 0.400085 0.37374017 0.38851622 0.23638701 -0.54463464 -0.26039335
0.31165814 -0.27004865 0.20080881 0.20420694 -0.333911 0.32438242 -0.18961705 -0.53081715
-0.30086342 -0.32045498 -0.44407865 0.3170619 -0.056801785 -0.38519245 -0.18127142 0.3167682
0.43607616 -0.010762884 -0.30595052 0.3584096 -0.4101725 -0.39642593 -0.2542417 -0.45973158
0.355986 -0.20188625 0.2068823 -0.37628913 -0.18988205 -0.27868897 0.29732844 -0.0834421
0.2985355 0.43146068 0.38408038 -0.28075096 -0.234114 -0.32558104 -0.3459924 0.27207813
0.16404547 0.41064194 0.37809598 -0.34016612 0.29018217 0.13776559 0.2905713 0.28944823

output.weight f4 [1, 64]
00000000: e31b bfbe cbdb 063f 9cd0 96bf e44a 243e
00000010: a756 313e 7b79 89bf 6b91 c9be df59 9f3e
00000020: 214f fe3e 416b a53e 50d6 4a3e 05e6 7b3e
00000030: 4691 063f bfef 943e f105 4abf 5e8a b7be
00000040: cc15 9a3d 7ba2 cdbe e794 083f 8e87 a83e
00000050: 23ad c2be e75e 0a3e 3cc7 21bf e016 4cbf
00000060: 36a7 acbe 9783 babe 0efa 87bf ef6d 8c3e
00000070: ed0b 2dbf 520e 4cbf b4a4 7cbf adac 2c3e
00000080: 4e19 8f3e bc1c 92bf 9074 79bf 39ca bc3e
00000090: 15f7 57bf 7373 15bf bc1a efbe dfee 1dbf
000000a0: f83f 203e 67bb 2abf af87 323f fd79 593f
000000b0: 4e62 34bf ab35 4bbf 723a 8f3e a978 13bf
000000c0: 06ba 4d3e 217a 0a3f dd08 643e fb79 d3be
000000d0: 46b4 24bf 49d6 85bf 910c 15bf 8933 1d3f
000000e0: 3668 1b3f 3910 b43d 8303 923e d734 09bf
000000f0: 93f9 893e cb2a 053f 2bf4 6a3e 79f6 b13d
-0.37325963 0.5267913 -1.1782413 0.16044194 0.17318211 -1.0740198 -0.39368758 0.31123254
0.49669746 0.3230839 0.19808316 0.24599464 0.5256542 0.29089162 -0.78915316 -0.35847753
0.07523689 -0.40163025 0.53352207 0.3291592 -0.38022718 0.13512765 -0.6319463 -0.79722404
-0.33721322 -0.3642852 -1.0623186 0.27427623 -0.6759632 -0.7970935 -0.9868882 0.16862746
0.27948993 -1.1415019 -0.97443485 0.36873034 -0.8436139 -0.58379287 -0.46700084 -0.61692613
0.15649402 -0.66692203 0.69738287 0.84951764 -0.704625 -0.79378766 0.27974278 -0.5760599
0.20090494 0.54092604 0.22269006 -0.41304 -0.64337575 -1.045602 -0.582223 0.6140676
0.6070589 0.08792157 0.28518304 -0.5359625 0.26948223 0.5201842 0.22944705 0.08689589

linear1.weight f4 [128, 34]
00000000: f8f4 31be 796e 35bd a48f 2c3f 5d6a 3b3e
00000010: 6b46 323d c95b 323e a0f4 ad3d f3fd c8bd
00000020: c3d1 08be d6e2 103e 4dce 7b3c e1f1 3f3e
00000030: 1e0d 263e 1bb2 793c d550 093e b697 023e
00000040: a747 adbc 0b58 a83d 111d a4bd dc69 433d
00000050: 0175 d3bd ef95 2bbe 6f26 2ebd e026 24bd
00000060: 59fe 87bd 7573 57bd 3d19 10be ecfd 703e
00000070: a890 81bc dc9e eebc 09f3 a2bb 527d 8fbd
00000080: 5be0 ee3c d092 253e 154a a83d 6716 71bd
00000090: 38bf 79bd d5d3 773d fdd5 9d3c c95c 4b3d
000000a0: c5e8 d73b 5eb4 edbb be8c a7bd 50b3 cc3d
000000b0: 7278 12bc a360 403d 4672 25be d0d1 4e3d
000000c0: 0334 52be 79a5 38bd 5f64 8a3e 887a b6bd
000000d0: c59f a6bc c12d 0dbe 6dd5 0e3e e4a3 b13e
000000e0: e68a 203e 8572 113e c11f 453e 85a7 83bd
000000f0: d71f d7bf cd18 8e3e 9df9 00be 70b4 55be
00000100: 96fe e3bd aecd 0b3e 7304 18bd fe09 c03d
00000110: a7af d73d 6b8c a53d 15e0 8a3b f665 df3d
00000120: b46b b03d bf0b 833d 7e58 3c3e f8e2 2f3e
00000130: 64b1 353e 73b3 a13d 160b a1bd 7eab d53d
00000140: 2369 603c 59e8 19bc e340 ad3d 347c 9a3d
00000150: 3165 3a3d 7692 2abd 4f63 803d 79e4 c63c
00000160: 018c e4bd 9264 563d fe6f 213d 91ee 543d
00000170: 44fb 0e3d ebd1 ccbd c563 b2be c92c 4a3d
00000180: 1ba7 c73d 3ebd 3cbc 7918 e5be a2e6 c2bb
00000190: 15f4 2ebf 1757 1fbe f341 ba3e 8ee9 16be
000001a0: 911f 7f3d 1ec3 393e d285 22be 5b5e 0abd
000001b0: ec6a 9abc b83e acbd a691 873e d0c8 8cbe
000001c0: fff8 fc3c d579 01bc 79ef 563e 8d51 d63c
000001d0: 8dc0 723e 33bd 7a3e 5c6f 41be d0a0 cfbd
000001e0: 0fa2 1f3d 8524 f73c 6aca a13c 078c 923d
000001f0: aa39 52bd d925 6b3d 750c 653c 918f f2bb
00000200: d089 f03b 23f0 193e f827 48bf d58b 57bc
00000210: 0587 323c 4237 833c 904b 7e3c 5563 abba
00000220: 4f3b 67bd f25e 45be 9540 05be 4f5b 8abe
00000230: b4b8 f3bd 5ec6 11be da02 94be 8734 c2bd
00000240: 5f7e 16be f9a2 cf3d e53f 1cbe 0dc8 2a3e
00000250: 6a1b 82be 8fe3 88bd b0b4 073e 3dff 3d3b
00000260: a5ac 533c 2993 d8bd edac d43e 5d22 103e
00000270: 4270 843e 76cc 62ba 0aba 023e 915b 533e
00000280: 1241 e8bc 1bc0 d0bb 5a50 b33e 638f eabe
00000290: 3f9c 26be f526 c7bd 0013 d53c 88db 2e3c
000002a0: 4d50 1cbd b672 a53d 689d b0bd 73c1 d2bd
000002b0: 62a6 e43d 7620 febd 8585 263e 0068 ce3b
000002c0: 0cd2 103f be5d 04bd 53f3 13bf d073 363d
000002d0: 83c0 183d 1635 063e 7f12 0cbe ee6c 56be
000002e0: 55fe 98be 5917 043e 1850 41bd 8422 b0bd
000002f0: e4f5 b53e 2cac df3c 2e8f 103d 1729 13bc
00000300: 1c95 a6bc 9622 44ba 51d3 f63d b50a 75bd
00000310: 7f1c 60bd d0b5 9d3e 72ee 28be bb24 463c
00000320: 1a37 eabd 3b49 053e 1b45 923d bc53 8ebd
00000330: 9cf5 5c3a 7d7e 443e 5861 663e 4c1f 563e
00000340: e32e dd3e dfaf 04be a294 8f3d b5ba 7ebe
00000350: 107a b7bb 43d5 f8be c88e a2be 5a6f 013e
00000360: ebc3 593c 1933 0a3e 99a0 543e 8450 813d
00000370: 696c 94bd 4a7e 58be 62cc b2bc 4b20 1ebd
00000380: 7cea d2bc 62f3 573d 9edd 223b d110 9bbe
00000390: 65bb 1ebc 4934 fcbb 584c 73be 6328 263e
000003a0: de7d 6cbf 4e2a cebd c9c6 05bc 4ffc 01bb
000003b0: 2640 2c3e cba1 b8bd 4287 1c3d ba98 22be
000003c0: b125 f7bd 60e3 0a3d 92e3 8abc 584f de3d
000003d0: 68d3 403d b469 00be b8f0 29be 5633 0e3e
000003e0: feed 9abd a655 51be 08a5 bfbd e88d bfbd
000003f0: d688 203e 0375 8c3e 257f 153d a13b a43d
-0.17378604 -0.044294808 0.6740668 0.18302293 0.043524187 0.17417826 0.08493924 -0.09814062
-0.13361268 0.14149031 0.01536901 0.18744613 0.16215941 0.015240218 0.13409741 0.12753186
-0.02115233 0.08219918 -0.080133565 0.047708377 -0.10325051 -0.16756414 -0.042517122 -0.040076137
-0.0664031 -0.052600343 -0.14072128 0.23534364 -0.015816048 -0.029128484 -0.0049728197 -0.07006325
0.029159715 0.16169286 0.08217255 -0.058859255 -0.060973376 0.060504753 0.019267077 0.049649034
0.0065890276 -0.0072541675 -0.08181141 0.09995139 -0.008939849 0.04696716 -0.16156873 0.05049306
-0.20527653 -0.045079682 0.27029702 -0.0891009 -0.020339856 -0.13786985 0.13948603 0.3469535
0.15677986 0.14203842 0.19250394 -0.06428436 -1.6806592 0.27753296 -0.1259522 -0.20869613
-0.11132543 0.1365268 -0.037113618 0.09376906 0.1053155 0.08083423 0.0042381384 0.109081194
0.08614293 0.06398725 0.18393132 0.17176425 0.1774345 0.07895555 -0.078634426 0.104331
0.013696942 -0.009393775 0.08459642 0.07543221 0.04550666 -0.041643582 0.062689416 0.024278866
-0.11159516 0.052342005 0.039413445 0.051985327 0.034907594 -0.10000976 -0.34841743 0.049359117
0.0974867 -0.011519728 -0.44745234 -0.0059479037 -0.6834119 -0.15560566 0.3637844 -0.14737532
0.062285963 0.18140838 -0.15871361 -0.03378139 -0.018849812 -0.084104 0.26478308 -0.27496958
0.03088045 -0.007902582 0.20989789 0.026161933 0.23706265 0.24486236 -0.18890136 -0.101380944
0.03897291 0.030168781 0.019749839 0.07155614 -0.051324524 0.05740914 0.013980021 -0.0074023684
0.0073406473 0.15033011 -0.7818599 -0.013155897 0.010896449 0.01601756 0.015520945 -0.0013075868
-0.056453045 -0.192745 -0.13012917 -0.27022788 -0.11900464 -0.14235827 -0.28908426 -0.09482675
-0.14696644 0.101385064 -0.15258749 0.16677876 -0.2541154 -0.06684028 0.1325252 0.0028991245
0.01291958 -0.105749436 0.41538182 0.14075609 0.25866896 -0.0008651683 0.12766281 0.20640399
-0.02835134 -0.006370557 0.3502224 -0.4581252 -0.1627054 -0.09724227 0.026010036 0.0106724575
-0.03816252 0.0807852 -0.08623773 -0.10290804 0.111645475 -0.12408535 0.16261871 0.006299019
0.56570506 -0.032315962 -0.5779316 0.04454404 0.03729297 0.13106188 -0.1367893 -0.20939991
-0.2988154 0.12899531 -0.047195524 -0.08600333 0.35539162 0.027303778 0.035292797 -0.008981965
-0.020334773 -0.00074819603 0.12052024 -0.059824664 -0.054714676 0.30802774 -0.1649721 0.012093718
-0.11436291 0.13016216 0.07142087 -0.06949565 0.00084289326 0.19188876 0.22498071 0.20910376
0.43199834 -0.12957714 0.07010771 -0.2487591 -0.005599268 -0.48600206 -0.31749558 0.12640134
0.013291339 0.13496055 0.20764388 0.06314185 -0.0724724 -0.21141925 -0.021825973 -0.038605016
-0.025746576 0.052722342 0.0024851332 -0.30286267 -0.009688233 -0.0076966626 -0.23759592 0.16226344
-0.9237956 -0.10066663 -0.00816507 -0.0019834226 0.16821346 -0.090152346 0.03821493 -0.15878573
-0.12067736 0.033908248 -0.016954217 0.10854977 0.047076613 -0.12540323 -0.16595733 0.1388677
-0.07564925 -0.20442829 -0.09357649 -0.09353238 0.15677199 0.27433023 0.036498208 0.08019186

linear1.bias f4 [128]
00000000: 771c 843e 790b 27bf ea7d 5a3e 8d08 ee3e
00000010: f9ed b2be 4704 853e 4da5 953e a438 5abe
00000020: 0274 803d d389 df3e 0500 093f 5433 a93d
00000030: 4269 833e 6754 d1bd 64c3 f2bd 8c5e 933e
00000040: 531c 893e edc0 90be c527 af3e 7294 8fbe
00000050: 1b01 4cbe b307 a33e 1701 95bd 138f 8b3e
00000060: 7d46 533d 5c1b e2be 30a2 d83c a90f 94be
00000070: e0f5 de3e 384c 29be 55a0 adbe 5a9a 2bbf
00000080: e1a5 dd3e aade 863d 8b11 5bbd 8515 08bf
00000090: f15f a8bc 983b ecbc 27d1 8c3e 3978 e43c
000000a0: 6514 a0ba c239 dc3e 250a 9ebb 291a 013f
000000b0: e49e afbe 50b7 07bf e858 02be 9b88 2f3e
000000c0: f34c e13e b466 fb3e 381e bfbd c829 5dbe
000000d0: 7bc1 7a3e 7f06 a73e 0641 3a3e efbd 4fbe
000000e0: ee97 ddbe 9045 22be 9be8 223f 17a3 593d
000000f0: be60 9a3e 28b5 b23e 1400 f3bd eeff d9be
00000100: 967b 04be f18a f4be 7524 5dbe ff8d 48be
00000110: 8038 ab3e 4e0d 7c3e 8ac6 363e fe1a bf3d
00000120: 3c5d 853e 7e84 283e 207c f43d 61cf 6f3d
00000130: df71 0f3f cf1b bc3e 2f41 95be b3b8 11bf
00000140: 31a9 d4be b7df 7ebd 118c 523e 9d3e 9d3e
00000150: 674c f13d 400a fb3e de8e 323e 6b4e ee3e
00000160: 77ee 993e 2ee4 7c3e 9bcf 3abe bae7 52be
00000170: 3011 85be 4528 b13e f45a 19bf 65d5 c93d
00000180: f9d4 71bc 0c25 27bf 73e3 8a3c 3942 f8be
00000190: e71d 113f b9ad 8d3d 9912 283e e37b ee3e
000001a0: 7ec5 3d3e 6341 163e f558 2c3f 20d8 d73e
000001b0: 8516 dcbe 0623 013f 3f44 d53d 9fa9 f0be
000001c0: 652c 90be d4dd 75be dcd5 a5bd 0c03 8b3e
000001d0: 386e 053f f057 853e 37d2 193d 7283 5ebd
000001e0: 0b8e 72be 2978 26bf 7142 b3be eed7 203f
000001f0: 4376 c7be 8098 d63e 32d3 28bf 9e65 a6be
0.25802967 -0.6525188 0.21337095 0.464909 -0.34947184 0.25979826 0.29227677 -0.21310669
0.06272127 0.4365984 0.53515655 0.08261743 0.25666243 -0.102211766 -0.11853674 0.2878307
0.26779422 -0.2827219 0.3421003 -0.28042942 -0.19922297 0.31841812 -0.072755985 0.27257594
0.051580895 -0.441615 0.026444525 -0.28918198 0.43546963 -0.16532981 -0.33911386 -0.67032397
0.43290618 0.065854385 -0.053483527 -0.53157836 -0.02055356 -0.02883701 0.2750332 0.027889358
-0.0012213109 0.43012816 -0.0048229867 0.5043054 -0.3430091 -0.5301409 -0.12729228 0.17141955
0.4400402 0.49101794 -0.09331936 -0.2159797 0.2448787 0.32622144 0.18188867 -0.20287298
-0.43279976 -0.15846848 0.6363618 0.05313405 0.30151933 0.34903836 -0.11865249 -0.4257807
-0.1293777 -0.47762254 -0.21595939 -0.19585417 0.33441544 0.2461445 0.17849174 0.0933132
0.26047695 0.16456792 0.119377375 0.05854738 0.5603313 0.36739966 -0.29151294 -0.56922454
-0.41535333 -0.06222507 0.20561244 0.30711833 0.11782151 0.49031258 0.17437312 0.46544203
0.30064747 0.24696419 -0.18243258 -0.20596209 -0.25989676 0.34601036 -0.5990441 0.09855155
-0.014760249 -0.65290904 0.01695416 -0.48488024 0.5668625 0.069179006 0.16413344 0.46578893
0.18532369 0.1467338 0.6732324 0.42157078 -0.4298593 0.50444067 0.104134075 -0.4700441
-0.2815887 -0.24010402 -0.08097431 0.27150762 0.52121305 0.26043653 0.037553992 -0.054324575
-0.23686998 -0.650271 -0.35011628 0.6282948 -0.38957414 0.41913223 -0.6594726 -0.32499403

linear2.weight f4 [64, 128]
00000000: 33fe 2dbd 76a3 7a3d 5438 ffbd 4c8d 69bc
00000010: 735f 453e f34e 98bc 7f98 27bd 73f8 34bd
00000020: 88d5 273d bd11 a4bd 1512 a4bd f8f6 933e
00000030: 90ed e3bd 9d0c 183d 2c0f a23d 7af9 85bc
00000040: b212 5b3d 5098 013e d67c 1ebe e75e 22bd
00000050: 1c9b 393e aff5 27be a810 8a3d 666e 24be
00000060: 68ab 08bd 8333 8f3d a642 38bd 3819 993c
00000070: 0650 943d 2e08 963c 1f91 a73d 9557 3d3e
00000080: ea72 fabc 7bf7 153d ad51 273d 5c40 6e3e
00000090: 7cde 41be 8b12 113d 9ce0 bdbd b120 e0be
000000a0: 870e ff3d 82c7 593d 37af bd3d fb85 463d
000000b0: 82f6 813d 2fe5 0b3e d947 bf3d 3500 f13d
000000c0: 49a2 3abe 7696 623d adaf 2abd 0b71 6c3e
000000d0: 0055 13be caa2 70be e622 0fbe 9815 96bf
000000e0: 6cda 6e3e 5918 2b3e a95f 4cbd 1245 013e
000000f0: b0d1 dabd d84a 6bbe 907b c33d 033b 073e
00000100: b64f d33d f9b1 403d 6aa4 9d3e 70e8 a3be
00000110: a39f 9fbb e0ed eebc 6ea6 95bd bde9 c33d
00000120: 64f7 45bd 726f de3e 1eaa 22be 7ac1 9fbe
00000130: 0904 79bd e471 af3a 343e b33d 38ec 313e
00000140: 67ac 363e e699 703e 053c 49be ae4e 80bd
00000150: 6c1c a63d feb0 b3bd aafd 9bbe 05e4 88be
00000160: 18fa c2bb c6f0 5a3d 9b2c d5bb e42b d7bc
00000170: 5dda 0d3e 8cc2 c6bd 9b4d 9a3e a2ec a33e
00000180: 5d7d 163f bdc7 b73d 0a3f fd3d 41de 2f3e
00000190: 51e3 94b9 199f 88bc 104c 17bd 9206 27be
000001a0: a549 2cbe a68d 173e dbd4 823d 9db9 25be
000001b0: 41b8 1339 6da1 f63a a7ef 20be eecf 043e
000001c0: 95bc 5f3d 26c6 cf3d 26d7 143e 8881 38be
000001d0: 46b6 cbbd 93bb 7e3d 4953 453d 7ddc 3cbc
000001e0: 288b 033e 9fbd 013d 8e17 e63d 2820 3ebe
000001f0: 3bb0 e13d c21b d8bc c8c8 193e b161 b23d
00000200: 4d4a 363c d979 643d a432 5d3e 213b e43d
00000210: 4e52 963d 2db9 ef3d 20b3 033e 7647 753d
00000220: a32e a9be 7de1 6ebd f795 483e 8c48 8a3c
00000230: cc78 36be 1f03 593d 0c14 9cbe b73c ac3d
00000240: 2d6f 043e 5655 1abe 5644 52bd 5351 6cbe
00000250: 6f8c c7bd 0c56 d73d 8e50 033c 1ade f5bb
00000260: 8039 9fbc 09c8 f3bd d1bf a1b6 e6dd 893c
00000270: 785d 1e3e 533d 0cbd 449e 23be 7582 b8bd
00000280: 7d7a 9d3e d4a3 83bd ed8d 183e 5488 563d
00000290: c010 843e 8ff2 3c3d 3f64 cd3d 69ba 693d
000002a0: baa1 1fbd 0eb6 5fbd 0bc2 933d ce2e 2f3c
000002b0: 9574 31be b534 f43c ea30 df3d 7ba5 0ebe
000002c0: 0195 a3bc 8d5f a7bb 4cdf 163c 3811 a0bd
000002d0: 99ba a03c 296f b53d a77b 103e b808 883d
000002e0: 6c08 81bd 041a 793e 63b9 4d3d d5de a8bd
000002f0: 2988 fe3c 2ee2 8e3d df12 55be e13a 903d
00000300: 5b2a f43c 9a83 ca3c 63d1 56bb 3035 e4bd
00000310: 68fb 103e 9782 f43d 3878 293d 7025 36be
00000320: c205 bd3d bd74 98bd be8a 23bc 15fc d23d
00000330: d7cd c9bd e844 ca3d b865 4cbe ddcb 10bd
00000340: 7e9b 3bbc 374d ed3c 530e 563d 3c14 b1bd
00000350: d91b 673d 3df0 2abe bde6 653e bea2 0dbd
00000360: 7d2d e53d 65ef b0bd c090 20be 7a17 2cbd
00000370: 2f11 30be 04a5 3c3c 4282 f63c bf84 df3c
00000380: 4af6 533e de24 acbd 642f 593e c77a 27bd
00000390: b671 df3d 80be a1bd d2db 8cbd 0588 83bd
000003a0: 3432 0b3d 9dce 9d3d 94dc 18be 6890 2d3e
000003b0: 75c4 fc3c 2c9b f839 5239 133e 9394 22be
000003c0: 3068 e93d 0038 8fbd 2b8d a8be 3127 923c
000003d0: 5f68 4c3c 5e2a e3bc d61c ff3c cd3e aa3e
000003e0: 6fc9 d0bd 6838 fbbc 473d 103d 2a35 f8bd
000003f0: d1a2 06be 7b6f 4c3d 4b8d 2ebc 6a0c 673c
-0.04247875 0.061191045 -0.124619156 -0.014254879 0.19274692 -0.018592333 -0.040916916 -0.044182252
0.040975124 -0.08011196 -0.080112614 0.2889936 -0.11129296 0.037121404 0.0791305 -0.016354311
0.053484626 0.12655759 -0.15477309 -0.039641287 0.18125576 -0.16402315 0.06741458 -0.16057739
-0.03336659 0.06992247 -0.044985436 0.018688783 0.07241826 0.018314447 0.081819765 0.18490441
-0.030572373 0.03661297 0.040849376 0.23266739 -0.18932527 0.035418075 -0.092713565 -0.43774942
0.12453943 0.05316878 0.09261935 0.048467617 0.06345846 0.13661645 0.09339876 0.117676176
-0.1822597 0.055319272 -0.041671444 0.23089997 -0.14387894 -0.23499599 -0.13978156 -1.172534
0.23325509 0.16708507 -0.049895916 0.12624004 -0.10684526 -0.2297777 0.09545052 0.13206105
0.10317938 0.047044728 0.307895 -0.32013273 -0.004871325 -0.029166162 -0.073071346 0.095660664
-0.048331633 0.434444 -0.15885207 -0.31202298 -0.060794864 0.0013385382 0.08752099 0.17375267
0.17839204 0.23496208 -0.19651802 -0.06265007 0.0811089 -0.08773993 -0.30466968 -0.26736465
-0.0059502237 0.053452276 -0.0065055615 -0.026266046 0.1385283 -0.097050756 0.30137333 0.32016474
0.5878504 0.08973644 0.12365539 0.17174627 -0.00028398124 -0.016677426 -0.036937773 -0.163111
-0.16824968 0.14800128 0.06388255 -0.16184087 0.00014087652 0.0018816419 -0.1571642 0.12969944
0.054623205 0.10145216 0.14535198 -0.18018162 -0.09946875 0.062190603 0.04817513 -0.011527178
0.12846053 0.031674977 0.112349615 -0.18566954 0.110199414 -0.026380423 0.15017998 0.087100394
0.011126113 0.055780265 0.21601349 0.111440904 0.07339917 0.11705241 0.128613 0.059882604
-0.33043393 -0.05832051 0.19588457 0.016880296 -0.17819518 0.052981492 -0.30484045 0.08410018
0.12933035 -0.15071616 -0.0513347 -0.23077898 -0.097435825 0.10514459 0.008014811 -0.007503283
-0.019436598 -0.11903388 -4.8205043e-06 0.016829442 0.15465343 -0.03423817 -0.15978342 -0.09009258
0.30757514 -0.06427732 0.1489789 0.052376106 0.2579403 0.04612976 0.10028886 0.05706254
-0.038972594 -0.05461698 0.07214745 0.010692311 -0.17329629 0.029810289 0.108980015 -0.13930313
-0.019968512 -0.005107826 0.009208512 -0.07815784 0.019620227 0.08859093 0.1410967 0.06642288
-0.063004345 0.2432633 0.050225627 -0.08245627 0.031070786 0.06976734 -0.2080798 0.0704248
0.029805353 0.024720956 -0.0032778613 -0.11142957 0.14158404 0.119389705 0.041374415 -0.17787719
0.09229614 -0.07444141 -0.009981809 0.10301987 -0.09853714 0.09876424 -0.19960678 -0.03535067
-0.011450646 0.028967483 0.052259754 -0.086464375 0.056423042 -0.16693206 0.22451301 -0.03457903
0.11190317 -0.08639411 -0.15680218 -0.042014576 -0.17194055 0.011513952 0.030091409 0.027284978
0.2069942 -0.08405469 0.21209484 -0.040888574 0.109103605 -0.07897663 -0.06877865 -0.06422428
0.033983424 0.07705424 -0.14927894 0.16949618 0.030855397 0.00047417858 0.14377335 -0.15876989
0.11396825 -0.06993103 -0.32920203 0.017840954 0.012476056 -0.027730163 0.03114168 0.33251038
-0.101946704 -0.030666545 0.03521469 -0.12119515 -0.13148047 0.049911004 -0.010653804 0.014102081

linear2.bias f4 [64]
00000000: 4178 afbe 0809 763e 6858 2abf 1c75 a83e
00000010: 651f bc3e a8c6 82be 280f 8dbe eaed e43e
00000020: d736 aa3e a4df b13e f1d7 cc3e df5a bf3e
00000030: 99eb c63e 700f 723e 2d6d 0bbf 4752 85be
00000040: a891 9f3e d143 8abe d3a0 4d3e a01b 513e
00000050: 62f6 aabe 7415 a63e f92a 42be a2e3 07bf
00000060: c50a 9abe ad12 a4be 475e e3be f055 a23e
00000070: fda8 68bd f237 c5be 379f 39be 712f a23e
00000080: 6045 df3e cf56 30bc 8ca5 9cbe 7781 b73e
00000090: 2102 d2be 57f8 cabe f82b 82be f061 ebbe
000000a0: cc43 b63e 45bb 4ebe f4d8 533e f8a8 c0be
000000b0: 7170 42be 52b0 8ebe 6f3b 983e b1e3 aabd
000000c0: a5d9 983e 6ae8 dc3e 2fa6 c43e 97be 8fbe
000000d0: 95bb 6fbe 8fb2 a6be ea25 b1be d34d 8b3e
000000e0: 89fb 273e a93f d23e cc95 c13e 412a aebe
000000f0: c292 943e 6c12 0d3e c3c5 943e 8f32 943e
-0.34271434 0.24026883 -0.6654115 0.32901847 0.36742702 -0.25542188 -0.27550626 0.44712764
0.33244964 0.34740937 0.400085 0.37374017 0.38851622 0.23638701 -0.54463464 -0.26039335
0.31165814 -0.27004865 0.20080881 0.20420694 -0.333911 0.32438242 -0.18961705 -0.53081715
-0.30086342 -0.32045498 -0.44407865 0.3170619 -0.056801785 -0.38519245 -0.18127142 0.3167682
0.43607616 -0.010762884 -0.30595052 0.3584096 -0.4101725 -0.39642593 -0.2542417 -0.45973158
0.355986 -0.20188625 0.2068823 -0.37628913 -0.18988205 -0.27868897 0.29732844 -0.0834421
0.2985355 0.43146068 0.38408038 -0.28075096 -0.234114 -0.32558104 -0.3459924 0.27207813
0.16404547 0.41064194 0.37809598 -0.34016612 0.29018217 0.13776559 0.2905713 0.28944823

output.weight f4 [1, 64]
00000000: e31b bfbe cbdb 063f 9cd0 96bf e44a 243e
00000010: a756 313e 7b79 89bf 6b91 c9be df59 9f3e
00000020: 214f fe3e 416b a53e 50d6 4a3e 05e6 7b3e
00000030: 4691 063f bfef 943e f105 4abf 5e8a b7be
00000040: cc15 9a3d 7ba2 cdbe e794 083f 8e87 a83e
00000050: 23ad c2be e75e 0a3e 3cc7 21bf e016 4cbf
00000060: 36a7 acbe 9783 babe 0efa 87bf ef6d 8c3e
00000070: ed0b 2dbf 520e 4cbf b4a4 7cbf adac 2c3e
00000080: 4e19 8f3e bc1c 92bf 9074 79bf 39ca bc3e
00000090: 15f7 57bf 7373 15bf bc1a efbe dfee 1dbf
000000a0: f83f 203e 67bb 2abf af87 323f fd79 593f
000000b0: 4e62 34bf ab35 4bbf 723a 8f3e a978 13bf
000000c0: 06ba 4d3e 217a 0a3f dd08 643e fb79 d3be
000000d0: 46b4 24bf 49d6 85bf 910c 15bf 8933 1d3f
000000e0: 3668 1b3f 3910 b43d 8303 923e d734 09bf
000000f0: 93f9 893e cb2a 053f 2bf4 6a3e 79f6 b13d
-0.37325963 0.5267913 -1.1782413 0.16044194 0.17318211 -1.0740198 -0.39368758 0.31123254
0.49669746 0.3230839 0.19808316 0.24599464 0.5256542 0.29089162 -0.78915316 -0.35847753
0.07523689 -0.40163025 0.53352207 0.3291592 -0.38022718 0.13512765 -0.6319463 -0.79722404
-0.33721322 -0.3642852 -1.0623186 0.27427623 -0.6759632 -0.7970935 -0.9868882 0.16862746
0.27948993 -1.1415019 -0.97443485 0.36873034 -0.8436139 -0.58379287 -0.46700084 -0.61692613
0.15649402 -0.66692203 0.69738287 0.84951764 -0.704625 -0.79378766 0.27974278 -0.5760599
0.20090494 0.54092604 0.22269006 -0.41304 -0.64337575 -1.045602 -0.582223 0.6140676
0.6070589 0.08792157 0.28518304 -0.5359625 0.26948223 0.5201842 0.22944705 0.08689589

exp_avg f4 [128, 34]
00000000: 1614 1abe 749c ed3c dca3 993e eea9 a4be
00000010: ac78 9b3c e6ed 99be f00a 0bbe da64 30be
00000020: 01c4 a33c cdce 773c 16ef 07bd 2465 dbbc
00000030: 7ac9 58bb 0b0f 3d3c 5f4a 813d 579f 99bc
00000040: c5f2 a23b 5a07 e8bc 1661 fe3d 004c c13d
00000050: d462 1c3e 2415 e63d b3ec cd3e 94cf 523e
00000060: 5f00 843e 231e 003f 6006 00bd 38fe 8f3b
00000070: f446 86be 1e2e 863d 4856 0f3f 55b2 1dbf
00000080: 087a df3e 8d7c 633f b061 5ebc 60ab bfbd
00000090: f0db 32be c43d 8e3e de30 c7bc 43f0 85bf
000000a0: 5031 b2ba f5ec d9be 194a ea3c 9bea 863d
000000b0: 24b6 363d 6035 243b 0d06 efbd f8c6 c83c
000000c0: d059 6fbb 9bb1 673d e53c 72bd fa23 9cbc
000000d0: e4fe 7d3d f269 3a3c 50bc 683e e8e9 933e
000000e0: 5ba6 003f fcd6 923e af31 313e ad28 203f
000000f0: 9670 ee3c 5e9c 193e 6a76 883d 08aa 1cbe
00000100: bbc1 3240 3aae 6440 1b61 0040 6212 20bf
00000110: db39 3b3d 0bd1 963e de31 17bf aaee b93e
00000120: 35ef 3d3d fa05 be3f 4fdf 5c3e 382d f33d
00000130: 108c 18bd 972e b1bd 5150 19bd a1b6 5a3e
00000140: 56f3 0d3e 0356 34bd f610 9cbc e084 153b
00000150: 3f99 cb3d 0e69 8bbd c723 15bf 1f68 32bf
00000160: 66d3 efbe 2cdd 973e d448 48bf fd2b 63be
00000170: 97dd 8cbf b993 e8be 6ce8 e23d 125d 9abe
00000180: 111b 0cbe 8ef7 24bd 76e3 243e e506 153e
00000190: 67b3 113e ffc6 073e 0af5 8abc 460a 923d
000001a0: f0ca 9ebb 641c 54bc c822 f6bd 8115 d53f
000001b0: fb3f 0c3f 8a6f 2e3f 3070 7fbd c6a3 0ebd
000001c0: ecab a7bd 9e2c 7f3d cd25 8a3d 9e7f d2bc
000001d0: f81f f8bd 4e46 9cbc d0b9 0a3d d4ba 6a3c
000001e0: 9c48 54be bbcd d7bd 5456 08bf f6b3 56be
000001f0: 4993 39bf c244 1bbf ed45 95bf fb5b b2bf
00000200: c01c acbe 0b9b 2fbe 2e19 26be 8c31 8fbd
00000210: 70fc 33c0 d07a 17c0 da7e f8bf 30df 8bbf
00000220: 4b3f 613f 9488 3f3e aa90 893e 80d3 f8bb
00000230: 46c3 453e fece cdbf 98cf ecbe 0d4b 0abf
00000240: ed3b 073d 445c ef3c e6eb e83d f9c8 8abd
00000250: c883 5cbd 08af 133c 1c45 8b3d 48d7 5c3d
00000260: baad 54bd e050 9aba 7056 0c3e 263a 9c3d
00000270: b693 983e 0be3 353d 1c75 2c3d 224c 76be
00000280: 3e0c af3e c921 aa3e 518b 9b3e 5a59 d23d
00000290: dfe5 0e3e 53c6 84be 2c8d 883e dfc4 6f3f
000002a0: 1d06 103f 543f 2f3f 2f5f 643e a391 ab3e
000002b0: 5ccf fdbd a7e7 c2bd 8b36 04be 304b 4a3f
000002c0: f2fa b23d dc1b 073e 25bc b3bd c2d4 8bbd
000002d0: 38ce debb cd21 303e 38a4 123c ec94 07bc
000002e0: 7f4c 47bd 1c75 79bc ee0d fa3c 0645 3abd
000002f0: bd53 d0be fcbf c13d 9e64 67be 64a9 213d
00000300: 7162 b2be 89db 0bbf 8750 07bf a864 0bbf
00000310: edb9 5abd a6bc 15be efda 073d e8be efbd
00000320: 1eaa 2cc0 c4e1 1fc0 aa19 c0bf 8961 87bf
00000330: a194 2b3e 744c 0e3e 40ee a8be 8145 853e
00000340: 7eea 7cbe 76dc 923f cddd 19be 4d44 043f
00000350: f45b 8e3b 3de3 98bd 5a6b 0cbd 8b9a 60bd
00000360: 007b 273b 30d5 dd3a 0dba 46bd 8ef2 d7bc
00000370: 5e8d b23d ea40 99bd 0112 1d3d 89d4 cb3e
00000380: 82b1 1dbe e98d 3ebe 09a5 0dbf 431f 48bf
00000390: 9ec2 2dbf 2216 debe 0cdb 99bd 0ad8 14be
000003a0: b1ed 52bc 264f d63d c057 13c0 cfd2 d7bf
000003b0: ea56 03bf 70d3 1dbd b2ad 323e 5b19 ea3d
000003c0: d72c 263d d5a0 1f3d 3926 883c 506c 05bc
000003d0: 3e3d c7bd aabf 0f3c e472 3ebc f1bd ce3b
000003e0: 38ac 57ba 41d9 86bc f4aa 383c 6404 df3a
000003f0: d2a2 fd3c 33ad 563c e2bc 72bb 3048 bebb
-0.15046725 0.029005267 0.30007827 -0.32160896 0.01897844 -0.30064315 -0.13578391 -0.17225972
0.019990923 0.015124989 -0.033186994 -0.026781626 -0.0033079074 0.011539231 0.06313013 -0.018752737
0.004972788 -0.028323818 0.124208614 0.09438324 0.15272075 0.11234501 0.4021965 0.20586997
0.25781533 0.50045985 -0.03125608 0.004394319 -0.26226008 0.06551765 0.5599103 -0.6160024
0.4364779 0.88861924 -0.013573095 -0.09358859 -0.17466712 0.27781498 -0.024315294 -1.0463947
-0.0013595019 -0.42563596 0.028599786 0.06587716 0.044607297 0.0025056228 -0.11671076 0.024508938
-0.0036522038 0.056565862 -0.059140105 -0.019060124 0.06201066 0.011377798 0.22728086 0.28889394
0.5025384 0.28679645 0.17304109 0.62562066 0.02910642 0.15001056 0.06663211 -0.15299237
2.7930744 3.573134 2.0059268 -0.6252805 0.045709472 0.29456362 -0.59060466 0.363149
0.046370704 1.4845574 0.2156956 0.11873859 -0.03724295 -0.086514644 -0.03743011 0.2135873
0.13862357 -0.04402734 -0.019051056 0.0022814795 0.09941339 -0.06807147 -0.58257717 -0.69690126
-0.46840972 0.29660928 -0.78236127 -0.22184749 -1.1005124 -0.45425203 0.11079487 -0.30149132
-0.136822 -0.04027515 0.16102394 0.14553411 0.14228593 0.13259505 -0.016962547 0.07130866
-0.0048459694 -0.012946222 -0.12018353 1.6647187 0.54785126 0.68138945 -0.06236285 -0.034824155
-0.08187088 0.06229841 0.06745491 -0.025695618 -0.121154726 -0.019076493 0.03386861 0.01432677
-0.20730823 -0.10537287 -0.53256726 -0.20967087 -0.72490364 -0.6065179 -1.1661965 -1.393432
-0.33615685 -0.17148988 -0.16220543 -0.06991872 -2.8122826 -2.3668709 -1.9413712 -1.0927486
0.879872 0.18704444 0.26868182 -0.007593572 0.19312772 -1.6078794 -0.4625213 -0.5402077
0.033016134 0.0292188 0.11373119 -0.06776614 -0.053836614 0.009013899 0.06800291 0.053916246
-0.05192349 -0.001177337 0.13704848 0.076282784 0.29800195 0.04440598 0.04210387 -0.2405248
0.34189028 0.332289 0.30379727 0.10270949 0.13954876 -0.2593256 0.26670206 0.93659776
0.5625933 0.68456006 0.22301935 0.3350955 -0.12393066 -0.095168404 -0.12911431 0.7902098
0.0873927 0.13194221 -0.0877612 -0.0682769 -0.0067994855 0.17200394 0.008950286 -0.008275252
-0.048656937 -0.015225675 0.03052422 -0.045475982 -0.40688887 0.09460446 -0.22596976 0.039468184
-0.3484073 -0.5463186 -0.5285725 -0.54450464 -0.05339997 -0.14622745 0.033167776 -0.11706334
-2.6978831 -2.4981546 -1.5007832 -1.057664 0.16755916 0.13896352 -0.3299427 0.2602959
-0.24698827 1.1473529 -0.15026017 0.5166672 0.0043444578 -0.07465217 -0.034282066 -0.054834884
0.0025555491 0.0016924497 -0.048517276 -0.026360776 0.0871837 -0.074830845 0.038347248 0.3981059
-0.15399745 -0.18608822 -0.5532995 -0.781727 -0.6787509 -0.4337626 -0.07512483 -0.14535537
-0.012874053 0.10464315 -2.3022308 -1.6861209 -0.51304495 -0.03853172 0.17449072 0.114306174
0.040570106 0.03897174 0.016619788 -0.0081434995 -0.09728478 0.008773724 -0.011624072 0.006309264
-0.0008227262 -0.016461017 0.011271227 0.0017014858 0.030961428 0.013102817 -0.0037038852 -0.0058069453

exp_avg_sq f4 [128, 34]
00000000: 0592 9540 f736 9a3f ecb3 883f 751a 563f
00000010: 2065 963f 7d0b 1741 7fc1 b53e f8e9 1e3f
00000020: 3c5c b83c 73fd eb3c 24bd 9f3c b2af 373d
00000030: 4f51 223d 84c7 473d fb6b 1b3d 3587 a53c
00000040: ad17 823d cce9 6b3d b2c2 993f d44e 933f
00000050: af1d 6e3f cedb 963f eb43 6f40 51fd 1341
00000060: 22d1 b040 f2eb 8c40 9e2d 8a3f abbb b73d
00000070: d352 0f40 c724 0041 22f3 1c42 1a79 7842
00000080: f024 3742 9b26 ed42 29c7 8940 ffec c63f
00000090: 9692 ef3f cf27 1340 0b8f 3c40 1c5c 5042
000000a0: 943d 8540 3055 4840 f617 c43d 2c08 0c3e
000000b0: 8369 5e3d aa0f 173e 7b43 963e c644 0a3e
000000c0: 81a1 5f3e 1084 2d3e 0796 423e cadb 6b3e
000000d0: 2571 7d40 697b ab3f 1821 2c40 8dd2 f340
000000e0: 12a7 7441 e6ec 1042 6174 8d41 a110 8841
000000f0: acd1 283c 1ea1 d83e e1c6 fb3e 2b19 f040
00000100: 0bbe 3f43 b562 2f43 6def a442 410c 0b43
00000110: 09ed bf40 bccb 2e40 128a 4940 c787 2e40
00000120: 4a8c 8840 7756 9c42 2a0c 8c40 497a 1540
00000130: 5802 a93d e57c 633e 4366 443d 87e2 293e
00000140: bee1 b03e 9385 b63d 4dc5 b43e 8b7a d03e
00000150: 571b 7c3e 4276 ae3e 554a c740 1bba 5640
00000160: c4d9 b640 d5ad 2241 c57d 7c41 e183 2f42
00000170: 12b3 9d41 f225 b141 30f1 643e f937 843f
00000180: 04ef a040 2ac6 3341 0b10 bf3f ff22 d23f
00000190: baf6 b53f 8574 c03f 47ab 1840 5ddc 0c40
000001a0: 6b56 bb40 b0b3 8040 c763 a040 4f3f 8c42
000001b0: 8782 9a40 75b0 6b40 3b0e dd3d 2126 343e
000001c0: f261 953d adfe 433e ed62 633e 45fa 1f3e
000001d0: 00b7 5d3e f61c 583e d976 5f3e eba7 793e
000001e0: fb91 0441 451b 5c40 3cdf 4e40 6e3c 0541
000001f0: d784 4f41 657e 2542 8ce6 ac41 1a61 a341
00000200: 62b1 f33f 3b41 e33e 9368 983e 11fa c840
00000210: edb2 8d43 e065 6643 88c3 0543 e58a 1043
00000220: 211f 0c41 2400 7540 32f2 d540 9e82 9f40
00000230: 864c ad40 7dc7 9042 a73d a240 65da 2640
00000240: 504b e33d cd11 6a3e ca7b d73d a90c 1a3e
00000250: 309c 4f3e 34f0 323e 4c49 863e e534 643e
00000260: e914 6a3e ec35 8a3e 84e5 0841 929b 8840
00000270: 4d4b 6f40 1076 0441 88b0 8141 0976 4142
00000280: 958a c841 6aa5 c341 5009 3f40 b4c3 c23e
00000290: d0b5 3141 6ae2 5041 361e 7943 6777 6243
000002a0: 27fd 0143 c07e 4943 05ec 9d40 9e38 1440
000002b0: 681c 9a40 bee1 0f40 68b4 5f40 3963 1642
000002c0: ac7a b53f 51cc 2040 4688 b23d 4672 643e
000002d0: 101e 9b3d ad7a bb3e 9185 9f3e 8603 c63d
000002e0: d934 e73d 7617 983d c85e d43d 8a76 cc3d
000002f0: 8ca6 0641 00fc 5e40 35ff 923f 5116 2d40
00000300: 698c 7c40 671a 5041 01e9 5541 4d3b 4941
00000310: ec93 4a40 cb71 773e 7210 953e 72a1 8a40
00000320: aa07 4743 27c2 1943 90fa c542 c0fb 8642
00000330: 7183 4d41 2023 c140 ed95 4e41 b9f4 8a40
00000340: e3d3 0041 bf36 0743 65eb 1541 53db df40
00000350: 6ce4 0b3e b02f 2f3f e1bc 093e 942a 973e
00000360: f06b 8b3e 6785 e93d 1539 033e b323 0c3e
00000370: 5a43 023e 9263 113e ba04 be41 ad38 8241
00000380: 739f 4240 61f5 da40 3a79 2441 773f 9141
00000390: e235 1a42 3006 1b42 ab68 7841 0edd fe3e
000003a0: 3b86 853e 9bf5 dc3f 5f41 f943 6f20 aa43
000003b0: e158 8e43 88cf 0743 e25b 8b3e c1be 423e
000003c0: b2cf 543e aad7 763e 1573 af3e d8ff 2b40
000003d0: e988 2c3e 4c0c 153e 8bca 003c 8f2e b43b
000003e0: 72ef af3b b623 443c 6d5c 7d3c c849 e43b
000003f0: c858 193c ec57 0c3c 8d93 493c 8671 563c
4.6740746 1.2048024 1.0679908 0.8363412 1.1749611 9.440305 0.35499188 0.6207576
0.022504918 0.028807377 0.019499369 0.04484529 0.039628323 0.048774257 0.037944775 0.020206073
0.06352172 0.057596013 1.2012541 1.1508431 0.93014044 1.1785829 3.7385204 9.249345
5.525529 4.403802 1.0795171 0.08971342 2.2394302 8.008979 39.237434 62.118263
45.78607 118.5754 4.3055615 1.5541075 1.871661 2.2993047 2.9462306 52.08995
4.163767 3.1301994 0.09574883 0.13674992 0.054299843 0.14752069 0.2934836 0.13502797
0.21838953 0.16944909 0.19002543 0.23033062 3.9600308 1.3397037 2.68952 7.619452
15.290789 36.231346 17.681826 17.00812 0.010303896 0.42310423 0.4917517 7.5030723
191.74236 175.38557 82.46763 139.04787 5.997685 2.731185 3.1490521 2.7270372
4.267125 78.16888 4.376485 2.3355887 0.082524 0.22215612 0.047949087 0.1659032
0.34547228 0.08912196 0.3530678 0.40718493 0.24619804 0.340746 6.2278237 3.355109
5.7140827 10.167439 15.780705 43.878788 19.712437 22.143528 0.2235763 1.0329581
5.0291767 11.23588 1.4926771 1.641693 1.421592 1.5035559 2.385454 2.20095
5.854299 4.0219345 5.01218 70.12365 4.8284335 3.682645 0.1079373 0.1759267
0.07294072 0.1914012 0.22205706 0.15622814 0.2165184 0.21104798 0.2182268 0.24380462
8.28564 3.4391644 3.2323751 8.327253 12.969932 41.373432 21.612572 20.422413
1.9038508 0.44385704 0.29767284 6.2805257 283.39786 230.39795 133.7638 144.54256
8.7576 3.8281336 6.685815 4.9846945 5.4155912 72.389626 5.070026 2.6070797
0.11098349 0.22858353 0.10521658 0.15043892 0.20274425 0.17474443 0.26227796 0.22285803
0.22859539 0.26994264 8.556034 4.2689905 3.738971 8.278824 16.211197 48.36527
25.067667 24.455769 2.9849434 0.38039935 11.106888 13.055277 249.11801 226.46642
129.98888 201.49512 4.935061 2.3159556 4.8159676 2.2481532 3.4953861 37.596897
1.4178061 2.5124705 0.08717398 0.22309217 0.07574093 0.36617032 0.3115659 0.09668641
0.11289377 0.0742635 0.103696406 0.09983547 8.415661 3.4841309 1.1484133 2.704487
3.94607 13.006446 13.369386 12.576978 3.1652784 0.24164502 0.2911411 4.3322077
199.02994 153.7584 98.98938 67.4917 12.84459 6.0355377 12.911603 4.3423734
8.05173 135.21385 9.369969 6.995523 0.13661355 0.6843214 0.13450958 0.29524672
0.27230787 0.114023976 0.12814744 0.13685493 0.12721005 0.1419814 23.752308 16.277674
3.040982 6.8424535 10.279596 18.155989 38.55262 38.756042 15.525554 0.49778026
0.26078972 1.7262453 498.5107 340.2534 284.69437 135.81067 0.2721854 0.1901808
0.20782354 0.24105707 0.34267488 2.6874905 0.16849102 0.14555472 0.00786079 0.0054987143
0.0053691203 0.011971405 0.015463931 0.006966803 0.009359546 0.008565884 0.012303245 0.0130885895
