Data/Player1/checkpoint-rndTest8.pth (torch, 384469 bytes, 28 tensors)

linear1.weight f4 [128, 34]
00000000: 5766 2ebe f19b 0ebe 7150 cfbd 1dfc b23d
00000010: 2dcf ce3e 80df 733e 1101 983e d876 ce3d
00000020: a103 8d3e 5557 173e dd57 aebd 3182 133e
00000030: d7ee 8d3d a9c4 3d3e f58f c8bd 19bd 42be
00000040: c8f5 d0bc e640 ed3d 644c a83b 044b 22be
00000050: d2a5 b8bd 7cef 23bd 186d acbd faea b5bd
00000060: 85c5 ddbc 3c2e 4b3c b442 863d 2dd5 c43d
00000070: 0f40 f4be b716 87bb 9710 583b 0d02 253c
00000080: 4ddf 32bb 71ae 543c 2e15 3e3d 5fca 973d
00000090: bc27 7fbe 5118 0abd 5f8d 1fbe bb4f 0abe
000000a0: 540f 923e 67b1 f53c c9f7 223e 9960 4d3e
000000b0: 1d83 d8bc 0c1a 53be de97 8a3e b4dd 233b
000000c0: a98d c93d ddb4 42be 112e f93d d793 fe3d
000000d0: 9c1f d9bd a569 8ebb ecb0 f83d f3a4 11be
000000e0: 48ae 593d 860b a4bd a3f3 643d 4d79 85bc
000000f0: 7096 d53d f849 06be e680 98bd 8575 0dbe
00000100: 3037 c03d 64fa 59bd dff1 8f3d 3401 253e
00000110: 454a 803b f97b 673d 8481 793c f415 c5bd
00000120: f801 9e3d e28e 7b3e a2fa 6b3d dc42 793e
00000130: 6b69 55bd f590 8c3e 6afb f33d 5c2d eabd
00000140: 5a3e 633e 87e4 b23d 60a8 9f3d 9ac7 45be
00000150: c15f 6fbe 1159 433d f6c2 cdbc d96d 2f3d
00000160: b5dd 633d 3d87 153d 389a 8c3d 0476 523d
00000170: 1887 9ebd 9897 95bc 69ea a2be ba23 393e
00000180: cdc3 44bd 96e5 243e fc6e 793d 3712 b5bd
00000190: 6c6e d13c b238 cabd 75cb e4bd 98d0 2c3e
000001a0: 9a62 6dbc 6dd4 b03d 18aa 9c3d 0af0 8fbd
000001b0: 5979 f93d 955e bbbd b3a8 40bc 7dfc 96bd
000001c0: 4535 d13c 8bc9 bf3d 02d7 ebbc 09ea 6f3d
000001d0: a60f 243d 7187 953d cd9f c53d c3cb 30bd
000001e0: cf41 77bd a54d 513d 7c95 f13d 145d 8ebc
000001f0: 4639 a5bc d36d 823d 6544 c1bd 647d 31be
00000200: bcec b7be 3250 9ebd ec22 fd3d 1f82 d0bd
00000210: 5208 d83d 2ceb 023e 1a8e 713e d1a9 fc3d
00000220: 92f4 5bbd e59b 413e c0f1 09be 0d05 fbbd
00000230: 2091 3cbb 4dcc d8bc d458 043d e689 683d
00000240: c9cd 25bd 4f16 6b3e 7d1a 323e cad7 b1bd
00000250: 818c 0b3e 527b debd ce00 e7bd 813a 843e
00000260: 3695 5b3d f439 7a3e 99a0 a73d 3f97 153d
00000270: d8ce d1bd 9422 043e 75bb 14bd 2eb1 58bc
00000280: 6c3e 283a 42f4 d7bd f81c ad3c f746 15be
00000290: e00d 11be 8955 123e 7014 223e 15dd 323e
000002a0: 7726 3e3d 69cf e2bd 19c9 73be 2e1e 25be
000002b0: 2523 3e3c 36a2 a73d 0a29 80bc a4a6 c1bc
000002c0: 9bee f2bc 70d8 0d3a ecce e9bd 00cf b23d
000002d0: 4c10 e03d 67e0 323e b142 813d 841a 323e
000002e0: 8db9 153e f823 88bd e00d 593e 0072 01bc
000002f0: 63c7 dc3c 4e1b 193e 91d7 e23d 4bf5 4b3d
00000300: 303e a33c e75d 203d 3065 89bd f086 d0bd
00000310: 29ad 623e 09e8 3c3d 3e5f 96be 7a00 b2bd
00000320: ad7b f23d 8e29 c3bd 8472 6abd eaef fa3d
00000330: fae2 eebb e66a 21be 6367 f63b 35a7 cf3d
00000340: f9ad 42be a2ea 0fbe d2da d03c 5b7d 5c3e
00000350: a421 f3bd 5345 423e 14b7 c13d fde2 3e3e
00000360: 6e24 273d 1419 b83e f91b 4abe 0b17 dfbd
00000370: 4b28 0bbe f511 31be 2a82 72bd 4d2d 673d
00000380: 8d45 86bd d7da eabd 4fb9 febd 1e39 87bd
00000390: 3a57 1e3e 5298 583e cad3 4f3e 4949 4c3e
000003a0: a8db 3abd 1f26 e8bd caf4 9f3d b58a debd
000003b0: 7a8f 8bbd 6c58 063e 9844 48be 6ceb 2e3a
000003c0: 26c4 64bd e2eb e0bd 0245 b4bd f3b3 73bd
000003d0: e182 fdbd 71d7 69be 7068 56bd 3880 fabd
000003e0: 6d48 2dbe 7639 45bc cf72 b8bc d41f c1bd
000003f0: a346 ccbd ff89 fabc b0cc 413d 26e0 72bd
-0.17031227 -0.13926674 -0.10122765 0.08739493 0.40392438 0.23815727 0.29688314 0.100812614
0.2754183 0.14779408 -0.08512852 0.14405133 0.06930321 0.18532051 -0.097930826 -0.19017448
-0.025507823 0.11584644 0.0051360596 -0.15848929 -0.09016003 -0.040023312 -0.084192455 -0.08882709
-0.027071724 0.01240116 0.06555691 0.096109726 -0.47705123 -0.004122581 0.0032968873 0.01007129
-0.0027293742 0.012981043 0.046406917 0.07411646 -0.24917501 -0.033714596 -0.15581273 -0.13506977
0.2852732 0.029991819 0.15914835 0.2005638 -0.026429707 -0.20615405 0.2706899 0.0025003972
0.09841473 -0.19014306 0.121669896 0.12430542 -0.10601732 -0.00434609 0.1214312 -0.1422308
0.053144723 -0.080100104 0.055896413 -0.016293192 0.10429084 -0.13114154 -0.074464604 -0.13814361
0.09385526 -0.053217307 0.07028555 0.1611374 0.0039151036 0.056514714 0.015228633 -0.09623328
0.07715219 0.24566224 0.05761207 0.24341911 -0.052102488 0.27454343 0.11913188 -0.11434433
0.22191754 0.087349944 0.07795787 -0.19314423 -0.23376371 0.047692362 -0.025117379 0.04282937
0.05563136 0.036505926 0.068653524 0.05138208 -0.07740611 -0.018260762 -0.31819466 0.18080035
-0.048038293 0.16103205 0.06089686 -0.08841365 0.025565349 -0.09874095 -0.11171619 0.16876447
-0.0144888405 0.08634267 0.0764963 -0.07028206 0.12181348 -0.091488995 -0.011758971 -0.07372377
0.025538096 0.09364613 -0.028789047 0.058572803 0.040053986 0.07301224 0.0964962 -0.043163072
-0.060365494 0.05109944 0.1179609 -0.017378367 -0.020168912 0.063686036 -0.09436873 -0.17332989
-0.35922801 -0.0773014 0.123601764 -0.10181069 0.10548462 0.12785023 0.23589364 0.123370774
-0.053700037 0.18907125 -0.13471127 -0.12256823 -0.0028773025 -0.026464606 0.032311276 0.056772135
-0.040479455 0.22957729 0.17392917 -0.086837366 0.13627817 -0.10863365 -0.1127945 0.25825885
0.053609096 0.2443617 0.081849284 0.036521193 -0.102445304 0.12903816 -0.036311585 -0.013225837
0.0006417993 -0.10544635 0.021131977 -0.14577852 -0.14165449 0.14290442 0.15828109 0.17467149
0.0464234 -0.110747166 -0.23807181 -0.16124794 0.011605059 0.08185236 -0.015644569 -0.02363903
-0.029654792 0.0005410975 -0.1141642 0.08730888 0.109406084 0.17468415 0.063115485 0.17392927
0.14621563 -0.066474855 0.21196699 -0.007900715 0.026950544 0.14951822 0.11076272 0.049794476
0.019927114 0.039152052 -0.06708753 -0.10181987 0.22136368 0.046119723 -0.2936954 -0.08691497
0.118399955 -0.0952941 -0.057238117 0.12252791 -0.0072902413 -0.15763435 0.007519649 0.10139314
-0.19011678 -0.14054349 0.025494967 0.21532194 -0.11871651 0.18971758 0.094587475 0.18641277
0.040806226 0.35956633 -0.19737233 -0.10893067 -0.1358959 -0.17292006 -0.059206165 0.056439687
-0.065562345 -0.11467522 -0.124376886 -0.06602691 0.15462962 0.21151856 0.20295635 0.19949831
-0.045619637 -0.11335396 0.07810362 -0.108663 -0.06814475 0.13119668 -0.19557416 0.0006672654
-0.055851124 -0.10982491 -0.08802225 -0.059497785 -0.12378479 -0.2283609 -0.052345693 -0.12231487
-0.1692216 -0.012037626 -0.022515683 -0.09429899 -0.099744104 -0.03058338 0.047314346 -0.059295796

linear1.bias f4 [128]
00000000: e5f2 b73e 59e4 603e cca6 ea3e 3751 663e
00000010: d9b4 8a3e 5d8d db3e 9110 de3e 3228 93be
00000020: 01e4 bb3e 2f20 2c3f 51eb 2dbe e2d4 7d3e
00000030: cc72 17be 9ba4 2a3e 4a3f babe f801 e03d
00000040: 74d4 93be 5c4a f93e fa7b a03e 7a67 d43e
00000050: e955 923e 409a bfbe d185 093f a812 a83e
00000060: cb65 503e 15a8 683e 2475 45be 6474 ad3e
00000070: 4a91 193f 0df6 863e b0fe 12be 447e df3e
00000080: 725d 873e cc78 d7be 6b7d 183e df92 7cbe
00000090: d709 8a3e e73b 183f 2a74 53be 4ad4 0cbe
000000a0: 877c 1f3f 1505 fd3e 88e2 91be 5132 f23e
000000b0: 4542 f43e 4fca 88be ecc8 723e 513a ab3d
000000c0: 5b0e 5bbd e6ee 143f 46b4 8b3e ceae b5be
000000d0: c85a f4be 7086 133f 6fd7 b23e ad50 f73e
000000e0: e888 5cbe eb85 1ebe 0075 5f3e 0564 9c3e
000000f0: 9407 ecbd 8ecd 0a3f b63c a4be a6e5 cd3e
00000100: fb47 8c3e ac9f a93c 0dcc 603e 1325 8d3e
00000110: 0582 143e 7426 8e3e 780b 0fbe c61d d33e
00000120: b0e5 6bbe 06f2 01be 31a4 cd3e 0d58 013f
00000130: e770 a03e f4d1 093f ca09 7bbe ca40 d23e
00000140: 2e69 003f 8b32 c93e 2ffb debe e4a1 c53e
00000150: a2b2 d23e 2ce1 44be 8c75 773e 9f64 91be
00000160: 2379 a4bd 9cb3 a33e 49b1 d23e bf20 453e
00000170: 0015 44be f677 63be 27bb a3be 899c 373d
00000180: 3999 a73e 3ca8 cc3e 5c97 bbbe e80d 643e
00000190: 4886 51be acb7 8e3e 5fe5 923e fae5 963e
000001a0: e790 0bbe 20a3 30bd dddf 1a3f c087 58bd
000001b0: bd37 e63e cc24 80be a57e 05be 9ccc bf3e
000001c0: 14d4 903e 7539 a7bc c38f 1abe 880c 033f
000001d0: 2219 d4bd f917 853e 3970 64be af67 033f
000001e0: d52c 2cbd 1b15 bcbe 71b4 d1be a264 3e3f
000001f0: 86e6 273e 2828 3f3e 3781 bb3d d230 b93e
0.359275 0.21962108 0.4583038 0.22491919 0.270911 0.4288129 0.43372014 -0.28741604
0.3669739 0.6723661 -0.16984297 0.2478824 -0.14789885 0.16664355 -0.3637641 0.109378755
-0.28873026 0.48689544 0.31344587 0.41485196 0.2858117 -0.3742237 0.5371981 0.32826734
0.20351331 0.22720368 -0.19282967 0.33877861 0.5998732 0.26359597 -0.14354968 0.4365102
0.2643848 -0.42084348 0.14891593 -0.24665402 0.26960632 0.59466404 -0.20649782 -0.13752857
0.6229939 0.4941794 -0.28493142 0.47304013 0.4770681 -0.2671685 0.23709458 0.08360732
-0.053480487 0.5817703 0.27285975 -0.35484928 -0.4772551 0.5762701 0.34929988 0.48303738
-0.215366 -0.15480773 0.21821976 0.3054506 -0.11524883 0.542199 -0.3207757 0.4021427
0.27398667 0.02070602 0.21952839 0.27567348 0.14502724 0.27763712 -0.13969219 0.41233653
-0.23036838 -0.12689981 0.4016433 0.5052498 0.31336138 0.5383599 -0.24515453 0.41065055
0.5016049 0.39296374 -0.43551013 0.38600075 0.4115191 -0.19226521 0.24165934 -0.2839708
-0.080309175 0.3197297 0.41150883 0.19250773 -0.19148636 -0.2221373 -0.31978723 0.044827018
0.32734087 0.39972103 -0.36638916 0.2227093 -0.2046138 0.27874506 0.2869062 0.29472333
-0.13629495 -0.043124318 0.6049784 -0.052863836 0.449644 -0.25028074 -0.13036592 0.37460792
0.28286803 -0.02041314 -0.15093903 0.51190996 -0.10356356 0.25994852 -0.22308435 0.51330084
-0.042034943 -0.36734852 -0.40957978 0.74372303 0.16396531 0.18667662 0.09155505 0.3617006

linear2.weight f4 [128, 128]
00000000: ea84 93be 6efa 3d3d ace5 93bd 997d 283d
00000010: e767 06bc 985d 28bd 1c68 8dbe 3afc 8d3d
00000020: 1923 12be 9674 acbe 1b57 713d 5b82 1e3d
00000030: 2112 b13d c2c1 8fbc bc54 ce3d 1b19 713d
00000040: 5593 7c3d e72c bc3d aeb6 37bd 22ba 24bc
00000050: 1725 9abe 6613 1e3e 97ae 913d 0f27 99be
00000060: 3371 15bd 3c29 4ebd b6f2 60bd 17bb 64bc
00000070: a58c 78bd 60a5 f4bd 2b86 893d 2ba0 b43d
00000080: bb7a 2d3d db00 fdba d4c0 34be 6238 85bc
00000090: bced 6bbd a2fc a7bd 3d23 d93d 1f4d 4a3e
000000a0: 2908 b8bd fed6 c2bc 0394 d63c c3a7 89be
000000b0: defd 07bd d85f 2a3e 2c8a ce3d 964e ef3c
000000c0: be1a 73bb 3a5c 77bd 35a8 27be 00de 973d
000000d0: 3619 14bc 89cd 46be f0e5 c53d bc79 213d
000000e0: 4aea 9e3d 6352 563d 3276 e83c 8e32 8ebd
000000f0: 9166 6c3d 10e7 a6ba 3767 acbc 438d d5bc
00000100: 41a6 b4bd ed99 dcbc 05c5 fbbc 1432 11bd
00000110: e556 85bd 224a 97bd 0dcd be3d 7d9e 50bb
00000120: 0ff6 fe3d 9b88 6abd fb51 0fbd ce00 babd
00000130: 4d8b 80be 556f 07be 9656 fe3d 792c b2bd
00000140: 112b 0a3d cb16 5ebd a555 c8bd dd4e 723d
00000150: 65de 8d3d 8a3f 2d3d 7cdd a3bd ffdf c6bb
00000160: b456 3f3d 6293 9c3c b49e 15be a8e4 97bd
00000170: 60fb c23d 36eb 5d3d 7ab5 bf3c 2363 63bb
00000180: 1c15 18be 9925 91be 938a 313e 455d bcbd
00000190: 7368 c33c fc82 bbbd 5ca1 e53c 55ce 61bd
000001a0: fc90 9b3c f06c dd3d 6c56 4dbd 6ea4 d43d
000001b0: a1ba 94bd 3f8b 9c3b f915 d9bd 1087 80be
000001c0: 455a ad3d 9f97 2cbd 9b29 0f3d 600c f9bd
000001d0: 2710 cf3d 65c6 87bd ed4b 533d dca3 21bc
000001e0: 6971 cabd ee62 1a3e 99fd 8c3d 9ad9 01bd
000001f0: 16f6 723d 2e68 523d a987 2fbe f54e 003d
00000200: a80f 80bd 4983 5fbb 46bb ebbd 1b51 99bd
00000210: d14c 023d b929 31be ff27 91bd c32d bfbd
00000220: 1462 6dbd 0cc5 46be d43d c43d 3026 9ebd
00000230: 51fa c4bd 84a1 6fbd c6f3 e4bd a12d a8bd
00000240: 293c 45bd 33c2 71bd 9010 2cbd d609 bdbd
00000250: c43a cbba 7bb5 0abd 9352 223d 39a4 08be
00000260: ff17 00bb a073 45bd e465 0ebd dd37 cabd
00000270: e17f f1bd 827c 3fbe 6031 88bc b5a1 aebd
00000280: 3272 23be 0135 36ba 9ee2 c7bc b031 a63c
00000290: 3a19 9ebd 0fe3 b0bd 69f3 5d3d 4e18 0c3c
000002a0: e20f f9bd 8b4d 2cbe 9aa7 8c3d 8d09 3ebe
000002b0: eae1 d4bd 71a7 ba3d 9191 1e3d 0ccc 903d
000002c0: 5faf 9cbd 051d 83bd b4de e6bd 372d 9dbc
000002d0: f61c 9ebc 0df9 aebd 2745 d0bd 5b2d 45bc
000002e0: cd94 29bd b1e2 413c 7b32 41bd 532c 72be
000002f0: be84 dbbc d39d cbbd 67b0 37bd d056 99bd
00000300: 245f 93bb 83ea a73c 1f58 02bd cb69 373c
00000310: 4b19 89bd 6dc9 42bd 6bc1 94bc 4620 e7bb
00000320: 15d5 cfbd c89d 8b3b 7d15 9fbd e304 383d
00000330: d5e0 4abc 0e6c 24bd a419 8cbd 20e2 0abd
00000340: a718 8d3b e7e9 e5bb 7873 b6bc 889a 313c
00000350: eca2 a8bd 61a7 7ebd ce16 a73c 6a41 a1bd
00000360: 00b2 663e 4d43 5fbd 3c01 0cbe e733 19be
00000370: 44d0 c43c c83b fcbc 459f b03d bf03 6cbd
00000380: 788c e6bd 2079 72bd 5a24 0c3e e7a5 a3bc
00000390: f659 4d3b 463a e3bd 2249 a93c 241b 5dbd
000003a0: 157a c5bd d4e5 1bbd 7dc6 e8bd 2df2 fbb9
000003b0: 6e96 8dbd fbe0 4abd 8ca6 b63d fd1c 2cbe
000003c0: 59df 1dbd f0de ed3c 2d49 84bd 33d2 b4bd
000003d0: 476c 65bd 98ec b9be 3302 533d 9b03 5e3d
000003e0: f2e5 a43e 78b5 b03d 027f 6e3b 0671 30be
000003f0: 3073 3fbd 2251 bfbd 897f 943c ce9a 273c
-0.28812343 0.046381406 -0.07221541 0.041135404 -0.008203483 -0.041104883 -0.27618492 0.06932874
-0.14271201 -0.33682698 0.05892096 0.038698535 0.08646036 -0.017548446 0.100747555 0.058861833
0.061663944 0.09188252 -0.04485195 -0.010054143 -0.30106422 0.15437087 0.071133785 -0.29912612
-0.03648491 -0.050332293 -0.054918967 -0.013960621 -0.060681004 -0.11945605 0.06715044 0.08819612
0.042353373 -0.0019302623 -0.17651683 -0.016262237 -0.057599768 -0.08202483 0.10602424 0.19755982
-0.089859314 -0.023784157 0.026193624 -0.26885805 -0.03320109 0.16638124 0.10084948 0.029212277
-0.0037094797 -0.06039069 -0.1637276 0.0741539 -0.009039214 -0.19414343 0.09662998 0.039422736
0.07759531 0.052324664 0.028376672 -0.06943236 0.057715002 -0.0012733657 -0.02104531 -0.026068335
-0.08820773 -0.026928866 -0.030733595 -0.03544815 -0.065107144 -0.073871866 0.09316454 -0.0031832748
0.12449276 -0.057259183 -0.034990292 -0.09082185 -0.25106278 -0.13226064 0.12418859 -0.08699889
0.033732478 -0.054220956 -0.097819604 0.05915724 0.06927184 0.042296924 -0.08001229 -0.006069183
0.046713546 0.019113246 -0.14611322 -0.074166596 0.09520602 0.054179393 0.023401964 -0.0034696541
-0.14851803 -0.28348997 0.17338018 -0.09197477 0.023853516 -0.09155843 0.028031044 -0.055128414
0.018990032 0.10811794 -0.050131246 0.10382925 -0.07262159 0.0047773416 -0.10599894 -0.25103045
0.08464483 -0.042136785 0.034951787 -0.121605635 0.10110503 -0.06629638 0.05158608 -0.009865727
-0.098849125 0.15076801 0.068843074 -0.03170166 0.059316717 0.051368885 -0.17141594 0.0313253
-0.06252986 -0.0034105352 -0.11510329 -0.07486173 0.03181154 -0.17301072 -0.07087707 -0.093349
-0.057954863 -0.19411105 0.09582105 -0.077221274 -0.096180566 -0.058503643 -0.111793086 -0.08211828
-0.048153076 -0.059023093 -0.042007983 -0.09230392 -0.0015505184 -0.03386448 0.03962953 -0.13343896
-0.0019545553 -0.04820597 -0.03476514 -0.09873936 -0.11791969 -0.1869984 -0.016625106 -0.08526937
-0.15961531 -0.0006950647 -0.024400052 0.020287365 -0.07719655 -0.08637058 0.054187212 0.008550717
-0.121612325 -0.16826455 0.06867905 -0.18558331 -0.10394652 0.09113968 0.03871304 0.07070169
-0.07650637 -0.064020194 -0.11272946 -0.0191866 -0.019300919 -0.085435964 -0.1016944 -0.012034739
-0.041401673 0.011833833 -0.047167283 -0.23649721 -0.026796695 -0.09942212 -0.044845965 -0.07487261
-0.0044974256 0.020497566 -0.03182232 0.011194657 -0.066942774 -0.047555376 -0.018158635 -0.007053408
-0.10148064 0.0042607524 -0.077677704 0.044926535 -0.012382706 -0.04014211 -0.06840828 -0.033907056
0.0043059173 -0.0070164087 -0.022271857 0.010840066 -0.082342 -0.062171344 0.020396616 -0.07873805
0.22528839 -0.054507542 -0.13672346 -0.14961205 0.02402509 -0.030790225 0.08624128 -0.05762076
-0.11257261 -0.059197545 0.13685742 -0.01997657 0.0031334138 -0.11095099 0.020664755 -0.05398096
-0.09642426 -0.038060978 -0.11365984 -0.00048054886 -0.06913458 -0.049530964 0.08918485 -0.16807933
-0.03854308 0.029036969 -0.0645927 -0.08829155 -0.056011464 -0.3631332 0.05151577 0.054202657
0.32206684 0.086283624 0.003639162 -0.17230615 -0.04674071 -0.09341647 0.01812722 0.010229779

linear2.bias f4 [128]
00000000: 4c0f a9be 6ec8 f3be 3e67 e83e 0a82 8fbe
00000010: f75b dc3e 82e5 013f 4946 4bbe 26cb 94be
00000020: eb6d abbe ea9d dc3e c499 cc3e 34c8 ab3e
00000030: 2bfa b33e 99a4 033f be11 5bbe 7ade be3e
00000040: 3f62 dbbd 5891 f63e 4a33 56be 412e c93e
00000050: 3812 de3e 410d a83e 6feb 4dbe 2b16 ce3e
00000060: 8ad8 adbe 692a cc3e 823e 863e fc0d c6be
00000070: 943b fd3e 244e a7be b567 b73e 1538 dc3e
00000080: 9378 d73e 8135 58be 5305 9abe fae2 bd3e
00000090: b1cd f63e 65af 31be 6724 cfbe d660 c73e
000000a0: b039 9abe c047 87be 8ecf d83e 837a a2be
000000b0: 85b4 9ebe 0aca cd3e d41d c9be 0977 72be
000000c0: 5dff 93be 4120 50be 845d dbbd f04f 51be
000000d0: a582 b2be 3554 cfbe 0eb7 b4be 2b35 d73e
000000e0: 975d b2be 7cb7 9bbe be03 d73e 9af6 cd3e
000000f0: 9217 a33e a00a 343e 033c ef3e d572 b53e
00000100: dcbe da3e 7c03 43be 8195 c0be 48dd d13e
00000110: 925b d03e 08b7 d03e ccaf c4be b3a7 8c3e
00000120: e0bb dd3e 54e7 bebe 2d45 adbe f35a f83e
00000130: 6c49 b73e c9d4 acbe 15d4 d3bd 021b bf3e
00000140: e742 fd3e 8054 f73e c30f 04bf 0565 b7be
00000150: 0952 433e 2cae b23e 021f a13e 17ab b4be
00000160: 7fe0 a43e 7a4d cb3e 9cdd a9be 9f74 38be
00000170: bf59 db3e 3024 cb3e 7434 6dbe 416c 9abe
00000180: 6b06 4abe a32a a23e 5f8d bb3e 21ef c53e
00000190: fa88 64be e6f2 f83e 8e9e 86be f331 d23e
000001a0: c06b 27be 6d3b 9cbe 803b e93e 55b9 f73e
000001b0: 63ee c53e b9ac ad3e bcbb 6cbe f2cc 7e3e
000001c0: 899d 9b3e 5937 873e aa6d 9d3e 2e43 af3d
000001d0: 384e bbbe 238a bdbe c678 bfbe ba74 103e
000001e0: d412 be3e e3ba a6be 576b adbe 9ba7 1f3f
000001f0: b65f f33e b259 e03e 3feb ed3e ef41 cb3e
-0.33019483 -0.47613853 0.45391268 -0.280289 0.43038914 0.50740826 -0.1985103 -0.2906124
-0.33482298 0.4308923 0.39961064 0.3355118 0.351518 0.5142303 -0.21393487 0.3727911
-0.10712098 0.48157763 -0.20918003 0.392931 0.43373275 0.32822612 -0.20109342 0.40251288
-0.3395427 0.39876106 0.26219565 -0.38682544 0.49459517 -0.32676804 0.3582131 0.43011537
0.42084178 -0.2111416 -0.30082187 0.37087232 0.48203805 -0.17352064 -0.4045746 0.38941067
-0.30122137 -0.26421928 0.42345852 -0.31734094 -0.309971 0.40193206 -0.3928057 -0.23678221
-0.28905764 -0.20324804 -0.10711196 -0.2044065 -0.348653 -0.40493932 -0.3529591 0.4203275
-0.34837028 -0.30413425 0.41995043 0.40227205 0.3185392 0.17582178 0.46725473 0.35439172
0.4272374 -0.19044298 -0.37614062 0.40989137 0.40694863 0.40764642 -0.38415372 0.27471694
0.433074 -0.37285864 -0.3384184 0.4850689 0.35798204 -0.33756092 -0.10343186 0.37325293
0.49465105 0.48306656 -0.5158655 -0.3581926 0.19074263 0.34898508 0.3146897 -0.3528678
0.32202527 0.39707547 -0.33176887 -0.18013237 0.42841908 0.39676046 -0.2316454 -0.30160716
-0.19729011 0.31673154 0.36631295 0.38659003 -0.22317877 0.48622817 -0.26292843 0.41053733
-0.16349697 -0.30514088 0.45553207 0.48383585 0.38658437 0.3392084 -0.2311849 0.24882868
0.30393627 0.26409414 0.3074773 0.085577354 -0.36583114 -0.37019452 -0.3739683 0.14107028
0.3712374 -0.32564458 -0.33870956 0.6236512 0.4753396 0.43818432 0.4646854 0.3969874

linear3.weight f4 [64, 128]
00000000: 25af 87be f8bc c0bd da2a 353e 4236 cdbc
00000010: 5a9c 453e cffc f03d 4469 a0bd b5bd 08bd
00000020: a0bd 8cbe 144f f93d 7cb3 bc3d e2a0 d03e
00000030: 8b9d 923b dabc 013e 626a 75bd 304c 9b3d
00000040: fcbd 9bbe 39ea a63d 3cba 10be 0f8c 803e
00000050: f745 d43d eb87 483e b1ce 88be db68 903e
00000060: f326 e4bd 0ccf ff3d cf55 653c d88d babe
00000070: e687 443e 06fd 90be 533f 9d3d 3497 a53d
00000080: a3f2 243e 96e6 32bd c5b5 17be 157e 153e
00000090: f0bb 4c3e d90b a8be ee3f 18be f8e3 1a3e
000000a0: 7783 23bc a6f1 97be 1ab9 e13d f33b 7e3c
000000b0: 4a7d 2fbe f115 613d 9457 09bf 9a09 7cbe
000000c0: 5d24 8fbe e9bc 36be 019b a0bf 79e9 e0bd
000000d0: 717e f73d dca6 b3bd 7196 f6bd 5bfd 983d
000000e0: ef15 83be 01ca 50be 2948 0c3e 1a02 8e3e
000000f0: d693 3c3e 0f23 3d3e 1b58 5c3d 5a73 163d
00000100: 6af8 513e ea5c 9abe 58e4 88bd d222 f13d
00000110: 36df f93d 7089 b93e 7784 56bd accd 023d
00000120: ae2c e13d f8fd 8cbd 9038 10bf dd02 563e
00000130: 15c6 a83d 00ec 3fbc 5dcc f4be 88b3 393d
00000140: e99f b33d 0cd9 c13d 5692 18be dbb9 49be
00000150: 9505 ff3c cbcf 423e a0bf e53d 10b6 d0be
00000160: 8363 2c3d 5469 fe3d 9a84 09be 3a91 56be
00000170: 442e 363e 9a57 d53e dd03 72bd 562f 1dbd
00000180: 43fb 84be 3e45 993b a169 6b3d af84 c83e
00000190: d5c3 2fbe 956b 3f3d 03ed 16be c2f7 633e
000001a0: 24f8 b7bf b6f2 03be d410 c63d 8584 683e
000001b0: 908a 5c3d 5088 a13e 0e91 babe 9149 903e
000001c0: 70ac cb3d e367 4f3c 75e5 053e ba89 593b
000001d0: 8c2c b3be 21c0 29be 4b82 34be 59de 0c3d
000001e0: eb0c 393e 92f7 e9bd c1e4 06be 6cb9 b43e
000001f0: 77bf 953d 830b 983d 8b5f 3c3e dd35 f63d
00000200: 3935 bfbe 8952 18be f73e df3c 8f32 04be
00000210: 3cb7 113e aa56 433d fbf4 66be 34fe 8bbd
00000220: 1cdc 75be 5fd0 803d 1e39 5a3e 4860 a53e
00000230: 4c3c 023e 4341 0b3e 5e90 84bd 198e 103e
00000240: 193f 83be 9de5 573e 9868 bdbd 60b1 4f3e
00000250: 346a 013e 94cd 523e 3aae 3bbe f3bc 9a3e
00000260: e5b4 67bc b5e2 193e cd14 12bc 5c47 9bbe
00000270: 1b94 533e 0b47 30be 5457 423d 32ec 073e
00000280: f25f 433d d0ba 263d 4600 28be 0483 5b3e
00000290: f6bd 403e 3bec c5be 3547 edbd e1fc 1d3e
000002a0: a4ce bdbc 25c7 a9be 9f5b 283d 747e 67bd
000002b0: 79dc 3dbe e63e 073e 2a11 07bf 7c9a 9abe
000002c0: c37f 12be 38c3 06be a965 b4bf 52da dcbd
000002d0: 3aa0 93bc e877 d23c 7787 1cbe 97d7 1b3e
000002e0: 7e33 10be 526f 2cbe a6de f73c 108a 263e
000002f0: 9e5a 873d a3b0 183e 5c53 193d bf49 9a3d
00000300: 2c62 683d a49c 23be 5713 e2bd 145c 233d
00000310: d6ad e63d db87 9f3e 5175 edbd 7833 dc3d
00000320: 12cc 073e 314e 11be 607c 10bf d21d 943e
00000330: b124 483e 668f a9bc 1ca8 f4be 7450 493d
00000340: 71ee 423e 6982 183e 0120 17bd 7018 a3bd
00000350: c5e6 da3d bf94 e93d b12e 9b3d b9d3 b6be
00000360: a98d c53d 1b1a 2d3e 3b40 b2bd 509b 92be
00000370: aaab 533d 52af 9a3e b539 a3bd 60da bfbd
00000380: 3201 80be b7f5 3a3c 2fe1 243e 9fdc f23e
00000390: c88d 0cbd e7c4 1b3e 91ef 4bbe 5e9d d63d
000003a0: 72ad abbf cd2e f6bd 4d18 323e 18b0 193e
000003b0: 637c 203e 6241 bd3e 52fd b6be 28ea ee3e
000003c0: 6e72 343d a661 313e b84a 843d b534 013d
000003d0: 5e33 aabe a7a6 8abe 8867 14be 2c3b 563d
000003e0: 0873 f53c 449b 2ebe 9910 2dbe 2b07 853e
000003f0: 7b48 473d 8a61 c73c 1e7d 3d3e efe1 433e
-0.26500812 -0.09411043 0.17692128 -0.025050286 0.19297925 0.117669694 -0.07832578 -0.033384044
-0.27488422 0.12173286 0.092139214 0.40747744 0.004474347 0.12669697 -0.059915908 0.07582891
-0.30418384 0.08150143 -0.14133543 0.25106856 0.10364907 0.19583099 -0.26720193 0.28204998
-0.111402415 0.12490663 0.013997509 -0.36436343 0.19192466 -0.28318042 0.07678094 0.0808548
0.16108184 -0.043676935 -0.14815433 0.14598878 0.19993567 -0.3282154 -0.14868137 0.15126026
-0.009980074 -0.2967655 0.110216334 0.015517223 -0.17137638 0.054952566 -0.5364926 -0.24613038
-0.2795743 -0.17845501 -1.2547303 -0.109820314 0.12084664 -0.0877206 -0.12040413 0.07470199
-0.25602672 -0.20389558 0.13699402 0.27735978 0.1841577 0.18470405 0.05379496 0.0367311
0.20504919 -0.30149013 -0.06684178 0.117742196 0.12200777 0.3623767 -0.052372422 0.031934425
0.1099485 -0.06884378 -0.5633631 0.2089953 0.08240906 -0.011713982 -0.47812167 0.04533723
0.08770735 0.094652265 -0.14899573 -0.19699804 0.031130591 0.19024579 0.1121819 -0.40763903
0.04208709 0.124224335 -0.1342949 -0.20953837 0.17791086 0.41668397 -0.059085716 -0.03837522
-0.25972947 0.0046774438 0.057473782 0.3916373 -0.17164548 0.046733458 -0.1473885 0.22262481
-1.4372602 -0.12885556 0.096711785 0.22706802 0.05384308 0.3154931 -0.36438793 0.28181127
0.09944999 0.012659046 0.13075812 0.0033193664 -0.34994924 -0.16577198 -0.17627828 0.034391735
0.18071334 -0.114241734 -0.131732 0.35297716 0.0731191 0.07424071 0.18395822 0.12021992
-0.37345293 -0.14875235 0.027251704 -0.12909912 0.14230055 0.04769007 -0.2255439 -0.06835595
-0.24009746 0.06289744 0.21310851 0.3230002 0.12718314 0.13599114 -0.06472848 0.14116706
-0.25634077 0.21083684 -0.09248465 0.20282507 0.1263817 0.20586234 -0.18328181 0.30222282
-0.01414225 0.15027888 -0.008916092 -0.3032788 0.20661967 -0.172146 0.047446564 0.13273695
0.047698922 0.040705502 -0.16406354 0.21436697 0.18822464 -0.38656792 -0.11585847 0.15428497
-0.023169823 -0.33159748 0.041103 -0.05651708 -0.18541135 0.13207588 -0.52760565 -0.30195987
-0.1430655 -0.13160408 -1.4093524 -0.10783829 -0.018020738 0.025691941 -0.1528605 0.1521896
-0.14082143 -0.1683934 0.030257534 0.16263604 0.06609081 0.14911132 0.037433013 0.07533597
0.05673425 -0.15977722 -0.11038845 0.039882734 0.11263625 0.31158337 -0.11594642 0.107520044
0.1326144 -0.14189984 -0.5643978 0.28929 0.19545247 -0.02069826 -0.47784507 0.04914899
0.1903627 0.14893498 -0.036895756 -0.079636455 0.10688547 0.11405324 0.07577265 -0.35708407
0.0964616 0.1690449 -0.08703657 -0.2863412 0.051677383 0.30211884 -0.07969991 -0.093678236
-0.25000912 0.011411122 0.16101526 0.47433946 -0.0343149 0.15211831 -0.19915606 0.10479234
-1.3412306 -0.12020645 0.17392083 0.1500858 0.1567245 0.36963946 -0.35740143 0.46663022
0.04405444 0.17322406 0.06459564 0.031544406 -0.33242315 -0.2708027 -0.14492619 0.052302524
0.029962078 -0.17051417 -0.16900863 0.2598203 0.048653107 0.024338502 0.1850476 0.19129156

linear3.bias f4 [64]
00000000: 0d3c 043f fb3f f93e 5e7f 28be a34c e23e
00000010: 13c1 d73e 5284 b7be c8c0 b5be f990 e73e
00000020: cb1b 4bbe ea88 8cbe d6a7 a8bd 8abe b0be
00000030: b581 b8be 3391 c8be 4a1b fd3e dc66 ccbe
00000040: 760c 2cbe 3f6e d83e 5635 30be ebec a8be
00000050: e934 b33e d252 80be 744d e33e df71 243d
00000060: 9d55 083f a0f8 f13e a77b ca3e 218e c43e
00000070: 4a34 96be 6864 8ebe 61b7 f33e 37b3 6bbe
00000080: 3392 74be 83de e93e 86f5 9cbe d529 81be
00000090: dd01 fe3e ee88 fa3e afab dabe e682 e33e
000000a0: 3d99 e13e 3b45 72be 1918 5abe 0221 cf3e
000000b0: 1aa4 f73e 621c c13e c04f 6abe 730a a4be
000000c0: 6b5a a4be 1fec dc3e dde8 fe3e 28f0 e33e
000000d0: 3029 0cbd c507 84be f633 c93e c335 df3e
000000e0: bf00 9cbe 1b84 053f e756 adbe 5bdc ef3e
000000f0: 5003 d93e db8a bb3e 4040 a6be 84bc fd3e
0.5165413 0.48681626 -0.16454837 0.44199094 0.4213949 -0.3584314 -0.35498643 0.45227793
-0.19834821 -0.27448207 -0.08235137 -0.3452037 -0.3603646 -0.39173278 0.49434882 -0.39922225
-0.16801628 0.4227161 -0.17207846 -0.32993254 0.35001305 -0.25063187 0.4439503 0.04014766
0.53255635 0.47259998 0.39547464 0.38389686 -0.29336768 -0.2781098 0.47600845 -0.23017584
-0.23883896 0.45677575 -0.3065607 -0.25227228 0.49610797 0.48932594 -0.4270911 0.44435805
0.44062224 -0.23659222 -0.21298255 0.4045487 0.48367387 0.37716967 -0.22881985 -0.32039222
-0.32100233 0.43148896 0.49787036 0.44519162 -0.034218967 -0.25787178 0.39297456 0.43595704
-0.3046932 0.521547 -0.33855364 0.46847805 0.4238534 0.36629376 -0.32470894 0.49557889

output.weight f4 [1, 64]
00000000: 594f a93e face bf3e 4d56 18be 0286 633e
00000010: bcdc b93e 299d 2fbe 9a14 73be 5166 a43e
00000020: 0bd6 a0be 17ba 4bbe 628e b5bf 7b9e 80be
00000030: ca22 3dbe add2 33be 0aa1 b83e 6b84 a2be
00000040: 0924 5fbe 94ea 9b3e d574 9cbe 48c9 57be
00000050: 71c7 0c3f f37e 84be 088b ca3e eaee c7bf
00000060: bc85 bd3e 1189 b83e 6706 8a3e 59e5 943e
00000070: 81b9 57be 2695 55be f3ae 9e3e caba 66be
00000080: 607c 87be c634 c33e 9b10 56be 5bc6 3ebe
00000090: 7375 a23e 9b5a 993e b7ea 68be 774d 1a3f
000000a0: eff9 8e3e 900d 5abe a2ce 52be 1872 c33e
000000b0: 57cf 073f b422 f83e 7331 c3be 3b07 85be
000000c0: 1a14 76be fc37 b03e 184d b93e de46 a33e
000000d0: 3c1d 73bf 830d 7cbe 7bc7 f53e 0320 ad3e
000000e0: 0c91 3ebe 6aa4 b63e f2e3 68be a1a3 773e
000000f0: 266a 9c3e bb87 b73e 3345 65be 3e68 a33e
0.3306835 0.37462598 -0.14876671 0.22219089 0.3630122 -0.17149796 -0.23738328 0.3210931
-0.31413302 -0.19895206 -1.4184077 -0.2512091 -0.18470302 -0.17560835 0.36060363 -0.31741652
-0.2179109 0.30452406 -0.30557886 -0.21072876 0.54991823 -0.25878105 0.39559197 -1.5619786
0.37016094 0.36042073 0.2695801 0.29081228 -0.21066858 -0.20857677 0.3099285 -0.22532192
-0.26462078 0.381262 -0.20904772 -0.18630354 0.31730232 0.2995194 -0.22745787 0.6027445
0.2792506 -0.21294236 -0.20586637 0.38172984 0.5305075 0.48463976 -0.38123664 -0.2598208
-0.24031106 0.34417713 0.3619163 0.31890005 -0.94966483 -0.2461453 0.48003754 0.33813486
-0.18610018 0.35672313 -0.22743204 0.24183513 0.30549735 0.35845742 -0.22389679 0.31915468

linear1.weight f4 [128, 34]
00000000: 5766 2ebe f19b 0ebe 7150 cfbd 1dfc b23d
00000010: 2dcf ce3e 80df 733e 1101 983e d876 ce3d
00000020: a103 8d3e 5557 173e dd57 aebd 3182 133e
00000030: d7ee 8d3d a9c4 3d3e f58f c8bd 19bd 42be
00000040: c8f5 d0bc e640 ed3d 644c a83b 044b 22be
00000050: d2a5 b8bd 7cef 23bd 186d acbd faea b5bd
00000060: 85c5 ddbc 3c2e 4b3c b442 863d 2dd5 c43d
00000070: 0f40 f4be b716 87bb 9710 583b 0d02 253c
00000080: 4ddf 32bb 71ae 543c 2e15 3e3d 5fca 973d
00000090: bc27 7fbe 5118 0abd 5f8d 1fbe bb4f 0abe
000000a0: 540f 923e 67b1 f53c c9f7 223e 9960 4d3e
000000b0: 1d83 d8bc 0c1a 53be de97 8a3e b4dd 233b
000000c0: a98d c93d ddb4 42be 112e f93d d793 fe3d
000000d0: 9c1f d9bd a569 8ebb ecb0 f83d f3a4 11be
000000e0: 48ae 593d 860b a4bd a3f3 643d 4d79 85bc
000000f0: 7096 d53d f849 06be e680 98bd 8575 0dbe
00000100: 3037 c03d 64fa 59bd dff1 8f3d 3401 253e
00000110: 454a 803b f97b 673d 8481 793c f415 c5bd
00000120: f801 9e3d e28e 7b3e a2fa 6b3d dc42 793e
00000130: 6b69 55bd f590 8c3e 6afb f33d 5c2d eabd
00000140: 5a3e 633e 87e4 b23d 60a8 9f3d 9ac7 45be
00000150: c15f 6fbe 1159 433d f6c2 cdbc d96d 2f3d
00000160: b5dd 633d 3d87 153d 389a 8c3d 0476 523d
00000170: 1887 9ebd 9897 95bc 69ea a2be ba23 393e
00000180: cdc3 44bd 96e5 243e fc6e 793d 3712 b5bd
00000190: 6c6e d13c b238 cabd 75cb e4bd 98d0 2c3e
000001a0: 9a62 6dbc 6dd4 b03d 18aa 9c3d 0af0 8fbd
000001b0: 5979 f93d 955e bbbd b3a8 40bc 7dfc 96bd
000001c0: 4535 d13c 8bc9 bf3d 02d7 ebbc 09ea 6f3d
000001d0: a60f 243d 7187 953d cd9f c53d c3cb 30bd
000001e0: cf41 77bd a54d 513d 7c95 f13d 145d 8ebc
000001f0: 4639 a5bc d36d 823d 6544 c1bd 647d 31be
00000200: bcec b7be 3250 9ebd ec22 fd3d 1f82 d0bd
00000210: 5208 d83d 2ceb 023e 1a8e 713e d1a9 fc3d
00000220: 92f4 5bbd e59b 413e c0f1 09be 0d05 fbbd
00000230: 2091 3cbb 4dcc d8bc d458 043d e689 683d
00000240: c9cd 25bd 4f16 6b3e 7d1a 323e cad7 b1bd
00000250: 818c 0b3e 527b debd ce00 e7bd 813a 843e
00000260: 3695 5b3d f439 7a3e 99a0 a73d 3f97 153d
00000270: d8ce d1bd 9422 043e 75bb 14bd 2eb1 58bc
00000280: 6c3e 283a 42f4 d7bd f81c ad3c f746 15be
00000290: e00d 11be 8955 123e 7014 223e 15dd 323e
000002a0: 7726 3e3d 69cf e2bd 19c9 73be 2e1e 25be
000002b0: 2523 3e3c 36a2 a73d 0a29 80bc a4a6 c1bc
000002c0: 9bee f2bc 70d8 0d3a ecce e9bd 00cf b23d
000002d0: 4c10 e03d 67e0 323e b142 813d 841a 323e
000002e0: 8db9 153e f823 88bd e00d 593e 0072 01bc
000002f0: 63c7 dc3c 4e1b 193e 91d7 e23d 4bf5 4b3d
00000300: 303e a33c e75d 203d 3065 89bd f086 d0bd
00000310: 29ad 623e 09e8 3c3d 3e5f 96be 7a00 b2bd
00000320: ad7b f23d 8e29 c3bd 8472 6abd eaef fa3d
00000330: fae2 eebb e66a 21be 6367 f63b 35a7 cf3d
00000340: f9ad 42be a2ea 0fbe d2da d03c 5b7d 5c3e
00000350: a421 f3bd 5345 423e 14b7 c13d fde2 3e3e
00000360: 6e24 273d 1419 b83e f91b 4abe 0b17 dfbd
00000370: 4b28 0bbe f511 31be 2a82 72bd 4d2d 673d
00000380: 8d45 86bd d7da eabd 4fb9 febd 1e39 87bd
00000390: 3a57 1e3e 5298 583e cad3 4f3e 4949 4c3e
000003a0: a8db 3abd 1f26 e8bd caf4 9f3d b58a debd
000003b0: 7a8f 8bbd 6c58 063e 9844 48be 6ceb 2e3a
000003c0: 26c4 64bd e2eb e0bd 0245 b4bd f3b3 73bd
000003d0: e182 fdbd 71d7 69be 7068 56bd 3880 fabd
000003e0: 6d48 2dbe 7639 45bc cf72 b8bc d41f c1bd
000003f0: a346 ccbd ff89 fabc b0cc 413d 26e0 72bd
-0.17031227 -0.13926674 -0.10122765 0.08739493 0.40392438 0.23815727 0.29688314 0.100812614
0.2754183 0.14779408 -0.08512852 0.14405133 0.06930321 0.18532051 -0.097930826 -0.19017448
-0.025507823 0.11584644 0.0051360596 -0.15848929 -0.09016003 -0.040023312 -0.084192455 -0.08882709
-0.027071724 0.01240116 0.06555691 0.096109726 -0.47705123 -0.004122581 0.0032968873 0.01007129
-0.0027293742 0.012981043 0.046406917 0.07411646 -0.24917501 -0.033714596 -0.15581273 -0.13506977
0.2852732 0.029991819 0.15914835 0.2005638 -0.026429707 -0.20615405 0.2706899 0.0025003972
0.09841473 -0.19014306 0.121669896 0.12430542 -0.10601732 -0.00434609 0.1214312 -0.1422308
0.053144723 -0.080100104 0.055896413 -0.016293192 0.10429084 -0.13114154 -0.074464604 -0.13814361
0.09385526 -0.053217307 0.07028555 0.1611374 0.0039151036 0.056514714 0.015228633 -0.09623328
0.07715219 0.24566224 0.05761207 0.24341911 -0.052102488 0.27454343 0.11913188 -0.11434433
0.22191754 0.087349944 0.07795787 -0.19314423 -0.23376371 0.047692362 -0.025117379 0.04282937
0.05563136 0.036505926 0.068653524 0.05138208 -0.07740611 -0.018260762 -0.31819466 0.18080035
-0.048038293 0.16103205 0.06089686 -0.08841365 0.025565349 -0.09874095 -0.11171619 0.16876447
-0.0144888405 0.08634267 0.0764963 -0.07028206 0.12181348 -0.091488995 -0.011758971 -0.07372377
0.025538096 0.09364613 -0.028789047 0.058572803 0.040053986 0.07301224 0.0964962 -0.043163072
-0.060365494 0.05109944 0.1179609 -0.017378367 -0.020168912 0.063686036 -0.09436873 -0.17332989
-0.35922801 -0.0773014 0.123601764 -0.10181069 0.10548462 0.12785023 0.23589364 0.123370774
-0.053700037 0.18907125 -0.13471127 -0.12256823 -0.0028773025 -0.026464606 0.032311276 0.056772135
-0.040479455 0.22957729 0.17392917 -0.086837366 0.13627817 -0.10863365 -0.1127945 0.25825885
0.053609096 0.2443617 0.081849284 0.036521193 -0.102445304 0.12903816 -0.036311585 -0.013225837
0.0006417993 -0.10544635 0.021131977 -0.14577852 -0.14165449 0.14290442 0.15828109 0.17467149
0.0464234 -0.110747166 -0.23807181 -0.16124794 0.011605059 0.08185236 -0.015644569 -0.02363903
-0.029654792 0.0005410975 -0.1141642 0.08730888 0.109406084 0.17468415 0.063115485 0.17392927
0.14621563 -0.066474855 0.21196699 -0.007900715 0.026950544 0.14951822 0.11076272 0.049794476
0.019927114 0.039152052 -0.06708753 -0.10181987 0.22136368 0.046119723 -0.2936954 -0.08691497
0.118399955 -0.0952941 -0.057238117 0.12252791 -0.0072902413 -0.15763435 0.007519649 0.10139314
-0.19011678 -0.14054349 0.025494967 0.21532194 -0.11871651 0.18971758 0.094587475 0.18641277
0.040806226 0.35956633 -0.19737233 -0.10893067 -0.1358959 -0.17292006 -0.059206165 0.056439687
-0.065562345 -0.11467522 -0.124376886 -0.06602691 0.15462962 0.21151856 0.20295635 0.19949831
-0.045619637 -0.11335396 0.07810362 -0.108663 -0.06814475 0.13119668 -0.19557416 0.0006672654
-0.055851124 -0.10982491 -0.08802225 -0.059497785 -0.12378479 -0.2283609 -0.052345693 -0.12231487
-0.1692216 -0.012037626 -0.022515683 -0.09429899 -0.099744104 -0.03058338 0.047314346 -0.059295796

linear1.bias f4 [128]
00000000: e5f2 b73e 59e4 603e cca6 ea3e 3751 663e
00000010: d9b4 8a3e 5d8d db3e 9110 de3e 3228 93be
00000020: 01e4 bb3e 2f20 2c3f 51eb 2dbe e2d4 7d3e
00000030: cc72 17be 9ba4 2a3e 4a3f babe f801 e03d
00000040: 74d4 93be 5c4a f93e fa7b a03e 7a67 d43e
00000050: e955 923e 409a bfbe d185 093f a812 a83e
00000060: cb65 503e 15a8 683e 2475 45be 6474 ad3e
00000070: 4a91 193f 0df6 863e b0fe 12be 447e df3e
00000080: 725d 873e cc78 d7be 6b7d 183e df92 7cbe
00000090: d709 8a3e e73b 183f 2a74 53be 4ad4 0cbe
000000a0: 877c 1f3f 1505 fd3e 88e2 91be 5132 f23e
000000b0: 4542 f43e 4fca 88be ecc8 723e 513a ab3d
000000c0: 5b0e 5bbd e6ee 143f 46b4 8b3e ceae b5be
000000d0: c85a f4be 7086 133f 6fd7 b23e ad50 f73e
000000e0: e888 5cbe eb85 1ebe 0075 5f3e 0564 9c3e
000000f0: 9407 ecbd 8ecd 0a3f b63c a4be a6e5 cd3e
00000100: fb47 8c3e ac9f a93c 0dcc 603e 1325 8d3e
00000110: 0582 143e 7426 8e3e 780b 0fbe c61d d33e
00000120: b0e5 6bbe 06f2 01be 31a4 cd3e 0d58 013f
00000130: e770 a03e f4d1 093f ca09 7bbe ca40 d23e
00000140: 2e69 003f 8b32 c93e 2ffb debe e4a1 c53e
00000150: a2b2 d23e 2ce1 44be 8c75 773e 9f64 91be
00000160: 2379 a4bd 9cb3 a33e 49b1 d23e bf20 453e
00000170: 0015 44be f677 63be 27bb a3be 899c 373d
00000180: 3999 a73e 3ca8 cc3e 5c97 bbbe e80d 643e
00000190: 4886 51be acb7 8e3e 5fe5 923e fae5 963e
000001a0: e790 0bbe 20a3 30bd dddf 1a3f c087 58bd
000001b0: bd37 e63e cc24 80be a57e 05be 9ccc bf3e
000001c0: 14d4 903e 7539 a7bc c38f 1abe 880c 033f
000001d0: 2219 d4bd f917 853e 3970 64be af67 033f
000001e0: d52c 2cbd 1b15 bcbe 71b4 d1be a264 3e3f
000001f0: 86e6 273e 2828 3f3e 3781 bb3d d230 b93e
0.359275 0.21962108 0.4583038 0.22491919 0.270911 0.4288129 0.43372014 -0.28741604
0.3669739 0.6723661 -0.16984297 0.2478824 -0.14789885 0.16664355 -0.3637641 0.109378755
-0.28873026 0.48689544 0.31344587 0.41485196 0.2858117 -0.3742237 0.5371981 0.32826734
0.20351331 0.22720368 -0.19282967 0.33877861 0.5998732 0.26359597 -0.14354968 0.4365102
0.2643848 -0.42084348 0.14891593 -0.24665402 0.26960632 0.59466404 -0.20649782 -0.13752857
0.6229939 0.4941794 -0.28493142 0.47304013 0.4770681 -0.2671685 0.23709458 0.08360732
-0.053480487 0.5817703 0.27285975 -0.35484928 -0.4772551 0.5762701 0.34929988 0.48303738
-0.215366 -0.15480773 0.21821976 0.3054506 -0.11524883 0.542199 -0.3207757 0.4021427
0.27398667 0.02070602 0.21952839 0.27567348 0.14502724 0.27763712 -0.13969219 0.41233653
-0.23036838 -0.12689981 0.4016433 0.5052498 0.31336138 0.5383599 -0.24515453 0.41065055
0.5016049 0.39296374 -0.43551013 0.38600075 0.4115191 -0.19226521 0.24165934 -0.2839708
-0.080309175 0.3197297 0.41150883 0.19250773 -0.19148636 -0.2221373 -0.31978723 0.044827018
0.32734087 0.39972103 -0.36638916 0.2227093 -0.2046138 0.27874506 0.2869062 0.29472333
-0.13629495 -0.043124318 0.6049784 -0.052863836 0.449644 -0.25028074 -0.13036592 0.37460792
0.28286803 -0.02041314 -0.15093903 0.51190996 -0.10356356 0.25994852 -0.22308435 0.51330084
-0.042034943 -0.36734852 -0.40957978 0.74372303 0.16396531 0.18667662 0.09155505 0.3617006

linear2.weight f4 [128, 128]
00000000: ea84 93be 6efa 3d3d ace5 93bd 997d 283d
00000010: e767 06bc 985d 28bd 1c68 8dbe 3afc 8d3d
00000020: 1923 12be 9674 acbe 1b57 713d 5b82 1e3d
00000030: 2112 b13d c2c1 8fbc bc54 ce3d 1b19 713d
00000040: 5593 7c3d e72c bc3d aeb6 37bd 22ba 24bc
00000050: 1725 9abe 6613 1e3e 97ae 913d 0f27 99be
00000060: 3371 15bd 3c29 4ebd b6f2 60bd 17bb 64bc
00000070: a58c 78bd 60a5 f4bd 2b86 893d 2ba0 b43d
00000080: bb7a 2d3d db00 fdba d4c0 34be 6238 85bc
00000090: bced 6bbd a2fc a7bd 3d23 d93d 1f4d 4a3e
000000a0: 2908 b8bd fed6 c2bc 0394 d63c c3a7 89be
000000b0: defd 07bd d85f 2a3e 2c8a ce3d 964e ef3c
000000c0: be1a 73bb 3a5c 77bd 35a8 27be 00de 973d
000000d0: 3619 14bc 89cd 46be f0e5 c53d bc79 213d
000000e0: 4aea 9e3d 6352 563d 3276 e83c 8e32 8ebd
000000f0: 9166 6c3d 10e7 a6ba 3767 acbc 438d d5bc
00000100: 41a6 b4bd ed99 dcbc 05c5 fbbc 1432 11bd
00000110: e556 85bd 224a 97bd 0dcd be3d 7d9e 50bb
00000120: 0ff6 fe3d 9b88 6abd fb51 0fbd ce00 babd
00000130: 4d8b 80be 556f 07be 9656 fe3d 792c b2bd
00000140: 112b 0a3d cb16 5ebd a555 c8bd dd4e 723d
00000150: 65de 8d3d 8a3f 2d3d 7cdd a3bd ffdf c6bb
00000160: b456 3f3d 6293 9c3c b49e 15be a8e4 97bd
00000170: 60fb c23d 36eb 5d3d 7ab5 bf3c 2363 63bb
00000180: 1c15 18be 9925 91be 938a 313e 455d bcbd
00000190: 7368 c33c fc82 bbbd 5ca1 e53c 55ce 61bd
000001a0: fc90 9b3c f06c dd3d 6c56 4dbd 6ea4 d43d
000001b0: a1ba 94bd 3f8b 9c3b f915 d9bd 1087 80be
000001c0: 455a ad3d 9f97 2cbd 9b29 0f3d 600c f9bd
000001d0: 2710 cf3d 65c6 87bd ed4b 533d dca3 21bc
000001e0: 6971 cabd ee62 1a3e 99fd 8c3d 9ad9 01bd
000001f0: 16f6 723d 2e68 523d a987 2fbe f54e 003d
00000200: a80f 80bd 4983 5fbb 46bb ebbd 1b51 99bd
00000210: d14c 023d b929 31be ff27 91bd c32d bfbd
00000220: 1462 6dbd 0cc5 46be d43d c43d 3026 9ebd
00000230: 51fa c4bd 84a1 6fbd c6f3 e4bd a12d a8bd
00000240: 293c 45bd 33c2 71bd 9010 2cbd d609 bdbd
00000250: c43a cbba 7bb5 0abd 9352 223d 39a4 08be
00000260: ff17 00bb a073 45bd e465 0ebd dd37 cabd
00000270: e17f f1bd 827c 3fbe 6031 88bc b5a1 aebd
00000280: 3272 23be 0135 36ba 9ee2 c7bc b031 a63c
00000290: 3a19 9ebd 0fe3 b0bd 69f3 5d3d 4e18 0c3c
000002a0: e20f f9bd 8b4d 2cbe 9aa7 8c3d 8d09 3ebe
000002b0: eae1 d4bd 71a7 ba3d 9191 1e3d 0ccc 903d
000002c0: 5faf 9cbd 051d 83bd b4de e6bd 372d 9dbc
000002d0: f61c 9ebc 0df9 aebd 2745 d0bd 5b2d 45bc
000002e0: cd94 29bd b1e2 413c 7b32 41bd 532c 72be
000002f0: be84 dbbc d39d cbbd 67b0 37bd d056 99bd
00000300: 245f 93bb 83ea a73c 1f58 02bd cb69 373c
00000310: 4b19 89bd 6dc9 42bd 6bc1 94bc 4620 e7bb
00000320: 15d5 cfbd c89d 8b3b 7d15 9fbd e304 383d
00000330: d5e0 4abc 0e6c 24bd a419 8cbd 20e2 0abd
00000340: a718 8d3b e7e9 e5bb 7873 b6bc 889a 313c
00000350: eca2 a8bd 61a7 7ebd ce16 a73c 6a41 a1bd
00000360: 00b2 663e 4d43 5fbd 3c01 0cbe e733 19be
00000370: 44d0 c43c c83b fcbc 459f b03d bf03 6cbd
00000380: 788c e6bd 2079 72bd 5a24 0c3e e7a5 a3bc
00000390: f659 4d3b 463a e3bd 2249 a93c 241b 5dbd
000003a0: 157a c5bd d4e5 1bbd 7dc6 e8bd 2df2 fbb9
000003b0: 6e96 8dbd fbe0 4abd 8ca6 b63d fd1c 2cbe
000003c0: 59df 1dbd f0de ed3c 2d49 84bd 33d2 b4bd
000003d0: 476c 65bd 98ec b9be 3302 533d 9b03 5e3d
000003e0: f2e5 a43e 78b5 b03d 027f 6e3b 0671 30be
000003f0: 3073 3fbd 2251 bfbd 897f 943c ce9a 273c
-0.28812343 0.046381406 -0.07221541 0.041135404 -0.008203483 -0.041104883 -0.27618492 0.06932874
-0.14271201 -0.33682698 0.05892096 0.038698535 0.08646036 -0.017548446 0.100747555 0.058861833
0.061663944 0.09188252 -0.04485195 -0.010054143 -0.30106422 0.15437087 0.071133785 -0.29912612
-0.03648491 -0.050332293 -0.054918967 -0.013960621 -0.060681004 -0.11945605 0.06715044 0.08819612
0.042353373 -0.0019302623 -0.17651683 -0.016262237 -0.057599768 -0.08202483 0.10602424 0.19755982
-0.089859314 -0.023784157 0.026193624 -0.26885805 -0.03320109 0.16638124 0.10084948 0.029212277
-0.0037094797 -0.06039069 -0.1637276 0.0741539 -0.009039214 -0.19414343 0.09662998 0.039422736
0.07759531 0.052324664 0.028376672 -0.06943236 0.057715002 -0.0012733657 -0.02104531 -0.026068335
-0.08820773 -0.026928866 -0.030733595 -0.03544815 -0.065107144 -0.073871866 0.09316454 -0.0031832748
0.12449276 -0.057259183 -0.034990292 -0.09082185 -0.25106278 -0.13226064 0.12418859 -0.08699889
0.033732478 -0.054220956 -0.097819604 0.05915724 0.06927184 0.042296924 -0.08001229 -0.006069183
0.046713546 0.019113246 -0.14611322 -0.074166596 0.09520602 0.054179393 0.023401964 -0.0034696541
-0.14851803 -0.28348997 0.17338018 -0.09197477 0.023853516 -0.09155843 0.028031044 -0.055128414
0.018990032 0.10811794 -0.050131246 0.10382925 -0.07262159 0.0047773416 -0.10599894 -0.25103045
0.08464483 -0.042136785 0.034951787 -0.121605635 0.10110503 -0.06629638 0.05158608 -0.009865727
-0.098849125 0.15076801 0.068843074 -0.03170166 0.059316717 0.051368885 -0.17141594 0.0313253
-0.06252986 -0.0034105352 -0.11510329 -0.07486173 0.03181154 -0.17301072 -0.07087707 -0.093349
-0.057954863 -0.19411105 0.09582105 -0.077221274 -0.096180566 -0.058503643 -0.111793086 -0.08211828
-0.048153076 -0.059023093 -0.042007983 -0.09230392 -0.0015505184 -0.03386448 0.03962953 -0.13343896
-0.0019545553 -0.04820597 -0.03476514 -0.09873936 -0.11791969 -0.1869984 -0.016625106 -0.08526937
-0.15961531 -0.0006950647 -0.024400052 0.020287365 -0.07719655 -0.08637058 0.054187212 0.008550717
-0.121612325 -0.16826455 0.06867905 -0.18558331 -0.10394652 0.09113968 0.03871304 0.07070169
-0.07650637 -0.064020194 -0.11272946 -0.0191866 -0.019300919 -0.085435964 -0.1016944 -0.012034739
-0.041401673 0.011833833 -0.047167283 -0.23649721 -0.026796695 -0.09942212 -0.044845965 -0.07487261
-0.0044974256 0.020497566 -0.03182232 0.011194657 -0.066942774 -0.047555376 -0.018158635 -0.007053408
-0.10148064 0.0042607524 -0.077677704 0.044926535 -0.012382706 -0.04014211 -0.06840828 -0.033907056
0.0043059173 -0.0070164087 -0.022271857 0.010840066 -0.082342 -0.062171344 0.020396616 -0.07873805
0.22528839 -0.054507542 -0.13672346 -0.14961205 0.02402509 -0.030790225 0.08624128 -0.05762076
-0.11257261 -0.059197545 0.13685742 -0.01997657 0.0031334138 -0.11095099 0.020664755 -0.05398096
-0.09642426 -0.038060978 -0.11365984 -0.00048054886 -0.06913458 -0.049530964 0.08918485 -0.16807933
-0.03854308 0.029036969 -0.0645927 -0.08829155 -0.056011464 -0.3631332 0.05151577 0.054202657
0.32206684 0.086283624 0.003639162 -0.17230615 -0.04674071 -0.09341647 0.01812722 0.010229779

linear2.bias f4 [128]
00000000: 4c0f a9be 6ec8 f3be 3e67 e83e 0a82 8fbe
00000010: f75b dc3e 82e5 013f 4946 4bbe 26cb 94be
00000020: eb6d abbe ea9d dc3e c499 cc3e 34c8 ab3e
00000030: 2bfa b33e 99a4 033f be11 5bbe 7ade be3e
00000040: 3f62 dbbd 5891 f63e 4a33 56be 412e c93e
00000050: 3812 de3e 410d a83e 6feb 4dbe 2b16 ce3e
00000060: 8ad8 adbe 692a cc3e 823e 863e fc0d c6be
00000070: 943b fd3e 244e a7be b567 b73e 1538 dc3e
00000080: 9378 d73e 8135 58be 5305 9abe fae2 bd3e
00000090: b1cd f63e 65af 31be 6724 cfbe d660 c73e
000000a0: b039 9abe c047 87be 8ecf d83e 837a a2be
000000b0: 85b4 9ebe 0aca cd3e d41d c9be 0977 72be
000000c0: 5dff 93be 4120 50be 845d dbbd f04f 51be
000000d0: a582 b2be 3554 cfbe 0eb7 b4be 2b35 d73e
000000e0: 975d b2be 7cb7 9bbe be03 d73e 9af6 cd3e
000000f0: 9217 a33e a00a 343e 033c ef3e d572 b53e
00000100: dcbe da3e 7c03 43be 8195 c0be 48dd d13e
00000110: 925b d03e 08b7 d03e ccaf c4be b3a7 8c3e
00000120: e0bb dd3e 54e7 bebe 2d45 adbe f35a f83e
00000130: 6c49 b73e c9d4 acbe 15d4 d3bd 021b bf3e
00000140: e742 fd3e 8054 f73e c30f 04bf 0565 b7be
00000150: 0952 433e 2cae b23e 021f a13e 17ab b4be
00000160: 7fe0 a43e 7a4d cb3e 9cdd a9be 9f74 38be
00000170: bf59 db3e 3024 cb3e 7434 6dbe 416c 9abe
00000180: 6b06 4abe a32a a23e 5f8d bb3e 21ef c53e
00000190: fa88 64be e6f2 f83e 8e9e 86be f331 d23e
000001a0: c06b 27be 6d3b 9cbe 803b e93e 55b9 f73e
000001b0: 63ee c53e b9ac ad3e bcbb 6cbe f2cc 7e3e
000001c0: 899d 9b3e 5937 873e aa6d 9d3e 2e43 af3d
000001d0: 384e bbbe 238a bdbe c678 bfbe ba74 103e
000001e0: d412 be3e e3ba a6be 576b adbe 9ba7 1f3f
000001f0: b65f f33e b259 e03e 3feb ed3e ef41 cb3e
-0.33019483 -0.47613853 0.45391268 -0.280289 0.43038914 0.50740826 -0.1985103 -0.2906124
-0.33482298 0.4308923 0.39961064 0.3355118 0.351518 0.5142303 -0.21393487 0.3727911
-0.10712098 0.48157763 -0.20918003 0.392931 0.43373275 0.32822612 -0.20109342 0.40251288
-0.3395427 0.39876106 0.26219565 -0.38682544 0.49459517 -0.32676804 0.3582131 0.43011537
0.42084178 -0.2111416 -0.30082187 0.37087232 0.48203805 -0.17352064 -0.4045746 0.38941067
-0.30122137 -0.26421928 0.42345852 -0.31734094 -0.309971 0.40193206 -0.3928057 -0.23678221
-0.28905764 -0.20324804 -0.10711196 -0.2044065 -0.348653 -0.40493932 -0.3529591 0.4203275
-0.34837028 -0.30413425 0.41995043 0.40227205 0.3185392 0.17582178 0.46725473 0.35439172
0.4272374 -0.19044298 -0.37614062 0.40989137 0.40694863 0.40764642 -0.38415372 0.27471694
0.433074 -0.37285864 -0.3384184 0.4850689 0.35798204 -0.33756092 -0.10343186 0.37325293
0.49465105 0.48306656 -0.5158655 -0.3581926 0.19074263 0.34898508 0.3146897 -0.3528678
0.32202527 0.39707547 -0.33176887 -0.18013237 0.42841908 0.39676046 -0.2316454 -0.30160716
-0.19729011 0.31673154 0.36631295 0.38659003 -0.22317877 0.48622817 -0.26292843 0.41053733
-0.16349697 -0.30514088 0.45553207 0.48383585 0.38658437 0.3392084 -0.2311849 0.24882868
0.30393627 0.26409414 0.3074773 0.085577354 -0.36583114 -0.37019452 -0.3739683 0.14107028
0.3712374 -0.32564458 -0.33870956 0.6236512 0.4753396 0.43818432 0.4646854 0.3969874
