Data/Player1/checkpoint-advTest9.pth (torch, 364883 bytes, 28 tensors)

linear1.weight f4 [128, 34]
0.1801086 -0.04272519 -0.10685649 0.20236742 0.16791818 0.20998749 0.0053562187 0.0029299478
0.26142627 -0.12287174 -0.28446633 -0.04584811 0.15608157 0.20308742 -0.16818604 0.25595492
-0.13973546 0.179874 -0.02490672 0.15122096 -0.024763199 -0.31506756 0.10183434 0.10884797
0.16956781 -0.03249022 0.24676797 0.0061365203 -0.25404328 -0.06395673 0.028979141 -0.5792989
0.14088671 0.08610535 -0.17245035 -0.055825237 0.41335857 0.6600411 0.6014456 0.051435214
-0.01391369 -0.01142458 0.7585907 0.29076475 -0.1270926 0.07286361 0.121803515 -0.22527358
-0.1827036 0.09636708 0.19935998 0.039603896 -0.11211333 -0.19790268 0.44227105 -0.043252043
0.11715864 -0.12316702 -0.048254292 0.00889271 -0.03858784 -0.21342118 -0.3058543 -0.400965
-0.034595106 0.0079593025 0.03537572 0.04750898 0.4054551 -0.15581359 -0.17275342 0.23902413
0.03152026 -0.11129688 -0.20502897 -0.031840943 -0.34775612 0.07125088 0.3602716 0.14456509
-0.053844064 -0.3079551 -0.12646952 0.09733445 -0.48787755 -0.08009576 -0.2414191 -0.086746514
-0.21920972 -0.1349724 -0.040147077 -0.050983362 0.21587059 -0.16789685 0.2294945 -0.05553873
0.13809627 0.027453365 0.1212658 -0.12915812 -0.16031313 -0.15075694 0.08977251 0.3095567
0.14520384 0.055504806 0.18952066 -0.0887789 -0.036592565 0.42357177 0.5392387 0.036754407
0.038032997 0.010783681 0.25752556 0.14593466 0.09805975 0.083651066 0.006136959 -0.36138102
0.18868057 -0.6815955 -0.067997985 0.09566738 -0.3242051 -0.16180387 0.06516532 -0.14305012
-0.32377976 0.3382619 -0.054413397 0.08666397 -0.04022095 0.034002572 -0.057516366 0.028301265
0.49824116 0.35043308 0.07489617 0.46052158 0.045012042 0.11206213 -0.10294494 0.210749
0.13472326 0.15619482 0.119938694 0.27541596 0.40671405 0.16899283 0.05624075 -0.08658879
0.1421242 -0.13285342 0.023516797 -0.34924498 -0.11199719 -0.055600934 -0.029424388 -0.08318496
-0.04313365 0.053017855 -0.2078301 0.39740285 -0.0768406 0.3728911 -0.09030046 0.1299775
-0.06403498 -0.012558599 -0.14700793 0.303056 -0.05828907 0.21384825 0.16982892 0.11368627
0.25719157 0.04105359 -0.1242317 -0.10035524 0.25384653 0.39357862 -0.21322787 -0.3042117
-0.25178275 0.42403555 0.17527296 0.28814024 -0.020108547 0.0056579527 0.04787001 0.10552074
-0.08413787 -0.26532203 0.062598154 0.12395494 0.0008177957 -0.26184106 -0.14124013 0.12571967
-0.36739236 -0.33893198 0.0023829262 0.121286206 -0.0078863865 -0.019206941 -0.13636874 0.25300157
0.085660174 0.29780737 0.14942232 0.28517354 -0.19919425 -0.07872233 0.03419911 -0.17827517
0.29699537 0.08942258 0.75401163 0.3601613 0.07989039 -0.13273245 0.04491484 0.31236222
-0.18462569 -0.047019955 -0.029967804 -0.1647896 0.017879974 0.20331067 -0.6753511 0.59008074
-0.09177916 -0.1829941 0.18933222 -0.05547885 0.09147573 -0.24931742 0.060514707 0.16078427
0.35023478 -0.08097249 0.19039018 -0.109281234 -0.14965312 0.081969224 -0.22172186 0.2995386
0.020159729 -0.33926326 0.31801084 0.5717653 -0.3990093 -0.0726229 -0.11292671 -0.081449695
00000000: 646e 383e 9c00 2fbd 93d7 dabd 6839 4f3e
00000010: bef2 2b3e f606 573e 3883 af3b 5e04 403b
00000020: aad9 853e 2ea4 fbbd 92a5 91be 3acb 3bbd
00000030: d9d3 1f3e 26f6 4f3e f638 2cbe 860c 833e
00000040: d016 0fbe e430 383e 2d09 ccbc abd9 1a3e
00000050: 31dc cabc 8950 a1be 868e d03d afeb de3d
00000060: 2fa3 2d3e 7714 05bd beb0 7c3e dd14 c93b
00000070: f611 82be bffb 82bd aa65 ed3c ef4c 14bf
00000080: 9b44 103e 0058 b03d d396 30be 01a9 64bd
00000090: bca3 d33e 74f8 283f 57f8 193f bbad 523d
000000a0: 3ff6 63bc 292e 3bbc 0033 423f 1edf 943e
000000b0: 9024 02be 8439 953d 1f74 f93d 1eae 66be
000000c0: a716 3bbe 1b5c c53d 0625 4c3e b237 223d
000000d0: ac9b e5bd 00a7 4abe 5a71 e23e 0e29 31bd
000000e0: def0 ef3d fe3e fcbd 4ba6 45bd bbb2 113c
000000f0: 480e 1ebd 158b 5abe ef98 9cbe 494b cdbe
00000100: 99b3 0dbd bc67 023c 22e6 103d c798 423d
00000110: d097 cf3e 998d 1fbe 46e6 30be bec2 743e
00000120: 631b 013d 9eef e3bd 1df3 51be a66b 02bd
00000130: 170d b2be fbeb 913d 8575 b83e df08 143e
00000140: 988b 5cbd 4aac 9dbe 3a81 01be 4957 c73d
00000150: 16cb f9be 3f09 a4bd 9236 77be 28a8 b1bd
00000160: 8378 60be 3436 0abe 4371 24bd eed3 50bd
00000170: 2e0d 5d3e 27ed 2bbe 9b00 6b3e 947c 63bd
00000180: 1c69 0d3e e1e5 e03c 345a f83d 0742 04be
00000190: 2029 24be 0760 1abe a6da b73d 377e 9e3e
000001a0: 51b0 143e 0259 633d b411 423e b6d1 b5bd
000001b0: 16e2 15bd 66de d83e 8c0b 0a3f ca8b 163d
000001c0: 7dc8 1b3d 09ae 303c 64da 833e e56f 153e
000001d0: 8dd3 c83d 4051 ab3d 8b18 c93b ef06 b9be
000001e0: 7b35 413e 0b7d 2ebf 8742 8bbd 42ed c33d
000001f0: 36fe a5be eaaf 25be 6575 853d bb7b 12be
00000200: 76c6 a5be aa30 ad3e 95e0 5ebd e17c b13d
00000210: b9be 24bd 4846 0b3d 4896 6bbd 0ed8 e73c
00000220: 7719 ff3e f76b b33e 2a63 993d 7cc9 eb3e
00000230: 8c5e 383d d480 e53d ccd4 d2bd 96ce 573e
00000240: e5f4 093e 89f1 1f3e 6ba2 f53d 5203 8d3e
00000250: d33c d03e 750c 2d3e b35c 663d 7755 b1bd
00000260: 0289 113e ba0a 08be 4ca6 c03c 3dd0 b2be
00000270: c85e e5bd cebd 63bd 6a0b f1bc e05c aabd
00000280: e9ac 30bd 4029 593d 6ad1 54be 6378 cb3e
00000290: 9b5e 9dbd 95eb be3e 73ef b8bd d218 053e
000002a0: c624 83bd 95c2 4dbc 3f89 16be 282a 9b3e
000002b0: 85c0 6ebd 09fb 5a3e a2e7 2d3e 59d4 e83d
000002c0: 9dae 833e cf27 283d 316d febd 0c87 cdbd
000002d0: 2cf8 813e 2383 c93e 6858 5abe a3c1 9bbe
000002e0: abe9 80be 301b d93e c17a 333e 1e87 933e
000002f0: aeba a4bc 5966 b93b 5813 443d 421b d83d
00000300: 7a50 acbd 4ad8 87be 7633 803d 16dc fd3d
00000310: 5761 563a 0810 86be 41a1 10be a8bc 003e
00000320: da1a bcbe 7e88 adbe de2a 1c3b e764 f83d
00000330: e735 01bc e057 9dbc 3fa4 0bbe 6c89 813e
00000340: 9a6e af3d 357a 983e 2a02 193e 4402 923e
00000350: 94f9 4bbe 2c39 a1bd 5e14 0c3d c48d 36be
00000360: c70f 983e 3023 b73d e806 413f 1067 b83e
00000370: 939d a33d 04eb 07be a0f8 373d f1ed 9f3e
00000380: 840e 3dbe ff97 40bd 0a7f f5bc 9bbe 28be
00000390: 0679 923c ac30 503e cfe3 2cbf 880f 173f
000003a0: b6f6 bbbd ce62 3bbe 4ee0 413e ca3d 63bd
000003b0: a157 bb3d 114d 7fbe 45de 773d a2a4 243e
000003c0: f951 b33e e8d4 a5bd a5f5 423e d7ce dfbd
000003d0: ab3e 19be 7bdf a73d 0e0b 63be 205d 993e
000003e0: 0426 a53c eab3 adbe 51d2 a23e 365f 123f
000003f0: f24a ccbe 51bb 94bd 1e46 e7bd 19cf a6bd

linear1.bias f4 [128]
0.22241713 0.14717622 0.042283442 0.10049903 0.063526064 0.09048049 -0.10729926 0.12959756
0.20655897 0.08390679 0.08382269 0.17421043 -0.07161481 -0.06231537 0.05045401 0.0670423
-0.09442794 -0.094780326 -0.3048855 -0.020572392 0.25202012 0.12086664 -0.15068084 -0.09892021
0.04944025 -0.14283337 -0.13828287 0.09542043 -0.25899833 -0.029983968 -0.045069568 -0.27858147
-0.05858961 0.33708543 0.0020288855 -0.025435867 -0.009801487 0.19282375 0.22906524 0.07156554
0.33906767 -0.03618535 0.07371868 0.27785155 0.38313067 -0.04032461 0.19736452 -0.12065587
-0.10389041 0.012471203 -0.27590382 0.1144751 0.06453578 -0.12684578 -0.23547855 -0.08467071
-0.060404442 -0.07153657 0.35925692 -0.14591312 0.022658102 0.36348605 -0.2755934 0.21542636
-0.35374612 0.4926527 0.13348255 -0.2266783 0.04740404 0.013153706 -0.24998018 -0.03386246
-0.20427087 -0.2346472 0.08536416 0.059333935 -0.013271584 0.09592216 0.13612533 -0.35297823
0.06202061 -0.020948268 0.1451536 0.28652522 0.35006118 -0.11638451 0.37482414 -0.31882185
-0.14367276 -0.17501487 -0.082604654 -0.29284397 -0.34656972 0.24977459 0.07444224 -0.27892265
-0.15390798 -0.077344835 0.3034627 -0.064469256 0.18456928 -0.12017508 -0.12655398 -0.21844631
0.16365391 -0.16560356 0.110959105 -0.04972634 0.0018562766 0.059581034 -0.029099902 0.17197388
0.0032229898 -0.03532427 -0.21281762 -0.019994047 -0.15929659 0.3390674 -0.0038416116 0.023290254
-0.37418157 0.07128149 0.09424796 -0.15364194 0.029185748 0.037853476 -0.1705432 -0.15426837
00000000: 51c1 633e 5db5 163e 6731 2d3d 6fd2 cd3d
00000010: f419 823d d64d b93d b7bf dbbd 39b5 043e
00000020: 3284 533e 53d7 ab3d 3bab ab3d 3864 323e
00000030: c9aa 92bd 673e 7fbd dda8 4e3d 794d 893d
00000040: 7063 c1bd 301c c2bd f419 9cbe 6f87 a8bc
00000050: c808 813e ee88 f73d 144c 1abe ae96 cabd
00000060: dc81 4a3d e942 12be 069a 0dbe c96b c33d
00000070: 6e9b 84be f0a0 f5bc de9a 38bd 3ba2 8ebe
00000080: a9fb 6fbd 7696 ac3e 0df7 043b e15e d0bc
00000090: 6b96 20bc 9773 453e 1490 6a3e f490 923d
000000a0: 479a ad3e 1737 14bd d2f9 963d 8f42 8e3e
000000b0: b429 c43e 6b2b 25bd ed19 4a3e 6d1a f7bd
000000c0: 7fc4 d4bd 0454 4c3c 4443 8dbe ec71 ea3d
000000d0: 562b 843d dce3 01be 4a21 71be d667 adbd
000000e0: a66a 77bd c481 92bd 86f0 b73e 406a 15be
000000f0: 7c9d b93c d81a ba3e 941a 8dbe ba98 5c3e
00000100: 361e b5be fa3c fc3e a6af 083e 5b1e 68be
00000110: bd2a 423d a482 573c cefa 7fbe 5db3 0abd
00000120: 622c 51be 5b47 70be 68d3 ae3d 2408 733d
00000130: 0f71 59bc d672 c43d 7064 0b3e 90b9 b4be
00000140: 5309 7e3d b49b abbc 25a3 143e 6fb3 923e
00000150: 383b b33e 015b eebd f3e8 bf3e 9e3c a3be
00000160: f41e 13be 1937 33be a12c a9bd a5ef 95be
00000170: 9671 b1be e9c4 7f3e 2c75 983d f3ce 8ebe
00000180: 0e9a 1dbe f866 9ebd 775f 9b3e 7508 84bd
00000190: bbff 3c3e 5a1e f6bd 5e97 01be 64b0 5fbe
000001a0: e494 273e fb93 29be 873e e33d d9ad 4bbd
000001b0: 4f4e f33a 3e0b 743d eb62 eebc ec19 303e
000001c0: cc38 533b 2fb0 10bd ddec 59be 8eca a3bc
000001d0: a51e 23be 3e9a ad3e 8cc3 7bbb 34cb be3c
000001e0: ba94 bfbe 08fc 913d 1305 c13d 5054 1dbe
000001f0: f316 ef3c 3f0c 1b3d e0a2 2ebe 87f8 1dbe

linear2.weight f4 [128, 128]
0.03749222 -0.032793686 -0.17543413 0.051227767 -0.12799324 0.017141324 0.13467547 -0.10238385
0.009412222 -0.43399614 -0.051401112 -0.13508543 -0.06952801 -0.003470538 -0.24874729 -0.054288004
0.02356781 0.21718825 0.081648536 -0.14977197 -0.15656374 -0.07546315 -0.3112745 0.10815004
-0.0103851715 -0.056952804 -0.20717654 0.011322081 0.11559634 -0.047527988 -0.16824661 -0.013958371
0.039203387 0.17656083 -0.35713792 -0.04475133 -0.14360222 -0.18508393 0.2180193 -0.2633663
-0.21059416 0.07636755 -0.36029214 -0.31360155 -0.10561211 -0.027864136 0.031749245 -0.17330307
-0.009231818 -0.14515004 -0.06052722 -0.20869601 -0.08602266 -0.15899095 -0.14908452 -0.093972936
-0.054177396 0.05064983 -0.095237635 -0.0535539 -0.06341722 -0.0987886 -0.15174122 -0.11549601
0.07675654 -0.16479135 0.064499706 -0.09538576 -0.16408189 -0.15482317 -0.068729945 -0.019729884
-0.1287381 0.14818683 -0.1669545 -0.22361714 0.1893611 -0.20146607 -0.21413434 0.06561571
-0.22334518 0.006698813 -0.080878645 -0.0040911958 0.035021167 -0.007812929 0.13702933 -0.025836037
-0.092538744 0.09630277 0.0063950014 0.0028635869 0.029255703 -0.07622431 0.12918127 -0.22443607
-0.018539742 0.36352053 -0.03872947 -0.121696025 -0.24550928 0.14059035 -0.20234631 -0.047532987
-0.32259142 -0.01848674 0.122398555 -0.18428418 -0.1422363 0.08783129 -0.0061407853 -0.17321248
0.057093505 0.30442417 -0.15989536 -0.049843647 -0.088996604 -0.29766732 -0.0075807967 -0.4164556
-0.18703379 -0.1649793 0.032725517 0.11854102 -0.1719743 -0.21217017 0.027091675 -0.5043652
0.10931656 -0.15842743 -0.10874895 0.093160234 0.05236936 0.24874555 0.027768942 0.11700421
0.05529977 -0.3490138 0.021951286 0.18548916 -0.006881763 0.07361849 -0.1442721 0.33479345
0.05817213 -0.012488783 -0.11469124 -0.24054883 0.25818002 -0.14874078 0.19877322 -0.031974047
-0.13814469 -0.20254621 0.34426644 0.010810118 0.079675 -0.11707676 -0.013284739 0.08946596
0.1119978 0.049684376 -0.012793697 -0.2009821 -0.07343201 0.101721466 -0.45028493 0.08794871
-0.051005974 0.05369718 -0.07000068 -0.22881947 -0.0077482467 -0.15489388 0.09000546 0.105714224
0.093322106 0.16969457 -0.060728166 0.17734294 0.05253526 -0.32189408 -0.17551407 0.22578758
-0.3952488 -0.11799839 -0.036825914 0.1538138 -0.11443422 -0.06538634 -0.27122408 -0.20605819
0.11844036 0.08894757 0.027162034 -0.14053644 0.03563762 0.19946247 -0.26494128 0.043382537
-0.19799621 -0.26855394 -0.077882156 -0.16559437 0.29655087 0.061600212 0.046629373 0.046043642
-0.010765454 0.0153654935 -0.17822543 0.01413261 -0.04231904 -0.29647884 -0.14403477 -0.20868242
0.13335851 -0.095452785 -0.11867337 0.0058014835 -0.008238504 -0.13612367 -0.19342504 -0.17687939
-0.10885528 -0.19136274 0.039445136 -0.37974462 -0.10242927 -0.07856484 -0.15554863 0.32030308
0.15216999 0.23404206 -0.09883011 0.08984525 -0.01577588 -0.105757385 -0.3154318 0.1864154
-0.22957115 -0.1518453 -0.15377048 -0.373644 -0.16946912 -0.16553569 -0.27766576 0.12285866
0.1430509 -0.093369484 -0.03814849 -0.205748 -0.025498701 -0.0486684 0.11867353 0.27327025
00000000: 7191 193d ac52 06bd 01a5 33be 35d4 513d
00000010: a910 03be f66b 8c3c 5ee8 093e a0ae d1bd
00000020: b835 1a3c be34 debe f989 52bd d653 0abe
00000030: b464 8ebd f771 63bb 9cb7 7ebe 195d 5ebd
00000040: 4811 c13c 9966 5e3e 5937 a73d d35d 19be
00000050: 3f52 20be 6d8c 9abd 5f5f 9fbe c57d dd3d
00000060: 9126 2abc 5847 69bd 1626 54be 4080 393c
00000070: c6bd ec3d b5ac 42bd d748 2cbe a7b1 64bc
00000080: bb93 203d 5dcc 343e c8da b6be 2c4d 37bd
00000090: 760c 13be a486 3dbe 7440 5f3e f3d7 86be
000000a0: ffa5 57be 9766 9c3d 3678 b8be 6290 a0be
000000b0: 294b d8bd 5443 e4bc 7f0b 023d 5c76 31be
000000c0: 0d41 17bc 36a2 14be 64eb 77bd 68b4 55be
000000d0: a62c b0bd 86ce 22be 9da9 18be e274 c0bd
000000e0: 1ee9 5dbd 3276 4f3d f30b c3bd 565b 5bbd
000000f0: e3e0 81bd ad51 cabd 0d62 1bbe 2c89 ecbd
00000100: 8832 9d3d 10bf 28be 6c18 843d 9c59 c3bd
00000110: 1505 28be f789 1ebe 49c2 8cbd 91a0 a1bc
00000120: ecd3 03be 4abe 173e 1ff6 2abe e4fb 64be
00000130: e0e7 413e 1f4d 4ebe 0846 5bbe 8861 863d
00000140: 99b4 64be b781 db3b b4a3 a5bd 700f 86bb
00000150: 5b72 0f3d cd01 00bc 6b51 0c3e 19a6 d3bc
00000160: f484 bdbd 633a c53d 298d d13b 04ab 3b3b
00000170: a8a9 ef3c 7e1b 9cbd 1848 043e 92d2 65be
00000180: a8e0 97bc 5d1f ba3e cba2 1ebd c43b f9bd
00000190: c966 7bbe ebf6 0f3e df33 4fbe f3b1 42bd
000001a0: b42a a5be 8171 97bc 18ac fa3d feb4 3cbe
000001b0: 65a6 11be e4e0 b33d a438 c9bb 9d5e 31be
000001c0: e1da 693d 7cdd 9b3e 9cbb 23be da28 4cbd
000001d0: da43 b6bd da67 98be 5568 f8bb ab39 d5be
000001e0: c985 3fbe 55f0 28be 310b 063d a2c5 f23d
000001f0: 081a 30be 2343 59be 5cef dd3c 141e 01bf
00000200: 5ce1 df3d cd3a 22be c5b7 debd cbca be3d
00000210: 4181 563d 27b7 7e3e b17b e33c e79f ef3d
00000220: 0382 623d f0b1 b2be 2fd3 b33c dff0 3d3e
00000230: 6a80 e1bb 4ac5 963d 11bc 13be 0c6a ab3e
00000240: e645 6e3d c19d 4cbc 3ee3 eabd 6f52 76be
00000250: 2c30 843e 814f 18be 358b 4b3e 38f7 02bd
00000260: cd75 0dbe 4668 4fbe b143 b03e ec1c 313c
00000270: a52c a33d f1c5 efbd 3ca8 59bc ee39 b73d
00000280: 1a5f e53d d881 4b3d a89c 51bc 40ce 4dbe
00000290: 8663 96bd 5853 d03d bf8b e6be 741e b43d
000002a0: a4eb 50bd 93f1 5b3d 845c 8fbd a74f 6abe
000002b0: 01e5 fdbb 809c 1ebe c854 b83d b380 d83d
000002c0: a91f bf3d 6ac4 2d3e 19be 78bd 6399 353e
000002d0: 362f 573d 4dcf a4be f6b9 33be dc34 673e
000002e0: 0d5e cabe 24a9 f1bd c5d6 16bd 5d81 1d3e
000002f0: 7d5c eabd 46e9 85bd e2dd 8abe eb00 53be
00000300: dc90 f23d 252a b63d ea82 de3c c9e8 0fbe
00000310: c1f8 113d e43f 4c3e 62a6 87be e3b1 313d
00000320: 85bf 4abe e77f 89be ae80 9fbd 9291 29be
00000330: 84d5 973e 8150 7c3d 71fe 3e3d 4298 3c3d
00000340: 9661 30bc 8dbf 7b3c ba80 36be 768c 673c
00000350: bb56 2dbd 13cc 97be da7d 13be d8b0 55be
00000360: 228f 083e c07c c3bd 060b f3bd 5f1a be3b
00000370: cafa 06bc 0164 0bbe 3711 46be df1f 35be
00000380: 84ef debd 98f4 43be 3991 213d e36d c2be
00000390: 70c6 d1bd 9ae6 a0bd 2448 1fbe c4fe a33e
000003a0: 73d2 1b3e b9a8 6f3e 7167 cabd c900 b83d
000003b0: 6b3c 81bc 5497 d8bd 4780 a1be aee3 3e3e
000003c0: b314 6bbe 567d 1bbe 0276 1dbe 444e bfbe
000003d0: 5089 2dbe 3082 29be 352a 8ebe 529d fb3d
000003e0: ef7b 123e 8038 bfbd 9741 1cbd 9baf 52be
000003f0: a7e2 d0bc 8458 47bd 1c0b f33d 14ea 8b3e

linear2.bias f4 [128]
0.003397836 0.0001652115 -0.010000644 -0.27263334 -0.0033961737 0.1771327 0.0877174 0.16873224
-0.19810955 0.32416746 0.19900268 -0.35226452 0.028931981 -0.08266016 0.1760415 0.25743675
-0.057328377 0.4203569 -0.52491957 0.00027156709 -0.25378492 -0.049671024 -0.011540378 -0.55491334
0.41131416 -0.050826628 -0.012836676 -0.16119541 -0.2480018 -0.14239442 -0.06582372 -0.17699115
0.04534829 -0.008197754 -0.22892773 -0.09681675 0.061666016 0.42849067 0.20790033 0.2267586
-0.2904662 0.05686304 -0.25614086 0.27030224 -0.35523516 -0.15807338 -0.25048742 -0.40668753
-0.1540576 -0.38960728 -0.2454657 -0.22340396 0.23171318 -0.30619913 0.14747997 0.0033282794
-0.31504667 0.35687447 0.276671 0.22652999 -0.037872497 -0.060921818 -0.42480072 0.3252624
-0.03451408 -0.21497174 -0.0021096505 -0.35959104 -0.03669888 -0.12558772 0.33913448 0.13690478
0.31305867 0.15529609 0.37190917 -0.1703949 -0.15015675 0.050450314 -0.12047846 0.31721038
0.079157025 0.16164786 -0.4494943 0.082020804 0.00036034774 0.1748667 -0.058640443 0.25086984
0.09252814 -0.06301886 0.110564664 -0.17249608 0.03640978 -0.049492043 -0.26486427 -0.0240841
0.037268817 -0.37752566 -0.11893619 -0.1303212 -0.13266814 -0.06511011 0.05549272 0.16664836
0.09099001 0.4464912 0.1833134 0.13135754 -0.21463116 0.024717849 -0.13018428 -0.049193803
0.2785737 0.001925492 -0.041424673 0.2004292 0.06540737 -0.24312639 -0.17318371 0.1885432
-0.23172434 -0.30508822 0.28657392 -0.12133939 -0.014791983 -0.17919832 -0.22696665 -0.007228518
00000000: 3aae 5e3b a03c 2d39 bed9 23bc 9996 8bbe
00000010: 5792 5ebb 4662 353e 2ea5 b33d 25c8 2c3e
00000020: 3bdd 4abe 47f9 a53e 5cc7 4b3e 045c b4be
00000030: c302 ed3c bb49 a9bd 3944 343e c0ce 833e
00000040: 29d1 6abd 0539 d73e 2161 06bf 1e61 8e39
00000050: 19f0 81be d873 4bbd db13 3dbc cd0e 0ebf
00000060: c597 d23e 952f 50bd ec50 52bc 6910 25be
00000070: 2ff4 7dbe d8cf 11be 96ce 86bd 2b3d 35be
00000080: 21bf 393d df4f 06bc 086c 6abe dc47 c6bd
00000090: 8195 7c3d 2163 db3e d3e3 543e 6833 683e
000000a0: fcb7 94be 38e9 683d e524 83be 0e65 8a3e
000000b0: 62e1 b5be fddd 21be e33f 80be 5939 d0be
000000c0: 47c1 1dbe 9b7a c7be 5c5b 7bbe 02c4 64be
000000d0: 3846 6d3e 22c6 9cbe fd04 173e 431f 5a3b
000000e0: cc4d a1be 40b8 b63e d2a7 8d3e 7af7 673e
000000f0: 3120 1bbd 2889 79bd 7b7f d9be cb88 a63e
00000100: a35e 0dbd 8d21 5cbe 1042 0abb 511c b8be
00000110: 9151 16bd 119a 00be 09a3 ad3e c430 0c3e
00000120: 3a49 a03e f005 1f3e e16a be3e 007c 2ebe
00000130: b1c2 19be fda4 4e3d 69bd f6bd 6669 a23e
00000140: 141d a23d 0487 253e 1e24 e6be 86fa a73d
00000150: 0eed bc39 4210 333e f630 70bd 0372 803e
00000160: 657f bd3d 0810 81bd ba6f e23d d0a2 30be
00000170: 6c22 153d 2bb8 4abd 4a9c 87be 054c c5bc
00000180: 30a7 183d 0b4b c1be d194 f3bd ec72 05be
00000190: 28da 07be 7358 85bd 564c 633d dea5 2a3e
000001a0: f858 ba3d 7f9a e43e 82b6 3b3e 9782 063e
000001b0: 45c8 5bbe 167d ca3c 074f 05be 717f 49bd
000001c0: 36a1 8e3e ca60 fc3a ebac 29bd 503d 4d3e
000001d0: 4df4 853d 20f6 78be 1257 31be 7811 413e
000001e0: 2549 6dbe 8634 9cbe d1b9 923e c980 f8bd
000001f0: 135a 72bc c47f 37be f269 68be 34dd ecbb

linear3.weight f4 [64, 128]
0.21353328 0.21895361 0.019137489 -0.0031837383 -0.38528615 0.19457453 0.18278508 0.16673884
-0.25205067 0.059289448 0.21020325 -0.011333271 -0.093720615 -0.21050464 0.049856693 0.05575974
-0.42845815 0.07804215 -0.07755928 0.122317515 -0.12884521 -0.33724916 -0.007526726 -0.07104417
0.122671224 -0.1584473 -0.13518287 -0.36935705 -0.05288207 -0.16739362 0.02739799 -0.032002494
0.11239008 0.15310015 -0.12467554 -0.0736158 -0.011954987 0.13099374 0.159927 -0.019159058
-0.08965871 -0.07850669 -0.10342361 -0.014353992 -0.08355375 -0.1510222 -0.015721174 -0.020662075
-0.3508208 -0.1314183 -0.04461134 -0.14317255 0.012691655 -0.037982043 0.22880556 -0.013595811
0.03728685 -0.1089237 0.07894623 -0.18066134 -0.05521787 0.06484757 -0.13899697 0.1228353
-0.3896259 -0.4815126 -0.37475073 -0.080768436 -0.12238285 0.191428 -0.033923373 -0.05080149
0.026352424 -0.0020395233 0.10637882 -0.10797627 -0.28834626 -0.09746171 -0.067554824 0.22677702
-0.05087466 -0.1664674 -0.1652005 -0.06307363 -0.013967607 0.1579266 -0.09964803 0.193486
0.32774547 -0.057328667 -0.021975882 -0.16125582 -0.059444375 -0.14252992 0.009398027 -0.15639733
0.119296506 -0.09042557 -0.044864554 -0.18435733 -0.07399678 -0.14149797 0.11302523 0.39519516
0.18413144 0.07759124 0.14955449 -0.1725899 0.0137848845 0.08225196 -0.3289601 -0.021292955
0.0006558826 -0.15372922 -0.21588276 -0.16278265 0.113673426 -0.16026944 -0.32633942 0.08356649
-0.44330424 -0.21249065 0.003559827 -0.02120686 -0.15108953 -0.0526166 -0.0745481 -0.0946518
0.044072494 -0.10976743 -0.13127403 -0.052775644 0.18495539 0.04754289 -0.09595452 -0.34006602
-0.18477874 0.07504447 -0.06752883 0.02486458 -0.044992484 0.028687483 -0.12379995 -0.25755644
-0.118239745 -0.15621746 -0.05644417 -0.15476646 0.19490539 0.2907899 0.03048456 -0.029892989
-0.11123374 0.4281888 -0.019035876 0.45088428 0.2889198 -0.094943486 -0.21772787 0.048492774
0.017676044 -0.12112945 0.091796726 0.072073765 0.101759546 -0.10009203 -0.17944661 -0.109165356
0.0050037787 -0.121329725 -0.041362397 0.019995354 0.011628082 0.011973675 -0.035451174 -0.06846541
-0.14223172 -0.050863955 0.10143819 -0.1614235 0.11294996 -0.0013182289 -0.2829934 -0.14421453
-0.08480084 0.036800593 0.023909032 -0.2492965 0.17219755 0.07838223 -0.028589435 0.20225213
-0.044346508 -0.10756377 -0.056806248 0.06118569 -0.12535885 0.3251572 0.024137888 0.0096983565
0.11489341 -0.112389795 -0.03601062 -0.040533252 -0.043685135 0.08486506 -0.14842166 0.02658027
-0.25462514 0.013565919 -0.058627356 0.025166862 -0.14992827 -0.068352126 0.12245014 -0.18771127
-0.01592462 -0.039117508 0.030193428 0.041745346 0.12913643 -0.13708292 0.04074309 -0.014696486
-0.04370286 -0.07434818 -0.016644686 -0.27860948 -0.020291585 -0.01666562 -0.16794549 -0.19757499
0.0012199517 0.030048592 -0.39645714 -0.00065574475 0.16939321 0.14257638 0.057894625 0.010945658
-0.31713042 0.059959438 -0.098939374 -0.13015096 0.13325287 -0.027240774 -0.013287942 -0.0005816773
0.09121396 0.07846938 -0.35123494 0.07550054 -0.091804124 0.090559535 0.018378133 0.07893568
00000000: 78a8 5a3e 6035 603e 39c6 9c3c 44a6 50bb
00000010: 3a44 c5be 8c3e 473e 032c 3b3e 96bd 2a3e
00000020: c90c 81be 7ed9 723d 853f 573e 2faf 39bc
00000030: 98f0 bfbd 878e 57be 8836 4c3d 5364 643d
00000040: de5e dbbe 90d4 9f3d 66d7 9ebd 9b81 fa3d
00000050: 00f0 03be ecab acbe c1a2 f6bb 9b7f 91bd
00000060: 0d3b fb3d 0240 22be 616d 0abe 5e1c bdbe
00000070: df9a 58bd 3c69 2bbe c071 e03c 0c15 03bd
00000080: c52c e63d 49c6 1c3e e455 ffbd e1c3 96bd
00000090: dade 43bc 3923 063e e7c3 233e 75f3 9cbc
000000a0: fc9e b7bd 1ec8 a0bd c2cf d3bd 022d 6bbc
000000b0: 3a1e abbd 90a5 1abe b1c9 80bc 8343 a9bc
000000c0: c99e b3be 8592 06be 61ba 36bd d39b 12be
000000d0: a9f0 4f3c 0f93 1bbd 014c 6a3e f7c0 5ebc
000000e0: 19ba 183d 6413 dfbd 90ae a13d 49ff 38be
000000f0: 222c 62bd cece 843d 3955 0ebe 1391 fb3d
00000100: 0c7d c7be d288 f6be 54df bfbe ec69 a5bd
00000110: dca3 fabd b405 443e 3cf3 0abd 3915 50bd
00000120: 0ae1 d73c 86a9 05bb 24dd d93d aa22 ddbd
00000130: 1fa2 93be 019a c7bd 2f5a 8abd 3c38 683e
00000140: f361 50bd 6e76 2abe 522a 29be bf2c 81bd
00000150: 64d8 64bc 83b7 213e 4414 ccbd 3221 463e
00000160: 41ce a73e 77d1 6abd c406 b4bc 3f20 25be
00000170: f27b 73bd 5df3 11be 2ffa 193c 9f26 20be
00000180: ba51 f43d 0b31 b9bd e5c3 37bd 2bc8 3cbe
00000190: a08b 97bd d8e4 10be c679 e73d 0557 ca3e
000001a0: f48c 3c3e 28e8 9e3d d024 193e 68bb 30be
000001b0: ffd9 613c b773 a83d 756d a8be 906e aebc
000001c0: 89ef 2b3a 316b 1dbe 5f10 5dbe 7fb0 26be
000001d0: 9dcd e83d ac1d 24be f615 a7be e824 ab3d
000001e0: c6f8 e2be 2697 59be fd4b 693b 02ba adbc
000001f0: 37b7 1abe 8184 57bd adac 98bd ced8 c1bd
00000200: 5c85 343d bfcd e0bd b36c 06be 462b 58bd
00000210: f264 3d3e 55bc 423d ce83 c4bd 221d aebe
00000220: a336 3dbe eab0 993d 8e4c 8abd ceb0 cb3c
00000230: 0a4a 38bd 0302 eb3c d48a fdbd 70de 83be
00000240: ae27 f2bd 78f7 1fbe 0132 67bd 197b 1ebe
00000250: 4795 473e 6ae2 943e c2ba f93c 24e2 f4bc
00000260: 84ce e3bd 903b db3e 20f1 9bbc 4eda e63e
00000270: 4ced 933e bb71 c2bd 0ef4 5ebe 5ca0 463d
00000280: 5acd 903c b812 f8bd ecff bb3d 699b 933d
00000290: 4f67 d03d 0dfd ccbd dac0 37be 1692 dfbd
000002a0: bdf6 a33b b87b f8bd 9e6b 29bd 4ccd a33c
000002b0: b683 3e3c 3c2d 443c 4035 11bd 9837 8cbd
000002c0: 31a5 11be b956 50bd d3be cf3d 344c 25be
000002d0: 4f52 e73d 6cc8 acba 83e4 90be f9ac 13be
000002e0: 10ac adbd 38bc 163d e0dc c33c 9547 7fbe
000002f0: 8e54 303e dd86 a03d 6434 eabc 2f1b 4f3e
00000300: afa4 35bd 654a dcbd abad 68bd d99d 7a3d
00000310: 125e 00be 017b a63e d2bc c53c dbe5 1e3c
00000320: 3c4d eb3d 9f2c e6bd df7f 13bd 3206 26bd
00000330: 2fef 32bd bccd ad3d d9fb 17be debe d93c
00000340: 3a5e 82be 9743 5e3c 3d23 70bd bc2a ce3c
00000350: cc86 19be 33fc 8bbd 24c7 fa3d 6237 40be
00000360: 5974 82bc ae39 20bd 3558 f73c 2bfd 2a3d
00000370: 573c 043e 775f 0cbe 3ae2 263d 88c9 70bc
00000380: c501 33bd dc43 98bd 705a 88bc e7a5 8ebe
00000390: 8a3a a6bc 5786 88bc e7f9 2bbe 1951 4abe
000003a0: c9e6 9f3a 7728 f63c 6efc cabe 49e6 2bba
000003b0: 6a75 2d3e 8bff 113e ea22 6d3d 6b55 333c
000003c0: eb5e a2be 0798 753d baa0 cabd 4b46 05be
000003d0: 7173 083e 0b28 dfbc abb5 59bc b47b 18ba
000003e0: 62ce ba3d 8eb4 a03d 11d5 b3be 07a0 9a3d
000003f0: cd03 bcbd 4777 b93d bd8d 963c 08a9 a13d

linear3.bias f4 [64]
0.55782515 -0.076786965 0.09465579 0.12897818 0.40927523 0.22490779 -0.24539658 0.07444997
0.66726696 0.6672663 0.043098293 -0.08059711 0.61502206 0.02778752 -0.024734851 -0.01953083
0.43474343 0.59181726 0.48311445 0.31736305 -0.22844583 0.098560035 0.30516982 0.175939
0.10023434 0.03927434 0.34497273 0.568758 0.6112772 0.051159672 0.17033711 0.10875135
0.57418716 0.12278721 0.09775183 0.2725219 0.1139442 0.42537433 0.5874311 -0.051229518
-0.1801922 -0.29486626 0.50610954 0.52556866 -0.106146365 0.6315288 0.050629582 0.00091353955
-0.1862917 0.61200273 0.27262393 0.40801695 0.10637679 0.44241995 0.13372494 0.046722688
-0.18039456 0.06280149 0.08189284 0.39265242 0.1501605 -0.4300522 0.041989695 0.10931858
00000000: a1cd 0e3f 7c42 9dbd e5da c13d db12 043e
00000010: 868c d13e 3a4e 663e 3e49 7bbe 3a79 983d
00000020: 02d2 2a3f f7d1 2a3f d687 303d 1910 a5bd
00000030: 1672 1d3f a7a2 e33c bea0 cabc 1fff 9fbc
00000040: b196 de3e 5681 173f c75a f73e 697d a23e
00000050: b4ed 69be d8d9 c93d 383f 9c3e 5a29 343e
00000060: a947 cd3d 21de 203d 44a0 b03e 209a 113f
00000070: aa7c 1c3f ce8c 513d da6c 2e3e 07b9 de3d
00000080: eefd 123f dc77 fb3d 1d32 c83d fe87 8b3e
00000090: 945b e93d aaca d93e e261 163f 0bd6 51bd
000000a0: 4e84 38be b6f8 96be 6590 013f ab8b 063f
000000b0: 4463 d9bd dfab 213f f760 4f3d 9a7a 6f3a
000000c0: 40c3 3ebe 36ac 1c3f 5d95 8b3e 99e7 d03e
000000d0: 13dc d93d de84 e23e 31ef 083e 4a60 3f3d
000000e0: 5ab9 38be 119e 803d 6fb7 a73d bd09 c93e
000000f0: adc3 193e cd2f dcbe 63fd 2b3d 6be2 df3d

output.weight f4 [1, 64]
0.20866624 -0.37823498 0.061980553 -0.13770956 0.39259708 0.18141378 -0.26887643 -0.038530223
0.22520976 0.18168925 -0.4585658 0.19207942 0.16015536 -0.119970165 -0.16132517 -0.063196175
0.16994445 0.19077237 0.14900121 0.21817528 -0.22092664 -0.16487707 0.24282825 -0.18158187
-0.09965197 -0.039177623 0.44669992 0.24503285 0.15994903 -0.03982961 -0.10044269 -0.052852955
0.1585753 -0.08823263 0.24816915 0.19014256 -0.17829747 0.18113612 0.48833123 -0.5574404
-0.1795696 -0.33076853 0.19674452 0.38916424 -0.55383533 0.19001473 -0.6734467 -0.09707539
-0.49987456 0.17989238 0.20547679 0.21562862 -0.1616435 0.24107745 0.52447695 -0.12837882
-0.4091052 -0.08011641 -0.13060597 0.3552721 0.19612509 -0.08987126 -0.051849704 -0.10540363
00000000: 9aac 553e 04a8 c1be 52df 7d3d bc03 0dbe
00000010: 7c02 c93e 89c4 393e 2caa 89be ded1 1dbd
00000020: 639d 663e bf0c 3a3e 23c9 eabe 78b0 443e
00000030: c4ff 233e ebb2 f5bd 6d32 25be ff6c 81bd
00000040: eb05 2e3e d559 433e c693 183e 5769 5f3e
00000050: 983a 62be 89d5 28be f8a7 783e 99f0 39be
00000060: 5516 ccbd b778 20bd dab5 e43e e4e9 7a3e
00000070: aec9 233e 6024 23bd e6b4 cdbd 577c 58bd
00000080: 9061 223e 4fb3 b4bd 0e20 7e3e bbb4 423e
00000090: 9d93 36be bf7b 393e 8d06 fa3e 6ab4 0ebf
000000a0: 18e1 37be 7e5a a9be 6577 493e 8940 c73e
000000b0: 27c8 0dbf 3993 423e 0167 2cbf 76cf c6bd
000000c0: 8fef ffbe b535 383e 8268 523e c0cd 5c3e
000000d0: e085 25be 02dd 763e 1f44 063f bd75 03be
000000e0: 3d76 d1be 1314 a4bd 92bd 05be 3ae6 b53e
000000f0: 04d5 483e 6c0e b8bd 5b60 54bd dcdd d7bd

linear1.weight f4 [128, 34]
0.1801086 -0.04272519 -0.10685649 0.20236742 0.16791818 0.20998749 0.0053562187 0.0029299478
0.26142627 -0.12287174 -0.28446633 -0.04584811 0.15608157 0.20308742 -0.16818604 0.25595492
-0.13973546 0.179874 -0.02490672 0.15122096 -0.024763199 -0.31506756 0.10183434 0.10884797
0.16956781 -0.03249022 0.24676797 0.0061365203 -0.25404328 -0.06395673 0.028979141 -0.5792989
0.14088671 0.08610535 -0.17245035 -0.055825237 0.41335857 0.6600411 0.6014456 0.051435214
-0.01391369 -0.01142458 0.7585907 0.29076475 -0.1270926 0.07286361 0.121803515 -0.22527358
-0.1827036 0.09636708 0.19935998 0.039603896 -0.11211333 -0.19790268 0.44227105 -0.043252043
0.11715864 -0.12316702 -0.048254292 0.00889271 -0.03858784 -0.21342118 -0.3058543 -0.400965
-0.034595106 0.0079593025 0.03537572 0.04750898 0.4054551 -0.15581359 -0.17275342 0.23902413
0.03152026 -0.11129688 -0.20502897 -0.031840943 -0.34775612 0.07125088 0.3602716 0.14456509
-0.053844064 -0.3079551 -0.12646952 0.09733445 -0.48787755 -0.08009576 -0.2414191 -0.086746514
-0.21920972 -0.1349724 -0.040147077 -0.050983362 0.21587059 -0.16789685 0.2294945 -0.05553873
0.13809627 0.027453365 0.1212658 -0.12915812 -0.16031313 -0.15075694 0.08977251 0.3095567
0.14520384 0.055504806 0.18952066 -0.0887789 -0.036592565 0.42357177 0.5392387 0.036754407
0.038032997 0.010783681 0.25752556 0.14593466 0.09805975 0.083651066 0.006136959 -0.36138102
0.18868057 -0.6815955 -0.067997985 0.09566738 -0.3242051 -0.16180387 0.06516532 -0.14305012
-0.32377976 0.3382619 -0.054413397 0.08666397 -0.04022095 0.034002572 -0.057516366 0.028301265
0.49824116 0.35043308 0.07489617 0.46052158 0.045012042 0.11206213 -0.10294494 0.210749
0.13472326 0.15619482 0.119938694 0.27541596 0.40671405 0.16899283 0.05624075 -0.08658879
0.1421242 -0.13285342 0.023516797 -0.34924498 -0.11199719 -0.055600934 -0.029424388 -0.08318496
-0.04313365 0.053017855 -0.2078301 0.39740285 -0.0768406 0.3728911 -0.09030046 0.1299775
-0.06403498 -0.012558599 -0.14700793 0.303056 -0.05828907 0.21384825 0.16982892 0.11368627
0.25719157 0.04105359 -0.1242317 -0.10035524 0.25384653 0.39357862 -0.21322787 -0.3042117
-0.25178275 0.42403555 0.17527296 0.28814024 -0.020108547 0.0056579527 0.04787001 0.10552074
-0.08413787 -0.26532203 0.062598154 0.12395494 0.0008177957 -0.26184106 -0.14124013 0.12571967
-0.36739236 -0.33893198 0.0023829262 0.121286206 -0.0078863865 -0.019206941 -0.13636874 0.25300157
0.085660174 0.29780737 0.14942232 0.28517354 -0.19919425 -0.07872233 0.03419911 -0.17827517
0.29699537 0.08942258 0.75401163 0.3601613 0.07989039 -0.13273245 0.04491484 0.31236222
-0.18462569 -0.047019955 -0.029967804 -0.1647896 0.017879974 0.20331067 -0.6753511 0.59008074
-0.09177916 -0.1829941 0.18933222 -0.05547885 0.09147573 -0.24931742 0.060514707 0.16078427
0.35023478 -0.08097249 0.19039018 -0.109281234 -0.14965312 0.081969224 -0.22172186 0.2995386
0.020159729 -0.33926326 0.31801084 0.5717653 -0.3990093 -0.0726229 -0.11292671 -0.081449695
00000000: 646e 383e 9c00 2fbd 93d7 dabd 6839 4f3e
00000010: bef2 2b3e f606 573e 3883 af3b 5e04 403b
00000020: aad9 853e 2ea4 fbbd 92a5 91be 3acb 3bbd
00000030: d9d3 1f3e 26f6 4f3e f638 2cbe 860c 833e
00000040: d016 0fbe e430 383e 2d09 ccbc abd9 1a3e
00000050: 31dc cabc 8950 a1be 868e d03d afeb de3d
00000060: 2fa3 2d3e 7714 05bd beb0 7c3e dd14 c93b
00000070: f611 82be bffb 82bd aa65 ed3c ef4c 14bf
00000080: 9b44 103e 0058 b03d d396 30be 01a9 64bd
00000090: bca3 d33e 74f8 283f 57f8 193f bbad 523d
000000a0: 3ff6 63bc 292e 3bbc 0033 423f 1edf 943e
000000b0: 9024 02be 8439 953d 1f74 f93d 1eae 66be
000000c0: a716 3bbe 1b5c c53d 0625 4c3e b237 223d
000000d0: ac9b e5bd 00a7 4abe 5a71 e23e 0e29 31bd
000000e0: def0 ef3d fe3e fcbd 4ba6 45bd bbb2 113c
000000f0: 480e 1ebd 158b 5abe ef98 9cbe 494b cdbe
00000100: 99b3 0dbd bc67 023c 22e6 103d c798 423d
00000110: d097 cf3e 998d 1fbe 46e6 30be bec2 743e
00000120: 631b 013d 9eef e3bd 1df3 51be a66b 02bd
00000130: 170d b2be fbeb 913d 8575 b83e df08 143e
00000140: 988b 5cbd 4aac 9dbe 3a81 01be 4957 c73d
00000150: 16cb f9be 3f09 a4bd 9236 77be 28a8 b1bd
00000160: 8378 60be 3436 0abe 4371 24bd eed3 50bd
00000170: 2e0d 5d3e 27ed 2bbe 9b00 6b3e 947c 63bd
00000180: 1c69 0d3e e1e5 e03c 345a f83d 0742 04be
00000190: 2029 24be 0760 1abe a6da b73d 377e 9e3e
000001a0: 51b0 143e 0259 633d b411 423e b6d1 b5bd
000001b0: 16e2 15bd 66de d83e 8c0b 0a3f ca8b 163d
000001c0: 7dc8 1b3d 09ae 303c 64da 833e e56f 153e
000001d0: 8dd3 c83d 4051 ab3d 8b18 c93b ef06 b9be
000001e0: 7b35 413e 0b7d 2ebf 8742 8bbd 42ed c33d
000001f0: 36fe a5be eaaf 25be 6575 853d bb7b 12be
00000200: 76c6 a5be aa30 ad3e 95e0 5ebd e17c b13d
00000210: b9be 24bd 4846 0b3d 4896 6bbd 0ed8 e73c
00000220: 7719 ff3e f76b b33e 2a63 993d 7cc9 eb3e
00000230: 8c5e 383d d480 e53d ccd4 d2bd 96ce 573e
00000240: e5f4 093e 89f1 1f3e 6ba2 f53d 5203 8d3e
00000250: d33c d03e 750c 2d3e b35c 663d 7755 b1bd
00000260: 0289 113e ba0a 08be 4ca6 c03c 3dd0 b2be
00000270: c85e e5bd cebd 63bd 6a0b f1bc e05c aabd
00000280: e9ac 30bd 4029 593d 6ad1 54be 6378 cb3e
00000290: 9b5e 9dbd 95eb be3e 73ef b8bd d218 053e
000002a0: c624 83bd 95c2 4dbc 3f89 16be 282a 9b3e
000002b0: 85c0 6ebd 09fb 5a3e a2e7 2d3e 59d4 e83d
000002c0: 9dae 833e cf27 283d 316d febd 0c87 cdbd
000002d0: 2cf8 813e 2383 c93e 6858 5abe a3c1 9bbe
000002e0: abe9 80be 301b d93e c17a 333e 1e87 933e
000002f0: aeba a4bc 5966 b93b 5813 443d 421b d83d
00000300: 7a50 acbd 4ad8 87be 7633 803d 16dc fd3d
00000310: 5761 563a 0810 86be 41a1 10be a8bc 003e
00000320: da1a bcbe 7e88 adbe de2a 1c3b e764 f83d
00000330: e735 01bc e057 9dbc 3fa4 0bbe 6c89 813e
00000340: 9a6e af3d 357a 983e 2a02 193e 4402 923e
00000350: 94f9 4bbe 2c39 a1bd 5e14 0c3d c48d 36be
00000360: c70f 983e 3023 b73d e806 413f 1067 b83e
00000370: 939d a33d 04eb 07be a0f8 373d f1ed 9f3e
00000380: 840e 3dbe ff97 40bd 0a7f f5bc 9bbe 28be
00000390: 0679 923c ac30 503e cfe3 2cbf 880f 173f
000003a0: b6f6 bbbd ce62 3bbe 4ee0 413e ca3d 63bd
000003b0: a157 bb3d 114d 7fbe 45de 773d a2a4 243e
000003c0: f951 b33e e8d4 a5bd a5f5 423e d7ce dfbd
000003d0: ab3e 19be 7bdf a73d 0e0b 63be 205d 993e
000003e0: 0426 a53c eab3 adbe 51d2 a23e 365f 123f
000003f0: f24a ccbe 51bb 94bd 1e46 e7bd 19cf a6bd

linear1.bias f4 [128]
0.22241713 0.14717622 0.042283442 0.10049903 0.063526064 0.09048049 -0.10729926 0.12959756
0.20655897 0.08390679 0.08382269 0.17421043 -0.07161481 -0.06231537 0.05045401 0.0670423
-0.09442794 -0.094780326 -0.3048855 -0.020572392 0.25202012 0.12086664 -0.15068084 -0.09892021
0.04944025 -0.14283337 -0.13828287 0.09542043 -0.25899833 -0.029983968 -0.045069568 -0.27858147
-0.05858961 0.33708543 0.0020288855 -0.025435867 -0.009801487 0.19282375 0.22906524 0.07156554
0.33906767 -0.03618535 0.07371868 0.27785155 0.38313067 -0.04032461 0.19736452 -0.12065587
-0.10389041 0.012471203 -0.27590382 0.1144751 0.06453578 -0.12684578 -0.23547855 -0.08467071
-0.060404442 -0.07153657 0.35925692 -0.14591312 0.022658102 0.36348605 -0.2755934 0.21542636
-0.35374612 0.4926527 0.13348255 -0.2266783 0.04740404 0.013153706 -0.24998018 -0.03386246
-0.20427087 -0.2346472 0.08536416 0.059333935 -0.013271584 0.09592216 0.13612533 -0.35297823
0.06202061 -0.020948268 0.1451536 0.28652522 0.35006118 -0.11638451 0.37482414 -0.31882185
-0.14367276 -0.17501487 -0.082604654 -0.29284397 -0.34656972 0.24977459 0.07444224 -0.27892265
-0.15390798 -0.077344835 0.3034627 -0.064469256 0.18456928 -0.12017508 -0.12655398 -0.21844631
0.16365391 -0.16560356 0.110959105 -0.04972634 0.0018562766 0.059581034 -0.029099902 0.17197388
0.0032229898 -0.03532427 -0.21281762 -0.019994047 -0.15929659 0.3390674 -0.0038416116 0.023290254
-0.37418157 0.07128149 0.09424796 -0.15364194 0.029185748 0.037853476 -0.1705432 -0.15426837
00000000: 51c1 633e 5db5 163e 6731 2d3d 6fd2 cd3d
00000010: f419 823d d64d b93d b7bf dbbd 39b5 043e
00000020: 3284 533e 53d7 ab3d 3bab ab3d 3864 323e
00000030: c9aa 92bd 673e 7fbd dda8 4e3d 794d 893d
00000040: 7063 c1bd 301c c2bd f419 9cbe 6f87 a8bc
00000050: c808 813e ee88 f73d 144c 1abe ae96 cabd
00000060: dc81 4a3d e942 12be 069a 0dbe c96b c33d
00000070: 6e9b 84be f0a0 f5bc de9a 38bd 3ba2 8ebe
00000080: a9fb 6fbd 7696 ac3e 0df7 043b e15e d0bc
00000090: 6b96 20bc 9773 453e 1490 6a3e f490 923d
000000a0: 479a ad3e 1737 14bd d2f9 963d 8f42 8e3e
000000b0: b429 c43e 6b2b 25bd ed19 4a3e 6d1a f7bd
000000c0: 7fc4 d4bd 0454 4c3c 4443 8dbe ec71 ea3d
000000d0: 562b 843d dce3 01be 4a21 71be d667 adbd
000000e0: a66a 77bd c481 92bd 86f0 b73e 406a 15be
000000f0: 7c9d b93c d81a ba3e 941a 8dbe ba98 5c3e
00000100: 361e b5be fa3c fc3e a6af 083e 5b1e 68be
00000110: bd2a 423d a482 573c cefa 7fbe 5db3 0abd
00000120: 622c 51be 5b47 70be 68d3 ae3d 2408 733d
00000130: 0f71 59bc d672 c43d 7064 0b3e 90b9 b4be
00000140: 5309 7e3d b49b abbc 25a3 143e 6fb3 923e
00000150: 383b b33e 015b eebd f3e8 bf3e 9e3c a3be
00000160: f41e 13be 1937 33be a12c a9bd a5ef 95be
00000170: 9671 b1be e9c4 7f3e 2c75 983d f3ce 8ebe
00000180: 0e9a 1dbe f866 9ebd 775f 9b3e 7508 84bd
00000190: bbff 3c3e 5a1e f6bd 5e97 01be 64b0 5fbe
000001a0: e494 273e fb93 29be 873e e33d d9ad 4bbd
000001b0: 4f4e f33a 3e0b 743d eb62 eebc ec19 303e
000001c0: cc38 533b 2fb0 10bd ddec 59be 8eca a3bc
000001d0: a51e 23be 3e9a ad3e 8cc3 7bbb 34cb be3c
000001e0: ba94 bfbe 08fc 913d 1305 c13d 5054 1dbe
000001f0: f316 ef3c 3f0c 1b3d e0a2 2ebe 87f8 1dbe

linear2.weight f4 [128, 128]
0.03749222 -0.032793686 -0.17543413 0.051227767 -0.12799324 0.017141324 0.13467547 -0.10238385
0.009412222 -0.43399614 -0.051401112 -0.13508543 -0.06952801 -0.003470538 -0.24874729 -0.054288004
0.02356781 0.21718825 0.081648536 -0.14977197 -0.15656374 -0.07546315 -0.3112745 0.10815004
-0.0103851715 -0.056952804 -0.20717654 0.011322081 0.11559634 -0.047527988 -0.16824661 -0.013958371
0.039203387 0.17656083 -0.35713792 -0.04475133 -0.14360222 -0.18508393 0.2180193 -0.2633663
-0.21059416 0.07636755 -0.36029214 -0.31360155 -0.10561211 -0.027864136 0.031749245 -0.17330307
-0.009231818 -0.14515004 -0.06052722 -0.20869601 -0.08602266 -0.15899095 -0.14908452 -0.093972936
-0.054177396 0.05064983 -0.095237635 -0.0535539 -0.06341722 -0.0987886 -0.15174122 -0.11549601
0.07675654 -0.16479135 0.064499706 -0.09538576 -0.16408189 -0.15482317 -0.068729945 -0.019729884
-0.1287381 0.14818683 -0.1669545 -0.22361714 0.1893611 -0.20146607 -0.21413434 0.06561571
-0.22334518 0.006698813 -0.080878645 -0.0040911958 0.035021167 -0.007812929 0.13702933 -0.025836037
-0.092538744 0.09630277 0.0063950014 0.0028635869 0.029255703 -0.07622431 0.12918127 -0.22443607
-0.018539742 0.36352053 -0.03872947 -0.121696025 -0.24550928 0.14059035 -0.20234631 -0.047532987
-0.32259142 -0.01848674 0.122398555 -0.18428418 -0.1422363 0.08783129 -0.0061407853 -0.17321248
0.057093505 0.30442417 -0.15989536 -0.049843647 -0.088996604 -0.29766732 -0.0075807967 -0.4164556
-0.18703379 -0.1649793 0.032725517 0.11854102 -0.1719743 -0.21217017 0.027091675 -0.5043652
0.10931656 -0.15842743 -0.10874895 0.093160234 0.05236936 0.24874555 0.027768942 0.11700421
0.05529977 -0.3490138 0.021951286 0.18548916 -0.006881763 0.07361849 -0.1442721 0.33479345
0.05817213 -0.012488783 -0.11469124 -0.24054883 0.25818002 -0.14874078 0.19877322 -0.031974047
-0.13814469 -0.20254621 0.34426644 0.010810118 0.079675 -0.11707676 -0.013284739 0.08946596
0.1119978 0.049684376 -0.012793697 -0.2009821 -0.07343201 0.101721466 -0.45028493 0.08794871
-0.051005974 0.05369718 -0.07000068 -0.22881947 -0.0077482467 -0.15489388 0.09000546 0.105714224
0.093322106 0.16969457 -0.060728166 0.17734294 0.05253526 -0.32189408 -0.17551407 0.22578758
-0.3952488 -0.11799839 -0.036825914 0.1538138 -0.11443422 -0.06538634 -0.27122408 -0.20605819
0.11844036 0.08894757 0.027162034 -0.14053644 0.03563762 0.19946247 -0.26494128 0.043382537
-0.19799621 -0.26855394 -0.077882156 -0.16559437 0.29655087 0.061600212 0.046629373 0.046043642
-0.010765454 0.0153654935 -0.17822543 0.01413261 -0.04231904 -0.29647884 -0.14403477 -0.20868242
0.13335851 -0.095452785 -0.11867337 0.0058014835 -0.008238504 -0.13612367 -0.19342504 -0.17687939
-0.10885528 -0.19136274 0.039445136 -0.37974462 -0.10242927 -0.07856484 -0.15554863 0.32030308
0.15216999 0.23404206 -0.09883011 0.08984525 -0.01577588 -0.105757385 -0.3154318 0.1864154
-0.22957115 -0.1518453 -0.15377048 -0.373644 -0.16946912 -0.16553569 -0.27766576 0.12285866
0.1430509 -0.093369484 -0.03814849 -0.205748 -0.025498701 -0.0486684 0.11867353 0.27327025
00000000: 7191 193d ac52 06bd 01a5 33be 35d4 513d
00000010: a910 03be f66b 8c3c 5ee8 093e a0ae d1bd
00000020: b835 1a3c be34 debe f989 52bd d653 0abe
00000030: b464 8ebd f771 63bb 9cb7 7ebe 195d 5ebd
00000040: 4811 c13c 9966 5e3e 5937 a73d d35d 19be
00000050: 3f52 20be 6d8c 9abd 5f5f 9fbe c57d dd3d
00000060: 9126 2abc 5847 69bd 1626 54be 4080 393c
00000070: c6bd ec3d b5ac 42bd d748 2cbe a7b1 64bc
00000080: bb93 203d 5dcc 343e c8da b6be 2c4d 37bd
00000090: 760c 13be a486 3dbe 7440 5f3e f3d7 86be
000000a0: ffa5 57be 9766 9c3d 3678 b8be 6290 a0be
000000b0: 294b d8bd 5443 e4bc 7f0b 023d 5c76 31be
000000c0: 0d41 17bc 36a2 14be 64eb 77bd 68b4 55be
000000d0: a62c b0bd 86ce 22be 9da9 18be e274 c0bd
000000e0: 1ee9 5dbd 3276 4f3d f30b c3bd 565b 5bbd
000000f0: e3e0 81bd ad51 cabd 0d62 1bbe 2c89 ecbd
00000100: 8832 9d3d 10bf 28be 6c18 843d 9c59 c3bd
00000110: 1505 28be f789 1ebe 49c2 8cbd 91a0 a1bc
00000120: ecd3 03be 4abe 173e 1ff6 2abe e4fb 64be
00000130: e0e7 413e 1f4d 4ebe 0846 5bbe 8861 863d
00000140: 99b4 64be b781 db3b b4a3 a5bd 700f 86bb
00000150: 5b72 0f3d cd01 00bc 6b51 0c3e 19a6 d3bc
00000160: f484 bdbd 633a c53d 298d d13b 04ab 3b3b
00000170: a8a9 ef3c 7e1b 9cbd 1848 043e 92d2 65be
00000180: a8e0 97bc 5d1f ba3e cba2 1ebd c43b f9bd
00000190: c966 7bbe ebf6 0f3e df33 4fbe f3b1 42bd
000001a0: b42a a5be 8171 97bc 18ac fa3d feb4 3cbe
000001b0: 65a6 11be e4e0 b33d a438 c9bb 9d5e 31be
000001c0: e1da 693d 7cdd 9b3e 9cbb 23be da28 4cbd
000001d0: da43 b6bd da67 98be 5568 f8bb ab39 d5be
000001e0: c985 3fbe 55f0 28be 310b 063d a2c5 f23d
000001f0: 081a 30be 2343 59be 5cef dd3c 141e 01bf
00000200: 5ce1 df3d cd3a 22be c5b7 debd cbca be3d
00000210: 4181 563d 27b7 7e3e b17b e33c e79f ef3d
00000220: 0382 623d f0b1 b2be 2fd3 b33c dff0 3d3e
00000230: 6a80 e1bb 4ac5 963d 11bc 13be 0c6a ab3e
00000240: e645 6e3d c19d 4cbc 3ee3 eabd 6f52 76be
00000250: 2c30 843e 814f 18be 358b 4b3e 38f7 02bd
00000260: cd75 0dbe 4668 4fbe b143 b03e ec1c 313c
00000270: a52c a33d f1c5 efbd 3ca8 59bc ee39 b73d
00000280: 1a5f e53d d881 4b3d a89c 51bc 40ce 4dbe
00000290: 8663 96bd 5853 d03d bf8b e6be 741e b43d
000002a0: a4eb 50bd 93f1 5b3d 845c 8fbd a74f 6abe
000002b0: 01e5 fdbb 809c 1ebe c854 b83d b380 d83d
000002c0: a91f bf3d 6ac4 2d3e 19be 78bd 6399 353e
000002d0: 362f 573d 4dcf a4be f6b9 33be dc34 673e
000002e0: 0d5e cabe 24a9 f1bd c5d6 16bd 5d81 1d3e
000002f0: 7d5c eabd 46e9 85bd e2dd 8abe eb00 53be
00000300: dc90 f23d 252a b63d ea82 de3c c9e8 0fbe
00000310: c1f8 113d e43f 4c3e 62a6 87be e3b1 313d
00000320: 85bf 4abe e77f 89be ae80 9fbd 9291 29be
00000330: 84d5 973e 8150 7c3d 71fe 3e3d 4298 3c3d
00000340: 9661 30bc 8dbf 7b3c ba80 36be 768c 673c
00000350: bb56 2dbd 13cc 97be da7d 13be d8b0 55be
00000360: 228f 083e c07c c3bd 060b f3bd 5f1a be3b
00000370: cafa 06bc 0164 0bbe 3711 46be df1f 35be
00000380: 84ef debd 98f4 43be 3991 213d e36d c2be
00000390: 70c6 d1bd 9ae6 a0bd 2448 1fbe c4fe a33e
000003a0: 73d2 1b3e b9a8 6f3e 7167 cabd c900 b83d
000003b0: 6b3c 81bc 5497 d8bd 4780 a1be aee3 3e3e
000003c0: b314 6bbe 567d 1bbe 0276 1dbe 444e bfbe
000003d0: 5089 2dbe 3082 29be 352a 8ebe 529d fb3d
000003e0: ef7b 123e 8038 bfbd 9741 1cbd 9baf 52be
000003f0: a7e2 d0bc 8458 47bd 1c0b f33d 14ea 8b3e

linear2.bias f4 [128]
0.003397836 0.0001652115 -0.010000644 -0.27263334 -0.0033961737 0.1771327 0.0877174 0.16873224
-0.19810955 0.32416746 0.19900268 -0.35226452 0.028931981 -0.08266016 0.1760415 0.25743675
-0.057328377 0.4203569 -0.52491957 0.00027156709 -0.25378492 -0.049671024 -0.011540378 -0.55491334
0.41131416 -0.050826628 -0.012836676 -0.16119541 -0.2480018 -0.14239442 -0.06582372 -0.17699115
0.04534829 -0.008197754 -0.22892773 -0.09681675 0.061666016 0.42849067 0.20790033 0.2267586
-0.2904662 0.05686304 -0.25614086 0.27030224 -0.35523516 -0.15807338 -0.25048742 -0.40668753
-0.1540576 -0.38960728 -0.2454657 -0.22340396 0.23171318 -0.30619913 0.14747997 0.0033282794
-0.31504667 0.35687447 0.276671 0.22652999 -0.037872497 -0.060921818 -0.42480072 0.3252624
-0.03451408 -0.21497174 -0.0021096505 -0.35959104 -0.03669888 -0.12558772 0.33913448 0.13690478
0.31305867 0.15529609 0.37190917 -0.1703949 -0.15015675 0.050450314 -0.12047846 0.31721038
0.079157025 0.16164786 -0.4494943 0.082020804 0.00036034774 0.1748667 -0.058640443 0.25086984
0.09252814 -0.06301886 0.110564664 -0.17249608 0.03640978 -0.049492043 -0.26486427 -0.0240841
0.037268817 -0.37752566 -0.11893619 -0.1303212 -0.13266814 -0.06511011 0.05549272 0.16664836
0.09099001 0.4464912 0.1833134 0.13135754 -0.21463116 0.024717849 -0.13018428 -0.049193803
0.2785737 0.001925492 -0.041424673 0.2004292 0.06540737 -0.24312639 -0.17318371 0.1885432
-0.23172434 -0.30508822 0.28657392 -0.12133939 -0.014791983 -0.17919832 -0.22696665 -0.007228518
00000000: 3aae 5e3b a03c 2d39 bed9 23bc 9996 8bbe
00000010: 5792 5ebb 4662 353e 2ea5 b33d 25c8 2c3e
00000020: 3bdd 4abe 47f9 a53e 5cc7 4b3e 045c b4be
00000030: c302 ed3c bb49 a9bd 3944 343e c0ce 833e
00000040: 29d1 6abd 0539 d73e 2161 06bf 1e61 8e39
00000050: 19f0 81be d873 4bbd db13 3dbc cd0e 0ebf
00000060: c597 d23e 952f 50bd ec50 52bc 6910 25be
00000070: 2ff4 7dbe d8cf 11be 96ce 86bd 2b3d 35be
00000080: 21bf 393d df4f 06bc 086c 6abe dc47 c6bd
00000090: 8195 7c3d 2163 db3e d3e3 543e 6833 683e
000000a0: fcb7 94be 38e9 683d e524 83be 0e65 8a3e
000000b0: 62e1 b5be fddd 21be e33f 80be 5939 d0be
000000c0: 47c1 1dbe 9b7a c7be 5c5b 7bbe 02c4 64be
000000d0: 3846 6d3e 22c6 9cbe fd04 173e 431f 5a3b
000000e0: cc4d a1be 40b8 b63e d2a7 8d3e 7af7 673e
000000f0: 3120 1bbd 2889 79bd 7b7f d9be cb88 a63e
00000100: a35e 0dbd 8d21 5cbe 1042 0abb 511c b8be
00000110: 9151 16bd 119a 00be 09a3 ad3e c430 0c3e
00000120: 3a49 a03e f005 1f3e e16a be3e 007c 2ebe
00000130: b1c2 19be fda4 4e3d 69bd f6bd 6669 a23e
00000140: 141d a23d 0487 253e 1e24 e6be 86fa a73d
00000150: 0eed bc39 4210 333e f630 70bd 0372 803e
00000160: 657f bd3d 0810 81bd ba6f e23d d0a2 30be
00000170: 6c22 153d 2bb8 4abd 4a9c 87be 054c c5bc
00000180: 30a7 183d 0b4b c1be d194 f3bd ec72 05be
00000190: 28da 07be 7358 85bd 564c 633d dea5 2a3e
000001a0: f858 ba3d 7f9a e43e 82b6 3b3e 9782 063e
000001b0: 45c8 5bbe 167d ca3c 074f 05be 717f 49bd
000001c0: 36a1 8e3e ca60 fc3a ebac 29bd 503d 4d3e
000001d0: 4df4 853d 20f6 78be 1257 31be 7811 413e
000001e0: 2549 6dbe 8634 9cbe d1b9 923e c980 f8bd
000001f0: 135a 72bc c47f 37be f269 68be 34dd ecbb
