Data/Player1/checkpoint-advTest8.pth (torch, 555564 bytes, 28 tensors)

linear1.weight f4 [128, 34]
00000000: b44c e4bb ba91 403e 1d02 acbc a229 df3c
00000010: ad8b e53d 75a2 07be a605 18bd 4d11 19be
00000020: e3ef bfbd db02 12be a57c 17bb f969 eebd
00000030: 4ecc d6bd 95ed 363c e876 26be fd61 44be
00000040: 048f 37be d9a3 163d 8638 15be 2673 c9bd
00000050: 8412 053d bb94 25bc b437 ff3d ee02 ee3d
00000060: 6544 03bc 50cc a6bd b1dc e9bc 3ca9 0d3d
00000070: 1410 ab3d 7e5f 1f3e 8983 66bd d09b c33b
00000080: c07e 833d b119 a13d 4b8e 67bd a440 12bd
00000090: 4625 e83d c5a7 783d 9fc1 c1bd 9be5 af3c
000000a0: fdd8 98bd 21ee a13d 6b4e 3d3e 10b4 183e
000000b0: a1c0 13be 8e14 c53d 5c7f b73d f053 00be
000000c0: caec 1b3e 51d3 863c a182 16bd 8031 cdbd
000000d0: 3fc2 ccbd 500d ccbd e474 35be 44cb 24be
000000e0: 40ca 343e c3b2 22be 2ce1 e9ba 56f3 edbd
000000f0: ceb0 0ebe b209 ecbc 27bc 36be 8373 193e
00000100: ecd8 b73c cc7a e73c e918 0a3e 8d2c 44bb
00000110: 6331 933d 88da 6b3d fd92 b43d 652f 403d
00000120: 5697 303e e48c 45bd e3c9 c4bd 660a 9dbc
00000130: 235e 083e 6fa9 1c3e 8c52 31be 2943 e7bd
00000140: 845a 0bbe 5700 ea3d 4555 a2bd cf44 e63d
00000150: 7e20 81bc 9fe9 cd3d dc29 ee3d 0dfd 9dbc
00000160: cbef 2c3e 8fe7 60bd d72d d43d 4dbb 683d
00000170: 4da2 933d 0f16 0cbd e67e b83d 1f41 1d3c
00000180: b1e7 c5be 43bf d73d 34d5 5e3d a9ff be3d
00000190: 1d78 db3d 85f4 20be 73b9 2abe 0b84 8cbb
000001a0: c312 6dbd c594 83bd 420d 733d b206 40be
000001b0: d39f b6bd 0482 fbbd 5f1c 153e bde1 043d
000001c0: 5b7d a5bc f57b c93d b13a 00be 4008 a4bd
000001d0: c546 5abe 3c83 babc ce4b 5a3d 3288 af3d
000001e0: 798f 77bd c20b c73c 2cfd c53d f1b6 193e
000001f0: e3d8 783c 1206 483e 1b59 423d 2bb3 1ebd
00000200: 40a2 25be c6c3 34bc 8c5f 483e 8432 093d
00000210: beeb 153e 3816 1dbe 98bd 223e 0682 70bd
00000220: 21fc 283e 4258 6c3e 16ac a9bc 42cf 1bbd
00000230: b042 ca3d 6cec 073e 2979 1b3e e1cf 163e
00000240: 666c 04bd 7117 26be 7b0a 54bd 0f2e 9fbd
00000250: 555b 07be f4b4 0cbe db65 da3b 2a41 42bd
00000260: 26da 0ebe c331 2abd 74e9 13be 3583 2b3d
00000270: f854 d6bd af9e 8abc ed95 f2bc 73f5 3bbd
00000280: b602 a1bd 6f5e b33d 69d9 2b3d 20af 4a3d
00000290: e7f1 25be cc64 4e3d 065f 873d 1b97 ba3d
000002a0: 5ffe 62bd 4643 e43d 6d57 c83c 1671 e0bd
000002b0: a3e9 8bbd a53c 11be 9985 48be de46 0d3a
000002c0: b55d c9bb 20ae dabd 1565 19be 0fe4 12be
000002d0: 1633 993d 57cd 983c 41fc 01bc 9605 de3c
000002e0: 08bf eabd 4298 4bbe 2c16 d2bd a27f 26bd
000002f0: 5589 273d ef5c cbbb 0684 b63d 75e6 ab3c
00000300: a220 133e 5d85 6ebd a2e8 e73d 772d 763d
00000310: 324c 253c 0d6c 5d3e f2fb e43d d382 333d
00000320: 03a0 563d 8c2e 6c3d 45cc 033e f19a 173e
00000330: 558f f5bd 6960 573e 316c 863d 76c7 53bd
00000340: 1447 f23d 098d 153e 0a20 573e 1821 2eb9
00000350: cdc6 b5bc 9f79 c73d 31a4 b73d fcfa febd
00000360: 3dec b83d 74ca 173e 54e4 503d 4539 203e
00000370: 7a56 cfbd a298 5b3d 5d88 2fbd 59b4 9c3d
00000380: 6981 083e 2d6f 67bd 5c28 833c 2a0d 1c3e
00000390: 8104 8e3c 2912 b9bc a8a6 f93d 763a 5b3d
000003a0: b210 e1bd a9d2 423e 598a f83c d21b bc3d
000003b0: 61a4 23be 2ca6 eabd 3751 21be f6e7 2ebd
000003c0: 0202 1fbe 9dc3 f1bd 7d28 933b 54e9 cdbd
000003d0: beaa 77bd d537 32be d940 d33d 76d7 10be
000003e0: 3f25 063d da19 05be b841 303a fd12 2ebe
000003f0: cb0d 0dbe 7a00 cabc cfb5 2fbe 31e5 37be
-0.0069671515 0.1880559 -0.020997101 0.027241532 0.11208282 -0.13245566 -0.03711476 -0.14948006
-0.09371927 -0.14258902 -0.0023115065 -0.116413064 -0.10488187 0.011165042 -0.16256297 -0.19178005
-0.1792565 0.03677735 -0.14572343 -0.09836416 0.03248836 -0.010106261 0.124617964 0.116216525
-0.008011912 -0.08144438 -0.028547617 0.034585223 0.08352676 0.15563771 -0.056277785 0.005969502
0.0642066 0.07866228 -0.056532186 -0.035706177 0.11335234 0.060706872 -0.094607584 0.02147179
-0.07463262 0.079067476 0.18486945 0.14912438 -0.14428951 0.09623061 0.08959839 -0.1253202
0.15227047 0.016458185 -0.03674567 -0.10019207 -0.09997987 -0.09963477 -0.17720371 -0.16093165
0.17655277 -0.15888505 -0.0017843596 -0.11618678 -0.13934633 -0.028813217 -0.17845212 0.1498547
0.022442304 0.028256796 0.13486065 -0.002993378 0.07187154 0.057581455 0.08817098 0.0469202
0.1724523 -0.048230067 -0.09608819 -0.019169997 0.1331716 0.15299009 -0.17316645 -0.11292107
-0.13608748 0.11425846 -0.0792642 0.11243593 -0.015762564 0.10054325 0.11629078 -0.019285703
0.16888349 -0.05490833 0.10360306 0.05681925 0.07208691 -0.034200724 0.09008579 0.009598046
-0.3865333 0.10534527 0.054402545 0.09326107 0.10716269 -0.15718277 -0.16672306 -0.0042882017
-0.05787922 -0.0642486 0.059338816 -0.18752554 -0.08917203 -0.12280658 0.14561604 0.032441843
-0.020201376 0.09838096 -0.12522389 -0.08009386 -0.21316059 -0.022767656 0.05329495 0.08570899
-0.06043956 0.024297599 0.09667429 0.15011193 0.015188429 0.19533566 0.04744826 -0.038745087
-0.16175175 -0.011033004 0.19567698 0.03349544 0.1464071 -0.15340507 0.15892637 -0.05871775
0.1650243 0.23080543 -0.02071194 -0.038039453 0.09876001 0.13273782 0.15182938 0.14727737
-0.03232994 -0.1621988 -0.051767807 -0.07772457 -0.13218434 -0.13740903 0.006664974 -0.047425427
-0.13950405 -0.041551363 -0.14444524 0.041873176 -0.10465425 -0.01692137 -0.029612506 -0.045888375
-0.07861845 0.08758246 0.041955385 0.04948342 -0.1620556 0.050389096 0.06609921 0.09110852
-0.05541837 0.11145644 0.02445575 -0.109590694 -0.06831672 -0.1418329 -0.19582213 0.0005389283
-0.006145204 -0.10677743 -0.14979966 -0.1434481 0.07480447 0.018652601 -0.007933677 0.027102273
-0.114622176 -0.198823 -0.10258135 -0.040649064 0.040902454 -0.006206147 0.089119 0.020983914
0.14367917 -0.058232654 0.11323668 0.060101952 0.010088967 0.2162325 0.11180867 0.043825936
0.052398693 0.057661578 0.12870891 0.14805199 -0.11990229 0.21032871 0.065636046 -0.051703893
0.11829963 0.14604582 0.21008316 -0.00016606261 -0.022189522 0.09739994 0.08966864 -0.12450215
0.09029434 0.14823323 0.050999 0.15646847 -0.10123916 0.05361236 -0.042854656 0.07651586
0.13330616 -0.05650251 0.016010456 0.15239397 0.017336132 -0.022591667 0.1218999 0.05352255
-0.109895125 0.19025673 0.030339407 0.09184994 -0.15980674 -0.11457476 -0.15753637 -0.042701684
-0.1552811 -0.118048884 0.0044909106 -0.100542694 -0.060465567 -0.1740411 0.10315103 -0.14144692
0.032750364 -0.12998143 0.000672366 -0.16999431 -0.13774793 -0.02465843 -0.17159198 -0.17958523

linear1.bias f4 [128]
00000000: dcc8 473e a53b d9bd 06fe 733e c2b9 cf3d
00000010: 2b44 01be 43be d7bd c6eb 0a3e cbac fabd
00000020: 0f68 0e3e b5e5 223e b667 bcbd c3bc 1b3e
00000030: 8ab3 193e ea37 e63d 870a b6bc cc83 423c
00000040: 69f5 073d d028 5b3e 8385 a9bd da68 733e
00000050: c04d b4bd 9d9f c73c 475b 1ebc 6264 8b3d
00000060: e855 7e3e 9d79 33bc f615 c0bb 1ac7 0c3e
00000070: 5e85 a33d 00b0 d53d c82b de3c 0dd9 09be
00000080: ac39 9b3c e806 f33a 367d f13d e26e b5bd
00000090: 4be2 61bb f54b acbc 6731 14bc ac33 3f3e
000000a0: 1953 b0bd a131 f03d d240 733d c394 893e
000000b0: 70a5 e1bd 61cb 943d 226b fe3d 8bec c2bd
000000c0: 26b4 5d3e 73f1 373c b799 7c3d b133 163e
000000d0: 2713 bf3c 99f6 aebc ef8d e93d 8e63 06be
000000e0: 0cf6 77bd e576 a6bc bf35 bebd bdf0 00be
000000f0: 5571 ecbd 7e37 8c3d 9a6a 353e b7eb 283d
00000100: 947b cabc cb27 f2bd bbca ce3d 70c2 c0bd
00000110: 5639 e2bd f922 52bd 04a7 f5bd 20c4 d6bd
00000120: 8d98 ba3c 453a 213e 6180 0e3d ac5e 9b3c
00000130: 7551 3bbe 960a 97bd 97e9 c1bc 6c26 f8bd
00000140: 1270 033e 236a 353e 8b0d c33c 914b a3bd
00000150: cff9 a6b9 9bc6 12be 2fbd 4339 3d96 463d
00000160: 0921 043e 1101 60bd 1b61 293e c42c 223d
00000170: 51a7 d2ba ce01 e0bd f147 96bd e9ba 0b3e
00000180: 4e9c 113d d0a0 9b3d c6d1 4a3e 2820 8dbb
00000190: d65f ad3d c4c3 bc3d a716 21be 26ab 0dbc
000001a0: c875 563d 8f36 283e c9b6 d5bd 4e38 003e
000001b0: 51a1 993d b5be d3bd 2fdd 753e 839f c03d
000001c0: 20ee 653e 0db7 0dbe d243 b73d 2978 003e
000001d0: 6a94 843d f766 463d a84b a3bd 7b9a 1c3e
000001e0: 33ab f63c 0dc6 0cbc 7391 103e 1fff 923d
000001f0: 3c05 253d b18c 2bb9 870a 313c 3bfe d43d
0.19510216 -0.106070794 0.23827371 0.10142852 -0.1262366 -0.105343364 0.13566503 -0.12239989
0.13906883 0.15907939 -0.09199469 0.15208726 0.15009895 0.112411335 -0.022221817 0.011872243
0.033193026 0.21402287 -0.082774185 0.23770466 -0.08803892 0.024368102 -0.009665317 0.06806256
0.24837458 -0.010954288 -0.005861993 0.13747826 0.07984422 0.1043396 0.027120486 -0.13461705
0.018948399 0.0018541487 0.1179146 -0.0885904 -0.0034467157 -0.021032313 -0.009044982 0.18672055
-0.086095996 0.11728216 0.05938799 0.2687131 -0.11017883 0.07265354 0.12422778 -0.09517773
0.21650752 0.011227 0.06167003 0.14668156 0.023324562 -0.021357821 0.11404025 -0.13123915
-0.060537383 -0.020320365 -0.09287595 -0.12591834 -0.11545054 0.06846522 0.17716447 0.04124042
-0.02471713 -0.11823996 0.100972615 -0.09412086 -0.11046092 -0.051302884 -0.11994746 -0.104866266
0.02277782 0.15744884 0.0347904 0.018966042 -0.18292792 -0.07375066 -0.023670955 -0.121167034
0.1283572 0.17716269 0.023810169 -0.079733975 -0.0003184811 -0.14333574 0.00018667126 0.048483122
0.12903227 -0.054688517 0.16540949 0.039593473 -0.0016071593 -0.10937844 -0.073379405 0.1364552
0.035549454 0.07599032 0.19806585 -0.004306812 0.08465545 0.09217027 -0.15731297 -0.008646762
0.05235842 0.16427062 -0.10435254 0.12521479 0.07501472 -0.10339109 0.24010156 0.094054244
0.22454119 -0.1383936 0.089484826 0.12545837 0.0647362 0.04843804 -0.07973415 0.15293305
0.030110931 -0.008592141 0.14117984 0.07177567 0.040288195 -0.00016360242 0.010805733 0.10400053

linear2.weight f4 [128, 128]
00000000: 1c42 af3d 3d9b 81ba 3531 713d 711e f7bc
00000010: b22d a63d 9706 033d 462c b03d 6401 293d
00000020: 9224 1f3d 0bd4 5f3d 3588 cfbd 2513 8ebd
00000030: 2ec4 c63d 46bd e63b f96e 3dbd 9e81 bfbd
00000040: 5a01 ba3d 341d c23c c041 663d 03a9 e1bc
00000050: af69 a4bd f9c5 51bd a509 66bd 83af afbc
00000060: 83cb 503d 8ff9 6b3d b895 d4bb e66e 6c3d
00000070: 4ad5 1f3d 03ef 293d 0842 0dbe 8fc0 2f3c
00000080: d901 533c 70f3 473d 8523 f6bb 1260 eebd
00000090: 2d62 6a3d c3f6 733d d58b a3bd 2544 413d
000000a0: f03b 593d 04e8 d1bd 7fea 6c3d 1729 943d
000000b0: c739 78bd a48e e4bb 2da0 39bd ba0c ecbc
000000c0: 45fc 923d 4865 a739 6e1a 4fbc 6801 8bbd
000000d0: 4fb7 fd3c aa92 eebd f2d5 1a3c 1920 f1bd
000000e0: 5948 5c3c 250c a7bd 78fd c4bb 34c5 873d
000000f0: 1132 b6bd 4416 bbbc 2441 89bb db2c 3cbd
00000100: c2de a9bd 791d 28bd 9eae 313d 1f13 3abd
00000110: d812 693c 086d c3bc 4448 8d3c a403 bebc
00000120: cf76 313d 4c26 66bd 249a a03d e209 6f3c
00000130: 5b85 98bc 276c 583d 910a f73c a52e 9fbd
00000140: b26a d33d b002 083c d1fe 2d3d eb14 aabb
00000150: a961 5e3d dccb f53c 2667 f5bc fca4 853d
00000160: 9ec8 dcbd f82f d43d e13f 273d a0c1 873d
00000170: abc8 193e 2d62 4dbd 9d74 2ebd f51b a0bc
00000180: f1bf 8d3c fa31 3d3b 0ae3 b03d b7e3 15bd
00000190: 4d21 a7bc cf02 b53d cdee 3f3d e45d 233d
000001a0: 677e b0bd 6b9c 553d 7654 67bd 3639 083c
000001b0: 48bc 0f3d b9b9 073e 840a c23d 5aaa 183d
000001c0: bcdf 24bd ef2f b7bc 2a11 073c 8aa6 033c
000001d0: 1e8e d5b9 6a74 af3b f997 80bd 5334 6cbd
000001e0: fa91 c13c ee6d 32ba f9d6 863d 24df 453d
000001f0: 4a94 e23c d4fa c8bd 62cb 683d 1bda cbbc
00000200: 29b6 b1bd 71c7 8d3d 144e bf3d 81c7 a8bd
00000210: f194 623d b5a2 873b a460 13bd e1f1 11bc
00000220: bac1 4e3c 8aae 87bc 8ecd b7bb 2cf1 283d
00000230: a840 9a3d 1471 41bd fed0 91bd 3ea5 903d
00000240: 4c9d 883c fcda 633d 85c2 08bd fa57 9a3d
00000250: 7f89 98bd 5e28 b63c 869a 633d 28d1 8cbb
00000260: acf5 00bb 2548 afbd 8412 503c bf78 dfbc
00000270: 5dac 80bd 0e9a 0b3d 461e eb3d e360 273d
00000280: f98e 1cbd afca 833d 3a85 c13b 3be6 4fbd
00000290: 0c0e abbc d294 edbc 70f1 2f3d a57c 2fbb
000002a0: eff9 823d d0d7 66bd 1b8c 93bc 589a c53d
000002b0: 455b a23c a8e1 863b ea77 0e3a 7098 34bc
000002c0: 9532 adb9 6e35 983c 9f5a fb3d ccab 083c
000002d0: b235 083e 2ade 5d3c 78b5 d13c 00ad be3d
000002e0: a298 31be a7dd 41bd 0c28 d13d 626c 61bd
000002f0: 859d b2ba fe1c 85bd 0b7e c23d b390 8abc
00000300: e468 c4bc d73f 66bd bfeb 38bd fe7b b5bc
00000310: a410 6e3d 320c 0b3d 6c50 213d 5f20 c3bc
00000320: 48aa a1bd 7b34 723d 4a91 42bd f369 81bd
00000330: f5e9 2ebd d4b7 8ebc c7a3 643d a2ba 28bd
00000340: 8418 98bc a1ac 30bd 4a61 903d 1be2 973c
00000350: e35a 59bc a9a7 2cbb dfe6 f43d 1bd6 cebc
00000360: af52 9cbd 7b4a e7bb c980 1cbd 88a7 043d
00000370: c7cf 9b3d 06bd f7bc 0e04 3c3d 9dda e4bc
00000380: a304 983d f834 e7bc f51f 91bc d3da e03d
00000390: 0fa4 893d 5393 363d c43b 753b 61bf 7b3d
000003a0: cbed 8e3d eae2 7b3d ec8d ac3d fd7f 5a3c
000003b0: ff0c 9a3d b46e 333d ef64 80bd 5b8d 4d3d
000003c0: 65c7 aebd b073 6cbd 2162 b83d c021 7ebc
000003d0: 86c3 cebd 5b4d fa3d 8828 9d3c 1d7c f03c
000003e0: b04c 6d3d de97 1c3d 666c cd3d fd17 be3d
000003f0: 816d c4bd 3019 8a3d 1ca7 ac3d 1575 403d
0.08557531 -0.0009888184 0.058884818 -0.030165883 0.081141844 0.031988706 0.086021945 0.04126109
0.038853236 0.05464558 -0.10133401 -0.06937245 0.09705387 0.007041606 -0.04624841 -0.093508944
0.09082289 0.023695566 0.056215048 -0.027546411 -0.0802797 -0.051214192 -0.05616154 -0.021445995
0.050975334 0.057611044 -0.0064875744 0.05772295 0.039021768 0.041487705 -0.1379472 0.010727062
0.0128788585 0.048816144 -0.0075115585 -0.11639418 0.057222534 0.059561502 -0.07985655 0.04718413
0.053035676 -0.102493316 0.05784082 0.072344 -0.060601976 -0.006975012 -0.04531877 -0.028814662
0.07177023 0.00031928183 -0.012640579 -0.067873776 0.030971197 -0.11649068 0.009450423 -0.117737
0.013444983 -0.08156613 -0.006011661 0.066294104 -0.08896268 -0.022837766 -0.0041886736 -0.045941215
-0.08294441 -0.041043732 0.04337942 -0.04542839 0.014225684 -0.023855701 0.017246373 -0.023195095
0.043326195 -0.056188866 0.078419 0.014589759 -0.018618276 0.052837517 0.030156406 -0.077725686
0.10323085 0.008301422 0.04247934 -0.005190482 0.054292355 0.030004434 -0.029956412 0.06525609
-0.10780452 0.10360712 0.040832404 0.06628728 0.15017955 -0.050142456 -0.04259168 -0.019544581
0.017303439 0.00288689 0.08637054 -0.03659412 -0.020401621 0.08838426 0.046858598 0.039884463
-0.08617859 0.052151125 -0.056477033 0.008314421 0.03509167 0.13254441 0.09474662 0.037271835
-0.040252432 -0.022361724 0.008243838 0.0080353115 -0.0004073241 0.005354454 -0.062789865 -0.057667088
0.023629177 -0.0006806542 0.065839715 0.048308507 0.0276586 -0.09813467 0.056834586 -0.024884274
-0.086773224 0.06922806 0.09341064 -0.08241177 0.055317823 0.0041392692 -0.035980836 -0.008907766
0.01261943 -0.016562719 -0.005609221 0.041245624 0.075318635 -0.04722698 -0.0711994 0.070627674
0.016676567 0.05562876 -0.033388633 0.075363114 -0.074481 0.022236045 0.055567287 -0.0042973943
-0.0019677682 -0.08558682 0.012699727 -0.027279256 -0.06282876 0.034082465 0.114803836 0.040863883
-0.038222287 0.06435143 0.0059057744 -0.050756674 -0.020880722 -0.029001627 0.042954862 -0.0026777175
0.06395327 -0.05635816 -0.018011143 0.09648579 0.019818911 0.004116256 0.00054347387 -0.011022672
-0.00033034818 0.018580165 0.12273144 0.008341741 0.13301733 0.013541738 0.025599226 0.09310341
-0.17343381 -0.047330525 0.102127165 -0.055035003 -0.0013627267 -0.064996704 0.09496697 -0.016914701
-0.023975797 -0.056213226 -0.0451467 -0.02215385 0.05812134 0.033947177 0.039383337 -0.023819147
-0.07893807 0.05913208 -0.04750184 -0.06319036 -0.042703588 -0.01742164 0.055820253 -0.041193612
-0.018566377 -0.04313338 0.070498064 0.018540433 -0.013266298 -0.002634505 0.11958098 -0.025248578
-0.07632958 -0.0070584393 -0.038208757 0.032386333 0.0760799 -0.0302415 0.045902304 -0.027936274
0.074227594 -0.0282235 -0.017715434 0.109792374 0.06720745 0.044574093 0.0037419656 0.06146181
0.06978949 0.0614957 0.08425507 0.013336179 0.0752201 0.043806747 -0.062692516 0.050183635
-0.08534125 -0.057727516 0.090030916 -0.015510976 -0.10095887 0.12221786 0.019184366 0.029356057
0.057934463 0.03823077 0.10030441 0.09281919 -0.09591199 0.067430854 0.08430311 0.046986658

linear2.bias f4 [128]
00000000: 8456 6d3d 866b 953d ce4a 0bbd 8773 793d
00000010: 225f 82bc d4ac 75bc 0c71 6ebd d31e aabc
00000020: d8d8 483d 9c40 e0bd d66e b93d 2e46 d0bb
00000030: 44ad 433d 5f98 733d 3f97 083d a89c 203d
00000040: 87a4 fd3c e6a2 763c 6be2 cf3c f385 973d
00000050: 18f2 55bd b42e ef3c 4689 60bd 0233 1ebd
00000060: 83ae 06bd 98ce 9f3d bb6a 7d3d 06cb 143e
00000070: 9f94 483d b8c1 42bb 11d3 a23d 3aee 333d
00000080: ec67 0a3e 868e 0c3e 70a7 0bbd a478 bc3d
00000090: 179d adbb 7ccf a7bd 57e2 f8bd 32c2 483d
000000a0: 331e d6bd 5fd1 1f3d 26d3 33bd b741 ef3c
000000b0: a895 da3b f383 b33d 8e33 c23c c1c5 d83b
000000c0: 6600 75bd 8e02 fdbd 79df 703d 8913 6ebd
000000d0: 3247 603d 9398 fc3d 6e42 ae3d a42a 13bc
000000e0: 9eb0 143d 6d0f d63c 3b9c 8dbd 1581 0a3d
000000f0: cbad e9bb f64d 213d 3b38 c03d b282 16be
00000100: 5f0f aebd e037 88bb 7a2d 433b 9eb6 d43a
00000110: 07a4 fabc ff9d 7ebd 1dc4 f23d aceb 133e
00000120: 99b5 b2bb df37 e3bd 00ac deba 7e0f fe3d
00000130: 55ae aebd 9d83 a53d f427 0a3e d020 973d
00000140: 31ca 213e 212c 273b 0516 353d f8d2 60bd
00000150: a8d8 d3bc e38d 603c 732a 9abd 82b6 85bd
00000160: 9930 213b 52b0 19bb 4844 b73c 4c78 7e3d
00000170: 8c64 ef3d 2069 0e3e 4b01 f53d b9da 33bc
00000180: 0a52 063e c15c cd3d 94e2 a9bc 8fd4 8a3c
00000190: 74da a0bd 5d41 b23d 9edc d3bc 69c8 c3bd
000001a0: 1656 08bd 7e18 1f3e be0b dabc bd5b b33d
000001b0: 2cca 4cbc 2baf 0d3d 7c9b cebc b613 883d
000001c0: 4151 40bb 6d90 a63d 5b94 4bbd d9d1 eebd
000001d0: be1b 443d 7d76 0b3d c8c4 b13d d161 b83d
000001e0: 0067 4b3c 0330 1a3e ebd2 243e 8ebd b1bd
000001f0: 187c 0dbd f099 0b3c 4f5e 6abd 83e5 aabc
0.057943836 0.07295899 -0.034006886 0.06090119 -0.015914503 -0.014994819 -0.05821328 -0.020766651
0.049034923 -0.10949823 0.090543434 -0.0063560223 0.04777266 0.059471484 0.033347365 0.0392119
0.030962242 0.015053486 0.02537652 0.07398596 -0.05223283 0.029197074 -0.054818414 -0.038622864
-0.03288127 0.078030765 0.061869364 0.14530572 0.04896986 -0.0029717516 0.07950414 0.043928362
0.13516206 0.13726243 -0.034095228 0.09202698 -0.0052982676 -0.081938714 -0.12152546 0.049013324
-0.10454979 0.03901803 -0.04390254 0.02920614 0.0066706724 0.08765402 0.023706224 0.006615371
-0.059814833 -0.12354003 0.05880687 -0.0581241 0.054755397 0.12333789 0.08508764 -0.008982334
0.036301248 0.026130402 -0.06914564 0.03381451 -0.0071313134 0.03938099 0.09385725 -0.14698294
-0.084990256 -0.0041570514 0.0029781745 0.001622874 -0.030595792 -0.062162396 0.11853812 0.1444537
-0.005453777 -0.11094641 -0.0016988516 0.12405299 -0.08529345 0.08081744 0.13491803 0.07379305
0.15799786 0.002550848 0.044210453 -0.054888695 -0.025860146 0.013705703 -0.07527628 -0.06528951
0.0024595617 -0.0023451042 0.022371426 0.062126443 0.116891 0.1390729 0.11963137 -0.0109774405
0.13117233 0.10027457 -0.020737924 0.016947059 -0.078541666 0.08703873 -0.025862034 -0.095597096
-0.033285223 0.15536687 -0.026616927 0.08757732 -0.012499373 0.03459088 -0.025220625 0.066443846
-0.0029345306 0.08133016 -0.04970203 -0.11661119 0.04787802 0.034048546 0.08680111 0.09003032
0.012414694 0.15057378 0.16096084 -0.08678733 -0.034542173 0.008520588 -0.057218846 -0.020861393

linear3.weight f4 [64, 128]
00000000: b61b edbd 377d 98bc b089 c6bb 4595 d0bd
00000010: fc47 7c3d 14ec 513d db35 e0bc 82dc 9c3d
00000020: 9594 08be 084d 83bc 0702 883a 9849 42be
00000030: 2be6 1cbd aac1 d7bc dd4a 013d dc7d d2bb
00000040: 3cb5 dfbd 1f80 8e3d b143 9d3d a8d7 f13c
00000050: c505 713d 000d 8fbc 1a25 743d 7cca cb3d
00000060: bb70 ad3d 0427 4a3d c4dd 19be 6521 a9bd
00000070: f51d b1bc c9a8 43bd 9acd 07be 05de 0fbc
00000080: 1d1e 573d 8e49 983d f087 b53d ff89 97bd
00000090: c546 ce3c 2f0b c93d 8d53 003e b904 ae3d
000000a0: 1dc3 9d3c c80a b63d d273 12bd 62f6 803d
000000b0: 3f68 a4bd 6d82 3cbd 1a65 1fbd 6e18 e33d
000000c0: 0f46 b13d 2a71 f33d 8ede 84bd 19c6 323c
000000d0: f368 89bd c644 da3c 739d f5bd e9d7 d9ba
000000e0: 18f6 893d 8e25 b63d 0b85 e83d 1c6e 5e3d
000000f0: e564 1abd 1349 30bd e336 1abb a22d 1d3e
00000100: 4f09 013e 63f3 f23d 7bb1 033d f4d6 b33d
00000110: 4c27 4bbc 2820 db3d 79f5 01be 8d4c 563c
00000120: c782 463d 1adf 913d bda8 adbd 8ee9 15bd
00000130: fffd fc3d e05d df39 9c20 6cbd 9fc4 65bd
00000140: 8a73 c33c 59e9 a9bd 5451 a8bc 4237 3cbe
00000150: 1b98 ab3d bc9c 083e 36b5 4a3d ad71 913c
00000160: 7fda f33c a344 b03d 94b2 e03b c806 ba3d
00000170: 403b 9ebd c35f 703c e7b9 b53c 3e2a 8dbc
00000180: 9052 2d3d d3b7 c83b 9081 84bb 9aa9 0a3e
00000190: acbf 19be 8a53 b4bd da58 1cbe 3d49 a33c
000001a0: 920c a23d f2e8 9f3d 7a10 12bd 90d3 943d
000001b0: 59d5 60bc 3ea3 1cbd 40aa 8bbd e88b 59bd
000001c0: 177c 873d e30d eabd 2d47 fc3c 5454 6e3d
000001d0: b4ed 75bd b75c 533d 87fd 4ebd 2927 3bbd
000001e0: 5f44 2ebd 652c 283c f2a0 fcbc 714a f43d
000001f0: e4bc bebd 44f1 b03d 5c07 e73d 8d28 cc3d
00000200: cd2d 91bb 5f60 263e ba71 00bd a0ce 683d
00000210: 4b12 5abd c743 b6bd bd39 4a3d 13bb a03d
00000220: 5de3 583d 3110 253d 4b69 0b3e 0261 d23d
00000230: 8afe e03c 7723 3b3c be16 9fbd b774 3cbd
00000240: 5fce 833c c147 b7bd 67ca aebb 6485 80bd
00000250: 5763 19be 3767 d83d 84a7 93bd b409 a6bb
00000260: 5b35 a6bd 5224 8b3d 9c86 253e 3209 0ebd
00000270: 2f41 e63d ad56 df3d 2e6d 7b3d 0a56 39be
00000280: f83a 5a3c f071 c83d bbad 31bb fa56 913d
00000290: b209 c23d ac75 bebd a4d8 ddbd 2450 963b
000002a0: a15b a5bd 328f 88bc 3dc6 5ebd 96f4 813d
000002b0: 8cb6 8f3c 1df4 bc3d 51b6 e63c fc23 9dbd
000002c0: 9302 9bbd de32 84bd 77b5 503c 1f0a c63c
000002d0: 0176 cb3c 10fd 3b3d bafd b53d 1e54 78bd
000002e0: d844 f8bd 1221 7fbd 0774 0f3d c38a c23d
000002f0: 4cdb 69bd 5a3a 283d 5726 593d f6af dfbd
00000300: dfe4 dcbd 30ed b2bd ba7d ebbc bf77 5ebd
00000310: 19b7 fa3d f68f 79bd f3c4 df3b 8386 f2ba
00000320: c440 1e3d bcdc 35bb 3ee5 f03c 114d ce39
00000330: 2a79 b2bd 6525 de3b 87e2 af3d fc9e fd3d
00000340: a58b dc3d 1396 813d 567a d23d 54e6 2f3e
00000350: 11dc b83d 9185 1cbe 6466 7f3d 12c3 713d
00000360: 5258 f63d 70be 803d b26b f3bd 5141 213d
00000370: 89e2 7c3d d3e0 5dbc acc7 2e3d 5107 c53d
00000380: 6079 8d3d c942 14bd 46fc 53bd a8ea a03d
00000390: ee60 223e fb60 f53d da91 603e a4f2 bcbd
000003a0: 5882 ce3c a895 d5bb 4522 c7bd 8fd0 b13d
000003b0: ef69 0a3d 0635 a0bd 1a01 8d3d a86d 4c3d
000003c0: dc0c c83c a62b 233d 7548 6dbc 94b8 9e3c
000003d0: f300 d33d 7814 39bd faf9 06bc 4967 80bd
000003e0: 6ec5 19bd 83eb ebbc e606 043e 0e91 5bbd
000003f0: f6f6 da3d dea9 3e3c 9826 23bd ecd8 01be
-0.11577551 -0.018614395 -0.006058894 -0.10184721 0.061592087 0.051250532 -0.02736943 0.07659246
-0.1333793 -0.016027942 0.0010376581 -0.18973386 -0.038305443 -0.026337463 0.031565536 -0.006423695
-0.109232396 0.06958031 0.07678927 0.029521778 0.058843393 -0.017462254 0.059605695 0.0995073
0.08468767 0.049353614 -0.15026003 -0.082583226 -0.02162073 -0.047768388 -0.13262025 -0.008780961
0.052518953 0.074359044 0.08863819 -0.073993675 0.02518023 0.09816586 0.12531872 0.084969945
0.019258076 0.08888775 -0.035754986 0.06296994 -0.08027696 -0.04602282 -0.038914777 0.11088644
0.08655941 0.11886819 -0.064877614 0.010911488 -0.067094706 0.026644122 -0.11992922 -0.0016620132
0.06736392 0.08893882 0.11353501 0.054304227 -0.037693877 -0.04303844 -0.002353125 0.15349439
0.12601207 0.118628286 0.03215168 0.087812334 -0.012399506 0.10699493 -0.12691297 0.013079775
0.048464563 0.07122631 -0.0847945 -0.03659969 0.123531334 0.00042603817 -0.057648286 -0.056095716
0.023858804 -0.08296461 -0.020546593 -0.18380454 0.08378621 0.1334104 0.049489222 0.0177544
0.029767273 0.086068414 0.0068572257 0.09083325 -0.07726145 0.014671269 0.022183372 -0.017232057
0.042315066 0.006125429 -0.0040437654 0.1354126 -0.15014523 -0.08804996 -0.15268269 0.019932384
0.07912554 0.07808103 -0.035660245 0.07266915 -0.013722741 -0.038241617 -0.06819582 -0.05311194
0.06615465 -0.1142843 0.030795658 0.05818589 -0.060041144 0.05160209 -0.05053475 -0.045691643
-0.042545673 0.010264491 -0.030838463 0.11928261 -0.09313372 0.08639768 0.112807006 0.09968672
-0.0044305087 0.162477 -0.031358458 0.056837678 -0.0532401 -0.08899646 0.04937147 0.078481816
0.052951206 0.040298644 0.13614385 0.10272409 0.027465124 0.01142203 -0.077680096 -0.046009745
0.016089616 -0.08949233 -0.005334187 -0.06275442 -0.14979301 0.10566562 -0.072096854 -0.0050670747
-0.081156455 0.06794037 0.1616463 -0.034676738 0.112429015 0.10905204 0.06138342 -0.18099228
0.013319723 0.09787357 -0.0027111608 0.070966676 0.094745055 -0.09299788 -0.108323365 0.00458719
-0.080741175 -0.016669843 -0.054388274 0.06345479 0.0175431 0.092262484 0.028163107 -0.07672879
-0.0756885 -0.06455015 0.012738577 0.024174748 0.024836542 0.045895636 0.08886285 -0.060627095
-0.12122506 -0.062287398 0.03502276 0.09499123 -0.057093903 0.041071273 0.05301508 -0.10922234
-0.10785841 -0.08736646 -0.028746475 -0.054313418 0.12241954 -0.060928307 0.006828898 -0.0018503222
0.038635984 -0.0027749976 0.029406186 0.000393488 -0.087145165 0.00677936 0.085881285 0.123838395
0.107688226 0.063274525 0.1027724 0.17177707 0.09026349 -0.15285327 0.062353507 0.059023924
0.120285645 0.06286323 -0.118857756 0.03936893 0.06173948 -0.013542372 0.04267089 0.09620536
0.06907916 -0.036196504 -0.05175426 0.07857257 0.15857288 0.11981388 0.21930638 -0.092259675
0.025208637 -0.0065180846 -0.09723333 0.086823575 0.033792432 -0.078226134 0.06884976 0.049909264
0.024420194 0.03983655 -0.014482607 0.019375123 0.103029154 -0.045185536 -0.00823831 -0.062697
-0.0375418 -0.028798824 0.12893257 -0.05360513 0.10691635 0.011637179 -0.039831728 -0.12680405

linear3.bias f4 [64]
00000000: 75a9 f0bc 0d9d a63d 9101 6b3d 3cc0 fc3c
00000010: 48b4 cabd 29f6 88bb 9533 1ebc a144 8f3d
00000020: 21ce 213e dac6 f8bd 1af6 163d e2a5 063e
00000030: 5119 873c d29d cebd f7b0 c9bd 0d30 04be
00000040: 2828 34bd 4b27 ae3c 99b9 c23a d1c6 bd3d
00000050: 1c40 8cbc ec12 d5bc 5a41 0d3d 20f1 7ebd
00000060: 6a5a 293d 5422 4f3d 0169 aa3d 3193 1d3d
00000070: 32b5 6e3d fe12 4bbd 1d05 993d 1a73 88bc
00000080: 06e6 a6bd 7770 06be 5690 003e 50c4 b8bd
00000090: c697 853c 40cf 663d 1223 fa3c 2216 de3d
000000a0: 1a12 353d 0d1c 773c 65a9 cf3c 3caf 3dbd
000000b0: 4bae e43c c4f1 153d a9fb cabd e0d6 6b3c
000000c0: c0f1 b33d fb3d 953d dc47 99bd 6ab2 f43c
000000d0: 2cb8 c33d 130b b03d 4b03 f73d a7a0 113d
000000e0: be8e 833d b908 61bd 1c24 ea3c f9b7 eebd
000000f0: fa59 993d 2dd6 0d3d 46aa e4bd f3d6 90bd
-0.029377678 0.08135424 0.05737454 0.030853383 -0.09897667 -0.004179735 -0.009655853 0.06995512
0.15801288 -0.12147303 0.036855794 0.13149217 0.016491564 -0.100886956 -0.098482065 -0.12908955
-0.04398361 0.02125897 0.0014856338 0.09266437 -0.017120413 -0.02601 0.034486152 -0.062241673
0.04134599 0.050569847 0.08320809 0.03847045 0.05827827 -0.04957866 0.074716784 -0.016656447
-0.08149342 -0.1312884 0.1255506 -0.09021819 0.016307723 0.056349993 0.030534301 0.10844065
0.044206716 0.015082371 0.025349328 -0.046309695 0.02791514 0.03660752 -0.099112816 0.014394492
0.087863445 0.072872125 -0.07484409 0.02987023 0.09556612 0.08595862 0.12061175 0.0355536
0.0642371 -0.05493996 0.028581671 -0.11656184 0.07487865 0.034628082 -0.111652896 -0.07072248

output.weight f4 [1, 64]
00000000: ce32 16be 0110 003e 322d bebd 3b5c 0d3e
00000010: 9171 92bd 21b3 673e 96cc 053e 8cc0 af3d
00000020: 978e 893d 7cb8 5dbe e0b8 41be be73 0f3e
00000030: c020 2dbe fee8 99bb 1fd2 1cbe c348 29be
00000040: b1aa 673e 1a1e f73d 7ca5 403e 4da8 033e
00000050: 4863 62be 7c90 433e 7bb4 acbd 7850 dcbd
00000060: 3053 db3d f55c 303e 73a6 0b3e be20 1a3e
00000070: 2d63 293e 0482 11be d9ea ca3d 4a0e 1dbe
00000080: 8ab3 1ebe dba1 40be 7718 493d 931c 2ebe
00000090: 2668 383e 4439 2bbe 13e0 48bd 9f53 043e
000000a0: 06b3 f7bd 4a48 333e cbc6 823d fcc0 1d3e
000000b0: eb5e 44be 2e1d 253e 0024 10be 72f3 25be
000000c0: 27d4 053e 3951 a53d d2d1 24be f698 4fbe
000000d0: 15d9 2f3e b22f 2d3e 677d 063e 4bec fdbd
000000e0: 967f 1f3e 18fb b9bd 2a38 1e3e 68b1 48be
000000f0: 11aa 923d fa3d 22be ca38 93bd b6d1 87bd
-0.14667818 0.12506105 -0.09285964 0.13804714 -0.07150567 0.22626926 0.13066325 0.08581647
0.0671665 -0.21652406 -0.1891818 0.14008996 -0.16907024 -0.0046969643 -0.1531453 -0.16531663
0.22623707 0.12066288 0.18813127 0.1285717 -0.22108185 0.19098085 -0.084328614 -0.10757536
0.10709226 0.1722296 0.13637714 0.15051553 0.16541739 -0.14209753 0.09908075 -0.15337482
-0.15498176 -0.18811743 0.049095597 -0.17003088 0.1800848 -0.16721064 -0.04904182 0.12922524
-0.12094693 0.17508045 0.06385573 0.15405649 -0.19176833 0.16124412 -0.14076233 -0.16206148
0.13069211 0.080721326 -0.16095665 -0.20273194 0.17172654 0.16912726 0.13133775 -0.12398585
0.15576014 -0.090810955 0.15451112 -0.19598925 0.07161344 -0.15843955 -0.07188566 -0.06631796

linear1.weight f4 [128, 34]
00000000: 84e7 edbb fafc 413e fc5a 71bc 3ba5 113d
00000010: ed4b ef3d 1e92 0fbe 54bc 18bd 6c91 1fbe
00000020: 82d6 b8bd 191e 0abe 20ce d2ba a68f dabd
00000030: e2aa debd cf49 533c 2012 23be b1e8 49be
00000040: dd2a 35be 2042 0b3d a51d 0ebe 7f71 b5bd
00000050: c12b ea3c e63d 92bc 5090 fb3d 32e4 ea3d
00000060: 8136 03bc a52e abbd 4925 17bd 84aa 2f3d
00000070: bfb5 a83d b717 153e decc 6cbd 7521 7d3b
00000080: 5c50 843d aa06 a03d 7543 60bd 8000 fbbc
00000090: eee0 db3d 3448 793d f98a b4bd 7d4c c73c
000000a0: 368f 98bd d0e4 a33d e994 373e 6902 183e
000000b0: f7fa 0dbe 2786 bc3d 3e0b b23d b359 febd
000000c0: 07a2 1b3e 9205 bc3c 59d5 2fbd 033d c4bd
000000d0: a192 d6bd ad83 e3bd 69f0 3fbe 002f 27be
000000e0: ff18 363e f0d0 24be 14e2 63bb d0b4 f2bd
000000f0: 113a 0abe 7874 0abd 72cd 2cbe c3ca 183e
00000100: fd92 bc3c 3374 de3c 81c7 083e b724 b6bb
00000110: 72f6 933d a8e3 683d 0bf7 b13d 61be 3f3d
00000120: c126 363e deb4 48bd d957 c0bd 2b57 acbc
00000130: 7d92 ff3d e0c5 1a3e 5924 2ebe a610 ecbd
00000140: ae95 0abe 7c28 f13d 026e a9bd c2e0 e43d
00000150: 1c56 7bbc 1c0f d43d fde1 f53d 1e72 b7bc
00000160: 46a3 2c3e c8f3 59bd c94c d33d 584b 633d
00000170: 1ffe 953d 3d0e 06bd 2755 b73d 0e34 3e3b
00000180: 0d44 b3be e4ac e03d 997e 613d 0cb7 c03d
00000190: fcca dc3d 1e3c 20be 2b7c 2abe ca68 bdbb
000001a0: 9bb6 5abd c82a 7dbd ecd9 633d 9edf 42be
000001b0: d5c9 b9bd 0c2b fcbd b2c6 1a3e 7d21 133d
000001c0: b8c1 acbc 3738 db3d 0980 01be 3672 a4bd
000001d0: 38eb 55be 563e c4bc c461 673d 4fe2 a83d
000001e0: 313d 7abd d59f fe3c 119e c63d a02c 163e
000001f0: 3f4a 533c 5fce 483e 0fa2 433d edca 23bd
00000200: fe7b 28be ad29 6abb 9d65 423e 083c dc3c
00000210: f037 163e 7246 1cbe 9b83 223e cc31 71bd
00000220: 17f9 253e 2206 6a3e 0e31 dbbc ffeb 11bd
00000230: 2f16 d23d 3325 053e 00af 1e3e 1d15 153e
00000240: 8c77 1dbd f3d7 2abe aa07 5cbd 7895 98bd
00000250: eaa8 09be 9762 0cbe baa9 b33b 4635 32bd
00000260: 4e1d 11be 1669 24bd b6b1 0fbe 0c65 2b3d
00000270: 01f7 d7bd e3df 52bc 35ff debc c7c7 3bbd
00000280: 763d 9cbd 4e7f b83d f3d7 423d 8244 253d
00000290: 7c4c 25be 5d34 4b3d 0be2 883d bc2f ba3d
000002a0: 618f 57bd aac8 e73d 7b80 d83c 780b e2bd
000002b0: 2801 83bd a7ea 0abe 0cc0 4abe 1c98 05bb
000002c0: 162e 00bc 8196 dabd 3417 14be 630c 0ebe
000002d0: 6905 9d3d 0f02 da3c 265d 34bc 4c59 cd3c
000002e0: b6c3 e3bd 27fd 4abe 6083 cfbd eca2 3abd
000002f0: c034 1d3d 3b82 e7ba cae8 b53d b58a 833c
00000300: 8e48 123e f395 6fbd 09bc e53d 27cc 6d3d
00000310: 187a d93b 9111 653e 27d9 d63d 7fd8 1f3d
00000320: 7110 563d 54c9 6b3d c7c7 023e 50f9 163e
00000330: 9593 f8bd f2e6 4a3e cea3 993d b845 57bd
00000340: d388 fd3d 8785 0e3e 5782 543e 2bef 933a
00000350: db5e b9bc 2e02 c13d d43c c03d fa18 06be
00000360: 6ecb b63d 2bfe 183e 3b9c 353d 19d5 173e
00000370: 19a2 c0bd 2029 733d b7ab 47bd eacb 993d
00000380: 88ab 0c3e 6270 61bd e9fe 683c 7908 213e
00000390: 309f aa3c f847 abbc 9ebf 013e a2fb 633d
000003a0: 490d e0bd 368b 413e c0b8 043d beaf bc3d
000003b0: 6469 1ebe f0c0 ebbd dc8b 21be ea34 2abd
000003c0: 0c54 1cbe a2a0 eabd ae81 3f3b 4513 d0bd
000003d0: 5f7c 80bd 6132 31be 5a9f df3d 1110 0dbe
000003e0: 703c 023d 1d9f f9bd abd8 81b9 583a 2fbe
000003f0: 4fc6 08be d449 d3bc 46ee 2cbe 0195 3bbe
-0.007260265 0.18944159 -0.014731165 0.035557967 0.116844036 -0.14020583 -0.03728898 -0.15582818
-0.09025289 -0.13488044 -0.0016083159 -0.1067193 -0.10872437 0.012896015 -0.15924883 -0.19717671
-0.17692132 0.03399861 -0.13878496 -0.08859538 0.028585317 -0.017851781 0.12283385 0.11469306
-0.0080086 -0.08358506 -0.036900792 0.042887226 0.0823779 0.14559828 -0.057812564 0.0038624678
0.0646064 0.07813771 -0.054751832 -0.030639887 0.10736261 0.060859874 -0.088155694 0.024328465
-0.0744919 0.08002627 0.17927898 0.1484467 -0.13865267 0.09205275 0.086935505 -0.124194525
0.15198527 0.022951875 -0.042928074 -0.095819496 -0.10477186 -0.111090995 -0.18744053 -0.16326523
0.17782973 -0.16095328 -0.0034772204 -0.118508935 -0.13498713 -0.03380248 -0.16875246 0.14921097
0.023019308 0.027155017 0.13357355 -0.005558576 0.0722474 0.056857735 0.08689698 0.04681242
0.17788221 -0.049000613 -0.093917556 -0.021037659 0.12479112 0.15114546 -0.17006053 -0.11526613
-0.13533661 0.117753 -0.082729355 0.11175682 -0.015340354 0.103544444 0.120059945 -0.022393283
0.16859159 -0.053211004 0.1031738 0.055491775 0.073238604 -0.032728422 0.089517884 0.0029022726
-0.35012856 0.10970476 0.055052374 0.094099134 0.10780904 -0.15647933 -0.16648929 -0.005780314
-0.053396802 -0.061808378 0.05562775 -0.19030616 -0.090716995 -0.12312898 0.15114859 0.03592061
-0.021088466 0.107040815 -0.12646498 -0.080295965 -0.2089051 -0.023955505 0.05648972 0.0824629
-0.061093513 0.031082073 0.096981175 0.1466546 0.01289612 0.19609974 0.047761973 -0.039988447
-0.1645355 -0.0035730407 0.18984075 0.026884094 0.14669776 -0.15261248 0.15870516 -0.05888538
0.16208301 0.22853902 -0.02675679 -0.035625454 0.102581374 0.13002472 0.15496445 0.14558835
-0.038444087 -0.1668394 -0.053718247 -0.07450384 -0.13443342 -0.13709484 0.0054828795 -0.043507837
-0.14171335 -0.04013928 -0.14032635 0.041844413 -0.10545159 -0.012870762 -0.027221302 -0.04584482
-0.0762891 0.090086564 0.047569226 0.040348537 -0.16142458 0.049610484 0.06683739 0.09091136
-0.05262697 0.113175705 0.026428452 -0.11037344 -0.06396705 -0.13566075 -0.19799823 -0.0020384854
-0.007823488 -0.106732376 -0.14461976 -0.13871913 0.076670475 0.02661231 -0.011008536 0.025066994
-0.11121313 -0.19823132 -0.1013248 -0.04556553 0.038380384 -0.0017662713 0.088822916 0.016057352
0.1428549 -0.058492612 0.112175055 0.058056023 0.006636869 0.22369982 0.10490637 0.039024826
0.052261773 0.05756505 0.12771522 0.14743543 -0.12137524 0.19814661 0.075019464 -0.052556723
0.12379613 0.13918124 0.20752846 0.0011286488 -0.022628238 0.09424244 0.09386602 -0.13095465
0.0892552 0.14940707 0.044338446 0.14827384 -0.09405918 0.05936539 -0.048747744 0.07509597
0.13737309 -0.055038817 0.014220932 0.15725888 0.02082786 -0.02090834 0.12670752 0.055659898
-0.10940034 0.18900761 0.032402754 0.09213208 -0.15469891 -0.11511409 -0.15776008 -0.04155437
-0.15266436 -0.114564195 0.0029221582 -0.10159925 -0.06273722 -0.17304374 0.10919066 -0.1377566
0.03179592 -0.121885516 -0.00024766228 -0.171121 -0.13356899 -0.02579204 -0.16887769 -0.18318559

linear1.bias f4 [128]
00000000: 7bb9 4e3e 7e6f e3bd 3169 6f3e 3c9f da3d
00000010: dea9 00be 0cfa cbbd 9cff 083e c770 f0bd
00000020: 0009 113e 95c8 1f3e f184 c9bd bd56 163e
00000030: d6d3 103e f42f ef3d 7f8c 75bc 4f79 883c
00000040: 59e4 eb3c ff2c 563e d08d acbd 58c3 6f3e
00000050: 4f58 abbd 0059 e83c 7e0c 2cbc 98c4 9a3d
00000060: 5434 7a3e c42e bebb 4238 34bc d679 103e
00000070: bd58 af3d 4a46 e13d 9e6b d03c 9598 03be
00000080: b42b a93c 9f35 9438 618c f83d 7f31 a8bd
00000090: 2f4f b7bb e57b 9dbc 3e78 a8bb 6c9a 3a3e
000000a0: 1c53 a6bd 6834 ff3d bf48 833d 7b47 853e
000000b0: b1d2 d8bd f330 843d 90b9 f33d 21da c8bd
000000c0: 4ab1 5b3e adcd 783c 7550 5d3d 6c85 143e
000000d0: df16 8f3c 8a11 d6bc dd7e ea3d 600a 01be
000000e0: 6075 77bd 8db7 85bc e3ab c5bd 9428 03be
000000f0: 9eab e4bd 5aed 943d eee2 2e3e c981 1b3d
00000100: 7aaf c1bc 0e0b f6bd 9d03 c13d 8368 b5bd
00000110: f7ca edbd fc7a 40bd 43c6 eebd c250 d7bd
00000120: a535 d83c 4f39 1a3e 253a 203d 3a53 6f3c
00000130: 1e3d 35be 2100 a4bd 0d5c b3bc 98e1 03be
00000140: 4a45 003e db0c 363e 482a b83c 6ff7 9ebd
00000150: 0c0c 71bb 5723 13be 2361 4cbb 744c 303d
00000160: 42cd 093e 343c 81bd 957c 263e 7413 113d
00000170: ac81 16bc 58c2 e9bd a127 94bd 6b84 123e
00000180: 4e2e 163d 7997 9f3d 955b 433e 6e4b a83b
00000190: d291 b23d 869c b53d 91b0 1dbe 2ce5 71bc
000001a0: fe5b 503d 5b9f 253e 3268 ccbd bb24 f93d
000001b0: 2afe 9a3d 5330 dbbd 1a98 703e 8902 b53d
000001c0: 126c 613e e667 06be 12a9 ae3d 8a28 ee3d
000001d0: 6b99 8f3d 7c32 223d 2c0a a3bd de8b 233e
000001e0: 895e 0a3d 65bd 43bc d3cd 093e e92d 9b3d
000001f0: 9274 1d3d 82de 8b3b e89c b93b e4db d33d
0.20187943 -0.1110525 0.23379971 0.10674903 -0.12564799 -0.09959802 0.13378757 -0.117402606
0.1416359 0.1560386 -0.0983981 0.14681526 0.14143309 0.11679068 -0.01498711 0.016659407
0.028795408 0.20915602 -0.08425486 0.23414361 -0.08366453 0.028362751 -0.010501025 0.075570285
0.24434024 -0.0058039147 -0.010999741 0.14108977 0.08561847 0.10999735 0.02544194 -0.12851174
0.020650722 7.067178e-05 0.1213615 -0.08212566 -0.005594156 -0.019224117 -0.005141287 0.1822297
-0.081213206 0.124611676 0.064103596 0.26031098 -0.10587061 0.06454649 0.119006276 -0.0980723
0.21454349 0.015185756 0.054031808 0.14504021 0.01746696 -0.02613141 0.114499785 -0.12601614
-0.060414672 -0.016322875 -0.096519254 -0.12808448 -0.11165546 0.07271834 0.17078754 0.03796557
-0.023643244 -0.12013827 0.09424517 -0.08857825 -0.11610978 -0.046992287 -0.11658909 -0.1051345
0.026392767 0.15060924 0.03911795 0.014607245 -0.17699096 -0.08007837 -0.02189448 -0.12879026
0.12526432 0.17778341 0.022481099 -0.07762038 -0.0036780862 -0.1436895 -0.0031185828 0.04304166
0.13457206 -0.06310311 0.16258462 0.035418943 -0.00918619 -0.11414021 -0.07234121 0.14308326
0.036665253 0.07792563 0.19077905 0.005135945 0.08719219 0.08867745 -0.15399386 -0.0147641115
0.05086898 0.1617407 -0.09980811 0.12165209 0.07568009 -0.107025765 0.23495522 0.08838374
0.22013882 -0.13125572 0.08528341 0.11628826 0.07011684 0.039598927 -0.079609245 0.15971324
0.033781562 -0.011947011 0.13457422 0.07577116 0.03844125 0.0042684684 0.0056644566 0.10344675

linear2.weight f4 [128, 128]
00000000: a743 b23d 0c4a 2bbb 8185 6c3d 1a8e f0bc
00000010: ca03 a53d 37f2 063d 09c6 ad3d adf6 2b3d
00000020: 1618 343d 90c6 5b3d 514c cdbd d0e6 8abd
00000030: 144f ce3d dd6b d43b c363 36bd aaf4 bebd
00000040: 5955 b63d b394 c53c b74e 563d ccc5 e6bc
00000050: c567 a2bd ee49 4bbd 0ff3 31bd 3c24 adbc
00000060: e676 4b3d 3a38 693d d550 bebb ffe0 613d
00000070: 6167 253d 57e1 243d 640c 07be a884 603c
00000080: aaf5 843c 07f3 413d 1540 ffbb 5630 ecbd
00000090: c1bf 6b3d b3c7 843d 9f5c a2bd 34c2 4b3d
000000a0: 49d7 583d 5424 d3bd 85f9 6d3d 1498 923d
000000b0: cc5b 73bd d791 32bc 510c 36bd 3292 debc
000000c0: ccb5 963d dc25 3dba e663 70bc 6af9 8bbd
000000d0: a9e8 033d 4114 ebbd 3e2a e53b f2c0 efbd
000000e0: 7706 0c3c 7b35 a5bd 6268 d1bb 3d52 893d
000000f0: d565 b3bd fea7 b5bc 711c 4a3b 7df3 39bd
00000100: 9bfa a8bd ee3a 25bd 2c3d 2c3d 4ae4 3bbd
00000110: fe5a 2a3c 4d5d bfbc 9f23 9e3c b71a babc
00000120: c1b0 363d 2157 65bd a5d5 a53d b442 803c
00000130: 58a4 88bc 1ed9 5f3d 7b32 033d 18fc 9ebd
00000140: 9d5b d53d 6b87 5d3c 85e8 493d 6e79 d539
00000150: a142 643d eca4 d33c 7d95 00bd 7a2b 863d
00000160: 56cd dbbd a588 d83d 6dce 2b3d 8ae7 853d
00000170: 1302 183e 084b 47bd ef8d 2cbd 174f 96bc
00000180: cb29 a43c 7da2 843b 21d2 ac3d 32cc 1fbd
00000190: 2314 92bc 8e16 b83d df91 763d 0109 203d
000001a0: f50d adbd 8163 5c3d a815 67bd a7e1 013c
000001b0: 28f9 1f3d 5c10 0a3e fbaa c13d ece6 263d
000001c0: 1c94 1ebd 7433 acbc 0279 453c eeba f03b
000001d0: 1c98 f339 37b6 813b a045 70bd d39d 64bd
000001e0: a145 c23c e43c f439 ef59 903d 9ddc 443d
000001f0: b237 f13c 4fca ccbd 9b7f 633d 618a aebc
00000200: 68ca b3bd 23be 873d 7d39 b93d f720 aabd
00000210: 37c7 683d fa3f 563b ce35 1dbd 27b0 20bc
00000220: bce8 833c 9a88 98bc c455 c0bb 8528 2b3d
00000230: a5a0 a33d 4662 48bd f5d4 95bd 8683 913d
00000240: e959 543c dbf1 5e3d 6963 24bd c5ed 983d
00000250: a65b 9dbd 8d76 ac3c b9ac 833d 5d2c 9dbb
00000260: b0f3 dabb f851 b0bd 9b5c 5c3c f44e 07bd
00000270: 6d67 84bd 18d7 f63c 5be8 e73d 294a 2d3d
00000280: b9ef 17bd f9fe 833d 67b9 8c3b b224 5abd
00000290: b104 b3bc 37b3 edbc c8c0 323d 92ee ddba
000002a0: fb8c 833d 5120 70bd c706 a3bc a517 c53d
000002b0: 08a2 a83c 5540 f8ba 38a3 0eba f3be 25bc
000002c0: 9c0b 063b 44a6 7b3c 697e f33d 4307 de3b
000002d0: a295 073e 07d1 233c 7299 b73c 5958 bc3d
000002e0: cebc 30be 4bd6 47bd dc7b ce3d 6a28 63bd
000002f0: bb8b 8cba 0ada 8dbd c80e c23d e86a 8bbc
00000300: 22df cabc ea7f 6ebd a4ec 3cbd aa41 c6bc
00000310: adf9 613d 1a29 083d 6e23 253d 5c8f ccbc
00000320: d80b a3bd 0b9a 6d3d 3d2b 4abd 2521 84bd
00000330: 889b 34bd 1eed 83bc 675e 5f3d 0a53 34bd
00000340: 5de5 9bbc c6c9 2ebd 98a7 953d f439 b53c
00000350: 4c84 45bc a040 febb ea57 f13d cf1b d0bc
00000360: efc8 9ebd e7fb 64bb 95ea 1bbd fdac ed3c
00000370: 44db 963d d0fb f5bc d1a0 413d 67e5 e6bc
00000380: 0e66 9a3d 50a8 f4bc df9b aabc 504d dd3d
00000390: ddb0 8b3d eb8c 353d d9cf 4e3c 33e3 6f3d
000003a0: 8e62 883d fba0 813d f853 ac3d a6fb 4a3c
000003b0: 5458 983d 6ea1 3e3d 82ec 7ebd a2e8 3b3d
000003c0: 9818 aebd f4e2 6dbd b26a be3d 635a 9cbc
000003d0: 797b d2bd 0ead f53d e945 aa3c 6da8 da3c
000003e0: 36bd 663d b066 0c3d 9271 d53d 452e ba3d
000003f0: ff44 bcbd 7fdf 863d 046f a83d 87fd 413d
0.0870431 -0.0026136665 0.057744507 -0.029364634 0.08057363 0.032945838 0.08485038 0.041983295
0.043968283 0.05365616 -0.10024322 -0.06782305 0.10073677 0.006482585 -0.044528734 -0.0932401
0.089029975 0.024118757 0.052321162 -0.028170489 -0.07929949 -0.04963105 -0.04344469 -0.021135442
0.049673937 0.056938387 -0.005807976 0.055146214 0.040381793 0.040253963 -0.1318832 0.013703503
0.016230423 0.04735091 -0.0077896216 -0.11532657 0.057555918 0.06483402 -0.07927822 0.049745753
0.052939687 -0.103096634 0.05809929 0.07157913 -0.059413716 -0.010899029 -0.04444534 -0.02716932
0.07358894 -0.00072154193 -0.014672255 -0.06834681 0.032204304 -0.114784725 0.006993561 -0.11706723
0.008546463 -0.08066841 -0.006390617 0.06705139 -0.08759657 -0.022174831 0.0030839706 -0.045398224
-0.08250924 -0.040339403 0.042050526 -0.04587201 0.010397671 -0.023359919 0.019304095 -0.022717817
0.04460216 -0.055991296 0.0809739 0.015656807 -0.016679928 0.05465042 0.032030564 -0.07762927
0.104178645 0.013521056 0.049294014 0.00040716998 0.055727605 0.025835477 -0.031392563 0.06551261
-0.10732524 0.10572938 0.04194491 0.06538303 0.14844541 -0.04865554 -0.042127546 -0.01834826
0.02003946 0.0040476904 0.084385164 -0.039013095 -0.017831868 0.08988677 0.060197707 0.039071087
-0.08449928 0.05380583 -0.056417137 0.007927335 0.039055973 0.13482803 0.0945644 0.040747568
-0.038715467 -0.021020629 0.012052776 0.0073465025 0.00046461902 0.0039584893 -0.05866015 -0.055814575
0.023714842 0.00046584674 0.070484035 0.048061956 0.029445503 -0.09999525 0.055541616 -0.021306219
-0.0877884 0.066280626 0.09044168 -0.08307069 0.05683061 0.0032691942 -0.03838139 -0.009807623
0.016102187 -0.018619824 -0.005869599 0.04178669 0.07989625 -0.048921846 -0.07316009 0.07105164
0.012960889 0.05442987 -0.040133867 0.07467226 -0.07683496 0.021052623 0.064294286 -0.0047965483
-0.006681882 -0.08609384 0.013449813 -0.03303428 -0.064650394 0.030131862 0.11323615 0.042307053
-0.03709385 0.064451165 0.0042945626 -0.05325765 -0.021852823 -0.02901612 0.04364088 -0.0016932061
0.06423374 -0.05862457 -0.019900693 0.096236505 0.020585075 -0.0018940071 -0.00054411916 -0.010116327
0.0020453697 0.015359465 0.11889345 0.006775768 0.13240674 0.0099985665 0.022412036 0.091965385
-0.17259523 -0.04878835 0.10082218 -0.055458464 -0.0010722795 -0.06926353 0.094754755 -0.01701875
-0.024764601 -0.058227457 -0.046124116 -0.024201233 0.05516975 0.033242323 0.04031699 -0.024970703
-0.079612434 0.058008235 -0.04935764 -0.06451634 -0.04409364 -0.016104277 0.05453339 -0.044024505
-0.019030267 -0.042672895 0.073073566 0.02212236 -0.012055468 -0.0077591687 0.117843464 -0.025403885
-0.07753169 -0.0034940185 -0.03806551 0.029013151 0.0736604 -0.0300273 0.047272507 -0.02818556
0.07538997 -0.029865414 -0.020826278 0.10805762 0.06820843 0.044323843 0.012622797 0.058566283
0.06659423 0.06329533 0.08414453 0.012389099 0.07438722 0.04654067 -0.06223727 0.045876153
-0.08500785 -0.058077767 0.09297694 -0.019086068 -0.10277457 0.11995898 0.020785289 0.02669164
0.05633279 0.034277618 0.104220524 0.090908565 -0.091928475 0.06585597 0.082242996 0.047360923

linear2.bias f4 [128]
00000000: ec2c 5e3d df79 883d eb93 f9bc 74d6 793d
00000010: 02c2 10bc 607e 61bc 9fcb 68bd e1aa 4ebc
00000020: 415b 3b3d 2166 d9bd 8559 ad3d 2a4e a8bb
00000030: fc30 323d 2a0d 823d 783c 173d 3074 373d
00000040: f790 d33c 860d 913c f972 ec3c dac8 a43d
00000050: 07a9 61bd 4662 cf3c 67f2 52bd 1123 0abd
00000060: bc51 f1bc f615 9c3d 4823 823d bff4 123e
00000070: 9efe 433d 4530 29bb d413 9e3d 476b 273d
00000080: bbcf 053e aa0c 0a3e 637b 00bd f5d3 c03d
00000090: 90de c4bb d097 9dbd 60b8 ecbd 5c16 553d
000000a0: 37f8 cebd bc85 2e3d dda8 1bbd e2d6 073d
000000b0: b8f5 653b 9c88 ad3d 46e2 e13c 2e3e 2a3b
000000c0: de8e 5bbd bdea f5bd 4381 7c3d 18c0 73bd
000000d0: 733d 523d 8a34 f53d 532f a73d 9dee 95bb
000000e0: 7f09 2a3d 9aca fc3c 1eb4 81bd d5d2 1b3d
000000f0: 3d20 71bb 71ce 113d ce33 c73d 0fb1 10be
00000100: 73eb a2bd d8dc 183b 8d5a 603a 0a70 d23b
00000110: 39d3 f0bc 200d 68bd 0fae e73d bac7 113e
00000120: 5c95 f0bb 10c0 d8bd a152 0bbc 3fd1 f13d
00000130: 1db4 a3bd 32f7 ad3d cb63 043e 03d8 8d3d
00000140: ba19 1e3e 3a9b a4bb 14c8 373d 5d71 5ebd
00000150: 53b8 b3bc 2cea a63c 31d3 92bd a189 79bd
00000160: 8cab 2dbb 1302 413a bf03 da3c 6ab4 8a3d
00000170: 44a8 e93d 197e 0b3e b547 ef3d 53a8 8cbc
00000180: 77e5 023e 4d0d c53d e9bd 8fbc 005b b63c
00000190: 2c42 9fbd f901 a93d d016 d3bc d1be bcbd
000001a0: cf90 eebc ad91 1b3e e3e4 afbc 3798 c23d
000001b0: 6ada 80bc a660 033d 2b9f babc d81e 843d
000001c0: 3c8d 5f3b 3e34 a13d 937b 35bd 7268 e4bd
000001d0: 9165 373d c806 fe3c 0c34 ab3d 4903 ac3d
000001e0: ac03 573c 6817 183e fea2 203e c171 a7bd
000001f0: 0dc2 15bd f0f1 4f3c 6b24 4cbd 9013 58bc
0.05424206 0.0666387 -0.03046604 0.060995534 -0.008835318 -0.01376304 -0.056834813 -0.012613983
0.045741323 -0.10615183 0.0846434 -0.005136271 0.043503746 0.06350167 0.036922902 0.04478854
0.02582596 0.017706644 0.028863417 0.08046122 -0.055092838 0.025315415 -0.051500704 -0.03372485
-0.02945792 0.07621376 0.063543856 0.14351176 0.047850244 -0.0025816124 0.07718626 0.040873792
0.13067524 0.13481393 -0.03136767 0.094154276 -0.006007977 -0.076949716 -0.11558604 0.052023277
-0.10105937 0.042608008 -0.038002837 0.033163913 0.0035089087 0.08473322 0.027573716 0.0025977003
-0.053603046 -0.120076634 0.06164671 -0.059509367 0.051328134 0.11972912 0.08163323 -0.004575564
0.041512962 0.030858327 -0.06333183 0.038042862 -0.0036792897 0.03559727 0.09726678 -0.14130042
-0.079550646 0.0023324993 0.0008558415 0.0064220475 -0.029397594 -0.056653142 0.11312496 0.14236346
-0.007342024 -0.10583508 -0.008503587 0.11807489 -0.07993338 0.084944144 0.12928693 0.069259666
0.15439501 -0.0050233873 0.044868544 -0.05430733 -0.021938479 0.020375334 -0.07169188 -0.06092227
-0.0026499955 0.0007362675 0.026613114 0.067726925 0.11409047 0.13622321 0.11683599 -0.017170107
0.12782846 0.096216775 -0.01754661 0.022260189 -0.07776293 0.082523294 -0.025767714 -0.09216083
-0.029121784 0.1519229 -0.021471446 0.09501689 -0.015729148 0.032074593 -0.022780975 0.064511955
0.0034111282 0.078712925 -0.044307303 -0.11152734 0.044774596 0.031009093 0.083595365 0.08399064
0.013123434 0.14852679 0.15687177 -0.08175994 -0.036562014 0.01269196 -0.04983942 -0.013188258
