Data/Player1/checkpoint-rndTest6.pth (torch, 384862 bytes, 28 tensors)

linear1.weight f4 [128, 34]
-0.066623546 0.017288594 0.13949426 -0.071063615 -0.040855993 0.0011758807 0.03423642 0.09042671
0.09829303 -0.003136971 -0.056757826 0.039343473 0.0025762476 0.0029179906 -0.025257116 -0.16643046
0.036712136 -0.031289298 -0.015094616 0.014094074 0.025962364 -0.01519648 -0.0140395155 -0.15606569
0.1054131 -0.038485043 -0.094151445 0.26331168 1.5704963 -0.28162566 0.15625168 0.14025944
0.010993031 0.053370565 -0.13069257 -0.13287921 0.1520381 -0.101412006 0.019058852 0.31336665
0.5031737 0.012449142 -0.06279003 0.33297536 0.054533806 0.11720308 -0.18947574 0.048158728
0.0022394636 0.05360009 -0.082380526 0.014688737 -0.053762726 -0.035100687 0.031302612 0.07375145
0.05133497 -0.021808935 0.020417465 0.0040593133 0.26592728 0.16240956 -0.82510865 -0.2301578
0.062854536 -0.04532164 -0.06149933 0.023425708 0.09631196 0.10606919 -0.29118267 0.14833646
0.17480648 -0.0828738 0.0022314491 -0.07065518 0.12933709 0.060213596 0.18687426 -0.013621881
-0.0911116 0.081856854 0.19032136 -0.22506195 -0.07936095 0.1051649 0.16588625 0.17374939
-0.033312798 0.06878058 0.09514397 0.16928332 -0.04779366 0.015926274 -0.14436427 0.07199805
-1.2425327 -0.16417891 0.10443489 -0.025385508 -0.11444147 0.12868789 -0.33871624 0.108722426
-0.045194548 -0.31959397 -0.08418954 -0.20315665 -0.38806415 -0.11001308 -0.08821351 -0.13031135
-0.075445004 -0.075817384 -0.09577739 -0.13956831 -0.09627323 -0.113080725 -0.105465636 0.11173897
0.017368032 0.01257509 -0.016785296 0.006372199 0.007959954 0.09199595 -0.100248314 -0.12837814
-0.27239057 -0.36695114 0.30435777 -0.16226915 0.10325086 0.0033993418 0.112194106 0.02207857
-0.016659265 -0.4934553 -0.21701196 -0.1666653 -0.025843194 -0.15652889 -0.0069154757 -0.24762206
-0.17470075 -0.07562766 -0.019006701 -0.11157448 -0.16562152 -0.006514506 -0.094444565 0.18548961
-0.04297594 -0.15563354 -0.088259414 -0.38903597 -0.060996167 0.052461073 0.22680451 0.12127251
0.009774103 0.088698395 -0.39508194 -0.38428506 1.5836966 -0.26919705 -0.11101385 0.211061
-0.06656218 -0.09665627 -0.12423001 -0.0010501189 0.0022283962 -0.09216113 -0.22943576 -0.08002186
-0.06623606 -0.23637195 -0.051988907 0.025940431 -0.077889025 -0.030958429 -0.1820455 -0.033009876
0.16009416 -0.014360565 -0.01668413 -0.08451794 0.094756834 0.10590049 0.07256902 -0.07429181
0.14731637 0.038548924 0.19074126 0.21993305 0.144319 0.004928041 0.2581283 0.054245207
-0.14786723 -0.032403633 0.1098409 0.16185588 -0.09217122 -0.1374995 -0.036857452 0.29835656
0.28110906 0.22397834 0.2840714 -0.088040434 0.3150975 0.24064794 0.07727479 0.11272649
0.26436785 0.0053965203 -0.1217387 0.26465824 0.18135117 0.046652358 -0.032141306 0.13659067
-0.0728439 -0.026675345 -0.09314133 -0.055366755 -0.08611165 -0.04956482 0.3155288 0.18296012
-0.55438787 0.092943296 0.0025567 -0.11319756 0.066589884 0.16015643 0.02080294 0.018008577
-0.16763811 0.010215865 -0.057474904 0.05101303 0.09947872 -0.03762365 0.17813244 0.0004341971
0.17429416 0.010646703 0.09755223 0.27363002 -0.1545719 0.09149883 0.025408575 0.033300202
00000000: ed71 88bd cfa0 8d3c 95d7 0e3e cd89 91bd
00000010: 9d58 27bd 0220 9a3a 7d3b 0c3d a431 b93d
00000020: db4d c93d a495 4dbb e57a 68bd 9f26 213d
00000030: 43d6 283b c23b 3f3b 03e8 cebc bf6c 2abe
00000040: 775f 163d 3529 00bd 694f 77bc d5ea 663c
00000050: 06af d43c a8fa 78bc ff05 66bc afcf 1fbe
00000060: d3e2 d73d 7ea2 1dbd 79d2 c0bd cad0 863e
00000070: 0606 c93f 3d31 90be 7100 203e 2ca0 0f3e
00000080: 1d1c 343c 189b 5a3d 46d4 05be 7d11 08be
00000090: e0af 1b3e 19b1 cfbd 4f21 9c3c 9871 a03e
000000a0: fecf 003f 7cf7 4b3c 0f98 80bd bf7b aa3e
000000b0: d75e 5f3d 2b08 f03d ee05 42be 1642 453d
000000c0: f7c3 123b c58b 5b3d 1fb7 a8bd 07a9 703c
000000d0: 4e36 5cbd bdc5 0fbd 2b37 003d 000b 973d
000000e0: 9e44 523d a7a8 b2bc 8742 a73c fd03 853b
000000f0: 9f27 883e b14e 263e 523a 53bf 7cae 6bbe
00000100: e1b9 803d 2fa3 39bd b9e6 7bbd 45e7 bf3c
00000110: 343f c53d ce3a d93d e515 95be 83e5 173e
00000120: 7800 333e bdb9 a9bd 813d 123b aab3 90bd
00000130: f170 043e 88a2 763d f75b 3f3e 4f2e 5fbc
00000140: b898 babd 91a4 a73d 9ae3 423e a476 66be
00000150: fe87 a2bd b260 d73d 16de 293e 5ceb 313e
00000160: 0073 08bd d5dc 8c3d d7da c23d 9b58 2d3e
00000170: 49c3 43bd d177 823c 3ad4 13be b773 933d
00000180: 500b 9fbf 841e 28be f6e1 d53d 45f5 cfbc
00000190: 4a60 eabd c2c6 033e 376c adbe dda9 de3d
000001a0: eb1d 39bd d2a1 a3be 916b acbd 4c08 50be
000001b0: 58b0 c6be 8a4e e1bd 49a9 b4bd 5770 05be
000001c0: e982 9abd 2546 9bbd f026 c4bd ffea 0ebe
000001d0: e62a c5bd de96 e7bd 5efe d7bd 67d7 e43d
000001e0: 6747 8e3c c007 4e3c 5181 89bc e1cd d03b
000001f0: 786a 023c 5f68 bc3d fd4e cdbd 8f75 03be
00000200: c776 8bbe 05e1 bbbe c8d4 9b3e e229 26be
00000210: 3075 d33d 7ec7 5e3b 06c6 e53d 1ede b43c
00000220: 0379 88bc 2ca6 fcbe 6238 5ebe 4faa 2abe
00000230: 1bb5 d3bc 1c49 20be 379b e2bb a390 7dbe
00000240: c1e4 32be ade2 9abd f1b3 9bbc 2981 e4bd
00000250: b098 29be a377 d5bb 276c c1bd fdf0 3d3e
00000260: 8a07 30bd 665e 1fbe 5ac1 b4bd b92f c7be
00000270: 1ed7 79bd 6ce1 563d 713f 683e b95d f83d
00000280: 8f23 203c 81a7 b53d 2e48 cabe 03c1 c4be
00000290: 92b6 ca3f 32d4 89be 3b5b e3bd 6020 583e
000002a0: c151 88bd b9f3 c5bd 4e6c febd 25a4 89ba
000002b0: 490a 123b f9be bcbd 35f1 6abe 80e2 a3bd
000002c0: c5a6 87bd 7d0b 72be 52f2 54bd 0781 d43c
000002d0: 4884 9fbd 889c fdbc 236a 3abe 5d35 07bd
000002e0: b9ef 233e 9348 6bbc 28ad 88bc be17 adbd
000002f0: df0f c23d 5be2 d83d 119f 943d 4e26 98bd
00000300: 1ada 163e 7ae5 1d3d ad51 433e 2136 613e
00000310: 5cc8 133e 677b a13b 6429 843e 3930 5e3d
00000320: 826a 17be acb9 04bd 44f4 e03d 8cbd 253e
00000330: 44c4 bcbd abcc 0cbe d7f7 16bd 31c2 983e
00000340: 87ed 8f3e 945a 653e ce71 913e 8b4e b4bd
00000350: 7654 a13e 6a6c 763e 3f42 9e3d 25dd e63d
00000360: 395b 873e 4bd5 b03b 2452 f9bd 4981 873e
00000370: 1fb4 393e 8b16 3f3d 9aa6 03bd 6dde 0b3e
00000380: 2f2f 95bd 4186 dabc e2c0 bebd 40c8 62bd
00000390: 4e5b b0bd 7b04 4bbd fe8c a13e e659 3b3e
000003a0: 5dec 0dbf 0e59 be3d 4f8e 273b 1fd4 e7bd
000003b0: 4760 883d 0c00 243e ed6a aa3c b986 933c
000003c0: 53a9 2bbe 7260 273c ce6a 6bbd 0af3 503d
000003d0: 80bb cb3d 421b 1abd 5a68 363e f3a4 e339
000003e0: 2b7a 323e 826f 2e3c 77c9 c73d 3c19 8c3e
000003f0: 1948 1ebe bd63 bb3d a525 d03c cb65 083d

linear1.bias f4 [128]
-0.6455798 0.6537197 0.53936017 -0.26084146 0.43573853 -0.6071366 0.4931617 -0.018111117
-0.23893958 0.4907517 0.56276524 0.37535313 0.30289873 0.3947009 0.23070012 0.22537698
0.50970274 -0.31504452 -0.2703941 -0.18327338 0.26975673 0.3036007 0.47292316 -0.18327034
0.39576963 0.6080163 -0.3672934 0.3861442 0.7431366 0.529268 0.41468367 0.2695523
0.043076567 0.55847806 0.47757074 0.5174749 0.21856226 0.38816616 0.36415172 0.60325116
-0.10263138 0.24116595 -0.5126857 0.557216 0.73547995 0.4959279 0.5390973 0.529022
-0.31697318 -0.16725485 0.27852443 0.21608765 0.6889615 0.55426484 0.062395457 0.026525607
-0.4517582 -0.36037618 0.7477763 0.5384279 0.43847957 0.4280513 0.60138875 0.16410077
0.7117541 -0.24343541 -0.6521652 0.6443642 -0.09174595 -0.5921141 0.62367034 0.5228734
0.30823582 0.4775551 -0.46030694 -0.2185649 0.35650444 -0.5179738 0.32056978 0.2992459
-0.34166077 0.28704116 0.5411488 0.50686723 -0.13068551 0.8118908 0.0015006956 0.28081885
-0.3198052 0.3235252 0.7552395 0.7120562 -0.48318774 -0.44963846 0.561808 -0.16593175
-0.45513985 0.45721924 0.3715546 -0.09038352 -0.43043607 0.4007467 0.39091602 -0.18797624
0.5326798 -0.6305793 0.12672304 -0.08792783 -0.49745843 0.4518709 0.09200663 0.21862966
-0.030787108 0.6884481 -0.17885184 0.6609555 0.36169305 0.12515251 -0.18160549 -0.56688803
-0.012952911 -0.11848314 0.35292453 -0.38290623 0.15271853 -0.5008235 0.14029792 0.40923077
00000000: b844 25bf 2d5a 273f 8213 0a3f 038d 85be
00000010: 1f19 df3e 4e6d 1bbf b17f fc3e c45d 94bc
00000020: 94ac 74be cf43 fb3e 6211 103f 492e c03e
00000030: 8b15 9b3e 3d16 ca3e a73c 6c3e 39c9 663e
00000040: e17b 023f 844d a1be 1871 8abe 04ac 3bbe
00000050: 8e1d 8a3e 8d71 9b3e fc22 f23e 38ab 3bbe
00000060: 51a2 ca3e f5a6 1b3f e10d bcbe b1b4 c53e
00000070: 333e 3e3f 1c7e 073f 6b51 d43e c202 8a3e
00000080: 0e71 303d 6bf8 0e3f 2784 f43e 3c79 043f
00000090: c9ce 5f3e b7bd c63e 1872 ba3e ab6e 1a3f
000000a0: 6730 d2bd 35f4 763e 5f3f 03bf b5a5 0e3f
000000b0: 6a48 3c3f 43ea fd3e 4802 0a3f fc6d 073f
000000c0: 4f4a a2be db44 2bbe c19a 8e3e 1546 5d3e
000000d0: c85f 303f 4de4 0d3f 6192 7f3d 3b4c d93c
000000e0: da4c e7be 3a83 b8be 456e 3f3f 69d6 093f
000000f0: 6580 e03e 8a29 db3e 9df4 193f 080a 283e
00000100: 8435 363f 2247 79be 4cf4 26bf 0df5 243f
00000110: 4de5 bbbd ca94 17bf dca8 1f3f 08db 053f
00000120: 16d1 9d3e 1a82 f43e 5aad ebbe 7acf 5fbe
00000130: c087 b63e ee99 04bf b921 a43e c236 993e
00000140: 29ee aebe 0ff7 923e ba88 0a3f 0dc2 013f
00000150: 6cd2 05be 13d8 4f3f fdb2 c43a 7dc7 8f3e
00000160: 82bd a3be 18a5 a53e 6057 413f 5149 363f
00000170: 6264 f7be 0337 e6be a6d2 0f3f 03ea 29be
00000180: 1708 e9be a418 ea3e 683c be3e ff1a b9bd
00000190: 1e62 dcbe ac2e cd3e 2526 c83e d87c 40be
000001a0: b45d 083f a56d 21bf afc3 013e 8213 b4bd
000001b0: dfb2 febe 9f5b e73e f96d bc3d 74e0 5f3e
000001c0: 3f35 fcbc 223e 303f f024 37be 6134 293f
000001d0: d52f b93e fb27 003e caf6 39be 931f 11bf
000001e0: 7238 54bc 4aa7 f2bd 86b2 b43e 490c c4be
000001f0: 3f62 1c3e f835 00bf 42aa 0f3e b286 d13e

linear2.weight f4 [128, 128]
0.32279703 0.094787695 -0.40082058 0.19855748 0.34158576 0.21508305 0.12175058 0.19246936
0.03546455 0.2865482 0.039425578 -0.060740016 0.19921258 -0.0769177 0.12857273 0.5014219
0.123671725 0.03720382 0.15983675 0.15354784 0.19844349 0.2432501 0.016706891 0.16208097
0.23775008 0.20346743 0.16121864 0.11302129 -0.12859629 -0.17647609 0.008451195 0.030078232
0.40122482 -0.08933708 -0.23577912 0.010591797 0.104344755 0.10279279 0.19363077 0.22262558
-0.15583335 0.04985044 0.43123224 -0.16413596 0.0024524136 -0.0005266427 -0.07148016 -0.024889218
-0.08824418 -0.3265201 -0.092898756 -0.033462346 -0.0899862 -0.03606594 0.22227055 0.12719624
0.4785604 0.42869097 -0.1553395 0.041879714 0.24041876 -0.054659385 0.020432469 -0.010759268
-0.02898577 0.13062678 0.027006542 0.026174737 -0.034270473 0.13701135 0.011508723 -0.14320436
0.08189128 0.0452657 0.21481907 0.095565304 -0.06295388 0.021033121 0.26579195 0.07976759
0.435969 0.11449895 0.029854396 0.005876321 0.2918449 0.2845548 0.33977458 0.11378912
0.1605974 -0.07302826 -0.31287217 0.34164137 0.105461605 0.08243931 -0.14781485 0.11419253
0.22340396 0.061853584 0.08192194 0.01817958 -0.09886475 0.33113572 0.07528462 -0.03682921
0.30283102 0.1770836 -0.34011588 -0.22030772 0.37871763 0.24582589 -0.33761948 -0.030278137
0.014687207 0.37717143 0.11121792 -0.06912804 0.020612855 0.2198471 -0.22328089 0.29085052
-0.02648616 0.023175491 -0.040184405 0.053118747 0.167201 0.07332901 0.2221009 0.11212721
0.101274595 -0.20974705 0.027644964 0.08862113 -0.04191134 -0.03765617 -0.062315106 -0.17342483
0.13817933 -0.13604933 -0.10212816 0.13665842 -0.12625004 -0.15985085 -0.010857267 -0.2577565
-0.22882175 0.1307212 0.25213304 -0.16097428 -0.011865387 -0.39477918 -0.27758634 0.09475688
-0.20630838 -0.18500756 0.092781834 -0.14536189 -0.12003645 -0.03350791 -0.21204194 0.050032254
-0.24154727 -0.059465747 -0.3241752 0.015151747 -0.2813581 -0.07235283 -0.13361748 0.037102655
0.08998205 -0.2043804 0.23994222 -0.07849569 -0.083870485 -0.10731675 -0.07263344 -0.085111424
-0.052396253 -0.0716105 0.048325043 -0.21129657 -0.07334545 0.06730017 -0.018842226 0.11291944
0.3212337 0.17353329 0.10713923 0.0018203406 0.06612725 -0.17896438 0.05960213 -0.07969988
-0.058771193 0.123451084 0.06690878 -0.21769056 -0.026681317 0.15428077 0.008298388 0.03404113
-0.5008789 0.003019353 -0.0039451895 0.16483043 0.011499584 0.038954183 -0.004568582 -0.15580484
0.23771363 0.045580123 -0.18432692 -0.038296618 0.13310415 -0.15484108 0.11605693 0.046774168
0.07663702 -0.1322441 0.06355523 -0.17510961 0.09524285 -0.0026599136 -0.040914174 0.12472008
0.06452863 -0.1335176 -0.30935112 -0.03178415 0.092130326 -0.07447314 -0.0061955713 0.13069779
0.10375543 0.069504626 -0.10559956 0.11356625 -0.023293361 -0.10140675 -0.051776692 -0.0058884816
0.14018218 -0.055759855 0.10192566 -0.14833042 -0.026431685 -0.32047185 0.10575032 0.009018691
-0.26251712 0.032692246 -0.07357001 0.054826166 -0.1564036 0.14599308 0.025892623 -0.14444299
00000000: a745 a53e 0d20 c23d 5b38 cdbe a752 4b3e
00000010: 54e4 ae3e bb3e 5c3e 5e58 f93d b016 453e
00000020: 4743 113d 72b6 923e b77c 213d 86ca 78bd
00000030: 62fe 4b3e 0787 9dbd 92a8 033e 305d 003f
00000040: 9a47 fd3d 0863 183d 3fac 233e a53b 1d3e
00000050: c534 4b3e 8e16 793e e4dc 883c 8ef8 253e
00000060: c274 733e c459 503e 8016 253e b577 e73d
00000070: bfae 03be 26b6 34be e276 0a3c a066 f63c
00000080: 576d cd3e 5cf6 b6bd 1570 71be 3789 2d3c
00000090: b4b2 d53d 0785 d23d 2547 463e f6f7 633e
000000a0: c792 1fbe fa2f 4c3d 79ca dc3e 4213 28be
000000b0: acb8 203b 650e 0aba 3164 92bd 79e4 cbbc
000000c0: 5db9 b4bd a42d a7be b441 bebd d00f 09bd
000000d0: af4a b8bd e1b9 13bd e49a 633e bb3f 023e
000000e0: de05 f53e 627d db3e 5111 1fbe 108a 2b3d
000000f0: 5630 763e 85e2 5fbd fe61 a73c a447 30bc
00000100: 9173 edbc 07c3 053e d33c dd3c 676c d63c
00000110: 325f 0cbd b44c 0c3e 158f 3c3c 2aa4 12be
00000120: 9eb6 a73d 8768 393d 88f9 5b3e beb7 c33d
00000130: f7ed 80bd a74d ac3c e215 883e 315d a33d
00000140: 5437 df3e 6d7e ea3d 3591 f43c 278e c03b
00000150: b26c 953e 2bb1 913e eff6 ad3e 450a e93d
00000160: a573 243e d78f 95bd c830 a0be 9eeb ae3e
00000170: 41fc d73d f1d5 a83d c75c 17be c6dd e93d
00000180: 02c4 643e 2f5a 7d3d b1c6 a73d 58ed 943c
00000190: 9a79 cabd 9f8a a93e d32e 9a3d 3ada 16bd
000001a0: ab0c 9b3e 6755 353e ab23 aebe 5998 61be
000001b0: 47e7 c13e c8b9 7b3e 76dc acbe db09 f8bc
000001c0: 9ca2 703c 9d1c c13e 39c6 e33d 0093 8dbd
000001d0: 4adc a83c 991f 613e bfa3 64be 5cea 943e
000001e0: 81f9 d8bc 87da bd3c 6798 24bd 0b93 593d
000001f0: bd36 2b3e 852d 963d 6b6e 633e f3a2 e53d
00000200: 0e69 cf3d eec7 56be b177 e23c ff7e b53d
00000210: 3aab 2bbd 5b3d 1abd 203e 7fbd 4796 31be
00000220: e27e 0d3e 8450 0bbe 9228 d1bd 2ff0 0b3e
00000230: b147 01be f1af 23be aee2 31bc a9f8 83be
00000240: 4050 6abe c7db 053e 9517 813e 71d6 24be
00000250: 0a67 42bc 7f20 cabe cc1f 8ebe e50f c23d
00000260: 8142 53be 9f72 3dbe 6704 be3d bfd9 14be
00000270: acd5 f5bd 973f 09bd 8621 59be 9fee 4c3d
00000280: 2b58 77be 5b92 73bd 4bfa a5be 083f 783c
00000290: 2b0e 90be b82d 94bd 05d3 08be f4f8 173d
000002a0: 8248 b83d 1849 51be 6ab3 753e 59c2 a0bd
000002b0: 4ac4 abbd e2c8 dbbd d7c0 94bd e64e aebd
000002c0: 749d 56bd 87a8 92bd 7bf0 453d 215e 58be
000002d0: 2436 96bd acd4 893d 035b 9abc 4f42 e73d
000002e0: be78 a43e b6b2 313e d06b db3d 7f98 ee3a
000002f0: b96d 873d 7042 37be 5d21 743d b139 a3bd
00000300: 10ba 70bd ecd3 fc3d 7807 893d 46ea 5ebe
00000310: c792 dabc c7fb 1d3e f6f5 073c b66e 0b3d
00000320: 9939 00bf 56e0 453b a646 81bb 4fc9 283e
00000330: c068 3c3c 6c8e 1f3d 0bb4 95bb 4e8b 1fbe
00000340: 346b 733e 39b2 3a3d 32c0 3cbe eadc 1cbd
00000350: 744c 083e a98e 1ebe 41af ed3d 4596 3f3d
00000360: dff3 9c3d ff6a 07be 3f29 823d ef4f 33be
00000370: af0e c33d f251 2ebb 9f95 27bd 3e6d ff3d
00000380: 9627 843d d6b8 08be 4563 9ebe 1930 02bd
00000390: d3ae bc3d 6085 98bd 3804 cbbb a4d5 053e
000003a0: ba7d d43d 7158 8e3d 9544 d8bd 6c95 e83d
000003b0: b8d1 bebc 58ae cfbd cc13 54bd 2af4 c0bb
000003c0: eb8b 0f3e 7264 64bd 67be d03d eee3 17be
000003d0: 4387 d8bc e314 a4be a093 d83d 22c3 133c
000003e0: a568 86be 4ee8 053d e0ab 96bd 6791 603d
000003f0: 4428 20be 367f 153e c41c d43c dde8 13be

linear2.bias f4 [128]
-0.4126787 -0.37104207 0.41297725 -0.38464695 -0.44201994 -0.25769618 0.49935177 -0.27675402
0.466085 0.53104264 0.66306597 0.5822173 0.66409093 -0.43394658 -0.3449823 -0.39671263
0.67150325 0.58314526 -0.40162054 -0.2956542 0.5256795 0.27417824 -0.32716572 0.7654973
0.6892753 0.5394652 0.38071594 -0.424082 -0.43794617 -0.35076553 -0.28567287 0.5281184
0.58863676 0.52091795 0.5149287 0.56466436 -0.31141075 0.5338624 -0.35251117 0.41470283
-0.29137325 0.47061568 0.4578891 0.5806465 0.49940386 0.4781946 0.48679692 -0.30310035
-0.40209746 0.48483896 -0.20031625 0.30498907 -0.30587512 -0.13276866 -0.35030836 -0.5077111
-0.38423693 -0.42109904 0.5392053 0.46749306 -0.34805334 -0.44251025 -0.2984516 0.4368715
-0.13124377 -0.49569273 -0.1647401 -0.3835749 0.5060905 0.48898587 -0.27960557 0.44670886
0.5069151 -0.29730615 -0.26022908 -0.3965304 -0.30820915 -0.2278117 0.540255 0.62315685
-0.3502642 0.45889828 0.6254379 -0.3993031 0.600725 0.4328161 0.33419138 0.5367522
0.52658975 0.63977635 0.63187826 -0.4569957 0.65601516 0.6416513 0.6251648 0.6152946
-0.2638749 -0.1295456 -0.6717861 0.42310378 0.6574171 -0.043666475 -0.39795667 0.62883395
-0.24592234 0.50830024 0.51683104 0.30838796 0.6014575 -0.5017907 0.639493 -0.4001106
-0.19103484 0.6596157 0.58411336 -0.3817989 0.66800404 -0.24900824 0.60505986 0.5053893
-0.5015731 0.4808616 -0.2684044 0.4840515 0.6253933 -0.41533387 0.5636033 -0.23020293
00000000: 9f4a d3be 3af9 bdbe c171 d33e 72f0 c4be
00000010: 7050 e2be c1f0 83be 09ab ff3e b4b2 8dbe
00000020: b1a2 ee3e 69f2 073f b1be 293f 310c 153f
00000030: dd01 2a3f 3f2e debe 85a1 b0be eb1d cbbe
00000040: a3e7 2b3f 0249 153f 35a1 cdbe fd5f 97be
00000050: ef92 063f 1761 8c3e 4482 a7be a2f7 433f
00000060: 5974 303f 641a 0a3f 33ed c23e 4721 d9be
00000070: 7b3a e0be 8a97 b3be b743 92be c432 073f
00000080: e6b0 163f e15a 053f 5ed2 033f d88d 103f
00000090: 3b71 9fbe 35ab 083f 587c b4be ee53 d43e
000000a0: e02e 95be 8af4 f03e 7170 ea3e 40a5 143f
000000b0: ddb1 ff3e ecd5 f43e 723d f93e f82f 9bbe
000000c0: b8df cdbe d03c f83e b41f 4dbe 8727 9c3e
000000d0: aa9b 9cbe 82f4 07be 9e5b b3be 5bf9 01bf
000000e0: b4ba c4be 4b9a d7be 5c09 0a3f 405b ef3e
000000f0: 0c34 b2be b490 e2be a6ce 98be 9fad df3e
00000100: c464 06be 70cb fdbe a1b1 28be ee63 c4be
00000110: 268f 013f 5b5c fa3e 7628 8fbe 06b7 e43e
00000120: 30c5 013f 8338 98be bf3c 85be 0806 cbbe
00000130: 97cd 9dbe 7847 69be 274e 0a3f 3587 1f3f
00000140: d455 b3be b7f4 ea3e b31c 203f 7571 ccbe
00000150: 1dc9 193f 129a dd3e 221b ab3e 9868 093f
00000160: 96ce 063f 62c8 233f c6c2 213f 57fb e9be
00000170: 9cf0 273f 4243 243f cd0a 203f f283 1d3f
00000180: 9c1a 87be 9aa7 04be 2dfa 2bbf 0fa1 d83e
00000190: 7d4c 283f 9edb 32bd fac0 cbbe 43fb 203f
000001a0: 11d3 7bbe f71f 023f 0a4f 043f 07e5 9d3e
000001b0: 1ef9 193f 5b75 00bf d0b5 233f 4cdb ccbe
000001c0: a39e 43be 93dc 283f 7488 153f 257b c3be
000001d0: 5002 2b3f 04fc 7ebe 34e5 1a3f 3161 013f
000001e0: 1867 00bf 7e33 f63e 4d6c 89be 99d5 f73e
000001f0: c619 203f a4a6 d4be 4e48 103f 51ba 6bbe

linear3.weight f4 [64, 128]
-0.19291598 0.10830101 -0.3957024 0.4917359 0.13427803 0.3666841 0.02768893 0.8893492
0.01796382 -0.022611031 0.0027903381 -0.08596002 -0.106027886 0.06898395 0.6352486 0.2594387
0.056109183 -0.06557827 0.062081646 -0.07788254 0.04625747 0.05438966 0.10578175 0.029743556
-0.00775781 -0.507517 -0.15566795 0.018746233 0.24791063 0.28642404 0.5981902 0.022888571
-0.41840297 0.04852348 -0.008619939 0.03852455 0.22509171 -0.015188435 0.313838 -0.45776552
0.17626257 -0.021485023 -0.18545684 -0.020485977 -0.0046175444 -0.10317112 0.10886933 0.013851954
-5.3456693e-05 -0.10079907 -0.04731171 0.13780268 0.33112696 -0.6191823 0.6488843 -0.10011102
-0.009455685 0.12629338 -0.022586111 -0.016822474 0.09849243 0.47342888 0.41413096 0.041907907
-0.08175687 0.07927249 0.6059219 0.15588364 -0.06715958 -0.020677011 0.49601507 -0.21263947
-0.022553079 0.023783216 0.35095555 -0.23080488 0.7698862 0.1280451 0.09408228 -0.2380318
0.08780648 -0.2558543 -0.010056184 0.13788709 -0.03865078 -0.16405955 -0.20522748 0.08221458
0.07489771 0.04741224 -0.11570604 0.060281444 0.058521762 0.03033395 0.086784184 -0.04368394
0.020063804 0.48183468 -0.06727241 -0.07604367 0.075889274 -0.5274104 0.63920534 -0.08602851
0.06389555 -0.045151755 0.09599608 0.10884406 0.015540481 0.01742208 -0.0883288 -0.032561447
0.46513757 0.066879 0.033886675 0.21178737 -0.07346165 -0.01797288 -0.027785806 -0.038396236
0.029746866 -0.020740759 0.11530861 0.0022706864 0.09715933 -0.0070201396 -0.05399608 0.2531169
-0.321182 0.13036853 -0.48521635 0.41580522 0.3041452 0.29546344 0.043114863 0.8411939
-0.05496418 0.057993382 -0.057941396 -0.044430487 -0.11259486 0.12934235 0.7522455 0.38769585
0.021511 -0.1646427 0.015351011 0.02130245 -0.06988332 0.04250939 0.16821827 0.07634146
0.016410697 -0.37039417 -0.29091078 0.009474795 0.21577938 0.37125516 0.6278626 -0.08122266
-0.38063902 0.015788225 -0.056676455 6.301043e-05 0.2706149 -0.105262175 0.28807372 -0.22194275
0.14863431 0.00045164992 -0.2779429 -0.02418094 0.05397778 -0.22082625 0.07235224 0.115355864
0.17754386 0.008681129 -0.18133007 0.047371708 0.3065016 -0.7002223 0.6066026 -0.03401441
0.108821064 0.14255811 0.040972676 -0.007892815 0.13362049 0.53549886 0.33653978 0.17237107
-0.16861568 0.090204604 0.40143657 0.18989792 -0.17233738 -0.11646577 0.3725724 0.006012174
-0.09030964 0.0859325 0.38654146 -0.11317572 0.62137914 0.13294756 0.048736773 -0.23631273
0.2351511 -0.20268439 -0.13865371 0.07214092 -0.0013121984 -0.3668029 -0.045994584 0.07541186
-5.704176e-05 -0.0068372614 -0.2600242 0.062237862 0.02253234 -0.0019115158 0.13972834 0.04092316
0.11065167 0.5604141 -0.10048756 0.05266506 -0.013033017 -0.7305025 0.70182884 0.07396652
0.12851979 0.14396603 0.034346055 0.123306096 0.04053809 0.011650938 0.057313077 0.022817444
0.56711876 0.092483096 -0.039152022 0.030635202 0.034442727 0.12000887 0.028902192 -0.08325991
0.12551309 0.009888304 0.17382964 0.021780834 0.08598521 0.21669182 -0.13558996 0.14769575
00000000: c48b 45be eccc dd3d 8199 cabe cfc4 fb3e
00000010: 2e80 093e 05be bb3e e5d3 e23c 64ac 633f
00000020: dc28 933c c53a b9bc 1bde 363b cf0b b0bd
00000030: 2625 d9bd 7547 8d3d a79f 223f 26d5 843e
00000040: bed2 653d e64d 86bd 5349 7e3d e280 9fbd
00000050: 7978 3d3d b1c7 5e3d 1aa4 d83d c2a8 f33c
00000060: 3a35 febb a2ec 01bf 6b67 1fbe b391 993c
00000070: 49dc 7d3e 2ca6 923e fe22 193f d080 bb3c
00000080: ea38 d6be 8ec0 463d a53a 0dbc ebcb 1d3d
00000090: 717e 663e ead8 78bc 60af a03e 3e60 eabe
000000a0: 2d7e 343e 5c01 b0bc 66e8 3dbe 35d2 a7bc
000000b0: c54e 97bb 614b d3bd e2f6 de3d 4ef3 623c
000000c0: b036 60b8 be6f cebd ecc9 41bd 251c 0d3e
000000d0: 7989 a93e bb82 1ebf 481d 263f 0207 cdbd
000000e0: 04ec 1abc 0d53 013e 8206 b9bc 49cf 89bc
000000f0: 66b6 c93d 4565 f23e f908 d43e a0a7 2b3d
00000100: 2570 a7bd 9e59 a23d b31d 1b3f f69f 1f3e
00000110: f68a 89bd d662 a9bc b0f5 fd3e 29be 59be
00000120: 3cc1 b8bc 05d5 c23c 72b0 b33e 1d58 6cbe
00000130: 4317 453f 411e 033e 36ae c03d 9cbe 73be
00000140: e2d3 b33d 56ff 82be b1c2 24bc 4632 0d3e
00000150: 4850 1ebd 3aff 27be 2727 52be 1e60 a83d
00000160: f863 993d 5633 423d 4af7 ecbd ade9 763d
00000170: 84b4 6f3d e77e f83c e8bb b13d eeed 32bd
00000180: d95c a43c 09b3 f63e 1ec6 89bd c9bc 9bbd
00000190: d66b 9b3d 5e04 07bf f6a2 233f b72f b0bd
000001a0: acdb 823d 0cf1 38bd 9899 c43d a2e9 de3d
000001b0: 809d 7e3c c0b8 8e3c bbe5 b4bd 275f 05bd
000001c0: 8326 ee3e dbf7 883d c1cc 0a3d cade 583e
000001d0: 1073 96bd dc3b 93bc 0f9f e3bc 5f45 1dbd
000001e0: b3af f33c 86e8 a9bc ec26 ec3d cccf 143b
000001f0: 79fb c63d 3309 e6bb fe2a 5dbd 8a98 813e
00000200: f871 a4be 547f 053e 476e f8be 6ce4 d43e
00000210: ebb8 9b3e fc46 973e 3699 303d 7c58 573f
00000220: 1f22 61bd 788a 6d3d f553 6dbd befc 35bd
00000230: 2298 e6bd 5272 043e 2993 403f 1280 c63e
00000240: d637 b03c 1998 28be cf82 7b3c 7a82 ae3c
00000250: fc1e 8fbd 531e 2e3d 6941 2c3e e958 9c3d
00000260: ba6f 863c 4ea4 bdbe 42f2 94be 2c3c 1b3c
00000270: 45f5 5c3e 2815 be3e 9abb 203f 1158 a6bd
00000280: 1ee3 c2be 4f56 813c 9225 68bd 7824 8438
00000290: 098e 8a3e b293 d7bd 667e 933e f644 63be
000002a0: 9833 183e 6dcb ec39 884e 8ebe 1b17 c6bc
000002b0: ce17 5d3d 4720 62be 692d 943d b23f ec3d
000002c0: 0fce 353e 4b3b 0e3c 97ae 39be d608 423d
000002d0: c7ed 9c3e c541 33bf 4f4a 1b3f b252 0bbd
000002e0: 94dd de3d c1fa 113e f7d2 273d de50 01bc
000002f0: cfd3 083e 7416 093f f14e ac3e 0b82 303e
00000300: 97a9 2cbe 31bd b83d 1889 cd3e 9a74 423e
00000310: 3679 30be 9b85 eebd cfc1 be3e c501 c53b
00000320: 43f4 b8bd 61fd af3d c3e8 c53e acc8 e7bd
00000330: b412 1f3f 6823 083e 36a0 473d f7fb 71be
00000340: 73cb 703e 7f8c 4fbe 3dfb 0dbe 9ebe 933d
00000350: 12fe abba 97cd bbbe d164 3cbd 8971 9a3d
00000360: 2040 6fb8 1b0b e0bb e421 85be 21ed 7e3d
00000370: be95 b83c d48b faba f214 0f3e 0b9f 273d
00000380: 589d e23d 4c77 0f3f 6ccc cdbd 51b7 573d
00000390: 6f88 55bc 3602 3bbf 0eab 333f c27b 973d
000003a0: b19a 033e d56b 133e 73ae 0c3d e887 fc3d
000003b0: 450b 263d 93e3 3e3c 1ec1 6a3d a6eb ba3c
000003c0: b22e 113f c767 bd3d df5d 20bd adf6 fa3c
000003d0: d113 0d3d 36c7 f53d 4ac4 ec3c 2c84 aabd
000003e0: 8186 003e 8e02 223c 6600 323e b86d b23c
000003f0: 0419 b03d 76e4 5d3e 18d8 0abe 8e3d 173e

linear3.bias f4 [64]
-0.27483302 -0.23457038 -0.15180333 -0.51434374 -0.22765805 0.68856514 -0.349613 -0.36728615
-0.50714016 0.72462106 -0.20254716 0.62550455 0.635982 -0.28494242 -0.17380387 -0.34790298
-0.24685219 -0.27355638 -0.29279113 0.6272633 -0.22154781 0.56391275 -0.29427826 0.5905003
0.69480616 -0.38394248 -0.3617515 0.55048144 -0.38091087 -0.38604555 0.69483805 -0.41479152
0.5388563 0.53069705 0.5920791 0.47569156 0.5554588 0.70507455 0.6643983 0.6190458
0.572592 -0.35308963 -0.24800926 0.54213786 0.5809069 -0.23222195 -0.3213875 -0.13051501
0.59478647 -0.52167016 -0.31497148 0.6226326 0.5654196 0.5707252 0.59564024 0.68021756
0.5930628 0.6510941 -0.27253038 0.5918096 -0.21080285 0.5343995 -0.25225827 0.689165
00000000: eab6 8cbe 3833 70be 5572 1bbe 08ac 03bf
00000010: 311f 69be ce45 303f 7a00 b3be ee0c bcbe
00000020: f0d3 01bf c480 393f 8668 4fbe 1121 203f
00000030: b7cf 223f f9e3 91be a4f9 31be 5720 b2be
00000040: d2c6 7cbe 950f 8cbe b8e8 95be 5494 203f
00000050: 6edd 62be 965c 103f a4ab 96be 072b 173f
00000060: d1de 313f 1c94 c4be 7e37 b9be 5aec 0c3f
00000070: c006 c3be c3a7 c5be e8e0 313f 8e5f d4be
00000080: 7df2 093f c3db 073f 7f92 173f d88d f33e
00000090: 8c32 0e3f c47f 343f 0216 2a3f c979 1e3f
000000a0: 6495 123f 2ac8 b4be 24f6 7dbe 8cc9 0a3f
000000b0: 51b6 143f 97cb 6dbe e78c a4be baa5 05be
000000c0: ed43 183f 2d8c 05bf f143 a1be da64 1f3f
000000d0: 57bf 103f 0c1b 123f e17b 183f bd22 2e3f
000000e0: f7d2 173f 1aae 263f 1a89 8bbe d580 173f
000000f0: b4dc 57be 68ce 083f ff27 81be 1e6d 303f

output.weight f4 [1, 64]
-0.8271173 -0.8024049 -2.3985064 -0.23092006 -0.9111386 0.40389636 -1.0638864 -0.9581899
-0.30017042 0.36775333 -1.0534732 0.43503168 0.39884502 -0.77128226 -0.6771873 -0.6293212
-0.59888726 -1.055828 -0.6026618 0.4468846 -0.9796006 0.48993912 -0.60984665 0.5451672
0.301413 -0.7472306 -0.99836785 0.46198612 -1.3460337 -0.62157816 0.36925462 -0.9298823
0.5222783 0.42464393 0.47122627 0.4995668 0.4816681 0.46826947 0.46296784 0.4738568
0.7418053 -0.6005013 -0.48942223 0.6199369 0.60189915 -2.1815264 -0.83622235 -0.6202677
0.43984896 -0.31905472 -0.74128735 0.3858942 0.49684823 0.3835988 0.5522565 0.43355435
0.5804538 0.43712997 -0.61637604 0.55820906 -0.55887336 0.55650896 -0.80297154 0.37474042
00000000: f6bd 53bf 686a 4dbf 2181 19c0 4f76 6cbe
00000010: 6140 69bf 81cb ce3e 6e2d 88bf ef4b 75bf
00000020: f0af 99be 2a4a bc3e 36d8 86bf 79bc de3e
00000030: 6a35 cc3e c172 45bf 265c 2dbf 321b 21bf
00000040: ad50 19bf 5f25 87bf 0b48 1abf 0fce e43e
00000050: 1bc7 7abf 4dd9 fa3e e91e 1cbf 1490 0b3f
00000060: ce52 9a3e 814a 3fbf 0995 7fbf 7289 ec3e
00000070: d54a acbf bf1f 1fbf f10e bd3e c40c 6ebf
00000080: 08b4 053f ee6a d93e 9244 f13e 38c7 ff3e
00000090: 349d f63e 04c1 ef3e 1f0a ed3e 5c9d f23e
000000a0: f4e6 3d3f 74ba 19bf 8d95 fabe 2fb4 1e3f
000000b0: 1016 1a3f 219e 0bc0 ab12 56bf ddc9 1ebf
000000c0: e233 e13e 245b a3be 02c5 3dbf ed93 c53e
000000d0: e462 fe3e 1067 c43e af60 0d3f d6fa dd3e
000000e0: 9f98 143f 80cf df3e d2ca 1dbf cae6 0e3f
000000f0: 5312 0fbf 5f77 0e3f 8b8f 4dbf fadd bf3e

linear1.weight f4 [128, 34]
-0.066623546 0.017288594 0.13949426 -0.071063615 -0.040855993 0.0011758807 0.03423642 0.09042671
0.09829303 -0.003136971 -0.056757826 0.039343473 0.0025762476 0.0029179906 -0.025257116 -0.16643046
0.036712136 -0.031289298 -0.015094616 0.014094074 0.025962364 -0.01519648 -0.0140395155 -0.15606569
0.1054131 -0.038485043 -0.094151445 0.26331168 1.5704963 -0.28162566 0.15625168 0.14025944
0.010993031 0.053370565 -0.13069257 -0.13287921 0.1520381 -0.101412006 0.019058852 0.31336665
0.5031737 0.012449142 -0.06279003 0.33297536 0.054533806 0.11720308 -0.18947574 0.048158728
0.0022394636 0.05360009 -0.082380526 0.014688737 -0.053762726 -0.035100687 0.031302612 0.07375145
0.05133497 -0.021808935 0.020417465 0.0040593133 0.26592728 0.16240956 -0.82510865 -0.2301578
0.062854536 -0.04532164 -0.06149933 0.023425708 0.09631196 0.10606919 -0.29118267 0.14833646
0.17480648 -0.0828738 0.0022314491 -0.07065518 0.12933709 0.060213596 0.18687426 -0.013621881
-0.0911116 0.081856854 0.19032136 -0.22506195 -0.07936095 0.1051649 0.16588625 0.17374939
-0.033312798 0.06878058 0.09514397 0.16928332 -0.04779366 0.015926274 -0.14436427 0.07199805
-1.2425327 -0.16417891 0.10443489 -0.025385508 -0.11444147 0.12868789 -0.33871624 0.108722426
-0.045194548 -0.31959397 -0.08418954 -0.20315665 -0.38806415 -0.11001308 -0.08821351 -0.13031135
-0.075445004 -0.075817384 -0.09577739 -0.13956831 -0.09627323 -0.113080725 -0.105465636 0.11173897
0.017368032 0.01257509 -0.016785296 0.006372199 0.007959954 0.09199595 -0.100248314 -0.12837814
-0.27239057 -0.36695114 0.30435777 -0.16226915 0.10325086 0.0033993418 0.112194106 0.02207857
-0.016659265 -0.4934553 -0.21701196 -0.1666653 -0.025843194 -0.15652889 -0.0069154757 -0.24762206
-0.17470075 -0.07562766 -0.019006701 -0.11157448 -0.16562152 -0.006514506 -0.094444565 0.18548961
-0.04297594 -0.15563354 -0.088259414 -0.38903597 -0.060996167 0.052461073 0.22680451 0.12127251
0.009774103 0.088698395 -0.39508194 -0.38428506 1.5836966 -0.26919705 -0.11101385 0.211061
-0.06656218 -0.09665627 -0.12423001 -0.0010501189 0.0022283962 -0.09216113 -0.22943576 -0.08002186
-0.06623606 -0.23637195 -0.051988907 0.025940431 -0.077889025 -0.030958429 -0.1820455 -0.033009876
0.16009416 -0.014360565 -0.01668413 -0.08451794 0.094756834 0.10590049 0.07256902 -0.07429181
0.14731637 0.038548924 0.19074126 0.21993305 0.144319 0.004928041 0.2581283 0.054245207
-0.14786723 -0.032403633 0.1098409 0.16185588 -0.09217122 -0.1374995 -0.036857452 0.29835656
0.28110906 0.22397834 0.2840714 -0.088040434 0.3150975 0.24064794 0.07727479 0.11272649
0.26436785 0.0053965203 -0.1217387 0.26465824 0.18135117 0.046652358 -0.032141306 0.13659067
-0.0728439 -0.026675345 -0.09314133 -0.055366755 -0.08611165 -0.04956482 0.3155288 0.18296012
-0.55438787 0.092943296 0.0025567 -0.11319756 0.066589884 0.16015643 0.02080294 0.018008577
-0.16763811 0.010215865 -0.057474904 0.05101303 0.09947872 -0.03762365 0.17813244 0.0004341971
0.17429416 0.010646703 0.09755223 0.27363002 -0.1545719 0.09149883 0.025408575 0.033300202
00000000: ed71 88bd cfa0 8d3c 95d7 0e3e cd89 91bd
00000010: 9d58 27bd 0220 9a3a 7d3b 0c3d a431 b93d
00000020: db4d c93d a495 4dbb e57a 68bd 9f26 213d
00000030: 43d6 283b c23b 3f3b 03e8 cebc bf6c 2abe
00000040: 775f 163d 3529 00bd 694f 77bc d5ea 663c
00000050: 06af d43c a8fa 78bc ff05 66bc afcf 1fbe
00000060: d3e2 d73d 7ea2 1dbd 79d2 c0bd cad0 863e
00000070: 0606 c93f 3d31 90be 7100 203e 2ca0 0f3e
00000080: 1d1c 343c 189b 5a3d 46d4 05be 7d11 08be
00000090: e0af 1b3e 19b1 cfbd 4f21 9c3c 9871 a03e
000000a0: fecf 003f 7cf7 4b3c 0f98 80bd bf7b aa3e
000000b0: d75e 5f3d 2b08 f03d ee05 42be 1642 453d
000000c0: f7c3 123b c58b 5b3d 1fb7 a8bd 07a9 703c
000000d0: 4e36 5cbd bdc5 0fbd 2b37 003d 000b 973d
000000e0: 9e44 523d a7a8 b2bc 8742 a73c fd03 853b
000000f0: 9f27 883e b14e 263e 523a 53bf 7cae 6bbe
00000100: e1b9 803d 2fa3 39bd b9e6 7bbd 45e7 bf3c
00000110: 343f c53d ce3a d93d e515 95be 83e5 173e
00000120: 7800 333e bdb9 a9bd 813d 123b aab3 90bd
00000130: f170 043e 88a2 763d f75b 3f3e 4f2e 5fbc
00000140: b898 babd 91a4 a73d 9ae3 423e a476 66be
00000150: fe87 a2bd b260 d73d 16de 293e 5ceb 313e
00000160: 0073 08bd d5dc 8c3d d7da c23d 9b58 2d3e
00000170: 49c3 43bd d177 823c 3ad4 13be b773 933d
00000180: 500b 9fbf 841e 28be f6e1 d53d 45f5 cfbc
00000190: 4a60 eabd c2c6 033e 376c adbe dda9 de3d
000001a0: eb1d 39bd d2a1 a3be 916b acbd 4c08 50be
000001b0: 58b0 c6be 8a4e e1bd 49a9 b4bd 5770 05be
000001c0: e982 9abd 2546 9bbd f026 c4bd ffea 0ebe
000001d0: e62a c5bd de96 e7bd 5efe d7bd 67d7 e43d
000001e0: 6747 8e3c c007 4e3c 5181 89bc e1cd d03b
000001f0: 786a 023c 5f68 bc3d fd4e cdbd 8f75 03be
00000200: c776 8bbe 05e1 bbbe c8d4 9b3e e229 26be
00000210: 3075 d33d 7ec7 5e3b 06c6 e53d 1ede b43c
00000220: 0379 88bc 2ca6 fcbe 6238 5ebe 4faa 2abe
00000230: 1bb5 d3bc 1c49 20be 379b e2bb a390 7dbe
00000240: c1e4 32be ade2 9abd f1b3 9bbc 2981 e4bd
00000250: b098 29be a377 d5bb 276c c1bd fdf0 3d3e
00000260: 8a07 30bd 665e 1fbe 5ac1 b4bd b92f c7be
00000270: 1ed7 79bd 6ce1 563d 713f 683e b95d f83d
00000280: 8f23 203c 81a7 b53d 2e48 cabe 03c1 c4be
00000290: 92b6 ca3f 32d4 89be 3b5b e3bd 6020 583e
000002a0: c151 88bd b9f3 c5bd 4e6c febd 25a4 89ba
000002b0: 490a 123b f9be bcbd 35f1 6abe 80e2 a3bd
000002c0: c5a6 87bd 7d0b 72be 52f2 54bd 0781 d43c
000002d0: 4884 9fbd 889c fdbc 236a 3abe 5d35 07bd
000002e0: b9ef 233e 9348 6bbc 28ad 88bc be17 adbd
000002f0: df0f c23d 5be2 d83d 119f 943d 4e26 98bd
00000300: 1ada 163e 7ae5 1d3d ad51 433e 2136 613e
00000310: 5cc8 133e 677b a13b 6429 843e 3930 5e3d
00000320: 826a 17be acb9 04bd 44f4 e03d 8cbd 253e
00000330: 44c4 bcbd abcc 0cbe d7f7 16bd 31c2 983e
00000340: 87ed 8f3e 945a 653e ce71 913e 8b4e b4bd
00000350: 7654 a13e 6a6c 763e 3f42 9e3d 25dd e63d
00000360: 395b 873e 4bd5 b03b 2452 f9bd 4981 873e
00000370: 1fb4 393e 8b16 3f3d 9aa6 03bd 6dde 0b3e
00000380: 2f2f 95bd 4186 dabc e2c0 bebd 40c8 62bd
00000390: 4e5b b0bd 7b04 4bbd fe8c a13e e659 3b3e
000003a0: 5dec 0dbf 0e59 be3d 4f8e 273b 1fd4 e7bd
000003b0: 4760 883d 0c00 243e ed6a aa3c b986 933c
000003c0: 53a9 2bbe 7260 273c ce6a 6bbd 0af3 503d
000003d0: 80bb cb3d 421b 1abd 5a68 363e f3a4 e339
000003e0: 2b7a 323e 826f 2e3c 77c9 c73d 3c19 8c3e
000003f0: 1948 1ebe bd63 bb3d a525 d03c cb65 083d

linear1.bias f4 [128]
-0.6455798 0.6537197 0.53936017 -0.26084146 0.43573853 -0.6071366 0.4931617 -0.018111117
-0.23893958 0.4907517 0.56276524 0.37535313 0.30289873 0.3947009 0.23070012 0.22537698
0.50970274 -0.31504452 -0.2703941 -0.18327338 0.26975673 0.3036007 0.47292316 -0.18327034
0.39576963 0.6080163 -0.3672934 0.3861442 0.7431366 0.529268 0.41468367 0.2695523
0.043076567 0.55847806 0.47757074 0.5174749 0.21856226 0.38816616 0.36415172 0.60325116
-0.10263138 0.24116595 -0.5126857 0.557216 0.73547995 0.4959279 0.5390973 0.529022
-0.31697318 -0.16725485 0.27852443 0.21608765 0.6889615 0.55426484 0.062395457 0.026525607
-0.4517582 -0.36037618 0.7477763 0.5384279 0.43847957 0.4280513 0.60138875 0.16410077
0.7117541 -0.24343541 -0.6521652 0.6443642 -0.09174595 -0.5921141 0.62367034 0.5228734
0.30823582 0.4775551 -0.46030694 -0.2185649 0.35650444 -0.5179738 0.32056978 0.2992459
-0.34166077 0.28704116 0.5411488 0.50686723 -0.13068551 0.8118908 0.0015006956 0.28081885
-0.3198052 0.3235252 0.7552395 0.7120562 -0.48318774 -0.44963846 0.561808 -0.16593175
-0.45513985 0.45721924 0.3715546 -0.09038352 -0.43043607 0.4007467 0.39091602 -0.18797624
0.5326798 -0.6305793 0.12672304 -0.08792783 -0.49745843 0.4518709 0.09200663 0.21862966
-0.030787108 0.6884481 -0.17885184 0.6609555 0.36169305 0.12515251 -0.18160549 -0.56688803
-0.012952911 -0.11848314 0.35292453 -0.38290623 0.15271853 -0.5008235 0.14029792 0.40923077
00000000: b844 25bf 2d5a 273f 8213 0a3f 038d 85be
00000010: 1f19 df3e 4e6d 1bbf b17f fc3e c45d 94bc
00000020: 94ac 74be cf43 fb3e 6211 103f 492e c03e
00000030: 8b15 9b3e 3d16 ca3e a73c 6c3e 39c9 663e
00000040: e17b 023f 844d a1be 1871 8abe 04ac 3bbe
00000050: 8e1d 8a3e 8d71 9b3e fc22 f23e 38ab 3bbe
00000060: 51a2 ca3e f5a6 1b3f e10d bcbe b1b4 c53e
00000070: 333e 3e3f 1c7e 073f 6b51 d43e c202 8a3e
00000080: 0e71 303d 6bf8 0e3f 2784 f43e 3c79 043f
00000090: c9ce 5f3e b7bd c63e 1872 ba3e ab6e 1a3f
000000a0: 6730 d2bd 35f4 763e 5f3f 03bf b5a5 0e3f
000000b0: 6a48 3c3f 43ea fd3e 4802 0a3f fc6d 073f
000000c0: 4f4a a2be db44 2bbe c19a 8e3e 1546 5d3e
000000d0: c85f 303f 4de4 0d3f 6192 7f3d 3b4c d93c
000000e0: da4c e7be 3a83 b8be 456e 3f3f 69d6 093f
000000f0: 6580 e03e 8a29 db3e 9df4 193f 080a 283e
00000100: 8435 363f 2247 79be 4cf4 26bf 0df5 243f
00000110: 4de5 bbbd ca94 17bf dca8 1f3f 08db 053f
00000120: 16d1 9d3e 1a82 f43e 5aad ebbe 7acf 5fbe
00000130: c087 b63e ee99 04bf b921 a43e c236 993e
00000140: 29ee aebe 0ff7 923e ba88 0a3f 0dc2 013f
00000150: 6cd2 05be 13d8 4f3f fdb2 c43a 7dc7 8f3e
00000160: 82bd a3be 18a5 a53e 6057 413f 5149 363f
00000170: 6264 f7be 0337 e6be a6d2 0f3f 03ea 29be
00000180: 1708 e9be a418 ea3e 683c be3e ff1a b9bd
00000190: 1e62 dcbe ac2e cd3e 2526 c83e d87c 40be
000001a0: b45d 083f a56d 21bf afc3 013e 8213 b4bd
000001b0: dfb2 febe 9f5b e73e f96d bc3d 74e0 5f3e
000001c0: 3f35 fcbc 223e 303f f024 37be 6134 293f
000001d0: d52f b93e fb27 003e caf6 39be 931f 11bf
000001e0: 7238 54bc 4aa7 f2bd 86b2 b43e 490c c4be
000001f0: 3f62 1c3e f835 00bf 42aa 0f3e b286 d13e

linear2.weight f4 [128, 128]
0.32279703 0.094787695 -0.40082058 0.19855748 0.34158576 0.21508305 0.12175058 0.19246936
0.03546455 0.2865482 0.039425578 -0.060740016 0.19921258 -0.0769177 0.12857273 0.5014219
0.123671725 0.03720382 0.15983675 0.15354784 0.19844349 0.2432501 0.016706891 0.16208097
0.23775008 0.20346743 0.16121864 0.11302129 -0.12859629 -0.17647609 0.008451195 0.030078232
0.40122482 -0.08933708 -0.23577912 0.010591797 0.104344755 0.10279279 0.19363077 0.22262558
-0.15583335 0.04985044 0.43123224 -0.16413596 0.0024524136 -0.0005266427 -0.07148016 -0.024889218
-0.08824418 -0.3265201 -0.092898756 -0.033462346 -0.0899862 -0.03606594 0.22227055 0.12719624
0.4785604 0.42869097 -0.1553395 0.041879714 0.24041876 -0.054659385 0.020432469 -0.010759268
-0.02898577 0.13062678 0.027006542 0.026174737 -0.034270473 0.13701135 0.011508723 -0.14320436
0.08189128 0.0452657 0.21481907 0.095565304 -0.06295388 0.021033121 0.26579195 0.07976759
0.435969 0.11449895 0.029854396 0.005876321 0.2918449 0.2845548 0.33977458 0.11378912
0.1605974 -0.07302826 -0.31287217 0.34164137 0.105461605 0.08243931 -0.14781485 0.11419253
0.22340396 0.061853584 0.08192194 0.01817958 -0.09886475 0.33113572 0.07528462 -0.03682921
0.30283102 0.1770836 -0.34011588 -0.22030772 0.37871763 0.24582589 -0.33761948 -0.030278137
0.014687207 0.37717143 0.11121792 -0.06912804 0.020612855 0.2198471 -0.22328089 0.29085052
-0.02648616 0.023175491 -0.040184405 0.053118747 0.167201 0.07332901 0.2221009 0.11212721
0.101274595 -0.20974705 0.027644964 0.08862113 -0.04191134 -0.03765617 -0.062315106 -0.17342483
0.13817933 -0.13604933 -0.10212816 0.13665842 -0.12625004 -0.15985085 -0.010857267 -0.2577565
-0.22882175 0.1307212 0.25213304 -0.16097428 -0.011865387 -0.39477918 -0.27758634 0.09475688
-0.20630838 -0.18500756 0.092781834 -0.14536189 -0.12003645 -0.03350791 -0.21204194 0.050032254
-0.24154727 -0.059465747 -0.3241752 0.015151747 -0.2813581 -0.07235283 -0.13361748 0.037102655
0.08998205 -0.2043804 0.23994222 -0.07849569 -0.083870485 -0.10731675 -0.07263344 -0.085111424
-0.052396253 -0.0716105 0.048325043 -0.21129657 -0.07334545 0.06730017 -0.018842226 0.11291944
0.3212337 0.17353329 0.10713923 0.0018203406 0.06612725 -0.17896438 0.05960213 -0.07969988
-0.058771193 0.123451084 0.06690878 -0.21769056 -0.026681317 0.15428077 0.008298388 0.03404113
-0.5008789 0.003019353 -0.0039451895 0.16483043 0.011499584 0.038954183 -0.004568582 -0.15580484
0.23771363 0.045580123 -0.18432692 -0.038296618 0.13310415 -0.15484108 0.11605693 0.046774168
0.07663702 -0.1322441 0.06355523 -0.17510961 0.09524285 -0.0026599136 -0.040914174 0.12472008
0.06452863 -0.1335176 -0.30935112 -0.03178415 0.092130326 -0.07447314 -0.0061955713 0.13069779
0.10375543 0.069504626 -0.10559956 0.11356625 -0.023293361 -0.10140675 -0.051776692 -0.0058884816
0.14018218 -0.055759855 0.10192566 -0.14833042 -0.026431685 -0.32047185 0.10575032 0.009018691
-0.26251712 0.032692246 -0.07357001 0.054826166 -0.1564036 0.14599308 0.025892623 -0.14444299
00000000: a745 a53e 0d20 c23d 5b38 cdbe a752 4b3e
00000010: 54e4 ae3e bb3e 5c3e 5e58 f93d b016 453e
00000020: 4743 113d 72b6 923e b77c 213d 86ca 78bd
00000030: 62fe 4b3e 0787 9dbd 92a8 033e 305d 003f
00000040: 9a47 fd3d 0863 183d 3fac 233e a53b 1d3e
00000050: c534 4b3e 8e16 793e e4dc 883c 8ef8 253e
00000060: c274 733e c459 503e 8016 253e b577 e73d
00000070: bfae 03be 26b6 34be e276 0a3c a066 f63c
00000080: 576d cd3e 5cf6 b6bd 1570 71be 3789 2d3c
00000090: b4b2 d53d 0785 d23d 2547 463e f6f7 633e
000000a0: c792 1fbe fa2f 4c3d 79ca dc3e 4213 28be
000000b0: acb8 203b 650e 0aba 3164 92bd 79e4 cbbc
000000c0: 5db9 b4bd a42d a7be b441 bebd d00f 09bd
000000d0: af4a b8bd e1b9 13bd e49a 633e bb3f 023e
000000e0: de05 f53e 627d db3e 5111 1fbe 108a 2b3d
000000f0: 5630 763e 85e2 5fbd fe61 a73c a447 30bc
00000100: 9173 edbc 07c3 053e d33c dd3c 676c d63c
00000110: 325f 0cbd b44c 0c3e 158f 3c3c 2aa4 12be
00000120: 9eb6 a73d 8768 393d 88f9 5b3e beb7 c33d
00000130: f7ed 80bd a74d ac3c e215 883e 315d a33d
00000140: 5437 df3e 6d7e ea3d 3591 f43c 278e c03b
00000150: b26c 953e 2bb1 913e eff6 ad3e 450a e93d
00000160: a573 243e d78f 95bd c830 a0be 9eeb ae3e
00000170: 41fc d73d f1d5 a83d c75c 17be c6dd e93d
00000180: 02c4 643e 2f5a 7d3d b1c6 a73d 58ed 943c
00000190: 9a79 cabd 9f8a a93e d32e 9a3d 3ada 16bd
000001a0: ab0c 9b3e 6755 353e ab23 aebe 5998 61be
000001b0: 47e7 c13e c8b9 7b3e 76dc acbe db09 f8bc
000001c0: 9ca2 703c 9d1c c13e 39c6 e33d 0093 8dbd
000001d0: 4adc a83c 991f 613e bfa3 64be 5cea 943e
000001e0: 81f9 d8bc 87da bd3c 6798 24bd 0b93 593d
000001f0: bd36 2b3e 852d 963d 6b6e 633e f3a2 e53d
00000200: 0e69 cf3d eec7 56be b177 e23c ff7e b53d
00000210: 3aab 2bbd 5b3d 1abd 203e 7fbd 4796 31be
00000220: e27e 0d3e 8450 0bbe 9228 d1bd 2ff0 0b3e
00000230: b147 01be f1af 23be aee2 31bc a9f8 83be
00000240: 4050 6abe c7db 053e 9517 813e 71d6 24be
00000250: 0a67 42bc 7f20 cabe cc1f 8ebe e50f c23d
00000260: 8142 53be 9f72 3dbe 6704 be3d bfd9 14be
00000270: acd5 f5bd 973f 09bd 8621 59be 9fee 4c3d
00000280: 2b58 77be 5b92 73bd 4bfa a5be 083f 783c
00000290: 2b0e 90be b82d 94bd 05d3 08be f4f8 173d
000002a0: 8248 b83d 1849 51be 6ab3 753e 59c2 a0bd
000002b0: 4ac4 abbd e2c8 dbbd d7c0 94bd e64e aebd
000002c0: 749d 56bd 87a8 92bd 7bf0 453d 215e 58be
000002d0: 2436 96bd acd4 893d 035b 9abc 4f42 e73d
000002e0: be78 a43e b6b2 313e d06b db3d 7f98 ee3a
000002f0: b96d 873d 7042 37be 5d21 743d b139 a3bd
00000300: 10ba 70bd ecd3 fc3d 7807 893d 46ea 5ebe
00000310: c792 dabc c7fb 1d3e f6f5 073c b66e 0b3d
00000320: 9939 00bf 56e0 453b a646 81bb 4fc9 283e
00000330: c068 3c3c 6c8e 1f3d 0bb4 95bb 4e8b 1fbe
00000340: 346b 733e 39b2 3a3d 32c0 3cbe eadc 1cbd
00000350: 744c 083e a98e 1ebe 41af ed3d 4596 3f3d
00000360: dff3 9c3d ff6a 07be 3f29 823d ef4f 33be
00000370: af0e c33d f251 2ebb 9f95 27bd 3e6d ff3d
00000380: 9627 843d d6b8 08be 4563 9ebe 1930 02bd
00000390: d3ae bc3d 6085 98bd 3804 cbbb a4d5 053e
000003a0: ba7d d43d 7158 8e3d 9544 d8bd 6c95 e83d
000003b0: b8d1 bebc 58ae cfbd cc13 54bd 2af4 c0bb
000003c0: eb8b 0f3e 7264 64bd 67be d03d eee3 17be
000003d0: 4387 d8bc e314 a4be a093 d83d 22c3 133c
000003e0: a568 86be 4ee8 053d e0ab 96bd 6791 603d
000003f0: 4428 20be 367f 153e c41c d43c dde8 13be

linear2.bias f4 [128]
-0.4126787 -0.37104207 0.41297725 -0.38464695 -0.44201994 -0.25769618 0.49935177 -0.27675402
0.466085 0.53104264 0.66306597 0.5822173 0.66409093 -0.43394658 -0.3449823 -0.39671263
0.67150325 0.58314526 -0.40162054 -0.2956542 0.5256795 0.27417824 -0.32716572 0.7654973
0.6892753 0.5394652 0.38071594 -0.424082 -0.43794617 -0.35076553 -0.28567287 0.5281184
0.58863676 0.52091795 0.5149287 0.56466436 -0.31141075 0.5338624 -0.35251117 0.41470283
-0.29137325 0.47061568 0.4578891 0.5806465 0.49940386 0.4781946 0.48679692 -0.30310035
-0.40209746 0.48483896 -0.20031625 0.30498907 -0.30587512 -0.13276866 -0.35030836 -0.5077111
-0.38423693 -0.42109904 0.5392053 0.46749306 -0.34805334 -0.44251025 -0.2984516 0.4368715
-0.13124377 -0.49569273 -0.1647401 -0.3835749 0.5060905 0.48898587 -0.27960557 0.44670886
0.5069151 -0.29730615 -0.26022908 -0.3965304 -0.30820915 -0.2278117 0.540255 0.62315685
-0.3502642 0.45889828 0.6254379 -0.3993031 0.600725 0.4328161 0.33419138 0.5367522
0.52658975 0.63977635 0.63187826 -0.4569957 0.65601516 0.6416513 0.6251648 0.6152946
-0.2638749 -0.1295456 -0.6717861 0.42310378 0.6574171 -0.043666475 -0.39795667 0.62883395
-0.24592234 0.50830024 0.51683104 0.30838796 0.6014575 -0.5017907 0.639493 -0.4001106
-0.19103484 0.6596157 0.58411336 -0.3817989 0.66800404 -0.24900824 0.60505986 0.5053893
-0.5015731 0.4808616 -0.2684044 0.4840515 0.6253933 -0.41533387 0.5636033 -0.23020293
00000000: 9f4a d3be 3af9 bdbe c171 d33e 72f0 c4be
00000010: 7050 e2be c1f0 83be 09ab ff3e b4b2 8dbe
00000020: b1a2 ee3e 69f2 073f b1be 293f 310c 153f
00000030: dd01 2a3f 3f2e debe 85a1 b0be eb1d cbbe
00000040: a3e7 2b3f 0249 153f 35a1 cdbe fd5f 97be
00000050: ef92 063f 1761 8c3e 4482 a7be a2f7 433f
00000060: 5974 303f 641a 0a3f 33ed c23e 4721 d9be
00000070: 7b3a e0be 8a97 b3be b743 92be c432 073f
00000080: e6b0 163f e15a 053f 5ed2 033f d88d 103f
00000090: 3b71 9fbe 35ab 083f 587c b4be ee53 d43e
000000a0: e02e 95be 8af4 f03e 7170 ea3e 40a5 143f
000000b0: ddb1 ff3e ecd5 f43e 723d f93e f82f 9bbe
000000c0: b8df cdbe d03c f83e b41f 4dbe 8727 9c3e
000000d0: aa9b 9cbe 82f4 07be 9e5b b3be 5bf9 01bf
000000e0: b4ba c4be 4b9a d7be 5c09 0a3f 405b ef3e
000000f0: 0c34 b2be b490 e2be a6ce 98be 9fad df3e
00000100: c464 06be 70cb fdbe a1b1 28be ee63 c4be
00000110: 268f 013f 5b5c fa3e 7628 8fbe 06b7 e43e
00000120: 30c5 013f 8338 98be bf3c 85be 0806 cbbe
00000130: 97cd 9dbe 7847 69be 274e 0a3f 3587 1f3f
00000140: d455 b3be b7f4 ea3e b31c 203f 7571 ccbe
00000150: 1dc9 193f 129a dd3e 221b ab3e 9868 093f
00000160: 96ce 063f 62c8 233f c6c2 213f 57fb e9be
00000170: 9cf0 273f 4243 243f cd0a 203f f283 1d3f
00000180: 9c1a 87be 9aa7 04be 2dfa 2bbf 0fa1 d83e
00000190: 7d4c 283f 9edb 32bd fac0 cbbe 43fb 203f
000001a0: 11d3 7bbe f71f 023f 0a4f 043f 07e5 9d3e
000001b0: 1ef9 193f 5b75 00bf d0b5 233f 4cdb ccbe
000001c0: a39e 43be 93dc 283f 7488 153f 257b c3be
000001d0: 5002 2b3f 04fc 7ebe 34e5 1a3f 3161 013f
000001e0: 1867 00bf 7e33 f63e 4d6c 89be 99d5 f73e
000001f0: c619 203f a4a6 d4be 4e48 103f 51ba 6bbe
