Data/Player1/checkpoint-test6.pth (torch, 751718 bytes, 20 tensors)

linear1.weight f4 [128, 34]
00000000: 0500 3ebf 1e3c 19bf 0e57 f0be 0bd7 e53e
00000010: 5803 373e 7678 eb3e 7b49 283d 32a6 a73e
00000020: c2f0 d2be 4402 09bf 3da5 98be 67a6 bf3d
00000030: 6489 9fbe 191c f33e 7e52 3dbd 8367 df3e
00000040: e817 f93d 1731 003f 67e9 103f 028d 1d3f
00000050: bf1c 043f 3b50 1d3f 817d 3e3f cc15 933e
00000060: 41e1 30be c659 26be d4d6 f1be 3f9e 8f3e
00000070: 1a31 65bf 950f eb3e 6612 573e 3d38 9bbe
00000080: c931 4bc0 c3ce 97be 7f25 74be 0cf9 d0be
00000090: 9635 aebc 0ff5 b53e 77ec 3d3e f4ba 893f
000000a0: 5fa1 593e 4b1b 603f 4c4c 06c0 fab6 bb3e
000000b0: 4c33 8a3f f140 fd3e 67c4 33bf d84d 223e
000000c0: 5b0b 023e 8d6c 453e 333e f03e e30d ae3e
000000d0: 6dbe b03e 9951 443e a1b5 2b3e bd2f cc3e
000000e0: f735 c93e f209 e43e fd7c ae3e 7e9b 6a3d
000000f0: 2596 2fbd 2920 4e3e b282 c53f d4a6 bd3f
00000100: 1590 eabe 7414 4dbf b74f e3be 67e8 7ebf
00000110: e841 0640 f506 433e ae30 8fbd 6ccf 08bc
00000120: ea20 a9be 8be2 1fbf 6627 cebf a23f 5140
00000130: e57f 623f 2cd4 133f 6e13 49be 6b6f bd3e
00000140: 3263 393e c913 74be 7edf d13d 68ba 02be
00000150: 4061 dabe 8499 183f d1ae 2a3d 27f7 06bf
00000160: 6a6a 5b3e cf98 2fbf af0e 93bd fe04 febd
00000170: a446 a9be 6826 b53e 591c 9a3f 4e6e f7bf
00000180: 1c0a c0bf 48b5 0e3f b3f2 4dbe 4e5f b3be
00000190: fd38 e7be 1fa8 c9be 9dff f1be c880 8ebe
000001a0: c7ec 38be 2013 473f 72f7 9b3d 2d71 8cbd
000001b0: 63c1 3c3f f787 9abd abdf 073f 47c7 3c3f
000001c0: c83f 063f 3afd 633f 541c 3abf 9216 863f
000001d0: 1da6 a6be bf9c 79be 55b9 143f c030 563f
000001e0: b8f5 493f b9a6 6a3f 8eb3 3c3f adf8 1c3e
000001f0: 7e75 453c 9192 543e d9be 9e3d 34af 9e3e
00000200: 6733 033f 8a99 2fbf 750b 1fbf defd 633e
00000210: 7fd0 943e ddef 033f 60b0 c23d e777 e7bd
00000220: 787d d43b 5827 bfbd 0df6 86bd 9130 2d3f
00000230: d430 9f3e da37 1d3e 2775 bf3f 3677 2e3f
00000240: eaac 983f d10e a33f 4d51 3c3f 1935 943f
00000250: 94ff f3be da5c 2b3f 00dc 753f 57de 093f
00000260: f5f7 1f3f dc8f ca3e 4695 f93e 34dc b83e
00000270: 6390 ff3d 5404 08be b2d5 acbe b08a 82be
00000280: 4e0d 893e 6cd7 813e ad55 e93e f85e a93e
00000290: cc45 a3bf 17c3 343e 9047 d53c 77d6 d93d
000002a0: 6055 233e 7084 833d 1bdd 07bf 4162 2cbf
000002b0: 765d 33bf 590c b53e ec2e b53e a07b 55be
000002c0: b313 0abd 8f51 29bd 3234 a3be 85ce 59be
000002d0: 0908 f6bf 1083 163f c516 a3bf d5b4 613f
000002e0: 30fd 233f 46c5 2e3f 09e2 7c3f 8faf 2a3f
000002f0: c324 563f f7cb f13e 80e4 2c3f 893f 3a3f
00000300: 0e6b 0f3f 53d7 353f cadd c6be afd0 79bd
00000310: 17b4 0d3f 983d f1be 74fd 3cbf e61d 423f
00000320: c7f6 8dbf 34de 85bf d18e c83d d0e6 c63d
00000330: 3229 803d d470 cdbe cc67 d1be 530e 623f
00000340: 0eaa 81bd 2f5a e93f 5fd5 dc3e 65a7 a93f
00000350: 9228 0c3e fa17 f33e 8b8a 35bf cb1f fabf
00000360: b03b a53f 0ac8 9e3f c2bc 16bf 832f b03e
00000370: ae9a 963e f904 e2be 72b3 103f a153 f63e
00000380: 67ee 2e3f db08 dfbe 180d f13e 385b 8a3e
00000390: 0ee4 043f d71b bd3d cae8 fc3f 8c1c bf3e
000003a0: 4f01 d6bf c263 1a3f 4ede 4a3e 5e13 62bf
000003b0: 19f6 d93c 0aa3 103d 70e4 d93e a7d5 1f3f
000003c0: 058d e63e d0f5 ea3e 0470 c23e fe9a 4cbf
000003d0: c088 65bd 0bc0 743e 9047 913e cd38 723f
000003e0: 4f7e 0040 6ec6 f43c db1a 403e c7e1 15bf
000003f0: fb31 febf 236d 81be 38bd 713f 2d6a 843e
-0.7421878 -0.59857357 -0.46941417 0.44890627 0.1787237 0.45990342 0.0410857 0.32743984
-0.4119931 -0.5351908 -0.29813567 0.093579106 -0.31159508 0.47482374 -0.04622125 0.4363366
0.12162763 0.50074905 0.56606144 0.61543286 0.51606363 0.61450547 0.74410254 0.28727567
-0.17273428 -0.16245183 -0.47234213 0.2805042 -0.8952805 0.45910326 0.21003112 -0.30316344
-3.1749136 -0.29649934 -0.23842429 -0.40815008 -0.021265786 0.35538527 0.18547235 1.0760179
0.21252964 0.87541646 -2.0984068 0.36663038 1.0796905 0.4946361 -0.7022156 0.15850008
0.12699644 0.1927969 0.46922454 0.3399497 0.34520283 0.19171752 0.16768505 0.3988017
0.39298984 0.44538838 0.34079733 0.057277195 -0.0428678 0.20129456 1.543051 1.4816537
-0.4581305 -0.80109334 -0.44396755 -0.9957337 2.0977726 0.19045623 -0.06991707 -0.0083502345
-0.33032924 -0.6245505 -1.6105773 3.2695088 0.884764 0.57745624 -0.19636318 0.36999068
0.18104246 -0.23835672 0.10247706 -0.12766421 -0.4265232 0.59609246 0.041670624 -0.52720875
0.21427312 -0.6859254 -0.07180535 -0.12403296 -0.33061707 0.35380864 1.2039901 -1.9330537
-1.5003085 0.55745363 -0.20112114 -0.3503365 -0.45160666 -0.3938608 -0.4726533 -0.27832627
-0.18059073 0.7776356 0.07615556 -0.06857524 0.73732585 -0.075454645 0.53075665 0.73741573
0.5244107 0.8905827 -0.72699475 1.0475638 -0.3254861 -0.243762 0.58095294 0.83668137
0.7889056 0.9166065 0.7371148 0.15329237 0.012051938 0.20759036 0.07751245 0.30993044
0.5125031 -0.68593657 -0.6212686 0.22264811 0.2906532 0.5153788 0.09506297 -0.113021664
0.0064846836 -0.09333676 -0.06589899 0.6765223 0.3109194 0.15353337 1.4957627 0.6815065
1.1927769 1.2738897 0.73561555 1.1578704 -0.47655928 0.66938555 0.9603882 0.5385489
0.6248773 0.3956288 0.487467 0.36105502 0.124787115 -0.13282901 -0.33756787 -0.25496435
0.26767963 0.25359666 0.45573178 0.33080268 -1.2755675 0.17652546 0.0260351 0.10636609
0.15950537 0.06421745 -0.53071755 -0.67337424 -0.70064485 0.35360983 0.3538736 -0.2084794
-0.033710193 -0.041337546 -0.3187576 -0.21270187 -1.9221202 0.58793736 -1.2741324 0.8816655
0.6405821 0.68269765 0.987824 0.6667413 0.83649844 0.47225925 0.67536163 0.72753197
0.5602273 0.71031684 -0.38841087 -0.06099003 0.5535292 -0.47117305 -0.7382424 0.7582687
-1.1090935 -1.0458436 0.09792865 0.09711993 0.062578574 -0.40125144 -0.40899503 0.8830311
-0.063312635 1.8230647 0.4313154 1.325421 0.13687351 0.4747923 -0.70914525 -1.9540952
1.290884 1.2404797 -0.5888177 0.3441125 0.29414886 -0.4414442 0.5652381 0.4811068
0.68332523 -0.43561444 0.47080302 0.2702272 0.51910484 0.09233826 1.9758542 0.37326467
-1.6719149 0.6030847 0.19811365 -0.883108 0.026606606 0.035311736 0.42557096 0.6243538
0.45029464 0.45890665 0.37976086 -0.79924 -0.056038618 0.23901384 0.2837491 0.9461792
2.0077093 0.029879775 0.18760245 -0.58547634 -1.9859003 -0.25278577 0.9442935 0.25862256

linear1.bias f4 [128]
00000000: 41f3 3cbd 4aed ea3f f34d d23f 9f39 5040
00000010: 983a 4440 e103 5a40 7ab6 2140 c901 033f
00000020: 6fca ec3f f6ee d93f c3f1 3540 c7c5 b1be
00000030: 905b 89bf 8cb8 2440 f6ef f0bf 1d63 a9be
00000040: 1f42 98bf ddf6 28bf 6357 18be 832e 10bf
00000050: 54dd 803e 9dbb dc3f 680c 2f40 c02e b9bf
00000060: 908b ee3f ad1b 4340 525d f63f ffaa a5bf
00000070: a7d3 363e 212b 3ebf e1d8 0b40 18d2 96bf
00000080: d71e 8bbe 87bd af3d 1ffb 393d d8d6 8bbf
00000090: 1aac 2240 8449 1140 c6a6 1440 145f 9ebf
000000a0: 8a2a 4e3f b251 4c40 915f 1a40 0f91 d53f
000000b0: 5ed0 2140 8e17 543f 05b8 d9bf 0018 1cbf
000000c0: 0f88 ab3f cbae 1f40 bc0e 4240 c2b0 68bf
000000d0: fbf3 99bf 2019 663f 2b36 3a40 d36b 9fbf
000000e0: cf04 7fbf c4e2 b33e 6ec5 463f 088f 373f
000000f0: d4d8 333f 502d 3240 66a8 d1bf e79b fd3f
00000100: 30fc 44bf 4333 3840 f909 a2bf bc70 d5be
00000110: 4ced 14c0 b380 2140 ecb9 5d40 6e2e a3bd
00000120: 21a9 f33f cdfc ba3f 1fbe bc3f e913 84bf
00000130: ae65 e03f 83c8 a0bf 0d7c 8fbf 966a 2940
00000140: 8c33 263f 841d 3140 52a7 523f f017 3740
00000150: 7c5e 203f a517 9dbe ae53 1140 c560 d13f
00000160: d3a1 54bf 1109 c53f 52cd 1d40 d5c9 d63f
00000170: 05d6 2440 b842 fa3f 179f 26be dd68 1240
00000180: b485 f8bd d00b 03be 81cb 133f 6639 993f
00000190: bd8f 7440 c369 ea3f 74dd 0d40 6d80 6dbf
000001a0: 7b00 1240 ebaa 8a3f 91c2 293f f164 703f
000001b0: f9b3 3140 5a77 1ac0 4785 fc3f abbe 2840
000001c0: df34 1740 6f7f 1740 29fa 2ac0 2189 8340
000001d0: c1d4 ae3f 19e6 ce3d 7b6d e4be 1721 2440
000001e0: 4043 693f 8ccb 1abe 3dc5 eabf bec7 8b3f
000001f0: 95dd 2f40 93e7 ca3f 9fdc 29be 7955 eebf
-0.046130423 1.8353665 1.6430038 3.253517 3.0660763 3.4064867 2.5267625 0.511746
1.8499278 1.702605 2.842881 -0.34721205 -1.0731068 2.5737638 -1.882323 -0.3308343
-1.1895179 -0.66001683 -0.14877085 -0.5632097 0.2516886 1.7244755 2.7351322 -1.4467392
1.8636341 3.0485642 1.9247229 -1.2942809 0.17854176 -0.7428456 2.1851122 -1.1782866
-0.27171966 0.08581071 0.045405503 -1.092494 2.5417542 2.270112 2.322679 -1.2372766
0.8053366 3.1924863 2.412083 1.6684893 2.5283427 0.8284844 -1.7009283 -0.6097412
1.3400897 2.4950435 3.0321493 -0.9089471 -1.2027582 0.8988209 2.9095562 -1.245478
-0.9961671 0.35133946 0.77645004 0.71702623 0.7025273 2.7840157 -1.6379516 1.9813203
-0.7694731 2.8781288 -1.2659293 -0.41687572 -2.3269835 2.5234802 3.4644728 -0.0796784
1.9035989 1.4608399 1.474552 -1.0318576 1.753103 -1.2561191 -1.1209732 2.6471305
0.64922404 2.7674265 0.8228656 2.860836 0.6264417 -0.30682102 2.2707324 1.6357657
-0.83059424 1.5393392 2.4656568 1.6780344 2.5755627 1.9551611 -0.16271625 2.2876503
-0.12134877 -0.12797475 0.577324 1.1970642 3.821273 1.8313526 2.2166414 -0.9277409
2.2812793 1.083341 0.6631251 0.93904024 2.7766097 -2.4135346 1.9728173 2.6366374
2.362602 2.367153 -2.6715186 4.1104894 1.3658677 0.101024814 -0.44614777 2.5645196
0.9111824 -0.1511671 -1.8341442 1.0920331 2.7478993 1.5851921 -0.16588067 -1.8619834

linear2.weight f4 [64, 128]
00000000: 5fa3 983e 13c1 bcbf bd35 adbf 4175 8b3c
00000010: b6f1 9ebe cb97 66bf 246f b93e 9e3c fcbd
00000020: 1d92 d3bd d35f a4bf 180e d73e d599 00bf
00000030: 3fd2 d8be 8baf 2bbf 8930 cd3e 74d5 dfbd
00000040: 975b 5d40 6727 febe 677f 203f 16ac 0abf
00000050: 7073 85bb 2bc3 093f 0b4e 91bf f932 ba3f
00000060: 9165 593f de72 25c0 34c0 9fbe 06fe 03be
00000070: 2bc6 0bbf 7753 9abe 1269 fabf ef4f 12bf
00000080: 77ca 703f ba60 083f abdd 1fbf dbd8 f5be
00000090: d284 10bf 5cc1 62be 9452 a53e 71a4 c13e
000000a0: a487 8fbf bcb8 74be 9c89 753f 1ba3 8ebf
000000b0: 5400 64be 0b51 f33d 4614 d1be 0e2c 45c0
000000c0: e9f0 80c0 72bb febd e270 bebe 4c44 88be
000000d0: 1086 b53f 683b 983d 8926 08bf 25cf 5f3e
000000e0: 84d7 c63e 27bc c5be 39f8 6bbf e438 6abc
000000f0: fbf8 fbbf abb6 ad3e ad09 f7be 6dcc 2fbe
00000100: 1543 aabe 2d1f 3f3e 9fa6 a73d 69f6 ef3f
00000110: 9714 813f e0ab 613e ee16 90bf ac63 60be
00000120: d073 023f c4b9 a7bf 73d0 a7bd 75e6 78bf
00000130: 35ad 133f bd90 6e3e 154f 1a3f 4711 343f
00000140: e7ea c83e b3c0 4b3e 6627 3cbf f2ea 29bf
00000150: 17a8 8fbf 4d53 103e 57ee 013f 1609 05bf
00000160: 8374 9abf 0894 a03e 8133 b33d 0138 533f
00000170: af84 80bd 46c0 bcbf ddd4 2dbf 97f6 d1be
00000180: 84df 183f 3d67 9e3f cbea 55c0 8e1d f3bf
00000190: 76e5 6fbf d58f 333e be6b ee3d 3b0b c1be
000001a0: ebf2 26c0 14f6 723f 3016 77be 8fda b5bf
000001b0: fe2c af3e d1c2 453f ba36 7bbf eb2a 213c
000001c0: f8dd 193f fa8c 113e 3234 2fbf 7b07 8cbf
000001d0: 5dec d53f e09e c6bf 1c3d 3b3f 03cb 07bf
000001e0: d03d 34be 909e fe3e 198b 163f 7456 c1be
000001f0: 4000 1e3d 338e 52c0 28e2 f63f 68f5 a53e
00000200: 5d5a 63be 98bc a43e ebaf a23f 703c 703f
00000210: fcef 883f b548 b23f eac5 983e 0c46 663f
00000220: efe5 b33f ee86 8d3f 87aa 483f 6221 04be
00000230: 54dd 94bf 0e02 933f 88c1 b0bf 6875 dcbe
00000240: 530a fabf 0f86 b8bf 3dff 3d3d d94e e9be
00000250: 5767 863e e99a fa3e 5e93 613f 7e07 b8bf
00000260: 7787 6d3f 12b0 7b3f f47a 2f3f c7f5 11bf
00000270: eda6 8d3d fea3 0b3f b496 0040 0fe9 35bf
00000280: 7c06 213a 16ab 003f ae5d 54bf f744 6cbf
00000290: 9049 f73f b561 913f 949a 8b3f caa8 d3bd
000002a0: 4b8e d93e d03d 653f 5862 563f 9772 513f
000002b0: 6fb1 573f b9f3 ac3e 05c4 03bf 7327 f3bf
000002c0: 9dc3 2440 364f 6f3f f8c5 983f 4eba 5a3e
000002d0: 2f7f afbf e7c4 113e 5707 a73f c237 63bf
000002e0: 3131 a9bd 4682 33bf 03b1 203f 957b b33f
000002f0: 1ba7 813f 6a7a 6d3f c5fd a4bf 363e a23f
00000300: 1264 d63e 8eda 663f 6958 7ebf 8db6 c0be
00000310: 9bcc 3abd f547 143f 1064 c93f d7f0 493f
00000320: 73f0 8e3f 22f6 e63e 7960 c93f 4dfb b7bf
00000330: ee0f 3f3f 9fdd 7cbf 6b45 513e 98ce 8d3f
00000340: ce58 093f 3a2d 663f 8cd5 bdbd 3e5c 853f
00000350: cecb 753f 37ab 35be d6cf f63e 2e23 d5bd
00000360: 9786 60bf 8ee2 743f 2d84 1c3f 9315 de3e
00000370: 2558 f33e 66ed af3f 51e8 91bd 0384 aa3f
00000380: d38e 0c3d 6409 693f 1392 4c3f d97d 053f
00000390: b497 b03f f2f3 a53e dd51 ed3e 3c97 e0bf
000003a0: d203 253f 5663 463f d9d2 293e e218 9b3e
000003b0: 249c 793f 4973 92bf c2cb 2840 13f5 aa3f
000003c0: b771 bc3f 6229 763f dbd6 bcbf 6612 ba3f
000003d0: 2262 813f 6de8 8fbe 000f 48bf 1a7e 323f
000003e0: 22c1 aabc cbe5 4dbf e685 a3bd f07c 383f
000003f0: 320b fb3e b498 c53f d775 2cc0 2315 85bf
0.29812142 -1.4746422 -1.3532025 0.017023684 -0.31043786 -0.9007537 0.36217606 -0.12316249
-0.10330603 -1.2841743 0.4200294 -0.5023473 -0.42347905 -0.6706473 0.40076092 -0.10929385
3.4587152 -0.49639437 0.626944 -0.5416883 -0.004072599 0.5381343 -1.1351942 1.4546806
0.84920603 -2.585136 -0.31201327 -0.12889871 -0.54599255 -0.30141804 -1.9563315 -0.5715322
0.94058937 0.53272593 -0.62447613 -0.4801701 -0.5645267 -0.22144073 0.32289565 0.3782077
-1.1213269 -0.23898596 0.959131 -1.1143526 -0.2226575 0.11880692 -0.4083578 -3.080814
-4.029408 -0.12438096 -0.37195498 -0.26614606 1.4181538 0.07433206 -0.531838 0.21856363
0.388363 -0.3862011 -0.9217563 -0.01429579 -1.9685358 0.33928427 -0.4824957 -0.17167826
-0.33254305 0.18664236 0.08186077 1.8747073 1.0084409 0.22038221 -1.1256998 -0.21913022
0.50957966 -1.3103566 -0.081940554 -0.9722665 0.5768617 0.23297401 0.6027692 0.70338863
0.39241716 0.19897728 -0.7349762 -0.66374123 -1.1223172 0.14094277 0.507543 -0.5196699
-1.2066807 0.3136294 0.08750058 0.8250733 -0.062753074 -1.4746177 -0.6790293 -0.41008446
0.5971606 1.2375256 -3.3424556 -1.8993394 -0.93709505 0.17535336 0.11641644 -0.3770388
-2.6085765 0.94906735 -0.24129558 -1.4207324 0.34214014 0.7725039 -0.9813038 0.009836893
0.6010432 0.14213935 -0.6843902 -1.0939783 1.6712757 -1.5517235 0.7314012 -0.53044146
-0.17601705 0.4973035 0.58805996 -0.3776127 0.038574457 -3.2899292 1.9287767 0.32413793
-0.2220244 0.32175136 1.2709936 0.9384222 1.0698237 1.3928438 0.29838496 0.89950633
1.4054545 1.1056802 0.78385204 -0.1290336 -1.1630044 1.1485002 -1.3809061 -0.43058324
-1.9534401 -1.4415911 0.046385992 -0.45567968 0.26250717 0.48946312 0.8811549 -1.4377286
0.9278483 0.98315537 0.68546987 -0.5701565 0.06916604 0.5454711 2.0091982 -0.71058744
0.0006142629 0.50261056 -0.82955444 -0.9229273 1.9319324 1.1357943 1.0906549 -0.10334928
0.42491373 0.89547443 0.8374381 0.81815475 0.8425512 0.33779696 -0.5147098 -1.8996414
2.5744393 0.9348024 1.1935415 0.21360132 -1.3710688 0.14235269 1.3049115 -0.88756955
-0.08261336 -0.70120656 0.627701 1.4022089 1.0129122 0.92764914 -1.2889944 1.2675235
0.41873223 0.9017724 -0.99353653 -0.37639275 -0.045605283 0.579223 1.5733662 0.7888312
1.1167129 0.4510966 1.5732566 -1.4373566 0.7463368 -0.98775667 0.20436637 1.1078672
0.5365113 0.8991276 -0.092692465 1.0418775 0.96014106 -0.17741095 0.4820544 -0.104071006
-0.8770537 0.95658195 0.61139184 0.43375835 0.47528186 1.3744323 -0.07124389 1.3321537
0.034315895 0.91029954 0.7991039 0.52145153 1.3796296 0.32412678 0.4635152 -1.7546153
0.64458954 0.77495325 0.16584338 0.30292422 0.97503877 -1.1441432 2.6374364 1.3356041
1.4722203 0.96156895 -1.4753069 1.4536865 1.0108073 -0.28107014 -0.7814789 0.69723666
-0.020844046 -0.8042876 -0.079845235 0.7206564 0.4903198 1.5437226 -2.6946924 -1.0397075

linear2.bias f4 [64]
00000000: 44fd debf f1c4 5340 d4a4 5140 2c5b 3040
00000010: 43ad 4f40 3001 2940 3e84 0c40 9d5e acbf
00000020: 1989 4e40 98df c0bf c206 a7bf c4a4 2940
00000030: c85b 6140 5f47 4440 fbc8 5d40 04e8 b1bf
00000040: 8ee5 3240 6a6f aebf b837 6840 2f1c f9bf
00000050: 42b7 4940 87bd 00bf 3f94 a8bf 123b 02c0
00000060: e78c 1540 5d56 4e40 3ab4 a9bf ec99 55bf
00000070: 3265 acbf fd85 c53f 2c3b 8dbf 3ea4 ea3f
00000080: 91b9 2c40 437d 853f a52d dabf d919 5840
00000090: 1cc4 6a40 dd92 3c40 285a cfbf bbfa 6540
000000a0: b45a f0bf 64ac efbf 7f37 0740 1a6e c33f
000000b0: a482 dcbf bc80 19bf 8e68 98bf ab3b 5740
000000c0: ef5b 53bf a3f7 aebf d6be 5040 25d5 e53f
000000d0: 6184 473f 0629 9d3f 7021 1740 ce6c 5540
000000e0: 1e78 c7be 56fa 83bf 1840 0cc0 c3fc c5bf
000000f0: 9030 9abf cca9 86bf 401c 70bf 015d f83f
-1.742104 3.3088953 3.2756853 2.7555647 3.24495 2.6406975 2.1955714 -1.3466374
3.2271178 -1.5068235 -1.3048937 2.6506815 3.521227 3.0668561 3.4653919 -1.389893
2.795261 -1.3627751 3.6284008 -1.9461726 3.1518102 -0.50289196 -1.3170241 -2.0348554
2.336725 3.2240212 -1.3258126 -0.8343799 -1.3468382 1.5431515 -1.1033683 1.8331373
2.698826 1.0428852 -1.704518 3.3765776 3.6682196 2.9464638 -1.6199389 3.5934284
-1.877768 -1.8724484 2.1127622 1.5267975 -1.7227368 -0.5996206 -1.1906908 3.3630168
-0.82562155 -1.3669323 3.2616477 1.7955672 0.7793637 1.2278144 2.3614159 3.334766
-0.3895883 -1.0310771 -2.191412 -1.5467762 -1.204607 -1.0520568 -0.93793106 1.9403383

output.weight f4 [1, 64]
00000000: 4b7b 89c0 1f79 bf3f ad8a c73f 5d03 d23f
00000010: dbe6 fa3f 4875 3440 ad08 7240 ed8a d0c0
00000020: 6152 e03f 79f4 29c0 6453 09c1 9f44 4740
00000030: 520d be3f 8907 e73f 7569 f73f d1f6 d5c0
00000040: bee0 e53f da75 88c0 9a43 2240 97ef 69c0
00000050: 1db1 0d40 4769 a7c0 883d 90c0 ec83 91c0
00000060: 689d 2e40 f595 d43f 0c8f 1ec0 ca32 94c0
00000070: 911f 5dc0 1129 9540 148d 45c1 72be 4e40
00000080: 8fa6 9240 d5da ed40 b986 8fc0 11d7 be3f
00000090: e6b3 e13f d00b fe3f 032b 0ac0 2ee7 c13f
000000a0: 0092 b7c0 9aed 20c0 51cf 9340 c5d5 5c40
000000b0: 324c 9ec0 dadc e7c0 b9a3 8fc0 5a65 0140
000000c0: dec0 76c0 8ac4 64c1 db6d ee3f 8e49 6940
000000d0: 9d0b 0241 1619 6840 25ee 5d40 ae06 a93f
000000e0: 0bda 60c0 515a 3ac0 c495 73c0 bdd8 6ac1
000000f0: bf80 38c0 09e4 b6c0 ad6d 9ec0 7ebf 5040
-4.2963004 1.4958838 1.5589195 1.6407276 1.9601701 2.8196583 3.7817795 -6.5169587
1.752514 -2.6555464 -8.582859 3.1135633 1.4847815 1.8049175 1.9329058 -6.686379
1.7959211 -4.264386 2.535376 -3.6552484 2.2139351 -5.231601 -4.507511 -4.5473537
2.7283573 1.6608263 -2.477481 -4.6312 -3.4550517 4.661263 -12.346943 3.2303739
4.582832 7.432963 -4.4851956 1.4909383 1.7633026 1.9847355 -2.1588752 1.5148675
-5.7365723 -2.514502 4.619057 3.4505475 -4.946801 -7.2457094 -4.4887357 2.021811
-3.8555217 -14.297983 1.8627275 3.6451144 8.127835 3.6265311 3.4676602 1.3205163
-3.5133083 -2.9117625 -3.806016 -14.677915 -2.882858 -5.7153363 -4.950888 3.2616878

linear1.weight f4 [128, 34]
00000000: 0500 3ebf 1e3c 19bf 0e57 f0be 0bd7 e53e
00000010: 5803 373e 7678 eb3e 7b49 283d 32a6 a73e
00000020: c2f0 d2be 4402 09bf 3da5 98be 67a6 bf3d
00000030: 6489 9fbe 191c f33e 7e52 3dbd 8367 df3e
00000040: e817 f93d 1731 003f 67e9 103f 028d 1d3f
00000050: bf1c 043f 3b50 1d3f 817d 3e3f cc15 933e
00000060: 41e1 30be c659 26be d4d6 f1be 3f9e 8f3e
00000070: 1a31 65bf 950f eb3e 6612 573e 3d38 9bbe
00000080: c931 4bc0 c3ce 97be 7f25 74be 0cf9 d0be
00000090: 9635 aebc 0ff5 b53e 77ec 3d3e f4ba 893f
000000a0: 5fa1 593e 4b1b 603f 4c4c 06c0 fab6 bb3e
000000b0: 4c33 8a3f f140 fd3e 67c4 33bf d84d 223e
000000c0: 5b0b 023e 8d6c 453e 333e f03e e30d ae3e
000000d0: 6dbe b03e 9951 443e a1b5 2b3e bd2f cc3e
000000e0: f735 c93e f209 e43e fd7c ae3e 7e9b 6a3d
000000f0: 2596 2fbd 2920 4e3e b282 c53f d4a6 bd3f
00000100: 1590 eabe 7414 4dbf b74f e3be 67e8 7ebf
00000110: e841 0640 f506 433e ae30 8fbd 6ccf 08bc
00000120: ea20 a9be 8be2 1fbf 6627 cebf a23f 5140
00000130: e57f 623f 2cd4 133f 6e13 49be 6b6f bd3e
00000140: 3263 393e c913 74be 7edf d13d 68ba 02be
00000150: 4061 dabe 8499 183f d1ae 2a3d 27f7 06bf
00000160: 6a6a 5b3e cf98 2fbf af0e 93bd fe04 febd
00000170: a446 a9be 6826 b53e 591c 9a3f 4e6e f7bf
00000180: 1c0a c0bf 48b5 0e3f b3f2 4dbe 4e5f b3be
00000190: fd38 e7be 1fa8 c9be 9dff f1be c880 8ebe
000001a0: c7ec 38be 2013 473f 72f7 9b3d 2d71 8cbd
000001b0: 63c1 3c3f f787 9abd abdf 073f 47c7 3c3f
000001c0: c83f 063f 3afd 633f 541c 3abf 9216 863f
000001d0: 1da6 a6be bf9c 79be 55b9 143f c030 563f
000001e0: b8f5 493f b9a6 6a3f 8eb3 3c3f adf8 1c3e
000001f0: 7e75 453c 9192 543e d9be 9e3d 34af 9e3e
00000200: 6733 033f 8a99 2fbf 750b 1fbf defd 633e
00000210: 7fd0 943e ddef 033f 60b0 c23d e777 e7bd
00000220: 787d d43b 5827 bfbd 0df6 86bd 9130 2d3f
00000230: d430 9f3e da37 1d3e 2775 bf3f 3677 2e3f
00000240: eaac 983f d10e a33f 4d51 3c3f 1935 943f
00000250: 94ff f3be da5c 2b3f 00dc 753f 57de 093f
00000260: f5f7 1f3f dc8f ca3e 4695 f93e 34dc b83e
00000270: 6390 ff3d 5404 08be b2d5 acbe b08a 82be
00000280: 4e0d 893e 6cd7 813e ad55 e93e f85e a93e
00000290: cc45 a3bf 17c3 343e 9047 d53c 77d6 d93d
000002a0: 6055 233e 7084 833d 1bdd 07bf 4162 2cbf
000002b0: 765d 33bf 590c b53e ec2e b53e a07b 55be
000002c0: b313 0abd 8f51 29bd 3234 a3be 85ce 59be
000002d0: 0908 f6bf 1083 163f c516 a3bf d5b4 613f
000002e0: 30fd 233f 46c5 2e3f 09e2 7c3f 8faf 2a3f
000002f0: c324 563f f7cb f13e 80e4 2c3f 893f 3a3f
00000300: 0e6b 0f3f 53d7 353f cadd c6be afd0 79bd
00000310: 17b4 0d3f 983d f1be 74fd 3cbf e61d 423f
00000320: c7f6 8dbf 34de 85bf d18e c83d d0e6 c63d
00000330: 3229 803d d470 cdbe cc67 d1be 530e 623f
00000340: 0eaa 81bd 2f5a e93f 5fd5 dc3e 65a7 a93f
00000350: 9228 0c3e fa17 f33e 8b8a 35bf cb1f fabf
00000360: b03b a53f 0ac8 9e3f c2bc 16bf 832f b03e
00000370: ae9a 963e f904 e2be 72b3 103f a153 f63e
00000380: 67ee 2e3f db08 dfbe 180d f13e 385b 8a3e
00000390: 0ee4 043f d71b bd3d cae8 fc3f 8c1c bf3e
000003a0: 4f01 d6bf c263 1a3f 4ede 4a3e 5e13 62bf
000003b0: 19f6 d93c 0aa3 103d 70e4 d93e a7d5 1f3f
000003c0: 058d e63e d0f5 ea3e 0470 c23e fe9a 4cbf
000003d0: c088 65bd 0bc0 743e 9047 913e cd38 723f
000003e0: 4f7e 0040 6ec6 f43c db1a 403e c7e1 15bf
000003f0: fb31 febf 236d 81be 38bd 713f 2d6a 843e
-0.7421878 -0.59857357 -0.46941417 0.44890627 0.1787237 0.45990342 0.0410857 0.32743984
-0.4119931 -0.5351908 -0.29813567 0.093579106 -0.31159508 0.47482374 -0.04622125 0.4363366
0.12162763 0.50074905 0.56606144 0.61543286 0.51606363 0.61450547 0.74410254 0.28727567
-0.17273428 -0.16245183 -0.47234213 0.2805042 -0.8952805 0.45910326 0.21003112 -0.30316344
-3.1749136 -0.29649934 -0.23842429 -0.40815008 -0.021265786 0.35538527 0.18547235 1.0760179
0.21252964 0.87541646 -2.0984068 0.36663038 1.0796905 0.4946361 -0.7022156 0.15850008
0.12699644 0.1927969 0.46922454 0.3399497 0.34520283 0.19171752 0.16768505 0.3988017
0.39298984 0.44538838 0.34079733 0.057277195 -0.0428678 0.20129456 1.543051 1.4816537
-0.4581305 -0.80109334 -0.44396755 -0.9957337 2.0977726 0.19045623 -0.06991707 -0.0083502345
-0.33032924 -0.6245505 -1.6105773 3.2695088 0.884764 0.57745624 -0.19636318 0.36999068
0.18104246 -0.23835672 0.10247706 -0.12766421 -0.4265232 0.59609246 0.041670624 -0.52720875
0.21427312 -0.6859254 -0.07180535 -0.12403296 -0.33061707 0.35380864 1.2039901 -1.9330537
-1.5003085 0.55745363 -0.20112114 -0.3503365 -0.45160666 -0.3938608 -0.4726533 -0.27832627
-0.18059073 0.7776356 0.07615556 -0.06857524 0.73732585 -0.075454645 0.53075665 0.73741573
0.5244107 0.8905827 -0.72699475 1.0475638 -0.3254861 -0.243762 0.58095294 0.83668137
0.7889056 0.9166065 0.7371148 0.15329237 0.012051938 0.20759036 0.07751245 0.30993044
0.5125031 -0.68593657 -0.6212686 0.22264811 0.2906532 0.5153788 0.09506297 -0.113021664
0.0064846836 -0.09333676 -0.06589899 0.6765223 0.3109194 0.15353337 1.4957627 0.6815065
1.1927769 1.2738897 0.73561555 1.1578704 -0.47655928 0.66938555 0.9603882 0.5385489
0.6248773 0.3956288 0.487467 0.36105502 0.124787115 -0.13282901 -0.33756787 -0.25496435
0.26767963 0.25359666 0.45573178 0.33080268 -1.2755675 0.17652546 0.0260351 0.10636609
0.15950537 0.06421745 -0.53071755 -0.67337424 -0.70064485 0.35360983 0.3538736 -0.2084794
-0.033710193 -0.041337546 -0.3187576 -0.21270187 -1.9221202 0.58793736 -1.2741324 0.8816655
0.6405821 0.68269765 0.987824 0.6667413 0.83649844 0.47225925 0.67536163 0.72753197
0.5602273 0.71031684 -0.38841087 -0.06099003 0.5535292 -0.47117305 -0.7382424 0.7582687
-1.1090935 -1.0458436 0.09792865 0.09711993 0.062578574 -0.40125144 -0.40899503 0.8830311
-0.063312635 1.8230647 0.4313154 1.325421 0.13687351 0.4747923 -0.70914525 -1.9540952
1.290884 1.2404797 -0.5888177 0.3441125 0.29414886 -0.4414442 0.5652381 0.4811068
0.68332523 -0.43561444 0.47080302 0.2702272 0.51910484 0.09233826 1.9758542 0.37326467
-1.6719149 0.6030847 0.19811365 -0.883108 0.026606606 0.035311736 0.42557096 0.6243538
0.45029464 0.45890665 0.37976086 -0.79924 -0.056038618 0.23901384 0.2837491 0.9461792
2.0077093 0.029879775 0.18760245 -0.58547634 -1.9859003 -0.25278577 0.9442935 0.25862256

linear1.bias f4 [128]
00000000: 41f3 3cbd 4aed ea3f f34d d23f 9f39 5040
00000010: 983a 4440 e103 5a40 7ab6 2140 c901 033f
00000020: 6fca ec3f f6ee d93f c3f1 3540 c7c5 b1be
00000030: 905b 89bf 8cb8 2440 f6ef f0bf 1d63 a9be
00000040: 1f42 98bf ddf6 28bf 6357 18be 832e 10bf
00000050: 54dd 803e 9dbb dc3f 680c 2f40 c02e b9bf
00000060: 908b ee3f ad1b 4340 525d f63f ffaa a5bf
00000070: a7d3 363e 212b 3ebf e1d8 0b40 18d2 96bf
00000080: d71e 8bbe 87bd af3d 1ffb 393d d8d6 8bbf
00000090: 1aac 2240 8449 1140 c6a6 1440 145f 9ebf
000000a0: 8a2a 4e3f b251 4c40 915f 1a40 0f91 d53f
000000b0: 5ed0 2140 8e17 543f 05b8 d9bf 0018 1cbf
000000c0: 0f88 ab3f cbae 1f40 bc0e 4240 c2b0 68bf
000000d0: fbf3 99bf 2019 663f 2b36 3a40 d36b 9fbf
000000e0: cf04 7fbf c4e2 b33e 6ec5 463f 088f 373f
000000f0: d4d8 333f 502d 3240 66a8 d1bf e79b fd3f
00000100: 30fc 44bf 4333 3840 f909 a2bf bc70 d5be
00000110: 4ced 14c0 b380 2140 ecb9 5d40 6e2e a3bd
00000120: 21a9 f33f cdfc ba3f 1fbe bc3f e913 84bf
00000130: ae65 e03f 83c8 a0bf 0d7c 8fbf 966a 2940
00000140: 8c33 263f 841d 3140 52a7 523f f017 3740
00000150: 7c5e 203f a517 9dbe ae53 1140 c560 d13f
00000160: d3a1 54bf 1109 c53f 52cd 1d40 d5c9 d63f
00000170: 05d6 2440 b842 fa3f 179f 26be dd68 1240
00000180: b485 f8bd d00b 03be 81cb 133f 6639 993f
00000190: bd8f 7440 c369 ea3f 74dd 0d40 6d80 6dbf
000001a0: 7b00 1240 ebaa 8a3f 91c2 293f f164 703f
000001b0: f9b3 3140 5a77 1ac0 4785 fc3f abbe 2840
000001c0: df34 1740 6f7f 1740 29fa 2ac0 2189 8340
000001d0: c1d4 ae3f 19e6 ce3d 7b6d e4be 1721 2440
000001e0: 4043 693f 8ccb 1abe 3dc5 eabf bec7 8b3f
000001f0: 95dd 2f40 93e7 ca3f 9fdc 29be 7955 eebf
-0.046130423 1.8353665 1.6430038 3.253517 3.0660763 3.4064867 2.5267625 0.511746
1.8499278 1.702605 2.842881 -0.34721205 -1.0731068 2.5737638 -1.882323 -0.3308343
-1.1895179 -0.66001683 -0.14877085 -0.5632097 0.2516886 1.7244755 2.7351322 -1.4467392
1.8636341 3.0485642 1.9247229 -1.2942809 0.17854176 -0.7428456 2.1851122 -1.1782866
-0.27171966 0.08581071 0.045405503 -1.092494 2.5417542 2.270112 2.322679 -1.2372766
0.8053366 3.1924863 2.412083 1.6684893 2.5283427 0.8284844 -1.7009283 -0.6097412
1.3400897 2.4950435 3.0321493 -0.9089471 -1.2027582 0.8988209 2.9095562 -1.245478
-0.9961671 0.35133946 0.77645004 0.71702623 0.7025273 2.7840157 -1.6379516 1.9813203
-0.7694731 2.8781288 -1.2659293 -0.41687572 -2.3269835 2.5234802 3.4644728 -0.0796784
1.9035989 1.4608399 1.474552 -1.0318576 1.753103 -1.2561191 -1.1209732 2.6471305
0.64922404 2.7674265 0.8228656 2.860836 0.6264417 -0.30682102 2.2707324 1.6357657
-0.83059424 1.5393392 2.4656568 1.6780344 2.5755627 1.9551611 -0.16271625 2.2876503
-0.12134877 -0.12797475 0.577324 1.1970642 3.821273 1.8313526 2.2166414 -0.9277409
2.2812793 1.083341 0.6631251 0.93904024 2.7766097 -2.4135346 1.9728173 2.6366374
2.362602 2.367153 -2.6715186 4.1104894 1.3658677 0.101024814 -0.44614777 2.5645196
0.9111824 -0.1511671 -1.8341442 1.0920331 2.7478993 1.5851921 -0.16588067 -1.8619834

linear2.weight f4 [64, 128]
00000000: 5fa3 983e 13c1 bcbf bd35 adbf 4175 8b3c
00000010: b6f1 9ebe cb97 66bf 246f b93e 9e3c fcbd
00000020: 1d92 d3bd d35f a4bf 180e d73e d599 00bf
00000030: 3fd2 d8be 8baf 2bbf 8930 cd3e 74d5 dfbd
00000040: 975b 5d40 6727 febe 677f 203f 16ac 0abf
00000050: 7073 85bb 2bc3 093f 0b4e 91bf f932 ba3f
00000060: 9165 593f de72 25c0 34c0 9fbe 06fe 03be
00000070: 2bc6 0bbf 7753 9abe 1269 fabf ef4f 12bf
00000080: 77ca 703f ba60 083f abdd 1fbf dbd8 f5be
00000090: d284 10bf 5cc1 62be 9452 a53e 71a4 c13e
000000a0: a487 8fbf bcb8 74be 9c89 753f 1ba3 8ebf
000000b0: 5400 64be 0b51 f33d 4614 d1be 0e2c 45c0
000000c0: e9f0 80c0 72bb febd e270 bebe 4c44 88be
000000d0: 1086 b53f 683b 983d 8926 08bf 25cf 5f3e
000000e0: 84d7 c63e 27bc c5be 39f8 6bbf e438 6abc
000000f0: fbf8 fbbf abb6 ad3e ad09 f7be 6dcc 2fbe
00000100: 1543 aabe 2d1f 3f3e 9fa6 a73d 69f6 ef3f
00000110: 9714 813f e0ab 613e ee16 90bf ac63 60be
00000120: d073 023f c4b9 a7bf 73d0 a7bd 75e6 78bf
00000130: 35ad 133f bd90 6e3e 154f 1a3f 4711 343f
00000140: e7ea c83e b3c0 4b3e 6627 3cbf f2ea 29bf
00000150: 17a8 8fbf 4d53 103e 57ee 013f 1609 05bf
00000160: 8374 9abf 0894 a03e 8133 b33d 0138 533f
00000170: af84 80bd 46c0 bcbf ddd4 2dbf 97f6 d1be
00000180: 84df 183f 3d67 9e3f cbea 55c0 8e1d f3bf
00000190: 76e5 6fbf d58f 333e be6b ee3d 3b0b c1be
000001a0: ebf2 26c0 14f6 723f 3016 77be 8fda b5bf
000001b0: fe2c af3e d1c2 453f ba36 7bbf eb2a 213c
000001c0: f8dd 193f fa8c 113e 3234 2fbf 7b07 8cbf
000001d0: 5dec d53f e09e c6bf 1c3d 3b3f 03cb 07bf
000001e0: d03d 34be 909e fe3e 198b 163f 7456 c1be
000001f0: 4000 1e3d 338e 52c0 28e2 f63f 68f5 a53e
00000200: 5d5a 63be 98bc a43e ebaf a23f 703c 703f
00000210: fcef 883f b548 b23f eac5 983e 0c46 663f
00000220: efe5 b33f ee86 8d3f 87aa 483f 6221 04be
00000230: 54dd 94bf 0e02 933f 88c1 b0bf 6875 dcbe
00000240: 530a fabf 0f86 b8bf 3dff 3d3d d94e e9be
00000250: 5767 863e e99a fa3e 5e93 613f 7e07 b8bf
00000260: 7787 6d3f 12b0 7b3f f47a 2f3f c7f5 11bf
00000270: eda6 8d3d fea3 0b3f b496 0040 0fe9 35bf
00000280: 7c06 213a 16ab 003f ae5d 54bf f744 6cbf
00000290: 9049 f73f b561 913f 949a 8b3f caa8 d3bd
000002a0: 4b8e d93e d03d 653f 5862 563f 9772 513f
000002b0: 6fb1 573f b9f3 ac3e 05c4 03bf 7327 f3bf
000002c0: 9dc3 2440 364f 6f3f f8c5 983f 4eba 5a3e
000002d0: 2f7f afbf e7c4 113e 5707 a73f c237 63bf
000002e0: 3131 a9bd 4682 33bf 03b1 203f 957b b33f
000002f0: 1ba7 813f 6a7a 6d3f c5fd a4bf 363e a23f
00000300: 1264 d63e 8eda 663f 6958 7ebf 8db6 c0be
00000310: 9bcc 3abd f547 143f 1064 c93f d7f0 493f
00000320: 73f0 8e3f 22f6 e63e 7960 c93f 4dfb b7bf
00000330: ee0f 3f3f 9fdd 7cbf 6b45 513e 98ce 8d3f
00000340: ce58 093f 3a2d 663f 8cd5 bdbd 3e5c 853f
00000350: cecb 753f 37ab 35be d6cf f63e 2e23 d5bd
00000360: 9786 60bf 8ee2 743f 2d84 1c3f 9315 de3e
00000370: 2558 f33e 66ed af3f 51e8 91bd 0384 aa3f
00000380: d38e 0c3d 6409 693f 1392 4c3f d97d 053f
00000390: b497 b03f f2f3 a53e dd51 ed3e 3c97 e0bf
000003a0: d203 253f 5663 463f d9d2 293e e218 9b3e
000003b0: 249c 793f 4973 92bf c2cb 2840 13f5 aa3f
000003c0: b771 bc3f 6229 763f dbd6 bcbf 6612 ba3f
000003d0: 2262 813f 6de8 8fbe 000f 48bf 1a7e 323f
000003e0: 22c1 aabc cbe5 4dbf e685 a3bd f07c 383f
000003f0: 320b fb3e b498 c53f d775 2cc0 2315 85bf
0.29812142 -1.4746422 -1.3532025 0.017023684 -0.31043786 -0.9007537 0.36217606 -0.12316249
-0.10330603 -1.2841743 0.4200294 -0.5023473 -0.42347905 -0.6706473 0.40076092 -0.10929385
3.4587152 -0.49639437 0.626944 -0.5416883 -0.004072599 0.5381343 -1.1351942 1.4546806
0.84920603 -2.585136 -0.31201327 -0.12889871 -0.54599255 -0.30141804 -1.9563315 -0.5715322
0.94058937 0.53272593 -0.62447613 -0.4801701 -0.5645267 -0.22144073 0.32289565 0.3782077
-1.1213269 -0.23898596 0.959131 -1.1143526 -0.2226575 0.11880692 -0.4083578 -3.080814
-4.029408 -0.12438096 -0.37195498 -0.26614606 1.4181538 0.07433206 -0.531838 0.21856363
0.388363 -0.3862011 -0.9217563 -0.01429579 -1.9685358 0.33928427 -0.4824957 -0.17167826
-0.33254305 0.18664236 0.08186077 1.8747073 1.0084409 0.22038221 -1.1256998 -0.21913022
0.50957966 -1.3103566 -0.081940554 -0.9722665 0.5768617 0.23297401 0.6027692 0.70338863
0.39241716 0.19897728 -0.7349762 -0.66374123 -1.1223172 0.14094277 0.507543 -0.5196699
-1.2066807 0.3136294 0.08750058 0.8250733 -0.062753074 -1.4746177 -0.6790293 -0.41008446
0.5971606 1.2375256 -3.3424556 -1.8993394 -0.93709505 0.17535336 0.11641644 -0.3770388
-2.6085765 0.94906735 -0.24129558 -1.4207324 0.34214014 0.7725039 -0.9813038 0.009836893
0.6010432 0.14213935 -0.6843902 -1.0939783 1.6712757 -1.5517235 0.7314012 -0.53044146
-0.17601705 0.4973035 0.58805996 -0.3776127 0.038574457 -3.2899292 1.9287767 0.32413793
-0.2220244 0.32175136 1.2709936 0.9384222 1.0698237 1.3928438 0.29838496 0.89950633
1.4054545 1.1056802 0.78385204 -0.1290336 -1.1630044 1.1485002 -1.3809061 -0.43058324
-1.9534401 -1.4415911 0.046385992 -0.45567968 0.26250717 0.48946312 0.8811549 -1.4377286
0.9278483 0.98315537 0.68546987 -0.5701565 0.06916604 0.5454711 2.0091982 -0.71058744
0.0006142629 0.50261056 -0.82955444 -0.9229273 1.9319324 1.1357943 1.0906549 -0.10334928
0.42491373 0.89547443 0.8374381 0.81815475 0.8425512 0.33779696 -0.5147098 -1.8996414
2.5744393 0.9348024 1.1935415 0.21360132 -1.3710688 0.14235269 1.3049115 -0.88756955
-0.08261336 -0.70120656 0.627701 1.4022089 1.0129122 0.92764914 -1.2889944 1.2675235
0.41873223 0.9017724 -0.99353653 -0.37639275 -0.045605283 0.579223 1.5733662 0.7888312
1.1167129 0.4510966 1.5732566 -1.4373566 0.7463368 -0.98775667 0.20436637 1.1078672
0.5365113 0.8991276 -0.092692465 1.0418775 0.96014106 -0.17741095 0.4820544 -0.104071006
-0.8770537 0.95658195 0.61139184 0.43375835 0.47528186 1.3744323 -0.07124389 1.3321537
0.034315895 0.91029954 0.7991039 0.52145153 1.3796296 0.32412678 0.4635152 -1.7546153
0.64458954 0.77495325 0.16584338 0.30292422 0.97503877 -1.1441432 2.6374364 1.3356041
1.4722203 0.96156895 -1.4753069 1.4536865 1.0108073 -0.28107014 -0.7814789 0.69723666
-0.020844046 -0.8042876 -0.079845235 0.7206564 0.4903198 1.5437226 -2.6946924 -1.0397075

linear2.bias f4 [64]
00000000: 44fd debf f1c4 5340 d4a4 5140 2c5b 3040
00000010: 43ad 4f40 3001 2940 3e84 0c40 9d5e acbf
00000020: 1989 4e40 98df c0bf c206 a7bf c4a4 2940
00000030: c85b 6140 5f47 4440 fbc8 5d40 04e8 b1bf
00000040: 8ee5 3240 6a6f aebf b837 6840 2f1c f9bf
00000050: 42b7 4940 87bd 00bf 3f94 a8bf 123b 02c0
00000060: e78c 1540 5d56 4e40 3ab4 a9bf ec99 55bf
00000070: 3265 acbf fd85 c53f 2c3b 8dbf 3ea4 ea3f
00000080: 91b9 2c40 437d 853f a52d dabf d919 5840
00000090: 1cc4 6a40 dd92 3c40 285a cfbf bbfa 6540
000000a0: b45a f0bf 64ac efbf 7f37 0740 1a6e c33f
000000b0: a482 dcbf bc80 19bf 8e68 98bf ab3b 5740
000000c0: ef5b 53bf a3f7 aebf d6be 5040 25d5 e53f
000000d0: 6184 473f 0629 9d3f 7021 1740 ce6c 5540
000000e0: 1e78 c7be 56fa 83bf 1840 0cc0 c3fc c5bf
000000f0: 9030 9abf cca9 86bf 401c 70bf 015d f83f
-1.742104 3.3088953 3.2756853 2.7555647 3.24495 2.6406975 2.1955714 -1.3466374
3.2271178 -1.5068235 -1.3048937 2.6506815 3.521227 3.0668561 3.4653919 -1.389893
2.795261 -1.3627751 3.6284008 -1.9461726 3.1518102 -0.50289196 -1.3170241 -2.0348554
2.336725 3.2240212 -1.3258126 -0.8343799 -1.3468382 1.5431515 -1.1033683 1.8331373
2.698826 1.0428852 -1.704518 3.3765776 3.6682196 2.9464638 -1.6199389 3.5934284
-1.877768 -1.8724484 2.1127622 1.5267975 -1.7227368 -0.5996206 -1.1906908 3.3630168
-0.82562155 -1.3669323 3.2616477 1.7955672 0.7793637 1.2278144 2.3614159 3.334766
-0.3895883 -1.0310771 -2.191412 -1.5467762 -1.204607 -1.0520568 -0.93793106 1.9403383

output.weight f4 [1, 64]
00000000: 4b7b 89c0 1f79 bf3f ad8a c73f 5d03 d23f
00000010: dbe6 fa3f 4875 3440 ad08 7240 ed8a d0c0
00000020: 6152 e03f 79f4 29c0 6453 09c1 9f44 4740
00000030: 520d be3f 8907 e73f 7569 f73f d1f6 d5c0
00000040: bee0 e53f da75 88c0 9a43 2240 97ef 69c0
00000050: 1db1 0d40 4769 a7c0 883d 90c0 ec83 91c0
00000060: 689d 2e40 f595 d43f 0c8f 1ec0 ca32 94c0
00000070: 911f 5dc0 1129 9540 148d 45c1 72be 4e40
00000080: 8fa6 9240 d5da ed40 b986 8fc0 11d7 be3f
00000090: e6b3 e13f d00b fe3f 032b 0ac0 2ee7 c13f
000000a0: 0092 b7c0 9aed 20c0 51cf 9340 c5d5 5c40
000000b0: 324c 9ec0 dadc e7c0 b9a3 8fc0 5a65 0140
000000c0: dec0 76c0 8ac4 64c1 db6d ee3f 8e49 6940
000000d0: 9d0b 0241 1619 6840 25ee 5d40 ae06 a93f
000000e0: 0bda 60c0 515a 3ac0 c495 73c0 bdd8 6ac1
000000f0: bf80 38c0 09e4 b6c0 ad6d 9ec0 7ebf 5040
-4.2963004 1.4958838 1.5589195 1.6407276 1.9601701 2.8196583 3.7817795 -6.5169587
1.752514 -2.6555464 -8.582859 3.1135633 1.4847815 1.8049175 1.9329058 -6.686379
1.7959211 -4.264386 2.535376 -3.6552484 2.2139351 -5.231601 -4.507511 -4.5473537
2.7283573 1.6608263 -2.477481 -4.6312 -3.4550517 4.661263 -12.346943 3.2303739
4.582832 7.432963 -4.4851956 1.4909383 1.7633026 1.9847355 -2.1588752 1.5148675
-5.7365723 -2.514502 4.619057 3.4505475 -4.946801 -7.2457094 -4.4887357 2.021811
-3.8555217 -14.297983 1.8627275 3.6451144 8.127835 3.6265311 3.4676602 1.3205163
-3.5133083 -2.9117625 -3.806016 -14.677915 -2.882858 -5.7153363 -4.950888 3.2616878

exp_avg f4 [128, 34]
00000000: 0cbf 2ec7 2851 78c5 4200 1ac4 e0e2 b6c4
00000010: 221f 5145 8b0a 6fc4 b88f 1844 9128 8045
00000020: df16 9dc4 13d0 2644 9d1d f2c4 7f83 c445
00000030: 1a1c 1ec6 702b eac3 84c6 36c3 d037 9643
00000040: d9f0 8445 7f7e 3645 fb3f f745 5706 3245
00000050: b6d9 bc45 ab81 4646 b055 8b46 b01d 2445
00000060: eaf8 a546 b3f6 8d46 829a 1e43 c264 5144
00000070: 4ca4 fa44 f658 fc45 310e c546 3ca7 4b46
00000080: d62c 3844 4d2c 0a47 1a6b e546 5a29 2f46
00000090: e51f 9ec4 b27f 54c5 dc94 77c5 ef3e 2745
000000a0: 59e8 13c5 83a3 3bc5 cf96 0645 ea7e 7bc4
000000b0: 0bb2 2344 0a6a 1bc5 8c01 2546 c119 91c4
000000c0: 4039 45c4 a264 a644 d5df 06c6 58b6 52c5
000000d0: aa71 3bc6 27f3 efc5 6c0d e0c4 9c9b aac5
000000e0: b2b7 63c6 ea29 b7c5 1310 7ec6 3ead adc6
000000f0: 49ca c943 453c 0ac4 715f 1543 2342 9ac6
00000100: c475 09c7 5e13 3845 5c60 d0c6 b2ec 04c7
00000110: 0a63 dbc4 eb45 b643 8e48 bcc3 d164 9fc1
00000120: 532d d1c3 d004 5144 e458 1cc4 8383 0ac3
00000130: 6b98 9844 4611 f343 cc8c b443 12eb fb43
00000140: 0c3f 1544 2cff e940 c9aa 1243 8237 26c4
00000150: 3333 bac4 b8a0 b1c1 04e3 47c2 0e5f f043
00000160: 6f9c 8ac4 fd85 4bc4 86e6 28c5 002a d740
00000170: e051 1ac5 fd20 13c5 a892 5cc2 ca47 85c2
00000180: 12db 55c3 c80a a8c5 e7c6 58c5 aa93 31c5
00000190: 8513 18c5 9144 90c4 d68a f946 bc75 a646
000001a0: 3cc4 0346 9ae5 6fc4 97cb 43c5 9d53 f645
000001b0: 1a30 acc4 70b4 3243 b844 0545 8668 1444
000001c0: 3c0d 1545 f7e3 6bc6 234d f945 aa6f 5ec5
000001d0: 3df3 af45 8a9d 1ec5 d583 34c6 87f0 0bc5
000001e0: 2e6a bec6 e703 3bc5 402d 0ac6 0bc2 01c6
000001f0: 6e6c 17c6 0a79 acc5 5157 08c7 bcee f9c6
00000200: 1626 a0c4 b2cc 5b44 ac8f 09c4 6071 61c6
00000210: 3d86 74c4 6e38 a346 d28e 08c7 ea86 50c7
00000220: 2b28 3e47 e000 d446 b7c0 1846 dca5 47c4
00000230: ae85 70c5 443c f745 b406 dfc4 5288 13c4
00000240: 26ca 1745 dd0d 4c44 dc9c 1645 8cb9 85c6
00000250: 50f1 1746 f846 88c5 0ed2 d545 0cbc 47c5
00000260: 94e0 54c6 877b 12c5 7ba7 e4c6 963a 3dc5
00000270: 2a4f 14c6 ace0 5cc6 b847 3cc6 e031 05c6
00000280: 505d 29c7 445f 1bc7 d686 b4c4 74f2 5e44
00000290: 79ed cdc4 b108 42c6 26bb f3c4 0ddc a946
000002a0: 8cf6 08c7 8e50 67c7 f158 0648 1698 5b47
000002b0: b955 be46 af74 0744 b96f 55c6 a445 9b46
000002c0: 500a 96c5 8739 0945 9458 9144 4789 ba45
000002d0: b8bf 9e44 15b7 1ec7 0a9f 6547 e73e a2c4
000002e0: 6a20 b844 1ef1 02c6 fa18 f2c6 8dd0 0cc6
000002f0: a2d8 81c7 399d 69c6 a538 bfc6 0c46 e6c6
00000300: 7bc1 69c7 ccbd 55c7 7e70 c3c7 b8a5 d2c7
00000310: 5556 0dc5 ec56 a8c4 1d55 57c5 6d95 51c7
00000320: 5936 16c8 d294 96c7 4ab2 28c8 cf49 3ec8
00000330: 2cfb de46 966c 5146 deaf aa45 14f1 d4c4
00000340: 1523 56c5 7b88 3c44 9e7c b4c4 c11c 1e44
00000350: 7b5b 0445 73f4 5144 da2f 3644 80d1 bdc4
00000360: f01c 2745 cfba 2fc3 b08c 30c2 81ce ffc4
00000370: d96f b2c5 8a4c 3ec5 7653 1cc6 14ca 00c6
00000380: 26a4 c3c5 cf51 fcc5 2456 72c6 f44e 94c6
00000390: b1da a8c6 a54e b2c6 fb3e c2c3 8c4d cbc3
000003a0: 8e3c 98c4 91d5 fbc6 1b04 1dc7 7e75 c0c6
000003b0: 54bd e6c6 9470 4cc7 441a c7c5 2b0b d645
000003c0: abef 7444 798a 81c4 a3cd 50c4 8efe d444
000003d0: de6a c8c4 f69e 89c4 4f94 3f44 8429 1544
000003e0: 5887 9044 82d4 8dc4 84ef 1ec5 ce04 3bc5
000003f0: b65d bc44 26e4 bfc4 44d0 8ec4 91a5 30c4
-44735.047 -3973.0723 -616.004 -1463.0898 3345.9458 -956.16473 610.2456 4101.071
-1256.7147 667.25116 -1936.9254 6288.437 -10119.025 -468.33936 -182.77545 300.43604
4254.106 2919.906 7911.9976 2848.3962 6043.214 12704.417 17834.844 2625.8555
21244.457 18171.35 158.60355 837.57434 2005.1343 8075.12 25223.096 13033.809
736.70056 35372.3 29365.55 11210.338 -1264.9967 -3399.981 -3961.3037 2675.9333
-2366.5217 -3002.2195 2153.4255 -1005.98303 654.7819 -2486.6274 10560.387 -1160.8048
-788.89453 1331.1448 -8631.958 -3371.3965 -11996.416 -7678.394 -1792.4194 -5459.451
-14573.924 -5861.2393 -16260.019 -22230.621 403.58035 -552.9417 149.37282 -19745.068
-35189.766 2945.2104 -26672.18 -34028.695 -1755.095 364.54623 -376.56683 -19.924227
-418.3541 836.0752 -625.3889 -138.51372 1220.7631 486.13495 361.09998 503.8365
596.9851 7.312399 146.66713 -664.8673 -1489.6 -22.203476 -49.971695 480.7426
-1108.8885 -814.09357 -2702.4077 6.723877 -2469.1172 -2354.0618 -55.14322 -66.64021
-213.85574 -5377.3477 -3468.4314 -2841.229 -2433.22 -1154.1427 31941.418 21306.867
8433.059 -959.5875 -3132.7244 7882.4517 -1377.5032 178.70483 2132.295 593.6332
2384.8271 -15096.991 7977.642 -3558.979 5630.405 -2537.8462 -11552.958 -2239.033
-24373.09 -2992.244 -8843.3125 -8304.511 -9691.107 -5519.13 -34903.316 -31991.367
-1281.1902 879.19836 -550.2449 -14428.344 -978.0975 20892.215 -34958.82 -53382.914
48680.168 27136.438 9776.179 -798.59155 -3848.355 7911.533 -1784.2095 -590.13
2428.6343 816.2166 2409.8037 -17116.773 9724.328 -4360.871 6842.257 -3195.753
-13624.145 -2343.7205 -29267.74 -3027.6616 -9491.791 -14136.168 -12049.93 -8524.469
-43357.312 -39775.266 -1444.2136 891.7883 -1647.421 -12418.173 -1949.8484 21742.025
-35062.547 -59216.555 137571.77 56216.086 24362.861 541.8232 -13659.931 19874.82
-4801.289 2195.5955 1162.7681 5969.1597 1269.9912 -40631.082 58783.04 -1297.9657
1473.013 -8380.279 -30988.488 -9012.138 -66481.266 -14951.306 -24476.322 -29475.023
-59841.48 -54717.797 -100064.984 -107851.44 -2261.3958 -1346.7163 -3445.3196 -53653.426
-153817.39 -77097.64 -172745.16 -194855.23 28541.586 13403.146 5461.9834 -1703.5337
-3426.1926 754.1325 -1443.8943 632.4493 2117.7175 839.8195 728.7477 -1518.5469
2673.8086 -175.72972 -44.13739 -2046.4532 -5709.981 -3044.7837 -10004.865 -8242.52
-6260.5186 -8074.226 -15509.535 -18983.477 -21613.346 -22823.322 -388.49203 -406.60583
-1217.8923 -32234.783 -40196.105 -24634.746 -29534.664 -52336.58 -6371.283 6849.396
979.7448 -1036.3273 -835.2131 1703.9548 -1603.3396 -1100.9675 766.3173 596.6487
1156.2295 -1134.6409 -2542.9697 -2992.3003 1506.9285 -1535.1296 -1142.5083 -706.587

exp_avg_sq f4 [128, 34]
00000000: 95ff 8950 e379 974f a5c7 764e 8295 be4c
00000010: 1c6b 8d4c 080b 404d c156 244c bd7f 2c4c
00000020: ed38 864c ad86 0f4c 9595 224c 606d 134e
00000030: be49 ea4e 6bea 634c 95b4 414c 7904 5a4c
00000040: 2271 6a4d 396e d94c 1c8a e44e c7a9 8d4d
00000050: c98e 114e dc03 954e a7e7 284f dad2 9b4f
00000060: 8f01 924f ea4f 644f 0df3 664b 40a9 9f4b
00000070: ce03 394c 804f ba4e a716 6a50 056b b150
00000080: 0f5d 404e 801f be50 29ad 0950 5a85 824f
00000090: af3d 3b4e 74b5 a94c 9500 5e4c 1f8c 864d
000000a0: d9ef 114c c3a1 a84c c09e 8c4c 1e15 074c
000000b0: c327 464c ad9a 154e c45e 0a4f f555 5b4c
000000c0: 2784 274c b122 274c 520e 844d 9bbf b84c
000000d0: b45d c84e 00e6 694d c7b7 c04d 6e61 384e
000000e0: f1c1 c44e 9e32 794f 6260 984f 8733 7b4f
000000f0: c76c 774b 2dd4 ea4a b5d5 144c b1aa 0b50
00000100: 607c 0850 027d ea50 b76a 5a4f ecdf 114f
00000110: 3ec7 024e 2a6f 9e4d 42b9 514d c886 e14a
00000120: 82ad 014b 0d36 434d 4dfc af4a 8d19 104c
00000130: af90 014c 988e 544a 0737 e04a 9d06 014d
00000140: 007a 7a4d 255c 064b c6d8 e84a 7907 7b4a
00000150: aac7 014c b326 414b 0722 634d 1fdb 2a4c
00000160: 9e71 784c 4dc3 624c 0c39 d34c c72b a24e
00000170: 1370 814e decc bb4d 2fcc 524a c2ae 704a
00000180: d35f 474a 7c41 c44f 86cb 0d4e 7a94 a550
00000190: 087f 564d 7e49 974c 5cbf 1151 ef8d 5650
000001a0: 0d84 714f 286f 744d 06b3 4d4d 3dc8 264f
000001b0: 26ec de4c 7228 e94c d263 064d fb2f aa4c
000001c0: 25d0 c94c 5e51 834f 4100 2d50 bf38 094d
000001d0: 5f48 004d bffd 174d 49e4 b74e 9af9 954d
000001e0: 1687 2650 5f59 1f4e 09be b54e 73a2 284f
000001f0: 1993 cd4f ad17 4d50 3e9e b350 eb4a b950
00000200: 5b00 174c 6275 824c 2a0f 184d b5f6 b44f
00000210: 862b 0d52 f7f8 4252 212b b051 cafe 1e52
00000220: 051a 3e51 2e83 8f50 8c1f 9a4f c857 874d
00000230: 39b6 6f4d 44c5 4d4f 54ef 064d 5dd5 104d
00000240: f610 224d f4e0 ca4c 7a2a ee4c c43d a04f
00000250: 7158 5750 c641 264d fa25 1b4d 3b6b 364d
00000260: bc72 e74e 9dec b74d e5af 4e50 966b 4f4e
00000270: af9c f14e 8835 6c4f 2c57 0b50 bc86 8850
00000280: 663c e750 c47c ef50 8e2c 2f4c a952 9b4c
00000290: 47e2 0e4d b10c c54f 0d87 2d52 8999 6c52
000002a0: 234c d051 d4ff 3e52 07b7 bf51 97bd 3c51
000002b0: 13f6 4050 01a7 424e 66ad 104e 53ff 964f
000002c0: b92a 954d f455 c64d 1285 dc4d c026 8e4d
000002d0: 84c6 934d 5129 1850 21c0 ef50 b0ab de4d
000002e0: ec83 c24d 6c55 bd4d 8a76 674f 95a4 774e
000002f0: 8ab1 c850 1138 f74e 3559 844f cdcf 0150
00000300: e483 8c50 5607 ee50 873a 4b51 c7d3 5b51
00000310: e65b 0f4d 736a 504c 57c4 b74d d52d d44f
00000320: 3f32 0052 f536 0351 7da5 fb51 46c8 c651
00000330: fa31 e44f ee82 8f4f c7a9 364e 0a8a c14c
00000340: 1817 394c f7b8 7a4c 16d7 ea4b 4898 094c
00000350: 7bf3 264c 8644 c14b 6f98 f64b c5e0 0f4d
00000360: daeb 6a4e 2a03 284c 9902 f04b e5cc 054c
00000370: f04b 054d f735 764c f26a 794e 2965 1d4d
00000380: 3000 a74d e971 004e fb76 b34e d368 2d4f
00000390: dbd3 3a4f f027 4c4f c108 924b 32e1 144b
000003a0: 5892 c04b e484 f64e d121 2350 d6ef 844f
000003b0: e850 1a50 07ff 2850 edb7 494f 7d29 2e4e
000003c0: 8512 914d ada5 e04b 687f 8f4b 5035 ef4d
000003d0: 3088 484b 6a5a 8b4b 5659 8d4b 6d12 704b
000003e0: 0c46 a84b 30e5 a94d ecb8 2a4e fdc4 c74b
000003f0: 0b7a 3e4c 6487 d54b f058 1e4d 690c c64b
1.8521827e+10 5.082695e+09 1.03506976e+09 9.992091e+07 7.414397e+07 2.0137178e+08 4.3080452e+07 4.5219572e+07
7.0371176e+07 3.76245e+07 4.26205e+07 6.183547e+08 1.9653507e+09 5.9746732e+07 5.0778708e+07 5.7151972e+07
2.4583018e+08 1.1399623e+08 1.9171282e+09 2.9708925e+08 6.105135e+08 1.250029e+09 2.8337539e+09 5.2285737e+09
4.8991514e+09 3.8304425e+09 1.5135501e+07 2.0927104e+07 4.8500536e+07 1.5628861e+09 1.5709412e+10 2.3812647e+10
8.0683104e+08 2.5517883e+10 9.239307e+09 4.379555e+09 7.853455e+08 8.897629e+07 5.8196564e+07 2.8216624e+08
3.8256484e+07 8.841167e+07 7.372544e+07 3.5411064e+07 5.1945228e+07 6.274855e+08 2.3214664e+09 5.7497556e+07
4.3913372e+07 4.3813572e+07 2.7694138e+08 9.68614e+07 1.680792e+09 2.4526029e+08 4.041587e+08 7.733482e+08
1.6505222e+09 4.180844e+09 5.112907e+09 4.214458e+09 1.6215239e+07 7.6948705e+06 3.9016148e+07 9.372878e+09
9.15941e+09 3.1472488e+10 3.6644268e+09 2.4473713e+09 5.485239e+08 3.3226067e+08 2.199112e+08 7.390052e+06
8.498562e+06 2.0469371e+08 5.7666945e+06 3.77749e+07 3.3964732e+07 3.482534e+06 7.3470755e+06 1.3529339e+08
2.6264371e+08 8.805413e+06 7.629923e+06 4.1128622e+06 3.402103e+07 1.2658355e+07 2.3816613e+08 4.478886e+07
6.5128056e+07 5.9444532e+07 1.107416e+08 1.360389e+09 1.0858029e+09 3.938457e+08 3.4537078e+06 3.9433445e+06
3.2665488e+06 6.585252e+09 5.947314e+08 2.222377e+10 2.2491558e+08 7.9318e+07 3.9123796e+10 1.4398504e+10
4.0519631e+09 2.5630784e+08 2.1569136e+08 2.7981407e+09 1.1687557e+08 1.2224194e+08 1.4091805e+08 8.9227224e+07
1.0580817e+08 4.4062956e+09 1.16099e+10 1.4388734e+08 1.3451416e+08 1.5937432e+08 1.5425957e+09 3.145204e+08
1.1175483e+10 6.683586e+08 1.5245651e+09 2.8292186e+09 6.897939e+09 1.3763524e+10 2.4107938e+10 2.4869558e+10
3.9584108e+07 6.839784e+07 1.5944566e+08 6.072134e+09 1.5158015e+11 2.0935015e+11 9.457973e+10 1.7071987e+11
5.103002e+10 1.9261911e+10 5.1715174e+09 2.8383462e+08 2.5135605e+08 3.4522573e+09 1.4148947e+08 1.5186888e+08
1.6993878e+08 1.0636688e+08 1.2486754e+08 5.376805e+09 1.445159e+10 1.7433302e+08 1.6268483e+08 1.9128005e+08
1.941528e+09 3.8571715e+08 1.3870536e+10 8.699836e+08 2.0267887e+09 3.9629312e+09 9.350984e+09 1.832425e+10
3.1035961e+10 3.214345e+10 4.5920824e+07 8.143393e+07 1.4982462e+08 6.6118866e+09 1.8632378e+11 2.5404704e+11
1.1182882e+11 2.0508397e+11 1.0292618e+11 5.0664665e+10 1.2949409e+10 8.1643117e+08 6.0682074e+08 5.0666307e+09
3.1282563e+08 4.1594022e+08 4.6246355e+08 2.9811302e+08 3.099076e+08 1.0211378e+10 3.2178768e+10 4.669742e+08
4.079282e+08 3.970615e+08 3.8833055e+09 1.0386896e+09 2.6936627e+10 2.0738234e+09 4.4408776e+09 8.711517e+09
1.885963e+10 3.1947665e+10 5.4553768e+10 5.900943e+10 1.5032278e+08 5.4634956e+07 3.8538723e+08 7.119547e+09
1.376497e+11 3.522267e+10 1.3510165e+11 1.06720444e+11 7.656961e+09 4.815445e+09 7.6614496e+08 1.0147029e+08
4.852029e+07 6.5725404e+07 3.0780972e+07 3.6069664e+07 4.3765228e+07 2.533198e+07 3.2321758e+07 1.5086702e+08
9.853313e+08 4.404343e+07 3.145861e+07 3.5074964e+07 1.3977165e+08 6.4542684e+07 1.0461339e+09 1.6504078e+08
3.5022592e+08 5.387372e+08 1.5054596e+09 2.9093281e+09 3.1344463e+09 3.4251694e+09 1.9140994e+07 9.756978e+06
2.5240752e+07 2.0679521e+09 1.094761e+10 4.460621e+09 1.0355974e+10 1.1341143e+10 3.3842742e+09 7.3048864e+08
3.0423875e+08 2.9444954e+07 1.8808528e+07 5.0165606e+08 1.3142064e+07 1.82653e+07 1.8526892e+07 1.5733357e+07
2.205596e+07 3.562962e+08 7.1606144e+08 2.6184186e+07 4.9932332e+07 2.7987656e+07 1.660393e+08 2.595861e+07
