Data/Player1/checkpoint-try normalize.pth (torch, 366277 bytes, 28 tensors)

linear1.weight f4 [128, 34]
0	0xbdf5c627	-0.12000685
1	0xbc31cf66	-0.01085267
2	0xbdc759c9	-0.09733922
3	0x3b846247	0.004040036
4	0xbdd670b4	-0.10470715
5	0xbc868433	-0.01642046
6	0xbdfd5546	-0.1236978
7	0x3a79727d	0.0009515656
8	0xbde19ffd	-0.110168435
9	0xbe24a539	-0.16078652
10	0x3dcdf900	0.100572586
11	0xbd215c07	-0.039394405
12	0x3e1efbd8	0.15525758
13	0xbd5fe3fa	-0.054660775
14	0xbdc5c59d	-0.09656832
15	0xbe3ab7a4	-0.18234116
16	0xbd8764b7	-0.06611007
17	0xbd80dfc3	-0.06292679
18	0xba39f5ed	-0.0007093836
19	0x3df02940	0.11726618
20	0x3d894f57	0.06704586
21	0x3d6237f7	0.055229153
22	0xbe09b47e	-0.13447759
23	0x3d0e7cdd	0.034787048
24	0xbdd6341d	-0.104591586
25	0x3e034c33	0.12822036
26	0xbdab1a77	-0.08354657
27	0x3e58a13a	0.21155253
28	0x3e2690de	0.162662
29	0xbddc5b12	-0.10759558
30	0x3de5eb8c	0.112265676
31	0x3d3f16e0	0.046652675
32	0x3db28a8f	0.08717834
33	0x3d372451	0.04471237
34	0xbde9c7a8	-0.114150345
35	0x3bb0ae5a	0.005391878
36	0xbdb5ab0e	-0.08870517
37	0xbe274b60	-0.16337347
38	0xbe12c993	-0.14334707
39	0xbd6e2a57	-0.058145847
40	0xbe42a990	-0.19009995
41	0x3cf4a0c8	0.029861823
42	0xbd19107e	-0.037369244
43	0xbdf4f096	-0.119599506
44	0xbb9554ec	-0.0045572426
45	0x3da49237	0.08035701
46	0xbbd7cb39	-0.0065855053
47	0xbdcc3e55	-0.099728264
48	0xbd6e6a3e	-0.05820679
49	0xbd9f733c	-0.07785651
50	0xbd953a49	-0.07286508
51	0xbda93f82	-0.08264066
52	0xbdb94e67	-0.09048157
53	0xbd384dff	-0.044996258
54	0x3cf6f74a	0.030147213
55	0xbdb5da92	-0.088795796
56	0xbcc6e01d	-0.024276787
57	0xbcdd370b	-0.027003786
58	0xbd97fb98	-0.074210346
59	0xbc940a7c	-0.018071406
60	0xbdad09e0	-0.08449149
61	0xbdd98ce0	-0.10622573
62	0x3dcac680	0.09901142
63	0x3c9ff39e	0.019525345
64	0xbd544bca	-0.05183009
65	0xbe1a9fdc	-0.15100044
66	0xbe02f1c0	-0.12787533
67	0x3cba24d8	0.022722647
68	0x3d59b05c	0.053146705
69	0xbd8bf4bd	-0.068337895
70	0x3e53b464	0.20674282
71	0x3e44ac50	0.19206357
72	0x3d8b1b9d	0.06792376
73	0xbdbd86f1	-0.09254254
74	0xbd7caac4	-0.061686292
75	0xbdf5aec0	-0.119962215
76	0x3df6854d	0.12037144
77	0xbe2701f1	-0.16309334
78	0xbcbc2111	-0.022964986
79	0xbdc0ee41	-0.09420443
80	0xbe0b1dd9	-0.13585605
81	0xbc44b71f	-0.01200655
82	0xbd952e79	-0.072842546
83	0x3dfdae8b	0.12386807
84	0x3d11f202	0.035631187
85	0xbd73c36c	-0.05951254
86	0xbceaae57	-0.028647585
87	0xbced37ab	-0.028957209
88	0xbd7dc214	-0.061952665
89	0x3e3293ae	0.17439148
90	0x3b495ad1	0.0030724297
91	0x3d707327	0.058703568
92	0xbb00c53d	-0.0019648813
93	0x3d5fdd96	0.05465468
94	0x3d2816e6	0.041037463
95	0x3dffddb2	0.12493457
96	0xbdfcc4ee	-0.12342249
97	0x3e164f06	0.14678583
98	0x3d66928d	0.056292105
99	0xbd8dca50	-0.06923354
100	0xbdad764c	-0.08469829
101	0xbe424939	-0.18973245
102	0x3dcbcfd9	0.09951753
103	0x3dd8f0cb	0.105928026
104	0x3eb9e665	0.3630859
105	0xbd9485ef	-0.07252108
106	0x3e392122	0.18079045
107	0x3de11a25	0.10991315
108	0xbd9c3e64	-0.076290876
109	0xbe181004	-0.1484986
110	0x3db69148	0.08914429
111	0xbdec8147	-0.11548095
112	0xbe13ceea	-0.144344
113	0x3c550c8f	0.0130034825
114	0xbe896b26	-0.2683956
115	0xbe11dcf5	-0.14244445
116	0xbe61f83b	-0.22067349
117	0xbe1fe7cc	-0.15615767
118	0x3ce929a0	0.028462231
119	0x3dbf176a	0.09330638
120	0xbe05984b	-0.13046376
121	0xbe1397bf	-0.14413355
122	0x3caf6abb	0.021413198
123	0x3c76a1c9	0.015053221
124	0xbd745ad9	-0.05965695
125	0xbddfdf85	-0.10931305
126	0x3e4808b0	0.19534564
127	0x3d83012e	0.063967094
128	0xbd838041	-0.06420947
129	0xbce4a152	-0.027908955
130	0xbcd0caa6	-0.025487255
131	0x3a1f3461	0.0006073174
132	0xbe197ba6	-0.14988574
133	0x3d82fdfa	0.063960984
134	0x3e12afde	0.143249
135	0xbcc00aa0	-0.023442566
136	0x3df5539b	0.11978837
137	0xbdaf6dd4	-0.0856587
138	0x3e113a64	0.1418243
139	0xbd89c9d4	-0.06727949
140	0xbdd6cbfd	-0.104881264
141	0x3df08a92	0.1174518
142	0x3dbbeab1	0.09175623
143	0xbe3f2290	-0.18665528
144	0x3d0727c3	0.032996904
145	0xbddc2b57	-0.10750454
146	0xbd879c97	-0.06621664
147	0xbd013233	-0.031542014
148	0xbb0796fb	-0.0020689357
149	0x3e93bd3c	0.28855312
150	0x3e89202b	0.26782355
151	0x3aa6ff0f	0.0012740808
152	0xbd809629	-0.06278641
153	0x3e5821c9	0.21106638
154	0x3e1bce42	0.152154
155	0x3cae45cf	0.021273522
156	0xbddf9b79	-0.10918326
157	0x3e0c2143	0.13684563
158	0x3e0b8609	0.13625349
159	0x3d7b8f4d	0.06141596
160	0xbd4a88a9	-0.049446736
161	0x3e4cd4ff	0.20003127
162	0x3df37d84	0.118891746
163	0xbde526fe	-0.11189078
164	0xbe3c5071	-0.18390061
165	0x3d981222	0.074253336
166	0x3cc42dde	0.023947652
167	0xbe37d5e0	-0.1795268
168	0xbd88e699	-0.06684608
169	0x3c916d1c	0.017752223
170	0xbd199178	-0.037492245
171	0xbc6f2038	-0.014595084
172	0xbd94a7aa	-0.07258542
173	0x3da62e24	0.081142694
174	0x3e67fb5b	0.22654478
175	0xbd45fdc7	-0.048337724
176	0x3d38cf9e	0.045119874
177	0x3e391bd2	0.18077019
178	0x3e3cc436	0.18434224
179	0xbdf3ec33	-0.11910286
180	0x3d50b83d	0.050956953
181	0xbe068ff7	-0.13140856
182	0xbe2e8e8e	-0.17046568
183	0xbc5cef2e	-0.013484759
184	0x3e785cc5	0.24254139
185	0xbe21c0c9	-0.15796198
186	0x3e40bc23	0.18821768
187	0xbd7586c8	-0.05994299
188	0x3e341dc3	0.17589478
189	0xbc811d8e	-0.015761163
190	0x3da3b9bf	0.07994413
191	0x3ca0d43d	0.019632453
192	0x3bde4e8a	0.006784265
193	0xbd40e302	-0.04709149
194	0xbd41d450	-0.047321618
195	0xbde0eeef	-0.10983073
196	0x3db2f736	0.08738558
197	0xbd3e6dc3	-0.046491396
198	0xbcb0564d	-0.021525526
199	0x3d1e43ad	0.03863876
200	0x3d005e64	0.031340018
201	0xbdc8bd43	-0.09801724
202	0xbd9faf39	-0.07797093
203	0xbe0e9cb4	-0.13926965
204	0xbe535649	-0.20638384
205	0xbe5910d9	-0.21197833
206	0xbca621ad	-0.02027973
207	0xbd0c6413	-0.034275126
208	0x3dbe0714	0.09278694
209	0xbe3a3ac7	-0.18186484
210	0x3daa1c52	0.08306183
211	0xbd8b0616	-0.0678827
212	0xbcdf28c6	-0.027241122
213	0x3cb501c5	0.02209557
214	0xbbb4537d	-0.0055031166
215	0xbdc1b645	-0.09458593
216	0xbe890b12	-0.26766258
217	0x3d9f24a3	0.0777066
218	0x3d951b6e	0.072806224
219	0x3d60db64	0.054896727
220	0xbdca210c	-0.098695844
221	0x3d70c2e2	0.058779605
222	0x3c79733f	0.015225231
223	0xbcbee9d0	-0.02330485
224	0xbdb5f16e	-0.0888394
225	0x3ccce300	0.025010586
226	0xbd170aa9	-0.0368754
227	0x3e720fb1	0.23638798
228	0x3de9d7e8	0.11418134
229	0x3deec000	0.11657715
230	0xbd81f784	-0.06346038
231	0xbe9258d6	-0.285834
232	0x3b6f25c4	0.0036491016
233	0x3e009267	0.12555848
234	0xbd6a6330	-0.0572235
235	0xbc9e7b39	-0.019345867
236	0x3c37938c	0.0112046115
237	0x3e0f29df	0.13980816
238	0xbe126888	-0.14297688
239	0xbc7ffa9f	-0.015623718
240	0x3d6d5061	0.057937983
241	0x3df8fb0e	0.1215726
242	0x3e2852a9	0.16437782
243	0x3e17670b	0.14785402
244	0xbe53625b	-0.20642988
245	0xbe24a048	-0.16076767
246	0xbda9d472	-0.08292474
247	0xbd0783c5	-0.03308465
248	0xbd2a6a3b	-0.041605216
249	0xbda1d61a	-0.07902165
250	0x3e23e6ab	0.16005962
251	0xbe1af702	-0.15133289
252	0xbd56c475	-0.05243345
253	0xbe0d0580	-0.1377163
254	0xbe005f56	-0.12536368
255	0x3c86518e	0.01639631

linear1.bias f4 [128]
0	0xbdcfbe89	-0.101437636
1	0x3e27e3b6	0.16395459
2	0x3e6605b3	0.22463112
3	0x3e7d5b39	0.2474183
4	0x3e527297	0.20551525
5	0x3dd12232	0.102116
6	0x3e1066c3	0.141017
7	0xbd81a93a	-0.063311055
8	0xbcbdca95	-0.023167888
9	0xbdf9bc8a	-0.12194164
10	0x3d36cac5	0.04462697
11	0x3da066f9	0.078321405
12	0xbd4306f3	-0.04761405
13	0x3e2d3f4a	0.16918674
14	0xbdd9fbd3	-0.10643735
15	0x3e4595d7	0.1929544
16	0x3db8c657	0.09022205
17	0x3dcf19f0	0.10112369
18	0x3e554d76	0.2083033
19	0xbd4c2e43	-0.049848806
20	0xbd051034	-0.032486156
21	0x3e7be15f	0.24597691
22	0x3e8f29b3	0.279615
23	0xbe166f84	-0.14690977
24	0x3e3e65c9	0.18593515
25	0x3e12f390	0.14350724
26	0x3e2e8ee8	0.17046702
27	0xbb2387a9	-0.0024952686
28	0x3c515340	0.012776196
29	0x3e13976f	0.14413236
30	0xbdfc8603	-0.12330248
31	0x3d8c5a34	0.068531424
32	0xbce3dc27	-0.027814938
33	0xbdcec65a	-0.10096426
34	0x3e2f537a	0.17121688
35	0x3c0133e1	0.007885904
36	0xbe3af8b0	-0.18258929
37	0x3e057afe	0.13035199
38	0xbe5bccdd	-0.21464868
39	0x3e258806	0.1616517
40	0x3cb3e43f	0.021959422
41	0x3e3f00e6	0.18652686
42	0x3d2ac2e9	0.041689787
43	0xbe071c4f	-0.13194393
44	0x3d93f3fe	0.07224272
45	0x3d244598	0.040105432
46	0x3cc55672	0.024089072
47	0x3e548e93	0.20757513
48	0xbe49d2ff	-0.19709395
49	0x3e10c2bc	0.14136785
50	0x3db6cf72	0.08926286
51	0xbd985608	-0.07438284
52	0x3d967e80	0.07348347
53	0x3b93f924	0.004515784
54	0xbe2f028e	-0.17090818
55	0xbe5e5cce	-0.2171509
56	0xbe73c844	-0.23806864
57	0x3d0a00b0	0.033692062
58	0x3d2754b1	0.040852252
59	0x3d796572	0.06088776
60	0x3e044a2f	0.12918924
61	0x3db78bd1	0.08962215
62	0x3e189dcb	0.14903943
63	0x3b9cc226	0.0047838865
64	0x3e2daa24	0.16959435
65	0x3d37c29a	0.04486332
66	0x3ddd7259	0.10812826
67	0x3d2e1678	0.042501897
68	0x3d984f9b	0.074370585
69	0x3e4cab5e	0.19987246
70	0xbe1a633d	-0.15076919
71	0xbd7bbeaf	-0.061461147
72	0xbe19534d	-0.14973183
73	0xbe3c1494	-0.18367225
74	0xbe1dadae	-0.15398285
75	0xbe456e41	-0.1928034
76	0x3d31833f	0.043338057
77	0x3c40648f	0.011742725
78	0x3e490148	0.19629395
79	0xbd6d3c23	-0.05791868
80	0xbce4de25	-0.027937958
81	0xbe4a75c3	-0.19771485
82	0x3e505588	0.20345128
83	0xbe33e6e4	-0.17568547
84	0x3dd54d4a	0.10415132
85	0x3cb3cf87	0.021949543
86	0xbe4ee4dd	-0.20204492
87	0xbe69ced5	-0.22832806
88	0x3e80ffca	0.25195152
89	0x3e7f2f90	0.24920487
90	0x3c3f576d	0.011678559
91	0xbd02d044	-0.0319369
92	0xbd588079	-0.052856896
93	0x3e0f0567	0.13966905
94	0x3da98f03	0.082792304
95	0x3ddda0f0	0.10821712
96	0x3cf6a65b	0.030108621
97	0x3ca45d5a	0.020064045
98	0xbd9d9b1d	-0.07695601
99	0x3e3ffeec	0.18749589
100	0x3dc53a38	0.09630245
101	0xbd2474a6	-0.040150307
102	0x3e099fa7	0.13439809
103	0x3e901ade	0.28145498
104	0xbbbd77c3	-0.005782099
105	0x3e4867ae	0.195708
106	0x3dd75c43	0.105156444
107	0xbd6df1ab	-0.0580918
108	0x3cc9e557	0.02464549
109	0x3e6132ec	0.21992081
110	0xbd4931cd	-0.04911976
111	0x3d8e9f29	0.06963951
112	0x3dd2d0ba	0.10293718
113	0x3d0f9aca	0.035059728
114	0x3ddc9fbd	0.10772655
115	0x3e483653	0.19551973
116	0x3e6333d4	0.2218774
117	0x3cadd7bf	0.02122104
118	0x3e603b3b	0.21897595
119	0xbe09cd79	-0.13457288
120	0x3e7a640d	0.24452229
121	0xbe472180	-0.19446373
122	0xbe20375a	-0.15646115
123	0xbe238f4d	-0.15972634
124	0x3ce3fe44	0.027831204
125	0x3e8bff77	0.27343342
126	0x3e4b2c53	0.19841127
127	0xbd5ffcc5	-0.05468442

linear2.weight f4 [128, 128]
0	0x3d7d8e42	0.061903246
1	0xbd624a9c	-0.055246934
2	0xbd94199b	-0.07231446
3	0xbde72492	-0.11286272
4	0x3b994e7e	0.0046785465
5	0xbe06a881	-0.13150217
6	0xbd648fd7	-0.05580124
7	0x3c9f1ef0	0.019423932
8	0x3d0f0153	0.034913372
9	0x3cd1581c	0.02555471
10	0xbd27dd16	-0.04098233
11	0x3d917de4	0.0710409
12	0xbd428d07	-0.047497775
13	0x3d7dfbf7	0.06200787
14	0x3d36f1ff	0.04466438
15	0xbccabd87	-0.024748577
16	0x3d20b536	0.039235316
17	0x3d930ac8	0.07179791
18	0xbbc6578b	-0.0060529164
19	0x3c8aa7a1	0.016925635
20	0xbdd7b7bd	-0.10533092
21	0x3d8e591f	0.06950592
22	0xbd158172	-0.0365004
23	0xbcadfa01	-0.021237375
24	0xbda443a0	-0.08020711
25	0x3d9d10ea	0.07669242
26	0x3c642db0	0.013926908
27	0xbd5938fc	-0.05303286
28	0xbd59176b	-0.05300085
29	0xbba30136	-0.0049745096
30	0x3d66726e	0.056261472
31	0xbdc3504f	-0.09536802
32	0xbdc94bc1	-0.09828902
33	0xbc0d84ba	-0.0086376015
34	0xbddb7b66	-0.10716896
35	0xbc41e78c	-0.01183499
36	0x3d5e7056	0.05430635
37	0xbc429298	-0.011875771
38	0x3c964ede	0.018348154
39	0x3d9557fb	0.072921716
40	0x3c8e8426	0.017396998
41	0x3d6eb0ff	0.058274265
42	0x3d387d21	0.045041207
43	0xbd5614f0	-0.05226606
44	0x3d1904c0	0.037358046
45	0x3c754822	0.014970811
46	0x3be20efc	0.006898759
47	0xbd41040b	-0.047122996
48	0x3d6fd312	0.0585509
49	0x3d399855	0.04531129
50	0x3cd49f4c	0.025954865
51	0x3da1fc31	0.0790943
52	0xbd8a977f	-0.06767177
53	0xbdbbafb9	-0.09164376
54	0x3d899d7f	0.06719493
55	0xbd3fcdfa	-0.046827294
56	0x3d8ea71b	0.069654666
57	0xbd4b6feb	-0.04966728
58	0x3ce228b7	0.027607305
59	0xbd124d66	-0.035718344
60	0xbd83c571	-0.06434143
61	0xbdcdb5e6	-0.1004446
62	0x3dc2c27a	0.0950975
63	0xbb54333f	-0.0032379178
64	0xbd89aa15	-0.06721894
65	0xbba32435	-0.0049786814
66	0x3dab1733	0.08354034
67	0x3dbe59a6	0.09294443
68	0x3db6dcb1	0.08928812
69	0x3cc72172	0.02430794
70	0x3d289a07	0.041162517
71	0x3d97f549	0.07419831
72	0xbd196a29	-0.037454758
73	0xbd9b8bca	-0.07595022
74	0x3da347ba	0.07972665
75	0x3dcfaa16	0.10139863
76	0x3d44cd8f	0.0480476
77	0x3d468d13	0.048474383
78	0xbc0fc777	-0.0087755835
79	0xbd83e4d5	-0.064401306
80	0xbdb25963	-0.087084554
81	0x3d8b8a4a	0.06813486
82	0xbd3aaf60	-0.045577407
83	0xbdbb76fe	-0.09153555
84	0xbd3f2766	-0.046668433
85	0x3d189ca1	0.037258748
86	0xbd0bbbe7	-0.034114745
87	0xbcf0b18d	-0.029381538
88	0x3d19b37d	0.03752469
89	0xbafd2609	-0.0019313704
90	0x3d39fd63	0.045407664
91	0x3c729b44	0.014807526
92	0xbda9b9fd	-0.082874276
93	0x3d205702	0.039145477
94	0xbd7620b9	-0.0600898
95	0x3b6492da	0.003487757
96	0x3c366193	0.011131662
97	0x3d6d8c6b	0.05799524
98	0x3c45b561	0.01206717
99	0xbdbbfb90	-0.09178841
100	0x3c1193cb	0.008885334
101	0xbd47c8c8	-0.048775464
102	0xbcd7b7c8	-0.02633275
103	0x3d814619	0.06312198
104	0x3dd58ae4	0.10426882
105	0x3c6c11f7	0.01440858
106	0xbd1fbad1	-0.03899652
107	0xbd06526f	-0.03279346
108	0xbd8f73c7	-0.07004505
109	0xbd167f23	-0.03674234
110	0x3ce632b5	0.02810035
111	0xbc12b3fe	-0.008954046
112	0xbd052b9e	-0.0325123
113	0x3d830104	0.06396678
114	0xbca98f2f	-0.020698158
115	0xbcb7d318	-0.022439525
116	0x3b41f271	0.002959397
117	0x3d502b3c	0.05082248
118	0x3d75a2b8	0.059969634
119	0xbe28b073	-0.1647356
120	0x3c8fd95f	0.017559705
121	0xbd21da83	-0.03951503
122	0x3ce6a783	0.028156048
123	0xbd3e8862	-0.046516784
124	0xbd8d000e	-0.06884776
125	0xbaa7999e	-0.001278687
126	0xbc7a522b	-0.015278379
127	0x3d07ba69	0.03313676
128	0xbca0c462	-0.019624893
129	0xbd50f24a	-0.051012315
130	0x3deb440b	0.114875875
131	0xbd534316	-0.05157765
132	0x3d2292ce	0.039690785
133	0x3dbc61c0	0.09198332
134	0x3d5595bc	0.05214475
135	0xbd424f52	-0.047438927
136	0x3dda62fd	0.10663412
137	0x3d8b0479	0.067879625
138	0xbd4d5e66	-0.050138853
139	0x3d9c847a	0.076424554
140	0x3ce467fe	0.027881619
141	0xbb22a5ed	-0.0024818138
142	0x3cd3d5c1	0.025858762
143	0x3dde8fd4	0.10867277
144	0x3d8608cd	0.06544647
145	0x3dd35898	0.10319632
146	0xbc47e84f	-0.012201383
147	0xbda52af9	-0.08064837
148	0xbce9e065	-0.028549382
149	0x3da7f125	0.082002915
150	0x3c896ee9	0.016776519
151	0xbc48f8cf	-0.012266352
152	0x3d1ebafb	0.038752537
153	0x3d94cae4	0.07265261
154	0x3d985181	0.07437421
155	0x3d99492c	0.074846596
156	0xbdf271cd	-0.11838112
157	0x3d8424fd	0.064523675
158	0xbd94ea8c	-0.07271299
159	0x3dcdf8ad	0.10057197
160	0x3d7710e4	0.060318843
161	0xbd8279f3	-0.06370916
162	0x3d57cc5e	0.052685134
163	0xbd67faf9	-0.05663583
164	0x3d4b4cae	0.049633674
165	0x3cdb883c	0.02679836
166	0xbcf0947a	-0.029367674
167	0x3dbccb89	0.09218509
168	0xbb931745	-0.004488858
169	0x3d05d784	0.032676235
170	0x3dba083b	0.09083601
171	0xbe09b486	-0.1344777
172	0xbdd8b6df	-0.10581755
173	0xbd441d20	-0.04787934
174	0x3d9d9f0a	0.0769635
175	0x3d52a892	0.051430292
176	0xbdb8c5d0	-0.09022105
177	0x3c9a5022	0.018837038
178	0xbb2394ee	-0.0024960595
179	0x3d0beeef	0.03416341
180	0xbc63d2be	-0.013905225
181	0xbc241891	-0.010015623
182	0x3c320056	0.010864338
183	0xbd19ed11	-0.0375796
184	0xbd37d4b3	-0.04488058
185	0xbcad0fb6	-0.021125656
186	0x3c2ea0cd	0.010658455
187	0xbce93ed3	-0.02847234
188	0x3bff2463	0.00778632
189	0x3d9a7e6c	0.07543644
190	0xbd8fa826	-0.07014494
191	0xbc815eac	-0.015792213
192	0xbd8162e3	-0.06317689
193	0x3df8fb6d	0.12157331
194	0x3d736bf9	0.059429143
195	0xbcd2be13	-0.0257254
196	0xbd7fd202	-0.06245614
197	0x3dbcc944	0.09218076
198	0x3d26832c	0.04065244
199	0xbd9e16ce	-0.077191934
200	0x3d9502d6	0.072759315
201	0xbc2d79e4	-0.010588143
202	0xbd83e497	-0.064400844
203	0xbdaf7307	-0.085668616
204	0x3d6e4b23	0.058177125
205	0x3d995142	0.07486202
206	0xbd92a0f9	-0.07159609
207	0xbce36722	-0.027759138
208	0x3d5efbda	0.054439403
209	0xbd8290d0	-0.06375277
210	0x3d874c3b	0.06606337
211	0xbc73c155	-0.014877637
212	0x3d0eb690	0.034842074
213	0xbcbc0af3	-0.02295444
214	0x3d4dcad2	0.050242253
215	0x3ca42669	0.020037847
216	0xbd86e6a5	-0.06586961
217	0x3d00b830	0.031425655
218	0x3cd11ff6	0.025527935
219	0x3e084daa	0.13310876
220	0xbd16c83a	-0.036812045
221	0x3d72fba2	0.059322007
222	0x3cfc423e	0.030793305
223	0xbda2d414	-0.07950607
224	0x3dddf00c	0.10836801
225	0xbd38b297	-0.04509219
226	0xbd08ce62	-0.033399947
227	0x3dbe7520	0.092996836
228	0xbc7c1b53	-0.015387374
229	0xbc6a0d8f	-0.014285459
230	0x3dd29dd9	0.10284013
231	0x3da43274	0.08017436
232	0x3da7335c	0.08164093
233	0x3db4f597	0.08835905
234	0x3b189984	0.0023284862
235	0x3d21cafc	0.03950022
236	0xbddb4ec4	-0.10708383
237	0x3daa8154	0.08325449
238	0x3c4eb190	0.012615576
239	0x3d6a284f	0.057167348
240	0xbd18efa1	-0.037337903
241	0x3d9ed09e	0.07754634
242	0x3e0092cf	0.12556003
243	0x3c957058	0.018242046
244	0x3d632919	0.055459116
245	0xbdb75f3b	-0.08953711
246	0x3ca086d2	0.019595537
247	0x3cb9efd4	0.022697367
248	0x3d88f03a	0.066864446
249	0xbdb3cb8a	-0.08779056
250	0xbdc3fb4d	-0.09569416
251	0x3b801316	0.003908525
252	0x3dae8946	0.085222766
253	0x3d769914	0.06020458
254	0x3d454481	0.048161034
255	0xbdedc57f	-0.11609935

linear2.bias f4 [128]
0	0xbe19c375	-0.15015967
1	0x3e0a35eb	0.1349713
2	0x3c1c7436	0.009549191
3	0x3e63c336	0.22242436
4	0x3e4b11af	0.19830965
5	0x3e48836b	0.19581382
6	0xbc05cb0d	-0.008166087
7	0x3e4086e6	0.1880146
8	0x3dd0726f	0.101780765
9	0x3d69bcca	0.05706481
10	0xbd22cd81	-0.039746765
11	0x3e647d88	0.22313511
12	0xbd5c229a	-0.053743936
13	0xbd90810a	-0.07055862
14	0xbd9076fa	-0.07053943
15	0x3d78b13a	0.06071589
16	0xbdf96045	-0.12176565
17	0xbe0d1744	-0.13778406
18	0x3d0b7e43	0.03405596
19	0xbc1b9ed4	-0.009498317
20	0x3e04fdfc	0.12987512
21	0xbe110fc0	-0.14166164
22	0xbde39493	-0.11112323
23	0x3d552dbb	0.052045565
24	0x3cae54c9	0.021280663
25	0x3d9e7012	0.077362195
26	0x3c05a043	0.008155885
27	0x3cc55b24	0.02409131
28	0x3db910ef	0.09036433
29	0x3dd4d3a8	0.10391933
30	0x3da7b030	0.08187902
31	0x3d312efc	0.0432577
32	0xbde096b4	-0.10966244
33	0xbdfd67b2	-0.12373294
34	0x3e0dadb8	0.138358
35	0xbda85d98	-0.082209766
36	0x3d97c606	0.07410817
37	0x3e1c2c38	0.15251243
38	0x3d2d8581	0.042363647
39	0xbd4606e7	-0.048346426
40	0xbdf66759	-0.12031431
41	0xbd820877	-0.06349271
42	0x3d647a0f	0.055780467
43	0xbddf6344	-0.10907605
44	0xbdf255a7	-0.11832743
45	0x3dc9be13	0.09850707
46	0xbe47076d	-0.19436426
47	0x3cdc5ebf	0.026900647
48	0xbd49e633	-0.0492918
49	0x3e413b3e	0.18870255
50	0x3e1480c2	0.14502242
51	0xbda8e61e	-0.08247016
52	0xbd06eaf8	-0.032938927
53	0x3e2c7207	0.16840373
54	0x3d6dd479	0.058063958
55	0x3e3febd3	0.18742304
56	0x3ddfaf61	0.10922123
57	0x3e02f145	0.1278735
58	0x3df0eaeb	0.11763557
59	0x3e356cc0	0.17717266
60	0xbc4e2ac0	-0.012583435
61	0xbdb3c541	-0.087778576
62	0xbcbf3b32	-0.023343656
63	0xbd444972	-0.047921605
64	0xbdedda56	-0.1161391
65	0x3dc80afb	0.09767719
66	0x3e2b3fc5	0.16723545
67	0xbdc94bd7	-0.098289184
68	0xbd904b52	-0.07045616
69	0x3e47738a	0.19477668
70	0x3c60ebc7	0.013728089
71	0x3e18a1f4	0.1490553
72	0xbd331e9c	-0.043730363
73	0xbdb3608b	-0.087586485
74	0xbdac0a1d	-0.084003665
75	0x3cf655eb	0.030070266
76	0x3e542e9b	0.20720904
77	0x3deae66f	0.11469733
78	0x3cf6968c	0.030101083
79	0xbe1068a0	-0.14102411
80	0x3d09424e	0.0335105
81	0xbd2747ab	-0.040839832
82	0x3d8c254b	0.068430506
83	0x3e438225	0.19092615
84	0xbd82a972	-0.063799754
85	0x3e296a14	0.16544372
86	0xbcaf047b	-0.021364441
87	0x3e4973a0	0.19673014
88	0xbcc121ed	-0.023575747
89	0xbc91d91c	-0.017803721
90	0xbde44863	-0.11146619
91	0x3e559fc8	0.20861733
92	0xbdec8500	-0.11548805
93	0x3c30baee	0.010786755
94	0x3e31d11e	0.17364928
95	0xbcb5b5f1	-0.022181483
96	0x3e1a499f	0.15067147
97	0x3d9ccf69	0.07656748
98	0x3e3380a5	0.17529543
99	0xbd3bf036	-0.04588338
100	0x3e063a9a	0.13108292
101	0x3e458ebd	0.19292732
102	0xbd065b99	-0.032802198
103	0xbda6aa41	-0.08137942
104	0x3e1c4304	0.1525994
105	0x3d815f4a	0.06317003
106	0x3d1931dc	0.037401065
107	0x3e348139	0.1762742
108	0x3da3fc9f	0.08007168
109	0xbd1bf088	-0.038071185
110	0x3d96e577	0.07367986
111	0xbe02cf06	-0.12774286
112	0x3cd4b048	0.025962964
113	0x3cf5ca6e	0.030003753
114	0xbe0209f0	-0.12699103
115	0x3cc5e734	0.024158098
116	0x3d980e85	0.074246444
117	0x3e067ef3	0.13134365
118	0xbb90192d	-0.0043975324
119	0xbae05cf7	-0.001711755
120	0xbe03190f	-0.12802528
121	0xbdb40102	-0.08789255
122	0x3dacfac9	0.08446271
123	0x3d74168d	0.05959182
124	0xbda09e9c	-0.07842752
125	0x3d9b45e2	0.075816885
126	0x3e41205f	0.18860005
127	0x3d091106	0.0334635

linear3.weight f4 [64, 128]
0	0x3bd623fc	0.0065350514
1	0x3d399857	0.0453113
2	0xbd71091e	-0.058846585
3	0x3d35a963	0.044350993
4	0xbddd0152	-0.107912675
5	0xbe107b5c	-0.14109558
6	0xbc8b8c51	-0.017034682
7	0xbdcf532d	-0.101232864
8	0xbdbf3398	-0.093360126
9	0xbc213d0e	-0.009841217
10	0x3d89b65e	0.06724237
11	0x3daefb05	0.08543972
12	0xbd6f43eb	-0.05841438
13	0xbd7b1329	-0.06129757
14	0x3d276514	0.04086788
15	0xbd8ee346	-0.06976943
16	0x3cef1ddd	0.029189045
17	0x3df85d92	0.12127222
18	0xbd891c89	-0.06694896
19	0x3e485397	0.19563137
20	0xbc583aa7	-0.013197578
21	0x3dde803b	0.10864302
22	0xbd91ba3c	-0.071155995
23	0x39d21e59	0.00040076932
24	0xbe11c10c	-0.14233798
25	0xbdaadeb0	-0.083432555
26	0x3e0a77f6	0.13522324
27	0xbd91b67c	-0.07114884
28	0x3cf9acdf	0.03047794
29	0x3cbf09c2	0.023320083
30	0x3d42e532	0.04758186
31	0x3c309a3d	0.010778961
32	0xbd792f67	-0.060836222
33	0xba147ace	-0.0005664051
34	0xbd216a17	-0.039407816
35	0x3d827cf8	0.06371492
36	0xbb4ecec2	-0.0031556343
37	0x3d7a4e89	0.061110053
38	0x3d9cfa0f	0.076648824
39	0x3dd9a699	0.10627479
40	0x3c9b9d14	0.0189958
41	0x3d52bf2e	0.051451854
42	0xbdb6091c	-0.08888456
43	0x3d24e422	0.040256627
44	0xbd06b73f	-0.0328896
45	0x3c58ba89	0.013228067
46	0xbdaea532	-0.08527602
47	0x3e1347da	0.14382878
48	0x3d6fc134	0.058533862
49	0x3d43c9a6	0.04779973
50	0xbdea5e3a	-0.114437535
51	0x3d2fc2a4	0.042910233
52	0xbd138d0e	-0.036023192
53	0xbd426451	-0.04745895
54	0xbd4331ea	-0.047655024
55	0xbc9ef09d	-0.019401843
56	0xbbb6bb0f	-0.0055764983
57	0xbd616591	-0.055028502
58	0xbdb0406e	-0.08606039
59	0xbd4895e3	-0.048971068
60	0xbd919eda	-0.07110377
61	0x3d0b7ee2	0.03405655
62	0x3dffd525	0.12491826
63	0x3ce64a23	0.028111523
64	0x3d8681f9	0.06567759
65	0xbe280dd0	-0.16411519
66	0x3d7988ae	0.060921364
67	0x3c500e6b	0.01269875
68	0x3d3a8ae9	0.04554263
69	0x3d667597	0.056264486
70	0x3c2b1d7a	0.0104440395
71	0xbb2064e0	-0.0024474189
72	0x3de629c8	0.11238438
73	0xbc977d6e	-0.018492427
74	0xbb5cba28	-0.0033680294
75	0xbaed1637	-0.0018088286
76	0xbc87069e	-0.016482648
77	0xbdc5d506	-0.096597716
78	0xbcbfa557	-0.02339427
79	0x3db762db	0.08954402
80	0xbcf32de3	-0.029684966
81	0x3d27c8cb	0.040962975
82	0x3c82056f	0.015871732
83	0x3be2da95	0.0069230297
84	0x3de54fcc	0.11196861
85	0x3c3715d7	0.011174641
86	0x3db644f5	0.08899871
87	0xbcfc6b5a	-0.030812908
88	0xbc3d14fd	-0.0115406485
89	0x3d11d9f9	0.035608266
90	0x3de842ad	0.113408424
91	0xbd8cd140	-0.06875849
92	0x3d4460a0	0.04794371
93	0x3de94078	0.113892496
94	0x3d21099d	0.03931581
95	0x3cc4b7d2	0.024013434
96	0x3b69de1a	0.0035685361
97	0xbe0098c3	-0.12558274
98	0xbdf7bfdf	-0.120971434
99	0x3defccee	0.11709009
100	0xbd88f5d0	-0.0668751
101	0x3d0530d0	0.032517254
102	0xbd47c707	-0.04877379
103	0x3d33a7a7	0.043861058
104	0xbd0bd4f3	-0.03413863
105	0xbdbbffef	-0.09179675
106	0x3d54d489	0.0519605
107	0xbe1afa29	-0.15134491
108	0x3c385582	0.011250855
109	0x3d86d2b4	0.06583157
110	0xbda9e5dd	-0.08295796
111	0x3c81c761	0.015842142
112	0xbdefc2ab	-0.11707052
113	0xbd1f3468	-0.038868338
114	0x3d3c55f1	0.045980398
115	0x3cd21623	0.025645321
116	0xbe7702f0	-0.24122214
117	0x3dbb7733	0.09153595
118	0x3e1a2b61	0.1505561
119	0xbcb5a74a	-0.022174496
120	0x3e55e970	0.2088983
121	0x3de57d2e	0.11205517
122	0xbd675cc9	-0.05648497
123	0x3d933792	0.071883336
124	0x3c937f91	0.018005164
125	0xbdd5e4f4	-0.1044406
126	0xbbd6ffa9	-0.006561239
127	0xbd903a55	-0.07042376
128	0xbd92e528	-0.07172614
129	0x3c195fd8	0.00936123
130	0x3de9c6cf	0.11414873
131	0x3d55b85f	0.052177783
132	0x3cdbc47e	0.026827093
133	0x3e1e0193	0.15430288
134	0xbd643be1	-0.055721167
135	0x3e04a6d0	0.12954259
136	0xbc916fe3	-0.017753547
137	0x3ce97869	0.028499799
138	0x3d2682f9	0.04065225
139	0x3daf9dd5	0.08575026
140	0xba0ac0c5	-0.0005293007
141	0x3d3e3ba9	0.046443615
142	0xbdb8caa4	-0.09023026
143	0xbc47676a	-0.012170652
144	0xbcc9dd9a	-0.0246418
145	0x3cacfaf6	0.021115761
146	0x3c8d0624	0.017214842
147	0xbe03e8a3	-0.12881713
148	0x3e250bed	0.1611783
149	0x3b8b74f5	0.0042558857
150	0xbe6d4b86	-0.23173341
151	0x3d79eee7	0.06101885
152	0xbb226b33	-0.0024783134
153	0xbc838908	-0.016056553
154	0xbc6296d2	-0.013829904
155	0x3deb406d	0.114868976
156	0x3c59e9b6	0.01330035
157	0x3da9e4ae	0.0829557
158	0x3b621e73	0.0034503012
159	0x3e061bda	0.13096562
160	0xbc4d8512	-0.0125439335
161	0xbd3d4ed2	-0.046217747
162	0x3d42dd6d	0.04757445
163	0xbe0c216f	-0.13684629
164	0x3de43091	0.11142076
165	0x3dff2e5a	0.12460013
166	0xbdaa8c6f	-0.08327567
167	0xbd8400b8	-0.064454496
168	0xbd72c218	-0.059267133
169	0xbdbce8c4	-0.09224084
170	0x3d8803f2	0.066413775
171	0xbcfc3f7b	-0.030791989
172	0xbe2dced5	-0.16973431
173	0x3db4605c	0.088074416
174	0xbdcad508	-0.09903914
175	0xbe138652	-0.14406708
176	0xbdc21fcf	-0.09478723
177	0xbd0358c8	-0.03206709
178	0x3e33bd53	0.1755269
179	0xbe1ef427	-0.15522824
180	0xbe26f763	-0.16305308
181	0x3abf7822	0.0014607946
182	0x3cdea039	0.02717601
183	0x3da5706b	0.08078083
184	0x3c844ca8	0.016149834
185	0x3dc1fc9b	0.09472009
186	0xbc2e66fd	-0.0106446715
187	0x3dcb9e7e	0.09942339
188	0x3e0a5401	0.13508607
189	0xbe24f30e	-0.16108343
190	0xbdadacd6	-0.084802315
191	0xbb777328	-0.0037757847
192	0xbe386238	-0.18006217
193	0x3db2010b	0.08691605
194	0x3d7927be	0.060828917
195	0xbe1f0e02	-0.15532687
196	0xbe01f5ff	-0.12691496
197	0x3dc06b4c	0.09395465
198	0xbe2ef34c	-0.17084998
199	0x3dd72354	0.10504785
200	0xbd9642ab	-0.07336935
201	0xbd297423	-0.041370522
202	0xbd3590c4	-0.044327512
203	0xbd0c2717	-0.034216966
204	0x3cec8b2a	0.028874952
205	0x3e07ad41	0.13249685
206	0x3dfc6422	0.12323786
207	0xbdc7444d	-0.09729824
208	0x3ce5e4b6	0.02806316
209	0xbd8df584	-0.06931594
210	0xbd504ae6	-0.05085268
211	0x3da36326	0.079778954
212	0xbdb62ab9	-0.088948674
213	0x3e08eabe	0.13370797
214	0xbdd75f77	-0.10516255
215	0x3cdacd3d	0.026709193
216	0xba215c15	-0.0006155384
217	0xbe07824a	-0.13233295
218	0xbe30f626	-0.17281398
219	0x3d6bb08b	0.05754141
220	0xbd58dbe4	-0.05294408
221	0xbdcbb9d4	-0.09947553
222	0x39aa247d	0.00032452113
223	0xbe164b8b	-0.14677255
224	0xbd43b0a6	-0.047775887
225	0x3d64dca4	0.05587448
226	0x3e002a87	0.12516223
227	0xbda3d9f5	-0.080005564
228	0x3def7c97	0.116936855
229	0x3d81e79c	0.06343004
230	0xbd8be873	-0.068314455
231	0x3cb3e348	0.021958962
232	0x3e0beb11	0.1366389
233	0x3c5bae86	0.013408309
234	0x3e04d691	0.12972476
235	0x3d047365	0.03233661
236	0xbbc12f16	-0.0058955057
237	0xbda2ae6b	-0.07943424
238	0x3c89efb6	0.016837936
239	0xbde55626	-0.11198072
240	0x3db07578	0.086161554
241	0x3d1969bb	0.037454348
242	0xbd4dd02a	-0.05024735
243	0xbd44f831	-0.048088256
244	0x3e1402b7	0.1445416
245	0x3ded251c	0.11579344
246	0xbcb48acb	-0.022038838
247	0xbce75cee	-0.028242555
248	0xbe8088c0	-0.25104332
249	0xbdba00cd	-0.09082184
250	0x3db3975f	0.08769106
251	0xbd5b3eed	-0.053526808
252	0x3b9cf063	0.0047893985
253	0x3dccc61a	0.099987224
254	0x3ca6a7d8	0.020343706
255	0x3db7387b	0.0894632

linear3.bias f4 [64]
0	0xbb161606	-0.002290131
1	0x3d9bf13e	0.07614373
2	0x3dc83c51	0.097771294
3	0x3de20376	0.11035816
4	0xbdb67178	-0.08908361
5	0x3da97b60	0.08275485
6	0xbdd55854	-0.10417238
7	0x3e5b514a	0.21417728
8	0xbdf2ac45	-0.11849264
9	0x3c693e42	0.014236035
10	0xbcb4d356	-0.02207343
11	0xbd2c422b	-0.04205529
12	0x3e4c6647	0.1996089
13	0x3d411a28	0.047144085
14	0xbe05e83b	-0.1307687
15	0xbd063e50	-0.03277427
16	0xbdec577d	-0.115401246
17	0xbddc051c	-0.10743162
18	0xbd96e9aa	-0.07368787
19	0xbdc7cd8f	-0.09756004
20	0x3dcdbb31	0.100454696
21	0x3ddd877c	0.10816857
22	0xbd12d3e8	-0.03584662
23	0x3e0a0950	0.13480115
24	0x3e0350e3	0.12823825
25	0xbe3204b6	-0.1738461
26	0xbd3fc304	-0.04681684
27	0xbdaf8d74	-0.08571902
28	0xbdc3ce4b	-0.09560832
29	0xbe129524	-0.14314705
30	0x3c7926da	0.015207017
31	0x3d84fdd3	0.06493726
32	0x3e314972	0.17313173
33	0xbe0b00b9	-0.13574494
34	0xbd724d16	-0.059155546
35	0xbd8a6dcb	-0.067592226
36	0x3d4af2cc	0.049547955
37	0xbdeec100	-0.116579056
38	0xbe11f0ff	-0.14252089
39	0x3d219b8c	0.03945498
40	0x3de045c4	0.10950807
41	0x3d2c8690	0.042120516
42	0x3dd0c75a	0.10194273
43	0xbd6fa0a2	-0.0585028
44	0xbd4dea6a	-0.050272383
45	0xbc165c43	-0.00917727
46	0xbe133f19	-0.14379539
47	0x3e0c6026	0.13708553
48	0x3dfb6f70	0.122771144
49	0xbd977600	-0.073955536
50	0x3dc40130	0.09570539
51	0x3d829ddb	0.06377765
52	0x3e16282a	0.14663759
53	0xbd35e114	-0.044404104
54	0x3d428a3c	0.04749511
55	0x3e5c30e4	0.21503025
56	0xbe358cd6	-0.17729506
57	0x3de690eb	0.1125811
58	0x3da55f37	0.080748014
59	0xbd3848ce	-0.044991307
60	0xbcbedf64	-0.02329988
61	0x3bb9aead	0.005666575
62	0xbc4ab657	-0.012372575
63	0x3bbf5b8d	0.005839771

output.weight f4 [1, 64]
0	0xbe515298	-0.20441663
1	0x3e4b3eb2	0.19848135
2	0x3def5d89	0.11687762
3	0x3df62260	0.12018275
4	0xbdbb56c2	-0.09147407
5	0x3e4dfe75	0.20116599
6	0xbdb5a0ea	-0.088685825
7	0x3dbe7f87	0.09301668
8	0xbe16eed6	-0.14739546
9	0xbddd9c05	-0.10820774
10	0xbdae7230	-0.08517873
11	0xbe1ae129	-0.15124954
12	0x3e160d5c	0.14653534
13	0x3da83c58	0.08214635
14	0xbdc63311	-0.09677709
15	0xbe0dffb2	-0.13867071
16	0xbe1ff336	-0.15620121
17	0xbdd96d1e	-0.106165156
18	0xbe246576	-0.1605433
19	0xbda88456	-0.08228366
20	0x3e49f74a	0.1972324
21	0x3e4a7d72	0.19774416
22	0xbe168ec2	-0.14702895
23	0x3e3b527c	0.18293184
24	0x3e2af5d2	0.16695336
25	0xbd1d9b8e	-0.038478427
26	0xbde10faf	-0.109893195
27	0xbe419d14	-0.18907577
28	0xbe6534e0	-0.22383451
29	0xbe16dbdd	-0.14732309
30	0xbe05e3d0	-0.13075185
31	0x3db25bb8	0.087089
32	0x3e2d27a3	0.16909651
33	0xbdf9635c	-0.121771544
34	0xbe502b02	-0.20328906
35	0xbdf7e78a	-0.121047094
36	0x3e384cad	0.17998
37	0xbd7743ea	-0.060367502
38	0xbdfc83b6	-0.12329809
39	0x3e214609	0.15749373
40	0x3d9f2787	0.07771211
41	0x3deed295	0.11661259
42	0x3e117088	0.14203084
43	0xbe45df0d	-0.19323368
44	0xbe0c2688	-0.13686574
45	0xbe2fdb5c	-0.17173523
46	0xbe0476c2	-0.12935928
47	0x3dab6ef6	0.083707735
48	0x3df54da3	0.11977699
49	0xbe24702b	-0.16058414
50	0x3e534ee8	0.20635569
51	0x3e2f4c95	0.17119057
52	0x3e24d4a6	0.16096744
53	0xbe32cfcd	-0.17462082
54	0x3e3a990f	0.1822245
55	0x3dbef9d5	0.093249954
56	0xbd8e552b	-0.06949838
57	0x3e47520d	0.19464894
58	0x3e405f06	0.18786249
59	0xbe365766	-0.17806777
60	0xbe36ee43	-0.17864327
61	0xbe112f34	-0.14178163
62	0xbe4959fa	-0.1966323
63	0xbe2684f8	-0.16261661

linear1.weight f4 [128, 34]
0	0xbdf5c627	-0.12000685
1	0xbc31cf66	-0.01085267
2	0xbdc759c9	-0.09733922
3	0x3b846247	0.004040036
4	0xbdd670b4	-0.10470715
5	0xbc868433	-0.01642046
6	0xbdfd5546	-0.1236978
7	0x3a79727d	0.0009515656
8	0xbde19ffd	-0.110168435
9	0xbe24a539	-0.16078652
10	0x3dcdf900	0.100572586
11	0xbd215c07	-0.039394405
12	0x3e1efbd8	0.15525758
13	0xbd5fe3fa	-0.054660775
14	0xbdc5c59d	-0.09656832
15	0xbe3ab7a4	-0.18234116
16	0xbd8764b7	-0.06611007
17	0xbd80dfc3	-0.06292679
18	0xba39f5ed	-0.0007093836
19	0x3df02940	0.11726618
20	0x3d894f57	0.06704586
21	0x3d6237f7	0.055229153
22	0xbe09b47e	-0.13447759
23	0x3d0e7cdd	0.034787048
24	0xbdd6341d	-0.104591586
25	0x3e034c33	0.12822036
26	0xbdab1a77	-0.08354657
27	0x3e58a13a	0.21155253
28	0x3e2690de	0.162662
29	0xbddc5b12	-0.10759558
30	0x3de5eb8c	0.112265676
31	0x3d3f16e0	0.046652675
32	0x3db28a8f	0.08717834
33	0x3d372451	0.04471237
34	0xbde9c7a8	-0.114150345
35	0x3bb0ae5a	0.005391878
36	0xbdb5ab0e	-0.08870517
37	0xbe274b60	-0.16337347
38	0xbe12c993	-0.14334707
39	0xbd6e2a57	-0.058145847
40	0xbe42a990	-0.19009995
41	0x3cf4a0c8	0.029861823
42	0xbd19107e	-0.037369244
43	0xbdf4f096	-0.119599506
44	0xbb9554ec	-0.0045572426
45	0x3da49237	0.08035701
46	0xbbd7cb39	-0.0065855053
47	0xbdcc3e55	-0.099728264
48	0xbd6e6a3e	-0.05820679
49	0xbd9f733c	-0.07785651
50	0xbd953a49	-0.07286508
51	0xbda93f82	-0.08264066
52	0xbdb94e67	-0.09048157
53	0xbd384dff	-0.044996258
54	0x3cf6f74a	0.030147213
55	0xbdb5da92	-0.088795796
56	0xbcc6e01d	-0.024276787
57	0xbcdd370b	-0.027003786
58	0xbd97fb98	-0.074210346
59	0xbc940a7c	-0.018071406
60	0xbdad09e0	-0.08449149
61	0xbdd98ce0	-0.10622573
62	0x3dcac680	0.09901142
63	0x3c9ff39e	0.019525345
64	0xbd544bca	-0.05183009
65	0xbe1a9fdc	-0.15100044
66	0xbe02f1c0	-0.12787533
67	0x3cba24d8	0.022722647
68	0x3d59b05c	0.053146705
69	0xbd8bf4bd	-0.068337895
70	0x3e53b464	0.20674282
71	0x3e44ac50	0.19206357
72	0x3d8b1b9d	0.06792376
73	0xbdbd86f1	-0.09254254
74	0xbd7caac4	-0.061686292
75	0xbdf5aec0	-0.119962215
76	0x3df6854d	0.12037144
77	0xbe2701f1	-0.16309334
78	0xbcbc2111	-0.022964986
79	0xbdc0ee41	-0.09420443
80	0xbe0b1dd9	-0.13585605
81	0xbc44b71f	-0.01200655
82	0xbd952e79	-0.072842546
83	0x3dfdae8b	0.12386807
84	0x3d11f202	0.035631187
85	0xbd73c36c	-0.05951254
86	0xbceaae57	-0.028647585
87	0xbced37ab	-0.028957209
88	0xbd7dc214	-0.061952665
89	0x3e3293ae	0.17439148
90	0x3b495ad1	0.0030724297
91	0x3d707327	0.058703568
92	0xbb00c53d	-0.0019648813
93	0x3d5fdd96	0.05465468
94	0x3d2816e6	0.041037463
95	0x3dffddb2	0.12493457
96	0xbdfcc4ee	-0.12342249
97	0x3e164f06	0.14678583
98	0x3d66928d	0.056292105
99	0xbd8dca50	-0.06923354
100	0xbdad764c	-0.08469829
101	0xbe424939	-0.18973245
102	0x3dcbcfd9	0.09951753
103	0x3dd8f0cb	0.105928026
104	0x3eb9e665	0.3630859
105	0xbd9485ef	-0.07252108
106	0x3e392122	0.18079045
107	0x3de11a25	0.10991315
108	0xbd9c3e64	-0.076290876
109	0xbe181004	-0.1484986
110	0x3db69148	0.08914429
111	0xbdec8147	-0.11548095
112	0xbe13ceea	-0.144344
113	0x3c550c8f	0.0130034825
114	0xbe896b26	-0.2683956
115	0xbe11dcf5	-0.14244445
116	0xbe61f83b	-0.22067349
117	0xbe1fe7cc	-0.15615767
118	0x3ce929a0	0.028462231
119	0x3dbf176a	0.09330638
120	0xbe05984b	-0.13046376
121	0xbe1397bf	-0.14413355
122	0x3caf6abb	0.021413198
123	0x3c76a1c9	0.015053221
124	0xbd745ad9	-0.05965695
125	0xbddfdf85	-0.10931305
126	0x3e4808b0	0.19534564
127	0x3d83012e	0.063967094
128	0xbd838041	-0.06420947
129	0xbce4a152	-0.027908955
130	0xbcd0caa6	-0.025487255
131	0x3a1f3461	0.0006073174
132	0xbe197ba6	-0.14988574
133	0x3d82fdfa	0.063960984
134	0x3e12afde	0.143249
135	0xbcc00aa0	-0.023442566
136	0x3df5539b	0.11978837
137	0xbdaf6dd4	-0.0856587
138	0x3e113a64	0.1418243
139	0xbd89c9d4	-0.06727949
140	0xbdd6cbfd	-0.104881264
141	0x3df08a92	0.1174518
142	0x3dbbeab1	0.09175623
143	0xbe3f2290	-0.18665528
144	0x3d0727c3	0.032996904
145	0xbddc2b57	-0.10750454
146	0xbd879c97	-0.06621664
147	0xbd013233	-0.031542014
148	0xbb0796fb	-0.0020689357
149	0x3e93bd3c	0.28855312
150	0x3e89202b	0.26782355
151	0x3aa6ff0f	0.0012740808
152	0xbd809629	-0.06278641
153	0x3e5821c9	0.21106638
154	0x3e1bce42	0.152154
155	0x3cae45cf	0.021273522
156	0xbddf9b79	-0.10918326
157	0x3e0c2143	0.13684563
158	0x3e0b8609	0.13625349
159	0x3d7b8f4d	0.06141596
160	0xbd4a88a9	-0.049446736
161	0x3e4cd4ff	0.20003127
162	0x3df37d84	0.118891746
163	0xbde526fe	-0.11189078
164	0xbe3c5071	-0.18390061
165	0x3d981222	0.074253336
166	0x3cc42dde	0.023947652
167	0xbe37d5e0	-0.1795268
168	0xbd88e699	-0.06684608
169	0x3c916d1c	0.017752223
170	0xbd199178	-0.037492245
171	0xbc6f2038	-0.014595084
172	0xbd94a7aa	-0.07258542
173	0x3da62e24	0.081142694
174	0x3e67fb5b	0.22654478
175	0xbd45fdc7	-0.048337724
176	0x3d38cf9e	0.045119874
177	0x3e391bd2	0.18077019
178	0x3e3cc436	0.18434224
179	0xbdf3ec33	-0.11910286
180	0x3d50b83d	0.050956953
181	0xbe068ff7	-0.13140856
182	0xbe2e8e8e	-0.17046568
183	0xbc5cef2e	-0.013484759
184	0x3e785cc5	0.24254139
185	0xbe21c0c9	-0.15796198
186	0x3e40bc23	0.18821768
187	0xbd7586c8	-0.05994299
188	0x3e341dc3	0.17589478
189	0xbc811d8e	-0.015761163
190	0x3da3b9bf	0.07994413
191	0x3ca0d43d	0.019632453
192	0x3bde4e8a	0.006784265
193	0xbd40e302	-0.04709149
194	0xbd41d450	-0.047321618
195	0xbde0eeef	-0.10983073
196	0x3db2f736	0.08738558
197	0xbd3e6dc3	-0.046491396
198	0xbcb0564d	-0.021525526
199	0x3d1e43ad	0.03863876
200	0x3d005e64	0.031340018
201	0xbdc8bd43	-0.09801724
202	0xbd9faf39	-0.07797093
203	0xbe0e9cb4	-0.13926965
204	0xbe535649	-0.20638384
205	0xbe5910d9	-0.21197833
206	0xbca621ad	-0.02027973
207	0xbd0c6413	-0.034275126
208	0x3dbe0714	0.09278694
209	0xbe3a3ac7	-0.18186484
210	0x3daa1c52	0.08306183
211	0xbd8b0616	-0.0678827
212	0xbcdf28c6	-0.027241122
213	0x3cb501c5	0.02209557
214	0xbbb4537d	-0.0055031166
215	0xbdc1b645	-0.09458593
216	0xbe890b12	-0.26766258
217	0x3d9f24a3	0.0777066
218	0x3d951b6e	0.072806224
219	0x3d60db64	0.054896727
220	0xbdca210c	-0.098695844
221	0x3d70c2e2	0.058779605
222	0x3c79733f	0.015225231
223	0xbcbee9d0	-0.02330485
224	0xbdb5f16e	-0.0888394
225	0x3ccce300	0.025010586
226	0xbd170aa9	-0.0368754
227	0x3e720fb1	0.23638798
228	0x3de9d7e8	0.11418134
229	0x3deec000	0.11657715
230	0xbd81f784	-0.06346038
231	0xbe9258d6	-0.285834
232	0x3b6f25c4	0.0036491016
233	0x3e009267	0.12555848
234	0xbd6a6330	-0.0572235
235	0xbc9e7b39	-0.019345867
236	0x3c37938c	0.0112046115
237	0x3e0f29df	0.13980816
238	0xbe126888	-0.14297688
239	0xbc7ffa9f	-0.015623718
240	0x3d6d5061	0.057937983
241	0x3df8fb0e	0.1215726
242	0x3e2852a9	0.16437782
243	0x3e17670b	0.14785402
244	0xbe53625b	-0.20642988
245	0xbe24a048	-0.16076767
246	0xbda9d472	-0.08292474
247	0xbd0783c5	-0.03308465
248	0xbd2a6a3b	-0.041605216
249	0xbda1d61a	-0.07902165
250	0x3e23e6ab	0.16005962
251	0xbe1af702	-0.15133289
252	0xbd56c475	-0.05243345
253	0xbe0d0580	-0.1377163
254	0xbe005f56	-0.12536368
255	0x3c86518e	0.01639631

linear1.bias f4 [128]
0	0xbdcfbe89	-0.101437636
1	0x3e27e3b6	0.16395459
2	0x3e6605b3	0.22463112
3	0x3e7d5b39	0.2474183
4	0x3e527297	0.20551525
5	0x3dd12232	0.102116
6	0x3e1066c3	0.141017
7	0xbd81a93a	-0.063311055
8	0xbcbdca95	-0.023167888
9	0xbdf9bc8a	-0.12194164
10	0x3d36cac5	0.04462697
11	0x3da066f9	0.078321405
12	0xbd4306f3	-0.04761405
13	0x3e2d3f4a	0.16918674
14	0xbdd9fbd3	-0.10643735
15	0x3e4595d7	0.1929544
16	0x3db8c657	0.09022205
17	0x3dcf19f0	0.10112369
18	0x3e554d76	0.2083033
19	0xbd4c2e43	-0.049848806
20	0xbd051034	-0.032486156
21	0x3e7be15f	0.24597691
22	0x3e8f29b3	0.279615
23	0xbe166f84	-0.14690977
24	0x3e3e65c9	0.18593515
25	0x3e12f390	0.14350724
26	0x3e2e8ee8	0.17046702
27	0xbb2387a9	-0.0024952686
28	0x3c515340	0.012776196
29	0x3e13976f	0.14413236
30	0xbdfc8603	-0.12330248
31	0x3d8c5a34	0.068531424
32	0xbce3dc27	-0.027814938
33	0xbdcec65a	-0.10096426
34	0x3e2f537a	0.17121688
35	0x3c0133e1	0.007885904
36	0xbe3af8b0	-0.18258929
37	0x3e057afe	0.13035199
38	0xbe5bccdd	-0.21464868
39	0x3e258806	0.1616517
40	0x3cb3e43f	0.021959422
41	0x3e3f00e6	0.18652686
42	0x3d2ac2e9	0.041689787
43	0xbe071c4f	-0.13194393
44	0x3d93f3fe	0.07224272
45	0x3d244598	0.040105432
46	0x3cc55672	0.024089072
47	0x3e548e93	0.20757513
48	0xbe49d2ff	-0.19709395
49	0x3e10c2bc	0.14136785
50	0x3db6cf72	0.08926286
51	0xbd985608	-0.07438284
52	0x3d967e80	0.07348347
53	0x3b93f924	0.004515784
54	0xbe2f028e	-0.17090818
55	0xbe5e5cce	-0.2171509
56	0xbe73c844	-0.23806864
57	0x3d0a00b0	0.033692062
58	0x3d2754b1	0.040852252
59	0x3d796572	0.06088776
60	0x3e044a2f	0.12918924
61	0x3db78bd1	0.08962215
62	0x3e189dcb	0.14903943
63	0x3b9cc226	0.0047838865
64	0x3e2daa24	0.16959435
65	0x3d37c29a	0.04486332
66	0x3ddd7259	0.10812826
67	0x3d2e1678	0.042501897
68	0x3d984f9b	0.074370585
69	0x3e4cab5e	0.19987246
70	0xbe1a633d	-0.15076919
71	0xbd7bbeaf	-0.061461147
72	0xbe19534d	-0.14973183
73	0xbe3c1494	-0.18367225
74	0xbe1dadae	-0.15398285
75	0xbe456e41	-0.1928034
76	0x3d31833f	0.043338057
77	0x3c40648f	0.011742725
78	0x3e490148	0.19629395
79	0xbd6d3c23	-0.05791868
80	0xbce4de25	-0.027937958
81	0xbe4a75c3	-0.19771485
82	0x3e505588	0.20345128
83	0xbe33e6e4	-0.17568547
84	0x3dd54d4a	0.10415132
85	0x3cb3cf87	0.021949543
86	0xbe4ee4dd	-0.20204492
87	0xbe69ced5	-0.22832806
88	0x3e80ffca	0.25195152
89	0x3e7f2f90	0.24920487
90	0x3c3f576d	0.011678559
91	0xbd02d044	-0.0319369
92	0xbd588079	-0.052856896
93	0x3e0f0567	0.13966905
94	0x3da98f03	0.082792304
95	0x3ddda0f0	0.10821712
96	0x3cf6a65b	0.030108621
97	0x3ca45d5a	0.020064045
98	0xbd9d9b1d	-0.07695601
99	0x3e3ffeec	0.18749589
100	0x3dc53a38	0.09630245
101	0xbd2474a6	-0.040150307
102	0x3e099fa7	0.13439809
103	0x3e901ade	0.28145498
104	0xbbbd77c3	-0.005782099
105	0x3e4867ae	0.195708
106	0x3dd75c43	0.105156444
107	0xbd6df1ab	-0.0580918
108	0x3cc9e557	0.02464549
109	0x3e6132ec	0.21992081
110	0xbd4931cd	-0.04911976
111	0x3d8e9f29	0.06963951
112	0x3dd2d0ba	0.10293718
113	0x3d0f9aca	0.035059728
114	0x3ddc9fbd	0.10772655
115	0x3e483653	0.19551973
116	0x3e6333d4	0.2218774
117	0x3cadd7bf	0.02122104
118	0x3e603b3b	0.21897595
119	0xbe09cd79	-0.13457288
120	0x3e7a640d	0.24452229
121	0xbe472180	-0.19446373
122	0xbe20375a	-0.15646115
123	0xbe238f4d	-0.15972634
124	0x3ce3fe44	0.027831204
125	0x3e8bff77	0.27343342
126	0x3e4b2c53	0.19841127
127	0xbd5ffcc5	-0.05468442

linear2.weight f4 [128, 128]
0	0x3d7d8e42	0.061903246
1	0xbd624a9c	-0.055246934
2	0xbd94199b	-0.07231446
3	0xbde72492	-0.11286272
4	0x3b994e7e	0.0046785465
5	0xbe06a881	-0.13150217
6	0xbd648fd7	-0.05580124
7	0x3c9f1ef0	0.019423932
8	0x3d0f0153	0.034913372
9	0x3cd1581c	0.02555471
10	0xbd27dd16	-0.04098233
11	0x3d917de4	0.0710409
12	0xbd428d07	-0.047497775
13	0x3d7dfbf7	0.06200787
14	0x3d36f1ff	0.04466438
15	0xbccabd87	-0.024748577
16	0x3d20b536	0.039235316
17	0x3d930ac8	0.07179791
18	0xbbc6578b	-0.0060529164
19	0x3c8aa7a1	0.016925635
20	0xbdd7b7bd	-0.10533092
21	0x3d8e591f	0.06950592
22	0xbd158172	-0.0365004
23	0xbcadfa01	-0.021237375
24	0xbda443a0	-0.08020711
25	0x3d9d10ea	0.07669242
26	0x3c642db0	0.013926908
27	0xbd5938fc	-0.05303286
28	0xbd59176b	-0.05300085
29	0xbba30136	-0.0049745096
30	0x3d66726e	0.056261472
31	0xbdc3504f	-0.09536802
32	0xbdc94bc1	-0.09828902
33	0xbc0d84ba	-0.0086376015
34	0xbddb7b66	-0.10716896
35	0xbc41e78c	-0.01183499
36	0x3d5e7056	0.05430635
37	0xbc429298	-0.011875771
38	0x3c964ede	0.018348154
39	0x3d9557fb	0.072921716
40	0x3c8e8426	0.017396998
41	0x3d6eb0ff	0.058274265
42	0x3d387d21	0.045041207
43	0xbd5614f0	-0.05226606
44	0x3d1904c0	0.037358046
45	0x3c754822	0.014970811
46	0x3be20efc	0.006898759
47	0xbd41040b	-0.047122996
48	0x3d6fd312	0.0585509
49	0x3d399855	0.04531129
50	0x3cd49f4c	0.025954865
51	0x3da1fc31	0.0790943
52	0xbd8a977f	-0.06767177
53	0xbdbbafb9	-0.09164376
54	0x3d899d7f	0.06719493
55	0xbd3fcdfa	-0.046827294
56	0x3d8ea71b	0.069654666
57	0xbd4b6feb	-0.04966728
58	0x3ce228b7	0.027607305
59	0xbd124d66	-0.035718344
60	0xbd83c571	-0.06434143
61	0xbdcdb5e6	-0.1004446
62	0x3dc2c27a	0.0950975
63	0xbb54333f	-0.0032379178
64	0xbd89aa15	-0.06721894
65	0xbba32435	-0.0049786814
66	0x3dab1733	0.08354034
67	0x3dbe59a6	0.09294443
68	0x3db6dcb1	0.08928812
69	0x3cc72172	0.02430794
70	0x3d289a07	0.041162517
71	0x3d97f549	0.07419831
72	0xbd196a29	-0.037454758
73	0xbd9b8bca	-0.07595022
74	0x3da347ba	0.07972665
75	0x3dcfaa16	0.10139863
76	0x3d44cd8f	0.0480476
77	0x3d468d13	0.048474383
78	0xbc0fc777	-0.0087755835
79	0xbd83e4d5	-0.064401306
80	0xbdb25963	-0.087084554
81	0x3d8b8a4a	0.06813486
82	0xbd3aaf60	-0.045577407
83	0xbdbb76fe	-0.09153555
84	0xbd3f2766	-0.046668433
85	0x3d189ca1	0.037258748
86	0xbd0bbbe7	-0.034114745
87	0xbcf0b18d	-0.029381538
88	0x3d19b37d	0.03752469
89	0xbafd2609	-0.0019313704
90	0x3d39fd63	0.045407664
91	0x3c729b44	0.014807526
92	0xbda9b9fd	-0.082874276
93	0x3d205702	0.039145477
94	0xbd7620b9	-0.0600898
95	0x3b6492da	0.003487757
96	0x3c366193	0.011131662
97	0x3d6d8c6b	0.05799524
98	0x3c45b561	0.01206717
99	0xbdbbfb90	-0.09178841
100	0x3c1193cb	0.008885334
101	0xbd47c8c8	-0.048775464
102	0xbcd7b7c8	-0.02633275
103	0x3d814619	0.06312198
104	0x3dd58ae4	0.10426882
105	0x3c6c11f7	0.01440858
106	0xbd1fbad1	-0.03899652
107	0xbd06526f	-0.03279346
108	0xbd8f73c7	-0.07004505
109	0xbd167f23	-0.03674234
110	0x3ce632b5	0.02810035
111	0xbc12b3fe	-0.008954046
112	0xbd052b9e	-0.0325123
113	0x3d830104	0.06396678
114	0xbca98f2f	-0.020698158
115	0xbcb7d318	-0.022439525
116	0x3b41f271	0.002959397
117	0x3d502b3c	0.05082248
118	0x3d75a2b8	0.059969634
119	0xbe28b073	-0.1647356
120	0x3c8fd95f	0.017559705
121	0xbd21da83	-0.03951503
122	0x3ce6a783	0.028156048
123	0xbd3e8862	-0.046516784
124	0xbd8d000e	-0.06884776
125	0xbaa7999e	-0.001278687
126	0xbc7a522b	-0.015278379
127	0x3d07ba69	0.03313676
128	0xbca0c462	-0.019624893
129	0xbd50f24a	-0.051012315
130	0x3deb440b	0.114875875
131	0xbd534316	-0.05157765
132	0x3d2292ce	0.039690785
133	0x3dbc61c0	0.09198332
134	0x3d5595bc	0.05214475
135	0xbd424f52	-0.047438927
136	0x3dda62fd	0.10663412
137	0x3d8b0479	0.067879625
138	0xbd4d5e66	-0.050138853
139	0x3d9c847a	0.076424554
140	0x3ce467fe	0.027881619
141	0xbb22a5ed	-0.0024818138
142	0x3cd3d5c1	0.025858762
143	0x3dde8fd4	0.10867277
144	0x3d8608cd	0.06544647
145	0x3dd35898	0.10319632
146	0xbc47e84f	-0.012201383
147	0xbda52af9	-0.08064837
148	0xbce9e065	-0.028549382
149	0x3da7f125	0.082002915
150	0x3c896ee9	0.016776519
151	0xbc48f8cf	-0.012266352
152	0x3d1ebafb	0.038752537
153	0x3d94cae4	0.07265261
154	0x3d985181	0.07437421
155	0x3d99492c	0.074846596
156	0xbdf271cd	-0.11838112
157	0x3d8424fd	0.064523675
158	0xbd94ea8c	-0.07271299
159	0x3dcdf8ad	0.10057197
160	0x3d7710e4	0.060318843
161	0xbd8279f3	-0.06370916
162	0x3d57cc5e	0.052685134
163	0xbd67faf9	-0.05663583
164	0x3d4b4cae	0.049633674
165	0x3cdb883c	0.02679836
166	0xbcf0947a	-0.029367674
167	0x3dbccb89	0.09218509
168	0xbb931745	-0.004488858
169	0x3d05d784	0.032676235
170	0x3dba083b	0.09083601
171	0xbe09b486	-0.1344777
172	0xbdd8b6df	-0.10581755
173	0xbd441d20	-0.04787934
174	0x3d9d9f0a	0.0769635
175	0x3d52a892	0.051430292
176	0xbdb8c5d0	-0.09022105
177	0x3c9a5022	0.018837038
178	0xbb2394ee	-0.0024960595
179	0x3d0beeef	0.03416341
180	0xbc63d2be	-0.013905225
181	0xbc241891	-0.010015623
182	0x3c320056	0.010864338
183	0xbd19ed11	-0.0375796
184	0xbd37d4b3	-0.04488058
185	0xbcad0fb6	-0.021125656
186	0x3c2ea0cd	0.010658455
187	0xbce93ed3	-0.02847234
188	0x3bff2463	0.00778632
189	0x3d9a7e6c	0.07543644
190	0xbd8fa826	-0.07014494
191	0xbc815eac	-0.015792213
192	0xbd8162e3	-0.06317689
193	0x3df8fb6d	0.12157331
194	0x3d736bf9	0.059429143
195	0xbcd2be13	-0.0257254
196	0xbd7fd202	-0.06245614
197	0x3dbcc944	0.09218076
198	0x3d26832c	0.04065244
199	0xbd9e16ce	-0.077191934
200	0x3d9502d6	0.072759315
201	0xbc2d79e4	-0.010588143
202	0xbd83e497	-0.064400844
203	0xbdaf7307	-0.085668616
204	0x3d6e4b23	0.058177125
205	0x3d995142	0.07486202
206	0xbd92a0f9	-0.07159609
207	0xbce36722	-0.027759138
208	0x3d5efbda	0.054439403
209	0xbd8290d0	-0.06375277
210	0x3d874c3b	0.06606337
211	0xbc73c155	-0.014877637
212	0x3d0eb690	0.034842074
213	0xbcbc0af3	-0.02295444
214	0x3d4dcad2	0.050242253
215	0x3ca42669	0.020037847
216	0xbd86e6a5	-0.06586961
217	0x3d00b830	0.031425655
218	0x3cd11ff6	0.025527935
219	0x3e084daa	0.13310876
220	0xbd16c83a	-0.036812045
221	0x3d72fba2	0.059322007
222	0x3cfc423e	0.030793305
223	0xbda2d414	-0.07950607
224	0x3dddf00c	0.10836801
225	0xbd38b297	-0.04509219
226	0xbd08ce62	-0.033399947
227	0x3dbe7520	0.092996836
228	0xbc7c1b53	-0.015387374
229	0xbc6a0d8f	-0.014285459
230	0x3dd29dd9	0.10284013
231	0x3da43274	0.08017436
232	0x3da7335c	0.08164093
233	0x3db4f597	0.08835905
234	0x3b189984	0.0023284862
235	0x3d21cafc	0.03950022
236	0xbddb4ec4	-0.10708383
237	0x3daa8154	0.08325449
238	0x3c4eb190	0.012615576
239	0x3d6a284f	0.057167348
240	0xbd18efa1	-0.037337903
241	0x3d9ed09e	0.07754634
242	0x3e0092cf	0.12556003
243	0x3c957058	0.018242046
244	0x3d632919	0.055459116
245	0xbdb75f3b	-0.08953711
246	0x3ca086d2	0.019595537
247	0x3cb9efd4	0.022697367
248	0x3d88f03a	0.066864446
249	0xbdb3cb8a	-0.08779056
250	0xbdc3fb4d	-0.09569416
251	0x3b801316	0.003908525
252	0x3dae8946	0.085222766
253	0x3d769914	0.06020458
254	0x3d454481	0.048161034
255	0xbdedc57f	-0.11609935
