Data/Player1/checkpoint-diverseTest2.pth (torch, 394024 bytes, 28 tensors)

linear1.weight f4 [128, 34]
000000 b0 02 2a 3f 0c d3 cc bd 23 e6 3f 3f f4 72 75 bf
       0.6641035 -0.100011915 0.74960536 -0.9587853
000010 26 99 84 bf 24 cc f4 be ef 02 14 bf 4e 39 8c be
       -1.0359237 -0.47811997 -0.57816976 -0.2738747
000020 a0 40 7d bd 87 3d 5e 3e b9 df 77 3f b3 55 1b 3f
       -0.06182921 0.21703158 0.9682575 0.6067764
000030 08 58 a7 bd 71 01 95 3f 02 fc c3 bd a7 38 95 3e
       -0.081710875 1.1641065 -0.09569551 0.29144785
000040 25 94 16 3f e9 ac 07 c0 92 90 0e 3f b7 14 d8 3d
       0.588198 -2.1199286 0.55689347 0.10550826
000050 86 c8 b3 bd 05 99 e1 3e 8c f8 ea 3e 42 7c 3c bf
       -0.08778481 0.44062057 0.4589275 -0.736271
000060 bf 56 0d be 13 14 c3 be 8c a6 71 3f 75 96 4a c0
       -0.13802622 -0.38101253 0.94394755 -3.1654332
000070 ba fb 77 c0 19 b3 1b c0 ac c5 c9 be 10 4b 0a c0
       -3.8747392 -2.4328063 -0.39408624 -2.1608315
000080 48 f2 dd 3d dc 33 70 3c 1f 6e 0e 40 64 cf 21 3f
       0.10837227 0.014660802 2.2254713 0.6320708
000090 f2 27 29 bf ab 0d 9e 3f d0 12 68 bf 39 63 4e 3f
       -0.66076577 1.2347921 -0.90653706 0.8062015
0000a0 8c ec e0 3f 9f 2d f5 be 02 36 2e 40 bb bc e5 3f
       1.7572188 -0.4788637 2.7220464 1.7948221
0000b0 20 56 f3 3f 3d 94 81 bf be d4 94 3f f9 a5 d9 bf
       1.9010658 -1.0123364 1.1627424 -1.7003776
0000c0 7a 49 27 bf 32 8b eb be f3 85 ba bf 13 66 a3 3e
       -0.6534649 -0.46004635 -1.4572128 0.31913814
0000d0 27 57 82 bf 07 a7 f1 3b 2f 36 8f 3f 98 85 1e bf
       -1.0182847 0.0073746475 1.118841 -0.619226
0000e0 ce 84 bf bd ad 23 57 bf be 08 a1 be 32 62 1d 3f
       -0.09351502 -0.8403881 -0.31451982 0.6147796
0000f0 f7 df b6 bf 12 41 34 3d 81 05 fc c0 ca e1 f7 bf
       -1.4287099 0.04400737 -7.875672 -1.936578
000100 9b 96 a0 3e b3 6a c2 3c c6 56 54 3e 71 8f 89 3d
       0.31364903 0.023732519 0.20736226 0.067168124
000110 ab 48 b4 bd 09 d3 f7 3c 77 34 c7 bd f0 f0 c9 3f
       -0.08802923 0.030251997 -0.09726804 1.5776653
000120 8f e3 d3 bc 5a 04 f1 be 93 27 c6 bd 3a fc fd 3e
       -0.025865344 -0.47073632 -0.09675517 0.49606496
000130 de 54 ff 3e 55 cb db be 8e d4 9e 3e 45 d2 d7 3e
       0.49869436 -0.42928568 0.3102154 0.4215261
000140 13 9e d3 3e 36 77 86 3f cd 5c 2c 3f 72 44 d1 3f
       0.4133154 1.050513 0.673291 1.6349013
000150 a6 da a4 3f 30 74 2a 3f 36 89 3a bf 98 6a 12 bd
       1.2879226 0.6658354 -0.7286562 -0.035746187
000160 35 b7 b3 bf 6f f0 fd 3f 7a a7 9e 3f 02 70 93 c0
       -1.4040285 1.9839 1.239486 -4.607423
000170 1d b8 83 3e 1a 4d 7e 3e c4 a0 f3 be ec 48 f2 3e
       0.25726405 0.248341 -0.47583592 0.4732126
000180 8f ea 3f bf c4 1c 01 be d0 00 a8 bd 8a 79 8b bb
       -0.74967283 -0.1260863 -0.0820328 -0.004256432
000190 9d c9 04 be 02 98 b7 bc bd 06 fd 3f c3 5f 7e bf
       -0.12967534 -0.02241135 1.9767681 -0.9936487
0001a0 47 83 c0 3f 08 b8 36 bf 30 72 79 3f 52 7f 40 3f
       1.5040063 -0.7137456 0.9743986 0.75194275
0001b0 ca 1d 51 bf 56 26 e9 3e 01 11 67 bf 4c c6 65 bf
       -0.8168608 0.4553706 -0.9026032 -0.897557
0001c0 0b 44 ec 3e 08 f3 62 bf 77 62 7c 3c ae e6 16 bf
       0.46145663 -0.88652086 0.015404335 -0.5894574
0001d0 e4 65 05 c0 fc 3b 9d 3d 70 b0 9f bf fb 4b df be
       -2.084344 0.07677457 -1.247572 -0.43612656
0001e0 cb 3d db be 57 73 fc 3e 06 8b 8f 3e 82 52 51 bf
       -0.42820582 0.49306747 0.28035754 -0.8176652
0001f0 40 13 15 bf 0b 95 46 40 ac 45 0d 3f 88 39 96 3e
       -0.582325 3.1028469 0.55184436 0.29340768
000200 bd ef 58 bf ea e7 89 3f a2 77 f3 c0 ab 37 88 bf
       -0.8474081 1.07739 -7.6083536 -1.0641989
000210 8f 7e e8 3e df 53 89 be b9 cb 54 3d b3 b3 5d 3e
       0.45409057 -0.268218 0.051952098 0.21650581
000220 3d a7 36 3e 83 9f 7e 3f a5 c4 41 be 4d ba dd 3e
       0.17837234 0.99462146 -0.1892267 0.433062
000230 b7 58 c5 3e 62 e6 46 bf 48 c6 ac 3f c1 77 5a 3f
       0.38544247 -0.77695286 1.3498011 0.8533898
000240 18 2a be be a8 ee 1b 3e f7 c3 e8 3d 33 f6 25 be
       -0.3714149 0.15227759 0.11365502 -0.16207199
000250 37 c7 d3 3f 09 79 c1 3f ff fd ba bf 51 b2 ac 3f
       1.654517 1.5115062 -1.4608763 1.3491918
000260 b1 ac e9 bc dd 2d b4 3e b2 ec a4 bd 90 88 69 bf
       -0.028524728 0.3519124 -0.080529585 -0.91224
000270 ff 7a 07 c0 23 41 a5 bf a4 5e c6 bf b9 21 c9 bf
       -2.116882 -1.2910503 -1.5497632 -1.5713416
000280 70 03 93 be 66 63 1c 3e 74 91 4a 40 43 44 4f 3f
       -0.2871356 0.15272292 3.1651278 0.80963534
000290 7b 34 4c 40 cb 48 19 c0 b2 5b 3c 3e 58 4a 46 bc
       3.1907032 -2.395068 0.18394354 -0.012102686
0002a0 9a 2a 24 3d a1 a0 83 3c 45 31 09 bf 9e 98 97 3c
       0.04007969 0.016067805 -0.53590804 0.01850539
0002b0 c7 32 d0 bf 2e 97 71 3f 58 0d a8 bd 73 88 d4 3d
       -1.6265496 0.94371307 -0.0820567 0.10377588
0002c0 c3 7d d2 3f cc af 52 3f b3 8e 8a 3f 33 1d 4c 3f
       1.644463 0.82299495 1.0824798 0.79732054
0002d0 87 0e fe bd d0 a4 de 3e 94 d3 99 ba 1e bf bf be
       -0.124051146 0.43485117 -0.0011736029 -0.37450498
0002e0 e4 21 6d be ff 3c a7 bf d4 e2 4c 3f 37 97 a2 bf
       -0.2315746 -1.306549 0.8003361 -1.2702397
0002f0 2a fd dc be b0 2b 9c bd 78 da 1c bf ce 03 8f be
       -0.431619 -0.0762552 -0.61270857 -0.2793259
000300 fd 14 10 bf 87 9f f6 bc 69 9a a9 be 0a c3 44 be
       -0.56282026 -0.030105365 -0.33125618 -0.19215026
000310 fc d2 bf 40 71 56 4e c0 f1 29 4d c0 78 32 85 be
       5.994505 -3.224026 -3.205685 -0.26015067
000320 d6 1d fe 3e 69 b7 48 3e 5e 53 70 be 54 12 de be
       0.49632138 0.19601215 -0.23469302 -0.43373358
000330 8a a6 28 3f 59 38 7a bf e3 4e 69 3f 7b 93 26 bf
       0.6587912 -0.9774223 0.91135997 -0.6506879
000340 7f 90 90 3d 34 00 19 bf c4 9e 5c 40 5d 2b 88 40
       0.070588104 -0.59765935 3.4471903 4.2552934
000350 e8 44 88 40 48 59 8c bf a3 cb c6 3f b1 5b 04 40
       4.2584114 -1.0964746 1.5530895 2.0680964
000360 23 49 ac bd ba 8b 02 be 68 f2 33 bf 65 29 b4 be
       -0.08412387 -0.12748614 -0.7029176 -0.35187832
000370 88 33 4d bf 18 1b 07 bf d2 ce 21 be 0c 62 84 3e
       -0.80156755 -0.52775717 -0.15801552 0.25856054
000380 9f 2c dd be 2e be ca 3e 24 b9 3c 3e ea a7 40 3e
       -0.43198106 0.3959822 0.1843 0.18814054
000390 97 5e 5c be e7 03 ca bd e6 57 79 bf 70 6d aa bd
       -0.21520458 -0.098640256 -0.9739975 -0.08321655
0003a0 51 e2 9e c0 05 16 0b c0 6f 31 02 3c 73 41 7a 3d
       -4.9651265 -2.173219 0.007946356 0.061097573
0003b0 14 27 34 3e 03 45 50 3e 92 d6 79 bf ae 81 8e 3e
       0.17593032 0.20338826 -0.97593033 0.27833313
0003c0 90 95 d5 3f 73 13 d9 3f 6a 1a ca be cb b2 82 be
       1.6686268 1.695906 -0.39473277 -0.25527033
0003d0 1c fb 52 bf 84 43 b1 bf fc 85 25 c0 6b 12 ea bf
       -0.8241441 -1.3848729 -2.5863028 -1.8286871
0003e0 14 79 41 c0 52 d1 36 3f 06 81 f5 be 5b 57 f6 3f
       -3.023015 0.7141315 -0.4795 1.9245409
0003f0 49 26 0b bf 92 22 50 be 11 fd 76 bf a1 b5 ef 3e
       -0.54355294 -0.20325688 -0.964799 0.4681826

linear1.bias f4 [128]
000000 19 0a 15 3f aa ad 8a 3f 99 5d d7 be 9a d8 60 3e
       0.5821853 1.0834248 -0.42063597 0.21957627
000010 c9 e9 e2 be d7 27 f0 bc 1a 09 bb 3f d7 3f 96 3d
       -0.4431899 -0.029315872 1.4612153 0.07336395
000020 09 bb d3 be 65 0e d6 bd be 5c 5f be de 8e f4 3f
       -0.41353634 -0.10451964 -0.21812722 1.91061
000030 ef 61 f0 bf 6b 13 e1 3f 27 22 9f be c8 0d 60 bf
       -1.8779887 1.7584051 -0.31080744 -0.8752103
000040 f9 d5 02 40 a3 01 45 bd 29 c4 65 bf e2 9d e5 be
       2.0443099 -0.048097264 -0.8975244 -0.44847018
000050 27 1c f1 3e 7c b5 f0 bd 4e 24 12 bf fa 96 1e 3d
       0.4709179 -0.117533654 -0.57086647 0.0387182
000060 4c f6 64 bf 96 6c 2c bf 0d b2 6b bd d2 16 70 bf
       -0.8943832 -0.6735319 -0.05754285 -0.9378482
000070 4f 79 57 40 79 37 bd 3f 02 a3 03 3f c4 7e 83 be
       3.366779 1.4782554 0.51420605 -0.25682652
000080 ae 7c d9 bd 53 6a b5 be 7b 0a 51 3f f5 f6 ff bd
       -0.10619484 -0.3543268 0.81656617 -0.12498275
000090 e5 f0 34 3f 15 26 d1 3e 6b 36 0e 3d 0a 94 5a be
       0.70680076 0.40849367 0.034719866 -0.21345535
0000a0 d1 8b de 3f b7 ae a5 3f d1 aa eb be 07 e6 10 3f
       1.7386419 1.2943944 -0.4602876 0.56600994
0000b0 4b 57 bd 3f e8 84 02 c0 63 74 3a bd e3 8f 07 3f
       1.4792265 -2.039362 -0.04552115 0.5295393
0000c0 cb c4 43 bf be 8d 5c 3f 41 4e ee 3e 35 c3 93 be
       -0.7647216 0.8615378 0.46544078 -0.2885987
0000d0 99 7f b4 3d 25 c1 96 3f ec bf 88 3f 47 a7 89 3f
       0.088134 1.1777693 1.068357 1.0754174
0000e0 d4 e1 16 c0 bc ab 57 bf 2a b9 e5 3e 16 35 86 3f
       -2.3575335 -0.8424642 0.4486783 1.048495
0000f0 13 09 0b 3e 0c a3 a4 3f 0f 7c 79 3f 25 cc 4f 3e
       0.1357768 1.2862258 0.97454923 0.20292719
000100 a8 42 87 bd ef 9c a9 be ce 36 27 bf 36 b1 2a 3e
       -0.066045105 -0.33127543 -0.65318 0.16669163
000110 36 66 24 3f 0f 1d cb bc 6a bd 5f 3f 20 8d 86 3e
       0.6421846 -0.02479413 0.873984 0.26279545
000120 0b a2 18 3d 8b 3d a0 be 6c ef 47 bf 8d 5d 81 bf
       0.03726391 -0.31296954 -0.78099704 -1.0106674
000130 19 23 a1 be 57 4f 25 bf 3d 2a c7 bf 47 95 f0 bf
       -0.3147209 -0.6457419 -1.5559765 -1.8795556
000140 04 fc d2 3e bf e6 51 3f fc 31 43 bf 83 e9 64 be
       0.41207898 0.81992716 -0.76248145 -0.22354703
000150 c2 39 33 3f da ce 5b 3f 51 1f 8b bf 63 c5 59 3e
       0.70010006 0.85862505 -1.0868932 0.21266703
000160 ef 33 46 3f 22 5a be 3f 43 2d 0e 3f 3f d1 4f 3f
       0.77422994 1.4871256 0.55537814 0.8117866
000170 cc e8 32 be c0 5c d7 bf 9c 69 4c 3f 08 b2 5f 3f
       -0.17471617 -1.682518 0.7984865 0.8738103
000180 0d 54 21 bf 45 cd f5 be c1 b2 90 bf 58 8a 58 3d
       -0.63018876 -0.4800817 -1.1304551 0.05286631
000190 00 f0 9a be 8d f0 63 3f 2e e5 8a bf f8 29 17 bf
       -0.3026123 0.89038926 -1.085119 -0.59048414
0001a0 b6 02 bf 3f f5 4e 95 be f5 02 04 3e de f4 70 3f
       1.4922702 -0.29161802 0.12891753 0.9412364
0001b0 78 c1 f7 3e 65 89 47 bf 12 74 9b 3f 12 71 f3 bd
       0.48389792 -0.7794402 1.2144797 -0.11886801
0001c0 bb f1 97 be 5b 54 13 bf 1c b5 1f bd 51 e1 18 bf
       -0.29676613 -0.5755059 -0.03899108 -0.59718806
0001d0 24 f5 97 bf fd a1 21 be 11 95 a7 3e 5d c3 9a 3f
       -1.1871686 -0.1578445 0.32730916 1.209087
0001e0 dc 10 9f 3f a1 5d 7d 3e 2e 86 8d 3f b6 a2 09 40
       1.242702 0.24742748 1.1056573 2.150556
0001f0 fe f8 a1 bd 1a e5 b7 bd 2c bd 97 3f 34 cd ff be
       -0.079088196 -0.089792445 1.1854606 -0.49961245

linear2.weight f4 [128, 128]
000000 da d9 bb bb 97 0d 75 bf 56 fe cb 3e b6 d0 96 3f
       -0.005732757 -0.9572386 0.3984248 1.1782444
000010 bc 0c ed 3c 13 ab 82 be 7d 36 2f 3f c0 09 1f bf
       0.028936736 -0.25521144 0.6844252 -0.6212425
000020 c3 9c 7d 3f ce 95 bb 3e eb d2 6c 3f a5 47 b3 be
       0.99067324 0.3663773 0.92509335 -0.35015598
000030 d5 0b 62 be d8 d4 24 bf ab 1c 31 3f a6 94 b7 bf
       -0.22074826 -0.64387274 0.6918437 -1.4342239
000040 dc d9 ee bd 60 c2 41 3f aa 03 fb be 6c 29 af bf
       -0.11662647 0.7568722 -0.49026233 -1.3684516
000050 11 57 61 3f 1b e6 6d 3f 58 a0 81 3f 88 f6 3d 3f
       0.8802348 0.9292924 1.0127058 0.742043
000060 6b 2b 9a bf ef ea 01 be 08 a8 38 3f cc e9 a8 3f
       -1.20445 -0.12687276 0.72131395 1.3196349
000070 5b bb 1c bc 19 74 89 3e 62 9a c8 3e 46 74 df 3e
       -0.009566153 0.26846388 0.39180285 0.43643397
000080 42 d5 87 be 93 2a 94 3f 87 da 81 3f eb da c9 3f
       -0.2652989 1.1575493 1.0144814 1.5769933
000090 fe 7b f8 bd 37 7a 31 bf 7a fc 4a 3f c5 c8 6b 3f
       -0.12133025 -0.6932711 0.792915 0.92103225
0000a0 70 82 49 3e 53 58 94 bf a9 19 80 bf 87 35 28 c0
       0.19678664 -1.1589454 -1.0007831 -2.628267
0000b0 da 1e cb bd ed a2 95 3f 57 f1 9c bf 55 c6 1e c0
       -0.09917994 1.1690346 -1.2261151 -2.4808552
0000c0 a7 46 c6 bc c2 7b fa be cf da 1b 3f 13 28 33 3f
       -0.024203612 -0.48922545 0.6088075 0.69983023
0000d0 d2 c5 b1 3e e3 76 cf 3e c1 d6 ba 3e 9a 24 3f bd
       0.34721237 0.4052039 0.3649197 -0.046665765
0000e0 41 68 0a bd 12 53 c0 be 52 92 35 bc 73 b2 94 bf
       -0.03379083 -0.37563378 -0.011082249 -1.1616958
0000f0 c5 4e 23 be b5 6c 8d bf 20 83 90 be 8c 5c bb 3f
       -0.15948017 -1.10488 -0.2822504 1.4637618
000100 21 ae 83 bf cc 44 e3 bf d0 2b 72 3e e4 ae 83 bf
       -1.0287515 -1.775537 0.23649526 -1.0287747
000110 0a 9f 95 bc b3 61 49 bf 0b 44 8c bf f8 66 d6 3e
       -0.018264312 -0.786647 -1.0958265 0.41875434
000120 7e 0e af bf d2 72 1f 3f 76 85 1c 3f 9d df c0 be
       -1.3676298 0.62284577 0.61141145 -0.37670603
000130 57 51 c1 be 01 c8 69 3d b7 26 56 bf fd 80 fe 3d
       -0.3775737 0.057075504 -0.83652824 0.12426946
000140 f3 88 1e 3e 7f 9c 87 bf b4 1f 90 bf a1 f1 84 3e
       0.1548193 -1.0594634 -1.1259675 0.25965598
000150 54 6d 10 3f ee 47 f0 bf e0 4c ab bf c1 12 49 3f
       0.5641682 -1.8771951 -1.3382835 0.7854424
000160 a8 38 c3 bf 93 91 8a bf f4 a5 c3 3e 0a 15 8c be
       -1.5251665 -1.0825676 0.3821255 -0.27359802
000170 3a b6 85 3f cd 4f 26 be 35 1b c3 bf d5 96 bb bf
       1.0446236 -0.16241379 -1.5242678 -1.4655405
000180 b6 c4 94 3d 1c ba 5e 3f 3b f1 59 bf 59 41 85 3f
       0.07264082 0.8700273 -0.85133713 1.0410568
000190 63 16 03 c0 b9 6f 8d bf f8 49 4d bf ba fe 81 be
       -2.0482414 -1.104972 -0.8019099 -0.25389653
0001a0 d6 83 f4 3e 39 f8 72 3e 85 f8 27 bb 7e c5 9d bf
       0.47756833 0.23727502 -0.0025630307 -1.2325895
0001b0 0b 7f 7b 3f 3e 47 59 3f cf 39 f3 be 7b 21 9f 3e
       0.9824073 0.8487433 -0.47505042 0.3108023
0001c0 98 98 b3 be 04 71 34 3f 3b 72 a5 3e 05 56 f9 bf
       -0.35077357 0.7048495 0.32313713 -1.9479376
0001d0 46 1f 77 bf 8e 95 81 3f da 3f b5 bf 25 ee a5 bd
       -0.96532094 1.0123765 -1.4160111 -0.08102063
0001e0 f0 82 82 3e 36 c3 0c 3f 99 3d 11 3f 4c b4 27 bf
       0.25490522 0.5498537 0.56734616 -0.65509486
0001f0 76 d0 2b 3f e0 0f a3 be 0a a7 84 3e b8 45 f9 bf
       0.6711496 -0.3184805 0.2590869 -1.9474401
000200 7b 3a 96 3e df c4 6c 3f c7 8e 31 bf bd 06 0b 3f
       0.29341492 0.924879 -0.69358486 0.54307157
000210 17 f0 16 bf 72 d6 bb bf 3c a1 e8 3e a9 3f 84 be
       -0.589601 -1.4674819 0.45435512 -0.2582982
000220 40 9b 62 3e 32 af 9d bd 78 51 a7 3e 51 9c 8a be
       0.22129536 -0.076994315 0.32679343 -0.27072385
000230 a5 5b 0f 3f f8 d7 16 3e 65 46 b6 be b9 5d 48 be
       0.55999213 0.14730823 -0.35600582 -0.19567002
000240 ea ce a3 bf 0f fe 18 bf c2 65 a3 bf a6 4a b5 3e
       -1.279752 -0.5976266 -1.2765429 0.35408515
000250 d5 03 01 3f e0 e7 2d bf 68 a1 f2 be 7d 08 f7 be
       0.5039647 -0.6793194 -0.47388768 -0.48248664
000260 9d e2 20 be 0d a4 06 be 61 71 6f bf 91 7a d8 be
       -0.15711446 -0.13148518 -0.9353238 -0.4228101
000270 fb d4 18 3e a0 cd 15 bf 4e 4c 36 be f8 df a2 3e
       0.14924996 -0.58516884 -0.17802545 0.318115
000280 2f 44 ed be 3b 35 03 3f 38 92 74 3e be a2 a0 3e
       -0.46341082 0.512531 0.23883903 0.31374162
000290 97 9d 2a bf f4 6a 09 bf 9f 46 18 be 29 38 3f 3e
       -0.66646713 -0.5367882 -0.1487069 0.18673767
0002a0 c1 76 34 bd 68 f7 ad be 44 cb 4b 3f a9 b6 87 3d
       -0.044058565 -0.33977818 0.79607034 0.066266365
0002b0 15 d3 28 3f 7e 30 9d 3d 0d 35 08 bd 21 93 d9 3e
       0.65947086 0.07675265 -0.03325372 0.42495063
0002c0 69 ce 30 be 64 eb 10 3f 3a 94 98 bf 8b 04 1b bf
       -0.17266239 0.5660918 -1.1920235 -0.6055381
0002d0 09 7b d2 be 97 a5 84 bf ec 98 45 bf 6c 8d 7f 3e
       -0.41109493 -1.0363034 -0.77186465 0.24956292
0002e0 03 a1 5b bf 08 36 0f bf 7c 9b 1a bf b5 cc a0 be
       -0.8579256 -0.5594182 -0.603935 -0.3140618
0002f0 65 ec 34 3e fd 95 71 bf 6b b7 85 bf 76 a5 6d bf
       0.17668302 -0.9436949 -1.04466 -0.928306
000300 b6 04 b5 be 17 91 c6 be d2 2b 1c be a6 69 c4 bf
       -0.35355157 -0.3878257 -0.15251091 -1.5344741
000310 ed 27 89 bf 21 b2 9a 3e 4c ca 52 be 76 0e 86 bf
       -1.0715309 0.30214027 -0.20584983 -1.0473163
000320 0b 38 04 bf 14 0b 0f bf 92 ce 32 be f5 7b 8a 3f
       -0.51648015 -0.5587628 -0.17461613 1.0819079
000330 fe b0 b0 be f6 37 d4 be fb f8 85 bf 35 3a f9 be
       -0.34510034 -0.41448945 -1.0466608 -0.4867722
000340 3c bb c8 3f d4 3a 3f 3f a4 d8 8c bf 6e 42 bb be
       1.5682139 0.7469914 -1.1003613 -0.3657412
000350 32 67 68 3f 54 1c c9 3f 5d 7d bf be f4 01 00 bf
       0.90782464 1.571177 -0.37400332 -0.5000298
000360 71 e8 0e bf e0 94 49 3d ab ca 64 be da 3c cb 3f
       -0.5582343 0.049214244 -0.22342937 1.5877945
000370 03 15 a4 bd 6e ee a4 3e 53 d3 7e 3e f6 ff 2a be
       -0.0801182 0.32213157 0.24885301 -0.16699204
000380 d2 90 d1 3e 0c 97 35 3f 11 00 90 bf d3 96 6b bd
       0.40930802 0.70933604 -1.125002 -0.057516884
000390 7e d2 95 3d dc ae 62 bf 05 98 80 3e 48 c4 a1 3f
       0.07315539 -0.88548064 0.25115982 1.2638025
0003a0 38 b8 06 bf 60 38 b6 bf 9a 0a bb bd 21 93 ab 3e
       -0.52624846 -1.4235954 -0.091328815 0.33510688
0003b0 ac 65 49 3f 31 5f aa 3d 89 22 9d 3e cb b1 dd bf
       0.78670764 0.083189376 0.3069041 -1.7319883
0003c0 e9 96 80 3e 71 f8 6f be fa fc 84 3f 19 2e 9a 3e
       0.25115135 -0.23434617 1.0389702 0.30113295
0003d0 07 3f 7b bf 3d 68 34 3f d6 01 7a 3e ec 45 01 3f
       -0.9814305 0.70471555 0.24414763 0.5049732
0003e0 8f cf 40 be ef 02 53 bf 3f a9 97 be dd 08 9d be
       -0.18829177 -0.8242635 -0.29621312 -0.30670825
0003f0 8f 20 d8 bf 59 26 01 bf 4a 9b 41 3f 7b 1b 51 3e
       -1.6884936 -0.5044914 0.7562758 0.20420639

linear2.bias f4 [128]
000000 a8 8c 9d 3e 9e c3 cc bf 58 45 9c bf f0 2f 42 bf
       0.30771375 -1.5997198 -1.2208662 -0.75854397
000010 76 af 0a bf d2 58 76 3f 54 00 61 bf 4c 38 e1 3a
       -0.5417398 0.9622928 -0.87891126 0.0017182915
000020 a0 d9 f0 bf 23 12 6f bf 9e ef 18 bf 92 0f 56 3f
       -1.8816414 -0.9338705 -0.59740627 0.8361751
000030 8a f3 b6 be 97 37 21 bf 09 af 05 3f e9 f5 64 3f
       -0.3573268 -0.6297545 0.5222021 0.8943773
000040 ef 21 cb 3c 27 e9 c0 bd 45 5e a6 be 81 bb 9b 3f
       0.024796454 -0.0941947 -0.32493797 1.2166597
000050 fd fc 34 bf a9 b7 31 be 6c 06 1a 3e a1 1e 97 bf
       -0.7069853 -0.17355217 0.15041512 -1.1806222
000060 69 33 a8 3f fa 3b 07 c0 7b 8a d4 be 14 89 ce bf
       1.3140689 -2.1130357 -0.41511902 -1.6135583
000070 cb 72 81 bf ec c9 b2 be df cf ef be 40 76 3f 3f
       -1.0113157 -0.3491968 -0.4683828 0.7478981
000080 8e 31 3a 3f ba ad fa bf 49 1a 6b bf f8 57 93 bf
       0.72731864 -1.9584267 -0.9183698 -1.1511221
000090 dc 33 9f bf 8c e4 b0 bf 4b 38 72 be c4 28 3c 40
       -1.2437701 -1.3819747 -0.23654287 2.9399881
0000a0 e8 21 b5 bf e5 cd c3 bd 3e 75 aa bf 49 41 77 bd
       -1.4150972 -0.09560756 -1.331703 -0.060364995
0000b0 ed 4e d3 bf ff 81 a7 3f fb 07 22 3f bc 92 38 3f
       -1.6508461 1.3086547 0.6329343 0.720989
0000c0 de d3 04 bd 5b 76 b7 bf 5b d7 1b bd e1 59 ca 3f
       -0.032428615 -1.4332994 -0.038047176 1.5808679
0000d0 d0 12 b3 3e e7 34 9a bf 21 b5 81 be 1b 5b 6f bf
       0.3497529 -1.2047395 -0.25333503 -0.9349839
0000e0 f6 aa 70 3d 51 bf 08 3f bc 66 0e 3f 37 b1 5b 3f
       0.05875679 0.53416926 0.5562551 0.85817283
0000f0 80 0a 1e c0 42 e9 f6 bf 99 fd c9 be 8e 88 f6 be
       -2.4693909 -1.9289935 -0.39451292 -0.48151058
000100 20 2a c2 bf ea c9 11 bf 2d d1 d2 be 6d c4 b9 bf
       -1.5169106 -0.5694872 -0.41175213 -1.4513069
000110 31 60 8e bf d6 fe 08 bf f4 dd 8f 3e 2e 10 a5 bf
       -1.1123105 -0.5351385 0.28099024 -1.2895563
000120 3d c2 54 bf f1 11 dd 3e 80 49 8e be 19 2d a6 be
       -0.83108884 0.4317775 -0.2779045 -0.32456282
000130 ba a0 0c c0 6f 0a 78 3e ef c6 90 bf bf 3f 68 3f
       -2.19731 0.2422273 -1.131071 0.9072227
000140 00 44 c8 bf 71 33 ee 3e 17 eb 3f bf 41 d1 2e c0
       -1.5645752 0.46523622 -0.74968094 -2.7315218
000150 3a 54 e3 bd ba 16 9e 3f a4 a5 46 3e 64 1c bf be
       -0.11100049 1.2350686 0.19399124 -0.37326348
000160 49 08 02 c0 23 fd 9f bf 03 dd 1a 3b 38 ac 0c 3f
       -2.0317557 -1.2499126 0.0023630268 0.54950285
000170 9f 23 8a 3f 4a 2c 30 bf a8 52 4e bf 29 a7 1f bf
       1.0792121 -0.6881758 -0.80594873 -0.6236444
000180 8e 82 af bf 18 c8 9a 3f 5e e9 7e be 90 77 3c bc
       -1.3711717 1.2092314 -0.2489371 -0.011503115
000190 9c 0d 55 bf a7 68 d9 3e ef db a9 bf 76 22 cb bf
       -0.8322389 0.42462656 -1.3270243 -1.5869892
0001a0 26 20 c4 bf 8e 89 96 3f 5e 02 42 be b2 24 e1 3e
       -1.5322311 1.1760728 -0.18946216 0.4397331
0001b0 24 39 bc 3e 90 2d 35 bf c9 f9 ec be 5e f7 03 c0
       0.36762345 -0.7077265 -0.4628432 -2.061973
0001c0 4a 6f 19 c0 34 aa ac bf ea 0c 13 3f db 67 e1 3e
       -2.3974175 -1.3489442 0.5744158 0.44024548
0001d0 1b fd 58 3f 39 af df 3e 17 a1 92 be 68 6a 4a 3f
       0.8476121 0.43688372 -0.28638527 0.79068613
0001e0 97 eb 8d bf 07 bd 88 3f 49 f2 aa be 4c bc bb 3e
       -1.1087521 1.0682687 -0.33387974 0.36667097
0001f0 1c 5b ca bd cf 31 3b bf 61 5b 5b bf 67 1f 44 be
       -0.09880659 -0.73122877 -0.8568631 -0.19152604

linear3.weight f4 [64, 128]
000000 c2 d0 67 3e 57 f1 1f bf 87 7b 80 3f 08 20 93 3e
       0.22638229 -0.6247763 1.0037698 0.28735375
000010 9a f7 13 be 6b 16 3e bf e0 c7 6b bf ca 0a 0a c0
       -0.14449921 -0.7425296 -0.9210186 -2.1569085
000020 08 a8 de bf 7f a4 ce bf fe 1a ef 3e 60 cc 64 bf
       -1.7395029 -1.614395 0.4670028 -0.8937435
000030 f7 f8 3f bf b8 0e a5 bf b3 02 8b bf 0e 24 56 3f
       -0.74989265 -1.2895117 -1.0860199 0.83648765
000040 d4 bd ca bf 7a 5b c0 be 22 87 52 be b8 d6 50 be
       -1.5839181 -0.3756979 -0.20559362 -0.20394409
000050 bf de 12 c0 51 2a 8f bf 83 1b 4b bd 58 62 d2 bf
       -2.2948453 -1.1184789 -0.049586784 -1.6436262
000060 de f6 88 3f 5a d1 d8 bf de 21 a7 be 64 cf 8f bf
       1.0700338 -1.6938889 -0.32643026 -1.1235166
000070 8d 2d 48 bf 57 c9 d0 3c 2f 4c bd 3e 82 87 7a bd
       -0.78194505 0.025486631 0.36972186 -0.061164387
000080 cb d7 d1 bf 2e 1c 78 bf bf f4 80 bf e3 01 97 bf
       -1.639398 -0.96918 -1.007469 -1.1797451
000090 50 49 1b bf 32 91 df bf 6f 08 2c bf c1 7b 73 bd
       -0.6065874 -1.7466185 -0.6720037 -0.059444193
0000a0 3e 9a e9 bf 18 f6 c6 bf ae fb 0c c0 fe f1 23 be
       -1.8250196 -1.5543852 -2.2028613 -0.16010281
0000b0 52 62 9b bf 83 40 cc 3e 94 56 1f be 12 e6 26 bd
       -1.213938 0.3989297 -0.1556037 -0.040746756
0000c0 2a 94 74 3f 84 2f 9e 3e 97 16 ff be 38 b6 c2 bc
       0.9553858 0.30895627 -0.49821922 -0.02376853
0000d0 06 ac 5e be be 12 21 bf 74 d6 34 bf a1 05 07 be
       -0.21745309 -0.62919223 -0.7063973 -0.13185741
0000e0 7e 19 04 3f 44 7f 06 3f 5e 9f 83 3f 68 56 2d 3e
       0.516014 0.5253794 1.028301 0.16927493
0000f0 7c 27 e5 be 37 18 a2 3d 10 c7 97 be 8d 85 26 c0
       -0.44756687 0.07914775 -0.2964406 -2.6019013
000100 eb f4 de bf 51 34 61 3e fa ed 0b bf 37 23 de be
       -1.7418493 0.21992613 -0.5466 -0.43386242
000110 1b 3c c6 bf 60 af c5 bf 8b 70 e2 be 28 1b dd bf
       -1.5487093 -1.5444145 -0.44226488 -1.7273912
000120 5c f0 02 bf e6 97 28 3f 71 25 a4 bf e3 91 16 c0
       -0.5114801 0.6585678 -1.2823926 -2.3526542
000130 68 7f c0 bf bb e2 99 3e 15 0d 0f c0 28 a1 b3 3e
       -1.5038881 0.30055794 -2.2351735 0.3508389
000140 95 1f 09 bf 79 06 24 3e e7 d0 14 3f c3 d6 e0 bf
       -0.53563815 0.16018094 0.5813126 -1.756554
000150 aa cb 39 3f 53 f9 2b 3f 77 87 95 3d 09 03 12 3f
       0.7257639 0.67177314 0.073012285 0.5703588
000160 44 79 a6 bf 90 27 79 bf 28 54 81 3e 14 2b 2c be
       -1.3005757 -0.9732599 0.2525952 -0.16813308
000170 3b 87 ae be f4 c3 1a bf 1b 3e d6 bd c0 72 b4 bf
       -0.34087548 -0.6045525 -0.104610644 -1.4097519
000180 89 87 be bf 68 7f 56 3e ef a2 3c bf de 71 23 bf
       -1.4885112 0.20947039 -0.73686117 -0.6384562
000190 3b 2b f5 be 5e 0a 1d 3f 30 df 93 bf af 85 9e bf
       -0.47884545 0.61343944 -1.1552486 -1.2384547
0001a0 ab d4 86 bf 5e b9 2b 3f 35 dd 7c bf 9b 9c a3 be
       -1.0533651 0.6707972 -0.98775035 -0.31955418
0001b0 a4 7d 68 3e 78 20 1e bf f2 a1 c2 3f cf 4a 8d bf
       0.22704178 -0.61768293 1.5205672 -1.1038455
0001c0 ec 8e 59 bf d2 8c 15 bf 5f 2f fb be 61 dd 09 3f
       -0.84983706 -0.58418 -0.4905958 0.5385342
0001d0 14 6f 48 3f fb 40 cb be e8 34 fb bd e5 4f c1 3e
       0.7829449 -0.39698014 -0.122659504 0.37756267
0001e0 3f 92 7e 3e 12 29 af bd d7 76 dd bf 3a f1 43 3f
       0.24860476 -0.085527554 -1.7301892 0.7653996
0001f0 cf aa 89 3d cd a4 66 3f d3 ab e0 bf 5a 56 f1 bf
       0.06722032 0.90095216 -1.7552437 -1.8854477
000200 15 23 bb 3e d5 f1 ca 3e 44 03 bb 3e c3 b3 e5 3e
       0.36550203 0.39637628 0.3652593 0.4486371
000210 ee 53 9d be 93 c7 27 3f f7 68 b7 be 5e cb 1e c0
       -0.30728096 0.655389 -0.3582227 -2.4811625
000220 55 2b af bd 04 54 1e bf 69 97 72 bd 51 69 d3 bf
       -0.08553187 -0.6184695 -0.059226427 -1.6516515
000230 39 d1 76 be 4a aa 8c be c1 47 28 3f d1 92 6d be
       -0.2410325 -0.2747367 0.6573449 -0.23200537
000240 47 26 59 3f 3b 4d da be a7 0b cc 3e c0 12 cc 3e
       0.8482403 -0.42637047 0.3985264 0.39858055
000250 2e e1 c7 3e 7d ce be bf 9a 85 81 bd b2 d8 93 be
       0.39038986 -1.4906765 -0.063243106 -0.28876263
000260 e0 ae 28 bf 33 cc 81 3f 84 d0 48 3f 8d 53 d1 3e
       -0.6589184 1.0140442 0.7844317 0.40884057
000270 3c f1 1b bf 33 43 27 3e b8 ca c2 be ae 96 4e 3e
       -0.6091497 0.16334228 -0.38045287 0.20174667
000280 db 90 8f bf 37 ff 1d bd 22 72 20 3f 8e d5 d3 bf
       -1.1216081 -0.03857347 0.6267415 -1.6549547
000290 fc 98 41 bf 1a 49 82 3e b6 5d 31 3e 13 f7 52 be
       -0.7562406 0.25446397 0.17320904 -0.20602064
0002a0 e7 d4 01 bf 29 85 d6 3e 97 67 8a be 8f 49 ed bf
       -0.5071549 0.41898468 -0.27032158 -1.8538073
0002b0 8f a5 99 3f 52 a5 9c 3b 47 82 e7 bf 31 d1 d3 be
       1.200365 0.00478045 -1.8086632 -0.41370538
0002c0 ce 1b 5a 3c dd c4 5c bf 81 2a 62 3e 01 d8 61 bf
       0.013312293 -0.8623789 0.22086526 -0.8822022
0002d0 28 f6 03 bf 7d 94 5a bf 9c e7 5a 3e 95 a6 85 3f
       -0.5154748 -0.85382825 0.21377414 1.0441462
0002e0 bc 3d 18 bf 05 f7 4c bf 5b 1d 98 be f0 4d 1b bd
       -0.594692 -0.8006442 -0.29709896 -0.037916124
0002f0 de 28 33 3f 93 cb 14 bd 4f 17 d3 be 51 b9 50 3f
       0.69984233 -0.036326956 -0.4122872 0.8153277
000300 65 2b ef 3e c1 f3 2c 3f 37 61 af 3e 19 db 06 bf
       0.46712795 0.6755944 0.34253857 -0.52678066
000310 25 78 47 3f 6d fa f8 be 47 21 a0 3e c1 c6 85 3f
       0.779177 -0.4862856 0.3127539 1.045128
000320 37 8f 6a bf 49 35 8f 3e 7d 1d 6c bf b2 d7 a5 3f
       -0.9162478 0.2797034 -0.92232496 1.295645
000330 6b 2a 18 3f 2f f3 aa bf c0 ca d4 bf bb d8 05 bf
       0.59439725 -1.3355464 -1.6624374 -0.5228383
000340 ea 20 d2 3e cc 2a 78 3f 09 92 41 3c 3a b1 45 3b
       0.41040736 0.969403 0.011814603 0.003016545
000350 32 1a ca 3e bb 16 49 3f cb fa f4 3e 50 cb 2a bf
       0.3947311 0.7855031 0.4784759 -0.6671648
000360 47 ca 07 be 41 0e af bf 62 4e c5 3e d6 c5 b5 be
       -0.13260756 -1.3676225 0.38536364 -0.355025
000370 23 e3 ad bf 07 42 d1 bd b0 14 de be 48 a5 ba 3f
       -1.3584942 -0.10217672 -0.43375158 1.458169
000380 a6 ea 88 3d 99 52 f9 be 15 92 22 3d bd 66 00 3f
       0.06685381 -0.4869583 0.039690096 0.50156766
000390 24 22 2e bf 8b b9 10 3f 2a 1a da be ba c4 34 3f
       -0.68020844 0.56533116 -0.42598087 0.7061268
0003a0 aa 3d 34 bf fd 1e 80 bf b9 fd d3 bf 63 17 3a 3f
       -0.7040659 -1.0009457 -1.6561805 0.72691935
0003b0 15 cb 3e 3f 76 7b 92 be 9b 8f 1d bf 88 59 60 3e
       0.7452863 -0.28609818 -0.6154725 0.21909153
0003c0 f0 a8 45 3d 62 02 ed 3e 15 bd 33 be 93 75 23 3e
       0.048256814 0.4629088 -0.17552598 0.1596282
0003d0 d6 d1 fb 3e 8f 5b ce 3d 62 69 71 3f df 9d ec 3d
       0.4918353 0.10076057 0.94301426 0.11553549
0003e0 2d ca 47 bf 79 f0 9a bd 76 6e f0 bf ec 90 91 3f
       -0.7804287 -0.07565398 -1.878371 1.1372352
0003f0 1a 3c 19 be e7 2e 92 be 4e 41 e0 3e 6c eb 20 3f
       -0.14964333 -0.2855141 0.43799824 0.62859225

linear3.bias f4 [64]
000000 a3 93 82 40 cb 05 4d 3f 76 22 91 c0 e4 87 81 c0
       4.080522 0.80086964 -4.5354567 -4.047838
000010 ff de 71 c0 c1 62 88 c0 7b bd 30 3f 47 3e a9 be
       -3.7792356 -4.262055 0.69039124 -0.33055326
000020 c6 95 1a 40 4f 7e 85 c0 28 9a 22 40 ec 8f 22 3f
       2.4153914 -4.1716685 2.540659 0.6350086
000030 83 be cc 3f 49 99 15 c0 70 51 92 3f f0 f1 fb be
       1.599564 -2.3374808 1.1431103 -0.4920802
000040 20 40 57 c0 84 69 28 3f bb e5 56 3f 87 56 1d bf
       -3.3632889 0.65786004 0.8394429 -0.61460155
000050 c8 f1 86 3f b5 b3 ee bf c6 3c 0e bf be 79 a6 bf
       1.0542536 -1.8648592 -0.5556148 -1.3005903
000060 b6 06 92 3f 99 f8 a6 bf 7d 10 b5 3f d4 9a f4 3e
       1.1408298 -1.3044616 1.4145657 0.47774374
000070 4d 4b f3 bf 73 fb db bf 42 fb e7 3f 9f 84 99 c0
       -1.9007355 -1.7186111 1.8123553 -4.797439
000080 3b 94 23 3f 77 8d 81 3f 2a 7a b5 3f 25 60 85 bd
       0.63898057 1.0121297 1.4177907 -0.06512479
000090 81 6a d2 3f ea 5a 40 3f a8 07 f3 bf ec bd 3d 3f
       1.6438752 0.75138724 -1.8986712 0.7411792
0000a0 a4 ce 6e c0 df e1 16 bd dc 22 51 3f c4 4c 27 3c
       -3.7313623 -0.0368365 0.81693816 0.010211173
0000b0 ea ae 5e 3e 10 a9 de bf ea f3 9b 3f bd 13 29 3f
       0.21746412 -1.7395344 1.2183812 0.66045743
0000c0 c4 47 9f 3f 89 38 eb 3f bb c6 90 c0 30 33 4c bf
       1.2443776 1.8376628 -4.524259 -0.79765606
0000d0 d8 14 d1 3f e4 da be 3f 19 71 04 3e fc c8 35 3f
       1.6334486 1.491055 0.12933768 0.710098
0000e0 f0 71 9d c0 d4 9e 4f bf 2c 2f eb bd 91 2d 00 c0
       -4.9201584 -0.8110173 -0.11483607 -2.0027812
0000f0 83 1a 83 c0 54 85 0c bf 0c a9 9c 40 05 a7 33 c0
       -4.0969863 -0.5489094 4.8956356 -2.807069

output.weight f4 [1, 64]
000000 e3 2c aa 3e 43 f6 da 3e 37 63 1f bf 11 76 22 bf
       0.3323737 0.42766008 -0.62260765 -0.63461405
000010 98 b5 dd be 7b 07 ef be b7 89 6a 3f 2d e4 67 bf
       -0.43302608 -0.46685395 0.91616386 -0.90582544
000020 48 7c 43 3e a3 00 f1 be 71 fc fd 3e 90 f8 46 3f
       0.19090378 -0.47070798 0.4960666 0.77723026
000030 fe 5f 64 3f fb be ed be 11 ef 5e 3f b9 92 1a bf
       0.8920897 -0.4643477 0.87083536 -0.6038013
000040 b7 39 ad be a3 44 5b 3f 92 00 50 3f 27 98 0d bf
       -0.33833095 0.85651606 0.8125087 -0.5531029
000050 5d a1 3e 3f bf a7 3f bf 05 80 c5 be b9 c4 2d bf
       0.7446497 -0.74865335 -0.38574234 -0.678783
000060 e8 d8 48 3f fd 60 e0 be d4 b0 51 3f 94 0a 6c 3f
       0.7845597 -0.43823996 0.81910443 0.9220364
000070 41 cf 4c bf e1 12 f4 be 33 3d ae 3f d6 d7 f9 be
       -0.80003744 -0.47670653 1.3612427 -0.48797482
000080 d8 20 e4 3e f0 8b 1a 3f 6a 27 84 3f f4 26 1e bf
       0.44556308 0.6036978 1.0324528 -0.6177819
000090 99 58 5f 3f 4d 38 58 3f 6b 80 e2 be 5f b8 73 3f
       0.87244564 0.8446091 -0.442386 0.952032
0000a0 32 d0 2e bf 35 f1 23 bf d7 71 02 3f b9 8a 6d 3f
       -0.6828643 -0.6403993 0.50954956 0.927898
0000b0 3a c8 4d 3f 20 db 0f bf 4c 80 56 3f 1b 36 33 3f
       0.80383646 -0.56193733 0.83789515 0.70004433
0000c0 e9 81 80 3f 15 48 65 3f cc 5e e1 be 93 bf 1b bf
       1.0039645 0.89563113 -0.44017637 -0.60839194
0000d0 90 b1 75 3f 2a 7c 50 3f 6e c2 52 3f 89 d7 21 bf
       0.95974064 0.8143946 0.82327926 -0.63219506
0000e0 67 31 33 bf 8a da 1f bf 1a 0a 46 3f d1 54 13 bf
       -0.69997257 -0.6244284 0.77359164 -0.57551295
0000f0 15 03 10 bf 8f f6 91 be b5 fc eb 3e f3 06 f3 be
       -0.562547 -0.28508422 0.46091238 -0.4746624

linear1.weight f4 [128, 34]
000000 b0 02 2a 3f 0c d3 cc bd 23 e6 3f 3f f4 72 75 bf
       0.6641035 -0.100011915 0.74960536 -0.9587853
000010 26 99 84 bf 24 cc f4 be ef 02 14 bf 4e 39 8c be
       -1.0359237 -0.47811997 -0.57816976 -0.2738747
000020 a0 40 7d bd 87 3d 5e 3e b9 df 77 3f b3 55 1b 3f
       -0.06182921 0.21703158 0.9682575 0.6067764
000030 08 58 a7 bd 71 01 95 3f 02 fc c3 bd a7 38 95 3e
       -0.081710875 1.1641065 -0.09569551 0.29144785
000040 25 94 16 3f e9 ac 07 c0 92 90 0e 3f b7 14 d8 3d
       0.588198 -2.1199286 0.55689347 0.10550826
000050 86 c8 b3 bd 05 99 e1 3e 8c f8 ea 3e 42 7c 3c bf
       -0.08778481 0.44062057 0.4589275 -0.736271
000060 bf 56 0d be 13 14 c3 be 8c a6 71 3f 75 96 4a c0
       -0.13802622 -0.38101253 0.94394755 -3.1654332
000070 ba fb 77 c0 19 b3 1b c0 ac c5 c9 be 10 4b 0a c0
       -3.8747392 -2.4328063 -0.39408624 -2.1608315
000080 48 f2 dd 3d dc 33 70 3c 1f 6e 0e 40 64 cf 21 3f
       0.10837227 0.014660802 2.2254713 0.6320708
000090 f2 27 29 bf ab 0d 9e 3f d0 12 68 bf 39 63 4e 3f
       -0.66076577 1.2347921 -0.90653706 0.8062015
0000a0 8c ec e0 3f 9f 2d f5 be 02 36 2e 40 bb bc e5 3f
       1.7572188 -0.4788637 2.7220464 1.7948221
0000b0 20 56 f3 3f 3d 94 81 bf be d4 94 3f f9 a5 d9 bf
       1.9010658 -1.0123364 1.1627424 -1.7003776
0000c0 7a 49 27 bf 32 8b eb be f3 85 ba bf 13 66 a3 3e
       -0.6534649 -0.46004635 -1.4572128 0.31913814
0000d0 27 57 82 bf 07 a7 f1 3b 2f 36 8f 3f 98 85 1e bf
       -1.0182847 0.0073746475 1.118841 -0.619226
0000e0 ce 84 bf bd ad 23 57 bf be 08 a1 be 32 62 1d 3f
       -0.09351502 -0.8403881 -0.31451982 0.6147796
0000f0 f7 df b6 bf 12 41 34 3d 81 05 fc c0 ca e1 f7 bf
       -1.4287099 0.04400737 -7.875672 -1.936578
000100 9b 96 a0 3e b3 6a c2 3c c6 56 54 3e 71 8f 89 3d
       0.31364903 0.023732519 0.20736226 0.067168124
000110 ab 48 b4 bd 09 d3 f7 3c 77 34 c7 bd f0 f0 c9 3f
       -0.08802923 0.030251997 -0.09726804 1.5776653
000120 8f e3 d3 bc 5a 04 f1 be 93 27 c6 bd 3a fc fd 3e
       -0.025865344 -0.47073632 -0.09675517 0.49606496
000130 de 54 ff 3e 55 cb db be 8e d4 9e 3e 45 d2 d7 3e
       0.49869436 -0.42928568 0.3102154 0.4215261
000140 13 9e d3 3e 36 77 86 3f cd 5c 2c 3f 72 44 d1 3f
       0.4133154 1.050513 0.673291 1.6349013
000150 a6 da a4 3f 30 74 2a 3f 36 89 3a bf 98 6a 12 bd
       1.2879226 0.6658354 -0.7286562 -0.035746187
000160 35 b7 b3 bf 6f f0 fd 3f 7a a7 9e 3f 02 70 93 c0
       -1.4040285 1.9839 1.239486 -4.607423
000170 1d b8 83 3e 1a 4d 7e 3e c4 a0 f3 be ec 48 f2 3e
       0.25726405 0.248341 -0.47583592 0.4732126
000180 8f ea 3f bf c4 1c 01 be d0 00 a8 bd 8a 79 8b bb
       -0.74967283 -0.1260863 -0.0820328 -0.004256432
000190 9d c9 04 be 02 98 b7 bc bd 06 fd 3f c3 5f 7e bf
       -0.12967534 -0.02241135 1.9767681 -0.9936487
0001a0 47 83 c0 3f 08 b8 36 bf 30 72 79 3f 52 7f 40 3f
       1.5040063 -0.7137456 0.9743986 0.75194275
0001b0 ca 1d 51 bf 56 26 e9 3e 01 11 67 bf 4c c6 65 bf
       -0.8168608 0.4553706 -0.9026032 -0.897557
0001c0 0b 44 ec 3e 08 f3 62 bf 77 62 7c 3c ae e6 16 bf
       0.46145663 -0.88652086 0.015404335 -0.5894574
0001d0 e4 65 05 c0 fc 3b 9d 3d 70 b0 9f bf fb 4b df be
       -2.084344 0.07677457 -1.247572 -0.43612656
0001e0 cb 3d db be 57 73 fc 3e 06 8b 8f 3e 82 52 51 bf
       -0.42820582 0.49306747 0.28035754 -0.8176652
0001f0 40 13 15 bf 0b 95 46 40 ac 45 0d 3f 88 39 96 3e
       -0.582325 3.1028469 0.55184436 0.29340768
000200 bd ef 58 bf ea e7 89 3f a2 77 f3 c0 ab 37 88 bf
       -0.8474081 1.07739 -7.6083536 -1.0641989
000210 8f 7e e8 3e df 53 89 be b9 cb 54 3d b3 b3 5d 3e
       0.45409057 -0.268218 0.051952098 0.21650581
000220 3d a7 36 3e 83 9f 7e 3f a5 c4 41 be 4d ba dd 3e
       0.17837234 0.99462146 -0.1892267 0.433062
000230 b7 58 c5 3e 62 e6 46 bf 48 c6 ac 3f c1 77 5a 3f
       0.38544247 -0.77695286 1.3498011 0.8533898
000240 18 2a be be a8 ee 1b 3e f7 c3 e8 3d 33 f6 25 be
       -0.3714149 0.15227759 0.11365502 -0.16207199
000250 37 c7 d3 3f 09 79 c1 3f ff fd ba bf 51 b2 ac 3f
       1.654517 1.5115062 -1.4608763 1.3491918
000260 b1 ac e9 bc dd 2d b4 3e b2 ec a4 bd 90 88 69 bf
       -0.028524728 0.3519124 -0.080529585 -0.91224
000270 ff 7a 07 c0 23 41 a5 bf a4 5e c6 bf b9 21 c9 bf
       -2.116882 -1.2910503 -1.5497632 -1.5713416
000280 70 03 93 be 66 63 1c 3e 74 91 4a 40 43 44 4f 3f
       -0.2871356 0.15272292 3.1651278 0.80963534
000290 7b 34 4c 40 cb 48 19 c0 b2 5b 3c 3e 58 4a 46 bc
       3.1907032 -2.395068 0.18394354 -0.012102686
0002a0 9a 2a 24 3d a1 a0 83 3c 45 31 09 bf 9e 98 97 3c
       0.04007969 0.016067805 -0.53590804 0.01850539
0002b0 c7 32 d0 bf 2e 97 71 3f 58 0d a8 bd 73 88 d4 3d
       -1.6265496 0.94371307 -0.0820567 0.10377588
0002c0 c3 7d d2 3f cc af 52 3f b3 8e 8a 3f 33 1d 4c 3f
       1.644463 0.82299495 1.0824798 0.79732054
0002d0 87 0e fe bd d0 a4 de 3e 94 d3 99 ba 1e bf bf be
       -0.124051146 0.43485117 -0.0011736029 -0.37450498
0002e0 e4 21 6d be ff 3c a7 bf d4 e2 4c 3f 37 97 a2 bf
       -0.2315746 -1.306549 0.8003361 -1.2702397
0002f0 2a fd dc be b0 2b 9c bd 78 da 1c bf ce 03 8f be
       -0.431619 -0.0762552 -0.61270857 -0.2793259
000300 fd 14 10 bf 87 9f f6 bc 69 9a a9 be 0a c3 44 be
       -0.56282026 -0.030105365 -0.33125618 -0.19215026
000310 fc d2 bf 40 71 56 4e c0 f1 29 4d c0 78 32 85 be
       5.994505 -3.224026 -3.205685 -0.26015067
000320 d6 1d fe 3e 69 b7 48 3e 5e 53 70 be 54 12 de be
       0.49632138 0.19601215 -0.23469302 -0.43373358
000330 8a a6 28 3f 59 38 7a bf e3 4e 69 3f 7b 93 26 bf
       0.6587912 -0.9774223 0.91135997 -0.6506879
000340 7f 90 90 3d 34 00 19 bf c4 9e 5c 40 5d 2b 88 40
       0.070588104 -0.59765935 3.4471903 4.2552934
000350 e8 44 88 40 48 59 8c bf a3 cb c6 3f b1 5b 04 40
       4.2584114 -1.0964746 1.5530895 2.0680964
000360 23 49 ac bd ba 8b 02 be 68 f2 33 bf 65 29 b4 be
       -0.08412387 -0.12748614 -0.7029176 -0.35187832
000370 88 33 4d bf 18 1b 07 bf d2 ce 21 be 0c 62 84 3e
       -0.80156755 -0.52775717 -0.15801552 0.25856054
000380 9f 2c dd be 2e be ca 3e 24 b9 3c 3e ea a7 40 3e
       -0.43198106 0.3959822 0.1843 0.18814054
000390 97 5e 5c be e7 03 ca bd e6 57 79 bf 70 6d aa bd
       -0.21520458 -0.098640256 -0.9739975 -0.08321655
0003a0 51 e2 9e c0 05 16 0b c0 6f 31 02 3c 73 41 7a 3d
       -4.9651265 -2.173219 0.007946356 0.061097573
0003b0 14 27 34 3e 03 45 50 3e 92 d6 79 bf ae 81 8e 3e
       0.17593032 0.20338826 -0.97593033 0.27833313
0003c0 90 95 d5 3f 73 13 d9 3f 6a 1a ca be cb b2 82 be
       1.6686268 1.695906 -0.39473277 -0.25527033
0003d0 1c fb 52 bf 84 43 b1 bf fc 85 25 c0 6b 12 ea bf
       -0.8241441 -1.3848729 -2.5863028 -1.8286871
0003e0 14 79 41 c0 52 d1 36 3f 06 81 f5 be 5b 57 f6 3f
       -3.023015 0.7141315 -0.4795 1.9245409
0003f0 49 26 0b bf 92 22 50 be 11 fd 76 bf a1 b5 ef 3e
       -0.54355294 -0.20325688 -0.964799 0.4681826

linear1.bias f4 [128]
000000 19 0a 15 3f aa ad 8a 3f 99 5d d7 be 9a d8 60 3e
       0.5821853 1.0834248 -0.42063597 0.21957627
000010 c9 e9 e2 be d7 27 f0 bc 1a 09 bb 3f d7 3f 96 3d
       -0.4431899 -0.029315872 1.4612153 0.07336395
000020 09 bb d3 be 65 0e d6 bd be 5c 5f be de 8e f4 3f
       -0.41353634 -0.10451964 -0.21812722 1.91061
000030 ef 61 f0 bf 6b 13 e1 3f 27 22 9f be c8 0d 60 bf
       -1.8779887 1.7584051 -0.31080744 -0.8752103
000040 f9 d5 02 40 a3 01 45 bd 29 c4 65 bf e2 9d e5 be
       2.0443099 -0.048097264 -0.8975244 -0.44847018
000050 27 1c f1 3e 7c b5 f0 bd 4e 24 12 bf fa 96 1e 3d
       0.4709179 -0.117533654 -0.57086647 0.0387182
000060 4c f6 64 bf 96 6c 2c bf 0d b2 6b bd d2 16 70 bf
       -0.8943832 -0.6735319 -0.05754285 -0.9378482
000070 4f 79 57 40 79 37 bd 3f 02 a3 03 3f c4 7e 83 be
       3.366779 1.4782554 0.51420605 -0.25682652
000080 ae 7c d9 bd 53 6a b5 be 7b 0a 51 3f f5 f6 ff bd
       -0.10619484 -0.3543268 0.81656617 -0.12498275
000090 e5 f0 34 3f 15 26 d1 3e 6b 36 0e 3d 0a 94 5a be
       0.70680076 0.40849367 0.034719866 -0.21345535
0000a0 d1 8b de 3f b7 ae a5 3f d1 aa eb be 07 e6 10 3f
       1.7386419 1.2943944 -0.4602876 0.56600994
0000b0 4b 57 bd 3f e8 84 02 c0 63 74 3a bd e3 8f 07 3f
       1.4792265 -2.039362 -0.04552115 0.5295393
0000c0 cb c4 43 bf be 8d 5c 3f 41 4e ee 3e 35 c3 93 be
       -0.7647216 0.8615378 0.46544078 -0.2885987
0000d0 99 7f b4 3d 25 c1 96 3f ec bf 88 3f 47 a7 89 3f
       0.088134 1.1777693 1.068357 1.0754174
0000e0 d4 e1 16 c0 bc ab 57 bf 2a b9 e5 3e 16 35 86 3f
       -2.3575335 -0.8424642 0.4486783 1.048495
0000f0 13 09 0b 3e 0c a3 a4 3f 0f 7c 79 3f 25 cc 4f 3e
       0.1357768 1.2862258 0.97454923 0.20292719
000100 a8 42 87 bd ef 9c a9 be ce 36 27 bf 36 b1 2a 3e
       -0.066045105 -0.33127543 -0.65318 0.16669163
000110 36 66 24 3f 0f 1d cb bc 6a bd 5f 3f 20 8d 86 3e
       0.6421846 -0.02479413 0.873984 0.26279545
000120 0b a2 18 3d 8b 3d a0 be 6c ef 47 bf 8d 5d 81 bf
       0.03726391 -0.31296954 -0.78099704 -1.0106674
000130 19 23 a1 be 57 4f 25 bf 3d 2a c7 bf 47 95 f0 bf
       -0.3147209 -0.6457419 -1.5559765 -1.8795556
000140 04 fc d2 3e bf e6 51 3f fc 31 43 bf 83 e9 64 be
       0.41207898 0.81992716 -0.76248145 -0.22354703
000150 c2 39 33 3f da ce 5b 3f 51 1f 8b bf 63 c5 59 3e
       0.70010006 0.85862505 -1.0868932 0.21266703
000160 ef 33 46 3f 22 5a be 3f 43 2d 0e 3f 3f d1 4f 3f
       0.77422994 1.4871256 0.55537814 0.8117866
000170 cc e8 32 be c0 5c d7 bf 9c 69 4c 3f 08 b2 5f 3f
       -0.17471617 -1.682518 0.7984865 0.8738103
000180 0d 54 21 bf 45 cd f5 be c1 b2 90 bf 58 8a 58 3d
       -0.63018876 -0.4800817 -1.1304551 0.05286631
000190 00 f0 9a be 8d f0 63 3f 2e e5 8a bf f8 29 17 bf
       -0.3026123 0.89038926 -1.085119 -0.59048414
0001a0 b6 02 bf 3f f5 4e 95 be f5 02 04 3e de f4 70 3f
       1.4922702 -0.29161802 0.12891753 0.9412364
0001b0 78 c1 f7 3e 65 89 47 bf 12 74 9b 3f 12 71 f3 bd
       0.48389792 -0.7794402 1.2144797 -0.11886801
0001c0 bb f1 97 be 5b 54 13 bf 1c b5 1f bd 51 e1 18 bf
       -0.29676613 -0.5755059 -0.03899108 -0.59718806
0001d0 24 f5 97 bf fd a1 21 be 11 95 a7 3e 5d c3 9a 3f
       -1.1871686 -0.1578445 0.32730916 1.209087
0001e0 dc 10 9f 3f a1 5d 7d 3e 2e 86 8d 3f b6 a2 09 40
       1.242702 0.24742748 1.1056573 2.150556
0001f0 fe f8 a1 bd 1a e5 b7 bd 2c bd 97 3f 34 cd ff be
       -0.079088196 -0.089792445 1.1854606 -0.49961245

linear2.weight f4 [128, 128]
000000 da d9 bb bb 97 0d 75 bf 56 fe cb 3e b6 d0 96 3f
       -0.005732757 -0.9572386 0.3984248 1.1782444
000010 bc 0c ed 3c 13 ab 82 be 7d 36 2f 3f c0 09 1f bf
       0.028936736 -0.25521144 0.6844252 -0.6212425
000020 c3 9c 7d 3f ce 95 bb 3e eb d2 6c 3f a5 47 b3 be
       0.99067324 0.3663773 0.92509335 -0.35015598
000030 d5 0b 62 be d8 d4 24 bf ab 1c 31 3f a6 94 b7 bf
       -0.22074826 -0.64387274 0.6918437 -1.4342239
000040 dc d9 ee bd 60 c2 41 3f aa 03 fb be 6c 29 af bf
       -0.11662647 0.7568722 -0.49026233 -1.3684516
000050 11 57 61 3f 1b e6 6d 3f 58 a0 81 3f 88 f6 3d 3f
       0.8802348 0.9292924 1.0127058 0.742043
000060 6b 2b 9a bf ef ea 01 be 08 a8 38 3f cc e9 a8 3f
       -1.20445 -0.12687276 0.72131395 1.3196349
000070 5b bb 1c bc 19 74 89 3e 62 9a c8 3e 46 74 df 3e
       -0.009566153 0.26846388 0.39180285 0.43643397
000080 42 d5 87 be 93 2a 94 3f 87 da 81 3f eb da c9 3f
       -0.2652989 1.1575493 1.0144814 1.5769933
000090 fe 7b f8 bd 37 7a 31 bf 7a fc 4a 3f c5 c8 6b 3f
       -0.12133025 -0.6932711 0.792915 0.92103225
0000a0 70 82 49 3e 53 58 94 bf a9 19 80 bf 87 35 28 c0
       0.19678664 -1.1589454 -1.0007831 -2.628267
0000b0 da 1e cb bd ed a2 95 3f 57 f1 9c bf 55 c6 1e c0
       -0.09917994 1.1690346 -1.2261151 -2.4808552
0000c0 a7 46 c6 bc c2 7b fa be cf da 1b 3f 13 28 33 3f
       -0.024203612 -0.48922545 0.6088075 0.69983023
0000d0 d2 c5 b1 3e e3 76 cf 3e c1 d6 ba 3e 9a 24 3f bd
       0.34721237 0.4052039 0.3649197 -0.046665765
0000e0 41 68 0a bd 12 53 c0 be 52 92 35 bc 73 b2 94 bf
       -0.03379083 -0.37563378 -0.011082249 -1.1616958
0000f0 c5 4e 23 be b5 6c 8d bf 20 83 90 be 8c 5c bb 3f
       -0.15948017 -1.10488 -0.2822504 1.4637618
000100 21 ae 83 bf cc 44 e3 bf d0 2b 72 3e e4 ae 83 bf
       -1.0287515 -1.775537 0.23649526 -1.0287747
000110 0a 9f 95 bc b3 61 49 bf 0b 44 8c bf f8 66 d6 3e
       -0.018264312 -0.786647 -1.0958265 0.41875434
000120 7e 0e af bf d2 72 1f 3f 76 85 1c 3f 9d df c0 be
       -1.3676298 0.62284577 0.61141145 -0.37670603
000130 57 51 c1 be 01 c8 69 3d b7 26 56 bf fd 80 fe 3d
       -0.3775737 0.057075504 -0.83652824 0.12426946
000140 f3 88 1e 3e 7f 9c 87 bf b4 1f 90 bf a1 f1 84 3e
       0.1548193 -1.0594634 -1.1259675 0.25965598
000150 54 6d 10 3f ee 47 f0 bf e0 4c ab bf c1 12 49 3f
       0.5641682 -1.8771951 -1.3382835 0.7854424
000160 a8 38 c3 bf 93 91 8a bf f4 a5 c3 3e 0a 15 8c be
       -1.5251665 -1.0825676 0.3821255 -0.27359802
000170 3a b6 85 3f cd 4f 26 be 35 1b c3 bf d5 96 bb bf
       1.0446236 -0.16241379 -1.5242678 -1.4655405
000180 b6 c4 94 3d 1c ba 5e 3f 3b f1 59 bf 59 41 85 3f
       0.07264082 0.8700273 -0.85133713 1.0410568
000190 63 16 03 c0 b9 6f 8d bf f8 49 4d bf ba fe 81 be
       -2.0482414 -1.104972 -0.8019099 -0.25389653
0001a0 d6 83 f4 3e 39 f8 72 3e 85 f8 27 bb 7e c5 9d bf
       0.47756833 0.23727502 -0.0025630307 -1.2325895
0001b0 0b 7f 7b 3f 3e 47 59 3f cf 39 f3 be 7b 21 9f 3e
       0.9824073 0.8487433 -0.47505042 0.3108023
0001c0 98 98 b3 be 04 71 34 3f 3b 72 a5 3e 05 56 f9 bf
       -0.35077357 0.7048495 0.32313713 -1.9479376
0001d0 46 1f 77 bf 8e 95 81 3f da 3f b5 bf 25 ee a5 bd
       -0.96532094 1.0123765 -1.4160111 -0.08102063
0001e0 f0 82 82 3e 36 c3 0c 3f 99 3d 11 3f 4c b4 27 bf
       0.25490522 0.5498537 0.56734616 -0.65509486
0001f0 76 d0 2b 3f e0 0f a3 be 0a a7 84 3e b8 45 f9 bf
       0.6711496 -0.3184805 0.2590869 -1.9474401
000200 7b 3a 96 3e df c4 6c 3f c7 8e 31 bf bd 06 0b 3f
       0.29341492 0.924879 -0.69358486 0.54307157
000210 17 f0 16 bf 72 d6 bb bf 3c a1 e8 3e a9 3f 84 be
       -0.589601 -1.4674819 0.45435512 -0.2582982
000220 40 9b 62 3e 32 af 9d bd 78 51 a7 3e 51 9c 8a be
       0.22129536 -0.076994315 0.32679343 -0.27072385
000230 a5 5b 0f 3f f8 d7 16 3e 65 46 b6 be b9 5d 48 be
       0.55999213 0.14730823 -0.35600582 -0.19567002
000240 ea ce a3 bf 0f fe 18 bf c2 65 a3 bf a6 4a b5 3e
       -1.279752 -0.5976266 -1.2765429 0.35408515
000250 d5 03 01 3f e0 e7 2d bf 68 a1 f2 be 7d 08 f7 be
       0.5039647 -0.6793194 -0.47388768 -0.48248664
000260 9d e2 20 be 0d a4 06 be 61 71 6f bf 91 7a d8 be
       -0.15711446 -0.13148518 -0.9353238 -0.4228101
000270 fb d4 18 3e a0 cd 15 bf 4e 4c 36 be f8 df a2 3e
       0.14924996 -0.58516884 -0.17802545 0.318115
000280 2f 44 ed be 3b 35 03 3f 38 92 74 3e be a2 a0 3e
       -0.46341082 0.512531 0.23883903 0.31374162
000290 97 9d 2a bf f4 6a 09 bf 9f 46 18 be 29 38 3f 3e
       -0.66646713 -0.5367882 -0.1487069 0.18673767
0002a0 c1 76 34 bd 68 f7 ad be 44 cb 4b 3f a9 b6 87 3d
       -0.044058565 -0.33977818 0.79607034 0.066266365
0002b0 15 d3 28 3f 7e 30 9d 3d 0d 35 08 bd 21 93 d9 3e
       0.65947086 0.07675265 -0.03325372 0.42495063
0002c0 69 ce 30 be 64 eb 10 3f 3a 94 98 bf 8b 04 1b bf
       -0.17266239 0.5660918 -1.1920235 -0.6055381
0002d0 09 7b d2 be 97 a5 84 bf ec 98 45 bf 6c 8d 7f 3e
       -0.41109493 -1.0363034 -0.77186465 0.24956292
0002e0 03 a1 5b bf 08 36 0f bf 7c 9b 1a bf b5 cc a0 be
       -0.8579256 -0.5594182 -0.603935 -0.3140618
0002f0 65 ec 34 3e fd 95 71 bf 6b b7 85 bf 76 a5 6d bf
       0.17668302 -0.9436949 -1.04466 -0.928306
000300 b6 04 b5 be 17 91 c6 be d2 2b 1c be a6 69 c4 bf
       -0.35355157 -0.3878257 -0.15251091 -1.5344741
000310 ed 27 89 bf 21 b2 9a 3e 4c ca 52 be 76 0e 86 bf
       -1.0715309 0.30214027 -0.20584983 -1.0473163
000320 0b 38 04 bf 14 0b 0f bf 92 ce 32 be f5 7b 8a 3f
       -0.51648015 -0.5587628 -0.17461613 1.0819079
000330 fe b0 b0 be f6 37 d4 be fb f8 85 bf 35 3a f9 be
       -0.34510034 -0.41448945 -1.0466608 -0.4867722
000340 3c bb c8 3f d4 3a 3f 3f a4 d8 8c bf 6e 42 bb be
       1.5682139 0.7469914 -1.1003613 -0.3657412
000350 32 67 68 3f 54 1c c9 3f 5d 7d bf be f4 01 00 bf
       0.90782464 1.571177 -0.37400332 -0.5000298
000360 71 e8 0e bf e0 94 49 3d ab ca 64 be da 3c cb 3f
       -0.5582343 0.049214244 -0.22342937 1.5877945
000370 03 15 a4 bd 6e ee a4 3e 53 d3 7e 3e f6 ff 2a be
       -0.0801182 0.32213157 0.24885301 -0.16699204
000380 d2 90 d1 3e 0c 97 35 3f 11 00 90 bf d3 96 6b bd
       0.40930802 0.70933604 -1.125002 -0.057516884
000390 7e d2 95 3d dc ae 62 bf 05 98 80 3e 48 c4 a1 3f
       0.07315539 -0.88548064 0.25115982 1.2638025
0003a0 38 b8 06 bf 60 38 b6 bf 9a 0a bb bd 21 93 ab 3e
       -0.52624846 -1.4235954 -0.091328815 0.33510688
0003b0 ac 65 49 3f 31 5f aa 3d 89 22 9d 3e cb b1 dd bf
       0.78670764 0.083189376 0.3069041 -1.7319883
0003c0 e9 96 80 3e 71 f8 6f be fa fc 84 3f 19 2e 9a 3e
       0.25115135 -0.23434617 1.0389702 0.30113295
0003d0 07 3f 7b bf 3d 68 34 3f d6 01 7a 3e ec 45 01 3f
       -0.9814305 0.70471555 0.24414763 0.5049732
0003e0 8f cf 40 be ef 02 53 bf 3f a9 97 be dd 08 9d be
       -0.18829177 -0.8242635 -0.29621312 -0.30670825
0003f0 8f 20 d8 bf 59 26 01 bf 4a 9b 41 3f 7b 1b 51 3e
       -1.6884936 -0.5044914 0.7562758 0.20420639
