Data/Player1/checkpoint-rndTest14.pth (torch, 393621 bytes, 28 tensors)

linear1.weight f4 [128, 34]
00000000: 4fd3 44be a4b0 f23d 47b8 87be 9a13 66be
00000010: 9cf8 17be 2f5d a2bd 62ba d23c 7786 03bc
00000020: 297f 99bd f36a 833e bb45 233e 839a 9b3d
00000030: 457e bd3c e620 8cbd e679 05be 2a1e 60bb
00000040: 2314 a7bc 2aee 81bd 8039 88be 7cda 9fbe
00000050: 3c51 c0be 0745 14bf af0f d3bd 33b9 0abe
00000060: 0f21 b4bd 1d40 6c3d 3d2d 9abe 30dc 353e
00000070: 2b69 b63e 2f50 3abd 3277 0a3e cce8 2d3b
00000080: 36d0 dbbc 30f0 6b3d d589 2d3e 9c8f 993c
00000090: b025 ae3e 794f f63c 7038 2f3d 4175 36be
000000a0: 7874 aa3e b1c0 52bd 7d18 afbe 066a 1cbe
000000b0: b8ac 5dbe fdd6 193e a957 0cbe 2bf0 24be
000000c0: 41f8 6ebd 0713 85bb 176e 983e 8c51 8b3c
000000d0: 54f8 2cbc dd1d 8d3e f6ee fcbd 4b10 f1be
000000e0: 5ee8 613d 54c5 5f3e 290d 33bd 85bd 213e
000000f0: bbaa 6abe 9e42 343d cef3 623d e173 9cbe
00000100: bc07 09bd a891 443d 6f66 223d d271 63be
00000110: b38f ce3c 6ac6 28be 88b1 e53d 8146 4e3e
00000120: c4bd 263c 7c28 48be ad58 0c3e 6e27 8bbe
00000130: 5246 46be cefc 723d f510 173e d306 b83e
00000140: f063 063d a226 21be 02fe f63d f109 6e3c
00000150: 42b3 16bd 2ad3 48bd bac6 a6bd 7b76 4a3e
00000160: 415d 773c cd44 653e b8b6 cebc b20b 213e
00000170: fb4b 713d fd7b 713d 4112 b2bd bd7b 9e3e
00000180: 881d 15bf 8e4b 8abe e781 62bd f81a 4c3c
00000190: 7ce6 6b3c 82f1 a6bc 6140 0c3e 2639 b7bb
000001a0: 2082 e83d ddf1 8dbe 8843 8abe 70e5 a9be
000001b0: c9f0 c83e 23a2 c8bd 181c 01be 73c5 44bd
000001c0: 3911 02bf f11a 53bc 9f47 d43e d9df 7b3e
000001d0: 0563 6a3e 1d96 59be fab6 9abd df61 9fbd
000001e0: 41af 093e fa32 3dbd d54f 22be 9d78 9f3c
000001f0: f635 12bd 3819 eb3c 622c f13d 30d3 34bd
00000200: 8c05 3a3f ed9d 8b3e e8af a3be 1729 123e
00000210: eb6b b43d 6098 25bd ca2e 043e 036a abbe
00000220: a9e2 b93d 8fe4 d13d 4460 8bbe 240f 33be
00000230: 5c1a 5d3d 94c8 8fbe f6bc 7fbe c7d9 87be
00000240: 9aff 8abe 9efe 2cbe cec3 a6be 19ea 05be
00000250: 649e 0dbe faae 9e3d 5b24 4abd 7551 a2be
00000260: 3ed6 57be e0a7 67be 6562 bdbd 9141 fc3d
00000270: 81b7 9cbd db30 87be dba1 b33b 4b86 47be
00000280: 9494 1f3e 8f2d 4dbc 4403 83be 39e9 8fbc
00000290: 71ad 6b3e 1610 4dbe b2aa 9b3d 7fdc 10be
000002a0: 6ee2 44be 5349 a23d 3004 b03c c782 a23e
000002b0: 0c33 183f 13b6 a03d f03d 053f ddc7 95bc
000002c0: 84e1 96be bdd2 90be 696d 2fbd 46b3 463d
000002d0: c2cb 3fbd 7e61 b7bc fc20 4ebe 509a 29bf
000002e0: 7371 3e3d 535e 373d 5395 a33e 3c70 563e
000002f0: de19 c8bc 0500 7dbe 9001 8ebc 806c 8abe
00000300: 2567 0ebe 2e60 203e 3fd0 623e c039 593d
00000310: ba6b c9be b779 513e cb6c 94be 6cb5 2abe
00000320: 545e 023e fdf3 693d d79c 02be 36a9 c63d
00000330: 0274 31be e471 12be dc81 73bd 6dab 85be
00000340: 3a98 383e 13f5 843e 89ec e4bd 579f 063e
00000350: 9e19 e33d 8af9 5cbe 12d4 353e 70b2 dcbc
00000360: b269 aebb 2379 43be d35d bcbd b8fd 673e
00000370: 6b7a 053c a2e5 903d f11a 86be 2fd0 ecbd
00000380: c4f0 49be a59e 91bd dad5 143d 7298 7cbe
00000390: 0111 9a3d eb28 45be d380 e9be 1522 79be
000003a0: 3c99 b63d 68a3 f5bd 9178 443e 6c1f 323d
000003b0: 612e cbbd 9791 2c3d 5eb4 d53d fff6 babc
000003c0: ef57 bcbe 9d86 0d3e 5ad4 113f 73ad 4dbc
000003d0: 0ffb 5ebe 69d5 a93e d3be 89be 2aaa 12be
000003e0: ce92 123c 5efa 13be 2596 37be 3116 96bd
000003f0: 1df7 f4bd f854 43bd 4cdb c0bd 610a 393f
-0.19221233 0.11850098 -0.2650778 -0.22468415 -0.1484093 -0.079279296 0.02572364 -0.008027664
-0.07494957 0.25667533 0.15944569 0.0759783 0.023131499 -0.068422124 -0.13034782 -0.0034197667
-0.020395344 -0.06344254 -0.2660637 -0.31221378 -0.37561977 -0.5791783 -0.10305726 -0.1354721
-0.08795368 0.05767833 -0.3011264 0.17759776 0.35627112 -0.045486625 0.13522032 0.0026536463
-0.026832681 0.057602108 0.1694711 0.018745236 0.34013128 0.030067192 0.042778432 -0.17818166
0.33291984 -0.051453296 -0.3419837 -0.1527482 -0.21647918 0.15023418 -0.13705315 -0.16107242
-0.058342222 -0.004061106 0.29771492 0.017006658 -0.010557253 0.27561846 -0.12350266 -0.47082743
0.055153243 0.21852618 -0.043713722 0.15794952 -0.22916691 0.044008844 0.05540829 -0.3055716
-0.03345464 0.04799047 0.03964847 -0.22211388 0.025215006 -0.16481939 0.11215502 0.20144083
0.01017708 -0.19546694 0.13705702 -0.2717852 -0.19362763 0.059323125 0.14752562 0.35942706
0.03281015 -0.15737393 0.12060167 0.014528737 -0.036792047 -0.049029507 -0.08143373 0.19771759
0.015097917 0.22389527 -0.025233611 0.15727118 0.05891035 0.058956135 -0.08694888 0.3095378
-0.58248186 -0.2701077 -0.055299666 0.012457602 0.0143982135 -0.020378832 0.13696434 -0.0055915294
0.113529444 -0.2772359 -0.27004647 -0.3318286 0.39246204 -0.0979655 -0.12608373 -0.048039865
-0.5080753 -0.012884841 0.41460893 0.2459711 0.22889335 -0.2124867 -0.07554431 -0.07782339
0.1344576 -0.046191193 -0.15850766 0.019466693 -0.035695992 0.028698549 0.117760435 -0.044146717
0.72664714 0.27268925 -0.31970143 0.14273487 0.08809646 -0.04042852 0.12908474 -0.33479318
0.09076435 0.10248672 -0.27221882 -0.17486244 0.053980216 -0.28082716 -0.24974427 -0.26533338
-0.27148134 -0.16894004 -0.32571262 -0.13077582 -0.13829952 0.07748218 -0.049351078 -0.31702772
-0.2107782 -0.22622633 -0.09247283 0.12317193 -0.07652188 -0.2640446 0.005481941 -0.19484822
0.15584022 -0.012523069 -0.2558843 -0.017567264 0.23015381 -0.20025668 0.07600917 -0.14146613
-0.19227001 0.07924142 0.021486372 0.317404 0.5945289 0.07847228 0.52047634 -0.018283779
-0.2946893 -0.2828578 -0.04282895 0.048510812 -0.046825178 -0.022385355 -0.2012977 -0.6625109
0.046494912 0.04476769 0.31949863 0.20941252 -0.024426397 -0.24707039 -0.01733473 -0.27035904
-0.13906534 0.1566169 0.22149752 0.05303359 -0.3934 0.20456587 -0.28989252 -0.1667077
0.12731296 0.05711745 -0.12755142 0.09700243 -0.1732941 -0.14301258 -0.059450015 -0.2610735
0.1802682 0.25968227 -0.11177928 0.13146721 0.110888705 -0.21579567 0.1775668 -0.026940554
-0.0053226585 -0.19089179 -0.09197583 0.2265538 0.0081468625 0.07075049 -0.2619243 -0.11563145
-0.19720751 -0.07110337 0.036336757 -0.24667528 0.075227745 -0.1925389 -0.45606098 -0.24329408
0.08915946 -0.11994058 0.19186617 0.043486997 -0.099209554 0.042131033 0.10434793 -0.022822855
-0.36785838 0.13820882 0.5696465 -0.012553561 -0.21775459 0.33170632 -0.269034 -0.14322725
0.008946134 -0.14450976 -0.1792837 -0.073284514 -0.119611956 -0.047688454 -0.094168276 0.7228146

linear1.bias f4 [128]
00000000: 1a3f 44be c665 803e 81bb f43e 3372 8b3e
00000010: 09e6 a1bc 6452 423c b0c1 c7be 5200 6c3e
00000020: be33 e43e df62 7fbe 7a24 923d 4a8f ca3e
00000030: 2542 0bbe 17bc 9d3d 323a 533d a81e d93e
00000040: 4014 6dbe 1ede 97bd 91ff 093e f48c 42be
00000050: 82df 933d e61c a5bd 24e9 053d fe29 38be
00000060: e5c2 12bd 04a0 8b3e 7f2f 2a3e 3c35 3c3e
00000070: 09d0 0bbe 4b15 9d3d 9ce9 4b3c de34 123f
00000080: 2327 ba3c 51ad 483e e8ba 533e 3b9e 293e
00000090: 00d5 82bd 15ad 243d cdef 9a3e 5de0 13be
000000a0: baa9 08be a4e8 f43d c30f 81be 2f6b efbd
000000b0: 0633 3abe c71c e43e 1110 0e3e 67de a83e
000000c0: c18d 903e 735b 8b3e 2cde 79b7 1a77 053d
000000d0: d66a 4bbc c04a 173e a9f0 ad3e 1ce1 163e
000000e0: 2c3b 95bc e487 283e e640 c7be 810d 69be
000000f0: bc55 03be ae63 9c3d c7bd e33e 0ae8 463e
00000100: b7d2 563d 7570 f0be 2e4e be3e 721b 843e
00000110: 2ed4 05be bb69 7e3e d58d a0bd 849b 1bbe
00000120: 5402 1a3f b70e 6fbe 9a0c 51be 6bb6 863e
00000130: 38d3 bbbe ca92 75be ac4f 5a3e 5cd6 0d3f
00000140: 72d2 df3d 763c 42be fb02 b0bd f26b 253e
00000150: 2961 cdbd b570 26be 4a47 443d 08b8 c83e
00000160: 6835 3bbe 2edf 9b3e 42de 7abe 4e29 8c3e
00000170: 581d 9c3e 68f8 9e3d 2da7 7dbd 32ff 0b3e
00000180: a0df 1d3e c18e a43d 5e76 52bd b805 e43d
00000190: 0bdd 663e 055c 49bd b585 fbbd ed60 be3e
000001a0: d376 263f a2c6 19be 5f96 2abe 2a3c e73c
000001b0: 0557 debd 2f94 963e ef54 213e 90af 323e
000001c0: 9243 41be d63b a4be efb2 dd3d f808 693e
000001d0: c661 8a3e 89b6 443f 6d7d bbbd fb38 d23e
000001e0: c5cf aebd e5b1 ebbd 8d1d 263e 9744 09be
000001f0: 8c6c c3be cc61 70bd 3f5e d7bd 0529 983e
-0.19164696 0.25077647 0.47799304 0.27235565 -0.01976301 0.011860464 -0.3901496 0.23046997
0.44570726 -0.2494006 0.071358636 0.39562446 -0.13599451 0.07701891 0.05156917 0.424062
-0.23152256 -0.07415412 0.13476397 -0.18999082 0.07220365 -0.080621526 0.032693043 -0.17984769
-0.035830397 0.2727052 0.16619681 0.18379682 -0.13653578 0.07670077 0.0124458335 0.5711192
0.02272374 0.19597365 0.20676768 0.16564266 -0.06388283 0.040204126 0.30261078 -0.14441057
-0.13345996 0.11958435 -0.25207338 -0.116903655 -0.18183526 0.44553205 0.13873316 0.3298218
0.2823315 0.27218208 -1.4893285e-05 0.032584287 -0.012415608 0.14774609 0.33972672 0.1473431
-0.018216692 0.16458088 -0.389167 -0.22759058 -0.12825674 0.076362 0.44480726 0.19424453
0.052447047 -0.46960798 0.3716902 0.2580219 -0.13069221 0.2484502 -0.07839552 -0.15196043
0.601598 -0.23345457 -0.20414963 0.2631105 -0.36684585 -0.23981777 0.21319455 0.5540521
0.10928811 -0.18968377 -0.085943185 0.16154459 -0.100282975 -0.16253932 0.04791955 0.39202905
-0.18282092 0.3044371 -0.24498847 0.27375263 0.30491138 0.077622235 -0.06192701 0.13671568
0.15417337 0.08035041 -0.051382415 0.11133903 0.22545259 -0.049160022 -0.12281362 0.37183324
0.6502506 -0.15017179 -0.16658925 0.02822693 -0.108564414 0.2940993 0.15755056 0.17449784
-0.18873432 -0.320769 0.108251445 0.22757328 0.2702772 0.76841027 -0.091547824 0.41059098
-0.08535723 -0.1150854 0.1622221 -0.13405071 -0.38168752 -0.058687016 -0.10516023 0.29718795

linear2.weight f4 [128, 128]
00000000: 90a8 a2bd 3b9f f0bd be6a ce3d 2330 283e
00000010: 6991 1abe 56dd 70bd 616e c63d 22d4 5b3d
00000020: 919f fdbd ecff 833d 4246 39be 4c2d b4bd
00000030: 3f97 b8be 5c7e 6c3c b237 86bd 4aae 68be
00000040: db4a ec3d fe50 c9bd d244 08be 4945 b9be
00000050: 5719 d83e 72be ef3d 027d 8a3e 601d 5cbd
00000060: 7d0c aebd 2f95 853e 9029 103d 702d 263e
00000070: 3e02 003e 3459 3dbd 719d dbbd 8b7c 9f3e
00000080: ad6e 91bd db1a 853d 00b4 99bd ffcc 0abe
00000090: d763 f0bd 1246 973e 5dac 373d 0e0e ab3d
000000a0: 7827 813e cc89 243e 924f 7d3d 57ba 1f3d
000000b0: a735 35be 2349 2bbe 36fa cd3d af61 6c3e
000000c0: 7a08 32bd ed0f 233d 43bd c63c a5a7 f4bd
000000d0: eab6 c13b f0a3 253d 10cd 203e cd3a 70bb
000000e0: c435 c03d 17de 793d 5fed edbc a2e9 6c3c
000000f0: da74 6abe ce28 17be f203 6b3d 3a0a 003e
00000100: 7eb6 a2bd c4e6 e2be 1193 60be 2ee0 66bb
00000110: 58fb 823e 4bf6 063e 3ea5 ebbd f3e9 38be
00000120: b0d1 893e ed94 0a3c 87aa d2bd 8265 8ebd
00000130: 49b4 c1bd 94dd 8abe 6484 c53c 4503 923d
00000140: 26c9 bc3d d1bc 783c cee8 f03d 5bce 613e
00000150: 17bb 2f3c c51d 9d3d 98bd 813c e2fc f53d
00000160: 77d7 bfbd 96ed fc3d f4a3 e0bc 250a d03d
00000170: 7bb5 a03d 7cf3 6d3e 7f1f 15be eed5 9d3d
00000180: 266c f6bd 3b3c 4ebd bd8c c43c dac9 153e
00000190: 7a96 69bd ddd8 e5bd bbf2 2cbe 44d4 09bc
000001a0: ffd4 973e ebb1 25be 70c9 14be 0fae ca3d
000001b0: adbf 92be ab06 1f3c 25c1 7c3e cf92 bcbe
000001c0: 1d10 86be dabc bcbe f14b 26be cbe3 90bd
000001d0: 833a 103e 77b5 a93e 7b94 60bd f7e9 773d
000001e0: c666 eabd f6b5 49be 7f94 a23d 1794 d63d
000001f0: 6a53 37be bfe4 ddbd 6000 8ebc a6e4 a7bc
00000200: edb0 29be c85b 123e 4ae4 ac3d c52a 7c3e
00000210: b227 d2be 8f5c fbbc 1687 b3be 17c2 6a3e
00000220: f27e 4d3e d827 2b3e 534b 2d3c 6400 953e
00000230: 95ae 3bbe ebc7 27bc b251 783d 16a9 8e3e
00000240: 8ca8 173e 5e1c aabd 7710 19be c243 803e
00000250: 0dc6 beba 3a21 b6bd 1d47 ad3d a6cb efbd
00000260: e1a7 7bbe 3271 bd3b b027 8fbd 8a8c 203d
00000270: 8fe1 6bbe e994 323e 932a 163d 258a 82bd
00000280: 686a fd3d 187a 843d 90b8 42be 0589 f9bd
00000290: fb20 33be 6e77 57be dc81 783d 2907 ac3c
000002a0: bd75 0cbf dcad dc3c 086c aebe 416d aabe
000002b0: f407 53be c88e a63c bf1a edbe 01e3 d13e
000002c0: 6384 cabe 0f70 73bd fb94 b3bd de43 a73c
000002d0: 7a95 74be bfa1 093d 23ac 6abe 00e3 dd3d
000002e0: 5ab8 e0bd 84af 473e 9cd6 8c3d 17bb 89be
000002f0: 16e6 e93c 74b2 86be e100 9d3e 0283 6cbd
00000300: 909b 8c3d 9160 9ebd cfcc 093d 15aa b8bd
00000310: d679 8d3d 1eb8 553e 9350 2b3e 950e a0be
00000320: a727 953e d1da 2e3e e13b 7bbd e31b c73d
00000330: 3052 01be 4572 b03d ec99 683d 1f7f 213d
00000340: 2389 463c 6bf4 0bbe 0adc 35be 6c08 943d
00000350: 3934 f6be f0ce 0c3e a398 eabd f666 573b
00000360: 8a85 bcbc 4e43 a13c 5cf7 1f3d cea8 12be
00000370: ccd5 dd3d 64f7 373e cf71 b93c f22f 243d
00000380: 06db 703e da01 37be 1c8d d5bd 6754 cbbb
00000390: 886c 82be a20c 08be 3cbd 693e 9514 edbd
000003a0: dba4 013e 193c 55bc 79c4 4a3d 617a 92bc
000003b0: aa08 9cbd 2e7d 853e 3201 38be 3f75 b9bd
000003c0: 519d aebe 32ca 573c f838 d83c 61af dfbd
000003d0: 7235 a33d 511d e33d 26a0 3bbe 90c6 0b3c
000003e0: 0e5c dbbc bac2 23be fbd0 aa3c 3a16 babd
000003f0: 76f5 4c3c f4ec ee3d 1548 cd3e e4de 453e
-0.07942307 -0.11749121 0.10078953 0.16424613 -0.15094532 -0.058804832 0.09689022 0.053669102
-0.123839505 0.064452976 -0.18093207 -0.08797702 -0.36052892 0.014434423 -0.06553592 -0.22722736
0.11537715 -0.09829901 -0.13307503 -0.36185673 0.42206833 0.117062464 0.27048498 -0.05373895
-0.08498476 0.2609038 0.035195887 0.1622827 0.12500855 -0.04622765 -0.10723389 0.31149706
-0.07101188 0.06499263 -0.075050354 -0.13554762 -0.11737793 0.29545647 0.044842113 0.0835229
0.25225425 0.1606819 0.061843462 0.038996067 -0.17696248 -0.16727118 0.100574896 0.23084138
-0.043465115 0.03981011 0.024260169 -0.11946038 0.0059116976 0.040439546 0.15703225 -0.0036656142
0.09385255 0.061002817 -0.029043851 0.014459999 -0.22896138 -0.1476166 0.05737681 0.12503901
-0.07944964 -0.44316685 -0.21931101 -0.0035228836 0.25582385 0.13179891 -0.11506127 -0.18057995
0.2691779 0.008458358 -0.10286432 -0.06952955 -0.09458215 -0.27122176 0.02411098 0.0712953
0.092180535 0.015181736 0.11763154 0.22051375 0.010725758 0.07671694 0.015837476 0.12011124
-0.093672685 0.123500034 -0.027421929 0.10158185 0.07847115 0.23237413 -0.14562796 0.077068195
-0.120323464 -0.05035041 0.02399289 0.14627782 -0.05702827 -0.11223004 -0.1688947 -0.0084124245
0.2965469 -0.16181152 -0.14529967 0.0989648 -0.28661862 0.00970618 0.24683054 -0.36830756
-0.26184168 -0.36862832 -0.16239907 -0.07074698 0.1408482 0.3314626 -0.054829102 0.06052586
-0.11445384 -0.19698319 0.0793848 0.10477465 -0.17902914 -0.108346455 -0.017334163 -0.02049477
-0.16571398 0.14292824 0.0844198 0.2462569 -0.4104591 -0.030683784 -0.35064 0.22925602
0.20067957 0.16714418 0.010577041 0.2910186 -0.18328317 -0.010240535 0.060624786 0.27863377
0.1481039 -0.08306192 -0.14947687 0.25051695 -0.0014554873 -0.08893056 0.084608294 -0.11708765
-0.2457576 0.005781316 -0.06989992 0.03919653 -0.23035263 0.17439617 0.036661696 -0.06374005
0.12373811 0.064686 -0.19015718 -0.121843375 -0.1749305 -0.21041653 0.06067072 0.020999508
-0.54867154 0.026938371 -0.34066796 -0.3328648 -0.20608503 0.020331755 -0.46309468 0.40993503
-0.39554128 -0.05943304 -0.0876865 0.020418104 -0.23885146 0.03360152 -0.22917227 0.108343124
-0.10972662 0.19500548 0.06876871 -0.2690055 0.028552096 -0.26308024 0.30664733 -0.057742126
0.06865609 -0.07733262 0.033642586 -0.090168156 0.06908004 0.20871016 0.16729955 -0.31261125
0.29131815 0.1707566 -0.0613364 0.09722116 -0.12629008 0.08615545 0.056787416 0.039427873
0.012117657 -0.13667457 -0.1775972 0.07228169 -0.48086718 0.13750815 -0.114548944 0.0032867766
-0.023012895 0.019685414 0.03905426 -0.14322206 0.10831794 0.17965466 0.022637276 0.040084787
0.23521051 -0.178718 -0.10427305 -0.00620513 -0.25473428 -0.13286069 0.22826093 -0.11576191
0.12660544 -0.013014817 0.049503777 -0.01788062 -0.0761884 0.26072067 -0.17969206 -0.09055566
-0.34104398 0.013170766 0.026394352 -0.10922123 0.07969178 0.11089576 -0.1832281 0.008531228
-0.026777294 -0.15992251 0.020851603 -0.09086271 0.012509694 0.11666289 0.40094057 0.19323307

linear2.bias f4 [128]
00000000: f81c ef3e 2321 55be f3ae 7fbb 2958 023f
00000010: 1a53 89bd 376b 37be cdfa 443e 2cab 163f
00000020: 9bfc b1be 887b f03d 10f9 cc3e a358 053f
00000030: 5c27 43be c031 6d3c 6181 bfbb 4a20 a8be
00000040: 7bde 133d 81b1 163f eb1b f53d f2be 30bd
00000050: c806 72bd 35af f4ba 9745 a33d 3d7d 1e3e
00000060: 56c9 a5be 5581 d93d 5640 0d3d 1b77 dc3d
00000070: e0d1 70be 739f 86be 549c 90be bfb4 f03e
00000080: 220e d43e e203 6fbe 007a ccbd 7e8c 76be
00000090: 859f 7bbe 4648 a6be 468a 743e 8a1f 1dbe
000000a0: 38fa a9be 98d7 42be b788 9b3e aee6 803e
000000b0: 7c99 4abd b475 c8bd 17fc 723e 1717 12be
000000c0: 6757 733d 162b 7c3e e337 713d feee de3d
000000d0: 12ad b73d 55e7 7abe 6e2b dd3e 43f5 ecbd
000000e0: e419 60be 56fe 1ebe 1ba6 14be 74b7 94bd
000000f0: 8c7a 6bbd bb82 a13e 1923 183e 7a3f b33e
00000100: 4478 a8be 717d 24be 87ca ee3e c5d6 bf3e
00000110: 58a5 9dbe 97c8 cf3e 11e5 9c3e a8f0 4abd
00000120: 837e 3d3e a02c c83e 24ad de3e 3a9d dc3e
00000130: 8493 893d 3262 c0be f8cf 31bc 2bd7 773e
00000140: 8e58 34be 5474 fc3e a920 86be 7b2b 0abe
00000150: 177d 74be 994b 5dbe 8d9e 493d e172 173e
00000160: befc 1a3e eca2 72bd 7e86 703d de5e a8be
00000170: 9460 9f3d f5b2 fabe 834d 283d a663 ae3e
00000180: ef76 b0bc 2f52 153e 4dc8 b8be 4032 b73e
00000190: 177d 703c f8ea 983e 3d2e 08be a329 ba3e
000001a0: f0db c13d 39ac 5d3e 8c63 c13e 71a5 d2be
000001b0: 6e2c 1f3e d951 fcbd dd22 edbd a3af 77be
000001c0: 0f03 cf3c 0317 b13e 644a b4bd f8b9 ce3e
000001d0: 26f2 363e 7303 273e 1ab0 993e 2baa bf3e
000001e0: da90 a0be de97 dbbd 41c5 e2be 41f2 9dbc
000001f0: a704 373d 2822 64bd 2abb 9fbe caf8 093e
0.4670179 -0.20813422 -0.003901419 0.5091577 -0.067053035 -0.17911993 0.19236298 0.5885494
-0.34763035 0.11742312 0.4003377 0.52088374 -0.19057983 0.014477193 -0.0058442806 -0.32837135
0.036100846 0.588646 0.119682156 -0.04315085 -0.0590885 -0.0018667938 0.079722576 0.15477462
-0.3238017 0.10620371 0.034485184 0.10764905 -0.23517561 -0.26293525 -0.2824427 0.47012898
0.41417032 -0.23341325 -0.09984207 -0.24077031 -0.2457257 -0.32477015 0.23880872 -0.15344062
-0.33198714 -0.19027555 0.30377743 0.25175995 -0.04946278 -0.09788075 0.23728977 -0.1426662
0.059409525 0.24625811 0.05889119 0.10885428 0.089685574 -0.24502309 0.43197197 -0.115702175
-0.21884876 -0.15526709 -0.14516489 -0.072615534 -0.057489917 0.31545052 0.14857139 0.35009366
-0.32904255 -0.16063477 0.4663889 0.37468544 -0.3079021 0.40582725 0.30643514 -0.049545914
0.18505292 0.39096546 0.4349147 0.43088704 0.067175895 -0.37574917 -0.010852806 0.24203174
-0.17611906 0.493075 -0.26196793 -0.13493149 -0.23875843 -0.2161087 0.04922347 0.14789917
0.15135476 -0.059237406 0.05872201 -0.32884878 0.07782093 -0.48964658 0.041089546 0.340604
-0.021541087 0.14582132 -0.36090317 0.35780525 0.014678261 0.29866767 -0.13298889 0.3635989
0.09465778 0.21647729 0.3777126 -0.41141847 0.15544292 -0.12320299 -0.11578915 -0.24188094
0.025270013 0.3458787 -0.088032514 0.40376258 0.1786581 0.1630991 0.30017167 0.37434515
-0.31360513 -0.10722326 -0.44291118 -0.019280555 0.04468217 -0.055696636 -0.31197482 0.13473812

linear3.weight f4 [64, 128]
00000000: f92c 1bbd acb6 ba3d a307 b8be 9e5c 58bd
00000010: 6469 203e 2f0c 89be abcd 273e 8626 233c
00000020: 1204 503c e895 1c3e f4c3 29bd f19f c3bd
00000030: 3b0d a0bd 3959 5b3d cc0c aabc 5fc4 9ebd
00000040: 63b7 8e3e 5e50 5f3d 0685 8f3d 438c 233e
00000050: c727 97be 2bf7 5f3e f113 5e3e 6ce0 e1bc
00000060: 2b15 0fbf 8947 a9bc 431f 86be 7022 9c3d
00000070: ab91 223e 02a1 0b3b 875a f53c 734c 1dbd
00000080: 7ae8 5c3d e05e 07be c0de ac3d 0c52 00be
00000090: 9112 f43d 47ae 8d3d 12f7 e63d e3e4 713e
000000a0: 0938 8cbe 9426 fc3d 5999 a6bd 8af4 47bd
000000b0: 9669 34be b985 a2bd cf0e 9a3d 7c99 2ebd
000000c0: b5e7 113d afd0 263e 0592 c2bd c2d5 253c
000000d0: 9565 193e c57d a33e f22f 00bd 82ee 613e
000000e0: b7dc 6cbc 627d 1f3d 3777 693e 2d63 ddbd
000000f0: c55f 7fbd abbd b13b e96d 26be 2b9e cabd
00000100: 5601 173d c837 833e 0ba9 613d 28e5 20be
00000110: d9c0 493e 732a adbe 7aec fb3d 8753 2d3e
00000120: 8077 8a3e 121b da3d 7b28 953c a699 a6bd
00000130: 8cce 0d3e 7542 5f3d 5c9f 1abd f76b 0bbd
00000140: 38aa cbbd 684d 3dbe 6f18 6bbc 0bf1 4d3d
00000150: e3dd 19be d9bc cebe 1e60 90be 12a8 8e3d
00000160: 57e4 1fbe 0886 c7be 279c 363e 4579 2bbe
00000170: 65f8 a33e 9e66 aebd a738 a0bc 91bc 563d
00000180: b698 d53d 817a 233c c4ab c93d 0e4b d4be
00000190: be7c 56be d3db 3e3e 157b ddbd 504f 2bbe
000001a0: fadb 0a3e f184 f13b 673d 3ebe 6c67 f43d
000001b0: 1931 a9bd dfa2 233e c42a a4be 01a6 e8bd
000001c0: 406c 3e3e b0fe 6a3e 2855 033b 6a5e c53d
000001d0: 6f5f 553d 583b ebbe 40af fb3c 846f e2bc
000001e0: 8e37 10b9 a012 90bd ebf5 74bd ba67 433e
000001f0: 046b 323e a0c0 e7bc 126d 07be e3f2 d4bc
00000200: 1dc6 8dbd 12fc 96bd c4a9 d83d 7c30 b3bd
00000210: bb20 a03e 1d9c cbbd 180e 0b3e 2661 04be
00000220: f9aa b4bd 4845 28bd e79c d2be 0647 95be
00000230: a3e8 563e 11f5 40be 935d bd3d e9ca 653d
00000240: 9e38 e33c 6318 3ebe 6f69 6cbe bde1 7bbe
00000250: c266 303d 225a 61bd 46b3 cabd f059 e2bd
00000260: b66c a03c 0bbf 12be 85b0 b83d e550 b13d
00000270: 25fc 80bb 49ff 58be 8fe0 c9bd 8113 6dbc
00000280: 2d80 52be ca8a 1bbe 76a7 a3bd a19e 443e
00000290: 4c52 18be 8b9b 0abe bbb5 22be e563 7b3c
000002a0: 508c 573e dae4 4fbd 137f 2a3d 7250 103e
000002b0: e134 36be 10f5 9b3d 032b 7fbe c4ae 223e
000002c0: 0adc cfbd ae1c b9be d410 0b3d a067 073d
000002d0: c758 35bd 5f48 89bd d205 c7be 0a36 a73d
000002e0: 0b35 d2bc fc47 3abe ade7 89bc 5aea fabb
000002f0: 9f07 bf3d 9621 a6be ff27 0abe 7a9f b5be
00000300: 1a23 90be 5140 c2bd 360f a8be 0692 09bf
00000310: 411a cabb 417f 00bf b5d8 97bd c00a 303d
00000320: b422 e73d d50a 5cbe 7d35 a4bd 3af5 a2bd
00000330: fd46 5d3d 1707 b83d b100 853d 056e 313e
00000340: db46 c0bd 7662 9ebe 941c cdbb 398e 86bd
00000350: 0ef6 2f3d a617 31be 8ca2 17bc db24 5f3d
00000360: 3271 5c3d 51e6 243d 2b28 6fbe c51c 163e
00000370: 6ae0 c93d 36c5 b6bd 7be9 b63d e610 87be
00000380: e8b1 c4bd 1fc2 4bbe e711 12be 77bb 1f3e
00000390: bcf4 643d bdfa 28be 612a a6bd ddee 18bf
000003a0: 7de2 433e 8559 5ebe 8a3f 69be ea63 ba3d
000003b0: 1f39 64be cd05 6e3e 760d c93d 84e6 d93c
000003c0: 15f2 4a3e 240b 9dbe 4722 653b 2ad0 5ebe
000003d0: ee65 323e af2f 193e 3d91 243e 136c 0a3e
000003e0: d5e5 f7bd 5d89 153e 0731 17bc 4e95 253e
000003f0: 5a10 6d3d 13a1 213e 7eb4 123e 54bf 34be
-0.037884686 0.09116873 -0.35943326 -0.0528227 0.15665203 -0.26767108 0.1638705 0.009957915
0.012696283 0.1529156 -0.04144664 -0.09551991 -0.078150235 0.053551886 -0.020758055 -0.077522986
0.27874288 0.054520003 0.07007794 0.15971474 -0.29522535 0.21871631 0.21687295 -0.027572833
-0.55891675 -0.020663993 -0.26195726 0.07623756 0.1587588 0.0021305685 0.029950393 -0.038402986
0.053932644 -0.13219786 0.08440924 -0.12531298 0.11917604 0.069180064 0.11277594 0.2362247
-0.273865 0.12312046 -0.081347175 -0.048817195 -0.17618403 -0.07935662 0.07522356 -0.042626843
0.035621364 0.16290544 -0.09500507 0.010121765 0.14980157 0.31931892 -0.031295724 0.2206364
-0.014456919 0.038937934 0.22799383 -0.10809932 -0.062347192 0.0054242215 -0.16252865 -0.098934494
0.03686651 0.25628495 0.055092853 -0.15712416 0.19702472 -0.3382145 0.12300964 0.16926394
0.27044296 0.106496945 0.01820778 -0.08134775 0.13848323 0.054506738 -0.037749633 -0.03403851
-0.09944576 -0.1848656 -0.014349087 0.050278705 -0.1502605 -0.40378454 -0.28198332 0.069656506
-0.15614448 -0.38969445 0.17833005 -0.1674548 0.32025447 -0.085156664 -0.019558264 0.052425925
0.10429518 0.009977938 0.09847215 -0.41463512 -0.20946023 0.18638544 -0.10814492 -0.16729474
0.13560477 0.007370584 -0.1857811 0.11933789 -0.08261318 0.15980099 -0.32063878 -0.11359788
0.18595982 0.22948718 0.002003977 0.09637149 0.052092966 -0.45943713 0.030723214 -0.027641065
-0.00013753606 -0.070348024 -0.05980484 0.19082537 0.17423636 -0.028290093 -0.13225201 -0.025994724
-0.06922553 -0.07372297 0.10579255 -0.08749482 0.3127497 -0.099418856 0.13579595 -0.12927684
-0.08821673 -0.041081697 -0.41135332 -0.2915575 0.20987181 -0.18843485 0.092463635 0.056101713
0.027736958 -0.1856399 -0.23087095 -0.24597831 0.043066747 -0.055017598 -0.09897475 -0.110523105
0.019583087 -0.1433069 0.090180434 0.086580075 -0.003936308 -0.21191134 -0.09857284 -0.014469982
-0.20556708 -0.15189663 -0.07990925 0.19201137 -0.14875144 -0.13535897 -0.15889637 0.015343641
0.21049619 -0.05075536 0.041625094 0.14093187 -0.17793609 0.07615101 -0.24918751 0.1588698
-0.10149391 -0.36154693 0.033951595 0.03305781 -0.044274118 -0.06703257 -0.38871628 0.08164604
-0.025660058 -0.18191522 -0.016834104 -0.0076573314 0.093276255 -0.324475 -0.1349182 -0.35473233
-0.2815178 -0.09484924 -0.32824105 -0.5373844 -0.0061676805 -0.50194174 -0.074143805 0.042979002
0.11285916 -0.21488507 -0.080180146 -0.079569295 0.054022778 0.08985727 0.064942725 0.17327125
-0.093885146 -0.30934495 -0.0062595103 -0.065700956 0.042959265 -0.17294177 -0.009255063 0.054478507
0.05381889 0.04025871 -0.23355167 0.14659412 0.09857257 -0.08924334 0.089312516 -0.2638008
-0.096042454 -0.1989827 -0.14264642 0.15598856 0.05589746 -0.16501899 -0.08113552 -0.59739476
0.19129367 -0.21713836 -0.22778144 0.09101088 -0.22287415 0.232444 0.098170206 0.026599176
0.1981891 -0.30672562 0.0034963058 -0.21759096 0.17421696 0.14959596 0.16071029 0.1351779
-0.12104384 0.14603181 -0.009227998 0.16170236 0.057876922 0.15784101 0.14326665 -0.17651111

linear3.bias f4 [64]
00000000: 028b c33e 1d00 373d 246b a43d dcad 363f
00000010: fd61 0dbd 37ae 9d3d 43de 023e db0e c03e
00000020: 93db dabd a2b6 58be c291 8c3c 5923 b4bd
00000030: 4033 b33e 7a3c 67bd 60a3 98bc d017 313f
00000040: b032 d0be 1aa4 f8bc e561 37be d815 953d
00000050: 9253 17be c9a7 d73e 7850 3e3d 637d a63e
00000060: d3ab 6c3d 9ed4 1c3d 05a3 f7bd 7412 8fbe
00000070: 723c 57be 00dc 2b3f 9d69 9cbe ca2d 053e
00000080: 45a9 583d bb31 a2bb 5b48 10be 1d2c 113f
00000090: 7c57 233f ae34 203c 292a 43bd abbb 1f3f
000000a0: 87bd d0be 5d67 4cbe 0a7e b23e c68c a43e
000000b0: f6da a7bd fd27 143d 7da9 86be 764e ce3d
000000c0: 47c3 df3c 5c44 fa3d d342 a1bd d930 6abd
000000d0: e18a 2a3f 541b 183d 177e 2b3f 795c 9bbd
000000e0: 522d c13c efd2 0ebe 04e4 38bd f642 553e
000000f0: 0366 b03e 0b16 6cbe a201 863d 2adc 253f
0.38191992 0.044677842 0.08028248 0.7135904 -0.034517277 0.076992445 0.12780099 0.37511334
-0.10686412 -0.21163419 0.017159346 -0.087958045 0.35000038 -0.05645416 -0.01863259 0.6917696
-0.40663671 -0.030351687 -0.17908438 0.07279557 -0.14777973 0.42120197 0.04646346 0.32517537
0.05778105 0.038288705 -0.120916404 -0.27943766 -0.21019152 0.6713257 -0.30549327 0.13005748
0.052895803 -0.004949776 -0.14090101 0.56707937 0.63805366 0.009778185 -0.04764763 0.62395734
-0.40769598 -0.19961305 0.34861785 0.32138652 -0.0819606 0.03617095 -0.26301184 0.10073559
0.027314795 0.1222007 -0.07874074 -0.05717549 0.6661816 0.037135437 0.6698927 -0.07585997
0.02358118 -0.13947652 -0.045139328 0.20826325 0.3445283 -0.23055284 0.0654328 0.6478907

output.weight f4 [1, 64]
00000000: ac70 a63e 6a2e 36be f489 0bbe 468b 5b3e
00000010: 6e9d d3bd 3c38 d3bd 7c32 383e 9159 aa3e
00000020: c2e7 883e 8aac 2ebe d9e6 27bf 720f 1abe
00000030: 50eb fc3d 5f41 01bf d2d2 66be 4e1d 113e
00000040: b1bd acbe aba9 ba3e 7483 a8be 23bb 90be
00000050: 40d3 2cbe ff9a 933e c375 10be b602 053e
00000060: ae90 eabe f8b3 0bbe a86e 77be 277f f4be
00000070: 2808 02bf 93f0 4e3e 04e7 07bf 4834 0fbe
00000080: 05ca 29be da3e f1be 48d1 29be 46ee 3b3e
00000090: 6168 3b3e e477 f93e cf11 aabe d74a e73d
000000a0: ebd3 e2be 275d 533f 0dd3 893e 6f70 883e
000000b0: 6c93 fabe 1f35 dfbe 9dbd 1fbe a449 26be
000000c0: 4b0a 87be 5727 69be d659 1bbe 3997 9e3e
000000d0: 173c 963d 036d 1bbe ba08 203e ca21 29bf
000000e0: fb3c 02be 08a5 dbbe e6ba a4be 42e4 8a3e
000000f0: 3970 443e fc85 ccbe b90f 02be 2a82 523e
0.32507837 -0.17791143 -0.13626844 0.21439847 -0.10332762 -0.1031346 0.17988008 0.3327146
0.26739317 -0.17058006 -0.6558662 -0.15044954 0.1234957 -0.50490373 -0.22541359 0.14171335
-0.33738473 0.3645757 -0.3291279 -0.28267774 -0.1687746 0.2882919 -0.14107423 0.12989315
-0.45813507 -0.13642871 -0.24163306 -0.4775326 -0.50793695 0.2020896 -0.53086877 -0.13984787
-0.1658097 -0.47118264 -0.1658374 0.18352613 0.18301536 0.48724282 -0.33216712 0.112935714
-0.44302306 0.82564014 0.2691883 0.2664828 -0.489406 -0.43595216 -0.15599675 -0.16239029
-0.2637504 -0.22768913 -0.15170988 0.3097475 0.0733568 -0.15178303 0.15628329 -0.66067183
-0.12718575 -0.42899346 -0.32173842 0.27127272 0.19183435 -0.39945972 -0.1270131 0.20557466

linear1.weight f4 [128, 34]
00000000: 4fd3 44be a4b0 f23d 47b8 87be 9a13 66be
00000010: 9cf8 17be 2f5d a2bd 62ba d23c 7786 03bc
00000020: 297f 99bd f36a 833e bb45 233e 839a 9b3d
00000030: 457e bd3c e620 8cbd e679 05be 2a1e 60bb
00000040: 2314 a7bc 2aee 81bd 8039 88be 7cda 9fbe
00000050: 3c51 c0be 0745 14bf af0f d3bd 33b9 0abe
00000060: 0f21 b4bd 1d40 6c3d 3d2d 9abe 30dc 353e
00000070: 2b69 b63e 2f50 3abd 3277 0a3e cce8 2d3b
00000080: 36d0 dbbc 30f0 6b3d d589 2d3e 9c8f 993c
00000090: b025 ae3e 794f f63c 7038 2f3d 4175 36be
000000a0: 7874 aa3e b1c0 52bd 7d18 afbe 066a 1cbe
000000b0: b8ac 5dbe fdd6 193e a957 0cbe 2bf0 24be
000000c0: 41f8 6ebd 0713 85bb 176e 983e 8c51 8b3c
000000d0: 54f8 2cbc dd1d 8d3e f6ee fcbd 4b10 f1be
000000e0: 5ee8 613d 54c5 5f3e 290d 33bd 85bd 213e
000000f0: bbaa 6abe 9e42 343d cef3 623d e173 9cbe
00000100: bc07 09bd a891 443d 6f66 223d d271 63be
00000110: b38f ce3c 6ac6 28be 88b1 e53d 8146 4e3e
00000120: c4bd 263c 7c28 48be ad58 0c3e 6e27 8bbe
00000130: 5246 46be cefc 723d f510 173e d306 b83e
00000140: f063 063d a226 21be 02fe f63d f109 6e3c
00000150: 42b3 16bd 2ad3 48bd bac6 a6bd 7b76 4a3e
00000160: 415d 773c cd44 653e b8b6 cebc b20b 213e
00000170: fb4b 713d fd7b 713d 4112 b2bd bd7b 9e3e
00000180: 881d 15bf 8e4b 8abe e781 62bd f81a 4c3c
00000190: 7ce6 6b3c 82f1 a6bc 6140 0c3e 2639 b7bb
000001a0: 2082 e83d ddf1 8dbe 8843 8abe 70e5 a9be
000001b0: c9f0 c83e 23a2 c8bd 181c 01be 73c5 44bd
000001c0: 3911 02bf f11a 53bc 9f47 d43e d9df 7b3e
000001d0: 0563 6a3e 1d96 59be fab6 9abd df61 9fbd
000001e0: 41af 093e fa32 3dbd d54f 22be 9d78 9f3c
000001f0: f635 12bd 3819 eb3c 622c f13d 30d3 34bd
00000200: 8c05 3a3f ed9d 8b3e e8af a3be 1729 123e
00000210: eb6b b43d 6098 25bd ca2e 043e 036a abbe
00000220: a9e2 b93d 8fe4 d13d 4460 8bbe 240f 33be
00000230: 5c1a 5d3d 94c8 8fbe f6bc 7fbe c7d9 87be
00000240: 9aff 8abe 9efe 2cbe cec3 a6be 19ea 05be
00000250: 649e 0dbe faae 9e3d 5b24 4abd 7551 a2be
00000260: 3ed6 57be e0a7 67be 6562 bdbd 9141 fc3d
00000270: 81b7 9cbd db30 87be dba1 b33b 4b86 47be
00000280: 9494 1f3e 8f2d 4dbc 4403 83be 39e9 8fbc
00000290: 71ad 6b3e 1610 4dbe b2aa 9b3d 7fdc 10be
000002a0: 6ee2 44be 5349 a23d 3004 b03c c782 a23e
000002b0: 0c33 183f 13b6 a03d f03d 053f ddc7 95bc
000002c0: 84e1 96be bdd2 90be 696d 2fbd 46b3 463d
000002d0: c2cb 3fbd 7e61 b7bc fc20 4ebe 509a 29bf
000002e0: 7371 3e3d 535e 373d 5395 a33e 3c70 563e
000002f0: de19 c8bc 0500 7dbe 9001 8ebc 806c 8abe
00000300: 2567 0ebe 2e60 203e 3fd0 623e c039 593d
00000310: ba6b c9be b779 513e cb6c 94be 6cb5 2abe
00000320: 545e 023e fdf3 693d d79c 02be 36a9 c63d
00000330: 0274 31be e471 12be dc81 73bd 6dab 85be
00000340: 3a98 383e 13f5 843e 89ec e4bd 579f 063e
00000350: 9e19 e33d 8af9 5cbe 12d4 353e 70b2 dcbc
00000360: b269 aebb 2379 43be d35d bcbd b8fd 673e
00000370: 6b7a 053c a2e5 903d f11a 86be 2fd0 ecbd
00000380: c4f0 49be a59e 91bd dad5 143d 7298 7cbe
00000390: 0111 9a3d eb28 45be d380 e9be 1522 79be
000003a0: 3c99 b63d 68a3 f5bd 9178 443e 6c1f 323d
000003b0: 612e cbbd 9791 2c3d 5eb4 d53d fff6 babc
000003c0: ef57 bcbe 9d86 0d3e 5ad4 113f 73ad 4dbc
000003d0: 0ffb 5ebe 69d5 a93e d3be 89be 2aaa 12be
000003e0: ce92 123c 5efa 13be 2596 37be 3116 96bd
000003f0: 1df7 f4bd f854 43bd 4cdb c0bd 610a 393f
-0.19221233 0.11850098 -0.2650778 -0.22468415 -0.1484093 -0.079279296 0.02572364 -0.008027664
-0.07494957 0.25667533 0.15944569 0.0759783 0.023131499 -0.068422124 -0.13034782 -0.0034197667
-0.020395344 -0.06344254 -0.2660637 -0.31221378 -0.37561977 -0.5791783 -0.10305726 -0.1354721
-0.08795368 0.05767833 -0.3011264 0.17759776 0.35627112 -0.045486625 0.13522032 0.0026536463
-0.026832681 0.057602108 0.1694711 0.018745236 0.34013128 0.030067192 0.042778432 -0.17818166
0.33291984 -0.051453296 -0.3419837 -0.1527482 -0.21647918 0.15023418 -0.13705315 -0.16107242
-0.058342222 -0.004061106 0.29771492 0.017006658 -0.010557253 0.27561846 -0.12350266 -0.47082743
0.055153243 0.21852618 -0.043713722 0.15794952 -0.22916691 0.044008844 0.05540829 -0.3055716
-0.03345464 0.04799047 0.03964847 -0.22211388 0.025215006 -0.16481939 0.11215502 0.20144083
0.01017708 -0.19546694 0.13705702 -0.2717852 -0.19362763 0.059323125 0.14752562 0.35942706
0.03281015 -0.15737393 0.12060167 0.014528737 -0.036792047 -0.049029507 -0.08143373 0.19771759
0.015097917 0.22389527 -0.025233611 0.15727118 0.05891035 0.058956135 -0.08694888 0.3095378
-0.58248186 -0.2701077 -0.055299666 0.012457602 0.0143982135 -0.020378832 0.13696434 -0.0055915294
0.113529444 -0.2772359 -0.27004647 -0.3318286 0.39246204 -0.0979655 -0.12608373 -0.048039865
-0.5080753 -0.012884841 0.41460893 0.2459711 0.22889335 -0.2124867 -0.07554431 -0.07782339
0.1344576 -0.046191193 -0.15850766 0.019466693 -0.035695992 0.028698549 0.117760435 -0.044146717
0.72664714 0.27268925 -0.31970143 0.14273487 0.08809646 -0.04042852 0.12908474 -0.33479318
0.09076435 0.10248672 -0.27221882 -0.17486244 0.053980216 -0.28082716 -0.24974427 -0.26533338
-0.27148134 -0.16894004 -0.32571262 -0.13077582 -0.13829952 0.07748218 -0.049351078 -0.31702772
-0.2107782 -0.22622633 -0.09247283 0.12317193 -0.07652188 -0.2640446 0.005481941 -0.19484822
0.15584022 -0.012523069 -0.2558843 -0.017567264 0.23015381 -0.20025668 0.07600917 -0.14146613
-0.19227001 0.07924142 0.021486372 0.317404 0.5945289 0.07847228 0.52047634 -0.018283779
-0.2946893 -0.2828578 -0.04282895 0.048510812 -0.046825178 -0.022385355 -0.2012977 -0.6625109
0.046494912 0.04476769 0.31949863 0.20941252 -0.024426397 -0.24707039 -0.01733473 -0.27035904
-0.13906534 0.1566169 0.22149752 0.05303359 -0.3934 0.20456587 -0.28989252 -0.1667077
0.12731296 0.05711745 -0.12755142 0.09700243 -0.1732941 -0.14301258 -0.059450015 -0.2610735
0.1802682 0.25968227 -0.11177928 0.13146721 0.110888705 -0.21579567 0.1775668 -0.026940554
-0.0053226585 -0.19089179 -0.09197583 0.2265538 0.0081468625 0.07075049 -0.2619243 -0.11563145
-0.19720751 -0.07110337 0.036336757 -0.24667528 0.075227745 -0.1925389 -0.45606098 -0.24329408
0.08915946 -0.11994058 0.19186617 0.043486997 -0.099209554 0.042131033 0.10434793 -0.022822855
-0.36785838 0.13820882 0.5696465 -0.012553561 -0.21775459 0.33170632 -0.269034 -0.14322725
0.008946134 -0.14450976 -0.1792837 -0.073284514 -0.119611956 -0.047688454 -0.094168276 0.7228146

linear1.bias f4 [128]
00000000: 1a3f 44be c665 803e 81bb f43e 3372 8b3e
00000010: 09e6 a1bc 6452 423c b0c1 c7be 5200 6c3e
00000020: be33 e43e df62 7fbe 7a24 923d 4a8f ca3e
00000030: 2542 0bbe 17bc 9d3d 323a 533d a81e d93e
00000040: 4014 6dbe 1ede 97bd 91ff 093e f48c 42be
00000050: 82df 933d e61c a5bd 24e9 053d fe29 38be
00000060: e5c2 12bd 04a0 8b3e 7f2f 2a3e 3c35 3c3e
00000070: 09d0 0bbe 4b15 9d3d 9ce9 4b3c de34 123f
00000080: 2327 ba3c 51ad 483e e8ba 533e 3b9e 293e
00000090: 00d5 82bd 15ad 243d cdef 9a3e 5de0 13be
000000a0: baa9 08be a4e8 f43d c30f 81be 2f6b efbd
000000b0: 0633 3abe c71c e43e 1110 0e3e 67de a83e
000000c0: c18d 903e 735b 8b3e 2cde 79b7 1a77 053d
000000d0: d66a 4bbc c04a 173e a9f0 ad3e 1ce1 163e
000000e0: 2c3b 95bc e487 283e e640 c7be 810d 69be
000000f0: bc55 03be ae63 9c3d c7bd e33e 0ae8 463e
00000100: b7d2 563d 7570 f0be 2e4e be3e 721b 843e
00000110: 2ed4 05be bb69 7e3e d58d a0bd 849b 1bbe
00000120: 5402 1a3f b70e 6fbe 9a0c 51be 6bb6 863e
00000130: 38d3 bbbe ca92 75be ac4f 5a3e 5cd6 0d3f
00000140: 72d2 df3d 763c 42be fb02 b0bd f26b 253e
00000150: 2961 cdbd b570 26be 4a47 443d 08b8 c83e
00000160: 6835 3bbe 2edf 9b3e 42de 7abe 4e29 8c3e
00000170: 581d 9c3e 68f8 9e3d 2da7 7dbd 32ff 0b3e
00000180: a0df 1d3e c18e a43d 5e76 52bd b805 e43d
00000190: 0bdd 663e 055c 49bd b585 fbbd ed60 be3e
000001a0: d376 263f a2c6 19be 5f96 2abe 2a3c e73c
000001b0: 0557 debd 2f94 963e ef54 213e 90af 323e
000001c0: 9243 41be d63b a4be efb2 dd3d f808 693e
000001d0: c661 8a3e 89b6 443f 6d7d bbbd fb38 d23e
000001e0: c5cf aebd e5b1 ebbd 8d1d 263e 9744 09be
000001f0: 8c6c c3be cc61 70bd 3f5e d7bd 0529 983e
-0.19164696 0.25077647 0.47799304 0.27235565 -0.01976301 0.011860464 -0.3901496 0.23046997
0.44570726 -0.2494006 0.071358636 0.39562446 -0.13599451 0.07701891 0.05156917 0.424062
-0.23152256 -0.07415412 0.13476397 -0.18999082 0.07220365 -0.080621526 0.032693043 -0.17984769
-0.035830397 0.2727052 0.16619681 0.18379682 -0.13653578 0.07670077 0.0124458335 0.5711192
0.02272374 0.19597365 0.20676768 0.16564266 -0.06388283 0.040204126 0.30261078 -0.14441057
-0.13345996 0.11958435 -0.25207338 -0.116903655 -0.18183526 0.44553205 0.13873316 0.3298218
0.2823315 0.27218208 -1.4893285e-05 0.032584287 -0.012415608 0.14774609 0.33972672 0.1473431
-0.018216692 0.16458088 -0.389167 -0.22759058 -0.12825674 0.076362 0.44480726 0.19424453
0.052447047 -0.46960798 0.3716902 0.2580219 -0.13069221 0.2484502 -0.07839552 -0.15196043
0.601598 -0.23345457 -0.20414963 0.2631105 -0.36684585 -0.23981777 0.21319455 0.5540521
0.10928811 -0.18968377 -0.085943185 0.16154459 -0.100282975 -0.16253932 0.04791955 0.39202905
-0.18282092 0.3044371 -0.24498847 0.27375263 0.30491138 0.077622235 -0.06192701 0.13671568
0.15417337 0.08035041 -0.051382415 0.11133903 0.22545259 -0.049160022 -0.12281362 0.37183324
0.6502506 -0.15017179 -0.16658925 0.02822693 -0.108564414 0.2940993 0.15755056 0.17449784
-0.18873432 -0.320769 0.108251445 0.22757328 0.2702772 0.76841027 -0.091547824 0.41059098
-0.08535723 -0.1150854 0.1622221 -0.13405071 -0.38168752 -0.058687016 -0.10516023 0.29718795

linear2.weight f4 [128, 128]
00000000: 90a8 a2bd 3b9f f0bd be6a ce3d 2330 283e
00000010: 6991 1abe 56dd 70bd 616e c63d 22d4 5b3d
00000020: 919f fdbd ecff 833d 4246 39be 4c2d b4bd
00000030: 3f97 b8be 5c7e 6c3c b237 86bd 4aae 68be
00000040: db4a ec3d fe50 c9bd d244 08be 4945 b9be
00000050: 5719 d83e 72be ef3d 027d 8a3e 601d 5cbd
00000060: 7d0c aebd 2f95 853e 9029 103d 702d 263e
00000070: 3e02 003e 3459 3dbd 719d dbbd 8b7c 9f3e
00000080: ad6e 91bd db1a 853d 00b4 99bd ffcc 0abe
00000090: d763 f0bd 1246 973e 5dac 373d 0e0e ab3d
000000a0: 7827 813e cc89 243e 924f 7d3d 57ba 1f3d
000000b0: a735 35be 2349 2bbe 36fa cd3d af61 6c3e
000000c0: 7a08 32bd ed0f 233d 43bd c63c a5a7 f4bd
000000d0: eab6 c13b f0a3 253d 10cd 203e cd3a 70bb
000000e0: c435 c03d 17de 793d 5fed edbc a2e9 6c3c
000000f0: da74 6abe ce28 17be f203 6b3d 3a0a 003e
00000100: 7eb6 a2bd c4e6 e2be 1193 60be 2ee0 66bb
00000110: 58fb 823e 4bf6 063e 3ea5 ebbd f3e9 38be
00000120: b0d1 893e ed94 0a3c 87aa d2bd 8265 8ebd
00000130: 49b4 c1bd 94dd 8abe 6484 c53c 4503 923d
00000140: 26c9 bc3d d1bc 783c cee8 f03d 5bce 613e
00000150: 17bb 2f3c c51d 9d3d 98bd 813c e2fc f53d
00000160: 77d7 bfbd 96ed fc3d f4a3 e0bc 250a d03d
00000170: 7bb5 a03d 7cf3 6d3e 7f1f 15be eed5 9d3d
00000180: 266c f6bd 3b3c 4ebd bd8c c43c dac9 153e
00000190: 7a96 69bd ddd8 e5bd bbf2 2cbe 44d4 09bc
000001a0: ffd4 973e ebb1 25be 70c9 14be 0fae ca3d
000001b0: adbf 92be ab06 1f3c 25c1 7c3e cf92 bcbe
000001c0: 1d10 86be dabc bcbe f14b 26be cbe3 90bd
000001d0: 833a 103e 77b5 a93e 7b94 60bd f7e9 773d
000001e0: c666 eabd f6b5 49be 7f94 a23d 1794 d63d
000001f0: 6a53 37be bfe4 ddbd 6000 8ebc a6e4 a7bc
00000200: edb0 29be c85b 123e 4ae4 ac3d c52a 7c3e
00000210: b227 d2be 8f5c fbbc 1687 b3be 17c2 6a3e
00000220: f27e 4d3e d827 2b3e 534b 2d3c 6400 953e
00000230: 95ae 3bbe ebc7 27bc b251 783d 16a9 8e3e
00000240: 8ca8 173e 5e1c aabd 7710 19be c243 803e
00000250: 0dc6 beba 3a21 b6bd 1d47 ad3d a6cb efbd
00000260: e1a7 7bbe 3271 bd3b b027 8fbd 8a8c 203d
00000270: 8fe1 6bbe e994 323e 932a 163d 258a 82bd
00000280: 686a fd3d 187a 843d 90b8 42be 0589 f9bd
00000290: fb20 33be 6e77 57be dc81 783d 2907 ac3c
000002a0: bd75 0cbf dcad dc3c 086c aebe 416d aabe
000002b0: f407 53be c88e a63c bf1a edbe 01e3 d13e
000002c0: 6384 cabe 0f70 73bd fb94 b3bd de43 a73c
000002d0: 7a95 74be bfa1 093d 23ac 6abe 00e3 dd3d
000002e0: 5ab8 e0bd 84af 473e 9cd6 8c3d 17bb 89be
000002f0: 16e6 e93c 74b2 86be e100 9d3e 0283 6cbd
00000300: 909b 8c3d 9160 9ebd cfcc 093d 15aa b8bd
00000310: d679 8d3d 1eb8 553e 9350 2b3e 950e a0be
00000320: a727 953e d1da 2e3e e13b 7bbd e31b c73d
00000330: 3052 01be 4572 b03d ec99 683d 1f7f 213d
00000340: 2389 463c 6bf4 0bbe 0adc 35be 6c08 943d
00000350: 3934 f6be f0ce 0c3e a398 eabd f666 573b
00000360: 8a85 bcbc 4e43 a13c 5cf7 1f3d cea8 12be
00000370: ccd5 dd3d 64f7 373e cf71 b93c f22f 243d
00000380: 06db 703e da01 37be 1c8d d5bd 6754 cbbb
00000390: 886c 82be a20c 08be 3cbd 693e 9514 edbd
000003a0: dba4 013e 193c 55bc 79c4 4a3d 617a 92bc
000003b0: aa08 9cbd 2e7d 853e 3201 38be 3f75 b9bd
000003c0: 519d aebe 32ca 573c f838 d83c 61af dfbd
000003d0: 7235 a33d 511d e33d 26a0 3bbe 90c6 0b3c
000003e0: 0e5c dbbc bac2 23be fbd0 aa3c 3a16 babd
000003f0: 76f5 4c3c f4ec ee3d 1548 cd3e e4de 453e
-0.07942307 -0.11749121 0.10078953 0.16424613 -0.15094532 -0.058804832 0.09689022 0.053669102
-0.123839505 0.064452976 -0.18093207 -0.08797702 -0.36052892 0.014434423 -0.06553592 -0.22722736
0.11537715 -0.09829901 -0.13307503 -0.36185673 0.42206833 0.117062464 0.27048498 -0.05373895
-0.08498476 0.2609038 0.035195887 0.1622827 0.12500855 -0.04622765 -0.10723389 0.31149706
-0.07101188 0.06499263 -0.075050354 -0.13554762 -0.11737793 0.29545647 0.044842113 0.0835229
0.25225425 0.1606819 0.061843462 0.038996067 -0.17696248 -0.16727118 0.100574896 0.23084138
-0.043465115 0.03981011 0.024260169 -0.11946038 0.0059116976 0.040439546 0.15703225 -0.0036656142
0.09385255 0.061002817 -0.029043851 0.014459999 -0.22896138 -0.1476166 0.05737681 0.12503901
-0.07944964 -0.44316685 -0.21931101 -0.0035228836 0.25582385 0.13179891 -0.11506127 -0.18057995
0.2691779 0.008458358 -0.10286432 -0.06952955 -0.09458215 -0.27122176 0.02411098 0.0712953
0.092180535 0.015181736 0.11763154 0.22051375 0.010725758 0.07671694 0.015837476 0.12011124
-0.093672685 0.123500034 -0.027421929 0.10158185 0.07847115 0.23237413 -0.14562796 0.077068195
-0.120323464 -0.05035041 0.02399289 0.14627782 -0.05702827 -0.11223004 -0.1688947 -0.0084124245
0.2965469 -0.16181152 -0.14529967 0.0989648 -0.28661862 0.00970618 0.24683054 -0.36830756
-0.26184168 -0.36862832 -0.16239907 -0.07074698 0.1408482 0.3314626 -0.054829102 0.06052586
-0.11445384 -0.19698319 0.0793848 0.10477465 -0.17902914 -0.108346455 -0.017334163 -0.02049477
-0.16571398 0.14292824 0.0844198 0.2462569 -0.4104591 -0.030683784 -0.35064 0.22925602
0.20067957 0.16714418 0.010577041 0.2910186 -0.18328317 -0.010240535 0.060624786 0.27863377
0.1481039 -0.08306192 -0.14947687 0.25051695 -0.0014554873 -0.08893056 0.084608294 -0.11708765
-0.2457576 0.005781316 -0.06989992 0.03919653 -0.23035263 0.17439617 0.036661696 -0.06374005
0.12373811 0.064686 -0.19015718 -0.121843375 -0.1749305 -0.21041653 0.06067072 0.020999508
-0.54867154 0.026938371 -0.34066796 -0.3328648 -0.20608503 0.020331755 -0.46309468 0.40993503
-0.39554128 -0.05943304 -0.0876865 0.020418104 -0.23885146 0.03360152 -0.22917227 0.108343124
-0.10972662 0.19500548 0.06876871 -0.2690055 0.028552096 -0.26308024 0.30664733 -0.057742126
0.06865609 -0.07733262 0.033642586 -0.090168156 0.06908004 0.20871016 0.16729955 -0.31261125
0.29131815 0.1707566 -0.0613364 0.09722116 -0.12629008 0.08615545 0.056787416 0.039427873
0.012117657 -0.13667457 -0.1775972 0.07228169 -0.48086718 0.13750815 -0.114548944 0.0032867766
-0.023012895 0.019685414 0.03905426 -0.14322206 0.10831794 0.17965466 0.022637276 0.040084787
0.23521051 -0.178718 -0.10427305 -0.00620513 -0.25473428 -0.13286069 0.22826093 -0.11576191
0.12660544 -0.013014817 0.049503777 -0.01788062 -0.0761884 0.26072067 -0.17969206 -0.09055566
-0.34104398 0.013170766 0.026394352 -0.10922123 0.07969178 0.11089576 -0.1832281 0.008531228
-0.026777294 -0.15992251 0.020851603 -0.09086271 0.012509694 0.11666289 0.40094057 0.19323307

linear2.bias f4 [128]
00000000: f81c ef3e 2321 55be f3ae 7fbb 2958 023f
00000010: 1a53 89bd 376b 37be cdfa 443e 2cab 163f
00000020: 9bfc b1be 887b f03d 10f9 cc3e a358 053f
00000030: 5c27 43be c031 6d3c 6181 bfbb 4a20 a8be
00000040: 7bde 133d 81b1 163f eb1b f53d f2be 30bd
00000050: c806 72bd 35af f4ba 9745 a33d 3d7d 1e3e
00000060: 56c9 a5be 5581 d93d 5640 0d3d 1b77 dc3d
00000070: e0d1 70be 739f 86be 549c 90be bfb4 f03e
00000080: 220e d43e e203 6fbe 007a ccbd 7e8c 76be
00000090: 859f 7bbe 4648 a6be 468a 743e 8a1f 1dbe
000000a0: 38fa a9be 98d7 42be b788 9b3e aee6 803e
000000b0: 7c99 4abd b475 c8bd 17fc 723e 1717 12be
000000c0: 6757 733d 162b 7c3e e337 713d feee de3d
000000d0: 12ad b73d 55e7 7abe 6e2b dd3e 43f5 ecbd
000000e0: e419 60be 56fe 1ebe 1ba6 14be 74b7 94bd
000000f0: 8c7a 6bbd bb82 a13e 1923 183e 7a3f b33e
00000100: 4478 a8be 717d 24be 87ca ee3e c5d6 bf3e
00000110: 58a5 9dbe 97c8 cf3e 11e5 9c3e a8f0 4abd
00000120: 837e 3d3e a02c c83e 24ad de3e 3a9d dc3e
00000130: 8493 893d 3262 c0be f8cf 31bc 2bd7 773e
00000140: 8e58 34be 5474 fc3e a920 86be 7b2b 0abe
00000150: 177d 74be 994b 5dbe 8d9e 493d e172 173e
00000160: befc 1a3e eca2 72bd 7e86 703d de5e a8be
00000170: 9460 9f3d f5b2 fabe 834d 283d a663 ae3e
00000180: ef76 b0bc 2f52 153e 4dc8 b8be 4032 b73e
00000190: 177d 703c f8ea 983e 3d2e 08be a329 ba3e
000001a0: f0db c13d 39ac 5d3e 8c63 c13e 71a5 d2be
000001b0: 6e2c 1f3e d951 fcbd dd22 edbd a3af 77be
000001c0: 0f03 cf3c 0317 b13e 644a b4bd f8b9 ce3e
000001d0: 26f2 363e 7303 273e 1ab0 993e 2baa bf3e
000001e0: da90 a0be de97 dbbd 41c5 e2be 41f2 9dbc
000001f0: a704 373d 2822 64bd 2abb 9fbe caf8 093e
0.4670179 -0.20813422 -0.003901419 0.5091577 -0.067053035 -0.17911993 0.19236298 0.5885494
-0.34763035 0.11742312 0.4003377 0.52088374 -0.19057983 0.014477193 -0.0058442806 -0.32837135
0.036100846 0.588646 0.119682156 -0.04315085 -0.0590885 -0.0018667938 0.079722576 0.15477462
-0.3238017 0.10620371 0.034485184 0.10764905 -0.23517561 -0.26293525 -0.2824427 0.47012898
0.41417032 -0.23341325 -0.09984207 -0.24077031 -0.2457257 -0.32477015 0.23880872 -0.15344062
-0.33198714 -0.19027555 0.30377743 0.25175995 -0.04946278 -0.09788075 0.23728977 -0.1426662
0.059409525 0.24625811 0.05889119 0.10885428 0.089685574 -0.24502309 0.43197197 -0.115702175
-0.21884876 -0.15526709 -0.14516489 -0.072615534 -0.057489917 0.31545052 0.14857139 0.35009366
-0.32904255 -0.16063477 0.4663889 0.37468544 -0.3079021 0.40582725 0.30643514 -0.049545914
0.18505292 0.39096546 0.4349147 0.43088704 0.067175895 -0.37574917 -0.010852806 0.24203174
-0.17611906 0.493075 -0.26196793 -0.13493149 -0.23875843 -0.2161087 0.04922347 0.14789917
0.15135476 -0.059237406 0.05872201 -0.32884878 0.07782093 -0.48964658 0.041089546 0.340604
-0.021541087 0.14582132 -0.36090317 0.35780525 0.014678261 0.29866767 -0.13298889 0.3635989
0.09465778 0.21647729 0.3777126 -0.41141847 0.15544292 -0.12320299 -0.11578915 -0.24188094
0.025270013 0.3458787 -0.088032514 0.40376258 0.1786581 0.1630991 0.30017167 0.37434515
-0.31360513 -0.10722326 -0.44291118 -0.019280555 0.04468217 -0.055696636 -0.31197482 0.13473812
