Data/Player1/checkpoint-regTest3.pth (torch, 517408 bytes, 20 tensors)

linear1.weight f4 [128, 34]
000000 c9 3c a2 3c a6 8f 43 bc e9 4e b8 3e 49 cf ab be
       0.019804375 -0.011936104 0.35997704 -0.33556584
000010 ed 62 7a 3e 65 e5 86 3e ae ee 49 be c8 d8 c0 bd
       0.244518 0.2634689 -0.19719955 -0.09416348
000020 d8 79 12 3e ca de 35 be f4 57 c2 3e 6e 9b 9a bd
       0.14304292 -0.17760769 0.37957728 -0.07549177
000030 fa 02 2e bc 80 95 29 3e 87 77 37 bf c7 4b b0 3e
       -0.010620827 0.16560936 -0.7166676 0.34432814
000040 a6 90 43 be 90 d1 25 be 4d a5 bf bb 06 ac 80 3d
       -0.19098148 -0.16193223 -0.005848563 0.06282811
000050 94 09 55 3d 53 79 b8 3d bb 08 55 bd 35 e6 b1 3c
       0.052011088 0.09007516 -0.05201028 0.021716217
000060 66 86 92 3c 1e 4a 9c bb 4d 8e 09 3f 84 8f 6c bd
       0.017886352 -0.0047695776 0.5373276 -0.057754055
000070 91 99 92 be f2 23 19 be 29 6f d4 3d 3a 7b 9b bd
       -0.28632787 -0.14955118 0.103727646 -0.07591863
000080 b4 96 8d 3c 94 28 88 bd 11 15 9b 3d a9 0b 48 3c
       0.017283775 -0.06648365 0.075723775 0.012209811
000090 29 28 58 3f 13 c8 3b be dd 7d 43 3d a5 60 15 3e
       0.8443628 -0.18338041 0.047727454 0.14587648
0000a0 ad 3d c4 bd 9e fd af 3e e5 99 24 3e 94 10 97 3e
       -0.09582076 0.34373182 0.16074331 0.29504836
0000b0 97 0a 69 bf dc 2d 5e 3e a5 9b 25 3e 9e 13 a3 be
       -0.91031784 0.21697181 0.16172655 -0.31850904
0000c0 7d d2 fc 3e e7 8a c7 3d d6 d1 87 3c 19 0f d3 3d
       0.4937934 0.097432904 0.01657955 0.10305614
0000d0 89 f6 65 bd 39 6b 14 bc 28 9b 09 3d dc 61 0d 3d
       -0.056143317 -0.009058767 0.033595234 0.034517154
0000e0 2f 12 8d 3d 91 89 19 3d 87 59 4f bd a4 18 3e bd
       0.06888234 0.03748471 -0.05062249 -0.046410218
0000f0 60 20 6a 3e 42 56 b2 bd a4 7e 1f be fe cf 9e 3d
       0.22863913 -0.087078586 -0.15575653 0.07754515
000100 02 09 ff 3c 45 63 1b 3b 87 ff 12 bd 70 41 76 bc
       0.031132225 0.0023710292 -0.03588822 -0.01503025
000110 ff f4 2d be bd b9 b8 bd 92 79 dd 3d 03 37 f6 3d
       -0.1698799 -0.09019802 0.10814203 0.120222114
000120 30 a1 41 3d 22 34 d0 bd 30 05 5d bd a0 8a b0 3d
       0.04727286 -0.101661935 -0.053960025 0.086201906
000130 f7 74 a6 bd 64 6f 32 3e fd 64 80 3d f3 b3 12 3d
       -0.08127778 0.17425305 0.06269262 0.035816144
000140 7e 88 15 be 86 c2 4c be 31 e3 c3 ba b4 46 ae bd
       -0.14602849 -0.1999608 -0.0014945028 -0.08509579
000150 65 98 f9 bd 06 9e 0b be 24 db 33 3e 5e 16 8a ba
       -0.1218727 -0.136345 0.17564064 -0.001053523
000160 1d dc 69 3d 2d 08 b6 bd 61 71 15 bc cb a2 e5 bc
       0.057094682 -0.08888278 -0.00912127 -0.028031727
000170 a6 f4 8e 3d 49 6d 69 3c af da e9 3d 0d b7 44 bd
       0.06980257 0.014247247 0.11418664 -0.048026133
000180 42 fa ec be 87 72 4f be f4 a2 1e bd c3 1a 4f 3e
       -0.46284682 -0.20258532 -0.038729623 0.20225053
000190 dc dc 26 3d c5 80 a7 bd 7d 00 44 3d 21 5c 9f bc
       0.04073797 -0.08178858 0.04785203 -0.01945311
0001a0 79 df a0 bd e4 56 cb bc dc fc e4 3d 67 37 b2 bc
       -0.07855124 -0.024821706 0.111810416 -0.021754934
0001b0 6e 80 15 3e b3 e6 da bd 36 1a ed bd 41 5b e4 be
       0.14599773 -0.10688534 -0.11577265 -0.4460087
0001c0 72 ee b3 bd f7 97 9f 3d e4 95 0b 3d 09 bc 09 3e
       -0.08785714 0.07792657 0.034078494 0.13450636
0001d0 e6 ea 90 3d bc 55 04 be 7b 76 27 3e 71 e3 e0 bd
       0.07076053 -0.1292333 0.1635379 -0.10980881
0001e0 cf 9b 3f 3a 9a 8c 00 b9 d8 c4 13 bd 68 8a 6c bd
       0.0007309289 -0.0001225941 -0.036076397 -0.057749182
0001f0 f9 84 42 bd a3 a6 66 3d 60 7d 8d 3e 9b d1 8e bc
       -0.047490094 0.05631126 0.27634716 -0.017433932
000200 f3 bc dc be b5 ff 8d be 9d 10 8d 3e 06 18 7f 3e
       -0.43112907 -0.2773415 0.27551737 0.24911508
000210 ac 29 51 bd 8c ba 47 be 26 2c 90 3c 89 67 10 be
       -0.051065132 -0.19504756 0.017599177 -0.14101996
000220 46 4a 20 be 01 6f cc bb 2a 67 fa bd 7d d5 0a be
       -0.15653333 -0.0062388186 -0.12226708 -0.13558002
000230 b1 25 72 be 36 59 29 be 17 ca 87 be bf 0b 76 be
       -0.2364719 -0.16537938 -0.2652137 -0.24027918
000240 49 90 85 be 98 bd 8b be 0d 50 5a be 51 f9 06 bf
       -0.26086643 -0.27293086 -0.213196 -0.52724177
000250 76 bd 45 be d0 d8 2c be 88 0b 82 bd ef 7a a6 bd
       -0.19310555 -0.16879582 -0.06349856 -0.081289165
000260 3f 24 9b bc aa 90 b4 bd da 50 6d bd d1 35 95 bd
       -0.018938182 -0.08816655 -0.057938434 -0.07285655
000270 6d fc 9d bd 97 d4 93 3d a0 92 9d 3e f0 47 97 3e
       -0.07714162 0.07218283 0.30775928 0.2954707
000280 39 8f 5b 3d a0 09 43 bc 0a 48 72 bd 58 b6 75 3d
       0.053603385 -0.01190415 -0.059150733 0.05998835
000290 49 df c6 bb 3d 79 6b 3d fd 58 c9 3b ed 60 b3 bd
       -0.006069098 0.05748867 0.0061446414 -0.087587215
0002a0 c2 ef 6b bd 21 18 7b bd b9 58 f5 bc c7 96 09 3c
       -0.057601698 -0.061302308 -0.029949533 0.0083977645
0002b0 05 99 04 3e 1b 9d 42 3d f5 6e 2f be 57 d9 ba bc
       0.12948997 0.04751311 -0.1713217 -0.022808714
0002c0 78 52 6c bd 17 45 9a 3d bc 67 d4 bc 9d 41 e4 3d
       -0.057695836 0.07532709 -0.02592837 0.11145327
0002d0 6e bd a3 3e 4b 69 93 bf a0 fa 56 3e 8f 6c 4c bc
       0.3198046 -1.1516508 0.20994043 -0.012477054
0002e0 46 73 01 3e 12 53 9c bd 2e c0 73 be bd 53 ab 3d
       0.1264163 -0.07633032 -0.2380378 0.08365581
0002f0 4a d6 cc bd 00 7d e2 3a 81 6b f5 bc 93 33 41 bd
       -0.1000181 0.0017279685 -0.029958488 -0.047168326
000300 e6 b8 79 bd ae 7e af bd b3 fb 00 bb e8 77 89 3c
       -0.06096735 -0.08569084 -0.0019681274 0.016780809
000310 d8 21 2d 3e 2f aa 53 3d 7e ce a5 bd 70 32 6b 3d
       0.16907442 0.05167597 -0.08096026 0.057421148
000320 99 63 19 3d 70 ff 8c bd 5b d9 6a bc 15 52 3f bb
       0.0374485 -0.06884658 -0.014334048 -0.0029193212
000330 e6 b7 8b be 54 09 e6 bd af e8 11 bd 59 8b 96 bd
       -0.2728874 -0.11232248 -0.035622295 -0.07350797
000340 fe 1e 2d be e4 43 48 be 5b 51 96 be 49 61 34 be
       -0.16906354 -0.19557148 -0.29358944 -0.17615236
000350 11 ad d3 bd 3d f8 d0 bd bf 72 47 be 66 55 cd bb
       -0.10335744 -0.10203598 -0.19477366 -0.006266284
000360 4f ec 08 be f1 c5 03 be c2 f2 3e 3d f4 01 ed 3b
       -0.13371395 -0.12868477 0.04661823 0.007232899
000370 29 dd 42 be e4 ca 31 ba e1 a1 37 3e 00 7b 43 bc
       -0.19029678 -0.0006782247 0.17932846 -0.011931181
000380 bf 36 33 3e a9 b1 15 3e f6 68 71 3d b9 d1 73 bd
       0.17501353 0.14618553 0.05893799 -0.05952618
000390 08 b1 28 be bb ce 10 bd 77 e7 1c 3e b9 a7 5a bd
       -0.16473782 -0.035353404 0.15322672 -0.05338261
0003a0 84 32 6a be 36 48 a4 be 22 25 4b 3d df f4 2f 3e
       -0.22870833 -0.32086343 0.04959596 0.17183255
0003b0 0a 76 6d 3d 53 d2 01 3d ba b2 82 bc 31 e1 72 3c
       0.0579739 0.03169472 -0.015954364 0.014824198
0003c0 10 a8 2e 3e d7 c4 b7 3e 7b d6 84 be 87 c7 80 3c
       0.17056298 0.35892364 -0.25944886 0.015720142
0003d0 b9 9f 50 3e 3b f6 83 3e 5a 3c 6a 3d f4 49 e3 3e
       0.2037343 0.25773796 0.057186462 0.4439236
0003e0 ae 80 b4 3e 4e 31 1e 3c 4d c8 13 3e 23 9f 1a 3e
       0.35254425 0.00965531 0.14431877 0.15099768
0003f0 4d 3c b5 bd 1a d8 16 be 85 e3 f4 bd f9 44 7e be
       -0.08849392 -0.14730874 -0.119574584 -0.24830998

linear1.bias f4 [128]
000000 88 70 ca 3e 1e e6 7c 3e a7 3b d9 3e cd ef b6 bd
       0.3953898 0.24697158 0.42428324 -0.08932457
000010 de 88 e3 be e5 3b e8 3e 99 aa e1 3e 25 9d 3b ba
       -0.4444036 0.45358196 0.44075468 -0.00071569
000020 0c 48 14 3f 68 e2 cd be bc 9e 3c 3f 48 25 2f 3f
       0.57922435 -0.40211797 0.7367971 0.6841626
000030 a2 25 0d bd dd 72 12 be 51 59 7c be ca 20 91 3e
       -0.034459718 -0.1430163 -0.24643447 0.2834533
000040 11 74 6c be 7b b3 f9 3e 98 1f a7 be 1e 7b b3 be
       -0.23091151 0.48769745 -0.32641292 -0.35054868
000050 5a b8 3a 3f 17 0b 34 3f 2f 37 93 3e ff b5 36 bf
       0.7293755 0.7032942 0.2875304 -0.71371454
000060 55 fb 97 3e 76 15 90 3e cf e9 42 3f 45 a5 20 be
       0.2968394 0.28141373 0.76138014 -0.15688045
000070 2e 1f b6 be 8c 58 28 3f db ae 0f 3f 53 0e 74 3e
       -0.35570663 0.6576011 0.56126183 0.2383359
000080 98 3d 16 3f b4 92 19 3f de 60 08 bf 91 2f f9 3d
       0.58687735 0.59989476 -0.5327281 0.12167276
000090 aa 77 b1 3e 88 19 0b 3f d6 1d 9d bd b2 81 32 3f
       0.3466161 0.5433583 -0.076717064 0.6972915
0000a0 ba e3 19 3e c2 da af 3d d8 92 0d bf c9 48 6c be
       0.15028277 0.085866466 -0.5530219 -0.2307464
0000b0 a3 46 2d 3f 72 9d 2c 3f 0c 28 8a be 2b 49 4b be
       0.6768591 0.6742774 -0.26983678 -0.1985213
0000c0 df 20 b2 3e ad c0 64 be 1f d2 0f 3f 1b 38 12 3e
       0.34790704 -0.22339125 0.56179994 0.14279215
0000d0 48 3b 4d be 7a 1b 46 3e de a8 e4 3e c0 17 cc be
       -0.20042145 0.19346419 0.44660085 -0.3986187
0000e0 6f 4c bc 3e 10 61 f1 3e fa 3a 01 3f 25 9b 8f 3c
       0.36777064 0.47144365 0.50480616 0.017530033
0000f0 72 19 b5 3e 93 e8 d0 3e 55 b4 da 3e df e2 1c 3f
       0.35370976 0.4080244 0.42715707 0.6128368
000100 06 fe 8a 3e 21 9c 18 bf 7e 24 f6 bc ee 90 8a 3e
       0.2714693 -0.59613234 -0.030046698 0.27063698
000110 61 af d9 be 83 a2 79 3e 0e be 12 bf 28 b4 ee 3e
       -0.42516616 0.243784 -0.5732125 0.46621823
000120 40 6c ff 3e 5f 06 99 3e a1 3b d3 be 3b c7 cc be
       0.49887276 0.29887673 -0.4125643 -0.3999575
000130 ff e8 29 3f 19 6a be 3e 24 23 b1 3e 5d 79 c9 3e
       0.6637115 0.3719032 0.34597123 0.39350405
000140 db 25 dd be 8a fe 0a 3f 8a 19 f7 be c6 76 da be
       -0.43192944 0.54294646 -0.48261672 -0.42668742
000150 0b 96 05 3f a8 14 f7 3e 27 f2 e5 3e 2b 5d 8d 3e
       0.5218207 0.48257947 0.4491131 0.27610144
000160 4b fb 6a 3e b9 50 18 3f 5b a9 14 3f 71 6e b0 be
       0.22947423 0.59498173 0.58070916 -0.3445926
000170 82 c4 6c 3f dc f1 7e 3e 44 e0 4f be d2 26 d0 be
       0.9248735 0.2489695 -0.20300394 -0.40654618
000180 63 4f b3 3e 6f f7 08 bf a9 8d ea 3e 76 9b 02 3f
       0.35021505 -0.53502554 0.45811203 0.51018465
000190 2c 9e 5c be a6 ac 0a 3d 7b 7f 97 be 5c 0b 0e 3f
       -0.21544713 0.033856057 -0.29589447 0.55486083
0001a0 f8 11 ae 3e a4 44 19 3f 76 08 12 bf 05 76 75 be
       0.33998084 0.5987036 -0.5704416 -0.23970802
0001b0 ce f8 c5 3e 0b 51 1f 3f 47 8b 17 3f 8e b0 e6 3e
       0.38666385 0.62233037 0.59196895 0.45056576
0001c0 58 2b b8 3e 96 30 eb be 64 9e 16 3f 87 70 1f bd
       0.3597057 -0.45935506 0.58835435 -0.038925674
0001d0 3a 9d 26 3f a8 5c a3 3e fb 4a 1b 3f 90 7a de be
       0.6508366 0.3190663 0.60661286 -0.43452883
0001e0 bd 98 cc 3e a1 27 b4 3e 96 35 86 bd e3 f3 1d 3f
       0.3996028 0.35186484 -0.065531895 0.61700267
0001f0 66 f7 29 3f ba 47 f4 3e af 76 28 bc 80 68 80 3c
       0.66393125 0.47710973 -0.010282203 0.01567483

linear2.weight f4 [64, 128]
000000 91 7f a0 3d 60 9e b2 3d 03 4a 65 3d 3e bc bb be
       0.07836831 0.08721614 0.055978786 -0.36667055
000010 5a a4 0b be cd b3 9c 3d ef 09 d7 3d 80 97 9b bd
       -0.13636914 0.07651482 0.104999416 -0.07597256
000020 54 f4 0f 3d cc 29 06 be 68 aa 7e bc 2e 6f 17 3d
       0.03514512 -0.13101882 -0.015543558 0.036971264
000030 9b 13 c2 bd 90 1c 12 3e 7b 95 8e be 40 48 d7 3c
       -0.09476396 0.14268708 -0.2784842 0.026279569
000040 1f 87 3a 3d 8d fa 64 3c 7e f2 04 be 34 84 ac bd
       0.045539018 0.013975752 -0.12983128 -0.08423653
000050 55 22 9f bc 79 fe 6c bd 9b d5 86 bd 1d 89 58 be
       -0.01942555 -0.05785987 -0.06583711 -0.21146055
000060 f0 a1 de 3c eb d7 3b 3e d7 4c f5 3c 9d 15 9f bd
       0.027176827 0.18344085 0.029943867 -0.07767794
000070 a5 13 7c bc 47 2d 25 be e5 b7 34 bc 6b 87 2d be
       -0.015385543 -0.16130553 -0.011030172 -0.16946189
000080 ec bc f5 3c 55 a6 fa bd 21 fb 3b be 63 cd f4 bc
       0.029997312 -0.122387566 -0.18357517 -0.029883092
000090 ad f6 41 be bd ba cd 3c 5f 18 83 3b fd 52 1e 3e
       -0.18941756 0.025113458 0.004000708 0.15461345
0000a0 46 d4 cf bd 7e 9e b6 3d 6c 1c 22 be cd 81 4b bf
       -0.1014791 0.08916949 -0.15831155 -0.79494935
0000b0 a3 dd 0a 3e 7b a7 96 bd 48 02 8b ba d8 5c 71 3c
       0.1356111 -0.07356163 -0.0010605538 0.014731608
0000c0 31 54 de bd 34 d0 8a bc 22 a3 11 3c 06 d1 b7 bc
       -0.10855902 -0.016944982 0.008888992 -0.022438537
0000d0 65 9d b1 bc a6 af 94 3d 77 39 34 3e 4a 3a 74 be
       -0.021681497 0.07260065 0.17600046 -0.2385036
0000e0 ea 4d 16 3d 33 46 14 3d 3d f1 d2 3d 38 28 5c be
       0.0366954 0.03619976 0.10299919 -0.21499717
0000f0 8f 56 25 bd 22 d3 84 3d 16 15 79 bd 3a dd 00 3e
       -0.04036575 0.06485583 -0.060811125 0.12584391
000100 ca dc 19 3d b8 67 88 3d 7e 57 58 bd 29 e8 7d bc
       0.037564076 0.06660408 -0.052817814 -0.015497246
000110 b6 ba b2 bd 14 f5 5a 3d d6 24 8a bd 24 45 5f 3d
       -0.087270185 0.05345638 -0.06745307 0.054509297
000120 ea 81 20 3d 6f 06 6a be 8a ac 1a be 94 a9 9d bd
       0.039186396 -0.22854017 -0.15104881 -0.0769836
000130 db 2f b7 bb bd 18 34 bc 2c e3 3e 3d f2 36 29 bd
       -0.0055904216 -0.010992226 0.046603367 -0.041312166
000140 0d 16 5e be f2 f2 d7 bd cf 5d af bd 46 11 48 3d
       -0.21688099 -0.10544385 -0.085628144 0.0488446
000150 dc b3 91 3d 7c 9c 43 be 57 bf ce 3d 24 04 5e 3e
       0.071143836 -0.19102663 0.10095089 0.21681267
000160 b3 68 4e 3e 55 ee 07 3e 59 0b 02 3e 46 19 e8 3c
       0.20157127 0.1327451 0.12699641 0.028332364
000170 ab 0e 8f 3e da 6a 03 3d a9 07 f3 bd 6e 36 f0 3a
       0.27940878 0.032084323 -0.118666954 0.0018326768
000180 80 7d a5 bd 08 dd 6c bd fc 62 bc 3d 51 3b fe 3c
       -0.08080578 -0.05782798 0.09198567 0.031034144
000190 0d 59 9d bd d0 89 fb bd 4e c8 f0 3c d7 86 f7 3c
       -0.07683001 -0.12282145 0.029392388 0.030215664
0001a0 fe f9 9f 3d 2e 43 ba 3d b3 3a 42 3d 4c 80 9c be
       0.07811354 0.09094845 0.04741926 -0.30566633
0001b0 d2 05 c4 3b bd a9 84 3d 9e 9d d1 3d e9 b4 7a 3d
       0.005982139 0.064776875 0.10235141 0.061207686
0001c0 fd e1 98 bb 6d 69 f7 b7 10 db cc 3d 08 8e 4a 3e
       -0.004665612 -2.9493787e-05 0.1000272 0.19780743
0001d0 ba 4b aa 3e 39 20 01 be 12 5a 93 3d fb 6d ea bd
       0.332609 -0.12609948 0.07194914 -0.11446758
0001e0 fb 8c 4b 3e 92 67 e7 bc ef 15 62 bd d0 6e 88 3e
       0.19877999 -0.028247628 -0.0551967 0.26647043
0001f0 33 77 10 bb 9d 4d 9f bc 62 85 2a 3d 38 5a 10 3e
       -0.0022043705 -0.019446189 0.04163111 0.14096916
000200 f7 ee 25 bc 20 da 88 3d 7f 13 2c 3e e3 bf 08 be
       -0.010127774 0.06682229 0.16804312 -0.13354449
000210 07 55 82 3d 9b d3 26 3e 10 c2 dd 3d 3c 80 63 bd
       0.06363874 0.16291659 0.1082803 -0.055542216
000220 ff ff 63 3d dd 1e 1d bd 16 38 d3 3d 73 c5 55 3d
       0.05566406 -0.03835951 0.10313432 0.052190255
000230 56 46 00 bd f0 be 03 3d 9e 1b 88 3d 6d 7c 25 bc
       -0.031317078 0.032164514 0.066458926 -0.010100466
000240 69 0a 5c 3b de 6d 79 3c 90 58 88 bd 96 80 fd 3c
       0.003357554 0.015223948 -0.06657517 0.030945104
000250 7f d3 8d 3d b0 57 f8 3d 3c d2 d1 3d f2 9a 09 be
       0.06925105 0.121261 0.10245177 -0.13438013
000260 29 a6 59 3e ea 1e 9a 3d 48 13 0d 3e 68 0a 2a be
       0.21254791 0.07525428 0.13776886 -0.16605532
000270 dd 35 81 bc a8 97 ee 3d 5e f0 39 3e 94 e0 ae 3c
       -0.015772754 0.1165002 0.18158099 0.021347322
000280 8e 8f 09 3e a8 07 27 3e 59 fb c1 bd 35 65 93 3d
       0.13433668 0.16311514 -0.09471769 0.07197038
000290 bc c3 b9 3d d0 0c ef 3d a6 6a a5 3d 1a 05 a4 3d
       0.090705365 0.11672366 0.08076982 0.080087855
0002a0 90 33 f0 3d 97 99 1f 3d 28 5b 54 be e9 6d a7 be
       0.11728585 0.038964834 -0.20737898 -0.32701042
0002b0 b8 c5 be 3d b9 70 10 3e 86 93 59 bc ba 86 3f 3c
       0.093150556 0.141055 -0.013279801 0.011689836
0002c0 0f 84 0f bd 28 a7 52 bc 9b 89 02 3e 89 c8 23 bc
       -0.03503805 -0.012857236 0.12747805 -0.009996542
0002d0 80 bf 60 bd a6 6f a5 3d a7 a2 90 3e f9 65 de bc
       -0.05487013 0.08077936 0.28249094 -0.027148234
0002e0 57 69 53 3e 19 f1 d1 3d 52 f6 eb 3d 75 7a 89 3d
       0.20645653 0.10251064 0.11521591 0.0671281
0002f0 4e 71 1e 3e ba ad 03 3e 65 3f 11 3e f0 4c 72 3e
       0.1547291 0.1285924 0.1418434 0.23662162
000300 14 25 92 3d 98 21 a6 3d ed 21 93 3d 36 ea fa bc
       0.07135978 0.08111876 0.07184205 -0.030629259
000310 9f be 05 be 8e d6 1e 3e 10 63 3e be b5 9a 37 3e
       -0.13060997 0.15511534 -0.18592477 0.1793011
000320 21 83 12 3e 23 bf 60 be e9 ed 8c bd 93 40 b9 bd
       0.14307834 -0.21947913 -0.06881315 -0.0904552
000330 be a1 03 3e d9 4e 68 bd 2d 91 e7 3c 80 58 b3 3d
       0.12854668 -0.05671582 0.028267467 0.087571144
000340 20 25 15 3c a9 3d 02 3e 50 e2 ed 3b 80 85 52 bd
       0.00910309 0.12718834 0.0072596446 -0.051396847
000350 2f b5 dc 3d b6 a4 af 3c 4f f3 37 3d 9a 71 09 3e
       0.107767455 0.021440845 0.04490977 0.13422242
000360 ea b1 16 3e 0f 49 96 3d c7 30 25 3e b4 82 d9 3d
       0.14716306 0.073381536 0.16131888 0.10620633
000370 22 9e 99 3e 09 f5 ed 3d af 0b 14 be a0 eb 14 3d
       0.30003458 0.11619002 -0.14457582 0.036357522
000380 43 1d 94 bb a0 83 ec bd b5 71 2d 3e ed ee f3 3d
       -0.00452009 -0.11548543 0.16937907 0.11910806
000390 c2 fd f5 3c 4a 19 5a 3d 73 d0 54 3d a8 d0 5a 3c
       0.030028228 0.053246774 0.051956605 0.013355412
0003a0 6f da 3f 3d 96 0e 67 3e bb ae 4c bc e9 0f 8f bd
       0.046839174 0.22564158 -0.012492831 -0.069854565
0003b0 58 56 a2 3d ab fe 5f 3d 22 04 86 3d a4 e1 d6 3c
       0.07926625 0.05468623 0.06543757 0.02623064
0003c0 15 3b 42 3d 57 c3 26 bd 59 69 b4 3d aa 5c 7b 3e
       0.047419626 -0.040713634 0.08809156 0.24547067
0003d0 38 6a 45 3e 48 3c e7 3d 7c c0 65 3e c2 3b 9b bc
       0.192788 0.112907946 0.22436708 -0.018949393
0003e0 2b 87 40 3e ea d7 a2 bd ce f9 6e 3d df b9 28 3e
       0.18801562 -0.079513386 0.0583437 0.16477154
0003f0 12 15 ce 3d a6 cd f8 3d 3f 52 2b be 6e d9 99 3d
       0.100626126 0.12148599 -0.16730593 0.075121745

linear2.bias f4 [64]
000000 2f 2a d8 3e ab 52 19 3f 4b 63 a0 be e7 15 92 3d
       0.42219684 0.59891766 -0.31325755 0.07133084
000010 1e d9 11 3f 27 a4 fa 3e 6e 8c 0c 3f 2a 85 0e 3e
       0.5697192 0.48953363 0.5490178 0.13917986
000020 59 6e 45 be 94 ec 1a 3f 41 45 0d 3f 15 e8 ab be
       -0.19280376 0.6051724 0.551838 -0.33575502
000030 43 ac d3 be ec 87 99 be 72 62 21 3f 1e ad 0a 3f
       -0.41342363 -0.29986513 0.6304084 0.54170406
000040 e1 ed ef be cb 61 0d 3f 1d 7e ac be 38 ea 0b 3f
       -0.46861175 0.55227345 -0.33689967 0.54654264
000050 95 fb 99 be 9f 24 2e 3f 1a 32 b7 be 23 d1 d9 be
       -0.30074754 0.6802463 -0.35780412 -0.4254237
000060 a0 30 11 3f 1e af d3 be 5e 91 b0 be c8 15 ff 3e
       0.5671482 -0.4134454 -0.34485906 0.49821305
000070 ee b2 ba be 16 48 9b be 2e 55 02 bf 1d 85 07 3f
       -0.36464638 -0.30328435 -0.50911224 0.5293749
000080 71 e0 07 3f ab 44 fd be 62 0f d3 3e bb c5 fd 3e
       0.53076845 -0.49466452 0.41222674 0.4956492
000090 9a cf 28 3f bb 05 0d bf fe 6e 25 3f fa 7c 17 3f
       0.65941775 -0.5508687 0.64622486 0.59175074
0000a0 a4 a1 a6 be 57 c9 8c be b8 8c 9b be 19 69 81 3d
       -0.32545197 -0.2749736 -0.30380797 0.06318874
0000b0 d2 8a 0a 3f a7 09 15 3d b5 4c a1 be 7e 1a ca be
       0.54118073 0.03638616 -0.31503835 -0.39473337
0000c0 c0 de 1e 3f 0f 9b 25 3f d8 60 ec be 0b aa 7d be
       0.6205864 0.64689726 -0.46167636 -0.24771897
0000d0 94 8b f6 be b1 61 ba be 75 7d ee be 34 d0 db be
       -0.48153365 -0.36402658 -0.4658009 -0.42932284
0000e0 2b d6 bb be 08 28 e3 be c6 97 29 3f 5c dc 8b be
       -0.36686835 -0.4436648 0.6624721 -0.27316558
0000f0 d6 49 11 3f f3 8b db be aa 97 06 3f 7d 79 39 be
       0.5675329 -0.4288021 0.5257517 -0.1811275

output.weight f4 [1, 64]
000000 18 4c 0c 3e 3b b3 37 3e ef d5 b8 be df 8f 8f 3f
       0.13700902 0.17939465 -0.36100718 1.1215781
000010 93 9b 61 3e 00 e4 81 3e 7a 5d 7e 3e 8d 0e 89 3f
       0.22032003 0.25369263 0.24840346 1.0707566
000020 66 2b 05 c0 97 a0 93 3e 93 7e 66 3e 27 db 14 bf
       -2.0807738 0.28833458 0.22509222 -0.581469
000030 54 50 6e bf f5 ec 4d bf ea e8 00 3f 01 2d 81 3e
       -0.9309132 -0.8043969 0.503554 0.25229648
000040 00 2a 19 bf 01 2a 1b 3e 3a 8a 10 bf ff b2 4e 3e
       -0.5982971 0.15152742 -0.56460917 0.20185469
000050 54 0e f0 be 3f 99 82 3e 3a ee f4 be f6 63 b1 be
       -0.46885931 0.25507542 -0.47838002 -0.34646577
000060 9e db 0b 3e 38 7f 86 bf 97 e8 06 bf 6e 64 32 3e
       0.13657996 -1.0507574 -0.52698654 0.17421123
000070 fb 63 ef be 59 8f df be 1e 54 7b bf 45 fb 7c 3e
       -0.46755967 -0.43664053 -0.9817523 0.24705227
000080 22 ec 9e 3e 64 d9 69 bf 8d 8b 94 3e 2f f6 9c 3e
       0.3103953 -0.91347337 0.2901272 0.30656573
000090 9a b4 0d 3e b9 af c8 be 71 6a 37 3e 53 af 88 3e
       0.13838425 -0.39196566 0.17911698 0.26696262
0000a0 44 5a d8 be e1 f0 0f bf d2 17 f1 be b2 5f 6c 3f
       -0.42256367 -0.5622693 -0.47088486 0.9233352
0000b0 09 e4 67 3e 6f 4f 96 3f 7e 53 bc be 57 e1 b5 be
       0.22645582 1.1742991 -0.3678245 -0.35523483
0000c0 27 f7 99 3e f5 8a 9c 3e 64 ca 0b bf cb a5 d3 be
       0.30071375 0.30574766 -0.546057 -0.41337427
0000d0 9a 72 af be cb e4 be be db d5 b3 be 04 7d 2e bf
       -0.34267122 -0.3728393 -0.35124096 -0.6815951
0000e0 d0 86 a8 be f1 76 d3 be 84 6d 9b 3e 49 b8 d5 be
       -0.32915354 -0.41301683 0.3035699 -0.4174216
0000f0 49 b9 c1 3e 4e e4 37 be 9a 91 4c 3e 2b f8 b1 bf
       0.37836674 -0.17958185 0.19977418 -1.390386

linear1.weight f4 [128, 34]
000000 c9 3c a2 3c a6 8f 43 bc e9 4e b8 3e 49 cf ab be
       0.019804375 -0.011936104 0.35997704 -0.33556584
000010 ed 62 7a 3e 65 e5 86 3e ae ee 49 be c8 d8 c0 bd
       0.244518 0.2634689 -0.19719955 -0.09416348
000020 d8 79 12 3e ca de 35 be f4 57 c2 3e 6e 9b 9a bd
       0.14304292 -0.17760769 0.37957728 -0.07549177
000030 fa 02 2e bc 80 95 29 3e 87 77 37 bf c7 4b b0 3e
       -0.010620827 0.16560936 -0.7166676 0.34432814
000040 a6 90 43 be 90 d1 25 be 4d a5 bf bb 06 ac 80 3d
       -0.19098148 -0.16193223 -0.005848563 0.06282811
000050 94 09 55 3d 53 79 b8 3d bb 08 55 bd 35 e6 b1 3c
       0.052011088 0.09007516 -0.05201028 0.021716217
000060 66 86 92 3c 1e 4a 9c bb 4d 8e 09 3f 84 8f 6c bd
       0.017886352 -0.0047695776 0.5373276 -0.057754055
000070 91 99 92 be f2 23 19 be 29 6f d4 3d 3a 7b 9b bd
       -0.28632787 -0.14955118 0.103727646 -0.07591863
000080 b4 96 8d 3c 94 28 88 bd 11 15 9b 3d a9 0b 48 3c
       0.017283775 -0.06648365 0.075723775 0.012209811
000090 29 28 58 3f 13 c8 3b be dd 7d 43 3d a5 60 15 3e
       0.8443628 -0.18338041 0.047727454 0.14587648
0000a0 ad 3d c4 bd 9e fd af 3e e5 99 24 3e 94 10 97 3e
       -0.09582076 0.34373182 0.16074331 0.29504836
0000b0 97 0a 69 bf dc 2d 5e 3e a5 9b 25 3e 9e 13 a3 be
       -0.91031784 0.21697181 0.16172655 -0.31850904
0000c0 7d d2 fc 3e e7 8a c7 3d d6 d1 87 3c 19 0f d3 3d
       0.4937934 0.097432904 0.01657955 0.10305614
0000d0 89 f6 65 bd 39 6b 14 bc 28 9b 09 3d dc 61 0d 3d
       -0.056143317 -0.009058767 0.033595234 0.034517154
0000e0 2f 12 8d 3d 91 89 19 3d 87 59 4f bd a4 18 3e bd
       0.06888234 0.03748471 -0.05062249 -0.046410218
0000f0 60 20 6a 3e 42 56 b2 bd a4 7e 1f be fe cf 9e 3d
       0.22863913 -0.087078586 -0.15575653 0.07754515
000100 02 09 ff 3c 45 63 1b 3b 87 ff 12 bd 70 41 76 bc
       0.031132225 0.0023710292 -0.03588822 -0.01503025
000110 ff f4 2d be bd b9 b8 bd 92 79 dd 3d 03 37 f6 3d
       -0.1698799 -0.09019802 0.10814203 0.120222114
000120 30 a1 41 3d 22 34 d0 bd 30 05 5d bd a0 8a b0 3d
       0.04727286 -0.101661935 -0.053960025 0.086201906
000130 f7 74 a6 bd 64 6f 32 3e fd 64 80 3d f3 b3 12 3d
       -0.08127778 0.17425305 0.06269262 0.035816144
000140 7e 88 15 be 86 c2 4c be 31 e3 c3 ba b4 46 ae bd
       -0.14602849 -0.1999608 -0.0014945028 -0.08509579
000150 65 98 f9 bd 06 9e 0b be 24 db 33 3e 5e 16 8a ba
       -0.1218727 -0.136345 0.17564064 -0.001053523
000160 1d dc 69 3d 2d 08 b6 bd 61 71 15 bc cb a2 e5 bc
       0.057094682 -0.08888278 -0.00912127 -0.028031727
000170 a6 f4 8e 3d 49 6d 69 3c af da e9 3d 0d b7 44 bd
       0.06980257 0.014247247 0.11418664 -0.048026133
000180 42 fa ec be 87 72 4f be f4 a2 1e bd c3 1a 4f 3e
       -0.46284682 -0.20258532 -0.038729623 0.20225053
000190 dc dc 26 3d c5 80 a7 bd 7d 00 44 3d 21 5c 9f bc
       0.04073797 -0.08178858 0.04785203 -0.01945311
0001a0 79 df a0 bd e4 56 cb bc dc fc e4 3d 67 37 b2 bc
       -0.07855124 -0.024821706 0.111810416 -0.021754934
0001b0 6e 80 15 3e b3 e6 da bd 36 1a ed bd 41 5b e4 be
       0.14599773 -0.10688534 -0.11577265 -0.4460087
0001c0 72 ee b3 bd f7 97 9f 3d e4 95 0b 3d 09 bc 09 3e
       -0.08785714 0.07792657 0.034078494 0.13450636
0001d0 e6 ea 90 3d bc 55 04 be 7b 76 27 3e 71 e3 e0 bd
       0.07076053 -0.1292333 0.1635379 -0.10980881
0001e0 cf 9b 3f 3a 9a 8c 00 b9 d8 c4 13 bd 68 8a 6c bd
       0.0007309289 -0.0001225941 -0.036076397 -0.057749182
0001f0 f9 84 42 bd a3 a6 66 3d 60 7d 8d 3e 9b d1 8e bc
       -0.047490094 0.05631126 0.27634716 -0.017433932
000200 f3 bc dc be b5 ff 8d be 9d 10 8d 3e 06 18 7f 3e
       -0.43112907 -0.2773415 0.27551737 0.24911508
000210 ac 29 51 bd 8c ba 47 be 26 2c 90 3c 89 67 10 be
       -0.051065132 -0.19504756 0.017599177 -0.14101996
000220 46 4a 20 be 01 6f cc bb 2a 67 fa bd 7d d5 0a be
       -0.15653333 -0.0062388186 -0.12226708 -0.13558002
000230 b1 25 72 be 36 59 29 be 17 ca 87 be bf 0b 76 be
       -0.2364719 -0.16537938 -0.2652137 -0.24027918
000240 49 90 85 be 98 bd 8b be 0d 50 5a be 51 f9 06 bf
       -0.26086643 -0.27293086 -0.213196 -0.52724177
000250 76 bd 45 be d0 d8 2c be 88 0b 82 bd ef 7a a6 bd
       -0.19310555 -0.16879582 -0.06349856 -0.081289165
000260 3f 24 9b bc aa 90 b4 bd da 50 6d bd d1 35 95 bd
       -0.018938182 -0.08816655 -0.057938434 -0.07285655
000270 6d fc 9d bd 97 d4 93 3d a0 92 9d 3e f0 47 97 3e
       -0.07714162 0.07218283 0.30775928 0.2954707
000280 39 8f 5b 3d a0 09 43 bc 0a 48 72 bd 58 b6 75 3d
       0.053603385 -0.01190415 -0.059150733 0.05998835
000290 49 df c6 bb 3d 79 6b 3d fd 58 c9 3b ed 60 b3 bd
       -0.006069098 0.05748867 0.0061446414 -0.087587215
0002a0 c2 ef 6b bd 21 18 7b bd b9 58 f5 bc c7 96 09 3c
       -0.057601698 -0.061302308 -0.029949533 0.0083977645
0002b0 05 99 04 3e 1b 9d 42 3d f5 6e 2f be 57 d9 ba bc
       0.12948997 0.04751311 -0.1713217 -0.022808714
0002c0 78 52 6c bd 17 45 9a 3d bc 67 d4 bc 9d 41 e4 3d
       -0.057695836 0.07532709 -0.02592837 0.11145327
0002d0 6e bd a3 3e 4b 69 93 bf a0 fa 56 3e 8f 6c 4c bc
       0.3198046 -1.1516508 0.20994043 -0.012477054
0002e0 46 73 01 3e 12 53 9c bd 2e c0 73 be bd 53 ab 3d
       0.1264163 -0.07633032 -0.2380378 0.08365581
0002f0 4a d6 cc bd 00 7d e2 3a 81 6b f5 bc 93 33 41 bd
       -0.1000181 0.0017279685 -0.029958488 -0.047168326
000300 e6 b8 79 bd ae 7e af bd b3 fb 00 bb e8 77 89 3c
       -0.06096735 -0.08569084 -0.0019681274 0.016780809
000310 d8 21 2d 3e 2f aa 53 3d 7e ce a5 bd 70 32 6b 3d
       0.16907442 0.05167597 -0.08096026 0.057421148
000320 99 63 19 3d 70 ff 8c bd 5b d9 6a bc 15 52 3f bb
       0.0374485 -0.06884658 -0.014334048 -0.0029193212
000330 e6 b7 8b be 54 09 e6 bd af e8 11 bd 59 8b 96 bd
       -0.2728874 -0.11232248 -0.035622295 -0.07350797
000340 fe 1e 2d be e4 43 48 be 5b 51 96 be 49 61 34 be
       -0.16906354 -0.19557148 -0.29358944 -0.17615236
000350 11 ad d3 bd 3d f8 d0 bd bf 72 47 be 66 55 cd bb
       -0.10335744 -0.10203598 -0.19477366 -0.006266284
000360 4f ec 08 be f1 c5 03 be c2 f2 3e 3d f4 01 ed 3b
       -0.13371395 -0.12868477 0.04661823 0.007232899
000370 29 dd 42 be e4 ca 31 ba e1 a1 37 3e 00 7b 43 bc
       -0.19029678 -0.0006782247 0.17932846 -0.011931181
000380 bf 36 33 3e a9 b1 15 3e f6 68 71 3d b9 d1 73 bd
       0.17501353 0.14618553 0.05893799 -0.05952618
000390 08 b1 28 be bb ce 10 bd 77 e7 1c 3e b9 a7 5a bd
       -0.16473782 -0.035353404 0.15322672 -0.05338261
0003a0 84 32 6a be 36 48 a4 be 22 25 4b 3d df f4 2f 3e
       -0.22870833 -0.32086343 0.04959596 0.17183255
0003b0 0a 76 6d 3d 53 d2 01 3d ba b2 82 bc 31 e1 72 3c
       0.0579739 0.03169472 -0.015954364 0.014824198
0003c0 10 a8 2e 3e d7 c4 b7 3e 7b d6 84 be 87 c7 80 3c
       0.17056298 0.35892364 -0.25944886 0.015720142
0003d0 b9 9f 50 3e 3b f6 83 3e 5a 3c 6a 3d f4 49 e3 3e
       0.2037343 0.25773796 0.057186462 0.4439236
0003e0 ae 80 b4 3e 4e 31 1e 3c 4d c8 13 3e 23 9f 1a 3e
       0.35254425 0.00965531 0.14431877 0.15099768
0003f0 4d 3c b5 bd 1a d8 16 be 85 e3 f4 bd f9 44 7e be
       -0.08849392 -0.14730874 -0.119574584 -0.24830998

linear1.bias f4 [128]
000000 88 70 ca 3e 1e e6 7c 3e a7 3b d9 3e cd ef b6 bd
       0.3953898 0.24697158 0.42428324 -0.08932457
000010 de 88 e3 be e5 3b e8 3e 99 aa e1 3e 25 9d 3b ba
       -0.4444036 0.45358196 0.44075468 -0.00071569
000020 0c 48 14 3f 68 e2 cd be bc 9e 3c 3f 48 25 2f 3f
       0.57922435 -0.40211797 0.7367971 0.6841626
000030 a2 25 0d bd dd 72 12 be 51 59 7c be ca 20 91 3e
       -0.034459718 -0.1430163 -0.24643447 0.2834533
000040 11 74 6c be 7b b3 f9 3e 98 1f a7 be 1e 7b b3 be
       -0.23091151 0.48769745 -0.32641292 -0.35054868
000050 5a b8 3a 3f 17 0b 34 3f 2f 37 93 3e ff b5 36 bf
       0.7293755 0.7032942 0.2875304 -0.71371454
000060 55 fb 97 3e 76 15 90 3e cf e9 42 3f 45 a5 20 be
       0.2968394 0.28141373 0.76138014 -0.15688045
000070 2e 1f b6 be 8c 58 28 3f db ae 0f 3f 53 0e 74 3e
       -0.35570663 0.6576011 0.56126183 0.2383359
000080 98 3d 16 3f b4 92 19 3f de 60 08 bf 91 2f f9 3d
       0.58687735 0.59989476 -0.5327281 0.12167276
000090 aa 77 b1 3e 88 19 0b 3f d6 1d 9d bd b2 81 32 3f
       0.3466161 0.5433583 -0.076717064 0.6972915
0000a0 ba e3 19 3e c2 da af 3d d8 92 0d bf c9 48 6c be
       0.15028277 0.085866466 -0.5530219 -0.2307464
0000b0 a3 46 2d 3f 72 9d 2c 3f 0c 28 8a be 2b 49 4b be
       0.6768591 0.6742774 -0.26983678 -0.1985213
0000c0 df 20 b2 3e ad c0 64 be 1f d2 0f 3f 1b 38 12 3e
       0.34790704 -0.22339125 0.56179994 0.14279215
0000d0 48 3b 4d be 7a 1b 46 3e de a8 e4 3e c0 17 cc be
       -0.20042145 0.19346419 0.44660085 -0.3986187
0000e0 6f 4c bc 3e 10 61 f1 3e fa 3a 01 3f 25 9b 8f 3c
       0.36777064 0.47144365 0.50480616 0.017530033
0000f0 72 19 b5 3e 93 e8 d0 3e 55 b4 da 3e df e2 1c 3f
       0.35370976 0.4080244 0.42715707 0.6128368
000100 06 fe 8a 3e 21 9c 18 bf 7e 24 f6 bc ee 90 8a 3e
       0.2714693 -0.59613234 -0.030046698 0.27063698
000110 61 af d9 be 83 a2 79 3e 0e be 12 bf 28 b4 ee 3e
       -0.42516616 0.243784 -0.5732125 0.46621823
000120 40 6c ff 3e 5f 06 99 3e a1 3b d3 be 3b c7 cc be
       0.49887276 0.29887673 -0.4125643 -0.3999575
000130 ff e8 29 3f 19 6a be 3e 24 23 b1 3e 5d 79 c9 3e
       0.6637115 0.3719032 0.34597123 0.39350405
000140 db 25 dd be 8a fe 0a 3f 8a 19 f7 be c6 76 da be
       -0.43192944 0.54294646 -0.48261672 -0.42668742
000150 0b 96 05 3f a8 14 f7 3e 27 f2 e5 3e 2b 5d 8d 3e
       0.5218207 0.48257947 0.4491131 0.27610144
000160 4b fb 6a 3e b9 50 18 3f 5b a9 14 3f 71 6e b0 be
       0.22947423 0.59498173 0.58070916 -0.3445926
000170 82 c4 6c 3f dc f1 7e 3e 44 e0 4f be d2 26 d0 be
       0.9248735 0.2489695 -0.20300394 -0.40654618
000180 63 4f b3 3e 6f f7 08 bf a9 8d ea 3e 76 9b 02 3f
       0.35021505 -0.53502554 0.45811203 0.51018465
000190 2c 9e 5c be a6 ac 0a 3d 7b 7f 97 be 5c 0b 0e 3f
       -0.21544713 0.033856057 -0.29589447 0.55486083
0001a0 f8 11 ae 3e a4 44 19 3f 76 08 12 bf 05 76 75 be
       0.33998084 0.5987036 -0.5704416 -0.23970802
0001b0 ce f8 c5 3e 0b 51 1f 3f 47 8b 17 3f 8e b0 e6 3e
       0.38666385 0.62233037 0.59196895 0.45056576
0001c0 58 2b b8 3e 96 30 eb be 64 9e 16 3f 87 70 1f bd
       0.3597057 -0.45935506 0.58835435 -0.038925674
0001d0 3a 9d 26 3f a8 5c a3 3e fb 4a 1b 3f 90 7a de be
       0.6508366 0.3190663 0.60661286 -0.43452883
0001e0 bd 98 cc 3e a1 27 b4 3e 96 35 86 bd e3 f3 1d 3f
       0.3996028 0.35186484 -0.065531895 0.61700267
0001f0 66 f7 29 3f ba 47 f4 3e af 76 28 bc 80 68 80 3c
       0.66393125 0.47710973 -0.010282203 0.01567483

linear2.weight f4 [64, 128]
000000 91 7f a0 3d 60 9e b2 3d 03 4a 65 3d 3e bc bb be
       0.07836831 0.08721614 0.055978786 -0.36667055
000010 5a a4 0b be cd b3 9c 3d ef 09 d7 3d 80 97 9b bd
       -0.13636914 0.07651482 0.104999416 -0.07597256
000020 54 f4 0f 3d cc 29 06 be 68 aa 7e bc 2e 6f 17 3d
       0.03514512 -0.13101882 -0.015543558 0.036971264
000030 9b 13 c2 bd 90 1c 12 3e 7b 95 8e be 40 48 d7 3c
       -0.09476396 0.14268708 -0.2784842 0.026279569
000040 1f 87 3a 3d 8d fa 64 3c 7e f2 04 be 34 84 ac bd
       0.045539018 0.013975752 -0.12983128 -0.08423653
000050 55 22 9f bc 79 fe 6c bd 9b d5 86 bd 1d 89 58 be
       -0.01942555 -0.05785987 -0.06583711 -0.21146055
000060 f0 a1 de 3c eb d7 3b 3e d7 4c f5 3c 9d 15 9f bd
       0.027176827 0.18344085 0.029943867 -0.07767794
000070 a5 13 7c bc 47 2d 25 be e5 b7 34 bc 6b 87 2d be
       -0.015385543 -0.16130553 -0.011030172 -0.16946189
000080 ec bc f5 3c 55 a6 fa bd 21 fb 3b be 63 cd f4 bc
       0.029997312 -0.122387566 -0.18357517 -0.029883092
000090 ad f6 41 be bd ba cd 3c 5f 18 83 3b fd 52 1e 3e
       -0.18941756 0.025113458 0.004000708 0.15461345
0000a0 46 d4 cf bd 7e 9e b6 3d 6c 1c 22 be cd 81 4b bf
       -0.1014791 0.08916949 -0.15831155 -0.79494935
0000b0 a3 dd 0a 3e 7b a7 96 bd 48 02 8b ba d8 5c 71 3c
       0.1356111 -0.07356163 -0.0010605538 0.014731608
0000c0 31 54 de bd 34 d0 8a bc 22 a3 11 3c 06 d1 b7 bc
       -0.10855902 -0.016944982 0.008888992 -0.022438537
0000d0 65 9d b1 bc a6 af 94 3d 77 39 34 3e 4a 3a 74 be
       -0.021681497 0.07260065 0.17600046 -0.2385036
0000e0 ea 4d 16 3d 33 46 14 3d 3d f1 d2 3d 38 28 5c be
       0.0366954 0.03619976 0.10299919 -0.21499717
0000f0 8f 56 25 bd 22 d3 84 3d 16 15 79 bd 3a dd 00 3e
       -0.04036575 0.06485583 -0.060811125 0.12584391
000100 ca dc 19 3d b8 67 88 3d 7e 57 58 bd 29 e8 7d bc
       0.037564076 0.06660408 -0.052817814 -0.015497246
000110 b6 ba b2 bd 14 f5 5a 3d d6 24 8a bd 24 45 5f 3d
       -0.087270185 0.05345638 -0.06745307 0.054509297
000120 ea 81 20 3d 6f 06 6a be 8a ac 1a be 94 a9 9d bd
       0.039186396 -0.22854017 -0.15104881 -0.0769836
000130 db 2f b7 bb bd 18 34 bc 2c e3 3e 3d f2 36 29 bd
       -0.0055904216 -0.010992226 0.046603367 -0.041312166
000140 0d 16 5e be f2 f2 d7 bd cf 5d af bd 46 11 48 3d
       -0.21688099 -0.10544385 -0.085628144 0.0488446
000150 dc b3 91 3d 7c 9c 43 be 57 bf ce 3d 24 04 5e 3e
       0.071143836 -0.19102663 0.10095089 0.21681267
000160 b3 68 4e 3e 55 ee 07 3e 59 0b 02 3e 46 19 e8 3c
       0.20157127 0.1327451 0.12699641 0.028332364
000170 ab 0e 8f 3e da 6a 03 3d a9 07 f3 bd 6e 36 f0 3a
       0.27940878 0.032084323 -0.118666954 0.0018326768
000180 80 7d a5 bd 08 dd 6c bd fc 62 bc 3d 51 3b fe 3c
       -0.08080578 -0.05782798 0.09198567 0.031034144
000190 0d 59 9d bd d0 89 fb bd 4e c8 f0 3c d7 86 f7 3c
       -0.07683001 -0.12282145 0.029392388 0.030215664
0001a0 fe f9 9f 3d 2e 43 ba 3d b3 3a 42 3d 4c 80 9c be
       0.07811354 0.09094845 0.04741926 -0.30566633
0001b0 d2 05 c4 3b bd a9 84 3d 9e 9d d1 3d e9 b4 7a 3d
       0.005982139 0.064776875 0.10235141 0.061207686
0001c0 fd e1 98 bb 6d 69 f7 b7 10 db cc 3d 08 8e 4a 3e
       -0.004665612 -2.9493787e-05 0.1000272 0.19780743
0001d0 ba 4b aa 3e 39 20 01 be 12 5a 93 3d fb 6d ea bd
       0.332609 -0.12609948 0.07194914 -0.11446758
0001e0 fb 8c 4b 3e 92 67 e7 bc ef 15 62 bd d0 6e 88 3e
       0.19877999 -0.028247628 -0.0551967 0.26647043
0001f0 33 77 10 bb 9d 4d 9f bc 62 85 2a 3d 38 5a 10 3e
       -0.0022043705 -0.019446189 0.04163111 0.14096916
000200 f7 ee 25 bc 20 da 88 3d 7f 13 2c 3e e3 bf 08 be
       -0.010127774 0.06682229 0.16804312 -0.13354449
000210 07 55 82 3d 9b d3 26 3e 10 c2 dd 3d 3c 80 63 bd
       0.06363874 0.16291659 0.1082803 -0.055542216
000220 ff ff 63 3d dd 1e 1d bd 16 38 d3 3d 73 c5 55 3d
       0.05566406 -0.03835951 0.10313432 0.052190255
000230 56 46 00 bd f0 be 03 3d 9e 1b 88 3d 6d 7c 25 bc
       -0.031317078 0.032164514 0.066458926 -0.010100466
000240 69 0a 5c 3b de 6d 79 3c 90 58 88 bd 96 80 fd 3c
       0.003357554 0.015223948 -0.06657517 0.030945104
000250 7f d3 8d 3d b0 57 f8 3d 3c d2 d1 3d f2 9a 09 be
       0.06925105 0.121261 0.10245177 -0.13438013
000260 29 a6 59 3e ea 1e 9a 3d 48 13 0d 3e 68 0a 2a be
       0.21254791 0.07525428 0.13776886 -0.16605532
000270 dd 35 81 bc a8 97 ee 3d 5e f0 39 3e 94 e0 ae 3c
       -0.015772754 0.1165002 0.18158099 0.021347322
000280 8e 8f 09 3e a8 07 27 3e 59 fb c1 bd 35 65 93 3d
       0.13433668 0.16311514 -0.09471769 0.07197038
000290 bc c3 b9 3d d0 0c ef 3d a6 6a a5 3d 1a 05 a4 3d
       0.090705365 0.11672366 0.08076982 0.080087855
0002a0 90 33 f0 3d 97 99 1f 3d 28 5b 54 be e9 6d a7 be
       0.11728585 0.038964834 -0.20737898 -0.32701042
0002b0 b8 c5 be 3d b9 70 10 3e 86 93 59 bc ba 86 3f 3c
       0.093150556 0.141055 -0.013279801 0.011689836
0002c0 0f 84 0f bd 28 a7 52 bc 9b 89 02 3e 89 c8 23 bc
       -0.03503805 -0.012857236 0.12747805 -0.009996542
0002d0 80 bf 60 bd a6 6f a5 3d a7 a2 90 3e f9 65 de bc
       -0.05487013 0.08077936 0.28249094 -0.027148234
0002e0 57 69 53 3e 19 f1 d1 3d 52 f6 eb 3d 75 7a 89 3d
       0.20645653 0.10251064 0.11521591 0.0671281
0002f0 4e 71 1e 3e ba ad 03 3e 65 3f 11 3e f0 4c 72 3e
       0.1547291 0.1285924 0.1418434 0.23662162
000300 14 25 92 3d 98 21 a6 3d ed 21 93 3d 36 ea fa bc
       0.07135978 0.08111876 0.07184205 -0.030629259
000310 9f be 05 be 8e d6 1e 3e 10 63 3e be b5 9a 37 3e
       -0.13060997 0.15511534 -0.18592477 0.1793011
000320 21 83 12 3e 23 bf 60 be e9 ed 8c bd 93 40 b9 bd
       0.14307834 -0.21947913 -0.06881315 -0.0904552
000330 be a1 03 3e d9 4e 68 bd 2d 91 e7 3c 80 58 b3 3d
       0.12854668 -0.05671582 0.028267467 0.087571144
000340 20 25 15 3c a9 3d 02 3e 50 e2 ed 3b 80 85 52 bd
       0.00910309 0.12718834 0.0072596446 -0.051396847
000350 2f b5 dc 3d b6 a4 af 3c 4f f3 37 3d 9a 71 09 3e
       0.107767455 0.021440845 0.04490977 0.13422242
000360 ea b1 16 3e 0f 49 96 3d c7 30 25 3e b4 82 d9 3d
       0.14716306 0.073381536 0.16131888 0.10620633
000370 22 9e 99 3e 09 f5 ed 3d af 0b 14 be a0 eb 14 3d
       0.30003458 0.11619002 -0.14457582 0.036357522
000380 43 1d 94 bb a0 83 ec bd b5 71 2d 3e ed ee f3 3d
       -0.00452009 -0.11548543 0.16937907 0.11910806
000390 c2 fd f5 3c 4a 19 5a 3d 73 d0 54 3d a8 d0 5a 3c
       0.030028228 0.053246774 0.051956605 0.013355412
0003a0 6f da 3f 3d 96 0e 67 3e bb ae 4c bc e9 0f 8f bd
       0.046839174 0.22564158 -0.012492831 -0.069854565
0003b0 58 56 a2 3d ab fe 5f 3d 22 04 86 3d a4 e1 d6 3c
       0.07926625 0.05468623 0.06543757 0.02623064
0003c0 15 3b 42 3d 57 c3 26 bd 59 69 b4 3d aa 5c 7b 3e
       0.047419626 -0.040713634 0.08809156 0.24547067
0003d0 38 6a 45 3e 48 3c e7 3d 7c c0 65 3e c2 3b 9b bc
       0.192788 0.112907946 0.22436708 -0.018949393
0003e0 2b 87 40 3e ea d7 a2 bd ce f9 6e 3d df b9 28 3e
       0.18801562 -0.079513386 0.0583437 0.16477154
0003f0 12 15 ce 3d a6 cd f8 3d 3f 52 2b be 6e d9 99 3d
       0.100626126 0.12148599 -0.16730593 0.075121745

linear2.bias f4 [64]
000000 2f 2a d8 3e ab 52 19 3f 4b 63 a0 be e7 15 92 3d
       0.42219684 0.59891766 -0.31325755 0.07133084
000010 1e d9 11 3f 27 a4 fa 3e 6e 8c 0c 3f 2a 85 0e 3e
       0.5697192 0.48953363 0.5490178 0.13917986
000020 59 6e 45 be 94 ec 1a 3f 41 45 0d 3f 15 e8 ab be
       -0.19280376 0.6051724 0.551838 -0.33575502
000030 43 ac d3 be ec 87 99 be 72 62 21 3f 1e ad 0a 3f
       -0.41342363 -0.29986513 0.6304084 0.54170406
000040 e1 ed ef be cb 61 0d 3f 1d 7e ac be 38 ea 0b 3f
       -0.46861175 0.55227345 -0.33689967 0.54654264
000050 95 fb 99 be 9f 24 2e 3f 1a 32 b7 be 23 d1 d9 be
       -0.30074754 0.6802463 -0.35780412 -0.4254237
000060 a0 30 11 3f 1e af d3 be 5e 91 b0 be c8 15 ff 3e
       0.5671482 -0.4134454 -0.34485906 0.49821305
000070 ee b2 ba be 16 48 9b be 2e 55 02 bf 1d 85 07 3f
       -0.36464638 -0.30328435 -0.50911224 0.5293749
000080 71 e0 07 3f ab 44 fd be 62 0f d3 3e bb c5 fd 3e
       0.53076845 -0.49466452 0.41222674 0.4956492
000090 9a cf 28 3f bb 05 0d bf fe 6e 25 3f fa 7c 17 3f
       0.65941775 -0.5508687 0.64622486 0.59175074
0000a0 a4 a1 a6 be 57 c9 8c be b8 8c 9b be 19 69 81 3d
       -0.32545197 -0.2749736 -0.30380797 0.06318874
0000b0 d2 8a 0a 3f a7 09 15 3d b5 4c a1 be 7e 1a ca be
       0.54118073 0.03638616 -0.31503835 -0.39473337
0000c0 c0 de 1e 3f 0f 9b 25 3f d8 60 ec be 0b aa 7d be
       0.6205864 0.64689726 -0.46167636 -0.24771897
0000d0 94 8b f6 be b1 61 ba be 75 7d ee be 34 d0 db be
       -0.48153365 -0.36402658 -0.4658009 -0.42932284
0000e0 2b d6 bb be 08 28 e3 be c6 97 29 3f 5c dc 8b be
       -0.36686835 -0.4436648 0.6624721 -0.27316558
0000f0 d6 49 11 3f f3 8b db be aa 97 06 3f 7d 79 39 be
       0.5675329 -0.4288021 0.5257517 -0.1811275

output.weight f4 [1, 64]
000000 18 4c 0c 3e 3b b3 37 3e ef d5 b8 be df 8f 8f 3f
       0.13700902 0.17939465 -0.36100718 1.1215781
000010 93 9b 61 3e 00 e4 81 3e 7a 5d 7e 3e 8d 0e 89 3f
       0.22032003 0.25369263 0.24840346 1.0707566
000020 66 2b 05 c0 97 a0 93 3e 93 7e 66 3e 27 db 14 bf
       -2.0807738 0.28833458 0.22509222 -0.581469
000030 54 50 6e bf f5 ec 4d bf ea e8 00 3f 01 2d 81 3e
       -0.9309132 -0.8043969 0.503554 0.25229648
000040 00 2a 19 bf 01 2a 1b 3e 3a 8a 10 bf ff b2 4e 3e
       -0.5982971 0.15152742 -0.56460917 0.20185469
000050 54 0e f0 be 3f 99 82 3e 3a ee f4 be f6 63 b1 be
       -0.46885931 0.25507542 -0.47838002 -0.34646577
000060 9e db 0b 3e 38 7f 86 bf 97 e8 06 bf 6e 64 32 3e
       0.13657996 -1.0507574 -0.52698654 0.17421123
000070 fb 63 ef be 59 8f df be 1e 54 7b bf 45 fb 7c 3e
       -0.46755967 -0.43664053 -0.9817523 0.24705227
000080 22 ec 9e 3e 64 d9 69 bf 8d 8b 94 3e 2f f6 9c 3e
       0.3103953 -0.91347337 0.2901272 0.30656573
000090 9a b4 0d 3e b9 af c8 be 71 6a 37 3e 53 af 88 3e
       0.13838425 -0.39196566 0.17911698 0.26696262
0000a0 44 5a d8 be e1 f0 0f bf d2 17 f1 be b2 5f 6c 3f
       -0.42256367 -0.5622693 -0.47088486 0.9233352
0000b0 09 e4 67 3e 6f 4f 96 3f 7e 53 bc be 57 e1 b5 be
       0.22645582 1.1742991 -0.3678245 -0.35523483
0000c0 27 f7 99 3e f5 8a 9c 3e 64 ca 0b bf cb a5 d3 be
       0.30071375 0.30574766 -0.546057 -0.41337427
0000d0 9a 72 af be cb e4 be be db d5 b3 be 04 7d 2e bf
       -0.34267122 -0.3728393 -0.35124096 -0.6815951
0000e0 d0 86 a8 be f1 76 d3 be 84 6d 9b 3e 49 b8 d5 be
       -0.32915354 -0.41301683 0.3035699 -0.4174216
0000f0 49 b9 c1 3e 4e e4 37 be 9a 91 4c 3e 2b f8 b1 bf
       0.37836674 -0.17958185 0.19977418 -1.390386

exp_avg f4 [128, 34]
000000 d7 af 64 c0 38 05 03 3e ac f1 07 bf 84 3b 2e bd
       -3.5732324 0.1279496 -0.53103137 -0.042537227
000010 34 ea d0 be d4 30 33 be ad b5 0a bd 75 fc df bc
       -0.40803683 -0.17499095 -0.033864666 -0.02734206
000020 8c 07 ea bd f1 2b c8 bc 7f fe 72 3d 53 6f bd 3d
       -0.11427221 -0.024435015 0.059324738 0.09249749
000030 62 64 10 be a5 9d 24 be 21 06 7c 3d 79 ad 0a 3d
       -0.14100793 -0.16075762 0.061529282 0.033856843
000040 52 1b f7 bd 7a cd c8 bc 71 4f ba 3d b5 40 a4 3e
       -0.12065758 -0.024512041 0.090971835 0.32080618
000050 fb c7 bb 3d 4d cd 9b 3f e4 c5 e3 3f be fe b7 3f
       0.091690026 1.2172028 1.7794766 1.4374616
000060 2e 2c 69 3f 7b 74 0c 40 2e 4d 85 bd 1f 16 34 3b
       0.9108304 2.1946094 -0.065088615 0.0027479006
000070 90 f0 d0 3c 89 95 d9 bd 64 0f c5 3e e4 38 f4 be
       0.025505334 -0.10624225 0.38488305 -0.47699654
000080 b5 72 86 40 54 d7 f8 3f 8c df 15 40 66 00 55 3f
       4.2015023 1.9440713 2.3417692 0.8320373
000090 a7 e4 33 bf 08 fa 60 3c 59 36 b8 bd 90 cd 92 3f
       -0.7027077 0.013731487 -0.08994741 1.1468983
0000a0 6e fe 46 3e 7b aa a2 3e 42 a0 b3 3e ca 66 1e 3c
       0.19432995 0.3177069 0.35083205 0.0096680615
0000b0 cc 4e e7 3c 00 23 9f be d0 02 58 3d 95 c6 ab bd
       0.028235815 -0.3108139 0.052737057 -0.08387486
0000c0 2a 79 1b 3c a1 3c e5 bd ba d0 80 be ce 0f 3f be
       0.009489337 -0.11193205 -0.25159246 -0.18658373
0000d0 63 a7 49 bf 39 f3 32 bd 9f 5f 1b bf b2 c1 d6 bf
       -0.78771037 -0.043688986 -0.6069278 -1.6777861
0000e0 dd 39 87 bf 1f b6 05 c0 a0 21 01 c0 03 54 ee bf
       -1.0564533 -2.0892408 -2.0176773 -1.8619388
0000f0 7c 02 d1 3c 52 eb 10 be e1 db 1d 3e 39 5c 18 c0
       0.02551388 -0.14152268 0.15415908 -2.3806288
000100 ab 23 a9 c0 f4 10 3a c1 6b 46 3e c0 8e 8c 1a c1
       -5.285604 -11.629139 -2.973048 -9.659315
000110 75 26 f2 3d da ca 32 3f 48 90 52 bd ec 62 b1 3e
       0.11823741 0.69840777 -0.05140713 0.34645784
000120 93 0c 86 be 7a 3f 75 3e a2 da 71 3e 03 9e 51 be
       -0.26181468 0.23949996 0.23618558 -0.20470433
000130 73 23 b3 3d 87 f7 52 bc 2e cb 22 3d ec ed da 3c
       0.08746996 -0.012876398 0.03974455 0.026724778
000140 04 b2 bc 3c 5e a5 54 bd 74 68 48 bd 20 e1 88 bd
       0.023034103 -0.05191552 -0.04892774 -0.06683564
000150 92 8f 76 bd 16 48 72 3d ac 8d 9a 3d d5 b3 e0 3d
       -0.060195513 0.059150778 0.07546553 0.109718
000160 cc 8b 96 3c 7e 2c 8e be e2 ed bb be 7c 39 49 bf
       0.018377207 -0.2776832 -0.36704928 -0.7860334
000170 70 18 3e bd 9a d7 7f 3e 59 06 40 3d bc a1 a4 bd
       -0.046410024 0.24984589 0.046881054 -0.08038661
000180 13 32 8f 3d fe 92 b0 3d 3f e3 2f c0 ac 7c 4a c0
       0.06991973 0.086217865 -2.748245 -3.1638594
000190 08 43 c8 bf 28 ec 08 c0 0e 95 22 3f 97 28 93 be
       -1.5645456 -2.1394138 0.6350869 -0.28741905
0001a0 ab 39 00 3f d2 02 39 bd 20 2b 29 3e 6d 86 1f 3f
       0.50087994 -0.045168705 0.16520357 0.6231449
0001b0 b5 82 af bd ac 1d 00 3f 2e b5 e9 bd 53 3f bf 3c
       -0.08569852 0.50045276 -0.114115104 0.023345625
0001c0 79 63 7a bd d2 d2 1c bd d3 1b c1 3c 0e d2 9a bc
       -0.06113002 -0.03828699 0.023572838 -0.01889899
0001d0 22 ad 51 3d 39 8b 6e 3c f2 fc 79 bd 94 d0 af bc
       0.051190503 0.01455956 -0.061032243 -0.021461762
0001e0 f1 00 86 be 70 c2 dd bd c9 77 38 3d fe 41 15 bd
       -0.26172593 -0.10828102 0.04503611 -0.03643989
0001f0 c6 ee 17 bf ba 79 8d bf 21 96 5e bf d4 f1 35 bf
       -0.59348714 -1.1052773 -0.8694783 -0.71072125
000200 eb 02 20 bd d6 1c ed bb 2d 98 b6 bd d1 fd c0 be
       -0.039065283 -0.0072361035 -0.08915744 -0.37693647
000210 be 9f 14 bf b3 db cf bd c2 75 25 be 2f 95 3d 3e
       -0.5805625 -0.10149326 -0.16158202 0.1851394
000220 a6 56 d5 3f 63 88 82 bf fb ea 11 3f a0 5c c6 3d
       1.6667068 -1.0197872 0.56999177 0.096856356
000230 76 19 02 3f 6f 20 81 3e 05 39 e0 3d a4 c1 09 3f
       0.508201 0.25220057 0.109483756 0.538111
000240 3d 6b a3 be 5e 3e 0d 3d 5c e6 76 3d 96 84 a1 be
       -0.31917754 0.034483306 0.06027828 -0.31546468
000250 40 b2 26 3e 1e 06 d7 bd c4 e7 1d bd 25 b9 8d bd
       0.16278934 -0.10499214 -0.038551107 -0.06920079
000260 fc 08 92 bd 1c b3 60 be 98 4b aa be 05 c0 9c bd
       -0.0713062 -0.21943325 -0.33260798 -0.07653812
000270 1b a9 05 3f 46 08 a4 3e ff 0d ad be 85 54 ad bf
       0.5221116 0.32037562 -0.3379974 -1.3541418
000280 e0 04 e4 be b0 99 af bf 59 aa 46 3d 42 45 4b 3d
       -0.4453497 -1.3718777 0.0485023 0.049626596
000290 53 65 a6 bd 36 01 00 3f 09 5b 02 40 4a d1 25 40
       -0.08124795 0.5000185 2.0368063 2.590899
0002a0 2c bc 27 3f bc 24 15 40 8f 34 52 40 54 8c 6f 3f
       0.655215 2.330367 3.284458 0.935735
0002b0 3e a4 0d bf e4 f7 35 be 6d 55 3c 3e 15 cd 6d 3e
       -0.5532874 -0.17770344 0.18391962 0.23222764
0002c0 5f f5 7a be cd 99 02 be 0d 01 30 3e 5c 5c 49 bd
       -0.24507664 -0.12753983 0.17187901 -0.049160346
0002d0 7b 77 a3 bd dc 9c aa 3e 40 10 8c bd 2d ed 03 bd
       -0.079817735 0.333228 -0.06839037 -0.03220861
0002e0 b8 bf 94 3d 44 20 01 3e fe c9 98 bc b4 d5 c7 3d
       0.0726313 0.12609965 -0.018651005 0.097575575
0002f0 d4 d7 84 3e 8d ba 2e 3d 79 cd 6d bf 0f 11 46 bf
       0.25945914 0.042658377 -0.9289165 -0.7736978
000300 e8 fc 87 bf f1 02 9e bf ae be 20 bf 68 c9 67 bf
       -1.0624056 -1.2344648 -0.62790954 -0.90541697
000310 20 f4 e7 bd b1 8e bd bb 1c a0 0e 3e 74 39 d7 3e
       -0.1132586 -0.0057848324 0.13928264 0.4203602
000320 d8 2a 66 c0 b1 4b 36 c0 73 8a 5e c0 d5 dc 05 c0
       -3.596365 -2.8483698 -3.4772003 -2.0916035
000330 59 ec 06 3f ce 7e f3 bc be 31 8b 3d 75 a8 9f 3e
       0.5270439 -0.029723551 0.06796597 0.3118321
000340 f9 9a 3a bd b0 46 ff bc 29 22 b5 3d d4 34 18 bd
       -0.04555795 -0.031161636 0.08844406 -0.037159756
000350 78 a0 94 bb 25 6f 0d 3c 1e 39 35 3d e8 8f 6a bd
       -0.004535731 0.008632456 0.044243924 -0.057266146
000360 82 63 72 3d e8 26 15 bd ea 09 3c bc f4 11 08 bd
       0.05917693 -0.036414057 -0.011476973 -0.033220246
000370 18 27 28 3d 50 52 9b bb 22 85 a3 bc 21 71 c4 3d
       0.041052908 -0.004740037 -0.019960944 0.0959189
000380 2d ad 5f 3e 22 ee af 3d 2c a9 50 bd f4 a4 03 bf
       0.21843405 0.08590342 -0.050942585 -0.51423573
000390 4a 47 d1 3d 11 cb 3e 3e 0e 39 2d 3d 72 7c d3 bc
       0.102186754 0.18632151 0.04229074 -0.025816176
0003a0 84 c9 cc bc f4 21 37 3f 6a df 37 bf 6c 5a 8a 3d
       -0.024998434 0.71536183 -0.7182528 0.06755528
0003b0 10 44 ae bd 0e 3a 87 3f 54 45 3b be 06 50 59 be
       -0.08509076 1.0564592 -0.18288165 -0.21221933
0003c0 16 94 9e 3d ec c9 d9 bd 35 7b c7 3d 82 fa b5 bd
       0.07743089 -0.10634217 0.09740297 -0.08885671
0003d0 66 4b 1e be 74 c2 97 bd 2f 52 13 3d 00 62 dc bc
       -0.1545845 -0.07410136 0.03596705 -0.026902199
0003e0 64 e3 a4 3b 1f 6b 9f 3d 9b 39 a1 bd 2e 71 72 3d
       0.00503199 0.077841036 -0.078723155 0.059189968
0003f0 30 f2 9b 3d 8a 52 19 3d a8 ed b3 3d a0 db f3 ba
       0.07614553 0.03743223 0.08785564 -0.0018604882
