Data/Player1/checkpoint-advTest13.pth (torch, 276844 bytes, 20 tensors)

linear1.weight f4 [128, 34]
0	0x3e30dda6	0.17272052
1	0x3daf2b3c	0.08553168
2	0x3e95a7e8	0.29229665
3	0x3ec1fd01	0.3788834
4	0x3e37e57b	0.17958634
5	0xbf283fb2	-0.6572219
6	0xbeaf51a7	-0.34241983
7	0xbe639c4d	-0.22227593
8	0x3e02ee4d	0.12786217
9	0xbda07fe7	-0.078368954
10	0x3f1ae91e	0.6051196
11	0x3eecf8ca	0.4628356
12	0x3ecd5808	0.40106225
13	0xbe24e5c0	-0.16103268
14	0x3ebbc485	0.3667337
15	0x3d183601	0.037160877
16	0x3ea0f479	0.31436518
17	0x3ef407a4	0.4766208
18	0x3e7f3eed	0.24926348
19	0x3eba2edd	0.3636388
20	0x3eafe7eb	0.34356627
21	0x3e25415a	0.16138211
22	0x3ecf20c3	0.40454683
23	0x3db8a803	0.09016421
24	0x3ebee091	0.37280706
25	0xbc9685e2	-0.018374387
26	0xbeacdddf	-0.33763024
27	0xbf527e71	-0.82224184
28	0xbf20eeb2	-0.6286422
29	0x3e37efbd	0.17962547
30	0xbebf7232	-0.37391812
31	0xbf9e681f	-1.2375525
32	0x3c1c87e3	0.009553882
33	0xbcd959cf	-0.026532082
34	0x3e040d46	0.12895688
35	0x3f63fcf0	0.89057827
36	0xbefc1f34	-0.49242556
37	0xbed2e553	-0.41190585
38	0xbfb14a89	-1.3850871
39	0xbc801112	-0.01563314
40	0xbf275736	-0.6536745
41	0xbeed604e	-0.46362537
42	0xbeb769b8	-0.35822845
43	0x3ca807e1	0.02051157
44	0xbe833f0e	-0.25634044
45	0xbe915da5	-0.28391758
46	0x3e7b23d0	0.2452538
47	0xbefbbdb9	-0.49168184
48	0xbf9407f4	-1.1564927
49	0x3f214da1	0.6300908
50	0xbf1f5cb0	-0.62250805
51	0x3d789a2d	0.06069391
52	0x3eb0c9e9	0.34529045
53	0xbe9dcbbf	-0.30819508
54	0x3f0dc21b	0.55374306
55	0xbdc37fd4	-0.09545866
56	0x3f247e94	0.6425564
57	0xbd98422f	-0.074344985
58	0x3dac30e2	0.08407761
59	0x3d052db8	0.032514304
60	0xbe86eb1f	-0.26351258
61	0xbf50a114	-0.81495786
62	0xbf7e9936	-0.9945253
63	0xbf370221	-0.71487623
64	0x3d6f8ebf	0.058485743
65	0x3d291415	0.041278917
66	0x3d3ff60f	0.04686552
67	0xbde37dbf	-0.111079685
68	0xbea33a81	-0.31880572
69	0xbd9a0994	-0.07521358
70	0x3d9b8c71	0.075951464
71	0xbe916a21	-0.28401282
72	0xbeb9d402	-0.36294562
73	0xbe9d16bb	-0.30681404
74	0xbeb70339	-0.35744646
75	0x3fde7afe	1.7381284
76	0xbf39c700	-0.72569275
77	0x3eb17b7d	0.34664527
78	0xbecdbf11	-0.40184835
79	0xbdf574c1	-0.1198516
80	0xbe450d24	-0.19243294
81	0xbf37ea91	-0.71842295
82	0xbf38a7c2	-0.7213098
83	0x3e339797	0.17538296
84	0xbe3d15aa	-0.18465295
85	0x3f187c8d	0.5956505
86	0x3e9975ec	0.2997278
87	0xbd1451a9	-0.03621069
88	0xbd5a24b0	-0.053257644
89	0x3d4904e0	0.049076915
90	0xbf0b5e59	-0.5444084
91	0x3e848e27	0.25889704
92	0x3e38c2ad	0.18043013
93	0x3e473912	0.19455364
94	0xbf6e3e6a	-0.93063986
95	0xbf79da7a	-0.97598994
96	0xbffe4130	-1.9863644
97	0xbfb61229	-1.4224292
98	0xbd7e58c7	-0.062096383
99	0x3b52b84e	0.0032153311
100	0xbc4ab497	-0.012372158
101	0xbe789190	-0.24274278
102	0xbf8b7bea	-1.089719
103	0xbe7ba4a6	-0.24574527
104	0x3f3894f8	0.7210231
105	0xbf80ae0d	-1.0053116
106	0xbf8525bc	-1.0402141
107	0x3d82a021	0.063781984
108	0x3ef97fc5	0.48730293
109	0xbe2f5963	-0.17123942
110	0x3dec9dc0	0.11553526
111	0x3f0c95f6	0.5491632
112	0x3e8b733e	0.2723636
113	0xbd536090	-0.05160576
114	0xbf1f2a27	-0.62173694
115	0x3d77a960	0.060464263
116	0xbf9bbfcb	-1.2167906
117	0xbf2256fa	-0.63413966
118	0x3edcc267	0.43117067
119	0xbfa032af	-1.2515467
120	0xbdfa3225	-0.122165956
121	0x3f4ea7a5	0.80724555
122	0xbdf25d4c	-0.11834201
123	0xbf5f05a2	-0.8711797
124	0xbe976c02	-0.2957459
125	0xbe6a9867	-0.229097
126	0xbe16fe1c	-0.14745373
127	0x3dc5a24d	0.09650097
128	0xbd2b7942	-0.041863687
129	0x3d99eda6	0.07516031
130	0x3f79d7a5	0.9759467
131	0xbeb38c05	-0.35067764
132	0xbd35a4b6	-0.044346534
133	0xbccac69d	-0.02475291
134	0xbc59e093	-0.013298172
135	0x3e37d7be	0.17953393
136	0xbf11be9a	-0.5693146
137	0x3e0279b2	0.12741736
138	0x3e55bdae	0.20873138
139	0x3ee22047	0.4416525
140	0x3e971248	0.29506135
141	0x3eedf265	0.46473995
142	0xbe7f3c8c	-0.2492544
143	0x3c41de27	0.01183275
144	0xbe93b76d	-0.2885088
145	0xbf2fa17b	-0.68605775
146	0x3f7cdf17	0.9877791
147	0x3f555e01	0.83346564
148	0x3ee53086	0.44763583
149	0x3e8239fa	0.25434858
150	0xbf9a1d9a	-1.2040284
151	0xbf8c78cb	-1.0974363
152	0x3ec14b2a	0.37752658
153	0xbf6db20a	-0.9284979
154	0x3eb20659	0.34770468
155	0x3e94ea84	0.2908517
156	0xbefdae20	-0.4954691
157	0xbf1c7143	-0.61110324
158	0xbf808208	-1.0039682
159	0xbe05b286	-0.13056383
160	0xbeb99ba8	-0.3625157
161	0xbd3cddf2	-0.0461101
162	0x3fad9311	1.3560506
163	0x3eed81b9	0.46388033
164	0x3e9ea28d	0.3098339
165	0x3f15ba8a	0.5848776
166	0x3ddb84a2	0.10718657
167	0xbd9c3550	-0.07627356
168	0xbc228e3e	-0.0099216085
169	0x3d945f20	0.07244706
170	0x3dc698a2	0.09697081
171	0x3e3c755c	0.18404144
172	0x3d241595	0.040059645
173	0x3dd5dbad	0.104422905
174	0x3eb7abc1	0.35873225
175	0xbe4fc48e	-0.20289823
176	0xbd83944a	-0.06424768
177	0x3ed5f641	0.4178944
178	0x3d33b620	0.04387486
179	0xbcf72b4d	-0.030172015
180	0x3f4ae485	0.79254943
181	0xbe015716	-0.12630877
182	0xbcfd1ab7	-0.030896528
183	0x3d7948a0	0.060860276
184	0x3e48cda3	0.19609694
185	0x3f3c9685	0.73667175
186	0xbf83c3a8	-1.0294085
187	0xbfbb7442	-1.4644854
188	0x3d449333	0.047991943
189	0xbd8f3791	-0.0699302
190	0xbf46fdd9	-0.7773109
191	0x3ea3caf8	0.3199079
192	0xbce732eb	-0.028222522
193	0x3d48929f	0.048967954
194	0xbe16aa9c	-0.1471352
195	0x3dad6249	0.08466012
196	0x3effd1ee	0.4996485
197	0xbf7f5dc8	-0.99752474
198	0xbea11f62	-0.31469256
199	0xbfc68a66	-1.5510986
200	0xbe147387	-0.14497195
201	0xbf1b32ad	-0.606242
202	0x3ebc09bf	0.36726186
203	0xbde609df	-0.112323515
204	0xbfa3a5c6	-1.2784965
205	0xbd5ed887	-0.054405715
206	0xbf0b1211	-0.5432444
207	0xbe812f95	-0.25231615
208	0xbeb8d8c9	-0.36102894
209	0xbeeb6aef	-0.4598002
210	0x3e840b2e	0.2578978
211	0xbcbdb120	-0.023155749
212	0x3f82df41	1.0224382
213	0x3d5c972a	0.0538551
214	0x3fb8022f	1.4375666
215	0xbd3249f2	-0.04352755
216	0x3fbd9b6e	1.4813058
217	0xbe31af95	-0.17352135
218	0x3fb68a90	1.4261036
219	0xbf48429e	-0.7822665
220	0xbd6ebfaa	-0.058288254
221	0x3fd79a10	1.6843891
222	0xbe8b1628	-0.2716534
223	0xbf980947	-1.1877831
224	0x3f1bef42	0.60911953
225	0xbdf95a08	-0.12175375
226	0x3ea45b72	0.32101017
227	0x3e4f3910	0.20236611
228	0xbec2e6be	-0.38066667
229	0xbe99c400	-0.3003235
230	0xbf078474	-0.5293648
231	0x3da1439c	0.078742236
232	0x3fa45452	1.2838233
233	0x3f933854	1.1501565
234	0x3de44bd3	0.11147275
235	0xbddd034f	-0.10791647
236	0xbb5567d1	-0.00325631
237	0xbdbfec3d	-0.09371231
238	0x3f901bf2	1.1258528
239	0x3e59af3c	0.21258253
240	0xbeba18ac	-0.36346948
241	0x3eaabf82	0.33349234
242	0xbe828017	-0.2548835
243	0x3e77bbd0	0.24192739
244	0x3e7c0e2c	0.24614781
245	0xbf41f985	-0.7577136
246	0x3e9968be	0.29962724
247	0xbeabb084	-0.33533108
248	0xbefdb56c	-0.49552476
249	0x3f169807	0.58825725
250	0xbe38e8ef	-0.18057607
251	0xbea048b3	-0.31305465
252	0x3f83a9b2	1.0286162
253	0xbf7df626	-0.9920372
254	0x3f760d33	0.9611389
255	0xbe743393	-0.23847799

linear1.bias f4 [128]
0	0x3f568eef	0.8381185
1	0xbf0a24cb	-0.5396239
2	0xbeef8591	-0.4678159
3	0xbaa5e532	-0.0012656807
4	0x3ca510ac	0.020149551
5	0x3f03c815	0.51477176
6	0x3ed60f4d	0.4180855
7	0xbe70207c	-0.23449892
8	0x3d9a3ef8	0.075315416
9	0xbece0908	-0.40241265
10	0xbdd04abf	-0.10170507
11	0xbe05ca6a	-0.13065496
12	0x3f4d98f7	0.8031153
13	0x3ec2016f	0.3789172
14	0x3e2988a8	0.16556036
15	0xbe1357d5	-0.14388974
16	0xbe883c70	-0.2660861
17	0x3f26711b	0.65016335
18	0x3ecb0f22	0.39659983
19	0xbec4fdd4	-0.38474905
20	0xbe0a506e	-0.13507244
21	0xbeb7995e	-0.35859197
22	0x3cb6792d	0.022274578
23	0xbcb8e683	-0.022570854
24	0x3f9321fb	1.1494745
25	0xbeaf8239	-0.3427904
26	0x3ed42190	0.41431856
27	0xbefaa451	-0.48953488
28	0x3f4bcddf	0.7961101
29	0x3f540a9b	0.8282868
30	0xbf497f8b	-0.7871024
31	0xbebadb5d	-0.36495486
32	0x3df4df32	0.119566336
33	0x3ea41c11	0.32052663
34	0x3f11c3e9	0.5693956
35	0x3e2a946a	0.16658178
36	0x3efce10c	0.49390447
37	0x3f470f40	0.77757645
38	0x3ea12f7d	0.31481543
39	0x3eda22e9	0.4260476
40	0x3f3dcfce	0.7414521
41	0x3e89d9f6	0.26924103
42	0x3d351ee3	0.04421891
43	0x3e4cd934	0.20004731
44	0xbe068b70	-0.13139129
45	0x3ee460f8	0.4460523
46	0x3e2681d5	0.16260464
47	0x3ea6e098	0.32593226
48	0xbe993229	-0.29921082
49	0x3dd18a94	0.1023151
50	0x3ea86780	0.32891464
51	0xbe89aed5	-0.268912
52	0x3e9f089e	0.31061262
53	0x3ebddf9b	0.3708466
54	0xbe79aba2	-0.24381879
55	0xbed22b0c	-0.41048467
56	0x3a7a3b08	0.00095455395
57	0xbe8fe2ae	-0.2810263
58	0x3e8c9416	0.2745673
59	0x3e12b845	0.14328106
60	0x3d3e06d9	0.04639325
61	0xbe1eb086	-0.15497026
62	0x3ea9a862	0.33136278
63	0x3f59c5f2	0.85067666
64	0x3eb7e914	0.35920012
65	0xbe5d5ac3	-0.21616654
66	0xbe0091b2	-0.12555578
67	0x3db02015	0.08599869
68	0xbf1b71b6	-0.60720384
69	0x3ebefad1	0.37300733
70	0x3ea42836	0.3206193
71	0x3eeca851	0.46222165
72	0x3c0c94c2	0.0085803885
73	0x3e82fc9b	0.25583348
74	0xbeb83891	-0.35980657
75	0x3f32b247	0.6980328
76	0x3e30accc	0.17253417
77	0x3db7df85	0.0897818
78	0x3ee091d3	0.43861255
79	0xbeb3958e	-0.3507504
80	0x3ec6b2d3	0.38808307
81	0x3f09fa77	0.53897804
82	0xbd8749bd	-0.06605861
83	0xbc0dc038	-0.008651786
84	0x3f847543	1.0348285
85	0xbc90b41e	-0.017664012
86	0x3ed10f63	0.40832052
87	0x3dfc6320	0.12323594
88	0xbecb1d35	-0.3967072
89	0xbe8921e0	-0.26783657
90	0xbe37ef0e	-0.17962286
91	0x3ec0f290	0.3768506
92	0xbe536e9a	-0.2064766
93	0xbe88bf44	-0.26708424
94	0x3c231952	0.009954767
95	0xbdc71ef4	-0.09722701
96	0x3cbe3d64	0.023222633
97	0x3d991727	0.07475119
98	0x3fd51bb7	1.6649083
99	0xbf386170	-0.7202368
100	0x3b66e378	0.0035230797
101	0xbf032509	-0.51228386
102	0xbeaad2c1	-0.33363917
103	0xbe82b066	-0.25525206
104	0xbe33cae2	-0.17557862
105	0x3f11295d	0.5670374
106	0x3f0c503e	0.5480994
107	0xbebcaa36	-0.3684861
108	0x3f3daa44	0.7408793
109	0x3ef50c50	0.47860956
110	0x3f2ad3f6	0.66729677
111	0x3f0f5997	0.5599608
112	0xbf11bf28	-0.56932306
113	0x3e2405e2	0.16017869
114	0xbec6d68c	-0.3883556
115	0xbdd3ef9b	-0.103484355
116	0x3f17cc22	0.59295857
117	0x3db3753b	0.08762594
118	0x3f775b03	0.9662325
119	0x3e707b47	0.23484527
120	0xbe893f7a	-0.2680624
121	0xbdfd68ed	-0.12373529
122	0x3e985dc2	0.29759032
123	0x3e196380	0.14979362
124	0xbd030e71	-0.031996194
125	0x3f7a7b1d	0.97844106
126	0x3f0c4e47	0.5480694
127	0xbf01a150	-0.5063677

linear2.weight f4 [128, 128]
0	0xbe6af8d6	-0.22946486
1	0xbeb0b758	-0.3451488
2	0x3eaf0caf	0.34189364
3	0x3e8bab6d	0.27279225
4	0x3e94fd11	0.29099324
5	0x3da6c0d8	0.08142251
6	0xbe872b61	-0.26400283
7	0xbc551e8e	-0.013007773
8	0xbdaaff08	-0.083494246
9	0xbec3c4bf	-0.38236043
10	0x3ea41667	0.32048342
11	0xbd0fea0d	-0.035135318
12	0xbe2ed907	-0.17074977
13	0x3f291062	0.66040623
14	0xbee2748d	-0.44229546
15	0xbe237ccf	-0.1596558
16	0xbf527a7f	-0.82218164
17	0xbdef3400	-0.1167984
18	0x3deb3bf4	0.114860445
19	0x3ed53d49	0.4164832
20	0x3d5a8000	0.053344727
21	0xbe92e76c	-0.28692186
22	0xbea40848	-0.32037568
23	0x3e9d4fae	0.30724853
24	0xbf605e20	-0.87643623
25	0x3e471397	0.19441067
26	0xbed86ea2	-0.42271906
27	0xbe8fe7b8	-0.28106475
28	0xbe30f706	-0.17281732
29	0x3f419f57	0.7563376
30	0xbeb06ccf	-0.34458014
31	0xbe0e34c2	-0.13887313
32	0x3d551137	0.05201837
33	0x3e02fc0f	0.12791465
34	0x3f32fa0a	0.6991278
35	0xbe8602b1	-0.26173928
36	0xbe6bf1cc	-0.23041457
37	0xbf1224bf	-0.5708732
38	0xbda9d1c0	-0.0829196
39	0xbe7593ef	-0.23982213
40	0x3cd7b413	0.026330983
41	0x3e002e94	0.12517768
42	0x3deafa1a	0.11473484
43	0xbe42d34b	-0.19025914
44	0x3c8ccac0	0.017186522
45	0x3e4eb126	0.20184764
46	0xbf33af92	-0.70189774
47	0x3ec5ec44	0.3865682
48	0x3ef82547	0.4846594
49	0x3e2e68c2	0.1703215
50	0xbe50e37a	-0.20399275
51	0x3e78655b	0.24257414
52	0xbe74ea0a	-0.23917404
53	0x3f2262c0	0.6343193
54	0xbf6e1c25	-0.93011695
55	0xbf478d76	-0.7795023
56	0x3f551251	0.83231074
57	0xbf0fc0d8	-0.5615363
58	0xbf8a9c3c	-1.0828929
59	0xbd11f1fc	-0.035631165
60	0x3f257a54	0.6463978
61	0x3cdf1d05	0.027235517
62	0xbec9f0e1	-0.3944159
63	0xbd4fe15e	-0.050752036
64	0x3e82d391	0.25552037
65	0x3b31de26	0.0027140467
66	0xbf867501	-1.0504457
67	0xbd3c5f09	-0.04598907
68	0x3d85190b	0.06498917
69	0x3e891892	0.26776558
70	0x3e6cccae	0.23124954
71	0xbb84cda6	-0.0040528355
72	0xbf071fe7	-0.52783054
73	0xbe7ce3a9	-0.2469622
74	0xbe4bb997	-0.19895016
75	0x3e4d4318	0.20045125
76	0xbe2bfa56	-0.16794714
77	0xbe2eabaa	-0.17057672
78	0x3c07b7dc	0.008283582
79	0xbe8be5d8	-0.27323794
80	0xbdf11087	-0.117707305
81	0xbf404940	-0.7511177
82	0xbf1c5c6a	-0.6107851
83	0x3f238881	0.63880163
84	0xbf72854c	-0.94734645
85	0x3d4ee133	0.050507735
86	0x3db6be1e	0.08922981
87	0xbf77c0cd	-0.96778566
88	0x3e53b189	0.20673193
89	0xbe12173f	-0.1426668
90	0xbef9fcb2	-0.48825604
91	0xbedb73bd	-0.4286174
92	0x3eac1418	0.3360908
93	0x3ea86afe	0.3289413
94	0xbe8e1e78	-0.2775762
95	0xbf4cbbdc	-0.7997415
96	0x3c682684	0.014169339
97	0xbe5dae1a	-0.21648446
98	0x3d82d838	0.06388897
99	0xbe9b662f	-0.30351397
100	0xbf1b5d81	-0.6068955
101	0x3f003e8d	0.50095445
102	0xbe022e65	-0.1271301
103	0x3de70567	0.11280327
104	0xbd9eadcc	-0.07747993
105	0xbed5784b	-0.4169334
106	0x3e9367f7	0.28790256
107	0x3e60e10d	0.2196085
108	0xbe3d0743	-0.18459801
109	0x3e6aa24d	0.22913475
110	0xbf7672ad	-0.9626873
111	0xbce07b48	-0.027402535
112	0xbd618b16	-0.055064283
113	0x3ecd08c9	0.40045765
114	0x3eac4224	0.3364421
115	0xbe900ed3	-0.2813631
116	0xbe2f1c7c	-0.1710071
117	0x3dd7d06b	0.105377994
118	0x3e0776c0	0.13228893
119	0xbf70a50f	-0.9400186
120	0xbef02885	-0.46905914
121	0xbe6480b4	-0.22314721
122	0xbe056f9d	-0.13030858
123	0xbdb3ca81	-0.08778859
124	0xbe85f904	-0.26166546
125	0xbf1a31b4	-0.6023209
126	0xbe2e4b92	-0.17021015
127	0xbf770a75	-0.9650033
128	0xbdc311d2	-0.09524883
129	0x3ec1ee7f	0.3787727
130	0x3e69f049	0.22845568
131	0x3d3a4626	0.045477055
132	0xbe9e2e7d	-0.30894843
133	0xbf113eb1	-0.56736284
134	0xbfa674e7	-1.3004426
135	0x3e44c7ee	0.19216892
136	0xbe58a3c3	-0.2115622
137	0x3d9f2a5a	0.0777175
138	0xbdc494b3	-0.095986746
139	0x3ee7ddb3	0.4528633
140	0xbe971b68	-0.29513097
141	0xbec53426	-0.3851635
142	0x3ef987a6	0.48736304
143	0xbc75ce98	-0.015002869
144	0xbf438bf6	-0.7638544
145	0xbf88bcbd	-1.0682598
146	0xbf972354	-1.1807656
147	0x3e2810a6	0.16412601
148	0xbea5db30	-0.3239379
149	0x3eba03bd	0.36330977
150	0x3d83685d	0.0641639
151	0x3dd499a0	0.10380864
152	0x3e0f5737	0.13998114
153	0xbf66b5a3	-0.90120906
154	0x3d503e11	0.05084044
155	0x3d461106	0.04835608
156	0xbe023f23	-0.12719397
157	0x3d3e3b6d	0.04644339
158	0x3e245fe3	0.16052203
159	0x3e2f19df	0.17099713
160	0x3c1c6069	0.00954447
161	0x3e63363f	0.22188662
162	0xbe6fb6a8	-0.23409522
163	0xbeafcd60	-0.34336376
164	0xbfaf6a58	-1.3704329
165	0xbea67ac6	-0.32515544
166	0x3d2c1cae	0.04201954
167	0xbedff888	-0.43744302
168	0xbf2215ba	-0.633144
169	0x3e3ec388	0.18629277
170	0xbdcecd5b	-0.10097762
171	0x3ed1f538	0.410074
172	0x3f2bc644	0.67099404
173	0x3db72685	0.08942894
174	0xbe6d3d25	-0.23167856
175	0x3eef921c	0.4679116
176	0x3ea2e39f	0.31814286
177	0x3e71ef1f	0.23626374
178	0xbf154070	-0.5830145
179	0xbdf3aafd	-0.11897848
180	0x3de06c2a	0.10958131
181	0xbfe289d0	-1.7698307
182	0x3e92d96b	0.28681502
183	0x3f0784f8	0.5293727
184	0x3e875456	0.2643153
185	0x3f81e31c	1.0147433
186	0xbe2e44f4	-0.17018491
187	0x3eaafe0e	0.33396953
188	0xbedfca66	-0.43709105
189	0x3e8d7f8f	0.27636382
190	0xbf24ac07	-0.6432499
191	0x3e2c840d	0.16847248
192	0xbe089cea	-0.13341108
193	0xbf6ec051	-0.932622
194	0xbec9d4d3	-0.39420184
195	0x3d856103	0.06512644
196	0x3e7a42b7	0.24439512
197	0x3e196a78	0.14982021
198	0xbe9964ab	-0.29959616
199	0xbea10cd5	-0.31455103
200	0x3f3cc140	0.73732376
201	0x3da8e277	0.0824632
202	0x3f0adb4a	0.5424086
203	0xbee0e163	-0.43921956
204	0xbe72e9dc	-0.23722023
205	0x3ec05b04	0.3756944
206	0xbf09a590	-0.53768253
207	0xbf348125	-0.7050956
208	0xbee3305d	-0.44372836
209	0xbf2b6467	-0.66950077
210	0xbf0e27ab	-0.5552928
211	0xbde8fc38	-0.11376232
212	0x3e275531	0.16341092
213	0x3ec02417	0.37527534
214	0xbe7df51d	-0.24800535
215	0xbf53bef9	-0.82713276
216	0xbe14674f	-0.14492534
217	0x3ea58540	0.32328224
218	0x3c94865e	0.018130478
219	0xbeabc1cf	-0.33546302
220	0x3db7120e	0.089389905
221	0xbe875927	-0.26435205
222	0xbe4f2c16	-0.20231661
223	0x3e4a2736	0.1974152
224	0x3e24257c	0.16029924
225	0xbef7cb6a	-0.4839738
226	0x3d47acf0	0.04874891
227	0x3e4ba355	0.19886525
228	0xbd86bc31	-0.065788634
229	0xbe75babe	-0.23997018
230	0xbedff9a0	-0.43745136
231	0x3ced585b	0.028972795
232	0xbf53bbfe	-0.8270873
233	0xbf2eeaaa	-0.6832682
234	0xbf158180	-0.58400726
235	0xbeafafa1	-0.34313682
236	0x3d03e478	0.032200307
237	0xbebf51fe	-0.37367243
238	0xbf0617af	-0.5237989
239	0xbdd226f4	-0.10261336
240	0x3c505fd8	0.012718163
241	0xbe42573c	-0.1897859
242	0x3d662318	0.05618581
243	0x3d5b7de7	0.053586867
244	0xbd388aa7	-0.045054104
245	0x3e4eb813	0.20187406
246	0xbefff055	-0.49988046
247	0x3dee7942	0.11644222
248	0xbd1f1aa8	-0.03884378
249	0xbe2c5cab	-0.16832225
250	0x3e03be01	0.1286545
251	0x3f0ed543	0.5579416
252	0xbf0e5143	-0.55592746
253	0xbf430e2f	-0.7619352
254	0xbf10a24e	-0.5649766
255	0x3dd45475	0.103676714

linear2.bias f4 [128]
0	0xbef0a05c	-0.46997344
1	0xbef0aa99	-0.47005156
2	0xbf357640	-0.7088356
3	0x3f4a1802	0.78942883
4	0xbca97531	-0.020685764
5	0xbeace3ac	-0.3376745
6	0xbf23ecea	-0.6403338
7	0xbecb778d	-0.39739648
8	0xbe972172	-0.29517704
9	0x3f02fe6b	0.5116946
10	0xbe7d174e	-0.24715921
11	0x3ee6466e	0.4497561
12	0x3eac596c	0.33661973
13	0xbec7e9d9	-0.390456
14	0x3f215f6a	0.63036215
15	0xbf63a620	-0.8892536
16	0xbef6f3a8	-0.4823277
17	0x3f46d903	0.77674884
18	0xbe1b09ca	-0.15140453
19	0xbdb2ab95	-0.08724133
20	0xbe28652a	-0.16444841
21	0x3e4ca3ff	0.19984435
22	0x3f5aaee7	0.8542313
23	0xbde87897	-0.11351126
24	0xbefd54ad	-0.49478665
25	0x3dec7205	0.11545185
26	0xbe0a2c4a	-0.13493457
27	0x3f534d52	0.82539856
28	0xbe26f19a	-0.16303101
29	0xbf076a8b	-0.52896947
30	0x3f79bfd6	0.97558343
31	0x3f1cc121	0.6123219
32	0xbe941373	-0.2892109
33	0x3f538de7	0.826384
34	0x3ef255f5	0.47331205
35	0xbea0e255	-0.31422678
36	0x3fad3608	1.3532114
37	0x3f7102e2	0.94145024
38	0xbe2c1771	-0.16805817
39	0x3f17d25b	0.5930535
40	0x3f92c90a	1.1467602
41	0x3f46eb1f	0.77702516
42	0x3eb1e04c	0.34741437
43	0xbeeb5518	-0.4596336
44	0x3ed11357	0.40835068
45	0xbe34fb61	-0.17674018
46	0x3dd5c9ba	0.10438867
47	0xbebaad4c	-0.3646034
48	0x3ef64f9c	0.48107612
49	0xbeef9eb1	-0.4680076
50	0x3e86d49a	0.26334077
51	0x3e6bdaf9	0.2303275
52	0xbf0ea8f7	-0.5572657
53	0x3f02d35f	0.51103777
54	0x3f661f16	0.89891183
55	0x3f6989a0	0.91225624
56	0xbe6dd3f1	-0.2322538
57	0x3ecf1d6e	0.4045214
58	0x3f66ec42	0.9020425
59	0x3e8ec750	0.27886438
60	0x3f04cbd5	0.51873523
61	0x3f7a166a	0.9769045
62	0x3e938f6a	0.28820354
63	0x3ee4db24	0.4469844
64	0xbe965794	-0.29363692
65	0x3f3c29f2	0.73501503
66	0xbec578f1	-0.38568833
67	0x3e608d15	0.21928819
68	0xbe68f00c	-0.2274782
69	0xbe2d4741	-0.16921712
70	0xbe647a21	-0.22312213
71	0x3f55b0e6	0.8347305
72	0xbeb1f993	-0.34760723
73	0x3f4b43cd	0.7940033
74	0x3eb0241d	0.34402552
75	0xbe1bf0e7	-0.15228616
76	0x3ef17546	0.47159785
77	0x3ecb17f0	0.396667
78	0x3f83b284	1.0288854
79	0x3f303125	0.6882499
80	0x3f3d12f4	0.73857045
81	0x3f38ee94	0.7223904
82	0xbeb6b537	-0.3568513
83	0xbed0a496	-0.4075057
84	0xbed9cb6c	-0.4253801
85	0xbe1ab879	-0.15109433
86	0xbed18c86	-0.40927523
87	0xbe8369df	-0.2566671
88	0x3f0e2808	0.5552983
89	0xbe7c37cc	-0.2463066
90	0x3d8e01f0	0.06933963
91	0xbe3ab373	-0.18232517
92	0x3f6a922e	0.916293
93	0xbecde494	-0.40213454
94	0x3f458754	0.7715962
95	0xbeab0ea2	-0.334096
96	0x3eaa4e85	0.3326303
97	0xbe985824	-0.29754746
98	0xbe052540	-0.13002491
99	0x3f92c2fb	1.1465753
100	0xbe4d8005	-0.20068367
101	0xbf1b391d	-0.6063402
102	0x3f9b312f	1.2124385
103	0xbea6af83	-0.3255578
104	0x3ef0bee0	0.47020626
105	0xbecf4490	-0.40481997
106	0xbe69b9f0	-0.22824836
107	0xbedf7342	-0.43642622
108	0x3ee0b198	0.43885493
109	0x3f6da217	0.92825454
110	0x3ec5310a	0.38513976
111	0xbefd4f87	-0.49474737
112	0xbb48631d	-0.0030576654
113	0xbf3edd6e	-0.74556625
114	0x3f2477b2	0.6424514
115	0x3f58565b	0.8450677
116	0x3f03620a	0.5132147
117	0x3e7b9b27	0.24570905
118	0x3f5c36f7	0.8602137
119	0xbf4c2eb4	-0.79758763
120	0x3f657dc0	0.89645004
121	0xbea7021b	-0.32618794
122	0xbef58a8e	-0.4795727
123	0xbe3fdec5	-0.18737324
124	0x3fa32026	1.2744186
125	0xbe87139a	-0.26382142
126	0xbeac187e	-0.33612436
127	0x3edb165d	0.427905

output.weight f4 [1, 128]
0	0xbfdef3ca	-1.7418149
1	0xbfe8ff5d	-1.8202931
2	0xbfd72cde	-1.6810567
3	0x3f9f56da	1.244838
4	0xc06090b3	-3.5088317
5	0xbfcb4766	-1.5881164
6	0xbf9a6244	-1.2061238
7	0xbff3999f	-1.9031256
8	0xbfe87afe	-1.8162534
9	0x403f6a18	2.9908504
10	0xbfdb3e98	-1.7128477
11	0x3fe4a9a0	1.7864265
12	0x3f6abe0c	0.9169624
13	0xbfff35b5	-1.9938265
14	0x3fa224df	1.2667502
15	0xbf1780d4	-0.5918095
16	0xbf2f1624	-0.6839316
17	0x3f02b253	0.5105335
18	0xbfd06158	-1.6279707
19	0xbfbbe442	-1.4679034
20	0xbfb09b60	-1.3797417
21	0x3fc2974f	1.5202426
22	0x3f0ebcb9	0.5575672
23	0xbfcc3f19	-1.5956756
24	0xbfdd20fb	-1.727569
25	0x3fbaee01	1.4603883
26	0xbfc9ab8d	-1.5755478
27	0x3f854387	1.0411233
28	0xc033ba4b	-2.8082454
29	0xbfdbeb56	-1.7181194
30	0x3f585d98	0.8451781
31	0x3fd9dbc0	1.7020187
32	0xc00f47bb	-2.238753
33	0x3f16fe6d	0.5898197
34	0x3f3a140d	0.72686845
35	0xbfd09ddd	-1.6298176
36	0x3e9f2a7d	0.31087103
37	0x3f9786b5	1.1837984
38	0xbfa49c0e	-1.2860124
39	0x3f8c6506	1.096833
40	0x3e951c32	0.29123074
41	0x3fa343ba	1.2755044
42	0x3f34eb86	0.7067188
43	0xc01ca627	-2.4476411
44	0x3fd5163e	1.6647413
45	0xc009bf82	-2.1523137
46	0x4024cf80	2.5751648
47	0xbff6c03b	-1.9277414
48	0x400f38ec	2.2378492
49	0xc0261f14	-2.5956469
50	0x3f9293ea	1.145139
51	0x3fee0621	1.859562
52	0xbff65bbb	-1.9246744
53	0x400c7b3b	2.1950214
54	0x3fa34575	1.2755572
55	0x3eb1a79a	0.34698182
56	0xbfed95ac	-1.8561301
57	0x4005e8f8	2.0923443
58	0x3f474f35	0.77855235
59	0x400a6558	2.1624355
60	0x3f650110	0.89454746
61	0x3f198f9f	0.59984773
62	0x3fa80416	1.3126247
63	0x3fe38018	1.7773466
64	0xc019efcb	-2.4052608
65	0x3fbab1f2	1.4585555
66	0xbfa71e57	-1.3056134
67	0x3faf36ba	1.3688576
68	0xbff39241	-1.9029008
69	0xbf3e10b4	-0.74244237
70	0xbfe6bbad	-1.8026024
71	0x3f1dbf54	0.6162007
72	0xbff03065	-1.8764769
73	0x3f6c4d5f	0.9230556
74	0x3fd501c5	1.6641165
75	0xbf828b6a	-1.0198796
76	0x3fe3e139	1.7803108
77	0x401de920	2.4673538
78	0x3eb034df	0.34415337
79	0x3f8d0035	1.1015688
80	0x3fb09a84	1.3797154
81	0x3f513a5e	0.81729686
82	0xbfb337f1	-1.4001447
83	0xbf62a939	-0.88539463
84	0xbfff3953	-1.9939369
85	0xbf96898b	-1.1760725
86	0xbec07cec	-0.37595308
87	0xbfaadf4e	-1.3349397
88	0x3f25d227	0.6477379
89	0xc02649a2	-2.5982442
90	0x3fcd6d94	1.6049066
91	0xbfc03349	-1.5015651
92	0x3f4337ae	0.76256835
93	0xbf778ada	-0.96696246
94	0x3fdc8124	1.722691
95	0xbf83261b	-1.0246004
96	0x3f9d64d2	1.2296393
97	0xbfdba2b8	-1.7159033
98	0xc0188af7	-2.3834817
99	0x3f02d89b	0.51111764
100	0xc0111948	-2.267168
101	0xbf9a7aec	-1.2068763
102	0x3e94e82f	0.29083392
103	0xbffc1f47	-1.9697045
104	0x3ff8b6c4	1.9430776
105	0xbec9f6e4	-0.39446175
106	0xbf1c1f91	-0.60985667
107	0xbff947ad	-1.9474999
108	0x3fe746f4	1.8068528
109	0x3f160ea4	0.5861609
110	0x3f8b2265	1.0869871
111	0xbff7daa6	-1.9363601
112	0xbfa048b6	-1.252219
113	0xbff3ffff	-1.9062499
114	0x3f8f83d8	1.121211
115	0x3f17d664	0.5931151
116	0x3fed11d3	1.8521065
117	0x400776e4	2.1166315
118	0x3f5ca547	0.86189693
119	0xbfc8a703	-1.5675968
120	0x3f13d615	0.5774854
121	0xbfb5c597	-1.4200925
122	0xbfd0ce01	-1.6312867
123	0xbfaf8f62	-1.3715632
124	0x3f00dcb6	0.5033678
125	0xbfb64f7c	-1.4243007
126	0xbfdc8364	-1.7227597
127	0x3f6fc245	0.93655807

linear1.weight f4 [128, 34]
0	0x3e30dda6	0.17272052
1	0x3daf2b3c	0.08553168
2	0x3e95a7e8	0.29229665
3	0x3ec1fd01	0.3788834
4	0x3e37e57b	0.17958634
5	0xbf283fb2	-0.6572219
6	0xbeaf51a7	-0.34241983
7	0xbe639c4d	-0.22227593
8	0x3e02ee4d	0.12786217
9	0xbda07fe7	-0.078368954
10	0x3f1ae91e	0.6051196
11	0x3eecf8ca	0.4628356
12	0x3ecd5808	0.40106225
13	0xbe24e5c0	-0.16103268
14	0x3ebbc485	0.3667337
15	0x3d183601	0.037160877
16	0x3ea0f479	0.31436518
17	0x3ef407a4	0.4766208
18	0x3e7f3eed	0.24926348
19	0x3eba2edd	0.3636388
20	0x3eafe7eb	0.34356627
21	0x3e25415a	0.16138211
22	0x3ecf20c3	0.40454683
23	0x3db8a803	0.09016421
24	0x3ebee091	0.37280706
25	0xbc9685e2	-0.018374387
26	0xbeacdddf	-0.33763024
27	0xbf527e71	-0.82224184
28	0xbf20eeb2	-0.6286422
29	0x3e37efbd	0.17962547
30	0xbebf7232	-0.37391812
31	0xbf9e681f	-1.2375525
32	0x3c1c87e3	0.009553882
33	0xbcd959cf	-0.026532082
34	0x3e040d46	0.12895688
35	0x3f63fcf0	0.89057827
36	0xbefc1f34	-0.49242556
37	0xbed2e553	-0.41190585
38	0xbfb14a89	-1.3850871
39	0xbc801112	-0.01563314
40	0xbf275736	-0.6536745
41	0xbeed604e	-0.46362537
42	0xbeb769b8	-0.35822845
43	0x3ca807e1	0.02051157
44	0xbe833f0e	-0.25634044
45	0xbe915da5	-0.28391758
46	0x3e7b23d0	0.2452538
47	0xbefbbdb9	-0.49168184
48	0xbf9407f4	-1.1564927
49	0x3f214da1	0.6300908
50	0xbf1f5cb0	-0.62250805
51	0x3d789a2d	0.06069391
52	0x3eb0c9e9	0.34529045
53	0xbe9dcbbf	-0.30819508
54	0x3f0dc21b	0.55374306
55	0xbdc37fd4	-0.09545866
56	0x3f247e94	0.6425564
57	0xbd98422f	-0.074344985
58	0x3dac30e2	0.08407761
59	0x3d052db8	0.032514304
60	0xbe86eb1f	-0.26351258
61	0xbf50a114	-0.81495786
62	0xbf7e9936	-0.9945253
63	0xbf370221	-0.71487623
64	0x3d6f8ebf	0.058485743
65	0x3d291415	0.041278917
66	0x3d3ff60f	0.04686552
67	0xbde37dbf	-0.111079685
68	0xbea33a81	-0.31880572
69	0xbd9a0994	-0.07521358
70	0x3d9b8c71	0.075951464
71	0xbe916a21	-0.28401282
72	0xbeb9d402	-0.36294562
73	0xbe9d16bb	-0.30681404
74	0xbeb70339	-0.35744646
75	0x3fde7afe	1.7381284
76	0xbf39c700	-0.72569275
77	0x3eb17b7d	0.34664527
78	0xbecdbf11	-0.40184835
79	0xbdf574c1	-0.1198516
80	0xbe450d24	-0.19243294
81	0xbf37ea91	-0.71842295
82	0xbf38a7c2	-0.7213098
83	0x3e339797	0.17538296
84	0xbe3d15aa	-0.18465295
85	0x3f187c8d	0.5956505
86	0x3e9975ec	0.2997278
87	0xbd1451a9	-0.03621069
88	0xbd5a24b0	-0.053257644
89	0x3d4904e0	0.049076915
90	0xbf0b5e59	-0.5444084
91	0x3e848e27	0.25889704
92	0x3e38c2ad	0.18043013
93	0x3e473912	0.19455364
94	0xbf6e3e6a	-0.93063986
95	0xbf79da7a	-0.97598994
96	0xbffe4130	-1.9863644
97	0xbfb61229	-1.4224292
98	0xbd7e58c7	-0.062096383
99	0x3b52b84e	0.0032153311
100	0xbc4ab497	-0.012372158
101	0xbe789190	-0.24274278
102	0xbf8b7bea	-1.089719
103	0xbe7ba4a6	-0.24574527
104	0x3f3894f8	0.7210231
105	0xbf80ae0d	-1.0053116
106	0xbf8525bc	-1.0402141
107	0x3d82a021	0.063781984
108	0x3ef97fc5	0.48730293
109	0xbe2f5963	-0.17123942
110	0x3dec9dc0	0.11553526
111	0x3f0c95f6	0.5491632
112	0x3e8b733e	0.2723636
113	0xbd536090	-0.05160576
114	0xbf1f2a27	-0.62173694
115	0x3d77a960	0.060464263
116	0xbf9bbfcb	-1.2167906
117	0xbf2256fa	-0.63413966
118	0x3edcc267	0.43117067
119	0xbfa032af	-1.2515467
120	0xbdfa3225	-0.122165956
121	0x3f4ea7a5	0.80724555
122	0xbdf25d4c	-0.11834201
123	0xbf5f05a2	-0.8711797
124	0xbe976c02	-0.2957459
125	0xbe6a9867	-0.229097
126	0xbe16fe1c	-0.14745373
127	0x3dc5a24d	0.09650097
128	0xbd2b7942	-0.041863687
129	0x3d99eda6	0.07516031
130	0x3f79d7a5	0.9759467
131	0xbeb38c05	-0.35067764
132	0xbd35a4b6	-0.044346534
133	0xbccac69d	-0.02475291
134	0xbc59e093	-0.013298172
135	0x3e37d7be	0.17953393
136	0xbf11be9a	-0.5693146
137	0x3e0279b2	0.12741736
138	0x3e55bdae	0.20873138
139	0x3ee22047	0.4416525
140	0x3e971248	0.29506135
141	0x3eedf265	0.46473995
142	0xbe7f3c8c	-0.2492544
143	0x3c41de27	0.01183275
144	0xbe93b76d	-0.2885088
145	0xbf2fa17b	-0.68605775
146	0x3f7cdf17	0.9877791
147	0x3f555e01	0.83346564
148	0x3ee53086	0.44763583
149	0x3e8239fa	0.25434858
150	0xbf9a1d9a	-1.2040284
151	0xbf8c78cb	-1.0974363
152	0x3ec14b2a	0.37752658
153	0xbf6db20a	-0.9284979
154	0x3eb20659	0.34770468
155	0x3e94ea84	0.2908517
156	0xbefdae20	-0.4954691
157	0xbf1c7143	-0.61110324
158	0xbf808208	-1.0039682
159	0xbe05b286	-0.13056383
160	0xbeb99ba8	-0.3625157
161	0xbd3cddf2	-0.0461101
162	0x3fad9311	1.3560506
163	0x3eed81b9	0.46388033
164	0x3e9ea28d	0.3098339
165	0x3f15ba8a	0.5848776
166	0x3ddb84a2	0.10718657
167	0xbd9c3550	-0.07627356
168	0xbc228e3e	-0.0099216085
169	0x3d945f20	0.07244706
170	0x3dc698a2	0.09697081
171	0x3e3c755c	0.18404144
172	0x3d241595	0.040059645
173	0x3dd5dbad	0.104422905
174	0x3eb7abc1	0.35873225
175	0xbe4fc48e	-0.20289823
176	0xbd83944a	-0.06424768
177	0x3ed5f641	0.4178944
178	0x3d33b620	0.04387486
179	0xbcf72b4d	-0.030172015
180	0x3f4ae485	0.79254943
181	0xbe015716	-0.12630877
182	0xbcfd1ab7	-0.030896528
183	0x3d7948a0	0.060860276
184	0x3e48cda3	0.19609694
185	0x3f3c9685	0.73667175
186	0xbf83c3a8	-1.0294085
187	0xbfbb7442	-1.4644854
188	0x3d449333	0.047991943
189	0xbd8f3791	-0.0699302
190	0xbf46fdd9	-0.7773109
191	0x3ea3caf8	0.3199079
192	0xbce732eb	-0.028222522
193	0x3d48929f	0.048967954
194	0xbe16aa9c	-0.1471352
195	0x3dad6249	0.08466012
196	0x3effd1ee	0.4996485
197	0xbf7f5dc8	-0.99752474
198	0xbea11f62	-0.31469256
199	0xbfc68a66	-1.5510986
200	0xbe147387	-0.14497195
201	0xbf1b32ad	-0.606242
202	0x3ebc09bf	0.36726186
203	0xbde609df	-0.112323515
204	0xbfa3a5c6	-1.2784965
205	0xbd5ed887	-0.054405715
206	0xbf0b1211	-0.5432444
207	0xbe812f95	-0.25231615
208	0xbeb8d8c9	-0.36102894
209	0xbeeb6aef	-0.4598002
210	0x3e840b2e	0.2578978
211	0xbcbdb120	-0.023155749
212	0x3f82df41	1.0224382
213	0x3d5c972a	0.0538551
214	0x3fb8022f	1.4375666
215	0xbd3249f2	-0.04352755
216	0x3fbd9b6e	1.4813058
217	0xbe31af95	-0.17352135
218	0x3fb68a90	1.4261036
219	0xbf48429e	-0.7822665
220	0xbd6ebfaa	-0.058288254
221	0x3fd79a10	1.6843891
222	0xbe8b1628	-0.2716534
223	0xbf980947	-1.1877831
224	0x3f1bef42	0.60911953
225	0xbdf95a08	-0.12175375
226	0x3ea45b72	0.32101017
227	0x3e4f3910	0.20236611
228	0xbec2e6be	-0.38066667
229	0xbe99c400	-0.3003235
230	0xbf078474	-0.5293648
231	0x3da1439c	0.078742236
232	0x3fa45452	1.2838233
233	0x3f933854	1.1501565
234	0x3de44bd3	0.11147275
235	0xbddd034f	-0.10791647
236	0xbb5567d1	-0.00325631
237	0xbdbfec3d	-0.09371231
238	0x3f901bf2	1.1258528
239	0x3e59af3c	0.21258253
240	0xbeba18ac	-0.36346948
241	0x3eaabf82	0.33349234
242	0xbe828017	-0.2548835
243	0x3e77bbd0	0.24192739
244	0x3e7c0e2c	0.24614781
245	0xbf41f985	-0.7577136
246	0x3e9968be	0.29962724
247	0xbeabb084	-0.33533108
248	0xbefdb56c	-0.49552476
249	0x3f169807	0.58825725
250	0xbe38e8ef	-0.18057607
251	0xbea048b3	-0.31305465
252	0x3f83a9b2	1.0286162
253	0xbf7df626	-0.9920372
254	0x3f760d33	0.9611389
255	0xbe743393	-0.23847799

linear1.bias f4 [128]
0	0x3f568eef	0.8381185
1	0xbf0a24cb	-0.5396239
2	0xbeef8591	-0.4678159
3	0xbaa5e532	-0.0012656807
4	0x3ca510ac	0.020149551
5	0x3f03c815	0.51477176
6	0x3ed60f4d	0.4180855
7	0xbe70207c	-0.23449892
8	0x3d9a3ef8	0.075315416
9	0xbece0908	-0.40241265
10	0xbdd04abf	-0.10170507
11	0xbe05ca6a	-0.13065496
12	0x3f4d98f7	0.8031153
13	0x3ec2016f	0.3789172
14	0x3e2988a8	0.16556036
15	0xbe1357d5	-0.14388974
16	0xbe883c70	-0.2660861
17	0x3f26711b	0.65016335
18	0x3ecb0f22	0.39659983
19	0xbec4fdd4	-0.38474905
20	0xbe0a506e	-0.13507244
21	0xbeb7995e	-0.35859197
22	0x3cb6792d	0.022274578
23	0xbcb8e683	-0.022570854
24	0x3f9321fb	1.1494745
25	0xbeaf8239	-0.3427904
26	0x3ed42190	0.41431856
27	0xbefaa451	-0.48953488
28	0x3f4bcddf	0.7961101
29	0x3f540a9b	0.8282868
30	0xbf497f8b	-0.7871024
31	0xbebadb5d	-0.36495486
32	0x3df4df32	0.119566336
33	0x3ea41c11	0.32052663
34	0x3f11c3e9	0.5693956
35	0x3e2a946a	0.16658178
36	0x3efce10c	0.49390447
37	0x3f470f40	0.77757645
38	0x3ea12f7d	0.31481543
39	0x3eda22e9	0.4260476
40	0x3f3dcfce	0.7414521
41	0x3e89d9f6	0.26924103
42	0x3d351ee3	0.04421891
43	0x3e4cd934	0.20004731
44	0xbe068b70	-0.13139129
45	0x3ee460f8	0.4460523
46	0x3e2681d5	0.16260464
47	0x3ea6e098	0.32593226
48	0xbe993229	-0.29921082
49	0x3dd18a94	0.1023151
50	0x3ea86780	0.32891464
51	0xbe89aed5	-0.268912
52	0x3e9f089e	0.31061262
53	0x3ebddf9b	0.3708466
54	0xbe79aba2	-0.24381879
55	0xbed22b0c	-0.41048467
56	0x3a7a3b08	0.00095455395
57	0xbe8fe2ae	-0.2810263
58	0x3e8c9416	0.2745673
59	0x3e12b845	0.14328106
60	0x3d3e06d9	0.04639325
61	0xbe1eb086	-0.15497026
62	0x3ea9a862	0.33136278
63	0x3f59c5f2	0.85067666
64	0x3eb7e914	0.35920012
65	0xbe5d5ac3	-0.21616654
66	0xbe0091b2	-0.12555578
67	0x3db02015	0.08599869
68	0xbf1b71b6	-0.60720384
69	0x3ebefad1	0.37300733
70	0x3ea42836	0.3206193
71	0x3eeca851	0.46222165
72	0x3c0c94c2	0.0085803885
73	0x3e82fc9b	0.25583348
74	0xbeb83891	-0.35980657
75	0x3f32b247	0.6980328
76	0x3e30accc	0.17253417
77	0x3db7df85	0.0897818
78	0x3ee091d3	0.43861255
79	0xbeb3958e	-0.3507504
80	0x3ec6b2d3	0.38808307
81	0x3f09fa77	0.53897804
82	0xbd8749bd	-0.06605861
83	0xbc0dc038	-0.008651786
84	0x3f847543	1.0348285
85	0xbc90b41e	-0.017664012
86	0x3ed10f63	0.40832052
87	0x3dfc6320	0.12323594
88	0xbecb1d35	-0.3967072
89	0xbe8921e0	-0.26783657
90	0xbe37ef0e	-0.17962286
91	0x3ec0f290	0.3768506
92	0xbe536e9a	-0.2064766
93	0xbe88bf44	-0.26708424
94	0x3c231952	0.009954767
95	0xbdc71ef4	-0.09722701
96	0x3cbe3d64	0.023222633
97	0x3d991727	0.07475119
98	0x3fd51bb7	1.6649083
99	0xbf386170	-0.7202368
100	0x3b66e378	0.0035230797
101	0xbf032509	-0.51228386
102	0xbeaad2c1	-0.33363917
103	0xbe82b066	-0.25525206
104	0xbe33cae2	-0.17557862
105	0x3f11295d	0.5670374
106	0x3f0c503e	0.5480994
107	0xbebcaa36	-0.3684861
108	0x3f3daa44	0.7408793
109	0x3ef50c50	0.47860956
110	0x3f2ad3f6	0.66729677
111	0x3f0f5997	0.5599608
112	0xbf11bf28	-0.56932306
113	0x3e2405e2	0.16017869
114	0xbec6d68c	-0.3883556
115	0xbdd3ef9b	-0.103484355
116	0x3f17cc22	0.59295857
117	0x3db3753b	0.08762594
118	0x3f775b03	0.9662325
119	0x3e707b47	0.23484527
120	0xbe893f7a	-0.2680624
121	0xbdfd68ed	-0.12373529
122	0x3e985dc2	0.29759032
123	0x3e196380	0.14979362
124	0xbd030e71	-0.031996194
125	0x3f7a7b1d	0.97844106
126	0x3f0c4e47	0.5480694
127	0xbf01a150	-0.5063677

linear2.weight f4 [128, 128]
0	0xbe6af8d6	-0.22946486
1	0xbeb0b758	-0.3451488
2	0x3eaf0caf	0.34189364
3	0x3e8bab6d	0.27279225
4	0x3e94fd11	0.29099324
5	0x3da6c0d8	0.08142251
6	0xbe872b61	-0.26400283
7	0xbc551e8e	-0.013007773
8	0xbdaaff08	-0.083494246
9	0xbec3c4bf	-0.38236043
10	0x3ea41667	0.32048342
11	0xbd0fea0d	-0.035135318
12	0xbe2ed907	-0.17074977
13	0x3f291062	0.66040623
14	0xbee2748d	-0.44229546
15	0xbe237ccf	-0.1596558
16	0xbf527a7f	-0.82218164
17	0xbdef3400	-0.1167984
18	0x3deb3bf4	0.114860445
19	0x3ed53d49	0.4164832
20	0x3d5a8000	0.053344727
21	0xbe92e76c	-0.28692186
22	0xbea40848	-0.32037568
23	0x3e9d4fae	0.30724853
24	0xbf605e20	-0.87643623
25	0x3e471397	0.19441067
26	0xbed86ea2	-0.42271906
27	0xbe8fe7b8	-0.28106475
28	0xbe30f706	-0.17281732
29	0x3f419f57	0.7563376
30	0xbeb06ccf	-0.34458014
31	0xbe0e34c2	-0.13887313
32	0x3d551137	0.05201837
33	0x3e02fc0f	0.12791465
34	0x3f32fa0a	0.6991278
35	0xbe8602b1	-0.26173928
36	0xbe6bf1cc	-0.23041457
37	0xbf1224bf	-0.5708732
38	0xbda9d1c0	-0.0829196
39	0xbe7593ef	-0.23982213
40	0x3cd7b413	0.026330983
41	0x3e002e94	0.12517768
42	0x3deafa1a	0.11473484
43	0xbe42d34b	-0.19025914
44	0x3c8ccac0	0.017186522
45	0x3e4eb126	0.20184764
46	0xbf33af92	-0.70189774
47	0x3ec5ec44	0.3865682
48	0x3ef82547	0.4846594
49	0x3e2e68c2	0.1703215
50	0xbe50e37a	-0.20399275
51	0x3e78655b	0.24257414
52	0xbe74ea0a	-0.23917404
53	0x3f2262c0	0.6343193
54	0xbf6e1c25	-0.93011695
55	0xbf478d76	-0.7795023
56	0x3f551251	0.83231074
57	0xbf0fc0d8	-0.5615363
58	0xbf8a9c3c	-1.0828929
59	0xbd11f1fc	-0.035631165
60	0x3f257a54	0.6463978
61	0x3cdf1d05	0.027235517
62	0xbec9f0e1	-0.3944159
63	0xbd4fe15e	-0.050752036
64	0x3e82d391	0.25552037
65	0x3b31de26	0.0027140467
66	0xbf867501	-1.0504457
67	0xbd3c5f09	-0.04598907
68	0x3d85190b	0.06498917
69	0x3e891892	0.26776558
70	0x3e6cccae	0.23124954
71	0xbb84cda6	-0.0040528355
72	0xbf071fe7	-0.52783054
73	0xbe7ce3a9	-0.2469622
74	0xbe4bb997	-0.19895016
75	0x3e4d4318	0.20045125
76	0xbe2bfa56	-0.16794714
77	0xbe2eabaa	-0.17057672
78	0x3c07b7dc	0.008283582
79	0xbe8be5d8	-0.27323794
80	0xbdf11087	-0.117707305
81	0xbf404940	-0.7511177
82	0xbf1c5c6a	-0.6107851
83	0x3f238881	0.63880163
84	0xbf72854c	-0.94734645
85	0x3d4ee133	0.050507735
86	0x3db6be1e	0.08922981
87	0xbf77c0cd	-0.96778566
88	0x3e53b189	0.20673193
89	0xbe12173f	-0.1426668
90	0xbef9fcb2	-0.48825604
91	0xbedb73bd	-0.4286174
92	0x3eac1418	0.3360908
93	0x3ea86afe	0.3289413
94	0xbe8e1e78	-0.2775762
95	0xbf4cbbdc	-0.7997415
96	0x3c682684	0.014169339
97	0xbe5dae1a	-0.21648446
98	0x3d82d838	0.06388897
99	0xbe9b662f	-0.30351397
100	0xbf1b5d81	-0.6068955
101	0x3f003e8d	0.50095445
102	0xbe022e65	-0.1271301
103	0x3de70567	0.11280327
104	0xbd9eadcc	-0.07747993
105	0xbed5784b	-0.4169334
106	0x3e9367f7	0.28790256
107	0x3e60e10d	0.2196085
108	0xbe3d0743	-0.18459801
109	0x3e6aa24d	0.22913475
110	0xbf7672ad	-0.9626873
111	0xbce07b48	-0.027402535
112	0xbd618b16	-0.055064283
113	0x3ecd08c9	0.40045765
114	0x3eac4224	0.3364421
115	0xbe900ed3	-0.2813631
116	0xbe2f1c7c	-0.1710071
117	0x3dd7d06b	0.105377994
118	0x3e0776c0	0.13228893
119	0xbf70a50f	-0.9400186
120	0xbef02885	-0.46905914
121	0xbe6480b4	-0.22314721
122	0xbe056f9d	-0.13030858
123	0xbdb3ca81	-0.08778859
124	0xbe85f904	-0.26166546
125	0xbf1a31b4	-0.6023209
126	0xbe2e4b92	-0.17021015
127	0xbf770a75	-0.9650033
128	0xbdc311d2	-0.09524883
129	0x3ec1ee7f	0.3787727
130	0x3e69f049	0.22845568
131	0x3d3a4626	0.045477055
132	0xbe9e2e7d	-0.30894843
133	0xbf113eb1	-0.56736284
134	0xbfa674e7	-1.3004426
135	0x3e44c7ee	0.19216892
136	0xbe58a3c3	-0.2115622
137	0x3d9f2a5a	0.0777175
138	0xbdc494b3	-0.095986746
139	0x3ee7ddb3	0.4528633
140	0xbe971b68	-0.29513097
141	0xbec53426	-0.3851635
142	0x3ef987a6	0.48736304
143	0xbc75ce98	-0.015002869
144	0xbf438bf6	-0.7638544
145	0xbf88bcbd	-1.0682598
146	0xbf972354	-1.1807656
147	0x3e2810a6	0.16412601
148	0xbea5db30	-0.3239379
149	0x3eba03bd	0.36330977
150	0x3d83685d	0.0641639
151	0x3dd499a0	0.10380864
152	0x3e0f5737	0.13998114
153	0xbf66b5a3	-0.90120906
154	0x3d503e11	0.05084044
155	0x3d461106	0.04835608
156	0xbe023f23	-0.12719397
157	0x3d3e3b6d	0.04644339
158	0x3e245fe3	0.16052203
159	0x3e2f19df	0.17099713
160	0x3c1c6069	0.00954447
161	0x3e63363f	0.22188662
162	0xbe6fb6a8	-0.23409522
163	0xbeafcd60	-0.34336376
164	0xbfaf6a58	-1.3704329
165	0xbea67ac6	-0.32515544
166	0x3d2c1cae	0.04201954
167	0xbedff888	-0.43744302
168	0xbf2215ba	-0.633144
169	0x3e3ec388	0.18629277
170	0xbdcecd5b	-0.10097762
171	0x3ed1f538	0.410074
172	0x3f2bc644	0.67099404
173	0x3db72685	0.08942894
174	0xbe6d3d25	-0.23167856
175	0x3eef921c	0.4679116
176	0x3ea2e39f	0.31814286
177	0x3e71ef1f	0.23626374
178	0xbf154070	-0.5830145
179	0xbdf3aafd	-0.11897848
180	0x3de06c2a	0.10958131
181	0xbfe289d0	-1.7698307
182	0x3e92d96b	0.28681502
183	0x3f0784f8	0.5293727
184	0x3e875456	0.2643153
185	0x3f81e31c	1.0147433
186	0xbe2e44f4	-0.17018491
187	0x3eaafe0e	0.33396953
188	0xbedfca66	-0.43709105
189	0x3e8d7f8f	0.27636382
190	0xbf24ac07	-0.6432499
191	0x3e2c840d	0.16847248
192	0xbe089cea	-0.13341108
193	0xbf6ec051	-0.932622
194	0xbec9d4d3	-0.39420184
195	0x3d856103	0.06512644
196	0x3e7a42b7	0.24439512
197	0x3e196a78	0.14982021
198	0xbe9964ab	-0.29959616
199	0xbea10cd5	-0.31455103
200	0x3f3cc140	0.73732376
201	0x3da8e277	0.0824632
202	0x3f0adb4a	0.5424086
203	0xbee0e163	-0.43921956
204	0xbe72e9dc	-0.23722023
205	0x3ec05b04	0.3756944
206	0xbf09a590	-0.53768253
207	0xbf348125	-0.7050956
208	0xbee3305d	-0.44372836
209	0xbf2b6467	-0.66950077
210	0xbf0e27ab	-0.5552928
211	0xbde8fc38	-0.11376232
212	0x3e275531	0.16341092
213	0x3ec02417	0.37527534
214	0xbe7df51d	-0.24800535
215	0xbf53bef9	-0.82713276
216	0xbe14674f	-0.14492534
217	0x3ea58540	0.32328224
218	0x3c94865e	0.018130478
219	0xbeabc1cf	-0.33546302
220	0x3db7120e	0.089389905
221	0xbe875927	-0.26435205
222	0xbe4f2c16	-0.20231661
223	0x3e4a2736	0.1974152
224	0x3e24257c	0.16029924
225	0xbef7cb6a	-0.4839738
226	0x3d47acf0	0.04874891
227	0x3e4ba355	0.19886525
228	0xbd86bc31	-0.065788634
229	0xbe75babe	-0.23997018
230	0xbedff9a0	-0.43745136
231	0x3ced585b	0.028972795
232	0xbf53bbfe	-0.8270873
233	0xbf2eeaaa	-0.6832682
234	0xbf158180	-0.58400726
235	0xbeafafa1	-0.34313682
236	0x3d03e478	0.032200307
237	0xbebf51fe	-0.37367243
238	0xbf0617af	-0.5237989
239	0xbdd226f4	-0.10261336
240	0x3c505fd8	0.012718163
241	0xbe42573c	-0.1897859
242	0x3d662318	0.05618581
243	0x3d5b7de7	0.053586867
244	0xbd388aa7	-0.045054104
245	0x3e4eb813	0.20187406
246	0xbefff055	-0.49988046
247	0x3dee7942	0.11644222
248	0xbd1f1aa8	-0.03884378
249	0xbe2c5cab	-0.16832225
250	0x3e03be01	0.1286545
251	0x3f0ed543	0.5579416
252	0xbf0e5143	-0.55592746
253	0xbf430e2f	-0.7619352
254	0xbf10a24e	-0.5649766
255	0x3dd45475	0.103676714

linear2.bias f4 [128]
0	0xbef0a05c	-0.46997344
1	0xbef0aa99	-0.47005156
2	0xbf357640	-0.7088356
3	0x3f4a1802	0.78942883
4	0xbca97531	-0.020685764
5	0xbeace3ac	-0.3376745
6	0xbf23ecea	-0.6403338
7	0xbecb778d	-0.39739648
8	0xbe972172	-0.29517704
9	0x3f02fe6b	0.5116946
10	0xbe7d174e	-0.24715921
11	0x3ee6466e	0.4497561
12	0x3eac596c	0.33661973
13	0xbec7e9d9	-0.390456
14	0x3f215f6a	0.63036215
15	0xbf63a620	-0.8892536
16	0xbef6f3a8	-0.4823277
17	0x3f46d903	0.77674884
18	0xbe1b09ca	-0.15140453
19	0xbdb2ab95	-0.08724133
20	0xbe28652a	-0.16444841
21	0x3e4ca3ff	0.19984435
22	0x3f5aaee7	0.8542313
23	0xbde87897	-0.11351126
24	0xbefd54ad	-0.49478665
25	0x3dec7205	0.11545185
26	0xbe0a2c4a	-0.13493457
27	0x3f534d52	0.82539856
28	0xbe26f19a	-0.16303101
29	0xbf076a8b	-0.52896947
30	0x3f79bfd6	0.97558343
31	0x3f1cc121	0.6123219
32	0xbe941373	-0.2892109
33	0x3f538de7	0.826384
34	0x3ef255f5	0.47331205
35	0xbea0e255	-0.31422678
36	0x3fad3608	1.3532114
37	0x3f7102e2	0.94145024
38	0xbe2c1771	-0.16805817
39	0x3f17d25b	0.5930535
40	0x3f92c90a	1.1467602
41	0x3f46eb1f	0.77702516
42	0x3eb1e04c	0.34741437
43	0xbeeb5518	-0.4596336
44	0x3ed11357	0.40835068
45	0xbe34fb61	-0.17674018
46	0x3dd5c9ba	0.10438867
47	0xbebaad4c	-0.3646034
48	0x3ef64f9c	0.48107612
49	0xbeef9eb1	-0.4680076
50	0x3e86d49a	0.26334077
51	0x3e6bdaf9	0.2303275
52	0xbf0ea8f7	-0.5572657
53	0x3f02d35f	0.51103777
54	0x3f661f16	0.89891183
55	0x3f6989a0	0.91225624
56	0xbe6dd3f1	-0.2322538
57	0x3ecf1d6e	0.4045214
58	0x3f66ec42	0.9020425
59	0x3e8ec750	0.27886438
60	0x3f04cbd5	0.51873523
61	0x3f7a166a	0.9769045
62	0x3e938f6a	0.28820354
63	0x3ee4db24	0.4469844
64	0xbe965794	-0.29363692
65	0x3f3c29f2	0.73501503
66	0xbec578f1	-0.38568833
67	0x3e608d15	0.21928819
68	0xbe68f00c	-0.2274782
69	0xbe2d4741	-0.16921712
70	0xbe647a21	-0.22312213
71	0x3f55b0e6	0.8347305
72	0xbeb1f993	-0.34760723
73	0x3f4b43cd	0.7940033
74	0x3eb0241d	0.34402552
75	0xbe1bf0e7	-0.15228616
76	0x3ef17546	0.47159785
77	0x3ecb17f0	0.396667
78	0x3f83b284	1.0288854
79	0x3f303125	0.6882499
80	0x3f3d12f4	0.73857045
81	0x3f38ee94	0.7223904
82	0xbeb6b537	-0.3568513
83	0xbed0a496	-0.4075057
84	0xbed9cb6c	-0.4253801
85	0xbe1ab879	-0.15109433
86	0xbed18c86	-0.40927523
87	0xbe8369df	-0.2566671
88	0x3f0e2808	0.5552983
89	0xbe7c37cc	-0.2463066
90	0x3d8e01f0	0.06933963
91	0xbe3ab373	-0.18232517
92	0x3f6a922e	0.916293
93	0xbecde494	-0.40213454
94	0x3f458754	0.7715962
95	0xbeab0ea2	-0.334096
96	0x3eaa4e85	0.3326303
97	0xbe985824	-0.29754746
98	0xbe052540	-0.13002491
99	0x3f92c2fb	1.1465753
100	0xbe4d8005	-0.20068367
101	0xbf1b391d	-0.6063402
102	0x3f9b312f	1.2124385
103	0xbea6af83	-0.3255578
104	0x3ef0bee0	0.47020626
105	0xbecf4490	-0.40481997
106	0xbe69b9f0	-0.22824836
107	0xbedf7342	-0.43642622
108	0x3ee0b198	0.43885493
109	0x3f6da217	0.92825454
110	0x3ec5310a	0.38513976
111	0xbefd4f87	-0.49474737
112	0xbb48631d	-0.0030576654
113	0xbf3edd6e	-0.74556625
114	0x3f2477b2	0.6424514
115	0x3f58565b	0.8450677
116	0x3f03620a	0.5132147
117	0x3e7b9b27	0.24570905
118	0x3f5c36f7	0.8602137
119	0xbf4c2eb4	-0.79758763
120	0x3f657dc0	0.89645004
121	0xbea7021b	-0.32618794
122	0xbef58a8e	-0.4795727
123	0xbe3fdec5	-0.18737324
124	0x3fa32026	1.2744186
125	0xbe87139a	-0.26382142
126	0xbeac187e	-0.33612436
127	0x3edb165d	0.427905

output.weight f4 [1, 128]
0	0xbfdef3ca	-1.7418149
1	0xbfe8ff5d	-1.8202931
2	0xbfd72cde	-1.6810567
3	0x3f9f56da	1.244838
4	0xc06090b3	-3.5088317
5	0xbfcb4766	-1.5881164
6	0xbf9a6244	-1.2061238
7	0xbff3999f	-1.9031256
8	0xbfe87afe	-1.8162534
9	0x403f6a18	2.9908504
10	0xbfdb3e98	-1.7128477
11	0x3fe4a9a0	1.7864265
12	0x3f6abe0c	0.9169624
13	0xbfff35b5	-1.9938265
14	0x3fa224df	1.2667502
15	0xbf1780d4	-0.5918095
16	0xbf2f1624	-0.6839316
17	0x3f02b253	0.5105335
18	0xbfd06158	-1.6279707
19	0xbfbbe442	-1.4679034
20	0xbfb09b60	-1.3797417
21	0x3fc2974f	1.5202426
22	0x3f0ebcb9	0.5575672
23	0xbfcc3f19	-1.5956756
24	0xbfdd20fb	-1.727569
25	0x3fbaee01	1.4603883
26	0xbfc9ab8d	-1.5755478
27	0x3f854387	1.0411233
28	0xc033ba4b	-2.8082454
29	0xbfdbeb56	-1.7181194
30	0x3f585d98	0.8451781
31	0x3fd9dbc0	1.7020187
32	0xc00f47bb	-2.238753
33	0x3f16fe6d	0.5898197
34	0x3f3a140d	0.72686845
35	0xbfd09ddd	-1.6298176
36	0x3e9f2a7d	0.31087103
37	0x3f9786b5	1.1837984
38	0xbfa49c0e	-1.2860124
39	0x3f8c6506	1.096833
40	0x3e951c32	0.29123074
41	0x3fa343ba	1.2755044
42	0x3f34eb86	0.7067188
43	0xc01ca627	-2.4476411
44	0x3fd5163e	1.6647413
45	0xc009bf82	-2.1523137
46	0x4024cf80	2.5751648
47	0xbff6c03b	-1.9277414
48	0x400f38ec	2.2378492
49	0xc0261f14	-2.5956469
50	0x3f9293ea	1.145139
51	0x3fee0621	1.859562
52	0xbff65bbb	-1.9246744
53	0x400c7b3b	2.1950214
54	0x3fa34575	1.2755572
55	0x3eb1a79a	0.34698182
56	0xbfed95ac	-1.8561301
57	0x4005e8f8	2.0923443
58	0x3f474f35	0.77855235
59	0x400a6558	2.1624355
60	0x3f650110	0.89454746
61	0x3f198f9f	0.59984773
62	0x3fa80416	1.3126247
63	0x3fe38018	1.7773466
64	0xc019efcb	-2.4052608
65	0x3fbab1f2	1.4585555
66	0xbfa71e57	-1.3056134
67	0x3faf36ba	1.3688576
68	0xbff39241	-1.9029008
69	0xbf3e10b4	-0.74244237
70	0xbfe6bbad	-1.8026024
71	0x3f1dbf54	0.6162007
72	0xbff03065	-1.8764769
73	0x3f6c4d5f	0.9230556
74	0x3fd501c5	1.6641165
75	0xbf828b6a	-1.0198796
76	0x3fe3e139	1.7803108
77	0x401de920	2.4673538
78	0x3eb034df	0.34415337
79	0x3f8d0035	1.1015688
80	0x3fb09a84	1.3797154
81	0x3f513a5e	0.81729686
82	0xbfb337f1	-1.4001447
83	0xbf62a939	-0.88539463
84	0xbfff3953	-1.9939369
85	0xbf96898b	-1.1760725
86	0xbec07cec	-0.37595308
87	0xbfaadf4e	-1.3349397
88	0x3f25d227	0.6477379
89	0xc02649a2	-2.5982442
90	0x3fcd6d94	1.6049066
91	0xbfc03349	-1.5015651
92	0x3f4337ae	0.76256835
93	0xbf778ada	-0.96696246
94	0x3fdc8124	1.722691
95	0xbf83261b	-1.0246004
96	0x3f9d64d2	1.2296393
97	0xbfdba2b8	-1.7159033
98	0xc0188af7	-2.3834817
99	0x3f02d89b	0.51111764
100	0xc0111948	-2.267168
101	0xbf9a7aec	-1.2068763
102	0x3e94e82f	0.29083392
103	0xbffc1f47	-1.9697045
104	0x3ff8b6c4	1.9430776
105	0xbec9f6e4	-0.39446175
106	0xbf1c1f91	-0.60985667
107	0xbff947ad	-1.9474999
108	0x3fe746f4	1.8068528
109	0x3f160ea4	0.5861609
110	0x3f8b2265	1.0869871
111	0xbff7daa6	-1.9363601
112	0xbfa048b6	-1.252219
113	0xbff3ffff	-1.9062499
114	0x3f8f83d8	1.121211
115	0x3f17d664	0.5931151
116	0x3fed11d3	1.8521065
117	0x400776e4	2.1166315
118	0x3f5ca547	0.86189693
119	0xbfc8a703	-1.5675968
120	0x3f13d615	0.5774854
121	0xbfb5c597	-1.4200925
122	0xbfd0ce01	-1.6312867
123	0xbfaf8f62	-1.3715632
124	0x3f00dcb6	0.5033678
125	0xbfb64f7c	-1.4243007
126	0xbfdc8364	-1.7227597
127	0x3f6fc245	0.93655807
