Data/Player1/checkpoint-advTest5.pth (torch, 372350 bytes, 28 tensors)

linear1.weight f4 [128, 34]
000000 83 60 14 be 02 2f 47 bd 44 8f 11 be cb e7 08 be
       -0.14489941 -0.048628815 -0.14214808 -0.13369672
000010 9e c3 24 be 34 c3 a0 bd 06 c2 db bd 8f 6d 0f be
       -0.16090247 -0.07849732 -0.107303664 -0.14006637
000020 99 c5 3a 3d e2 75 5e be 54 3b 84 bd 11 11 07 be
       0.0455986 -0.21724656 -0.064566284 -0.13190104
000030 ed 63 49 be cb 35 0c 3d 18 9a f9 3c a1 1b 47 3d
       -0.19667025 0.03423099 0.030468985 0.048610333
000040 84 d5 d1 bd 48 b7 0f bd e4 6b c9 bc 63 1b 12 be
       -0.10245803 -0.0350869 -0.02458758 -0.1426826
000050 a4 f9 c6 bd b6 c2 bd 3d 37 dc 25 3e 03 f2 31 3e
       -0.09715584 0.09265654 0.16197287 0.17377476
000060 cf b6 eb bd 33 94 07 3d 6e 33 ee bd 7e 49 28 bd
       -0.11509477 0.03310032 -0.11630903 -0.041085713
000070 45 93 20 3e 4c 7d ce 3c 3e d8 34 bd 39 3f 9a 3c
       0.15681179 0.02520623 -0.044151537 0.018828975
000080 15 da e1 bd ff 90 02 3e d5 1d 70 3d 1b 6a 22 be
       -0.11027924 0.12750624 0.0586222 -0.15860789
000090 76 6d 4e 3d 1d 78 30 be fb b3 d2 3d d9 08 82 3d
       0.05039736 -0.1723332 0.10288235 0.06349344
0000a0 00 77 84 bd f9 91 77 bd 30 ca 36 be e8 6b 10 3d
       -0.0646801 -0.060441945 -0.17850566 0.035259157
0000b0 91 04 d7 3b 6c 59 09 3c a7 29 12 be 1c 59 98 bd
       0.0065618237 0.008383136 -0.14273702 -0.07438871
0000c0 8f c9 34 be 23 c0 77 bd 80 2f 51 3d fe 00 d8 bd
       -0.17655014 -0.06048597 0.05107069 -0.10547064
0000d0 ee 2f 1c 3e 90 79 88 3d ad 27 8e bd 5c 9c ef 3d
       0.15252659 0.06663811 -0.06941161 0.11699745
0000e0 1f c3 ef 3d 0f be 94 3d 7a 0f 1b bd 40 f9 10 3e
       0.11707138 0.07262813 -0.037856556 0.14157581
0000f0 cf 58 8e 3d 57 25 b6 bd a3 2f 7a be 48 7a ca 3d
       0.06950533 -0.08893841 -0.24432234 0.098866045
000100 dc 84 45 bd 89 d6 02 be 77 99 2f be 2e c3 f7 3d
       -0.048222408 -0.12777151 -0.17148386 0.120977744
000110 a9 51 de 3d 61 6f 00 3e ae b8 b9 bd 9e e9 6c 3e
       0.10855419 0.12542488 -0.09068428 0.23135993
000120 8c 3a 0d 3e e8 51 1d 3e 73 12 cb 3d df 4f b0 bd
       0.13791865 0.15363276 0.09915628 -0.08608984
000130 a0 e5 0e be b0 21 15 be 58 21 24 be d6 61 73 bc
       -0.13954782 -0.14563632 -0.16028345 -0.014854869
000140 65 ab f5 bc f0 c2 3a 3e fa 12 d6 bc 81 81 5d 3b
       -0.029988954 0.18238425 -0.026132096 0.0033799114
000150 27 75 ab 3d 27 2b d9 bd 9e b7 a2 bd 01 f0 83 3e
       0.083719544 -0.10603934 -0.079451784 0.25769046
000160 37 b7 e3 bc d5 08 11 3e 59 4b 03 3e 40 2a e8 bd
       -0.027797325 0.14163525 0.12821712 -0.113361835
000170 4c 36 84 bb b2 2a ad 3d d7 20 1e bd 05 e6 e8 bc
       -0.004034793 0.08455409 -0.038605537 -0.028429994
000180 8f 4b a8 be 6d fa d8 bd a3 5a a5 bd 55 70 c3 3c
       -0.32870147 -0.1059464 -0.08073928 0.023857275
000190 59 40 13 3e c5 50 a1 3c 07 77 1b be 7f 0d 18 be
       0.14380015 0.019691834 -0.15182124 -0.14848898
0001a0 c5 31 1d be 71 f8 94 bd 31 1d ee 3d ec 18 f7 bd
       -0.15351017 -0.07273949 0.116266616 -0.120653
0001b0 38 0a 58 3d 8a 96 ca bb 40 24 d0 bd 44 0e a6 3d
       0.05274412 -0.0061824964 -0.10163164 0.0810819
0001c0 98 50 5f 3d cd 98 8a bd b5 ce 32 bd 2f 42 bc 3d
       0.05452022 -0.06767426 -0.043654162 0.09192311
0001d0 81 95 b4 3d 44 c3 15 bc 71 7a 34 bd 8c 84 0d 3e
       0.08817578 -0.009140793 -0.04406208 0.13820094
0001e0 1c 75 26 be e6 91 e6 bd 85 76 28 3d f1 c5 1e be
       -0.16255611 -0.11258297 0.041128654 -0.15505196
0001f0 a1 21 95 bd 85 69 29 be c1 c8 22 3e 6a 5f a3 3d
       -0.07281805 -0.16544159 0.15896894 0.07977183
000200 60 1b 4f be 41 07 20 3d c3 0c f2 3d 94 27 06 be
       -0.20225286 0.039069418 0.1181884 -0.13101035
000210 11 61 5f be 67 a2 28 be 95 76 31 3d 0d 7a ad bd
       -0.21814372 -0.16468202 0.04332598 -0.08470545
000220 f4 5a 11 be cd a8 f4 bd 9b e7 28 be fe 1d 76 bc
       -0.14194852 -0.11946259 -0.164946 -0.015021799
000230 35 4b 2d be e0 bb 4f 3e 9e cc 14 be 34 a8 61 3e
       -0.1692322 0.20286512 -0.1453118 0.2203682
000240 c8 eb 31 3e 6d 61 8e 3d d5 79 12 3e a3 87 0f be
       0.173751 0.06952176 0.14304288 -0.14016585
000250 78 4a 0f be 59 14 b8 bd 9c 6b a9 3c cc 55 06 bd
       -0.13993251 -0.08988256 0.020681195 -0.032796666
000260 8e c3 03 3d be e9 49 bd b0 a3 1d be a3 85 84 bd
       0.032168917 -0.04929518 -0.15394473 -0.06470802
000270 4f bb 5c 3e e4 f3 00 be 21 8e b3 3d 7f 02 40 3e
       0.21555828 -0.12593037 0.08767343 0.18750952
000280 93 da 35 3e 15 34 0d be b7 05 08 be 7e 3b a4 bd
       0.1775916 -0.13789399 -0.1328343 -0.0801916
000290 c9 bc 59 be 88 26 ae bd af 6b 84 bd c0 73 03 3e
       -0.21263422 -0.08503443 -0.064658515 0.12837124
0002a0 f6 73 c7 bb d1 25 92 bd f0 6f 75 bd d5 f1 87 3d
       -0.0060868217 -0.07136119 -0.059921205 0.06637923
0002b0 8a db 33 3e 85 00 fd 3d c3 95 26 3e 56 32 cd 3d
       0.17564216 0.12353615 0.16268067 0.100193664
0002c0 7f c3 de 3d a1 21 62 bd 80 d6 42 bd 87 6c 33 3e
       0.10877132 -0.055207852 -0.047567844 0.17521869
0002d0 c2 e0 44 3e 5d 8a 8d 3d ab 8e 56 bc e3 d8 1b bd
       0.19226363 0.06911156 -0.013095538 -0.038048636
0002e0 ce d7 fe 3d 8e 9d f9 bd ab ac 1a be 97 28 1a bd
       0.12443505 -0.12188254 -0.1510493 -0.037636366
0002f0 ed 5b ad bd a0 d9 72 3c 2f 68 45 3e 00 f7 92 bd
       -0.08464799 0.014822394 0.19278024 -0.07176018
000300 31 b8 ab bd 94 04 fc bc bf 5a 86 3c 5f 67 1a 3e
       -0.08384741 -0.030763902 0.016400693 0.15078495
000310 29 e8 13 be 18 39 ef 3c 27 74 7b be b0 28 8c bd
       -0.14444031 0.02920203 -0.24556027 -0.06843698
000320 5f fc e8 3d da 50 31 3e 4a 58 e2 bd fb 5a 0c be
       0.11376261 0.17315999 -0.11051996 -0.13706581
000330 9f 7a 5f 3c f9 f7 d3 3d cc a4 71 bd 6f f1 cc bc
       0.013640075 0.103500314 -0.058995053 -0.025017468
000340 9a dd 46 3d ef 08 27 be 94 69 2a be b4 fe 44 be
       0.04855118 -0.16312002 -0.16641837 -0.19237787
000350 47 3b 20 be eb 74 75 3d 7b d7 c2 bd 56 ef c1 bc
       -0.15647613 0.059925955 -0.09513756 -0.023673695
000360 8d a2 3c 3d 6c 4c af 3d dc 2a 14 3c 31 d3 7e 3d
       0.046053458 0.08559498 0.009043422 0.062213127
000370 02 4d 07 be d6 9d 14 be 59 fa 04 3d 39 60 95 3d
       -0.1321297 -0.14513335 0.032465313 0.07293744
000380 c0 cb 01 3e 22 5c 6b 3d 40 1c f3 3c bd 47 46 3e
       0.1267538 0.05746091 0.029676557 0.19363303
000390 c1 a1 11 3e 48 f5 4e 3d 00 0a 3b 3d 98 20 81 bd
       0.1422186 0.050526887 0.045663834 -0.06305045
0003a0 d2 a4 1c 3d 53 9f e1 bd 48 74 0b 3e db 7c 78 3c
       0.038243122 -0.11016717 0.13618577 0.015166487
0003b0 d7 16 1f 3e 3f d9 2c 3e 57 7a af bb c9 57 1d 3d
       0.15536056 0.16879748 -0.00535516 0.038413797
0003c0 66 ee cd 3c 5b 62 b3 bd c8 af 5e be 04 61 6e bc
       0.025138091 -0.08758994 -0.21746743 -0.0145494975
0003d0 4b 21 08 be 54 86 54 be 3a 09 cb 3d 7e f8 ad bd
       -0.1329395 -0.20754367 0.09913869 -0.08494662
0003e0 c9 29 03 3c d8 38 3f 3b 85 17 e1 3c 17 6d 68 bd
       0.008005568 0.0029178169 0.027477035 -0.05674466
0003f0 49 e0 f3 3c ee d9 d1 3d 72 26 d7 bd 3d bd e4 bd
       0.029770033 0.10246645 -0.1050538 -0.11168907

linear1.bias f4 [128]
000000 2a 19 19 be 19 95 b0 bc a8 6b ff 3c 65 dd 8b bd
       -0.14951006 -0.02155547 0.031179264 -0.06829337
000010 97 1e 59 3e 5f d9 81 bd b1 e2 ff bd ca 59 ce bd
       0.21203075 -0.06340288 -0.1249441 -0.1007572
000020 89 95 54 3e e8 7b d5 3d 15 8f 40 3e f7 22 bc 3d
       0.20760168 0.10424024 0.18804581 0.091863565
000030 5d 05 6b 3d a8 e3 2d 3e a1 58 21 bd 40 d1 fb 3d
       0.05737816 0.16981375 -0.039391164 0.12295771
000040 80 9a eb bd ce 03 b6 3d 03 38 cb 3d 48 a4 13 3e
       -0.11504078 0.088874444 0.09922793 0.14418137
000050 27 98 1c be 4a 8a 77 3d ed 1e a4 bd b0 26 8c bd
       -0.15292417 0.060434617 -0.08013711 -0.068433166
000060 42 d1 aa 3d 6c 95 90 3d fa 46 a0 3d 2a 92 81 bd
       0.08340694 0.0705975 0.07826038 -0.06326707
000070 6d 5b 24 3d 2b 49 78 3e 85 c1 62 3d a4 e9 fb 3d
       0.040126253 0.24246661 0.055360336 0.12300423
000080 5d 56 7e 3d 30 65 a9 bd 85 e3 f5 3c 4b ab 23 3e
       0.06209408 -0.08271253 0.030015716 0.15983312
000090 c4 b7 c8 bd e3 6f 29 be cd bd 86 3e 38 5a 99 bd
       -0.098006755 -0.16546588 0.26316682 -0.07487911
0000a0 0c f7 a3 3d b0 f7 92 3d 0c af da 3c 12 dd 81 bc
       0.08006105 0.07176149 0.026694797 -0.015852485
0000b0 aa 1c 92 3b 6c 5f 16 bd 7e 3e 60 3d 87 43 89 3d
       0.0044589834 -0.036712095 0.054747097 0.06702333
0000c0 d9 a6 e9 3d e2 ae b9 bd 2e 6f 09 3e 76 a6 08 3e
       0.11408777 -0.090665594 0.13421318 0.1334475
0000d0 f9 74 ad 3d 36 bd 08 3e 55 7a 15 bd 40 34 71 bd
       0.084695764 0.13353428 -0.036493618 -0.05888772
0000e0 c5 d6 79 3e 3e 53 5a bc a2 dc 40 3e 5b 73 a6 bd
       0.24398334 -0.013325511 0.18834165 -0.08127471
0000f0 46 d9 b6 3d 98 8b 1f 3e a9 3d cc 3d 46 2b 10 3e
       0.0892816 0.15580595 0.09972698 0.14079008
000100 e7 70 bf bc d0 c0 54 3c 7a a6 21 3d 5d 3f 67 bd
       -0.023369266 0.012985423 0.039465405 -0.056456912
000110 71 46 96 3d f5 4a 09 be 09 a8 c7 3d c1 0d 32 3e
       0.073376544 -0.134075 0.09748847 0.17388059
000120 e0 57 95 bd d8 01 47 3d ae 42 16 be 48 79 46 3e
       -0.072921515 0.048585743 -0.14673874 0.19382203
000130 01 58 fb bd d1 c3 14 bd d0 c8 76 3e 66 0c c2 3d
       -0.12272645 -0.036319558 0.24100041 0.09475021
000140 92 7b 19 bd 5f 00 08 3e 02 16 9f 3c 11 07 11 3e
       -0.03747136 0.13281392 0.019419674 0.14162852
000150 cb da 07 3e 00 92 86 3d 81 23 0f 3d 04 0f 04 3e
       0.13267057 0.06570816 0.03494597 0.12896353
000160 05 c5 2f be 13 c7 82 3e 60 ec cf 3d 18 63 83 3d
       -0.17165 0.25542507 0.10152507 0.06415385
000170 a4 94 09 3e fa 1d 13 be 8b f2 2b be 04 4f 07 3e
       0.13435608 -0.14366904 -0.16791742 0.13213736
000180 70 de 36 ba d7 dc 95 3d 29 03 07 be a8 de 15 bd
       -0.0006975895 0.073175125 -0.13184799 -0.036589295
000190 3a fc 61 bc 7d 22 fe 3d 4d 98 a5 bd 3d 0a ad 3d
       -0.013793046 0.12408922 -0.0808569 0.084492184
0001a0 e9 73 31 be 9e 39 d3 bc dc fe 89 bd ff 8c 14 be
       -0.17329372 -0.02578431 -0.06738064 -0.1450691
0001b0 3e a2 23 be 7a ec f7 3d 51 4d 87 3d 82 f0 2d be
       -0.15979859 0.12105651 0.06606544 -0.16986278
0001c0 b0 cd 3b bd 46 bf 59 bd 6a bf 50 be d6 b6 be bd
       -0.045850456 -0.05316093 -0.20385519 -0.09312217
0001d0 c6 f2 b9 bc 59 6d 3c be 7c fd 02 3e d1 6a 06 be
       -0.022698771 -0.18401088 0.12792009 -0.13126685
0001e0 cc d9 be bd 7d fd 9f 3d 96 2c e6 3d ff fe 9d 3c
       -0.09318885 0.07812021 0.11238973 0.01928663
0001f0 d9 dd cc 3d 41 51 01 bd 46 7d 13 3e 15 57 be 3d
       0.100032516 -0.03157163 0.14403257 0.09293953

linear2.weight f4 [128, 128]
000000 68 bb 91 bd be bd a3 3d c0 0e 4b bd f7 87 1c 3d
       -0.07115823 0.07995175 -0.049574614 0.038215604
000010 8e fe 95 3d 2b db 20 bd 08 cf 45 bd 8e 46 00 bd
       0.07323943 -0.039271515 -0.048293144 -0.031317286
000020 5c 96 a0 bc 65 fe 57 bd a6 21 b4 3d 2c a5 b7 3c
       -0.019602947 -0.052732844 0.087954804 0.022417627
000030 ae 3a 12 3e 5a 20 96 bd 7d c1 c9 3c e1 2c 42 3d
       0.14280197 -0.07330389 0.024628395 0.04740608
000040 ae c3 9e 3d ff 81 88 bd a3 b6 43 3d c5 7c 98 bc
       0.07752167 -0.0666542 0.047781598 -0.018614182
000050 a9 7e 21 3d c6 c6 89 bd 50 1c 7e bc e9 08 cf 3d
       0.039427433 -0.06727366 -0.01550968 0.10109121
000060 b7 89 be 3c fe 99 e3 bc b9 cd 90 bd d7 21 a9 3c
       0.023259027 -0.02778339 -0.070704885 0.020646019
000070 55 dd 7d bd 11 1a 6f 3c 65 1f 8d 3a 9a 24 6b 3d
       -0.061978657 0.014593617 0.0010766803 0.057407953
000080 e3 aa bb 3d 7b 31 91 bd 4c a4 db 3d 9a b4 ee 3d
       0.091634534 -0.07089516 0.107246965 0.11655541
000090 ee a5 38 3d a8 61 3f 3d f1 46 e5 3d 4f cd 90 3c
       0.045080118 0.04672399 0.111951716 0.017676024
0000a0 25 30 29 bd 10 20 29 3c 44 19 d6 3d 0f 45 02 bd
       -0.04130568 0.010322586 0.10454038 -0.03180414
0000b0 28 33 b6 bc 04 82 82 bd f0 b1 9e 3d 79 64 8b bd
       -0.02224119 -0.06372455 0.07748783 -0.06806273
0000c0 75 82 7d 3b 07 f4 f4 bd 48 45 84 3c 5c 15 06 bd
       0.0038682495 -0.11960607 0.016146317 -0.032735214
0000d0 ff 27 ba 3c 25 99 e2 3d 5d 9f 63 bd d0 d3 c3 3a
       0.02272415 0.11064366 -0.055571903 0.0014940444
0000e0 d0 e1 76 bc 9a dc c8 3d d2 38 73 bb 25 c8 ec 3c
       -0.015068486 0.098077014 -0.0037112725 0.02890403
0000f0 5b 73 db 3c 04 6d bf 3d d1 7e d3 bc d4 8e bf bc
       0.026788404 0.09346965 -0.025817307 -0.023383535
000100 6b 08 f3 bc da df b9 bc 3d 09 1a 3e c4 44 18 3d
       -0.0296671 -0.022689749 0.15042587 0.037174955
000110 37 93 32 3d 6a 5a 81 3d 6c bf 6d bd 96 29 52 bd
       0.043597426 0.06316073 -0.058043882 -0.05130919
000120 90 39 46 bd 53 52 72 bd 9d 02 96 3d 61 79 42 3d
       -0.04839474 -0.05916054 0.07324717 0.047479037
000130 ce 13 aa bd 3c 75 ee bc 92 89 92 bc d2 70 ca 3d
       -0.08304559 -0.029108636 -0.017887864 0.098848
000140 50 ed ed b9 17 3c e0 3d e4 96 49 3c fb c9 19 bd
       -0.00045380974 0.10948961 0.012304042 -0.03754614
000150 ff 1d 4b bd 6a 69 a6 3d 34 a7 74 3c b3 1a 34 3d
       -0.049589153 0.08125575 0.014932442 0.043970775
000160 42 87 bc 3d a9 85 cb 3d f8 3a b4 bd 5e 8d 98 3c
       0.09205486 0.09937603 -0.0880031 0.018622097
000170 8e b5 cc 3d ce a4 8c 3d a7 93 80 3d a7 df de 3b
       0.09995566 0.068673715 0.062781624 0.006801564
000180 ef df b7 bb fe 2d 13 3d f6 98 78 3d 6e 41 47 bd
       -0.0056114118 0.035932533 0.06069275 -0.048646383
000190 33 1c 7e 3d b2 36 9d bd 39 7b 05 3d 7a f2 5c 3c
       0.06203861 -0.07676448 0.032588217 0.013485545
0001a0 89 2f 14 bd 68 ca 80 3b 1e 92 20 bc 5c 4b 9b 3b
       -0.036178146 0.0039303787 -0.009800462 0.004739208
0001b0 00 5f 54 3d 0a 38 7e 3d 2a 38 a5 3d c5 66 8e bc
       0.05184841 0.06206516 0.08067353 -0.017382989
0001c0 be cf 8c 3d af ba b1 3d 31 96 fb 3c 10 6f b5 b9
       0.06875561 0.08678185 0.030711265 -0.00034605758
0001d0 bf 40 b6 bb 02 4c 6d 3c b2 a8 31 39 e2 4b 54 3c
       -0.0055619176 0.014483454 0.0001694288 0.012957545
0001e0 34 23 34 bd 26 41 81 bd 51 3c 72 bc e1 cd 76 3d
       -0.043978885 -0.06311254 -0.014784888 0.060254935
0001f0 01 a3 17 bd 97 30 7b 3c b7 88 c9 3b 60 5a a9 3d
       -0.037020687 0.015331409 0.006150331 0.08269191
000200 07 e3 95 bd 2e bc 10 3e 14 f8 b4 3d 74 45 64 bd
       -0.07318693 0.14134285 0.0883638 -0.0557303
000210 f1 52 93 3d 2d ce aa 3d bd d4 02 3d 8f 52 35 bd
       0.07193554 0.08340106 0.031941164 -0.044268187
000220 e9 5c 97 39 98 26 8a bd 7f 92 f1 3d c7 df 9e 3d
       0.00028870188 -0.067456424 0.1179552 0.07757526
000230 a9 ae aa 3b 26 a7 7f bd e3 25 e7 bd 42 49 bd 3d
       0.0052088094 -0.062415265 -0.11286523 0.092424884
000240 3d 42 2a 3d 30 a3 01 3e 27 28 3d 3d d7 c6 98 3d
       0.041567076 0.12659907 0.04618087 0.07459801
000250 86 38 34 3d 45 41 42 bd 3c 22 97 3d 1b c5 c0 3d
       0.043999217 -0.047425527 0.073795766 0.09412595
000260 9b a3 43 bd a1 78 5c 3d ca f9 96 bc d2 51 23 bd
       -0.04776345 0.05382598 -0.018429656 -0.03987295
000270 e1 c6 e2 bb a7 77 ad 3c 2e 8a 38 bd 7d 46 26 bc
       -0.006920681 0.021175219 -0.045053653 -0.010148642
000280 7c 3d e6 39 cc a7 fe bc a9 3a 9f 3d cd c7 0d 3d
       0.00043914828 -0.031085871 0.077748604 0.034614373
000290 f3 81 bb 3d 90 2f 9a bd 7d 61 92 3c 8c 6d be bd
       0.09155645 -0.07528603 0.017868752 -0.09298238
0002a0 6b 69 96 3d 90 3e 09 3c 45 52 2b 3d a7 a5 0e 3d
       0.07344326 0.0083767325 0.041826505 0.034825947
0002b0 72 9d 4e 3c 83 0a 39 bd a9 b9 03 bd d9 07 56 bd
       0.01261078 -0.04517604 -0.03215948 -0.052253578
0002c0 b7 76 8e 3c 0b b9 98 bc 13 28 93 3c cc a0 93 bc
       0.017390592 -0.018642923 0.017963445 -0.01802101
0002d0 de 9e a5 3d f7 4a d8 3d 16 21 7d 3d a8 cc 80 bd
       0.08086942 0.105611734 0.06179913 -0.06289035
0002e0 22 08 9f 3d e4 fd 6c bd fb b5 99 3c 6d 3f 25 bd
       0.07765223 -0.057859316 0.018763533 -0.04034369
0002f0 cf c7 eb bc 28 47 96 bb b3 77 63 bd ac 35 cc bd
       -0.0287818 -0.004586119 -0.055534076 -0.099711746
000300 69 4b f8 3c aa c7 92 bd b7 4c 2a 3e 10 41 8b 3c
       0.030309396 -0.07166989 0.16630827 0.016998798
000310 8c 6a a8 3c 37 4b 70 bd 7b c1 6b bc 9a d9 8a bd
       0.020558618 -0.05866548 -0.014389391 -0.067797855
000320 51 19 96 3d ca 8b fd 3c a2 e7 91 3c 72 56 30 3d
       0.073290475 0.030950446 0.017810646 0.04305119
000330 f1 08 43 bd e3 eb 14 bc 4a 3b 80 bc 10 9e 6a 3c
       -0.04761595 -0.009089443 -0.015653271 0.014319912
000340 38 0b 66 bc e6 ea 99 3d c3 95 a2 bd 3c 0c c3 3d
       -0.014040761 0.075155064 -0.07938721 0.09523818
000350 83 47 fd 3c 43 1f 89 3d 93 a4 96 bd 41 34 d5 3d
       0.030917889 0.06695416 -0.07355609 0.10410357
000360 14 31 19 3c 32 c3 89 3d 75 b0 b3 bd da 41 e8 3c
       0.00935008 0.06726684 -0.08773891 0.028351713
000370 61 cd 9e 3d cb 18 bb 3d d6 2b f3 bc ea 50 3b 3d
       0.07754017 0.09135588 -0.029683989 0.045731463
000380 93 1e bd bc d0 a4 a8 3d 11 86 b7 3c 9a 89 b0 3c
       -0.023085868 0.082345605 0.022402795 0.021549989
000390 70 2f b3 3d df ec f5 3c 5a d3 9f bd c1 13 96 3d
       0.08749282 0.030020176 -0.07803984 0.073279865
0003a0 0c 5b 0a 3d 6d b7 a6 3d 87 e4 3d 3b a8 d1 78 bd
       0.033778235 0.081404544 0.0028975324 -0.06074682
0003b0 7b 3f 05 bd f3 8b 58 3d 70 96 e4 3b 9e 52 1a bd
       -0.032531243 0.05286784 0.0069759414 -0.037676446
0003c0 96 02 97 bc 19 b3 18 bd 7b 76 77 bd 5e 29 8a 3d
       -0.01843385 -0.037280176 -0.060415726 0.067461714
0003d0 30 e6 eb bb 4a a7 06 bd 7a 29 22 bd 12 cd 8e bd
       -0.0071990713 -0.032874383 -0.039590336 -0.06972708
0003e0 38 cd fa bc c4 15 99 bd a8 91 13 3d 28 8e e2 3d
       -0.030615434 -0.074748546 0.03602758 0.110622704
0003f0 20 38 a3 3d cd 80 66 3d c9 e2 99 bd 0b e3 57 bd
       0.07969689 0.056275178 -0.07513959 -0.05270676

linear2.bias f4 [128]
000000 ea 8b cf 3c 10 1c 15 3e 7f 91 15 bc f6 b9 c8 bd
       0.02533527 0.14561486 -0.009128927 -0.09801094
000010 01 7c af bd 4f 88 98 3c 5e 1f c3 bc 45 5d 91 bd
       -0.08568574 0.018619685 -0.023818668 -0.07097868
000020 9a e9 06 3e af 91 b3 bd b8 24 41 bd b9 c7 0c 3e
       0.1317505 -0.08768021 -0.04715416 0.13748063
000030 d4 ca de bc 56 8f c6 bd 98 55 11 3e b0 e6 f5 3c
       -0.027196325 -0.09695308 0.14192808 0.030017227
000040 25 18 3f 3d fa 4c e9 3c 5d 16 c7 3d b5 0b 70 bd
       0.046653885 0.028479088 0.09721062 -0.058604915
000050 59 2e 10 be fc ed 16 3d ff 8d 4d 3d 9b 7c 4b bd
       -0.1408018 0.036848053 0.050184246 -0.04967938
000060 33 c8 da 3d 88 ae ce bd c8 51 b5 bb 20 3b 65 bd
       0.10682716 -0.10091883 -0.0055334307 -0.05596459
000070 8f 17 97 bc ea e2 0f 3c bc 26 c9 bd da f3 1a 3b
       -0.01844385 0.008782128 -0.09821841 0.0023643882
000080 ba 49 e5 bb 58 68 8e bd ae ab 28 bd 86 ad 16 3d
       -0.0069973143 -0.06953496 -0.04117935 0.03678658
000090 d2 df e1 bd 42 ab 48 3d 5f 9e 4d 3d 68 f4 43 bd
       -0.110290185 0.04899145 0.050199863 -0.047840506
0000a0 ba 92 9d 3c 37 0b 15 3e 5f dd f3 3d fa 27 a2 bd
       0.019235004 0.1455506 0.119074576 -0.07917781
0000b0 46 d9 aa 3d 12 b1 af bd 95 24 6c 3c c6 7a 01 3e
       0.08342223 -0.08578695 0.014413019 0.1264449
0000c0 8b 94 1e 3e fe 3e 73 3c e6 73 9e bd 61 e1 15 3e
       0.15486352 0.0148465615 -0.077369496 0.14636756
0000d0 38 51 1d bd 95 5c 5d 3d ed b6 36 bd 32 47 27 3e
       -0.038407534 0.05404337 -0.044608045 0.16335753
0000e0 80 db aa bb c1 24 7f bd cb 1d a2 bd e1 02 d7 bd
       -0.0052141547 -0.06229091 -0.07915839 -0.10498596
0000f0 7f 3e 93 3d f4 06 70 3c 35 31 73 bb 3c 07 09 3e
       0.071896546 0.014650095 -0.0037108187 0.13381666
000100 29 3b fc bd 1a 18 92 3d df 61 0d be df c4 e5 bc
       -0.123159714 0.07133503 -0.13806866 -0.028047977
000110 5e 08 01 be f1 2d 5a bd d4 da 88 3d 1f a5 59 3d
       -0.12600848 -0.05326647 0.06682363 0.053135987
000120 63 74 47 3d 3a 2d 93 bd a5 26 f7 3d 94 a1 8c bd
       0.04869498 -0.07186361 0.12067918 -0.06866756
000130 6b 25 a5 3d f4 2e 82 3d 17 52 5b 3d 6b 31 37 3d
       0.080637775 0.06356612 0.053545084 0.044724863
000140 bc 06 d1 3d c5 26 ba bd 59 7a be 3d 07 c6 c3 bc
       0.102063626 -0.09089426 0.0930068 -0.023898138
000150 5f 7c b1 bd 93 8c d4 bb 87 b5 0f 3d 32 84 f9 bc
       -0.086663 -0.0064864843 0.035085227 -0.030458543
000160 a3 21 56 3d f2 e6 c6 bd 68 90 ad bc 6a d9 88 bb
       0.052278172 -0.09712018 -0.021187022 -0.0041763084
000170 94 80 47 3d e5 2a 2f 3d 9c 86 0f 3e b1 33 96 bb
       0.048706606 0.042765517 0.14016193 -0.004583799
000180 b4 4f a7 3d 90 0e a2 3c 35 bc ef bc 3e 4c 48 3d
       0.08169499 0.019782335 -0.029264549 0.048900835
000190 f8 9e 0d 3e 19 d9 b3 bd 5c c8 9e 3d 78 fb 99 bd
       0.13830173 -0.087816425 0.07753059 -0.07518667
0001a0 eb 29 ea 3d 1b cb b6 3d 8f a6 97 bd 33 c5 7e bc
       0.114337765 0.08925458 -0.074048154 -0.015549946
0001b0 51 c1 fa bd f2 70 69 bd 4e f4 51 3c 04 ae 08 3e
       -0.122439034 -0.05699248 0.012814594 0.13347632
0001c0 65 2c c5 3d e9 c2 f8 bc 52 53 8b bd a5 8b db bd
       0.09627608 -0.030366378 -0.068030015 -0.107199945
0001d0 7c b9 19 3e f0 cd 22 3e 7d 91 ed 3c e2 4c 90 3d
       0.15012163 0.15898871 0.029000038 0.07045914
0001e0 07 10 35 3d aa 56 19 3d ee aa ec 3d e7 2e a3 3d
       0.044204738 0.037436165 0.1155604 0.0796793
0001f0 94 48 26 bd 9a 16 0a 3e 0f db fa 3d 1d 2e c1 bd
       -0.04059656 0.13485184 0.12248813 -0.094326235

linear3.weight f4 [64, 128]
000000 60 26 ed 3b 81 62 90 bc 89 46 53 bd 0d 79 24 bd
       0.0072372407 -0.017625095 -0.05158094 -0.040154506
000010 e6 5d 6f bc 98 ae e6 3c 81 e3 aa bd 35 c2 e6 bd
       -0.0146097895 0.028159425 -0.08344174 -0.11267511
000020 4b 41 1b 3d d0 4f 64 3c 38 70 dd bc d0 ed ea 3d
       0.037904065 0.013935044 -0.02703105 0.114711404
000030 b9 cd 33 3c 86 55 e8 bc dc 23 b1 3d fb 70 40 bc
       0.010974341 -0.028361093 0.08649418 -0.011745687
000040 a8 11 77 3d 0f 25 a6 bd 53 d9 86 3d 05 b4 b0 bd
       0.060319573 -0.08112537 0.0658442 -0.08628086
000050 5b 34 dd 3c c7 18 13 3d fd 6e f6 3d fc e2 8d 3c
       0.027002504 0.0359123 0.12032888 0.017320149
000060 9b 0f 3c 3d 54 41 74 3c 47 87 14 be 1a a9 0d 3c
       0.04591332 0.014908154 -0.14504729 0.008646274
000070 93 55 18 ba 09 4d c5 3d 7b f9 6b bd 80 7b 08 3d
       -0.00058110914 0.09633834 -0.05761097 0.033320904
000080 b6 f5 84 bd 13 0b 93 3d 5c 92 44 be 3c 9b 2c bd
       -0.06492178 0.071798466 -0.19196457 -0.04214023
000090 66 15 77 bc 8b 8e 8c bc a3 60 b4 bb 20 e0 d6 bd
       -0.015080785 -0.017157814 -0.005504684 -0.10491967
0000a0 66 fd a3 3c 40 d0 ae 3d 43 17 c3 3b 1b 64 cb 3a
       0.02001829 0.08535814 0.0059537007 0.0015517505
0000b0 02 9b fd bb 64 a1 7d 3d 34 3d ac 3d 9f ed dd 3d
       -0.0077394256 0.061921492 0.08410111 0.10836338
0000c0 39 72 28 3d 7a 6c 24 be 5e 41 df 3b a7 89 8e 3d
       0.041124556 -0.16057006 0.0068132123 0.06959849
0000d0 b7 54 07 3c aa 68 a6 3d 8f ba 19 bd e9 bd 3e 3d
       0.008259944 0.08125432 -0.03753143 0.04656783
0000e0 64 7f 50 b9 ad 3e 8f bd 38 18 e1 bd 0d b6 12 bd
       -0.00019883882 -0.06994376 -0.109909475 -0.03581815
0000f0 b0 62 7d 3d 79 77 42 bd 67 1f e4 bd 01 f2 42 bd
       0.061861694 -0.04747722 -0.11138802 -0.047594074
000100 02 e1 2d bd 91 e8 ba 3c 45 63 88 bc b7 fd 96 3d
       -0.042450912 0.022815974 -0.016648898 0.07372611
000110 39 ad 65 bd be 86 fc 3c e2 f9 f4 3c 43 9e d9 3c
       -0.0560734 0.030825969 0.02990431 0.026564723
000120 cc 68 6e 3d ee 28 17 be 58 80 66 bd fd 9e 3e bc
       0.05820541 -0.14761707 -0.056274742 -0.011634585
000130 fb 59 12 3c 4b 39 0a 3d c2 78 a5 b9 94 31 97 3d
       0.008932586 0.033746045 -0.00031561224 0.07382503
000140 85 69 4c 3d a0 57 48 bd ae c8 c5 bc 6e 3d 28 3b
       0.04990532 -0.04891169 -0.024143543 0.002567138
000150 a1 3f 95 bd 1d fd 5d 3c ce bd fe 3c 4b 48 b1 bd
       -0.07287527 0.013549116 0.031096365 -0.08656367
000160 c7 eb e8 3d a2 bd 20 3c ec 71 e5 3d a6 63 8a bd
       0.11373096 0.009810837 0.112033695 -0.06757288
000170 fd f8 ac 3d 38 57 24 3e 11 50 4f ba ce 38 d0 3d
       0.08445928 0.16048896 -0.0007908354 0.10167085
000180 4d 74 d2 bd e5 23 59 bc a2 b4 19 bd d3 7e 14 3d
       -0.10276089 -0.013253187 -0.03752578 0.03625376
000190 5c 1e 41 3b 97 6c 99 3c ee 17 26 3e 00 2b 3b bd
       0.0029467558 0.018728537 0.16220066 -0.045695305
0001a0 22 d2 1b 3c 55 99 ea 3d b4 86 91 bd da 60 0a be
       0.009510549 0.11455027 -0.07105771 -0.13513508
0001b0 28 bc dc bd e7 16 76 3c 2a 7a c5 3c d9 c0 19 3e
       -0.107780755 0.015020109 0.024106104 0.15014972
0001c0 e0 e2 3e bd 68 f1 b3 3d c8 c7 0c be 99 fa aa bd
       -0.046603084 0.08786279 -0.13748085 -0.08348579
0001d0 e2 1e dd 3c db 6d fe 3d bb c7 15 3d d9 88 7f bd
       0.026992265 0.12423297 0.03656743 -0.062386367
0001e0 b6 9e df bc 7d 6f ed 3c 43 fe e2 3d 84 10 68 bd
       -0.027297359 0.028983826 0.11083653 -0.056656376
0001f0 ac a9 1b bd 0a 44 e0 3d 27 ae 43 3d f9 a1 ea bc
       -0.03800361 0.109504774 0.047773506 -0.028641688
000200 b1 b6 1a 3d 9e 77 92 3c d9 c2 88 bd 82 74 4b 3d
       0.037771884 0.017879304 -0.06677789 0.049671657
000210 0b 66 96 bd 9b ad ca bd 77 53 b1 3d 32 c7 39 3d
       -0.07343682 -0.09896394 0.08658498 0.045355983
000220 2a 57 71 bd 74 b7 1b 3d ac 5e 11 3d eb 56 e0 3d
       -0.058921017 0.03801675 0.035490677 0.10954078
000230 73 81 0e bc 69 1a ea bb 2d 1a 21 3c a4 ad 19 bc
       -0.008697855 -0.0071442616 0.009832901 -0.009379778
000240 32 9e 43 3d f5 6d e6 3c 22 f0 83 3d c2 b6 8d 3c
       0.04775829 0.028128603 0.06442286 0.01729906
000250 b8 58 80 3d 2c 44 81 3d 30 b2 21 3d 18 7a 22 bc
       0.06266922 0.06311831 0.039476573 -0.009916805
000260 0f e7 bf 3d b6 f7 1d be 35 aa 5d bd cb f0 cc ba
       0.09370243 -0.15426525 -0.0541174 -0.0015635727
000270 ff 33 70 3d ab b4 1c 3d 50 31 c0 bd 4d 21 4f 3d
       0.058643337 0.038258236 -0.093844056 0.050568867
000280 39 e5 a3 bd 15 d7 fe ba 2c f9 c3 bd e9 dd 84 bc
       -0.08002705 -0.0019442762 -0.0956901 -0.016219096
000290 66 4d 75 3d c6 9f 0e 3d fc 4d 41 3d c0 88 69 bc
       0.059888266 0.03482034 0.047193512 -0.014253795
0002a0 e3 77 00 bd 38 20 9f 3c 1a 1a 50 bd c8 da ad bb
       -0.031364333 0.019424543 -0.050806142 -0.005305622
0002b0 ba d6 95 3d ba c6 0a 3c 1a 98 b1 3d 07 4a 76 3d
       0.073163465 0.008470232 0.08671589 0.06012919
0002c0 33 a2 d8 3d 50 74 20 be b7 70 e3 bd e2 d8 dc 3d
       0.10577812 -0.1566937 -0.11105483 0.107835546
0002d0 c1 4e a4 3d 2d fd da 3d 85 b6 04 be aa a6 33 bd
       0.080228336 0.10692821 -0.1296025 -0.043860115
0002e0 1e 7b cc 3c f3 e0 8b bd d8 67 fe 3c a3 ac df bd
       0.02496105 -0.06830015 0.031055376 -0.109216
0002f0 6d 0d 72 3d 7f 09 1d bd 24 d3 e4 bb a3 f5 9f bd
       0.059094835 -0.038339134 -0.0069831777 -0.07810523
000300 c0 28 8f 3b c8 88 c1 3c aa a5 f8 3c 8f 6c bd 3b
       0.0043688715 0.023624793 0.030352432 0.0057807635
000310 1b 20 90 bd 90 4d 7f 3a 80 e6 88 ba 04 b8 90 3d
       -0.07037374 0.0009739036 -0.0010444671 0.07066348
000320 42 10 44 bd b4 60 f9 3b 39 f6 12 bd 0f 3d af bd
       -0.047867067 0.007610405 -0.035879347 -0.08556568
000330 2d 09 24 3d a1 ae 75 3b 5c c3 21 3d 0a c0 18 bd
       0.040047813 0.003748812 0.03949295 -0.037292518
000340 63 f0 48 3d 5a ec 22 bd 04 01 d0 bc c5 c4 94 bd
       0.049057376 -0.039776184 -0.02539111 -0.07264093
000350 aa e0 0a 3c d1 c1 87 bd 14 18 8b 3d 84 d4 90 bc
       0.008476416 -0.066287644 0.06791702 -0.01767946
000360 6f 9e 2f 3d 10 1b aa bd 38 f3 4d bd b6 75 e5 3c
       0.042875703 -0.08305943 -0.05028078 0.02801023
000370 9d b2 4f bd 95 45 26 3d 66 9e 39 3c 0b 8a e0 3d
       -0.05070745 0.040593702 0.011329269 0.109638296
000380 4e 2a 32 bd d6 55 8f bc d7 3b 06 ba e7 9a 9c 3d
       -0.043497376 -0.017496984 -0.0005120611 0.07646733
000390 04 1b ba 3d 3c 94 e7 bd 44 8d 51 3d 42 ea 0e 3d
       0.09087184 -0.1130757 0.051160112 0.034891374
0003a0 b5 96 bb 3d 6a cd 1d bd 70 05 75 bd 34 8a 02 bd
       0.091596045 -0.038525976 -0.05981964 -0.031870082
0003b0 bc 55 58 bc 11 d5 6f 3b 7f a6 40 bd 3e d1 fc bc
       -0.013204034 0.0036595503 -0.047033783 -0.030861493
0003c0 2b bb da bb 9b de 10 bd 67 1a 25 bd b5 5b 88 bc
       -0.006675144 -0.035368543 -0.040308382 -0.016645292
0003d0 83 d1 bb 3d 4f 55 e8 bc 23 eb 2e 3d 43 23 69 bd
       0.091708206 -0.02836099 0.042704713 -0.056918394
0003e0 93 c6 13 bd c7 cb aa bd 53 2c ac 3c bb fc 8a 3c
       -0.036078047 -0.08339649 0.02101723 0.016966214
0003f0 b5 d0 24 3d d4 b1 bd 3d 56 e5 87 bc 0a bd 45 bc
       0.0402381 0.09262434 -0.016588848 -0.012068996

linear3.bias f4 [64]
000000 88 40 0f 3e 9a e5 2b 3d 19 bf c5 bd e5 a2 91 3c
       0.1398946 0.041967012 -0.096555896 0.01777787
000010 96 62 3f bc da 7d 3f 3d e3 45 43 bd 42 3a e1 3c
       -0.01168122 0.04675088 -0.04767407 0.0274936
000020 da 85 13 3e fc 0f ba 3d 0b 8e 29 3e f8 57 f2 bb
       0.14406529 0.0908508 0.16558091 -0.0073957406
000030 62 60 61 bb 7b fb 53 bd 21 e5 1e 3e d1 f8 a4 3d
       -0.0034389724 -0.051753502 0.15517093 0.080552705
000040 dc bf 1f bd 80 02 af bd ce d8 20 3e 8c 64 d4 bb
       -0.03900133 -0.08545399 0.15707704 -0.0064817127
000050 5a 02 07 3e cd bf 1b 3c 69 66 a0 bd 90 05 80 bd
       0.13184491 0.009506178 -0.07832033 -0.06251061
000060 76 85 ca bd 80 2f 1e 3e a8 d4 ca 3b fe 7a fc 3c
       -0.09888737 0.15447807 0.0061899014 0.030820366
000070 f3 c0 97 bd 56 84 b3 3d d4 cc c1 3d e5 96 96 3c
       -0.07409849 0.087654755 0.09462896 0.018382499
000080 29 f2 b3 bd 66 d1 4d 3d 0d 10 a3 bd 7c 83 ee 3d
       -0.08786423 0.050248526 -0.07962046 0.116461724
000090 bd 6e 64 3d 8b 08 f4 bd 2f 2b 0e 3e c5 38 e2 bc
       0.05576967 -0.11915692 0.1388366 -0.02761496
0000a0 49 f9 e8 3d dd ed 67 bd 05 a5 0e 3d 63 04 34 3d
       0.11375672 -0.05662333 0.034825344 0.043949496
0000b0 c1 ac d2 bc e5 70 f2 bc f2 aa c4 bd 31 d3 19 bd
       -0.025717141 -0.029594848 -0.09602918 -0.037554923
0000c0 6a d1 bc bc 0c 1f da 3d 97 5a 87 3d 23 b7 cc bd
       -0.023049075 0.10650453 0.066090755 -0.09995868
0000d0 f4 75 59 3d 04 53 28 3e 8d 56 df bd f9 f9 ff 3d
       0.053091004 0.16437918 -0.1090518 0.124988504
0000e0 ba 19 bb 3c 86 41 d1 bc d6 42 9d 3c 1a 8f 1a 3c
       0.022839416 -0.02554394 0.019196909 0.009433532
0000f0 8f 6e 55 3c 5b c3 8e 3d a6 f7 29 3d f2 5c e7 3b
       0.0130268475 0.06970855 0.04149594 0.0070606405

output.weight f4 [1, 64]
000000 63 dd 00 3e ee 04 31 3e ce 9c e0 bd 2d bb 9d bd
       0.12584452 0.17287037 -0.10967408 -0.077017166
000010 b4 18 1b be 29 ff 24 3e 87 54 f4 bd 9c 80 8e 3d
       -0.15146142 0.16112961 -0.11930185 0.06958124
000020 32 24 a8 3d d0 94 8a 3d 30 4f 25 3e a0 23 91 bd
       0.08210029 0.06766665 0.16143489 -0.07086873
000030 ff cb 84 bd 14 da 7b bd 43 ac 2c 3e f2 56 8c 3d
       -0.06484222 -0.061487272 0.16862588 0.06852521
000040 a0 75 af bd 85 93 3e be be fc 27 3e 69 5a a5 bd
       -0.08567357 -0.18610962 0.16405007 -0.08073885
000050 bd 65 34 3e 58 0e 0f 3e 6d 3e f5 bd 1e cf 3d be
       0.17616935 0.13970315 -0.119747974 -0.1853604
000060 3f c7 65 bd 00 fb 20 3e 97 71 46 3e 0f 3e 14 be
       -0.05609822 0.15720749 0.19379269 -0.14476798
000070 bb 16 ef bd 9a df 27 3e bd da 8f 3d 2b ce 4c 3e
       -0.11674257 0.16393891 0.07024143 0.20000522
000080 7a e1 9d bd a4 c0 dd bd fd f3 09 be 0c e9 28 3d
       -0.07709022 -0.10827759 -0.1347198 0.041237876
000090 b4 88 90 3d 3a 6c 25 be 74 b2 1b 3e 31 c2 34 be
       0.07057324 -0.16154566 0.15204793 -0.17652203
0000a0 dd 2e 1e 3e 1a 86 12 be 85 71 d0 3d 6f b1 19 3e
       0.15447564 -0.14308968 0.10177902 0.15009092
0000b0 3f e0 1a be d4 76 2d be 7d 72 f1 bd a3 7f f1 bd
       -0.15124606 -0.1693986 -0.11789415 -0.11791923
0000c0 3f 74 13 be ae de 01 3e 77 65 8e 3d 5a 91 1f be
       -0.14399813 0.12682602 0.06952947 -0.15582791
0000d0 c7 c5 ce bd 5d 7c eb 3d 20 8b 04 bd 24 0e 0e 3e
       -0.10096317 0.1149833 -0.032359242 0.13872582
0000e0 7d 99 08 be 53 13 f0 bd 11 7d 4a 3e 19 b1 45 3e
       -0.13339801 -0.11722436 0.19774272 0.19305839
0000f0 f0 fe 1d be 1e 41 da 3d 4d b1 84 3d 12 9b 9c bd
       -0.15429282 0.10656951 0.0647913 -0.07646765

linear1.weight f4 [128, 34]
000000 83 60 14 be 02 2f 47 bd 44 8f 11 be cb e7 08 be
       -0.14489941 -0.048628815 -0.14214808 -0.13369672
000010 9e c3 24 be 34 c3 a0 bd 06 c2 db bd 8f 6d 0f be
       -0.16090247 -0.07849732 -0.107303664 -0.14006637
000020 99 c5 3a 3d e2 75 5e be 54 3b 84 bd 11 11 07 be
       0.0455986 -0.21724656 -0.064566284 -0.13190104
000030 ed 63 49 be cb 35 0c 3d 18 9a f9 3c a1 1b 47 3d
       -0.19667025 0.03423099 0.030468985 0.048610333
000040 84 d5 d1 bd 48 b7 0f bd e4 6b c9 bc 63 1b 12 be
       -0.10245803 -0.0350869 -0.02458758 -0.1426826
000050 a4 f9 c6 bd b6 c2 bd 3d 37 dc 25 3e 03 f2 31 3e
       -0.09715584 0.09265654 0.16197287 0.17377476
000060 cf b6 eb bd 33 94 07 3d 6e 33 ee bd 7e 49 28 bd
       -0.11509477 0.03310032 -0.11630903 -0.041085713
000070 45 93 20 3e 4c 7d ce 3c 3e d8 34 bd 39 3f 9a 3c
       0.15681179 0.02520623 -0.044151537 0.018828975
000080 15 da e1 bd ff 90 02 3e d5 1d 70 3d 1b 6a 22 be
       -0.11027924 0.12750624 0.0586222 -0.15860789
000090 76 6d 4e 3d 1d 78 30 be fb b3 d2 3d d9 08 82 3d
       0.05039736 -0.1723332 0.10288235 0.06349344
0000a0 00 77 84 bd f9 91 77 bd 30 ca 36 be e8 6b 10 3d
       -0.0646801 -0.060441945 -0.17850566 0.035259157
0000b0 91 04 d7 3b 6c 59 09 3c a7 29 12 be 1c 59 98 bd
       0.0065618237 0.008383136 -0.14273702 -0.07438871
0000c0 8f c9 34 be 23 c0 77 bd 80 2f 51 3d fe 00 d8 bd
       -0.17655014 -0.06048597 0.05107069 -0.10547064
0000d0 ee 2f 1c 3e 90 79 88 3d ad 27 8e bd 5c 9c ef 3d
       0.15252659 0.06663811 -0.06941161 0.11699745
0000e0 1f c3 ef 3d 0f be 94 3d 7a 0f 1b bd 40 f9 10 3e
       0.11707138 0.07262813 -0.037856556 0.14157581
0000f0 cf 58 8e 3d 57 25 b6 bd a3 2f 7a be 48 7a ca 3d
       0.06950533 -0.08893841 -0.24432234 0.098866045
000100 dc 84 45 bd 89 d6 02 be 77 99 2f be 2e c3 f7 3d
       -0.048222408 -0.12777151 -0.17148386 0.120977744
000110 a9 51 de 3d 61 6f 00 3e ae b8 b9 bd 9e e9 6c 3e
       0.10855419 0.12542488 -0.09068428 0.23135993
000120 8c 3a 0d 3e e8 51 1d 3e 73 12 cb 3d df 4f b0 bd
       0.13791865 0.15363276 0.09915628 -0.08608984
000130 a0 e5 0e be b0 21 15 be 58 21 24 be d6 61 73 bc
       -0.13954782 -0.14563632 -0.16028345 -0.014854869
000140 65 ab f5 bc f0 c2 3a 3e fa 12 d6 bc 81 81 5d 3b
       -0.029988954 0.18238425 -0.026132096 0.0033799114
000150 27 75 ab 3d 27 2b d9 bd 9e b7 a2 bd 01 f0 83 3e
       0.083719544 -0.10603934 -0.079451784 0.25769046
000160 37 b7 e3 bc d5 08 11 3e 59 4b 03 3e 40 2a e8 bd
       -0.027797325 0.14163525 0.12821712 -0.113361835
000170 4c 36 84 bb b2 2a ad 3d d7 20 1e bd 05 e6 e8 bc
       -0.004034793 0.08455409 -0.038605537 -0.028429994
000180 8f 4b a8 be 6d fa d8 bd a3 5a a5 bd 55 70 c3 3c
       -0.32870147 -0.1059464 -0.08073928 0.023857275
000190 59 40 13 3e c5 50 a1 3c 07 77 1b be 7f 0d 18 be
       0.14380015 0.019691834 -0.15182124 -0.14848898
0001a0 c5 31 1d be 71 f8 94 bd 31 1d ee 3d ec 18 f7 bd
       -0.15351017 -0.07273949 0.116266616 -0.120653
0001b0 38 0a 58 3d 8a 96 ca bb 40 24 d0 bd 44 0e a6 3d
       0.05274412 -0.0061824964 -0.10163164 0.0810819
0001c0 98 50 5f 3d cd 98 8a bd b5 ce 32 bd 2f 42 bc 3d
       0.05452022 -0.06767426 -0.043654162 0.09192311
0001d0 81 95 b4 3d 44 c3 15 bc 71 7a 34 bd 8c 84 0d 3e
       0.08817578 -0.009140793 -0.04406208 0.13820094
0001e0 1c 75 26 be e6 91 e6 bd 85 76 28 3d f1 c5 1e be
       -0.16255611 -0.11258297 0.041128654 -0.15505196
0001f0 a1 21 95 bd 85 69 29 be c1 c8 22 3e 6a 5f a3 3d
       -0.07281805 -0.16544159 0.15896894 0.07977183
000200 60 1b 4f be 41 07 20 3d c3 0c f2 3d 94 27 06 be
       -0.20225286 0.039069418 0.1181884 -0.13101035
000210 11 61 5f be 67 a2 28 be 95 76 31 3d 0d 7a ad bd
       -0.21814372 -0.16468202 0.04332598 -0.08470545
000220 f4 5a 11 be cd a8 f4 bd 9b e7 28 be fe 1d 76 bc
       -0.14194852 -0.11946259 -0.164946 -0.015021799
000230 35 4b 2d be e0 bb 4f 3e 9e cc 14 be 34 a8 61 3e
       -0.1692322 0.20286512 -0.1453118 0.2203682
000240 c8 eb 31 3e 6d 61 8e 3d d5 79 12 3e a3 87 0f be
       0.173751 0.06952176 0.14304288 -0.14016585
000250 78 4a 0f be 59 14 b8 bd 9c 6b a9 3c cc 55 06 bd
       -0.13993251 -0.08988256 0.020681195 -0.032796666
000260 8e c3 03 3d be e9 49 bd b0 a3 1d be a3 85 84 bd
       0.032168917 -0.04929518 -0.15394473 -0.06470802
000270 4f bb 5c 3e e4 f3 00 be 21 8e b3 3d 7f 02 40 3e
       0.21555828 -0.12593037 0.08767343 0.18750952
000280 93 da 35 3e 15 34 0d be b7 05 08 be 7e 3b a4 bd
       0.1775916 -0.13789399 -0.1328343 -0.0801916
000290 c9 bc 59 be 88 26 ae bd af 6b 84 bd c0 73 03 3e
       -0.21263422 -0.08503443 -0.064658515 0.12837124
0002a0 f6 73 c7 bb d1 25 92 bd f0 6f 75 bd d5 f1 87 3d
       -0.0060868217 -0.07136119 -0.059921205 0.06637923
0002b0 8a db 33 3e 85 00 fd 3d c3 95 26 3e 56 32 cd 3d
       0.17564216 0.12353615 0.16268067 0.100193664
0002c0 7f c3 de 3d a1 21 62 bd 80 d6 42 bd 87 6c 33 3e
       0.10877132 -0.055207852 -0.047567844 0.17521869
0002d0 c2 e0 44 3e 5d 8a 8d 3d ab 8e 56 bc e3 d8 1b bd
       0.19226363 0.06911156 -0.013095538 -0.038048636
0002e0 ce d7 fe 3d 8e 9d f9 bd ab ac 1a be 97 28 1a bd
       0.12443505 -0.12188254 -0.1510493 -0.037636366
0002f0 ed 5b ad bd a0 d9 72 3c 2f 68 45 3e 00 f7 92 bd
       -0.08464799 0.014822394 0.19278024 -0.07176018
000300 31 b8 ab bd 94 04 fc bc bf 5a 86 3c 5f 67 1a 3e
       -0.08384741 -0.030763902 0.016400693 0.15078495
000310 29 e8 13 be 18 39 ef 3c 27 74 7b be b0 28 8c bd
       -0.14444031 0.02920203 -0.24556027 -0.06843698
000320 5f fc e8 3d da 50 31 3e 4a 58 e2 bd fb 5a 0c be
       0.11376261 0.17315999 -0.11051996 -0.13706581
000330 9f 7a 5f 3c f9 f7 d3 3d cc a4 71 bd 6f f1 cc bc
       0.013640075 0.103500314 -0.058995053 -0.025017468
000340 9a dd 46 3d ef 08 27 be 94 69 2a be b4 fe 44 be
       0.04855118 -0.16312002 -0.16641837 -0.19237787
000350 47 3b 20 be eb 74 75 3d 7b d7 c2 bd 56 ef c1 bc
       -0.15647613 0.059925955 -0.09513756 -0.023673695
000360 8d a2 3c 3d 6c 4c af 3d dc 2a 14 3c 31 d3 7e 3d
       0.046053458 0.08559498 0.009043422 0.062213127
000370 02 4d 07 be d6 9d 14 be 59 fa 04 3d 39 60 95 3d
       -0.1321297 -0.14513335 0.032465313 0.07293744
000380 c0 cb 01 3e 22 5c 6b 3d 40 1c f3 3c bd 47 46 3e
       0.1267538 0.05746091 0.029676557 0.19363303
000390 c1 a1 11 3e 48 f5 4e 3d 00 0a 3b 3d 98 20 81 bd
       0.1422186 0.050526887 0.045663834 -0.06305045
0003a0 d2 a4 1c 3d 53 9f e1 bd 48 74 0b 3e db 7c 78 3c
       0.038243122 -0.11016717 0.13618577 0.015166487
0003b0 d7 16 1f 3e 3f d9 2c 3e 57 7a af bb c9 57 1d 3d
       0.15536056 0.16879748 -0.00535516 0.038413797
0003c0 66 ee cd 3c 5b 62 b3 bd c8 af 5e be 04 61 6e bc
       0.025138091 -0.08758994 -0.21746743 -0.0145494975
0003d0 4b 21 08 be 54 86 54 be 3a 09 cb 3d 7e f8 ad bd
       -0.1329395 -0.20754367 0.09913869 -0.08494662
0003e0 c9 29 03 3c d8 38 3f 3b 85 17 e1 3c 17 6d 68 bd
       0.008005568 0.0029178169 0.027477035 -0.05674466
0003f0 49 e0 f3 3c ee d9 d1 3d 72 26 d7 bd 3d bd e4 bd
       0.029770033 0.10246645 -0.1050538 -0.11168907

linear1.bias f4 [128]
000000 2a 19 19 be 19 95 b0 bc a8 6b ff 3c 65 dd 8b bd
       -0.14951006 -0.02155547 0.031179264 -0.06829337
000010 97 1e 59 3e 5f d9 81 bd b1 e2 ff bd ca 59 ce bd
       0.21203075 -0.06340288 -0.1249441 -0.1007572
000020 89 95 54 3e e8 7b d5 3d 15 8f 40 3e f7 22 bc 3d
       0.20760168 0.10424024 0.18804581 0.091863565
000030 5d 05 6b 3d a8 e3 2d 3e a1 58 21 bd 40 d1 fb 3d
       0.05737816 0.16981375 -0.039391164 0.12295771
000040 80 9a eb bd ce 03 b6 3d 03 38 cb 3d 48 a4 13 3e
       -0.11504078 0.088874444 0.09922793 0.14418137
000050 27 98 1c be 4a 8a 77 3d ed 1e a4 bd b0 26 8c bd
       -0.15292417 0.060434617 -0.08013711 -0.068433166
000060 42 d1 aa 3d 6c 95 90 3d fa 46 a0 3d 2a 92 81 bd
       0.08340694 0.0705975 0.07826038 -0.06326707
000070 6d 5b 24 3d 2b 49 78 3e 85 c1 62 3d a4 e9 fb 3d
       0.040126253 0.24246661 0.055360336 0.12300423
000080 5d 56 7e 3d 30 65 a9 bd 85 e3 f5 3c 4b ab 23 3e
       0.06209408 -0.08271253 0.030015716 0.15983312
000090 c4 b7 c8 bd e3 6f 29 be cd bd 86 3e 38 5a 99 bd
       -0.098006755 -0.16546588 0.26316682 -0.07487911
0000a0 0c f7 a3 3d b0 f7 92 3d 0c af da 3c 12 dd 81 bc
       0.08006105 0.07176149 0.026694797 -0.015852485
0000b0 aa 1c 92 3b 6c 5f 16 bd 7e 3e 60 3d 87 43 89 3d
       0.0044589834 -0.036712095 0.054747097 0.06702333
0000c0 d9 a6 e9 3d e2 ae b9 bd 2e 6f 09 3e 76 a6 08 3e
       0.11408777 -0.090665594 0.13421318 0.1334475
0000d0 f9 74 ad 3d 36 bd 08 3e 55 7a 15 bd 40 34 71 bd
       0.084695764 0.13353428 -0.036493618 -0.05888772
0000e0 c5 d6 79 3e 3e 53 5a bc a2 dc 40 3e 5b 73 a6 bd
       0.24398334 -0.013325511 0.18834165 -0.08127471
0000f0 46 d9 b6 3d 98 8b 1f 3e a9 3d cc 3d 46 2b 10 3e
       0.0892816 0.15580595 0.09972698 0.14079008
000100 e7 70 bf bc d0 c0 54 3c 7a a6 21 3d 5d 3f 67 bd
       -0.023369266 0.012985423 0.039465405 -0.056456912
000110 71 46 96 3d f5 4a 09 be 09 a8 c7 3d c1 0d 32 3e
       0.073376544 -0.134075 0.09748847 0.17388059
000120 e0 57 95 bd d8 01 47 3d ae 42 16 be 48 79 46 3e
       -0.072921515 0.048585743 -0.14673874 0.19382203
000130 01 58 fb bd d1 c3 14 bd d0 c8 76 3e 66 0c c2 3d
       -0.12272645 -0.036319558 0.24100041 0.09475021
000140 92 7b 19 bd 5f 00 08 3e 02 16 9f 3c 11 07 11 3e
       -0.03747136 0.13281392 0.019419674 0.14162852
000150 cb da 07 3e 00 92 86 3d 81 23 0f 3d 04 0f 04 3e
       0.13267057 0.06570816 0.03494597 0.12896353
000160 05 c5 2f be 13 c7 82 3e 60 ec cf 3d 18 63 83 3d
       -0.17165 0.25542507 0.10152507 0.06415385
000170 a4 94 09 3e fa 1d 13 be 8b f2 2b be 04 4f 07 3e
       0.13435608 -0.14366904 -0.16791742 0.13213736
000180 70 de 36 ba d7 dc 95 3d 29 03 07 be a8 de 15 bd
       -0.0006975895 0.073175125 -0.13184799 -0.036589295
000190 3a fc 61 bc 7d 22 fe 3d 4d 98 a5 bd 3d 0a ad 3d
       -0.013793046 0.12408922 -0.0808569 0.084492184
0001a0 e9 73 31 be 9e 39 d3 bc dc fe 89 bd ff 8c 14 be
       -0.17329372 -0.02578431 -0.06738064 -0.1450691
0001b0 3e a2 23 be 7a ec f7 3d 51 4d 87 3d 82 f0 2d be
       -0.15979859 0.12105651 0.06606544 -0.16986278
0001c0 b0 cd 3b bd 46 bf 59 bd 6a bf 50 be d6 b6 be bd
       -0.045850456 -0.05316093 -0.20385519 -0.09312217
0001d0 c6 f2 b9 bc 59 6d 3c be 7c fd 02 3e d1 6a 06 be
       -0.022698771 -0.18401088 0.12792009 -0.13126685
0001e0 cc d9 be bd 7d fd 9f 3d 96 2c e6 3d ff fe 9d 3c
       -0.09318885 0.07812021 0.11238973 0.01928663
0001f0 d9 dd cc 3d 41 51 01 bd 46 7d 13 3e 15 57 be 3d
       0.100032516 -0.03157163 0.14403257 0.09293953

linear2.weight f4 [128, 128]
000000 68 bb 91 bd be bd a3 3d c0 0e 4b bd f7 87 1c 3d
       -0.07115823 0.07995175 -0.049574614 0.038215604
000010 8e fe 95 3d 2b db 20 bd 08 cf 45 bd 8e 46 00 bd
       0.07323943 -0.039271515 -0.048293144 -0.031317286
000020 5c 96 a0 bc 65 fe 57 bd a6 21 b4 3d 2c a5 b7 3c
       -0.019602947 -0.052732844 0.087954804 0.022417627
000030 ae 3a 12 3e 5a 20 96 bd 7d c1 c9 3c e1 2c 42 3d
       0.14280197 -0.07330389 0.024628395 0.04740608
000040 ae c3 9e 3d ff 81 88 bd a3 b6 43 3d c5 7c 98 bc
       0.07752167 -0.0666542 0.047781598 -0.018614182
000050 a9 7e 21 3d c6 c6 89 bd 50 1c 7e bc e9 08 cf 3d
       0.039427433 -0.06727366 -0.01550968 0.10109121
000060 b7 89 be 3c fe 99 e3 bc b9 cd 90 bd d7 21 a9 3c
       0.023259027 -0.02778339 -0.070704885 0.020646019
000070 55 dd 7d bd 11 1a 6f 3c 65 1f 8d 3a 9a 24 6b 3d
       -0.061978657 0.014593617 0.0010766803 0.057407953
000080 e3 aa bb 3d 7b 31 91 bd 4c a4 db 3d 9a b4 ee 3d
       0.091634534 -0.07089516 0.107246965 0.11655541
000090 ee a5 38 3d a8 61 3f 3d f1 46 e5 3d 4f cd 90 3c
       0.045080118 0.04672399 0.111951716 0.017676024
0000a0 25 30 29 bd 10 20 29 3c 44 19 d6 3d 0f 45 02 bd
       -0.04130568 0.010322586 0.10454038 -0.03180414
0000b0 28 33 b6 bc 04 82 82 bd f0 b1 9e 3d 79 64 8b bd
       -0.02224119 -0.06372455 0.07748783 -0.06806273
0000c0 75 82 7d 3b 07 f4 f4 bd 48 45 84 3c 5c 15 06 bd
       0.0038682495 -0.11960607 0.016146317 -0.032735214
0000d0 ff 27 ba 3c 25 99 e2 3d 5d 9f 63 bd d0 d3 c3 3a
       0.02272415 0.11064366 -0.055571903 0.0014940444
0000e0 d0 e1 76 bc 9a dc c8 3d d2 38 73 bb 25 c8 ec 3c
       -0.015068486 0.098077014 -0.0037112725 0.02890403
0000f0 5b 73 db 3c 04 6d bf 3d d1 7e d3 bc d4 8e bf bc
       0.026788404 0.09346965 -0.025817307 -0.023383535
000100 6b 08 f3 bc da df b9 bc 3d 09 1a 3e c4 44 18 3d
       -0.0296671 -0.022689749 0.15042587 0.037174955
000110 37 93 32 3d 6a 5a 81 3d 6c bf 6d bd 96 29 52 bd
       0.043597426 0.06316073 -0.058043882 -0.05130919
000120 90 39 46 bd 53 52 72 bd 9d 02 96 3d 61 79 42 3d
       -0.04839474 -0.05916054 0.07324717 0.047479037
000130 ce 13 aa bd 3c 75 ee bc 92 89 92 bc d2 70 ca 3d
       -0.08304559 -0.029108636 -0.017887864 0.098848
000140 50 ed ed b9 17 3c e0 3d e4 96 49 3c fb c9 19 bd
       -0.00045380974 0.10948961 0.012304042 -0.03754614
000150 ff 1d 4b bd 6a 69 a6 3d 34 a7 74 3c b3 1a 34 3d
       -0.049589153 0.08125575 0.014932442 0.043970775
000160 42 87 bc 3d a9 85 cb 3d f8 3a b4 bd 5e 8d 98 3c
       0.09205486 0.09937603 -0.0880031 0.018622097
000170 8e b5 cc 3d ce a4 8c 3d a7 93 80 3d a7 df de 3b
       0.09995566 0.068673715 0.062781624 0.006801564
000180 ef df b7 bb fe 2d 13 3d f6 98 78 3d 6e 41 47 bd
       -0.0056114118 0.035932533 0.06069275 -0.048646383
000190 33 1c 7e 3d b2 36 9d bd 39 7b 05 3d 7a f2 5c 3c
       0.06203861 -0.07676448 0.032588217 0.013485545
0001a0 89 2f 14 bd 68 ca 80 3b 1e 92 20 bc 5c 4b 9b 3b
       -0.036178146 0.0039303787 -0.009800462 0.004739208
0001b0 00 5f 54 3d 0a 38 7e 3d 2a 38 a5 3d c5 66 8e bc
       0.05184841 0.06206516 0.08067353 -0.017382989
0001c0 be cf 8c 3d af ba b1 3d 31 96 fb 3c 10 6f b5 b9
       0.06875561 0.08678185 0.030711265 -0.00034605758
0001d0 bf 40 b6 bb 02 4c 6d 3c b2 a8 31 39 e2 4b 54 3c
       -0.0055619176 0.014483454 0.0001694288 0.012957545
0001e0 34 23 34 bd 26 41 81 bd 51 3c 72 bc e1 cd 76 3d
       -0.043978885 -0.06311254 -0.014784888 0.060254935
0001f0 01 a3 17 bd 97 30 7b 3c b7 88 c9 3b 60 5a a9 3d
       -0.037020687 0.015331409 0.006150331 0.08269191
000200 07 e3 95 bd 2e bc 10 3e 14 f8 b4 3d 74 45 64 bd
       -0.07318693 0.14134285 0.0883638 -0.0557303
000210 f1 52 93 3d 2d ce aa 3d bd d4 02 3d 8f 52 35 bd
       0.07193554 0.08340106 0.031941164 -0.044268187
000220 e9 5c 97 39 98 26 8a bd 7f 92 f1 3d c7 df 9e 3d
       0.00028870188 -0.067456424 0.1179552 0.07757526
000230 a9 ae aa 3b 26 a7 7f bd e3 25 e7 bd 42 49 bd 3d
       0.0052088094 -0.062415265 -0.11286523 0.092424884
000240 3d 42 2a 3d 30 a3 01 3e 27 28 3d 3d d7 c6 98 3d
       0.041567076 0.12659907 0.04618087 0.07459801
000250 86 38 34 3d 45 41 42 bd 3c 22 97 3d 1b c5 c0 3d
       0.043999217 -0.047425527 0.073795766 0.09412595
000260 9b a3 43 bd a1 78 5c 3d ca f9 96 bc d2 51 23 bd
       -0.04776345 0.05382598 -0.018429656 -0.03987295
000270 e1 c6 e2 bb a7 77 ad 3c 2e 8a 38 bd 7d 46 26 bc
       -0.006920681 0.021175219 -0.045053653 -0.010148642
000280 7c 3d e6 39 cc a7 fe bc a9 3a 9f 3d cd c7 0d 3d
       0.00043914828 -0.031085871 0.077748604 0.034614373
000290 f3 81 bb 3d 90 2f 9a bd 7d 61 92 3c 8c 6d be bd
       0.09155645 -0.07528603 0.017868752 -0.09298238
0002a0 6b 69 96 3d 90 3e 09 3c 45 52 2b 3d a7 a5 0e 3d
       0.07344326 0.0083767325 0.041826505 0.034825947
0002b0 72 9d 4e 3c 83 0a 39 bd a9 b9 03 bd d9 07 56 bd
       0.01261078 -0.04517604 -0.03215948 -0.052253578
0002c0 b7 76 8e 3c 0b b9 98 bc 13 28 93 3c cc a0 93 bc
       0.017390592 -0.018642923 0.017963445 -0.01802101
0002d0 de 9e a5 3d f7 4a d8 3d 16 21 7d 3d a8 cc 80 bd
       0.08086942 0.105611734 0.06179913 -0.06289035
0002e0 22 08 9f 3d e4 fd 6c bd fb b5 99 3c 6d 3f 25 bd
       0.07765223 -0.057859316 0.018763533 -0.04034369
0002f0 cf c7 eb bc 28 47 96 bb b3 77 63 bd ac 35 cc bd
       -0.0287818 -0.004586119 -0.055534076 -0.099711746
000300 69 4b f8 3c aa c7 92 bd b7 4c 2a 3e 10 41 8b 3c
       0.030309396 -0.07166989 0.16630827 0.016998798
000310 8c 6a a8 3c 37 4b 70 bd 7b c1 6b bc 9a d9 8a bd
       0.020558618 -0.05866548 -0.014389391 -0.067797855
000320 51 19 96 3d ca 8b fd 3c a2 e7 91 3c 72 56 30 3d
       0.073290475 0.030950446 0.017810646 0.04305119
000330 f1 08 43 bd e3 eb 14 bc 4a 3b 80 bc 10 9e 6a 3c
       -0.04761595 -0.009089443 -0.015653271 0.014319912
000340 38 0b 66 bc e6 ea 99 3d c3 95 a2 bd 3c 0c c3 3d
       -0.014040761 0.075155064 -0.07938721 0.09523818
000350 83 47 fd 3c 43 1f 89 3d 93 a4 96 bd 41 34 d5 3d
       0.030917889 0.06695416 -0.07355609 0.10410357
000360 14 31 19 3c 32 c3 89 3d 75 b0 b3 bd da 41 e8 3c
       0.00935008 0.06726684 -0.08773891 0.028351713
000370 61 cd 9e 3d cb 18 bb 3d d6 2b f3 bc ea 50 3b 3d
       0.07754017 0.09135588 -0.029683989 0.045731463
000380 93 1e bd bc d0 a4 a8 3d 11 86 b7 3c 9a 89 b0 3c
       -0.023085868 0.082345605 0.022402795 0.021549989
000390 70 2f b3 3d df ec f5 3c 5a d3 9f bd c1 13 96 3d
       0.08749282 0.030020176 -0.07803984 0.073279865
0003a0 0c 5b 0a 3d 6d b7 a6 3d 87 e4 3d 3b a8 d1 78 bd
       0.033778235 0.081404544 0.0028975324 -0.06074682
0003b0 7b 3f 05 bd f3 8b 58 3d 70 96 e4 3b 9e 52 1a bd
       -0.032531243 0.05286784 0.0069759414 -0.037676446
0003c0 96 02 97 bc 19 b3 18 bd 7b 76 77 bd 5e 29 8a 3d
       -0.01843385 -0.037280176 -0.060415726 0.067461714
0003d0 30 e6 eb bb 4a a7 06 bd 7a 29 22 bd 12 cd 8e bd
       -0.0071990713 -0.032874383 -0.039590336 -0.06972708
0003e0 38 cd fa bc c4 15 99 bd a8 91 13 3d 28 8e e2 3d
       -0.030615434 -0.074748546 0.03602758 0.110622704
0003f0 20 38 a3 3d cd 80 66 3d c9 e2 99 bd 0b e3 57 bd
       0.07969689 0.056275178 -0.07513959 -0.05270676
