Data/Player1/checkpoint-test10.pth (torch, 237197 bytes, 20 tensors)

linear1.weight f4 [128, 34]
000000 02 ec 6e be c7 c4 13 bf 66 49 c8 be 3e a1 a7 be
       -0.23332217 -0.57722133 -0.391185 -0.32740206
000010 ec 2d c5 be 05 20 01 bf 0d b5 3d bf a2 c7 1a 3d
       -0.38511598 -0.5043948 -0.74104387 0.03778804
000020 0c 9c 2f bf 81 e2 74 bf de 31 a6 3e 3a 37 68 3e
       -0.68597484 -0.9565812 0.3245992 0.22677317
000030 6b b9 96 3c 1a a8 8f 3e ef 1b 9e 3e f0 57 85 3c
       0.018398961 0.2805794 0.30880687 0.016277283
000040 87 c1 ed be 6f 8e 74 bb 66 91 2c be bb 47 44 3e
       -0.46436712 -0.0037316342 -0.1685234 0.19167988
000050 ad 57 d4 be 43 91 dc bf 21 fb 20 bf d3 92 6c be
       -0.4147314 -1.723183 -0.6288319 -0.23102884
000060 de 98 0b 3e dd ff 65 3e 2f 33 c2 be 6c 5d 36 3f
       0.13632533 0.22460885 -0.37929675 0.712363
000070 85 58 0e 3f 16 2d 08 bf 6a b9 e3 3d 9c 04 f1 3b
       0.5560382 -0.53193796 0.11119349 0.007355286
000080 58 8a d8 3d 48 8a 26 3e 87 4f cc 3d 8f 9b 37 3e
       0.10573262 0.16263688 0.09976106 0.17930435
000090 4e 16 e9 3e 97 fe 50 bd e4 f0 d8 3e 94 67 2b 3c
       0.4552483 -0.051024046 0.42371285 0.010461707
0000a0 d3 0d e4 3e 4b ad e3 bd 6e 48 24 bd e5 be 7d be
       0.44541797 -0.111170374 -0.040108137 -0.24779852
0000b0 bd dd 7d be 9a 69 93 3d 75 d8 81 be f5 ca 8d be
       -0.24791618 0.07197876 -0.25360456 -0.27693906
0000c0 94 f8 a7 3e df 0f 49 3e 5f c4 a2 bd 76 ab 09 be
       0.32806838 0.1963496 -0.07947611 -0.13444313
0000d0 0a 4d 12 3f a4 23 4c 3f ac 12 02 3f 5c dc be 3e
       0.571488 0.79741883 0.5080974 0.37277496
0000e0 c1 b8 28 3e 61 db 9c 3e b0 f5 f7 bd a1 66 15 be
       0.16476728 0.30636123 -0.12107408 -0.14589931
0000f0 e2 90 b0 be ff a7 14 3f 2a dd 37 bf 67 f6 91 3e
       -0.34485537 0.5806884 -0.71821845 0.28508303
000100 6c 3e a4 bd 63 e9 de 3d 37 51 b7 3b 24 84 7f 3c
       -0.080197185 0.10884359 0.0055943984 0.01559547
000110 dc dd 03 bc 0a da a7 bd 57 98 40 be 9b 64 7a 3e
       -0.008048501 -0.081958845 -0.18808113 0.2445244
000120 31 17 92 be 48 15 e0 3e 1c 55 8f 3f 00 19 c9 3f
       -0.2853332 0.43766236 1.1197848 1.5710754
000130 2d 79 df 3f d2 95 26 3f ab df aa 3f 78 41 4c 3f
       1.7458855 0.6507236 1.3349508 0.797874
000140 61 85 33 3c 1d 3c 09 3f 77 5c d4 3e 95 b4 29 3f
       0.010957093 0.5360735 0.41476795 0.6629117
000150 1d 7f cb 3d 3c 71 03 be e0 8d ce bd df 0c 8b be
       0.09936354 -0.12836164 -0.10085654 -0.27158257
000160 ee 41 de 3e 82 f7 ab be b6 ca 3d be e9 12 a2 be
       0.43409675 -0.3358727 -0.1853436 -0.31655052
000170 28 e4 9d be 97 22 f8 be 78 8f df 3e 05 a9 71 3f
       -0.30838132 -0.4846389 0.43664145 0.9439853
000180 4a bc 95 bf e7 6b 65 bf 7c 21 8a bd a4 c4 1e 3e
       -1.1698086 -0.8961777 -0.06744668 0.155047
000190 2a 6b 23 3e a7 78 c7 3d 70 2e 77 3e 7a 9f 59 be
       0.15958849 0.097398095 0.24138808 -0.21252242
0001a0 de 4f 21 3e f1 d2 58 3f 10 07 ac 3e a5 e5 b4 be
       0.15753123 0.8469687 0.33599138 -0.35331455
0001b0 03 b5 b5 be d7 72 0a bf 9d cb e4 bd ca 17 05 3f
       -0.35489663 -0.5408148 -0.11171649 0.51989424
0001c0 53 04 0f 3e e4 eb a6 be 44 fc 34 3f 37 c8 ab 3a
       0.13966493 -0.32601845 0.70697427 0.0013105933
0001d0 94 86 86 bd c9 ab 8d 3e 06 53 1c bf eb ae a6 3c
       -0.065686375 0.27670124 -0.61064184 0.02034708
0001e0 34 a4 49 bf c2 19 da be 23 0d 35 3c 86 d5 83 3e
       -0.7876618 -0.42597777 0.011050495 0.25748843
0001f0 d1 5a c9 3e 8f 56 13 bf bb 37 c0 be 99 43 b4 be
       0.393271 -0.5755395 -0.3754252 -0.35207823
000200 d7 5a 11 c0 7c de 38 be a6 c4 ab bd 3d 7d 61 3d
       -2.2711694 -0.18053621 -0.08387117 0.055051077
000210 3d 22 0f bf 64 ce 82 be b7 ad 31 3d d0 2c af bc
       -0.5591162 -0.2554809 0.043378558 -0.021383673
000220 2d 2e 8e 3b bb af 45 3e ba f6 65 3d f3 3a e1 bd
       0.0043390007 0.19305317 0.0561435 -0.10997572
000230 6f 30 9c bd fa 45 d5 3e 90 ad 72 be 52 5e b6 3e
       -0.076264255 0.4165495 -0.23699021 0.35618836
000240 3b 70 6b 3f 9d 85 fa be d5 e0 63 be e4 0f 2f bf
       0.91968125 -0.48930064 -0.22253735 -0.6838362
000250 f6 a6 c2 3e 0d f2 8e 3f 06 e2 93 3f 71 72 1b 3e
       0.38018006 1.1167618 1.1553352 0.15180375
000260 c1 15 60 3f be 36 68 bd 1c 57 00 3e c2 9c e0 bc
       0.87533194 -0.05669283 0.1253323 -0.027418498
000270 1a 8b 47 3d b1 86 05 3e d0 35 a1 3e 7a ec 25 3e
       0.048716642 0.13039662 0.31486368 0.1620349
000280 78 ee 6f 3e c5 87 08 3e 10 ca 7a 3c a2 ad 59 3c
       0.23430812 0.13333042 0.0153069645 0.013286026
000290 9d 4b c1 bf 16 de c1 3e 31 86 00 3e f8 13 25 bf
       -1.51012 0.3786475 0.1255119 -0.64483595
0002a0 8b 7b 3a 3e 24 89 d2 bd 7d 51 01 bd b6 b2 fc 3c
       0.1821119 -0.10280064 -0.031571854 0.030846935
0002b0 8c 30 21 be 72 58 45 be 0f a6 26 3e 77 25 84 40
       -0.15741175 -0.1927202 0.16274284 4.1295733
0002c0 a6 36 a6 ba 2c 6d 6e 3f ac a4 ee 3e 01 48 87 3e
       -0.0012681081 0.93135333 0.4661001 0.26422122
0002d0 bc d8 0c 3f 80 7f a0 3f 24 6c fb 3d ff e9 8c 3f
       0.5501821 1.253891 0.122764856 1.100891
0002e0 10 37 ea 3e b6 d4 85 3f d4 28 43 3c 34 95 e9 3d
       0.45745134 1.0455539 0.01191159 0.11405411
0002f0 ab 45 ae be d0 49 0a 3e 9f 6b 7f be e9 e9 a4 bd
       -0.34037527 0.1350472 -0.24943398 -0.08052427
000300 f9 cf a6 bd 51 ae b8 bd 21 98 aa bd 53 ab 8c bd
       -0.081451364 -0.09017623 -0.083297975 -0.06868615
000310 9d 5d 1e 3f d6 c2 06 bf 06 db 53 bf 5f b8 cd 3d
       0.6186159 -0.52641046 -0.8275608 0.100449316
000320 ab ba 1d bd 07 17 69 3d 80 f3 af 3d 26 6a d9 bd
       -0.0385081 0.056906726 0.08591366 -0.10615949
000330 7b 26 b1 3e 2d 5e fa 3c 23 88 92 be 93 0e 33 3f
       0.3459967 0.030562485 -0.2861949 0.69944113
000340 ed 82 b5 3e fb fa aa 3e d2 c0 a3 3e 6a 4f 52 be
       0.3545145 0.33394608 0.31983048 -0.20538107
000350 e9 74 9d bf b2 44 20 3f 2f c9 68 be 6c 86 ba be
       -1.2301303 0.6260482 -0.22732995 -0.3643068
000360 89 f8 e8 3c f8 a0 06 bf 3c 9f 82 bf f4 62 18 3f
       0.028438823 -0.5258937 -1.0204844 0.5952599
000370 90 3d 23 be 16 76 9b be 3c ef 5b bf f4 5c 2a bf
       -0.15941453 -0.3036353 -0.8591192 -0.66548085
000380 6d 95 26 3f 3b ff 36 bd a1 15 bb be e4 74 eb 3d
       0.65071756 -0.044677 -0.3653994 0.114969045
000390 c2 32 00 bf 55 82 bf 3e 86 ad 4f bf c7 56 3c bf
       -0.5007745 0.37404123 -0.8112415 -0.7356991
0003a0 ec 7a 0e 3e d3 8c 88 3c 9d e8 07 bf ca 7a a3 be
       0.13914078 0.016668713 -0.53089315 -0.31929618
0003b0 dd a4 73 3e 2a 80 31 be 28 f6 2d 3f 89 fd 9b 3f
       0.23793359 -0.17334047 0.6795373 1.2186748
0003c0 80 f4 1a 3f 98 5d 0f 3f 5d 6d 86 3e 98 c3 13 3f
       0.6052933 0.5600219 0.26255313 0.5772033
0003d0 8f 3e 13 be 69 28 f6 3d 8f 87 03 bf 34 7e 0d bf
       -0.14379333 0.120194264 -0.5137872 -0.55270696
0003e0 f1 d8 5d 3e 80 a4 91 be 10 03 e9 bd 6b ad 08 bf
       0.21664788 -0.28445816 -0.11377537 -0.53389615
0003f0 6f d9 82 3e 8c dc b4 3d 6f 4f c4 be 2f 26 41 3e
       0.25556514 0.088311285 -0.38341853 0.18862222

linear1.bias f4 [128]
000000 f9 0e 92 3e b2 b3 11 3f 9b 40 6b 3e 8d e6 62 bf
       0.28527048 0.5691482 0.22973864 -0.8863304
000010 22 da 3b 3f 2c f5 63 3f c7 21 b9 be 23 a3 12 bf
       0.7337972 0.8904598 -0.36158583 -0.57280177
000020 7f 14 95 3e 2b 5f fb be e6 48 6a bf 3e 47 e0 bd
       0.291172 -0.49096045 -0.91517484 -0.10951088
000030 ce 80 6d bf a7 2d de be 60 6d f0 3e 73 0e 83 3f
       -0.92774665 -0.43394205 0.46958447 1.0238785
000040 6b 9b 86 bc 62 a7 ed be 95 30 f3 3d 14 c3 5e 3e
       -0.016431531 -0.46416765 0.11874501 0.21754104
000050 9c 5d 9f be 9a 07 73 be e8 70 89 3e 23 05 f8 be
       -0.31126106 -0.23733369 0.26843953 -0.4844142
000060 c8 0e 1f 3d c0 29 00 3f d8 72 2f be 61 e8 38 3f
       0.038832456 0.50063705 -0.17133653 0.7222958
000070 2c 62 9f 3e c8 57 1c 3f 37 29 ab bd 34 cf cf 3e
       0.31129587 0.61071444 -0.083574705 0.4058777
000080 1a 4a 6a be 4d 6f cc 3e 39 17 56 be 9d 44 5f 3f
       -0.2287983 0.39928666 -0.20907296 0.8721407
000090 87 2d af 3e 24 b2 84 3e 0e 9d 9a 3e 0a 90 2a 3f
       0.34214422 0.2591716 0.30197948 0.66626036
0000a0 76 08 41 3e 47 46 40 3f c0 0e 51 bf c6 3c ef 3e
       0.18850884 0.75107235 -0.8166313 0.46726054
0000b0 ec e3 13 3f 4a fb ce 3d e8 29 3f be 32 e6 bb bb
       0.57769656 0.10106523 -0.1866833 -0.0057342285
0000c0 30 c1 9a be f8 0c 5e 3f d3 17 0a be c9 88 47 be
       -0.30225515 0.8673854 -0.1348565 -0.19485773
0000d0 35 1b 18 3f e4 90 22 3e 2c b6 2c be 82 c2 fc 3e
       0.59416515 0.15875584 -0.16866368 0.49367148
0000e0 07 34 7a bd 99 3b ac be e4 b6 48 be e5 88 a7 3e
       -0.061084773 -0.3363922 -0.19601017 0.3272163
0000f0 68 bd 6d 3d 61 cf ec be 78 df 55 3f a7 d5 9b 3e
       0.05804196 -0.46251968 0.8354411 0.3043644
000100 41 ba c9 3e db e4 b1 3e ec 43 65 3e ac 79 79 3f
       0.39399913 0.34744915 0.22389191 0.9745128
000110 7e f4 53 3f 30 c9 f5 3e 87 36 a7 bd 6c 68 13 3f
       0.8279494 0.48005056 -0.08164697 0.5758121
000120 0a d1 7a 3e 4d d7 17 be bb b8 a4 bd 07 1a 27 bf
       0.24493805 -0.14828224 -0.08043047 -0.6527409
000130 c3 9d ae be 87 94 df be fc c3 24 3f d0 9a 25 3d
       -0.34104738 -0.43668005 0.6436155 0.040430844
000140 d6 99 64 3e 6b 56 c1 bd 8e b2 68 3d 0c c8 29 3e
       0.22324309 -0.09440311 0.056810908 0.16580218
000150 8c 84 f4 3e 80 02 61 be 95 83 91 bd 09 0a e7 3e
       0.47757375 -0.2197361 -0.071051754 0.45124844
000160 8b f8 2c bf ea df 1b be c5 26 3d 3e ef ca 4f be
       -0.67566746 -0.15222135 0.1847182 -0.20292257
000170 65 b9 08 be 6d 1a 1f be fa 02 cc be c9 0d 2d 3f
       -0.13351972 -0.15537424 -0.3984602 0.6759916
000180 62 8e 45 3f a7 a4 92 be 57 24 2d 3e 21 86 dd 3e
       0.77170384 -0.28641245 0.16908394 0.43266395
000190 14 69 ff be 73 8e 23 3f fa e2 be bc 24 b9 1a 3e
       -0.49884856 0.63889235 -0.02330159 0.15109688
0001a0 99 d5 09 be a9 fc 96 be cd 5a 50 3c 04 93 57 3e
       -0.13460387 -0.2948964 0.012716961 0.21052176
0001b0 fb 7e 1c 3f a9 37 0d be 5c e7 82 3f d1 45 01 be
       0.61131257 -0.13790764 1.0226855 -0.12624289
0001c0 6e 51 71 bd 14 cb 56 3f 03 f2 22 3e d3 87 19 3f
       -0.058915548 0.8390362 0.15912633 0.59972876
0001d0 70 81 51 bf 2c 76 90 be 6f 96 3e bc a1 00 dd be
       -0.8183813 -0.28215158 -0.011632546 -0.43164542
0001e0 a3 69 a3 3f b9 0c 26 3f 07 1b 89 3d 2b c3 35 3f
       1.2766613 0.64863163 0.06694608 0.7100093
0001f0 c2 40 72 be 83 3f 22 bd e9 20 17 be 38 df d4 3e
       -0.23657516 -0.03961135 -0.14758648 0.41576552

linear2.weight f4 [64, 128]
000000 73 78 8e be 48 e7 14 3e 47 30 d8 3d f8 3a 38 bd
       -0.2782627 0.14541352 0.10556083 -0.044978112
000010 47 0e b2 3e 83 f4 a6 be c0 42 98 be 4e 5c 97 be
       0.34776518 -0.32608423 -0.29738426 -0.2956261
000020 15 f0 88 be 5e 17 4e bd da f5 2d 3e c9 2c d0 be
       -0.26745668 -0.050315253 0.16988316 -0.40659168
000030 34 c1 8b be f4 0d 55 be 21 6f 47 bf a7 b4 b7 be
       -0.2729584 -0.20806104 -0.77903944 -0.35880014
000040 19 a3 a6 be e9 ff 23 bf 95 bb 2a be 3d a3 e4 be
       -0.3254631 -0.6406236 -0.1667312 -0.4465579
000050 83 a4 d8 be f3 51 31 3a e6 c9 d8 bd ca c2 27 be
       -0.42313012 0.00067642255 -0.10585384 -0.163829
000060 c6 36 72 be 81 64 65 be 71 cd 39 bf 95 14 ac be
       -0.23653707 -0.2240162 -0.72579104 -0.33609453
000070 44 ac 21 3f e5 f0 14 bf 58 9c b1 3e c1 0e 1c bf
       0.6315348 -0.58180076 0.34689593 -0.6096001
000080 8c 33 56 3e 1f a7 a4 be b8 5e 84 3d bf 66 45 3e
       0.20918101 -0.32158753 0.06463379 0.19277476
000090 77 d4 b0 be 3c 1a 25 3e 87 7a 9a be cb 21 30 be
       -0.34537098 0.16123289 -0.30171606 -0.17200391
0000a0 08 39 00 bb cd 17 34 bf 74 8c a1 3c 12 26 35 bd
       -0.0019565243 -0.7034882 0.019720294 -0.04422576
0000b0 09 25 7a bf 38 05 75 be 8a 8e 8c be c5 f4 e6 be
       -0.9771276 -0.23927772 -0.274525 -0.4510862
0000c0 9d 6d 04 be 5e e0 ba bd 96 42 0f be fd 0e 92 be
       -0.12932439 -0.09124826 -0.13990244 -0.2852706
0000d0 89 fd fa be 9a ed 2f 3f 65 10 98 be d4 c0 12 be
       -0.49021557 0.68721926 -0.29700008 -0.1433137
0000e0 93 70 e2 be 83 7a 25 3e dd 0b 2b bf 2c 50 ab 3e
       -0.44226512 0.16160016 -0.66814977 0.33459604
0000f0 7e 26 5b be d2 bd ca 3d 50 39 fc 3d 7e 2b c2 be
       -0.21401402 0.098994866 0.12315619 -0.37923807
000100 5c f1 d8 bd 91 b0 b5 bd d4 16 5d bf 11 52 1e be
       -0.10592911 -0.08871568 -0.8636296 -0.15460993
000110 9f 53 84 3a 46 c5 e4 bd f5 40 8e 3b d6 2d c5 3d
       0.0010095722 -0.111704394 0.0043412396 0.09627883
000120 8e 27 c7 3e 5e 39 99 bf 78 f8 cf bd 5a 05 5c bf
       0.38897365 -1.1970632 -0.101548135 -0.85945666
000130 5b ac 15 3c 91 5d 8c bd 9b 0e 5b be ff 0f d4 be
       0.009135331 -0.06853784 -0.2139229 -0.41418454
000140 41 8f 86 be 36 2b 5a bf 08 5a 47 be da 17 3d bf
       -0.2628117 -0.85222185 -0.19467938 -0.7386452
000150 7b 22 bf bf d6 e5 ef bd 22 a4 0a bf a0 92 28 3f
       -1.4932398 -0.117137596 -0.54156697 0.6584873
000160 d0 97 0c be be de 8b be af c3 47 bf 6e 19 cb 3e
       -0.13729787 -0.27318376 -0.78032964 0.3966784
000170 22 ef ef bc 3f 07 18 bf 78 f7 56 be 29 b8 0e bf
       -0.029288832 -0.59386057 -0.2099284 -0.55749756
000180 5e 63 cb be c5 08 23 3d d6 93 3f bf 10 b3 8c bc
       -0.3972425 0.039803285 -0.74834955 -0.017175227
000190 fe 32 bc be bf a6 34 3e b5 90 68 bf 3c c7 51 3d
       -0.36757654 0.17641734 -0.90845805 0.051215395
0001a0 be 5e b7 3b b8 6c 90 3d 26 67 8f bf 71 f5 17 bf
       0.005596011 0.070519865 -1.1203353 -0.5935889
0001b0 7c 30 e8 be 44 77 88 3e 5c 09 8d 3d dc 58 c6 bd
       -0.4534949 0.26653492 0.06886551 -0.09684917
0001c0 c5 22 b0 be 2a ab 96 be fc 08 42 3e 28 28 65 bd
       -0.34401527 -0.29427463 0.1894874 -0.0559465
0001d0 34 41 5f ba 0a 08 6f 3e f5 09 b9 be e4 ca 04 3d
       -0.0008516491 0.2334291 -0.3614041 0.032420054
0001e0 a7 a3 32 3f a9 df 11 be 11 1f 36 bf 30 0b 7b be
       0.69780964 -0.14245476 -0.71141154 -0.24515986
0001f0 6f f6 2d 3d 5b bb 93 be fe bb 0d 3f 64 d1 6f bf
       0.042471346 -0.28853878 0.5536498 -0.9367888
000200 93 47 17 be 2a 83 4a 3e cc 6d 13 bf 8a 27 98 be
       -0.14773397 0.19776598 -0.5758941 -0.29717666
000210 71 83 ce 3d a3 fc e7 be 81 c3 87 be 7c bd 3b 3d
       0.10083664 -0.45309934 -0.26516345 0.045835003
000220 d5 88 91 3e 8e b0 b7 bd 61 45 11 3e 90 f2 0b 3e
       0.28424707 -0.08969222 0.14186622 0.13666749
000230 9f 7f c4 3c 92 9f e8 be 8f 17 81 be 3e 78 bc be
       0.023986636 -0.45434242 -0.25213286 -0.36810488
000240 3a 4f a9 be 93 90 cc bf 3e e5 db be 74 81 85 bd
       -0.33068258 -1.598162 -0.42948335 -0.06518832
000250 ff 11 35 3d 33 47 e0 be bc fc b7 be 00 89 c4 be
       0.044206616 -0.4380432 -0.3593501 -0.38385773
000260 ae 2f 27 bf 3f 25 56 bf 3d f4 41 be 9e a0 13 3d
       -0.6530713 -0.83650583 -0.18940826 0.03604185
000270 6e b1 5b 3d f1 d1 59 be 4d ff be be 11 90 6e bf
       0.053636007 -0.21271493 -0.37304154 -0.9318858
000280 e7 e8 94 be 8f e8 80 bd 10 0a 19 bf 9f 30 86 bf
       -0.2908394 -0.06294357 -0.5978098 -1.0483588
000290 27 1b 34 be 36 d7 79 3d e6 de f0 be 86 49 b3 be
       -0.17588483 0.060996257 -0.47045058 -0.3501703
0002a0 73 24 97 be c8 6f a5 bf 2c c2 73 3e 1a f9 0d bd
       -0.29519996 -1.2924738 0.2380454 -0.03466139
0002b0 7c f7 6f bf 5d 7e 39 bf c4 5d 96 bd b4 7e cd 3e
       -0.93737006 -0.7245844 -0.07342103 0.4013573
0002c0 f4 46 74 bf f8 5a 7a be 7d f3 98 be 7a f5 90 bd
       -0.95420766 -0.24448764 -0.29873267 -0.07078071
0002d0 a9 4b 19 be 4a b7 02 3e 57 af f2 be e4 01 dc be
       -0.14970268 0.12765232 -0.473994 -0.42970192
0002e0 54 40 7a be 64 46 90 be 91 da 8c be 12 84 e3 bc
       -0.24438602 -0.28178704 -0.27510503 -0.027772937
0002f0 f9 52 38 bf df 31 34 be 38 ee 1d bf b7 dc 97 be
       -0.72001606 -0.1759715 -0.6169162 -0.2966058
000300 2c 4f 00 bf 38 67 cd be bb 73 86 be a9 28 d2 be
       -0.50120807 -0.40117812 -0.2626017 -0.41046646
000310 45 3c 34 bf 97 c4 a9 be be 19 47 3e 54 bb b4 3e
       -0.70404464 -0.331578 0.19443414 0.3529917
000320 0a cc b0 be 92 24 28 3f ea ce cd be f5 3e f0 3d
       -0.3453067 0.656808 -0.40196925 0.11730758
000330 27 a2 c4 bc 05 8e f5 3e aa 58 64 3d e8 62 e1 be
       -0.024003102 0.47959915 0.05574862 -0.44020772
000340 21 62 71 bf 10 50 0e be 5e 61 e7 be 39 de 6d bf
       -0.9429036 -0.13897729 -0.45191473 -0.9291721
000350 a2 6c 22 3f 5a 9b a4 be 40 03 44 be f7 de d0 3d
       0.6344701 -0.32149774 -0.19141865 0.10198777
000360 f2 36 c7 be 37 8c 0f bf 26 11 ea be 56 78 2c bd
       -0.38909107 -0.56073326 -0.45716208 -0.04210695
000370 38 cc 28 3e 43 2b 29 3e 64 f1 ee 3d 03 32 ae bd
       0.16484153 0.1652041 0.11667135 -0.08505633
000380 c6 df fd bb 40 b5 41 3f 07 68 54 bf 6d ca bb be
       -0.007747623 0.7566719 -0.82971233 -0.36677876
000390 53 44 80 be 12 5f e6 3d a1 8b f4 be b3 dc c8 be
       -0.25052127 0.11248602 -0.47762778 -0.3923088
0003a0 5f b5 8d be df e1 d7 be 02 13 1a 3f e4 89 c8 bd
       -0.27677438 -0.42164513 0.60185254 -0.097919255
0003b0 b6 8d 5f bf 55 d5 08 bf 11 8d 48 3e ab 3d 0b 3e
       -0.8732561 -0.5345052 0.19585063 0.13597743
0003c0 61 a0 8e be cb f2 86 be 6f 61 49 bd c8 d4 06 bd
       -0.27856734 -0.2635711 -0.049165186 -0.032917768
0003d0 ef 45 68 bd 36 27 89 be 40 fc 15 bf 09 f3 79 bd
       -0.05670732 -0.26787728 -0.5858803 -0.061022792
0003e0 5c c9 8e 3e 6d bf 79 be 76 35 1f be 38 b8 0e bf
       0.27888 -0.2438943 -0.15547737 -0.55749846
0003f0 01 bf 2b bf c3 8c e4 bd fb 3d 4f bf e8 cc 1e bf
       -0.67088324 -0.11159661 -0.8095395 -0.6203141

linear2.bias f4 [64]
000000 6b 8c a2 be ee 3f 8a bc e9 0e b0 3f 0f fd ce 3e
       -0.31747755 -0.016876187 1.375455 0.40427443
000010 3b 30 13 3f d2 7a c7 be 65 c0 d7 bd 4e 86 34 3f
       0.5749547 -0.38960892 -0.10534743 0.7051743
000020 1c db 8d 3e 15 02 c5 3d 14 73 e4 3e 89 c6 13 bf
       0.2770623 0.09619538 0.44619048 -0.57724816
000030 12 f9 a7 3d 46 ed 4e 3e 1d 6b 5d 3e 79 15 ab bc
       0.08201803 0.202077 0.21622892 -0.020884262
000040 87 54 b7 3f 38 b7 30 be e4 8c d9 bd 1a 39 35 bf
       1.4322671 -0.17257392 -0.10622576 -0.70790255
000050 64 46 54 3f ee d7 d6 be 60 82 ed be 62 12 0d be
       0.8291991 -0.41961616 -0.4638853 -0.13776544
000060 7e 2a 46 bf bd ed 7c 3d 8a 27 b4 be 39 64 b9 bf
       -0.7740859 0.061750162 -0.35186416 -1.448371
000070 0e 4f 24 bf 98 26 b3 3f 63 37 0e bf 24 b2 cf be
       -0.6418313 1.3996153 -0.55553263 -0.40565598
000080 a4 d6 6f 3d 75 f0 97 bf 74 1e 97 3e bb 51 c5 3e
       0.058554307 -1.1870257 0.2951542 0.38538918
000090 d5 d2 fa 3a 4d c7 aa 3d be 88 d9 3e df 9d 8e be
       0.0019136319 0.08338795 0.42487139 -0.2785482
0000a0 85 81 8d be b3 c5 f4 3e 2c bc 32 3d 3a 4b 81 be
       -0.27637878 0.47807083 0.043636486 -0.25252706
0000b0 a2 17 02 bf 52 ec 8d be 24 22 e1 be 27 0b 9a 3e
       -0.5081731 -0.2771936 -0.4397136 0.30086634
0000c0 3e a0 5c bf c6 cc 06 bd 7d a9 2e bd 3b 08 7a 3e
       -0.8618201 -0.03291013 -0.042642105 0.24417202
0000d0 6f a6 b2 bb 9b 38 54 bf 1c da 43 3e dd 46 d6 bc
       -0.0054519693 -0.82898873 0.19126171 -0.026156837
0000e0 26 4f 5e bf c2 e1 0d 3d 43 0a b6 3f 8d c6 b5 be
       -0.8683952 0.034639128 1.4221882 -0.35503045
0000f0 3b fd 86 3f f8 87 9c 3f d5 33 25 bf 74 a5 92 3f
       1.054603 1.2228994 -0.64532214 1.1456742

output.weight f4 [1, 64]
000000 69 f7 35 bf 34 5d cc be dc 0f ea 3d 0a 58 db 3e
       -0.7108064 -0.39914858 0.11428806 0.42840606
000010 79 b0 88 3e 7c c2 94 be 31 30 f2 be 79 fc 6d 3e
       0.26697138 -0.2905463 -0.47302392 0.23240842
000020 4a b7 ba be 6f 44 bc be 68 e4 cb 3d 13 b1 09 bf
       -0.36467963 -0.3677096 0.099556744 -0.5378582
000030 f9 ed 71 3e 59 54 5c 3e cd ec 50 be 0c 95 bf be
       0.23625936 0.21516551 -0.20402832 -0.374184
000040 e9 3b b0 3d 4e af 0b bf d8 bc e8 3e 4f 5b 19 be
       0.08605177 -0.5456437 0.45456576 -0.14976238
000050 a4 70 bf 3d c6 99 ac bd 46 21 9f 3e 0d 85 c9 3e
       0.09347656 -0.084277675 0.31080073 0.39359322
000060 da b8 0e be 4c 74 ab be cb e5 d4 3e 23 53 ea bd
       -0.13937703 -0.33487165 0.41581568 -0.11441638
000070 16 db 25 bf 88 fe 26 3e 82 3c a3 be d9 3e 2d be
       -0.64787424 0.16308033 -0.318821 -0.16918506
000080 47 1d 1f 3f 2b 65 4a bf 1a fa 50 3e 6a 71 ab 3e
       0.6215405 -0.7906062 0.20407906 0.33484966
000090 9d 7d 14 bf f2 a3 8a 3e 9f db 5e 3e df 7e 2c bf
       -0.5800417 0.27078205 0.21763466 -0.6738109
0000a0 cc c8 96 be 78 1d 5d 3e ec 9a dd 3d 01 38 c3 be
       -0.2945007 0.21593273 0.10820565 -0.38128665
0000b0 f8 b1 a7 be e2 16 e5 be 91 8f 03 bf 04 20 c6 be
       -0.32752967 -0.4474402 -0.5139094 -0.386963
0000c0 e2 a3 9d be 3c cc 08 3e 9b 61 9f 3e 8f 8a 38 3e
       -0.30789095 0.13359159 0.31129155 0.18021606
0000d0 54 cb 1c 3f 76 d0 66 be a0 d5 3f 3f ac 22 09 3f
       0.61247754 -0.22540459 0.7493534 0.5356853
0000e0 a0 68 ff be 4f 55 37 3f eb 83 57 3e 28 c7 f4 be
       -0.4988451 0.71614546 0.21046416 -0.47808194
0000f0 66 3b aa 3d ac cb d0 3d 30 eb df be 13 19 d5 3d
       0.083121106 0.10195097 -0.4373412 0.10405173

linear1.weight f4 [128, 34]
000000 02 ec 6e be c7 c4 13 bf 66 49 c8 be 3e a1 a7 be
       -0.23332217 -0.57722133 -0.391185 -0.32740206
000010 ec 2d c5 be 05 20 01 bf 0d b5 3d bf a2 c7 1a 3d
       -0.38511598 -0.5043948 -0.74104387 0.03778804
000020 0c 9c 2f bf 81 e2 74 bf de 31 a6 3e 3a 37 68 3e
       -0.68597484 -0.9565812 0.3245992 0.22677317
000030 6b b9 96 3c 1a a8 8f 3e ef 1b 9e 3e f0 57 85 3c
       0.018398961 0.2805794 0.30880687 0.016277283
000040 87 c1 ed be 6f 8e 74 bb 66 91 2c be bb 47 44 3e
       -0.46436712 -0.0037316342 -0.1685234 0.19167988
000050 ad 57 d4 be 43 91 dc bf 21 fb 20 bf d3 92 6c be
       -0.4147314 -1.723183 -0.6288319 -0.23102884
000060 de 98 0b 3e dd ff 65 3e 2f 33 c2 be 6c 5d 36 3f
       0.13632533 0.22460885 -0.37929675 0.712363
000070 85 58 0e 3f 16 2d 08 bf 6a b9 e3 3d 9c 04 f1 3b
       0.5560382 -0.53193796 0.11119349 0.007355286
000080 58 8a d8 3d 48 8a 26 3e 87 4f cc 3d 8f 9b 37 3e
       0.10573262 0.16263688 0.09976106 0.17930435
000090 4e 16 e9 3e 97 fe 50 bd e4 f0 d8 3e 94 67 2b 3c
       0.4552483 -0.051024046 0.42371285 0.010461707
0000a0 d3 0d e4 3e 4b ad e3 bd 6e 48 24 bd e5 be 7d be
       0.44541797 -0.111170374 -0.040108137 -0.24779852
0000b0 bd dd 7d be 9a 69 93 3d 75 d8 81 be f5 ca 8d be
       -0.24791618 0.07197876 -0.25360456 -0.27693906
0000c0 94 f8 a7 3e df 0f 49 3e 5f c4 a2 bd 76 ab 09 be
       0.32806838 0.1963496 -0.07947611 -0.13444313
0000d0 0a 4d 12 3f a4 23 4c 3f ac 12 02 3f 5c dc be 3e
       0.571488 0.79741883 0.5080974 0.37277496
0000e0 c1 b8 28 3e 61 db 9c 3e b0 f5 f7 bd a1 66 15 be
       0.16476728 0.30636123 -0.12107408 -0.14589931
0000f0 e2 90 b0 be ff a7 14 3f 2a dd 37 bf 67 f6 91 3e
       -0.34485537 0.5806884 -0.71821845 0.28508303
000100 6c 3e a4 bd 63 e9 de 3d 37 51 b7 3b 24 84 7f 3c
       -0.080197185 0.10884359 0.0055943984 0.01559547
000110 dc dd 03 bc 0a da a7 bd 57 98 40 be 9b 64 7a 3e
       -0.008048501 -0.081958845 -0.18808113 0.2445244
000120 31 17 92 be 48 15 e0 3e 1c 55 8f 3f 00 19 c9 3f
       -0.2853332 0.43766236 1.1197848 1.5710754
000130 2d 79 df 3f d2 95 26 3f ab df aa 3f 78 41 4c 3f
       1.7458855 0.6507236 1.3349508 0.797874
000140 61 85 33 3c 1d 3c 09 3f 77 5c d4 3e 95 b4 29 3f
       0.010957093 0.5360735 0.41476795 0.6629117
000150 1d 7f cb 3d 3c 71 03 be e0 8d ce bd df 0c 8b be
       0.09936354 -0.12836164 -0.10085654 -0.27158257
000160 ee 41 de 3e 82 f7 ab be b6 ca 3d be e9 12 a2 be
       0.43409675 -0.3358727 -0.1853436 -0.31655052
000170 28 e4 9d be 97 22 f8 be 78 8f df 3e 05 a9 71 3f
       -0.30838132 -0.4846389 0.43664145 0.9439853
000180 4a bc 95 bf e7 6b 65 bf 7c 21 8a bd a4 c4 1e 3e
       -1.1698086 -0.8961777 -0.06744668 0.155047
000190 2a 6b 23 3e a7 78 c7 3d 70 2e 77 3e 7a 9f 59 be
       0.15958849 0.097398095 0.24138808 -0.21252242
0001a0 de 4f 21 3e f1 d2 58 3f 10 07 ac 3e a5 e5 b4 be
       0.15753123 0.8469687 0.33599138 -0.35331455
0001b0 03 b5 b5 be d7 72 0a bf 9d cb e4 bd ca 17 05 3f
       -0.35489663 -0.5408148 -0.11171649 0.51989424
0001c0 53 04 0f 3e e4 eb a6 be 44 fc 34 3f 37 c8 ab 3a
       0.13966493 -0.32601845 0.70697427 0.0013105933
0001d0 94 86 86 bd c9 ab 8d 3e 06 53 1c bf eb ae a6 3c
       -0.065686375 0.27670124 -0.61064184 0.02034708
0001e0 34 a4 49 bf c2 19 da be 23 0d 35 3c 86 d5 83 3e
       -0.7876618 -0.42597777 0.011050495 0.25748843
0001f0 d1 5a c9 3e 8f 56 13 bf bb 37 c0 be 99 43 b4 be
       0.393271 -0.5755395 -0.3754252 -0.35207823
000200 d7 5a 11 c0 7c de 38 be a6 c4 ab bd 3d 7d 61 3d
       -2.2711694 -0.18053621 -0.08387117 0.055051077
000210 3d 22 0f bf 64 ce 82 be b7 ad 31 3d d0 2c af bc
       -0.5591162 -0.2554809 0.043378558 -0.021383673
000220 2d 2e 8e 3b bb af 45 3e ba f6 65 3d f3 3a e1 bd
       0.0043390007 0.19305317 0.0561435 -0.10997572
000230 6f 30 9c bd fa 45 d5 3e 90 ad 72 be 52 5e b6 3e
       -0.076264255 0.4165495 -0.23699021 0.35618836
000240 3b 70 6b 3f 9d 85 fa be d5 e0 63 be e4 0f 2f bf
       0.91968125 -0.48930064 -0.22253735 -0.6838362
000250 f6 a6 c2 3e 0d f2 8e 3f 06 e2 93 3f 71 72 1b 3e
       0.38018006 1.1167618 1.1553352 0.15180375
000260 c1 15 60 3f be 36 68 bd 1c 57 00 3e c2 9c e0 bc
       0.87533194 -0.05669283 0.1253323 -0.027418498
000270 1a 8b 47 3d b1 86 05 3e d0 35 a1 3e 7a ec 25 3e
       0.048716642 0.13039662 0.31486368 0.1620349
000280 78 ee 6f 3e c5 87 08 3e 10 ca 7a 3c a2 ad 59 3c
       0.23430812 0.13333042 0.0153069645 0.013286026
000290 9d 4b c1 bf 16 de c1 3e 31 86 00 3e f8 13 25 bf
       -1.51012 0.3786475 0.1255119 -0.64483595
0002a0 8b 7b 3a 3e 24 89 d2 bd 7d 51 01 bd b6 b2 fc 3c
       0.1821119 -0.10280064 -0.031571854 0.030846935
0002b0 8c 30 21 be 72 58 45 be 0f a6 26 3e 77 25 84 40
       -0.15741175 -0.1927202 0.16274284 4.1295733
0002c0 a6 36 a6 ba 2c 6d 6e 3f ac a4 ee 3e 01 48 87 3e
       -0.0012681081 0.93135333 0.4661001 0.26422122
0002d0 bc d8 0c 3f 80 7f a0 3f 24 6c fb 3d ff e9 8c 3f
       0.5501821 1.253891 0.122764856 1.100891
0002e0 10 37 ea 3e b6 d4 85 3f d4 28 43 3c 34 95 e9 3d
       0.45745134 1.0455539 0.01191159 0.11405411
0002f0 ab 45 ae be d0 49 0a 3e 9f 6b 7f be e9 e9 a4 bd
       -0.34037527 0.1350472 -0.24943398 -0.08052427
000300 f9 cf a6 bd 51 ae b8 bd 21 98 aa bd 53 ab 8c bd
       -0.081451364 -0.09017623 -0.083297975 -0.06868615
000310 9d 5d 1e 3f d6 c2 06 bf 06 db 53 bf 5f b8 cd 3d
       0.6186159 -0.52641046 -0.8275608 0.100449316
000320 ab ba 1d bd 07 17 69 3d 80 f3 af 3d 26 6a d9 bd
       -0.0385081 0.056906726 0.08591366 -0.10615949
000330 7b 26 b1 3e 2d 5e fa 3c 23 88 92 be 93 0e 33 3f
       0.3459967 0.030562485 -0.2861949 0.69944113
000340 ed 82 b5 3e fb fa aa 3e d2 c0 a3 3e 6a 4f 52 be
       0.3545145 0.33394608 0.31983048 -0.20538107
000350 e9 74 9d bf b2 44 20 3f 2f c9 68 be 6c 86 ba be
       -1.2301303 0.6260482 -0.22732995 -0.3643068
000360 89 f8 e8 3c f8 a0 06 bf 3c 9f 82 bf f4 62 18 3f
       0.028438823 -0.5258937 -1.0204844 0.5952599
000370 90 3d 23 be 16 76 9b be 3c ef 5b bf f4 5c 2a bf
       -0.15941453 -0.3036353 -0.8591192 -0.66548085
000380 6d 95 26 3f 3b ff 36 bd a1 15 bb be e4 74 eb 3d
       0.65071756 -0.044677 -0.3653994 0.114969045
000390 c2 32 00 bf 55 82 bf 3e 86 ad 4f bf c7 56 3c bf
       -0.5007745 0.37404123 -0.8112415 -0.7356991
0003a0 ec 7a 0e 3e d3 8c 88 3c 9d e8 07 bf ca 7a a3 be
       0.13914078 0.016668713 -0.53089315 -0.31929618
0003b0 dd a4 73 3e 2a 80 31 be 28 f6 2d 3f 89 fd 9b 3f
       0.23793359 -0.17334047 0.6795373 1.2186748
0003c0 80 f4 1a 3f 98 5d 0f 3f 5d 6d 86 3e 98 c3 13 3f
       0.6052933 0.5600219 0.26255313 0.5772033
0003d0 8f 3e 13 be 69 28 f6 3d 8f 87 03 bf 34 7e 0d bf
       -0.14379333 0.120194264 -0.5137872 -0.55270696
0003e0 f1 d8 5d 3e 80 a4 91 be 10 03 e9 bd 6b ad 08 bf
       0.21664788 -0.28445816 -0.11377537 -0.53389615
0003f0 6f d9 82 3e 8c dc b4 3d 6f 4f c4 be 2f 26 41 3e
       0.25556514 0.088311285 -0.38341853 0.18862222

linear1.bias f4 [128]
000000 f9 0e 92 3e b2 b3 11 3f 9b 40 6b 3e 8d e6 62 bf
       0.28527048 0.5691482 0.22973864 -0.8863304
000010 22 da 3b 3f 2c f5 63 3f c7 21 b9 be 23 a3 12 bf
       0.7337972 0.8904598 -0.36158583 -0.57280177
000020 7f 14 95 3e 2b 5f fb be e6 48 6a bf 3e 47 e0 bd
       0.291172 -0.49096045 -0.91517484 -0.10951088
000030 ce 80 6d bf a7 2d de be 60 6d f0 3e 73 0e 83 3f
       -0.92774665 -0.43394205 0.46958447 1.0238785
000040 6b 9b 86 bc 62 a7 ed be 95 30 f3 3d 14 c3 5e 3e
       -0.016431531 -0.46416765 0.11874501 0.21754104
000050 9c 5d 9f be 9a 07 73 be e8 70 89 3e 23 05 f8 be
       -0.31126106 -0.23733369 0.26843953 -0.4844142
000060 c8 0e 1f 3d c0 29 00 3f d8 72 2f be 61 e8 38 3f
       0.038832456 0.50063705 -0.17133653 0.7222958
000070 2c 62 9f 3e c8 57 1c 3f 37 29 ab bd 34 cf cf 3e
       0.31129587 0.61071444 -0.083574705 0.4058777
000080 1a 4a 6a be 4d 6f cc 3e 39 17 56 be 9d 44 5f 3f
       -0.2287983 0.39928666 -0.20907296 0.8721407
000090 87 2d af 3e 24 b2 84 3e 0e 9d 9a 3e 0a 90 2a 3f
       0.34214422 0.2591716 0.30197948 0.66626036
0000a0 76 08 41 3e 47 46 40 3f c0 0e 51 bf c6 3c ef 3e
       0.18850884 0.75107235 -0.8166313 0.46726054
0000b0 ec e3 13 3f 4a fb ce 3d e8 29 3f be 32 e6 bb bb
       0.57769656 0.10106523 -0.1866833 -0.0057342285
0000c0 30 c1 9a be f8 0c 5e 3f d3 17 0a be c9 88 47 be
       -0.30225515 0.8673854 -0.1348565 -0.19485773
0000d0 35 1b 18 3f e4 90 22 3e 2c b6 2c be 82 c2 fc 3e
       0.59416515 0.15875584 -0.16866368 0.49367148
0000e0 07 34 7a bd 99 3b ac be e4 b6 48 be e5 88 a7 3e
       -0.061084773 -0.3363922 -0.19601017 0.3272163
0000f0 68 bd 6d 3d 61 cf ec be 78 df 55 3f a7 d5 9b 3e
       0.05804196 -0.46251968 0.8354411 0.3043644
000100 41 ba c9 3e db e4 b1 3e ec 43 65 3e ac 79 79 3f
       0.39399913 0.34744915 0.22389191 0.9745128
000110 7e f4 53 3f 30 c9 f5 3e 87 36 a7 bd 6c 68 13 3f
       0.8279494 0.48005056 -0.08164697 0.5758121
000120 0a d1 7a 3e 4d d7 17 be bb b8 a4 bd 07 1a 27 bf
       0.24493805 -0.14828224 -0.08043047 -0.6527409
000130 c3 9d ae be 87 94 df be fc c3 24 3f d0 9a 25 3d
       -0.34104738 -0.43668005 0.6436155 0.040430844
000140 d6 99 64 3e 6b 56 c1 bd 8e b2 68 3d 0c c8 29 3e
       0.22324309 -0.09440311 0.056810908 0.16580218
000150 8c 84 f4 3e 80 02 61 be 95 83 91 bd 09 0a e7 3e
       0.47757375 -0.2197361 -0.071051754 0.45124844
000160 8b f8 2c bf ea df 1b be c5 26 3d 3e ef ca 4f be
       -0.67566746 -0.15222135 0.1847182 -0.20292257
000170 65 b9 08 be 6d 1a 1f be fa 02 cc be c9 0d 2d 3f
       -0.13351972 -0.15537424 -0.3984602 0.6759916
000180 62 8e 45 3f a7 a4 92 be 57 24 2d 3e 21 86 dd 3e
       0.77170384 -0.28641245 0.16908394 0.43266395
000190 14 69 ff be 73 8e 23 3f fa e2 be bc 24 b9 1a 3e
       -0.49884856 0.63889235 -0.02330159 0.15109688
0001a0 99 d5 09 be a9 fc 96 be cd 5a 50 3c 04 93 57 3e
       -0.13460387 -0.2948964 0.012716961 0.21052176
0001b0 fb 7e 1c 3f a9 37 0d be 5c e7 82 3f d1 45 01 be
       0.61131257 -0.13790764 1.0226855 -0.12624289
0001c0 6e 51 71 bd 14 cb 56 3f 03 f2 22 3e d3 87 19 3f
       -0.058915548 0.8390362 0.15912633 0.59972876
0001d0 70 81 51 bf 2c 76 90 be 6f 96 3e bc a1 00 dd be
       -0.8183813 -0.28215158 -0.011632546 -0.43164542
0001e0 a3 69 a3 3f b9 0c 26 3f 07 1b 89 3d 2b c3 35 3f
       1.2766613 0.64863163 0.06694608 0.7100093
0001f0 c2 40 72 be 83 3f 22 bd e9 20 17 be 38 df d4 3e
       -0.23657516 -0.03961135 -0.14758648 0.41576552

linear2.weight f4 [64, 128]
000000 73 78 8e be 48 e7 14 3e 47 30 d8 3d f8 3a 38 bd
       -0.2782627 0.14541352 0.10556083 -0.044978112
000010 47 0e b2 3e 83 f4 a6 be c0 42 98 be 4e 5c 97 be
       0.34776518 -0.32608423 -0.29738426 -0.2956261
000020 15 f0 88 be 5e 17 4e bd da f5 2d 3e c9 2c d0 be
       -0.26745668 -0.050315253 0.16988316 -0.40659168
000030 34 c1 8b be f4 0d 55 be 21 6f 47 bf a7 b4 b7 be
       -0.2729584 -0.20806104 -0.77903944 -0.35880014
000040 19 a3 a6 be e9 ff 23 bf 95 bb 2a be 3d a3 e4 be
       -0.3254631 -0.6406236 -0.1667312 -0.4465579
000050 83 a4 d8 be f3 51 31 3a e6 c9 d8 bd ca c2 27 be
       -0.42313012 0.00067642255 -0.10585384 -0.163829
000060 c6 36 72 be 81 64 65 be 71 cd 39 bf 95 14 ac be
       -0.23653707 -0.2240162 -0.72579104 -0.33609453
000070 44 ac 21 3f e5 f0 14 bf 58 9c b1 3e c1 0e 1c bf
       0.6315348 -0.58180076 0.34689593 -0.6096001
000080 8c 33 56 3e 1f a7 a4 be b8 5e 84 3d bf 66 45 3e
       0.20918101 -0.32158753 0.06463379 0.19277476
000090 77 d4 b0 be 3c 1a 25 3e 87 7a 9a be cb 21 30 be
       -0.34537098 0.16123289 -0.30171606 -0.17200391
0000a0 08 39 00 bb cd 17 34 bf 74 8c a1 3c 12 26 35 bd
       -0.0019565243 -0.7034882 0.019720294 -0.04422576
0000b0 09 25 7a bf 38 05 75 be 8a 8e 8c be c5 f4 e6 be
       -0.9771276 -0.23927772 -0.274525 -0.4510862
0000c0 9d 6d 04 be 5e e0 ba bd 96 42 0f be fd 0e 92 be
       -0.12932439 -0.09124826 -0.13990244 -0.2852706
0000d0 89 fd fa be 9a ed 2f 3f 65 10 98 be d4 c0 12 be
       -0.49021557 0.68721926 -0.29700008 -0.1433137
0000e0 93 70 e2 be 83 7a 25 3e dd 0b 2b bf 2c 50 ab 3e
       -0.44226512 0.16160016 -0.66814977 0.33459604
0000f0 7e 26 5b be d2 bd ca 3d 50 39 fc 3d 7e 2b c2 be
       -0.21401402 0.098994866 0.12315619 -0.37923807
000100 5c f1 d8 bd 91 b0 b5 bd d4 16 5d bf 11 52 1e be
       -0.10592911 -0.08871568 -0.8636296 -0.15460993
000110 9f 53 84 3a 46 c5 e4 bd f5 40 8e 3b d6 2d c5 3d
       0.0010095722 -0.111704394 0.0043412396 0.09627883
000120 8e 27 c7 3e 5e 39 99 bf 78 f8 cf bd 5a 05 5c bf
       0.38897365 -1.1970632 -0.101548135 -0.85945666
000130 5b ac 15 3c 91 5d 8c bd 9b 0e 5b be ff 0f d4 be
       0.009135331 -0.06853784 -0.2139229 -0.41418454
000140 41 8f 86 be 36 2b 5a bf 08 5a 47 be da 17 3d bf
       -0.2628117 -0.85222185 -0.19467938 -0.7386452
000150 7b 22 bf bf d6 e5 ef bd 22 a4 0a bf a0 92 28 3f
       -1.4932398 -0.117137596 -0.54156697 0.6584873
000160 d0 97 0c be be de 8b be af c3 47 bf 6e 19 cb 3e
       -0.13729787 -0.27318376 -0.78032964 0.3966784
000170 22 ef ef bc 3f 07 18 bf 78 f7 56 be 29 b8 0e bf
       -0.029288832 -0.59386057 -0.2099284 -0.55749756
000180 5e 63 cb be c5 08 23 3d d6 93 3f bf 10 b3 8c bc
       -0.3972425 0.039803285 -0.74834955 -0.017175227
000190 fe 32 bc be bf a6 34 3e b5 90 68 bf 3c c7 51 3d
       -0.36757654 0.17641734 -0.90845805 0.051215395
0001a0 be 5e b7 3b b8 6c 90 3d 26 67 8f bf 71 f5 17 bf
       0.005596011 0.070519865 -1.1203353 -0.5935889
0001b0 7c 30 e8 be 44 77 88 3e 5c 09 8d 3d dc 58 c6 bd
       -0.4534949 0.26653492 0.06886551 -0.09684917
0001c0 c5 22 b0 be 2a ab 96 be fc 08 42 3e 28 28 65 bd
       -0.34401527 -0.29427463 0.1894874 -0.0559465
0001d0 34 41 5f ba 0a 08 6f 3e f5 09 b9 be e4 ca 04 3d
       -0.0008516491 0.2334291 -0.3614041 0.032420054
0001e0 a7 a3 32 3f a9 df 11 be 11 1f 36 bf 30 0b 7b be
       0.69780964 -0.14245476 -0.71141154 -0.24515986
0001f0 6f f6 2d 3d 5b bb 93 be fe bb 0d 3f 64 d1 6f bf
       0.042471346 -0.28853878 0.5536498 -0.9367888
000200 93 47 17 be 2a 83 4a 3e cc 6d 13 bf 8a 27 98 be
       -0.14773397 0.19776598 -0.5758941 -0.29717666
000210 71 83 ce 3d a3 fc e7 be 81 c3 87 be 7c bd 3b 3d
       0.10083664 -0.45309934 -0.26516345 0.045835003
000220 d5 88 91 3e 8e b0 b7 bd 61 45 11 3e 90 f2 0b 3e
       0.28424707 -0.08969222 0.14186622 0.13666749
000230 9f 7f c4 3c 92 9f e8 be 8f 17 81 be 3e 78 bc be
       0.023986636 -0.45434242 -0.25213286 -0.36810488
000240 3a 4f a9 be 93 90 cc bf 3e e5 db be 74 81 85 bd
       -0.33068258 -1.598162 -0.42948335 -0.06518832
000250 ff 11 35 3d 33 47 e0 be bc fc b7 be 00 89 c4 be
       0.044206616 -0.4380432 -0.3593501 -0.38385773
000260 ae 2f 27 bf 3f 25 56 bf 3d f4 41 be 9e a0 13 3d
       -0.6530713 -0.83650583 -0.18940826 0.03604185
000270 6e b1 5b 3d f1 d1 59 be 4d ff be be 11 90 6e bf
       0.053636007 -0.21271493 -0.37304154 -0.9318858
000280 e7 e8 94 be 8f e8 80 bd 10 0a 19 bf 9f 30 86 bf
       -0.2908394 -0.06294357 -0.5978098 -1.0483588
000290 27 1b 34 be 36 d7 79 3d e6 de f0 be 86 49 b3 be
       -0.17588483 0.060996257 -0.47045058 -0.3501703
0002a0 73 24 97 be c8 6f a5 bf 2c c2 73 3e 1a f9 0d bd
       -0.29519996 -1.2924738 0.2380454 -0.03466139
0002b0 7c f7 6f bf 5d 7e 39 bf c4 5d 96 bd b4 7e cd 3e
       -0.93737006 -0.7245844 -0.07342103 0.4013573
0002c0 f4 46 74 bf f8 5a 7a be 7d f3 98 be 7a f5 90 bd
       -0.95420766 -0.24448764 -0.29873267 -0.07078071
0002d0 a9 4b 19 be 4a b7 02 3e 57 af f2 be e4 01 dc be
       -0.14970268 0.12765232 -0.473994 -0.42970192
0002e0 54 40 7a be 64 46 90 be 91 da 8c be 12 84 e3 bc
       -0.24438602 -0.28178704 -0.27510503 -0.027772937
0002f0 f9 52 38 bf df 31 34 be 38 ee 1d bf b7 dc 97 be
       -0.72001606 -0.1759715 -0.6169162 -0.2966058
000300 2c 4f 00 bf 38 67 cd be bb 73 86 be a9 28 d2 be
       -0.50120807 -0.40117812 -0.2626017 -0.41046646
000310 45 3c 34 bf 97 c4 a9 be be 19 47 3e 54 bb b4 3e
       -0.70404464 -0.331578 0.19443414 0.3529917
000320 0a cc b0 be 92 24 28 3f ea ce cd be f5 3e f0 3d
       -0.3453067 0.656808 -0.40196925 0.11730758
000330 27 a2 c4 bc 05 8e f5 3e aa 58 64 3d e8 62 e1 be
       -0.024003102 0.47959915 0.05574862 -0.44020772
000340 21 62 71 bf 10 50 0e be 5e 61 e7 be 39 de 6d bf
       -0.9429036 -0.13897729 -0.45191473 -0.9291721
000350 a2 6c 22 3f 5a 9b a4 be 40 03 44 be f7 de d0 3d
       0.6344701 -0.32149774 -0.19141865 0.10198777
000360 f2 36 c7 be 37 8c 0f bf 26 11 ea be 56 78 2c bd
       -0.38909107 -0.56073326 -0.45716208 -0.04210695
000370 38 cc 28 3e 43 2b 29 3e 64 f1 ee 3d 03 32 ae bd
       0.16484153 0.1652041 0.11667135 -0.08505633
000380 c6 df fd bb 40 b5 41 3f 07 68 54 bf 6d ca bb be
       -0.007747623 0.7566719 -0.82971233 -0.36677876
000390 53 44 80 be 12 5f e6 3d a1 8b f4 be b3 dc c8 be
       -0.25052127 0.11248602 -0.47762778 -0.3923088
0003a0 5f b5 8d be df e1 d7 be 02 13 1a 3f e4 89 c8 bd
       -0.27677438 -0.42164513 0.60185254 -0.097919255
0003b0 b6 8d 5f bf 55 d5 08 bf 11 8d 48 3e ab 3d 0b 3e
       -0.8732561 -0.5345052 0.19585063 0.13597743
0003c0 61 a0 8e be cb f2 86 be 6f 61 49 bd c8 d4 06 bd
       -0.27856734 -0.2635711 -0.049165186 -0.032917768
0003d0 ef 45 68 bd 36 27 89 be 40 fc 15 bf 09 f3 79 bd
       -0.05670732 -0.26787728 -0.5858803 -0.061022792
0003e0 5c c9 8e 3e 6d bf 79 be 76 35 1f be 38 b8 0e bf
       0.27888 -0.2438943 -0.15547737 -0.55749846
0003f0 01 bf 2b bf c3 8c e4 bd fb 3d 4f bf e8 cc 1e bf
       -0.67088324 -0.11159661 -0.8095395 -0.6203141

linear2.bias f4 [64]
000000 6b 8c a2 be ee 3f 8a bc e9 0e b0 3f 0f fd ce 3e
       -0.31747755 -0.016876187 1.375455 0.40427443
000010 3b 30 13 3f d2 7a c7 be 65 c0 d7 bd 4e 86 34 3f
       0.5749547 -0.38960892 -0.10534743 0.7051743
000020 1c db 8d 3e 15 02 c5 3d 14 73 e4 3e 89 c6 13 bf
       0.2770623 0.09619538 0.44619048 -0.57724816
000030 12 f9 a7 3d 46 ed 4e 3e 1d 6b 5d 3e 79 15 ab bc
       0.08201803 0.202077 0.21622892 -0.020884262
000040 87 54 b7 3f 38 b7 30 be e4 8c d9 bd 1a 39 35 bf
       1.4322671 -0.17257392 -0.10622576 -0.70790255
000050 64 46 54 3f ee d7 d6 be 60 82 ed be 62 12 0d be
       0.8291991 -0.41961616 -0.4638853 -0.13776544
000060 7e 2a 46 bf bd ed 7c 3d 8a 27 b4 be 39 64 b9 bf
       -0.7740859 0.061750162 -0.35186416 -1.448371
000070 0e 4f 24 bf 98 26 b3 3f 63 37 0e bf 24 b2 cf be
       -0.6418313 1.3996153 -0.55553263 -0.40565598
000080 a4 d6 6f 3d 75 f0 97 bf 74 1e 97 3e bb 51 c5 3e
       0.058554307 -1.1870257 0.2951542 0.38538918
000090 d5 d2 fa 3a 4d c7 aa 3d be 88 d9 3e df 9d 8e be
       0.0019136319 0.08338795 0.42487139 -0.2785482
0000a0 85 81 8d be b3 c5 f4 3e 2c bc 32 3d 3a 4b 81 be
       -0.27637878 0.47807083 0.043636486 -0.25252706
0000b0 a2 17 02 bf 52 ec 8d be 24 22 e1 be 27 0b 9a 3e
       -0.5081731 -0.2771936 -0.4397136 0.30086634
0000c0 3e a0 5c bf c6 cc 06 bd 7d a9 2e bd 3b 08 7a 3e
       -0.8618201 -0.03291013 -0.042642105 0.24417202
0000d0 6f a6 b2 bb 9b 38 54 bf 1c da 43 3e dd 46 d6 bc
       -0.0054519693 -0.82898873 0.19126171 -0.026156837
0000e0 26 4f 5e bf c2 e1 0d 3d 43 0a b6 3f 8d c6 b5 be
       -0.8683952 0.034639128 1.4221882 -0.35503045
0000f0 3b fd 86 3f f8 87 9c 3f d5 33 25 bf 74 a5 92 3f
       1.054603 1.2228994 -0.64532214 1.1456742

output.weight f4 [1, 64]
000000 69 f7 35 bf 34 5d cc be dc 0f ea 3d 0a 58 db 3e
       -0.7108064 -0.39914858 0.11428806 0.42840606
000010 79 b0 88 3e 7c c2 94 be 31 30 f2 be 79 fc 6d 3e
       0.26697138 -0.2905463 -0.47302392 0.23240842
000020 4a b7 ba be 6f 44 bc be 68 e4 cb 3d 13 b1 09 bf
       -0.36467963 -0.3677096 0.099556744 -0.5378582
000030 f9 ed 71 3e 59 54 5c 3e cd ec 50 be 0c 95 bf be
       0.23625936 0.21516551 -0.20402832 -0.374184
000040 e9 3b b0 3d 4e af 0b bf d8 bc e8 3e 4f 5b 19 be
       0.08605177 -0.5456437 0.45456576 -0.14976238
000050 a4 70 bf 3d c6 99 ac bd 46 21 9f 3e 0d 85 c9 3e
       0.09347656 -0.084277675 0.31080073 0.39359322
000060 da b8 0e be 4c 74 ab be cb e5 d4 3e 23 53 ea bd
       -0.13937703 -0.33487165 0.41581568 -0.11441638
000070 16 db 25 bf 88 fe 26 3e 82 3c a3 be d9 3e 2d be
       -0.64787424 0.16308033 -0.318821 -0.16918506
000080 47 1d 1f 3f 2b 65 4a bf 1a fa 50 3e 6a 71 ab 3e
       0.6215405 -0.7906062 0.20407906 0.33484966
000090 9d 7d 14 bf f2 a3 8a 3e 9f db 5e 3e df 7e 2c bf
       -0.5800417 0.27078205 0.21763466 -0.6738109
0000a0 cc c8 96 be 78 1d 5d 3e ec 9a dd 3d 01 38 c3 be
       -0.2945007 0.21593273 0.10820565 -0.38128665
0000b0 f8 b1 a7 be e2 16 e5 be 91 8f 03 bf 04 20 c6 be
       -0.32752967 -0.4474402 -0.5139094 -0.386963
0000c0 e2 a3 9d be 3c cc 08 3e 9b 61 9f 3e 8f 8a 38 3e
       -0.30789095 0.13359159 0.31129155 0.18021606
0000d0 54 cb 1c 3f 76 d0 66 be a0 d5 3f 3f ac 22 09 3f
       0.61247754 -0.22540459 0.7493534 0.5356853
0000e0 a0 68 ff be 4f 55 37 3f eb 83 57 3e 28 c7 f4 be
       -0.4988451 0.71614546 0.21046416 -0.47808194
0000f0 66 3b aa 3d ac cb d0 3d 30 eb df be 13 19 d5 3d
       0.083121106 0.10195097 -0.4373412 0.10405173

exp_avg f4 [128, 34]
000000 28 a5 a6 bd fa ff 9b bd fa 15 a4 3c 4c 93 85 3c
       -0.0813697 -0.07617183 0.02003001 0.016305588
000010 46 0a bc bc cc 8f 84 bd 72 1a 7c 3b 52 3e 4a 3b
       -0.022954118 -0.064727396 0.003846791 0.00308599
000020 26 55 bd 3a ea f9 75 ba 13 4c 2f 3c 5e ab f5 bb
       0.0014444932 -0.00093832484 0.01069929 -0.007497235
000030 05 6b ab 3b e8 7d 35 3b fa 69 b3 bb 17 43 97 bb
       0.0052312636 0.0027693454 -0.00547528 -0.004616152
000040 3e bd 1d bb 71 c2 85 3c 0c cf 87 bc 83 c2 27 bd
       -0.0024069096 0.016328068 -0.01657822 -0.040956985
000050 73 62 c1 3c 88 a8 96 3d 91 b7 ac 3d 2c 71 83 3d
       0.023606515 0.073563635 0.0843345 0.0641807
000060 25 11 56 3d a3 dc be 3d c0 84 14 bb a9 dc 98 3c
       0.052262444 0.09319427 -0.0022662133 0.018659906
000070 8a 96 17 3d 4f f4 91 3c d4 a2 0b 3f 9c b9 0a 3f
       0.0370088 0.01781669 0.5454533 0.5418947
000080 81 4f c0 3e 8e 50 aa 3e 1d 04 49 3e 80 34 b2 3d
       0.37560657 0.33264583 0.19630475 0.0870142
000090 ec dd 64 3b 2f e4 f4 3c ee 23 0b bd 8a 8a e3 bd
       0.0034922315 0.029893963 -0.033969812 -0.111104086
0000a0 f2 27 61 3b c6 48 a6 bb 25 2d 47 3c e1 d9 0b bb
       0.0034356085 -0.0050745932 0.012156759 -0.0021339583
0000b0 30 20 2a bc fd 18 66 3d 9c d7 78 bd 50 8d 43 bc
       -0.010383651 0.056176174 -0.060752496 -0.011935547
0000c0 51 d9 24 3b 60 29 06 bc 8e b1 62 3c ac a4 3d 3c
       0.0025153945 -0.0081885755 0.013836278 0.011574905
0000d0 5c 94 f3 3c fc f7 93 3b 9c e4 cd bb c5 5a b8 3c
       0.02973383 0.004515646 -0.006283356 0.02250422
0000e0 f2 9e d0 bd e9 3f 1a be 9c 61 94 bc de 72 84 bd
       -0.101865664 -0.15063442 -0.01811295 -0.06467222
0000f0 50 ae 4a bc 50 fc 58 3c 49 7a d4 3b a6 d8 45 bd
       -0.012370661 0.01324375 0.006484304 -0.048302315
000100 e2 8f ef 3d a0 f2 db 3b c7 83 9d 3d d6 fd 2f bd
       0.11697365 0.0067122728 0.0769115 -0.042966686
000110 f6 d3 1b be 75 d0 1a be 04 1f fd bd f0 24 24 bd
       -0.15217575 -0.15118583 -0.123594314 -0.04007429
000120 0d 0f 47 bc 16 2c 12 bb c6 90 db 3b b0 1c ed ba
       -0.0121495845 -0.002230411 0.006700608 -0.0018090215
000130 be a4 36 39 a0 43 34 3b 0a 04 1f 3c b5 3e 99 3b
       0.00017418244 0.0027506128 0.009705553 0.0046766647
000140 9d 83 87 3b e8 1e 7c 3b 1c 80 40 ba b1 4b a9 bb
       0.0041355626 0.003847057 -0.00073433085 -0.005166494
000150 82 01 49 bc 86 8f 0c bd 9a 4c d5 3c 9c e6 ea 3a
       -0.012268426 -0.034316562 0.026037503 0.001792151
000160 74 f1 05 3d e7 e3 53 3d 8d 05 4e 3e fe 39 4a 3e
       0.03270097 0.051731016 0.20119305 0.19748685
000170 d1 4d d5 3d e0 e8 29 3e c1 c8 23 3c 96 28 cc 3b
       0.10415233 0.16592741 0.009996594 0.006230424
000180 9d f8 20 39 54 9f 36 3c 1d ea 2b 3f 03 94 0e 3f
       0.00015351405 0.011146385 0.67154104 0.556946
000190 cc 4b 14 3f 18 5a d3 3e 9c d4 fe 39 b3 19 69 bb
       0.57928157 0.41279674 0.00048605062 -0.0035568296
0001a0 9a 11 53 3b 46 57 d4 3a 32 67 27 ba 7e 5a 29 bb
       0.0032206536 0.0016200326 -0.0006385922 -0.002584129
0001b0 8c 7d a7 39 2c df 43 39 b3 b1 7a 3a 04 07 39 3a
       0.00031946262 0.00018679787 0.00095632224 0.00070582354
0001c0 1a a6 8a b9 da bc 4d ba 41 c8 93 ba 70 b4 3b 37
       -0.00026445166 -0.00078482705 -0.001127489 1.118808e-05
0001d0 4b 4b c4 b9 48 64 cc 37 a2 d5 af b8 8a 40 d9 ba
       -0.0003744013 2.4365392e-05 -8.3844425e-05 -0.001657502
0001e0 82 69 34 3a 10 43 07 bb fc 0f 3e b9 92 85 12 3b
       0.0006882177 -0.0020639338 -0.00018125767 0.0022357446
0001f0 38 3c f1 3a c4 83 39 39 74 83 34 39 ec 5c b8 b8
       0.0018404787 0.00017692061 0.00017215108 -8.791112e-05
000200 50 d1 e2 b8 b5 4b 02 3a 46 77 35 ba 5f 6b 0c bb
       -0.00010815507 0.00049703877 -0.0006922375 -0.0021426303
000210 b5 39 b1 ba 96 31 85 bb 0a 07 cc 3a 20 c6 14 b9
       -0.0013521226 -0.004064749 0.0015566063 -0.00014188187
000220 8e be d6 bc 6c ba 28 3c eb 12 fa 3c 66 d8 cd 3d
       -0.02621391 0.010298353 0.030526599 0.1005104
000230 c8 eb a1 ba 34 1c e9 3c 3f 99 c5 3b 4b 33 1e bb
       -0.0012353593 0.028455831 0.0060302312 -0.002413946
000240 54 0b 0e 3c 49 a6 01 3c 10 eb 06 3c 1c 04 59 ba
       0.008669693 0.007913181 0.008234754 -0.00082785054
000250 a4 65 78 bb 5d 79 12 3b 70 ca 0a 3c c4 4f 11 bc
       -0.003790238 0.002235017 0.008471116 -0.008869115
000260 ac 25 b2 bc 15 78 0d bc 51 3f 52 3b 5a 62 41 bc
       -0.021746479 -0.008634587 0.0032081197 -0.011803234
000270 6a 22 7f 3c 00 3b 25 3b b4 cb 91 bd 71 81 e6 bd
       0.01557217 0.0025212169 -0.071189314 -0.11255158
000280 e5 fa d3 bc b8 f2 13 bb 23 16 9b bc b8 48 cb b9
       -0.025876472 -0.0022575092 -0.018931454 -0.00038773357
000290 d8 2c ba ba 26 ce 67 bd a4 71 70 3d b2 b8 10 3d
       -0.0014204038 -0.056593083 0.058702126 0.03533239
0002a0 37 b2 bf 3d c4 bb 25 3d 2f 9f 86 3e 76 29 f9 3d
       0.09360164 0.04046227 0.26293322 0.12166111
0002b0 02 6b b4 bd 44 86 c2 3c 7c 8e 27 bb ab b0 bd 3c
       -0.088094726 0.023745663 -0.0025567105 0.02315553
0002c0 dd 0c 1e 3d 6d 49 f5 3c 57 a0 3a bc 64 23 f4 3b
       0.038586486 0.029942239 -0.011390767 0.007450508
0002d0 28 89 07 bc 0a 3c f9 bd 61 c1 56 3d 11 aa 69 bc
       -0.008272447 -0.12169655 0.052430514 -0.014261738
0002e0 dc 34 77 bd 6e 6c 32 3d 9a f4 2a 3d b3 57 d3 3c
       -0.060353145 0.043560438 0.041737176 0.025798654
0002f0 2a 48 9e 3d 3e 0f ad bd a8 70 f6 bc 2c 3c 03 bd
       0.07728608 -0.08450173 -0.030083016 -0.032039806
000300 a8 fc dc 3b 35 51 31 bf c7 43 9a be e2 88 3d be
       0.006743986 -0.6926454 -0.30129835 -0.18509248
000310 10 59 aa bc 01 5f b8 3b 47 a1 be b9 1a d6 d5 be
       -0.020794421 0.0056265597 -0.00036359785 -0.4176491
000320 ec 83 c1 3d 43 f5 30 3e 3b 98 b4 3e 1c ef 95 3e
       0.0944899 0.1728106 0.35272393 0.29283988
000330 b9 cc 81 bc 68 84 19 bc 5c 96 c9 bb 15 66 54 bc
       -0.01584469 -0.009369947 -0.0061519574 -0.012963791
000340 9a cc 0f 3a a8 cd 6d 3b 86 dd 39 3a bc 34 9d b9
       0.0005485505 0.003628591 0.00070901995 -0.00029984664
000350 16 2b 50 3a 2b 5d 02 bb 9d 20 8f ba a6 de 22 3a
       0.00079409906 -0.0019891958 -0.0010919754 0.0006212987
000360 2c a0 23 b9 7c d8 b1 39 0c 4c ca 3a 10 b3 2a 3c
       -0.0001560456 0.00033921364 0.0015434041 0.010418668
000370 46 83 6d 3a 45 50 c4 b9 d8 39 f2 bb 9c 70 b0 39
       0.0009060394 -0.0003744384 -0.0073921494 0.00033653236
000380 c3 f2 2d 3c 06 1e 9e 3c 4e 11 02 bc d0 2e db 3c
       0.010616961 0.019301426 -0.007938696 0.02675572
000390 63 ab af 3c a7 af ba 3c f8 05 d6 b7 6c 37 ab b9
       0.021444028 0.022788836 -2.5513567e-05 -0.00032656954
0003a0 fc 2c 2a ba b6 6a 4e 3c 65 4b 84 bc ad 70 4c bc
       -0.00064916885 0.012598684 -0.016149232 -0.012478036
0003b0 05 84 86 bc 05 d6 6f bc df 0a db bc ae 23 2c 3c
       -0.016420374 -0.014638429 -0.026738582 0.010506554
0003c0 f4 d1 d9 39 e3 f5 d2 ba 64 47 54 ba 73 6d 49 3c
       0.00041545893 -0.0016095008 -0.0008097796 0.012294161
0003d0 4b eb da b9 40 65 4a bb 5e 18 80 b8 e0 b4 e5 b8
       -0.00041755507 -0.0030883104 -6.1080544e-05 -0.000109532615
0003e0 c4 c2 49 3c f8 fd ec 39 f8 04 34 38 1c 28 e3 39
       0.012314502 0.0004520265 4.291997e-05 0.00043326698
0003f0 8a a8 4b ba 16 57 f1 3b 93 3d 9c 3a ea ef d5 3b
       -0.000776895 0.007365118 0.0011920206 0.006528844
