Data/Player1/checkpoint-rndTest12.pth (torch, 369716 bytes, 28 tensors)

linear1.weight f4 [128, 34]
00000000: 5b72 973e 27a0 e73e b51e 28bd 4a19 9cbe
00000010: f76b a83e 1c5a 1e3e a281 8fbe fad0 3ebe
00000020: 2f58 713e 9fdb 693e ad63 07be c036 9ebd
00000030: 6cc6 903e 3b3f 1e3e daeb 343e d338 193f
00000040: eabb 4a3e f79d 123d 4153 8d3e 30cd 67bd
00000050: 62fb df3d 666e 85be 1b56 90bd e3c5 9f3c
00000060: 9960 40bd 81e7 eabd 48a1 24be 6881 463e
00000070: 1dd1 e8bd 70b4 913e 13f4 d63d 99e2 093e
00000080: 554c 07be e74a 66bd d1fe fd3e 15ed f73e
00000090: e3b7 aa3e fed0 853e 233c 383e e8fd 2a3e
000000a0: 0cb8 8fbe cf51 353e 1a24 46bc fdd4 9b3d
000000b0: f2db c73e b935 c23d bdfc f93d 9643 203e
000000c0: 03dc 433d f860 d63d a00b fabc 39f1 cfbd
000000d0: 94d0 d7bc 4af6 44be dd97 49be 6bc1 f23d
000000e0: c34e 393d 4ae4 58bd 9e74 9abd 5a51 22be
000000f0: 02c1 783d 2f5a 153e 5b7e b53d a995 633e
00000100: f3d2 55be 09b3 653d ba62 95be 92b9 82bd
00000110: 824b 113f cddf f03e 759c f53e bce6 323e
00000120: 16f1 843d 4846 873e 3d64 f6bc 9406 b7bb
00000130: b3fc 5ebc 46f6 2e3e d5ae 65be 870f 283e
00000140: de3f 103e 87f6 b3bd e77a 1ebd 06ac a73d
00000150: c5e9 3c3e 32a4 2ebd 27ad 81be 3d16 ffbc
00000160: 1289 0fbd 5230 013d d5df 603b e346 6ebd
00000170: 000e a43d e113 123e 524a 2dbe 6167 03bf
00000180: a5f8 293d 7314 be3e 4bc7 f7be d50a ba39
00000190: 4158 aebe 70ec 69bd 0570 d93d a642 1c3e
000001a0: feac 3ebd 91d8 ecbd f8df a5be 92ac 8a3d
000001b0: 94e5 d3bd bfbf 133c 4195 f13a 6284 babe
000001c0: 7d86 b6be b2e2 1bbe 7bf5 e9be 5b04 b93b
000001d0: a744 bfbd 39ce edbd 6c59 59be a872 9b3e
000001e0: f096 28be 441f 2e3e 513b ee3d d492 73bd
000001f0: fca8 f8bd 855c 283c dd01 1a3e 122a ee3d
00000200: d285 b7be 6201 16bf 9c2b 363d 0f44 163e
00000210: 3724 0f3c 5763 d1bc f312 ce3d bfd7 46be
00000220: 99f9 5abe 42fd fabd 0a22 39be 2cfc 91be
00000230: 4b04 ebbd f616 55bd 5388 89be ecf2 11be
00000240: a363 353d 7d6f 1cbe 2f6c 94be bf98 9fbd
00000250: 8797 01bf 9fd5 d63c 8c22 eabd 4e82 e5bd
00000260: c8f9 6bbb f624 0ebd 58f0 b2be e59e 63be
00000270: 2441 bf3c 00aa 433e 1689 5a3e 64a0 2a3e
00000280: a624 5cbb 8fff 27be a513 2ebf f911 583e
00000290: dea8 863e 63ac 6cbe d43b edbd 7b54 d7bd
000002a0: f031 5b3d e50b c33d 93e8 443c e1c0 f93d
000002b0: 7cd6 ce3e 02b0 55be 3676 d5be 9927 a33e
000002c0: 1795 f33e cf97 993e cf0c c53e 4659 f4bd
000002d0: 1070 0e3f 004c 0fbe 2e39 2b3e 731b 0abf
000002e0: 543a a63e 8c18 d5bb f37e 34bc 1dfc 4c3e
000002f0: e234 4bbe 6267 f9bd 5161 38be c905 0abe
00000300: fdd4 af3d c6bb a53c bf0c 03be 873e 113e
00000310: ac41 d53e 56be 073f e0c0 fdbe a5a6 82bd
00000320: d1b1 94bd 1043 95be ab3b ca3d 56ef 0d3d
00000330: e439 de3e dc89 a93e f897 c13e 9442 37be
00000340: 951e 44be fbd8 80be a7ea a8bd 8dd8 0e3d
00000350: 36fe 2a3e 5020 233d 0620 f7bd 1b1f 5b3b
00000360: a4d2 0fbe 8f5d d53d 1766 14bb 784f 4b3d
00000370: b327 02bd 5ebc 123e cddd 593e 6314 3c3e
00000380: 5957 223e b54a e73d ddb5 d33c f117 f63d
00000390: 74fc 7bbe 563b 1bbe 93eb d53e 0e43 8e3e
000003a0: e34b 9abc 0f3b 7c3e eaa5 c63d 4f0f d2bd
000003b0: c8ee 35be 0fba 1f3d 9fcf 8e3d c5f3 90be
000003c0: 4338 4fbd 47a8 503e f56a 693e 197b 71bd
000003d0: 0a0b 1f3f 9288 8e3e 91e2 453f 39c4 163f
000003e0: 7e93 ac3e 0335 7b3e 6d5a 963e 188f 553e
000003f0: 5368 893e 0ee5 be3e 502f ba3d 4b70 863e
0.29579434 0.45239374 -0.04104491 -0.30488044 0.3289487 0.15464061 -0.2802859 -0.18634406
0.23568796 0.22837685 -0.13221617 -0.077252865 0.28276384 0.15453808 0.17668095 0.5985233
0.19798246 0.03579518 0.2760258 -0.056592166 0.10936619 -0.2606079 -0.07047673 0.01950354
-0.046967123 -0.11469937 -0.16077149 0.19385302 -0.1136801 0.28457975 0.10495772 0.13465346
-0.13212712 -0.056223776 0.49608472 0.48423067 0.3334342 0.2613601 0.1799169 0.1669842
-0.28070104 0.17706989 -0.012093568 0.07608984 0.39034992 0.09482903 0.12206409 0.15650782
0.04781724 0.10467714 -0.030523121 -0.101534314 -0.026344575 -0.19234577 -0.19686837 0.11853298
0.04524113 -0.05295209 -0.07541774 -0.15851346 0.06073094 0.14585184 0.08861991 0.2222506
-0.20881252 0.056078944 -0.29176885 -0.06383051 0.5675584 0.47045746 0.4797093 0.1747083
0.06491296 0.26420808 -0.030077094 -0.005585501 -0.013610053 0.17086133 -0.22429974 0.16412173
0.14086863 -0.08787256 -0.038691428 0.08187108 0.18448551 -0.042637058 -0.25327417 -0.031138534
-0.03504283 0.031540222 0.0034313102 -0.05817307 0.08010483 0.14265396 -0.16922882 -0.5132962
0.04149689 0.37124977 -0.48394236 0.00035484755 -0.34051707 -0.05711025 0.10617069 0.152598
-0.046551697 -0.11564744 -0.32397437 0.067711964 -0.10346523 0.009017884 0.0018431322 -0.36429125
-0.3564948 -0.15223196 -0.456951 0.005646271 -0.09339266 -0.116115995 -0.21225518 0.30360913
-0.16463828 0.17004114 0.116324075 -0.059466198 -0.12141606 0.010275965 0.15039773 0.11629118
-0.35844284 -0.5859586 0.044475183 0.146744 0.008736662 -0.025560064 0.10062208 -0.19418238
-0.21384276 -0.12255336 -0.18079391 -0.28512704 -0.11475428 -0.05202385 -0.2686182 -0.14252824
0.044284474 -0.15276904 -0.28988788 -0.07792806 -0.5062184 0.02622491 -0.114323705 -0.11206494
-0.0036007036 -0.034703217 -0.34948993 -0.22228582 0.023346491 0.19107819 0.21341357 0.16662747
-0.003359118 -0.16406082 -0.67998725 0.21100606 0.2630071 -0.23112635 -0.11583677 -0.1051416
0.05351442 0.09523753 0.012018341 0.12194992 0.40398014 -0.20867923 -0.4169175 0.31866148
0.47574684 0.29998633 0.38486335 -0.1193109 0.55639744 -0.13993835 0.16721031 -0.53948134
0.32466376 -0.0065031704 -0.011016595 0.20018049 -0.19844392 -0.12177922 -0.18005873 -0.1347877
0.08585546 0.020231139 -0.12797831 0.14184009 0.41651666 0.53024805 -0.49561214 -0.06379441
-0.07260478 -0.29152727 0.09874662 0.034652077 0.43403542 0.3311299 0.37811255 -0.17896491
-0.19152291 -0.25165543 -0.082478814 0.034874488 0.16698536 0.039825737 -0.12066655 0.0033435288
-0.14045197 0.104182355 -0.0022643858 0.049636334 -0.03177614 0.14329669 0.21276017 0.18367152
0.15853633 0.11293546 0.025843555 0.12016285 -0.24608022 -0.15159354 0.4178129 0.27785534
-0.018835014 0.24631904 0.09699614 -0.10256826 -0.17766869 0.0389958 0.06973194 -0.2831098
-0.050590765 0.20376693 0.22794707 -0.058955286 0.6212622 0.2783857 0.7729884 0.5889316
0.33706278 0.24531941 0.29365864 0.20855367 0.26837406 0.3728413 0.090910554 0.26257548

linear1.bias f4 [128]
00000000: 260b 673e 33ee b03c f437 06be 92f1 563e
00000010: b439 8ebe ba54 b23d 86cb 583e ba71 d83e
00000020: 55f1 80be d689 f43e d8f1 02be 6088 96bd
00000030: d5a8 34be 58ce 573e 7538 9e3d f201 993d
00000040: bd75 c43c e8c0 17be a838 abba 6653 963e
00000050: 3524 50be 73db 4b3e a20a 67be c192 30be
00000060: 7e16 813e 4bae 0a3d d838 553e 0c53 7a3e
00000070: 321a d73e 95be bfbc abe3 3cbe 83e0 afbe
00000080: f200 53bd 6d5b 2a3d 5ca8 9b3e db4e 573e
00000090: df1a 7fbe 949b 003f aae6 d4be 7820 853e
000000a0: f788 14bd fce4 4abd 3b31 afbe a570 f73e
000000b0: c0c6 793e 45d0 7bbb eb13 6bbe fd1e 063f
000000c0: a331 22bd 8243 afbd e952 4c3e aab6 bfbd
000000d0: 5c1f 8c3e ecf0 98be a435 4b3e 92bb 4b3e
000000e0: bdcc 47be 056a 713e 78bb 3abe 599b c83e
000000f0: 4042 3d3e ffdf 193e 22a5 363e 9f30 1d3c
00000100: 4839 df3d 30ba 483e 2ca8 d1bd 93c9 4e3e
00000110: 9ffc 233e 2b96 c73d f8a9 8ebd 5ddc 6e3e
00000120: 5dd9 7c3e bd5a 8b3d e49e 103e e377 833e
00000130: 8e63 443e 4a2b 04be 05b2 513e 01a4 9bbd
00000140: 06f0 363e 1d16 ecbd 9403 563e ec57 f83c
00000150: 417f f3bd 333e 773d 18f4 04bd c299 7a3e
00000160: a6cb 37be 394f 983e b879 21be b166 d73e
00000170: 63c5 52be 443a 70bd 8046 5fbe 28c7 85bd
00000180: 6e54 033e 609d a6bd ba1e cf3e 7a0b 7b3e
00000190: 7db7 cf3e 5afd 46be 3ad4 cb3d c68d 11be
000001a0: 780c d83d 19a8 803e 4804 0cbe b6c9 233d
000001b0: af58 bcbb 45ac 033e a818 10be eb8c bd3e
000001c0: a847 973e 9422 94bd b1f9 d63e 4190 8a3c
000001d0: 6105 373d dda0 6c3e 83ed 333d 9852 483e
000001e0: aaf3 d5bd bbeb 343e cb76 a2ba a6f5 d33d
000001f0: 5b6e 913e 314c 9b3e 5884 70bd 66b4 153e
0.22562847 0.021597957 -0.13107282 0.2099059 -0.277784 0.087075666 0.21171388 0.42274266
-0.25184122 0.4776141 -0.12787569 -0.0735023 -0.1764253 0.21074808 0.07725612 0.07471074
0.023981923 -0.14819682 -0.001306315 0.29360503 -0.20326312 0.19907932 -0.2256265 -0.17243482
0.25212473 0.033857625 0.20822465 0.24445742 0.42012173 -0.023406306 -0.18446223 -0.34350976
-0.051514573 0.041591097 0.30401886 0.21026175 -0.24912594 0.50237393 -0.41582233 0.26001334
-0.036263432 -0.049534783 -0.34217247 0.48328128 0.24392223 -0.00384237 -0.22956817 0.52391034
-0.03959812 -0.08557798 0.19953503 -0.09361012 0.27367675 -0.2987131 0.19844681 0.19895771
-0.19511695 0.235756 -0.18235576 0.3918102 0.18482304 0.15026854 0.1783643 0.009594112
0.108995974 0.19602275 -0.10237154 0.20194082 0.16014336 0.09745439 -0.06966013 0.2332625
0.24692293 0.06804416 0.14123112 0.25677404 0.19178602 -0.12907138 0.20478065 -0.07599641
0.17864999 -0.11527655 0.20899802 0.030315362 -0.11889506 0.060362052 -0.03245935 0.24472716
-0.1794878 0.29747942 -0.15769088 0.42070535 -0.2058311 -0.058649316 -0.21804237 -0.06532127
0.12825176 -0.08135486 0.4045313 0.24516097 0.40569678 -0.19432583 0.099525884 -0.14214239
0.10549253 0.25128248 -0.13673508 0.03998729 -0.0057478766 0.12858684 -0.14071906 0.37021574
0.29546857 -0.07233158 0.41987374 0.016914489 0.044682864 0.2310824 0.04392768 0.19562757
-0.10446866 0.17668049 -0.0012395022 0.10349588 0.28404507 0.30331567 -0.058719963 0.14619598

linear2.weight f4 [128, 128]
00000000: 731b 25be ea41 55bd 1a70 99bc 6abb 523d
00000010: f771 3d3e 7ae0 8b3e 1fad e13d 5dc7 9dbe
00000020: 6c1c 863d 4d9d 8b3d 7c84 9a3e 8066 a7be
00000030: 0a96 85bb 962d 35be c108 5fbe 229c a8bc
00000040: 5110 3a3e cb1d 50bd 1173 59be 9ec5 c73d
00000050: fd53 10be 0f55 08be 38ea 0cbf dd5f a0be
00000060: 9a8f 8a3e cb37 9c3e 7dc7 223b 97aa 7b3d
00000070: c3e0 253d a352 333d 0317 853c d0ab a6be
00000080: fe60 3cbe 3a45 14bf cc3c 4ebd c232 efbc
00000090: 204c 063f ced0 d93d 9a0c 623d 2fb8 8e3e
000000a0: 13b5 10bd c3ea 803e 6263 093b 1191 a13d
000000b0: 9a13 87bd 51e1 abbb 04fa 46be 1236 a4bd
000000c0: 3b72 7cbe cc42 7b3d 3d65 14bc aebb b3bd
000000d0: e829 41be 385f 90be fa2e a33e db28 6a3c
000000e0: f0e2 42be 3d1e 843e 2b76 81be c2bf b43e
000000f0: 03b8 e93e 13d9 cb3d af63 d6be a2e0 5bbd
00000100: 6c7a 063c 69c8 2bbd 913a 43be 985a 3c3e
00000110: d4f7 b53c a835 743c 84ba a1be 6cbf 10be
00000120: dcf4 f4bc 40b4 4ebe 9ea2 9f3e 2874 32be
00000130: d8d3 d7bd 33ad ac3d 586b 2abc 359b acbe
00000140: 3b4a f43d 0504 9cbe 8607 5c3e 395c b4bd
00000150: 4455 d43d 0a6e 99be 7285 833b a522 373e
00000160: 2bd1 103e d0e2 c73c 3dce 9fbd f0fc 48be
00000170: b96a 393d a66f 3d3e 96f3 6d3d 6b62 df3d
00000180: ac0a dbbd 8834 0fbf e32b ff3d b34a 8d3d
00000190: 1ff8 9d3d 025f 18bd 52e3 8bbd 7252 233e
000001a0: 74db bfbc 927d c03e b031 5cbe 4096 d5be
000001b0: f378 cfbc 9a40 95be fb5d 583e eb30 9dbe
000001c0: 8f4c d83d 2a49 f73d d365 8d3d 99ab 693e
000001d0: 7dd6 e93d cff7 b7be d813 c73c b472 d7bd
000001e0: 25ee 4abe 1b2a cd3d 69e0 bfbe dabd b8be
000001f0: 1f37 b53c 4aaf 8c3e 6b8c ab3d f98d ed3d
00000200: cf71 6a3c eb26 eb3d 47fa bb3e 9968 bc3d
00000210: 18d5 95be ae0a a23c f31c e23d c98d 16be
00000220: 93fa 7a3d bcc3 283d df8c bdbe c993 04bd
00000230: 4d95 4abe 692e 1abe 09a6 bdbd b490 d5bc
00000240: 9ab7 003e 16a6 d5bd 82c5 5c3d 2a65 f9bd
00000250: acd7 a9bd 9c6f 9f3a 6c5c 95be d742 52be
00000260: 0ce0 f5bd 6ca7 1e3e 8cdf 483e 1aad da3c
00000270: 059f fd3d 2e86 2d3d ae08 71be eaf5 27be
00000280: deb7 e63d 4a33 c63d b713 dd3b e7d1 313e
00000290: a83a f6bb 9afe 2d3d 7f12 05be 82e1 413d
000002a0: 2aad 82be f199 83bd 5b7d a9bd 7d58 0cbe
000002b0: 5405 61bb bb2f 853d 6dc7 2cbe 0d22 b13c
000002c0: e543 00be 7afd e0bd 0d8b a2be dbaf 8b3d
000002d0: e660 493d 4507 63bc f25d 30bd 1654 1a3d
000002e0: dda5 bcbd fe7f bebe de98 9bbd 118a 95bd
000002f0: 0f81 6e3d 2fce 29bd f377 10bd 9780 ac3d
00000300: 6e25 8abc e0bc 58bd daae d7be 4b53 ae3d
00000310: c7aa 203e 94da 2d3d baa3 163c ac13 9fbd
00000320: 79a9 75bd ce2e 823c 116d bdbe c04f 77be
00000330: 32be 4c3e 16c2 143e 9405 bb3d 4e80 22be
00000340: cddd 853d 0b9e dbbd c971 e83d d68c 813e
00000350: 3078 76be 33f4 e43e a78c 843d 11ae 40be
00000360: 092d 26be 39bb 313e e72b 91be b793 0fbc
00000370: af21 0abd 50ef 9eba 17b2 bf3d 5c38 24be
00000380: 17f5 0dbd fd50 b1be 59c1 343e efc6 f13d
00000390: 0737 293e 8c60 87bc 256b 48bd 7ca4 78bc
000003a0: 304f ddbd 539b 573d 1148 ed3c 008c e23c
000003b0: 2a6f fb3d 2fd5 1c3e d32d b2bc f59f 57be
000003c0: b012 9abe 79fc 053e 27bc fbbc 9513 173e
000003d0: 80d4 173e 5dc5 b0be b74c 6d3d ae08 aabe
000003e0: 19b1 3ebe 85c8 9fbd 7b1b dcbe 9df2 2a3e
000003f0: 8197 1a3e 2ff4 7fbd 5b1f 373e 1561 25be
-0.16123752 -0.052064814 -0.018730212 0.051448263 0.18500505 0.273197 0.11019348 -0.30816165
0.0654839 0.06817112 0.30179203 -0.3269539 -0.004076724 -0.17693171 -0.21780683 -0.020582262
0.18170287 -0.050809663 -0.212353 0.09754489 -0.14094539 -0.13313697 -0.5504489 -0.31323138
0.27062684 0.30511317 0.0024838143 0.061441984 0.040497553 0.04377998 0.016246324 -0.32552958
-0.18396375 -0.5791813 -0.05035095 -0.029199008 0.5245991 0.106355295 0.0551878 0.27874896
-0.035328936 0.2517911 0.0020963778 0.07888997 -0.065955356 -0.0052453657 -0.19431311 -0.080181256
-0.2465295 0.061343 -0.00905734 -0.087760314 -0.18863642 -0.28197646 0.31871778 0.014291967
-0.19031882 0.2580432 -0.25285468 0.3530255 0.45648202 0.09953513 -0.41872928 -0.053681023
0.008207899 -0.041939173 -0.1906531 0.18393934 0.0222129 0.014905371 -0.31587613 -0.14135522
-0.029901914 -0.20185947 0.31178755 -0.17427123 -0.10538453 0.08431473 -0.010401569 -0.33712164
0.11928221 -0.30471817 0.21487245 -0.088066526 0.103678256 -0.29966766 0.0040137107 0.1788431
0.14142291 0.024400145 -0.07803009 -0.19627738 0.045267794 0.18499622 0.05809363 0.109074436
-0.10695395 -0.5593953 0.124595426 0.06899013 0.07713341 -0.03719998 -0.06830467 0.15949419
-0.023420073 0.37595803 -0.2150333 -0.41716194 -0.025326228 -0.2915085 0.211296 -0.30701384
0.105614774 0.12074502 0.06904187 0.22819366 0.114178635 -0.3593125 0.024301454 -0.10519925
-0.19817407 0.100177966 -0.374759 -0.36082345 0.02212101 0.27477485 0.08376392 0.11599345
0.014309361 0.114820324 0.36714384 0.09199638 -0.2926414 0.019780483 0.11040678 -0.14702524
0.061274122 0.04120229 -0.3702154 -0.0323675 -0.19783516 -0.15056767 -0.09260184 -0.026069976
0.12570038 -0.10432069 0.053899296 -0.12177499 -0.08293089 0.0012164 -0.29172075 -0.2053331
-0.12005624 0.15493554 0.19616526 0.02669387 0.12383846 0.04236429 -0.23538467 -0.16402403
0.11265539 0.09677751 0.006746735 0.17365228 -0.0075143166 0.042479135 -0.12995337 0.0473342
-0.2552274 -0.06425846 -0.08275863 -0.1370563 -0.0034335451 0.065032445 -0.1687295 0.021622682
-0.125259 -0.10985847 -0.31746712 0.06820651 0.049164675 -0.013856714 -0.043058343 0.037677847
-0.092113234 -0.37207025 -0.075975165 -0.07301725 0.05822855 -0.041456398 -0.035270642 0.08422964
-0.016863551 -0.0529145 -0.4212559 0.085119806 0.15690146 0.04244478 0.009194309 -0.07767424
-0.059976075 0.015891459 -0.36997274 -0.24151516 0.19994429 0.14527163 0.09131923 -0.15869257
0.06536446 -0.10723504 0.11349828 0.25302762 -0.24069285 0.4471756 0.0647214 -0.18816401
-0.16228117 0.17356576 -0.28353807 -0.008763245 -0.03372353 -0.0012125764 0.0936014 -0.16037124
-0.034657564 -0.34632102 0.17651881 0.11805522 0.16524898 -0.01652553 -0.048930306 -0.015175935
-0.108061194 0.052638363 0.028965028 0.027654648 0.12277062 0.15315698 -0.021750366 -0.21057113
-0.30092382 0.13084592 -0.030729366 0.14753564 0.14827156 -0.34525576 0.05793449 -0.33209747
-0.18622245 -0.07801918 -0.42989716 0.16694112 0.15096857 -0.06248873 0.17883055 -0.16150315

linear2.bias f4 [128]
00000000: eb47 a9bd ed12 4abe 7c49 f03d ad94 663e
00000010: 5604 d2be 9e53 3ebe e91c 873d 2101 593e
00000020: 740b 26be 94e6 963e 9ffc be3e 6101 003f
00000030: cb19 a53e 9259 de3e defd 033e c290 4cbe
00000040: 0f11 84be 223e 52bc fd75 b5be 524d ebbd
00000050: 2e37 543c 141d 6dbe b1ea 49bd 67f4 63be
00000060: a637 b43d 1b75 833b 6a91 13be 72b8 bd3e
00000070: 5323 0cbd 9379 3fbd 7d09 ae3e cfae b0bd
00000080: 2b33 c83e 81ef ddbc 50f9 95be 1860 4a3b
00000090: 8bd1 c73e e3d4 bb3e 7e99 5b3c 6553 873d
000000a0: abc7 b23d 8488 dbbc 259c 88be 3207 9b3e
000000b0: 2974 093f 26eb d83e 5b53 80bd eaae be3d
000000c0: a847 093e 7539 0d3f 8a8f 12bd 7632 af3e
000000d0: 73d8 b23a 9bea b93d c5c5 543e 504f cb3e
000000e0: 3a60 84bd 84d2 80bb 32bb b43e 4795 893d
000000f0: c0d5 dcbc 1877 f83d 00cf 2abb 2632 843e
00000100: d139 3fbe 9b74 8e3e 97e5 39be 789f 5e3e
00000110: d66b a83e 87c8 b8bd 544d d13d b245 9a3e
00000120: 0955 cfbc 0c7e e0bd 789f 8b3e 564d 30be
00000130: 0b46 37be 2a7a 54be 0d8d c43c 11dd a63e
00000140: 533b d0bd aa43 3fbe ac3b 94be 8182 bbbd
00000150: d6cf 6cbe 97a1 eb3e abea c03e c5ed acbe
00000160: 38e0 f9bd 9354 1f3e 1298 413d 470e f53e
00000170: 9ae1 ba3e 3ecf 5e3e 42ce d43d 5a02 f9bd
00000180: ea1d 42be 74e8 5ebd c892 9d3e 2783 80bd
00000190: 97b4 91bb 45cf d8bd 9712 49be 47bd 01bd
000001a0: 982d cdbe a350 473d 8af9 b73e db78 b43e
000001b0: 44f5 8f3e 4dba f3bd 7eb0 a63d 1cee a93c
000001c0: 2138 383d d4d6 663e c40c 97be b4c3 81be
000001d0: 867a e93e 43f3 473e 6b86 bdbd 3232 a9bd
000001e0: b6bb ae3d 07fb 163e 106f 3b3e 0d22 bf3e
000001f0: a053 43be 355c 873e 7ac9 a0bd fc5b 5a3e
-0.082656704 -0.19733782 0.11732766 0.22517653 -0.41018933 -0.18586585 0.06597311 0.21191837
-0.16215307 0.29472792 0.3730211 0.50002104 0.3224624 0.43427712 0.12889811 -0.19977096
-0.25794265 -0.012832196 -0.3544158 -0.11489357 0.012952609 -0.23155624 -0.049296085 -0.22261201
0.087996766 0.004011763 -0.1441094 0.37054783 -0.034213375 -0.0467468 0.33991614 -0.08627092
0.39101538 -0.027091743 -0.29291773 0.003088003 0.39027056 0.36685857 0.013403295 0.06607703
0.0872949 -0.026798494 -0.2668163 0.30278927 0.5369287 0.42366904 -0.06265899 0.09310706
0.13406241 0.551658 -0.03578142 0.34218186 0.0013644829 0.090779506 0.20778568 0.39708948
-0.06463666 -0.0039313454 0.3529907 0.067179255 -0.026957393 0.1213209 -0.0026063323 0.2581951
-0.18674399 0.27823338 -0.18153988 0.2174052 0.32894772 -0.090226226 0.10219827 0.30131298
-0.025309103 -0.109615415 0.27270103 -0.17217001 -0.17897813 -0.20749727 0.02399304 0.32590535
-0.10167565 -0.18678156 -0.28951776 -0.09155751 -0.23126158 0.4602172 0.37679037 -0.33775154
-0.122009695 0.15559606 0.047264166 0.47862455 0.36500245 0.21758744 0.10390903 -0.12158652
-0.18956724 -0.054420903 0.30776048 -0.06275015 -0.004446577 -0.105864085 -0.19635998 -0.03167465
-0.40073848 0.048660886 0.3593257 0.35248455 0.2811681 -0.119007684 0.08139132 0.020743422
0.044975404 0.22542888 -0.29501927 -0.25344622 0.4560129 0.1952639 -0.09254154 -0.08261527
0.08531897 0.14744197 0.18304086 0.37330666 -0.19074869 0.26437536 -0.078509286 0.21324152

linear3.weight f4 [64, 128]
00000000: 6576 02bf e0da 9ebd e7bb 0c3e 1365 8a3d
00000010: 3cc4 3dbe 2cda 31be 72e5 aabd d2d9 bf3c
00000020: 858c 8f3d b71c 853d 9a09 2e3e 1830 763e
00000030: 09c1 ac3d b03f e33d 3bf9 7d3e 7e3b 3ebe
00000040: 8b4f e0bd 5d58 70be d09f 37be b900 65bd
00000050: d710 0a3e f7c3 dabe 01f2 b3be 90e4 b5bd
00000060: 5016 633e 8626 00bd b748 31bf da24 203e
00000070: 94f7 383e d08b 8bbe d75f 3e3e 8254 4abe
00000080: 5d48 293d 3f6e f03d 4900 eabd 9374 5a3e
00000090: 22f6 903d 92f5 913e 80b7 7c3e 1632 2e3e
000000a0: 9d98 f8bd 269f 3b3e 5193 35be 7a1d 6b3e
000000b0: a422 ca3d 4dd3 f93d e064 dbbe d678 5d3e
000000c0: c3bb 083e 03f3 403e 02e1 3f3e c73c 1d3e
000000d0: eeb3 3ebf f157 943e c093 cf3d 67a8 8d3d
000000e0: 4598 83be 37d6 0cbe afbf 153e 6ed1 8fbe
000000f0: 8bb4 ffbd 7b69 583e 0b25 79be 7038 ee3d
00000100: 3a8d 35be a914 b6bc 2de7 11be 31e9 7f3d
00000110: 7df1 0a3e 4726 593d 28f8 5a3e 638f a13d
00000120: 54a1 d03d 8028 9abd 585e 723e 14ed 28be
00000130: 8b47 c4bd 9caa c3be 9b09 8fbd 4f59 b33d
00000140: af62 d6bd a143 803d 3110 e7be 8d97 393d
00000150: 5d4a c6bd 3c30 0c3e 223d e83d 080d 66be
00000160: d46f 7e3d be37 153d 0bde 71bd be74 9a3c
00000170: 99aa 113e fe9f 163c 2573 503e 046a c3bd
00000180: d988 88be 20aa cabe 53ed 4f3e 45a7 b6be
00000190: 743b 613e baa7 49bc e5f5 b3bc 3c51 1c3e
000001a0: 2a43 7cbe ff4e 893d 288a ed3d 453d 1b3e
000001b0: cf6b 4a3e 7f87 e0be 7f3a 64be 9d7d 1a3d
000001c0: c1a4 a43d 6cb3 343e 7db9 2fbe 207d 2cbe
000001d0: 72fc 5e3d cac9 623e 5896 95be 641b 0cbe
000001e0: 7d6d 4a3e fb2f de3c bc85 f33c e62b b23d
000001f0: f69f 52be 3a66 003e b935 e5ba 63ae fc3d
00000200: 5d62 c9bc 01b7 9ebd 7cb7 283c c357 9abe
00000210: 260a f7bc 7b0b e1bd 3eb7 243e 2aa8 e3bd
00000220: adb3 bbbb f4ac 82be 0376 0cbc 7aeb 16be
00000230: 0f2f 753d 0053 41bd b88e 5b3e c90b e0bd
00000240: 7a34 21be f465 4abc 61a4 703b 25c2 a2bd
00000250: 951f 5a3d b97a 8bbd 550f f1bd 55fa e53d
00000260: 9f28 e1bd 87bd 51bd b25c 9bbd 0f26 d6bd
00000270: bb74 5ebd 05dd 85bd 3f6d 3e3d a511 33bd
00000280: 0d9b d9bd 79e8 113e 6d2f 633b 0c64 b03d
00000290: 2790 b9bc 4e62 85be 155e 92bd 3a42 b23c
000002a0: 8b20 3bbd 3c49 913e f73b 7bbe c45a 05be
000002b0: 7b29 9dbd 2591 263d fe5f 193c 8801 9bbc
000002c0: c79a 853d bf41 cb3d 5069 353c 29a8 b53d
000002d0: 5cfa bfbc c8d7 35be ef42 45be c540 c6be
000002e0: 70e8 363d cc00 133e d4ef babc 0c76 703d
000002f0: c5b3 153e ef2c c6bd b188 5ebd b75a fcbe
00000300: 2a78 763c c2e7 56bf ceb4 b6bd 4a8b 3c3d
00000310: 38b2 07bd 5cc1 dbbd ed6a 41be a695 dcbc
00000320: 5211 263e 0528 523d 021e 9b3d 162b 7bbc
00000330: 4a93 36be 8e4d 5ebc 197f 063e 8200 bf3d
00000340: 80f5 d1bd cd2f 443e 3a5a 12be 19c4 71be
00000350: 0020 67be 17ae 22be c270 18bd 2dd0 833c
00000360: 2cc3 91bc 2997 f73a 5589 24bf 68a7 24be
00000370: 8e4b a1be 3152 efbd d972 2cbd cc8f 0bbe
00000380: 417f 50bd b590 14be 085c a7be dafd b9bd
00000390: 04f1 f0bd 7f2e 853d 6b50 1a3e cb38 ebbd
000003a0: ead2 e1bd 2d6e 8bbd 6327 d1be 98f1 dd3c
000003b0: b6a8 83be d3ce 2fbe c00d c63d 4f75 8b3c
000003c0: b580 a9bd 0ba2 9dbb 93bb 31be 41af 93bc
000003d0: 4ced 11be 8fdb 063e 484a aebe 5a6f d4bd
000003e0: 8fd6 123d 3a50 e3be 1447 bebe 6187 163d
000003f0: 43ec d33d 4d7a debd 0c79 47be 1c62 4cbe
-0.50961906 -0.07756591 0.13743554 0.067575596 -0.18531889 -0.17368382 -0.083445445 0.023419295
0.07009224 0.064996175 0.1699585 0.24041784 0.08435256 0.11096132 0.24802105 -0.18577382
-0.109526716 -0.23471208 -0.17932057 -0.055908892 0.13482986 -0.42727634 -0.35145572 -0.088814855
0.2217648 -0.03128674 -0.6925158 0.15639058 0.18063194 -0.27255106 0.18591247 -0.197588
0.041328777 0.11739778 -0.11425836 0.21333532 0.07078196 0.28507668 0.24679375 0.17011294
-0.12138484 0.18322429 -0.17731978 0.22960463 0.098698884 0.121985056 -0.428504 0.21628127
0.13352875 0.18842702 0.18738177 0.15355216 -0.744933 0.28973344 0.10135603 0.06916886
-0.2570211 -0.13753591 0.14623903 -0.2808947 -0.12485608 0.21133988 -0.24330537 0.11631858
-0.17729655 -0.022226648 -0.14248343 0.062478248 0.13568683 0.05301502 0.21383727 0.07888677
0.10187021 -0.07527256 0.23668802 -0.16496688 -0.09583958 -0.38216102 -0.06984254 0.08757269
-0.10468041 0.06262899 -0.4512954 0.045310546 -0.096821524 0.13690275 0.11339785 -0.22465909
0.062118366 0.036430113 -0.059049647 0.018854495 0.14225234 0.009193419 0.20356424 -0.09541705
-0.26666906 -0.3958292 0.20305376 -0.35674492 0.21995336 -0.012308056 -0.021967838 0.15265363
-0.24634996 0.067045204 0.11598617 0.15160091 0.19767688 -0.43853375 -0.2228794 0.03771745
0.08039237 0.17646569 -0.17160602 -0.16844606 0.05443997 0.22147289 -0.29216266 -0.13682324
0.19768329 0.027122488 0.029726855 0.08699779 -0.20568833 0.12538996 -0.0017487324 0.12337949
-0.024583036 -0.07749749 0.010297652 -0.30145082 -0.030156206 -0.10988518 0.16085526 -0.11116059
-0.005728206 -0.25522578 -0.008573058 -0.14738265 0.05985933 -0.047198296 0.21441162 -0.10939748
-0.15742674 -0.012353409 0.0036719071 -0.079471864 0.053252775 -0.06810517 -0.117705025 0.11229388
-0.10994076 -0.051206138 -0.075860396 -0.10456478 -0.05431054 -0.06536297 0.046490904 -0.043718
-0.10625277 0.14248838 0.003466572 0.086128324 -0.022651745 -0.26051563 -0.07146851 0.021760095
-0.045685332 0.28376186 -0.24534594 -0.13022906 -0.076739274 0.040665764 0.009361265 -0.018921629
0.06523662 0.099246494 0.011072472 0.08869965 -0.02343481 -0.17758095 -0.19263814 -0.3872129
0.044655263 0.14355773 -0.022819437 0.05870633 0.14619358 -0.09676539 -0.054329578 -0.4928796
0.015043298 -0.83947384 -0.089212045 0.046031274 -0.033128947 -0.1073024 -0.18888445 -0.026926827
0.16217545 0.051307697 0.07574083 -0.015330097 -0.17829624 -0.013568295 0.13134421 0.09326269
-0.102519035 0.1915886 -0.14292231 -0.23609962 -0.22570801 -0.15886723 -0.03721691 0.016090477
-0.01779326 0.0018889654 -0.6427205 -0.16079485 -0.31502956 -0.11685599 -0.042101715 -0.13629073
-0.05090261 -0.14508326 -0.32687402 -0.090816215 -0.1176472 0.06503009 0.1506974 -0.11485442
-0.11026557 -0.06808124 -0.40850362 0.02709274 -0.25714654 -0.17168741 0.09670591 0.01702371
-0.08276502 -0.004810577 -0.1735671 -0.018027904 -0.14250678 0.13169692 -0.34041047 -0.10372801
0.03584915 -0.44397146 -0.37163603 0.0367502 0.10347798 -0.10863171 -0.1947977 -0.19959301

linear3.bias f4 [64]
00000000: bfb5 263f 201a e93d e65b 703e 60e9 a33d
00000010: 4a52 fa3e e05e 853d 27ae 843d bfdc 143e
00000020: 5b5b ddbd a346 3e3e 37df 333e 0925 2abe
00000030: 978a 843d f13b f73d 4ed6 fd3d fcc5 0c3e
00000040: 2e71 0d3a 80a9 cfbd 6400 c33e 27f8 8f3c
00000050: be7c 933e 2d24 9dbe e478 d1bc f378 d43d
00000060: b328 b73c c125 cd3e 5cd4 64be 293b 37be
00000070: d093 203f 794a c0bd 60b8 ea3e d074 2b3d
00000080: e78a 04be afe4 9c3c 4675 8fbe 5f80 983d
00000090: 0e61 67bc 5000 d6bc ece2 9a3e 735d 083f
000000a0: e46a 8f3d 017d 2c3e 7e9b a0bd 66b6 0ebe
000000b0: e415 0e3e a1ea c03d aba1 9a3d d9b4 9b3e
000000c0: 5c5c debd a0a6 043f 3a15 9f3e f4ed aabb
000000d0: 89bb e33e 0898 e5bd 27cd 263e 484a 00bc
000000e0: 288f 7a3d 7f34 d0bd dd24 0fbe becd e1bd
000000f0: 3f6d bc3d 2aae 0c3f 2a1b 263f a4ff d7bd
0.6512107 0.11381936 0.23472556 0.08003497 0.48890907 0.065122366 0.064785294 0.14537333
-0.1080844 0.18581633 0.17565618 -0.1661569 0.064717464 0.1207198 0.12394391 0.137474
0.0005395588 -0.101397514 0.38086236 0.017574383 0.28806108 -0.30691662 -0.02557034 0.10374632
0.022358274 0.40067866 -0.22346634 -0.17893662 0.62725544 -0.093892045 0.45843792 0.041859448
-0.12943612 0.019152014 -0.2801916 0.0744636 -0.014122261 -0.026123196 0.30251253 0.5326759
0.0700281 0.1684456 -0.07842158 -0.13936767 0.13875538 0.09419752 0.07550367 0.30411413
-0.1085746 0.5181675 0.31070882 -0.0052163545 0.44479015 -0.11210638 0.16289197 -0.00783021
0.06117168 -0.10166263 -0.13978906 -0.1102557 0.092005245 0.54953253 0.648852 -0.105468065

output.weight f4 [1, 64]
00000000: 4288 483e 5ea8 da3d ca66 153e 48d8 453d
00000010: 021e 963d 0f70 9d3e 8567 7f3e 90ac 0b3e
00000020: ab0e 4bbe e1e1 343e 4903 643d ffb3 a5be
00000030: d86b fcbd 2798 3d3d 62c7 ef3d a53f 143e
00000040: ab21 8e3d 883e 5dbe 757f 773e d524 f4bd
00000050: 2833 743e bee3 8fbe 48d4 1ebe d318 a0be
00000060: f3a9 23be 0a3f 4e3e c842 5dbd cdc7 efbd
00000070: a52e fc3d 656f 94be aac6 e83d 04dc 3b3e
00000080: b5a6 19be f914 08be 6d5a 87be 69a2 503e
00000090: b0da fabd 8e9f 00be 0be0 a33e 5d44 6a3e
000000a0: 0c11 49be 4081 0a3e a00b 01bf 18f8 0bbe
000000b0: 20d0 473e 9e78 373e 2e84 d9bd 555e a13e
000000c0: 01ac eebe f594 c43d 7871 963e 6f3e bdbe
000000d0: 3fb9 d13e 9a47 e0bd 28ed da3e a2ca 24be
000000e0: 26ff c73d 6d33 a2be aa51 2ebe 56ab 2ebe
000000f0: 4d7c 53be cb79 2c3e bb44 6b3e f4e8 cdbe
0.19583228 0.10676645 0.14589992 0.048301965 0.07329942 0.30749556 0.24941833 0.13640046
-0.19829814 0.17664291 0.055667195 -0.3236389 -0.12325257 0.046287682 0.11707951 0.14477403
0.069400154 -0.21605885 0.24169715 -0.11921088 0.2384764 -0.2810344 -0.15510666 -0.3126894
-0.15982799 0.20141235 -0.054018766 -0.11708031 0.12313584 -0.28991237 0.11366017 0.18345648
-0.15005 -0.1328925 -0.26436177 0.20374455 -0.122487426 -0.12560865 0.3200687 0.22877641
-0.19635409 0.13525867 -0.50408363 -0.13668859 0.19512987 0.17917106 -0.106209144 0.31517282
-0.46615604 0.09598724 0.29383445 -0.36961696 0.40961644 -0.10951157 0.4275906 -0.16092923
0.097654626 -0.3167986 -0.1702334 -0.17057547 -0.20652886 0.16843335 0.22975437 -0.40216792

linear1.weight f4 [128, 34]
00000000: 5b72 973e 27a0 e73e b51e 28bd 4a19 9cbe
00000010: f76b a83e 1c5a 1e3e a281 8fbe fad0 3ebe
00000020: 2f58 713e 9fdb 693e ad63 07be c036 9ebd
00000030: 6cc6 903e 3b3f 1e3e daeb 343e d338 193f
00000040: eabb 4a3e f79d 123d 4153 8d3e 30cd 67bd
00000050: 62fb df3d 666e 85be 1b56 90bd e3c5 9f3c
00000060: 9960 40bd 81e7 eabd 48a1 24be 6881 463e
00000070: 1dd1 e8bd 70b4 913e 13f4 d63d 99e2 093e
00000080: 554c 07be e74a 66bd d1fe fd3e 15ed f73e
00000090: e3b7 aa3e fed0 853e 233c 383e e8fd 2a3e
000000a0: 0cb8 8fbe cf51 353e 1a24 46bc fdd4 9b3d
000000b0: f2db c73e b935 c23d bdfc f93d 9643 203e
000000c0: 03dc 433d f860 d63d a00b fabc 39f1 cfbd
000000d0: 94d0 d7bc 4af6 44be dd97 49be 6bc1 f23d
000000e0: c34e 393d 4ae4 58bd 9e74 9abd 5a51 22be
000000f0: 02c1 783d 2f5a 153e 5b7e b53d a995 633e
00000100: f3d2 55be 09b3 653d ba62 95be 92b9 82bd
00000110: 824b 113f cddf f03e 759c f53e bce6 323e
00000120: 16f1 843d 4846 873e 3d64 f6bc 9406 b7bb
00000130: b3fc 5ebc 46f6 2e3e d5ae 65be 870f 283e
00000140: de3f 103e 87f6 b3bd e77a 1ebd 06ac a73d
00000150: c5e9 3c3e 32a4 2ebd 27ad 81be 3d16 ffbc
00000160: 1289 0fbd 5230 013d d5df 603b e346 6ebd
00000170: 000e a43d e113 123e 524a 2dbe 6167 03bf
00000180: a5f8 293d 7314 be3e 4bc7 f7be d50a ba39
00000190: 4158 aebe 70ec 69bd 0570 d93d a642 1c3e
000001a0: feac 3ebd 91d8 ecbd f8df a5be 92ac 8a3d
000001b0: 94e5 d3bd bfbf 133c 4195 f13a 6284 babe
000001c0: 7d86 b6be b2e2 1bbe 7bf5 e9be 5b04 b93b
000001d0: a744 bfbd 39ce edbd 6c59 59be a872 9b3e
000001e0: f096 28be 441f 2e3e 513b ee3d d492 73bd
000001f0: fca8 f8bd 855c 283c dd01 1a3e 122a ee3d
00000200: d285 b7be 6201 16bf 9c2b 363d 0f44 163e
00000210: 3724 0f3c 5763 d1bc f312 ce3d bfd7 46be
00000220: 99f9 5abe 42fd fabd 0a22 39be 2cfc 91be
00000230: 4b04 ebbd f616 55bd 5388 89be ecf2 11be
00000240: a363 353d 7d6f 1cbe 2f6c 94be bf98 9fbd
00000250: 8797 01bf 9fd5 d63c 8c22 eabd 4e82 e5bd
00000260: c8f9 6bbb f624 0ebd 58f0 b2be e59e 63be
00000270: 2441 bf3c 00aa 433e 1689 5a3e 64a0 2a3e
00000280: a624 5cbb 8fff 27be a513 2ebf f911 583e
00000290: dea8 863e 63ac 6cbe d43b edbd 7b54 d7bd
000002a0: f031 5b3d e50b c33d 93e8 443c e1c0 f93d
000002b0: 7cd6 ce3e 02b0 55be 3676 d5be 9927 a33e
000002c0: 1795 f33e cf97 993e cf0c c53e 4659 f4bd
000002d0: 1070 0e3f 004c 0fbe 2e39 2b3e 731b 0abf
000002e0: 543a a63e 8c18 d5bb f37e 34bc 1dfc 4c3e
000002f0: e234 4bbe 6267 f9bd 5161 38be c905 0abe
00000300: fdd4 af3d c6bb a53c bf0c 03be 873e 113e
00000310: ac41 d53e 56be 073f e0c0 fdbe a5a6 82bd
00000320: d1b1 94bd 1043 95be ab3b ca3d 56ef 0d3d
00000330: e439 de3e dc89 a93e f897 c13e 9442 37be
00000340: 951e 44be fbd8 80be a7ea a8bd 8dd8 0e3d
00000350: 36fe 2a3e 5020 233d 0620 f7bd 1b1f 5b3b
00000360: a4d2 0fbe 8f5d d53d 1766 14bb 784f 4b3d
00000370: b327 02bd 5ebc 123e cddd 593e 6314 3c3e
00000380: 5957 223e b54a e73d ddb5 d33c f117 f63d
00000390: 74fc 7bbe 563b 1bbe 93eb d53e 0e43 8e3e
000003a0: e34b 9abc 0f3b 7c3e eaa5 c63d 4f0f d2bd
000003b0: c8ee 35be 0fba 1f3d 9fcf 8e3d c5f3 90be
000003c0: 4338 4fbd 47a8 503e f56a 693e 197b 71bd
000003d0: 0a0b 1f3f 9288 8e3e 91e2 453f 39c4 163f
000003e0: 7e93 ac3e 0335 7b3e 6d5a 963e 188f 553e
000003f0: 5368 893e 0ee5 be3e 502f ba3d 4b70 863e
0.29579434 0.45239374 -0.04104491 -0.30488044 0.3289487 0.15464061 -0.2802859 -0.18634406
0.23568796 0.22837685 -0.13221617 -0.077252865 0.28276384 0.15453808 0.17668095 0.5985233
0.19798246 0.03579518 0.2760258 -0.056592166 0.10936619 -0.2606079 -0.07047673 0.01950354
-0.046967123 -0.11469937 -0.16077149 0.19385302 -0.1136801 0.28457975 0.10495772 0.13465346
-0.13212712 -0.056223776 0.49608472 0.48423067 0.3334342 0.2613601 0.1799169 0.1669842
-0.28070104 0.17706989 -0.012093568 0.07608984 0.39034992 0.09482903 0.12206409 0.15650782
0.04781724 0.10467714 -0.030523121 -0.101534314 -0.026344575 -0.19234577 -0.19686837 0.11853298
0.04524113 -0.05295209 -0.07541774 -0.15851346 0.06073094 0.14585184 0.08861991 0.2222506
-0.20881252 0.056078944 -0.29176885 -0.06383051 0.5675584 0.47045746 0.4797093 0.1747083
0.06491296 0.26420808 -0.030077094 -0.005585501 -0.013610053 0.17086133 -0.22429974 0.16412173
0.14086863 -0.08787256 -0.038691428 0.08187108 0.18448551 -0.042637058 -0.25327417 -0.031138534
-0.03504283 0.031540222 0.0034313102 -0.05817307 0.08010483 0.14265396 -0.16922882 -0.5132962
0.04149689 0.37124977 -0.48394236 0.00035484755 -0.34051707 -0.05711025 0.10617069 0.152598
-0.046551697 -0.11564744 -0.32397437 0.067711964 -0.10346523 0.009017884 0.0018431322 -0.36429125
-0.3564948 -0.15223196 -0.456951 0.005646271 -0.09339266 -0.116115995 -0.21225518 0.30360913
-0.16463828 0.17004114 0.116324075 -0.059466198 -0.12141606 0.010275965 0.15039773 0.11629118
-0.35844284 -0.5859586 0.044475183 0.146744 0.008736662 -0.025560064 0.10062208 -0.19418238
-0.21384276 -0.12255336 -0.18079391 -0.28512704 -0.11475428 -0.05202385 -0.2686182 -0.14252824
0.044284474 -0.15276904 -0.28988788 -0.07792806 -0.5062184 0.02622491 -0.114323705 -0.11206494
-0.0036007036 -0.034703217 -0.34948993 -0.22228582 0.023346491 0.19107819 0.21341357 0.16662747
-0.003359118 -0.16406082 -0.67998725 0.21100606 0.2630071 -0.23112635 -0.11583677 -0.1051416
0.05351442 0.09523753 0.012018341 0.12194992 0.40398014 -0.20867923 -0.4169175 0.31866148
0.47574684 0.29998633 0.38486335 -0.1193109 0.55639744 -0.13993835 0.16721031 -0.53948134
0.32466376 -0.0065031704 -0.011016595 0.20018049 -0.19844392 -0.12177922 -0.18005873 -0.1347877
0.08585546 0.020231139 -0.12797831 0.14184009 0.41651666 0.53024805 -0.49561214 -0.06379441
-0.07260478 -0.29152727 0.09874662 0.034652077 0.43403542 0.3311299 0.37811255 -0.17896491
-0.19152291 -0.25165543 -0.082478814 0.034874488 0.16698536 0.039825737 -0.12066655 0.0033435288
-0.14045197 0.104182355 -0.0022643858 0.049636334 -0.03177614 0.14329669 0.21276017 0.18367152
0.15853633 0.11293546 0.025843555 0.12016285 -0.24608022 -0.15159354 0.4178129 0.27785534
-0.018835014 0.24631904 0.09699614 -0.10256826 -0.17766869 0.0389958 0.06973194 -0.2831098
-0.050590765 0.20376693 0.22794707 -0.058955286 0.6212622 0.2783857 0.7729884 0.5889316
0.33706278 0.24531941 0.29365864 0.20855367 0.26837406 0.3728413 0.090910554 0.26257548

linear1.bias f4 [128]
00000000: 260b 673e 33ee b03c f437 06be 92f1 563e
00000010: b439 8ebe ba54 b23d 86cb 583e ba71 d83e
00000020: 55f1 80be d689 f43e d8f1 02be 6088 96bd
00000030: d5a8 34be 58ce 573e 7538 9e3d f201 993d
00000040: bd75 c43c e8c0 17be a838 abba 6653 963e
00000050: 3524 50be 73db 4b3e a20a 67be c192 30be
00000060: 7e16 813e 4bae 0a3d d838 553e 0c53 7a3e
00000070: 321a d73e 95be bfbc abe3 3cbe 83e0 afbe
00000080: f200 53bd 6d5b 2a3d 5ca8 9b3e db4e 573e
00000090: df1a 7fbe 949b 003f aae6 d4be 7820 853e
000000a0: f788 14bd fce4 4abd 3b31 afbe a570 f73e
000000b0: c0c6 793e 45d0 7bbb eb13 6bbe fd1e 063f
000000c0: a331 22bd 8243 afbd e952 4c3e aab6 bfbd
000000d0: 5c1f 8c3e ecf0 98be a435 4b3e 92bb 4b3e
000000e0: bdcc 47be 056a 713e 78bb 3abe 599b c83e
000000f0: 4042 3d3e ffdf 193e 22a5 363e 9f30 1d3c
00000100: 4839 df3d 30ba 483e 2ca8 d1bd 93c9 4e3e
00000110: 9ffc 233e 2b96 c73d f8a9 8ebd 5ddc 6e3e
00000120: 5dd9 7c3e bd5a 8b3d e49e 103e e377 833e
00000130: 8e63 443e 4a2b 04be 05b2 513e 01a4 9bbd
00000140: 06f0 363e 1d16 ecbd 9403 563e ec57 f83c
00000150: 417f f3bd 333e 773d 18f4 04bd c299 7a3e
00000160: a6cb 37be 394f 983e b879 21be b166 d73e
00000170: 63c5 52be 443a 70bd 8046 5fbe 28c7 85bd
00000180: 6e54 033e 609d a6bd ba1e cf3e 7a0b 7b3e
00000190: 7db7 cf3e 5afd 46be 3ad4 cb3d c68d 11be
000001a0: 780c d83d 19a8 803e 4804 0cbe b6c9 233d
000001b0: af58 bcbb 45ac 033e a818 10be eb8c bd3e
000001c0: a847 973e 9422 94bd b1f9 d63e 4190 8a3c
000001d0: 6105 373d dda0 6c3e 83ed 333d 9852 483e
000001e0: aaf3 d5bd bbeb 343e cb76 a2ba a6f5 d33d
000001f0: 5b6e 913e 314c 9b3e 5884 70bd 66b4 153e
0.22562847 0.021597957 -0.13107282 0.2099059 -0.277784 0.087075666 0.21171388 0.42274266
-0.25184122 0.4776141 -0.12787569 -0.0735023 -0.1764253 0.21074808 0.07725612 0.07471074
0.023981923 -0.14819682 -0.001306315 0.29360503 -0.20326312 0.19907932 -0.2256265 -0.17243482
0.25212473 0.033857625 0.20822465 0.24445742 0.42012173 -0.023406306 -0.18446223 -0.34350976
-0.051514573 0.041591097 0.30401886 0.21026175 -0.24912594 0.50237393 -0.41582233 0.26001334
-0.036263432 -0.049534783 -0.34217247 0.48328128 0.24392223 -0.00384237 -0.22956817 0.52391034
-0.03959812 -0.08557798 0.19953503 -0.09361012 0.27367675 -0.2987131 0.19844681 0.19895771
-0.19511695 0.235756 -0.18235576 0.3918102 0.18482304 0.15026854 0.1783643 0.009594112
0.108995974 0.19602275 -0.10237154 0.20194082 0.16014336 0.09745439 -0.06966013 0.2332625
0.24692293 0.06804416 0.14123112 0.25677404 0.19178602 -0.12907138 0.20478065 -0.07599641
0.17864999 -0.11527655 0.20899802 0.030315362 -0.11889506 0.060362052 -0.03245935 0.24472716
-0.1794878 0.29747942 -0.15769088 0.42070535 -0.2058311 -0.058649316 -0.21804237 -0.06532127
0.12825176 -0.08135486 0.4045313 0.24516097 0.40569678 -0.19432583 0.099525884 -0.14214239
0.10549253 0.25128248 -0.13673508 0.03998729 -0.0057478766 0.12858684 -0.14071906 0.37021574
0.29546857 -0.07233158 0.41987374 0.016914489 0.044682864 0.2310824 0.04392768 0.19562757
-0.10446866 0.17668049 -0.0012395022 0.10349588 0.28404507 0.30331567 -0.058719963 0.14619598

linear2.weight f4 [128, 128]
00000000: 731b 25be ea41 55bd 1a70 99bc 6abb 523d
00000010: f771 3d3e 7ae0 8b3e 1fad e13d 5dc7 9dbe
00000020: 6c1c 863d 4d9d 8b3d 7c84 9a3e 8066 a7be
00000030: 0a96 85bb 962d 35be c108 5fbe 229c a8bc
00000040: 5110 3a3e cb1d 50bd 1173 59be 9ec5 c73d
00000050: fd53 10be 0f55 08be 38ea 0cbf dd5f a0be
00000060: 9a8f 8a3e cb37 9c3e 7dc7 223b 97aa 7b3d
00000070: c3e0 253d a352 333d 0317 853c d0ab a6be
00000080: fe60 3cbe 3a45 14bf cc3c 4ebd c232 efbc
00000090: 204c 063f ced0 d93d 9a0c 623d 2fb8 8e3e
000000a0: 13b5 10bd c3ea 803e 6263 093b 1191 a13d
000000b0: 9a13 87bd 51e1 abbb 04fa 46be 1236 a4bd
000000c0: 3b72 7cbe cc42 7b3d 3d65 14bc aebb b3bd
000000d0: e829 41be 385f 90be fa2e a33e db28 6a3c
000000e0: f0e2 42be 3d1e 843e 2b76 81be c2bf b43e
000000f0: 03b8 e93e 13d9 cb3d af63 d6be a2e0 5bbd
00000100: 6c7a 063c 69c8 2bbd 913a 43be 985a 3c3e
00000110: d4f7 b53c a835 743c 84ba a1be 6cbf 10be
00000120: dcf4 f4bc 40b4 4ebe 9ea2 9f3e 2874 32be
00000130: d8d3 d7bd 33ad ac3d 586b 2abc 359b acbe
00000140: 3b4a f43d 0504 9cbe 8607 5c3e 395c b4bd
00000150: 4455 d43d 0a6e 99be 7285 833b a522 373e
00000160: 2bd1 103e d0e2 c73c 3dce 9fbd f0fc 48be
00000170: b96a 393d a66f 3d3e 96f3 6d3d 6b62 df3d
00000180: ac0a dbbd 8834 0fbf e32b ff3d b34a 8d3d
00000190: 1ff8 9d3d 025f 18bd 52e3 8bbd 7252 233e
000001a0: 74db bfbc 927d c03e b031 5cbe 4096 d5be
000001b0: f378 cfbc 9a40 95be fb5d 583e eb30 9dbe
000001c0: 8f4c d83d 2a49 f73d d365 8d3d 99ab 693e
000001d0: 7dd6 e93d cff7 b7be d813 c73c b472 d7bd
000001e0: 25ee 4abe 1b2a cd3d 69e0 bfbe dabd b8be
000001f0: 1f37 b53c 4aaf 8c3e 6b8c ab3d f98d ed3d
00000200: cf71 6a3c eb26 eb3d 47fa bb3e 9968 bc3d
00000210: 18d5 95be ae0a a23c f31c e23d c98d 16be
00000220: 93fa 7a3d bcc3 283d df8c bdbe c993 04bd
00000230: 4d95 4abe 692e 1abe 09a6 bdbd b490 d5bc
00000240: 9ab7 003e 16a6 d5bd 82c5 5c3d 2a65 f9bd
00000250: acd7 a9bd 9c6f 9f3a 6c5c 95be d742 52be
00000260: 0ce0 f5bd 6ca7 1e3e 8cdf 483e 1aad da3c
00000270: 059f fd3d 2e86 2d3d ae08 71be eaf5 27be
00000280: deb7 e63d 4a33 c63d b713 dd3b e7d1 313e
00000290: a83a f6bb 9afe 2d3d 7f12 05be 82e1 413d
000002a0: 2aad 82be f199 83bd 5b7d a9bd 7d58 0cbe
000002b0: 5405 61bb bb2f 853d 6dc7 2cbe 0d22 b13c
000002c0: e543 00be 7afd e0bd 0d8b a2be dbaf 8b3d
000002d0: e660 493d 4507 63bc f25d 30bd 1654 1a3d
000002e0: dda5 bcbd fe7f bebe de98 9bbd 118a 95bd
000002f0: 0f81 6e3d 2fce 29bd f377 10bd 9780 ac3d
00000300: 6e25 8abc e0bc 58bd daae d7be 4b53 ae3d
00000310: c7aa 203e 94da 2d3d baa3 163c ac13 9fbd
00000320: 79a9 75bd ce2e 823c 116d bdbe c04f 77be
00000330: 32be 4c3e 16c2 143e 9405 bb3d 4e80 22be
00000340: cddd 853d 0b9e dbbd c971 e83d d68c 813e
00000350: 3078 76be 33f4 e43e a78c 843d 11ae 40be
00000360: 092d 26be 39bb 313e e72b 91be b793 0fbc
00000370: af21 0abd 50ef 9eba 17b2 bf3d 5c38 24be
00000380: 17f5 0dbd fd50 b1be 59c1 343e efc6 f13d
00000390: 0737 293e 8c60 87bc 256b 48bd 7ca4 78bc
000003a0: 304f ddbd 539b 573d 1148 ed3c 008c e23c
000003b0: 2a6f fb3d 2fd5 1c3e d32d b2bc f59f 57be
000003c0: b012 9abe 79fc 053e 27bc fbbc 9513 173e
000003d0: 80d4 173e 5dc5 b0be b74c 6d3d ae08 aabe
000003e0: 19b1 3ebe 85c8 9fbd 7b1b dcbe 9df2 2a3e
000003f0: 8197 1a3e 2ff4 7fbd 5b1f 373e 1561 25be
-0.16123752 -0.052064814 -0.018730212 0.051448263 0.18500505 0.273197 0.11019348 -0.30816165
0.0654839 0.06817112 0.30179203 -0.3269539 -0.004076724 -0.17693171 -0.21780683 -0.020582262
0.18170287 -0.050809663 -0.212353 0.09754489 -0.14094539 -0.13313697 -0.5504489 -0.31323138
0.27062684 0.30511317 0.0024838143 0.061441984 0.040497553 0.04377998 0.016246324 -0.32552958
-0.18396375 -0.5791813 -0.05035095 -0.029199008 0.5245991 0.106355295 0.0551878 0.27874896
-0.035328936 0.2517911 0.0020963778 0.07888997 -0.065955356 -0.0052453657 -0.19431311 -0.080181256
-0.2465295 0.061343 -0.00905734 -0.087760314 -0.18863642 -0.28197646 0.31871778 0.014291967
-0.19031882 0.2580432 -0.25285468 0.3530255 0.45648202 0.09953513 -0.41872928 -0.053681023
0.008207899 -0.041939173 -0.1906531 0.18393934 0.0222129 0.014905371 -0.31587613 -0.14135522
-0.029901914 -0.20185947 0.31178755 -0.17427123 -0.10538453 0.08431473 -0.010401569 -0.33712164
0.11928221 -0.30471817 0.21487245 -0.088066526 0.103678256 -0.29966766 0.0040137107 0.1788431
0.14142291 0.024400145 -0.07803009 -0.19627738 0.045267794 0.18499622 0.05809363 0.109074436
-0.10695395 -0.5593953 0.124595426 0.06899013 0.07713341 -0.03719998 -0.06830467 0.15949419
-0.023420073 0.37595803 -0.2150333 -0.41716194 -0.025326228 -0.2915085 0.211296 -0.30701384
0.105614774 0.12074502 0.06904187 0.22819366 0.114178635 -0.3593125 0.024301454 -0.10519925
-0.19817407 0.100177966 -0.374759 -0.36082345 0.02212101 0.27477485 0.08376392 0.11599345
0.014309361 0.114820324 0.36714384 0.09199638 -0.2926414 0.019780483 0.11040678 -0.14702524
0.061274122 0.04120229 -0.3702154 -0.0323675 -0.19783516 -0.15056767 -0.09260184 -0.026069976
0.12570038 -0.10432069 0.053899296 -0.12177499 -0.08293089 0.0012164 -0.29172075 -0.2053331
-0.12005624 0.15493554 0.19616526 0.02669387 0.12383846 0.04236429 -0.23538467 -0.16402403
0.11265539 0.09677751 0.006746735 0.17365228 -0.0075143166 0.042479135 -0.12995337 0.0473342
-0.2552274 -0.06425846 -0.08275863 -0.1370563 -0.0034335451 0.065032445 -0.1687295 0.021622682
-0.125259 -0.10985847 -0.31746712 0.06820651 0.049164675 -0.013856714 -0.043058343 0.037677847
-0.092113234 -0.37207025 -0.075975165 -0.07301725 0.05822855 -0.041456398 -0.035270642 0.08422964
-0.016863551 -0.0529145 -0.4212559 0.085119806 0.15690146 0.04244478 0.009194309 -0.07767424
-0.059976075 0.015891459 -0.36997274 -0.24151516 0.19994429 0.14527163 0.09131923 -0.15869257
0.06536446 -0.10723504 0.11349828 0.25302762 -0.24069285 0.4471756 0.0647214 -0.18816401
-0.16228117 0.17356576 -0.28353807 -0.008763245 -0.03372353 -0.0012125764 0.0936014 -0.16037124
-0.034657564 -0.34632102 0.17651881 0.11805522 0.16524898 -0.01652553 -0.048930306 -0.015175935
-0.108061194 0.052638363 0.028965028 0.027654648 0.12277062 0.15315698 -0.021750366 -0.21057113
-0.30092382 0.13084592 -0.030729366 0.14753564 0.14827156 -0.34525576 0.05793449 -0.33209747
-0.18622245 -0.07801918 -0.42989716 0.16694112 0.15096857 -0.06248873 0.17883055 -0.16150315

linear2.bias f4 [128]
00000000: eb47 a9bd ed12 4abe 7c49 f03d ad94 663e
00000010: 5604 d2be 9e53 3ebe e91c 873d 2101 593e
00000020: 740b 26be 94e6 963e 9ffc be3e 6101 003f
00000030: cb19 a53e 9259 de3e defd 033e c290 4cbe
00000040: 0f11 84be 223e 52bc fd75 b5be 524d ebbd
00000050: 2e37 543c 141d 6dbe b1ea 49bd 67f4 63be
00000060: a637 b43d 1b75 833b 6a91 13be 72b8 bd3e
00000070: 5323 0cbd 9379 3fbd 7d09 ae3e cfae b0bd
00000080: 2b33 c83e 81ef ddbc 50f9 95be 1860 4a3b
00000090: 8bd1 c73e e3d4 bb3e 7e99 5b3c 6553 873d
000000a0: abc7 b23d 8488 dbbc 259c 88be 3207 9b3e
000000b0: 2974 093f 26eb d83e 5b53 80bd eaae be3d
000000c0: a847 093e 7539 0d3f 8a8f 12bd 7632 af3e
000000d0: 73d8 b23a 9bea b93d c5c5 543e 504f cb3e
000000e0: 3a60 84bd 84d2 80bb 32bb b43e 4795 893d
000000f0: c0d5 dcbc 1877 f83d 00cf 2abb 2632 843e
00000100: d139 3fbe 9b74 8e3e 97e5 39be 789f 5e3e
00000110: d66b a83e 87c8 b8bd 544d d13d b245 9a3e
00000120: 0955 cfbc 0c7e e0bd 789f 8b3e 564d 30be
00000130: 0b46 37be 2a7a 54be 0d8d c43c 11dd a63e
00000140: 533b d0bd aa43 3fbe ac3b 94be 8182 bbbd
00000150: d6cf 6cbe 97a1 eb3e abea c03e c5ed acbe
00000160: 38e0 f9bd 9354 1f3e 1298 413d 470e f53e
00000170: 9ae1 ba3e 3ecf 5e3e 42ce d43d 5a02 f9bd
00000180: ea1d 42be 74e8 5ebd c892 9d3e 2783 80bd
00000190: 97b4 91bb 45cf d8bd 9712 49be 47bd 01bd
000001a0: 982d cdbe a350 473d 8af9 b73e db78 b43e
000001b0: 44f5 8f3e 4dba f3bd 7eb0 a63d 1cee a93c
000001c0: 2138 383d d4d6 663e c40c 97be b4c3 81be
000001d0: 867a e93e 43f3 473e 6b86 bdbd 3232 a9bd
000001e0: b6bb ae3d 07fb 163e 106f 3b3e 0d22 bf3e
000001f0: a053 43be 355c 873e 7ac9 a0bd fc5b 5a3e
-0.082656704 -0.19733782 0.11732766 0.22517653 -0.41018933 -0.18586585 0.06597311 0.21191837
-0.16215307 0.29472792 0.3730211 0.50002104 0.3224624 0.43427712 0.12889811 -0.19977096
-0.25794265 -0.012832196 -0.3544158 -0.11489357 0.012952609 -0.23155624 -0.049296085 -0.22261201
0.087996766 0.004011763 -0.1441094 0.37054783 -0.034213375 -0.0467468 0.33991614 -0.08627092
0.39101538 -0.027091743 -0.29291773 0.003088003 0.39027056 0.36685857 0.013403295 0.06607703
0.0872949 -0.026798494 -0.2668163 0.30278927 0.5369287 0.42366904 -0.06265899 0.09310706
0.13406241 0.551658 -0.03578142 0.34218186 0.0013644829 0.090779506 0.20778568 0.39708948
-0.06463666 -0.0039313454 0.3529907 0.067179255 -0.026957393 0.1213209 -0.0026063323 0.2581951
-0.18674399 0.27823338 -0.18153988 0.2174052 0.32894772 -0.090226226 0.10219827 0.30131298
-0.025309103 -0.109615415 0.27270103 -0.17217001 -0.17897813 -0.20749727 0.02399304 0.32590535
-0.10167565 -0.18678156 -0.28951776 -0.09155751 -0.23126158 0.4602172 0.37679037 -0.33775154
-0.122009695 0.15559606 0.047264166 0.47862455 0.36500245 0.21758744 0.10390903 -0.12158652
-0.18956724 -0.054420903 0.30776048 -0.06275015 -0.004446577 -0.105864085 -0.19635998 -0.03167465
-0.40073848 0.048660886 0.3593257 0.35248455 0.2811681 -0.119007684 0.08139132 0.020743422
0.044975404 0.22542888 -0.29501927 -0.25344622 0.4560129 0.1952639 -0.09254154 -0.08261527
0.08531897 0.14744197 0.18304086 0.37330666 -0.19074869 0.26437536 -0.078509286 0.21324152
