Data/Player1/checkpoint-regTest1.pth (torch, 517408 bytes, 20 tensors)

linear1.weight f4 [128, 34]
0.058564886 0.08768266 0.021124786 0.14399031 -0.034906197 0.18358871 -0.0380232 0.079885386
0.123217694 -0.025465595 0.069537945 0.022475451 0.08015644 0.021723771 0.0328089 0.15682307
0.061337043 0.1577359 0.122218765 -0.032106146 0.043988742 0.03489956 0.05154928 0.058497462
0.03460893 -0.08447267 0.06961151 -0.14662798 -0.47241628 -0.23070519 0.16922554 -0.13055706
0.108775124 0.15934521 -0.121700056 -0.1639922 -0.16004439 -0.09713029 0.10841159 -0.1642128
0.12364911 -0.34381044 -0.06537691 -0.0771168 -0.116286546 0.06784203 -0.14925241 -0.18869263
-0.048013367 0.0050880355 0.077460326 0.16590449 0.07678417 0.009582634 -0.08000272 0.034010965
0.113578215 0.09828427 0.096185245 0.0938227 -0.025057249 -0.23150876 0.27907866 0.030389903
-0.18905658 -0.0043448457 -0.30148166 -0.020594234 -0.11893763 -0.059756868 -0.16255082 -0.3574913
-0.20762284 -0.18152215 -0.28357315 -0.14729159 -0.36419237 -0.19866912 -0.12566207 -0.13137162
-0.15190563 -0.19191429 0.018589798 -0.20480011 -0.037057985 -0.10628214 -0.089038186 0.055031244
0.034042045 0.10015829 0.11417236 0.12991227 0.0026868274 -0.0020084167 0.12354035 -0.29297924
0.21828073 -0.017010504 0.055368457 -0.101898 0.17432533 0.13632333 0.02315579 0.023657182
0.013197857 0.047691047 0.11082403 -0.12261087 -0.032872688 -0.30634815 0.42485625 -0.05660656
0.33019698 0.13068381 0.012393741 -0.038272925 -0.052522123 1.0912509 0.06738917 0.06694309
0.008574122 -0.05780328 -0.018730013 0.024033776 0.029810753 -0.0049908776 -0.014401871 -0.07273078
-0.20230003 0.13981828 -0.2737294 0.13118792 -0.047632255 0.062093206 -0.0049176705 0.020313736
-0.04257001 0.025285453 -0.1235349 -0.15567762 -0.24660705 0.0004897626 -0.10627906 -0.16367528
-0.20866652 -0.3544604 -0.18721806 -0.18074624 0.017763544 0.14534082 0.1539526 0.13661617
-0.13206826 -0.07665834 0.26908198 0.39623085 0.06987146 0.11085486 0.099901825 0.054864008
0.25907418 0.0048732283 -0.4951165 -0.5659498 0.03331402 0.32147267 0.029784698 -0.2055298
0.2727889 -0.11451787 0.4690357 0.32384214 0.1719601 -0.2636342 -0.3220626 -0.08246109
0.107882775 -0.083630115 -0.4183558 -0.16133046 -0.15956667 -0.03484487 0.24854308 0.07812522
-0.16632889 -0.0139016565 -0.342405 -0.20363046 -0.08716841 0.00045469444 0.030513262 0.030024404
-0.081221 0.0034394888 -0.0792215 -0.025589304 0.059701927 0.2099452 0.08649738 0.20266226
0.004294185 -0.10647555 -0.090757325 0.03421059 0.13051693 0.22952667 0.04012292 -0.05724255
0.01521812 0.0883011 0.089607745 0.19992702 0.038431928 -0.09027402 0.12300685 0.15202135
-0.34455755 -0.005295498 0.26006046 0.041732922 0.07777428 0.06270077 0.015161361 -0.040617768
0.0711624 0.08043072 0.08103489 -0.07322666 0.089822024 0.041192338 0.075852305 -0.067046575
-0.8141251 0.04150655 0.008924692 -0.027170036 -0.04622575 0.045486726 -0.096380785 -0.4137793
-0.009262464 -0.12837966 0.0235063 0.07214355 0.007057307 0.00034400282 -0.018464014 -0.06507818
0.030418992 0.053094637 -0.033756677 0.004697125 0.033671677 -0.034471568 -0.029918171 0.12364618
00000000: bce1 6f3d f792 b33d e30d ad3c 3272 133e
00000010: cdf9 0ebd aefe 3b3e 37be 1bbd f39a a33d
00000020: 8f59 fc3d 399d d0bc e969 8e3d 701e b83c
00000030: 0f29 a43d 0df6 b13c a062 063d 3a96 203e
00000040: 8d3c 7b3d 8585 213e d54d fa3d bc81 03bd
00000050: 8a2d 343d d7f2 0e3d 5625 533d 099b 6f3d
00000060: 18c2 0d3d 0200 adbd 7b90 8e3d a525 16be
00000070: 8ce0 f1be fb3d 6cbe 7649 2d3e c0b0 05be
00000080: 7ec5 de3d 642b 233e e13d f9bd 92ed 27be
00000090: ade2 23be 3fec c6bd e506 de3d 6627 28be
000000a0: bf3b fd3d ec07 b0be 54e4 85bd 6aef 9dbd
000000b0: a427 eebd c3f0 8a3d a0d5 18be a438 41be
000000c0: aaa9 44bd 89b9 a63b 85a3 9e3d dee2 293e
000000d0: 0541 9d3d 7b00 1d3c 77d8 a3bd 154f 0b3d
000000e0: b29b e83d 4349 c93d c5fc c43d 1e26 c03d
000000f0: dc44 cdbc a210 6dbe 66e3 8e3e 3ff4 f83c
00000100: 0c98 41be 355f 8ebb ce5b 9abe 3db5 a8bc
00000110: 9295 f3bd 9ec3 74bd b973 26be 1a09 b7be
00000120: 159b 54be f1e0 39be 8030 91be 9bd3 16be
00000130: 6c77 babe eb6f 4bbe 8fad 00be 4886 06be
00000140: 268d 1bbe 2e85 44be a249 983c 1fb7 51be
00000150: 1dca 17bd 73aa d9bd a759 b6bd 7168 613d
00000160: ac6f 0b3d ca1f cd3d 33d3 e93d b907 053e
00000170: 7c15 303b a49f 03bb b902 fd3d 6001 96be
00000180: fc84 5f3e 9d59 8bbc 09ca 623d e6af d0bd
00000190: 5782 323e 5898 0b3e 36b1 bd3c b5cc c13c
000001a0: d33b 583c b057 433d b6f7 e23d 681b fbbd
000001b0: 83a5 06bd aad9 9cbe c286 d93e 48dc 67bd
000001c0: 940f a93e fad1 053e 1e0f 4b3c 12c4 1cbd
000001d0: 7021 57bd 1cae 8b3f 5503 8a3d 7519 893d
000001e0: 797a 0c3c 22c3 6cbd af6f 99bc 7be2 c43c
000001f0: ae35 f43c 848a a3bb d3f5 6bbc e0f3 94bd
00000200: bd27 4fbe 862c 0f3e 4326 8cbe 2056 063e
00000210: 0a1a 43bd 7255 7e3d 6924 a1bb fe68 a63c
00000220: e45d 2ebd 7023 cf3c deff fcbd f469 1fbe
00000230: 8f86 7cbe 6963 003a d6a8 d9bd 7e9a 27be
00000240: adac 55be d57b b5be 17b6 3fbe 8b15 39be
00000250: da84 913c 39d4 143e c0a5 1d3e 1ce5 0b3e
00000260: e73c 07be 0cff 9cbd 1dc5 893e c5de ca3e
00000270: c518 8f3d df07 e33d 5499 cc3d 15b9 603d
00000280: 5fa5 843e 9aaf 9f3b e97f fdbe 16e2 10bf
00000290: 4874 083d 1198 a43e 0aff f33c 6776 52be
000002a0: fdaa 8b3e 5888 eabd 7325 f03e a3ce a53e
000002b0: 4f16 303e 10fb 86be 64e5 a4be 5ce1 a8bd
000002c0: a5f1 dc3d 4446 abbd bb32 d6be d033 25be
000002d0: 7265 23be 7fb9 0ebd 1482 7e3e 1e00 a03d
000002e0: 1f52 2abe c6c3 63bc b54f afbe 8184 50be
000002f0: 5a85 b2bd 0e64 ee39 f3f6 f93c bdf5 f53c
00000300: 3257 a6bd 0c69 613b e23e a2bd a9a0 d1bc
00000310: 028a 743d e0fb 563e 8a25 b13d b286 4f3e
00000320: 3cb6 8c3b da0f dabd fade b9bd 6720 0c3d
00000330: 3ba6 053e 0a09 6b3e ee57 243d 2a77 6abd
00000340: 6c55 793c 35d7 b43d 4484 b73d abb9 4c3e
00000350: cc6a 1d3d 96e1 b8bd 04eb fb3d 7cab 1b3e
00000360: d969 b0be db85 adbb a526 853e 24f0 2a3d
00000370: 1f48 9f3d 4369 803d 5b67 783c d15e 26bd
00000380: 98bd 913d dcb8 a43d 9ff5 a53d dcf7 95bd
00000390: 9cf4 b73d 4cb9 283d 7458 9b3d b74f 89bd
000003a0: 816a 50bf c602 2a3d df38 123c b293 debc
000003b0: 3657 3dbd 4a50 3a3d 4a63 c5bd e1da d3be
000003c0: 97c1 17bc f575 03be 4990 c03c ffbf 933d
000003d0: fb40 e73b 475b b439 d841 97bc b547 85bd
000003e0: 4031 f93c c379 593d 7144 0abd 57ea 993b
000003f0: 50eb 093d 0f32 0dbd f416 f5bc 353a fd3d

linear1.bias f4 [128]
0.91238695 -0.53989255 -0.35004136 0.5743643 0.07641631 0.12361623 0.701799 -0.45183682
1.048967 -0.47407085 -0.59000874 0.18384898 0.97783566 0.72296554 0.075473055 0.61384076
0.72912985 -0.5104921 -0.5113529 0.6838638 0.9312611 -0.32586974 0.4756531 -0.7454427
0.7652379 0.64480513 0.95435077 0.8057007 0.6527631 0.6139888 0.55758363 0.9112657
-0.27878457 -0.45070615 0.58101434 0.5791265 0.554775 -0.4531008 0.5670009 -0.32128522
-0.6331772 0.44336253 0.7579805 0.4191819 0.91569746 0.6491744 -0.6173158 -0.57184064
-0.32945246 -0.55045456 0.9452688 0.6334918 -0.40434805 0.719357 0.6193668 -0.7704591
0.83290535 -0.6038989 0.2162815 0.6196595 -0.596743 0.56480855 0.7071487 0.28332558
-0.019023191 0.67288506 -0.20088336 0.67551523 0.87478614 -0.61770326 0.8068222 0.82913095
0.093016066 0.500954 0.28511667 0.92807543 -0.5747157 0.6739872 0.52840257 -0.35262415
0.7596392 -0.79636556 -0.41426295 -0.4434091 0.6889114 0.95589936 0.23057696 -0.40167952
0.6913047 -0.15066424 -0.4263133 0.60685945 0.8379442 -0.4849691 0.7205595 0.5084463
0.4032929 0.46381074 -0.5767225 0.8335381 -0.40905297 0.78349787 -0.7565543 -0.26047114
0.6291675 0.58559114 0.62273246 -0.5621612 -0.6107433 0.94478786 0.8535374 -0.30825576
-0.8279284 0.80645794 0.3721363 0.5640602 0.5746398 -0.34431288 0.43758947 0.8435376
0.6400652 -0.44054195 -0.4926983 -0.23690769 0.7411423 0.90282637 0.48048165 -0.22977082
00000000: 3192 693f 6636 0abf 9f38 b3be 8a09 133f
00000010: 2880 9c3d 822a fd3d 19a9 333f 2857 e7be
00000020: 8d44 863f 6ab9 f2be d00a 17bf e842 3c3e
00000030: 7053 7a3f 4514 393f 9e91 9a3d ab24 1d3f
00000040: 41a8 3a3f 9caf 02bf 06e8 02bf b311 2f3f
00000050: 2167 6e3f 66d8 a6be ce88 f33e 55d5 3ebf
00000060: a2e6 433f f311 253f 5550 743f 6742 4e3f
00000070: 7c1b 273f 5f2e 1d3f cdbd 0e3f b548 693f
00000080: dabc 8ebe f5c2 e6be 5bbd 143f a241 143f
00000090: bc05 0e3f d4fc e7be f926 113f 7f7f a4be
000000a0: e717 22bf 6a00 e33e 030b 423f 039f d63e
000000b0: 266b 6a3f 4b30 263f 6908 1ebf 2664 12bf
000000c0: fead a8be 97ea 0cbf 23fd 713f 852c 223f
000000d0: b506 cfbe c827 383f d38e 1e3f cf3c 45bf
000000e0: 4939 553f 1e99 1abf e678 5d3e 01a2 1e3f
000000f0: 26c4 18bf 4b97 103f b207 353f 0d10 913e
00000100: 86d6 9bbc 3242 2c3f 5eb4 4dbe 91ee 2c3f
00000110: fcf1 5f3f cd21 1ebf e68b 4e3f ed41 543f
00000120: 357f be3d 853e 003f d0fa 913e 5a96 6d3f
00000130: 9120 13bf 6d8a 2c3f 6445 073f 278b b4be
00000140: b777 423f 9dde 4bbf 461a d4be 8406 e3be
00000150: 7f5c 303f d2b5 743f 5e1c 6c3e f0a8 cdbe
00000160: 58f9 303f ba47 1abe bd45 dabe 245b 1b3f
00000170: 8383 563f df4d f8be 9676 383f 8929 023f
00000180: 687c ce3e 9a78 ed3e 16a4 13bf c162 553f
00000190: 646f d1be 5193 483f 8bad 41bf 795c 85be
000001a0: 1f11 213f 4de9 153f 656b 1f3f cce9 0fbf
000001b0: ac59 1cbf 9edd 713f 6d81 5a3f b3d3 9dbe
000001c0: 1ef3 53bf 0774 4e3f a688 be3e 4066 103f
000001d0: 981b 133f c749 b0be ba0b e03e 15f2 573f
000001e0: 50db 233f b78e e1be f442 fcbe ee97 72be
000001f0: 80bb 3d3f a11f 673f b101 f63e 0b49 6bbe

linear2.weight f4 [64, 128]
0.055363547 0.051488202 0.1190798 -0.2915679 -0.06303512 -0.54707986 -0.21321805 -0.04810813
0.028329208 -0.12996522 0.06682501 -0.19762969 -0.097151704 -0.05121794 0.06016758 -0.44821042
-0.058819517 0.15844253 0.16020405 -0.13077582 -0.21555282 0.15505268 -0.13381958 0.1095573
-0.0041393945 0.029524557 -0.16136989 0.009996291 -0.13379346 -0.05795325 0.0075854408 -0.05729586
0.24755599 0.05616194 -0.018148983 -0.07052317 -0.08150053 0.0513283 -0.36327967 0.11416691
0.030394873 -0.63279814 -0.25978386 -0.14372976 0.05203698 -0.041165005 0.09145069 0.2226219
0.5654483 -0.090832375 0.04930184 -0.14127551 0.070905805 -0.023014262 -0.026093988 -0.09874882
0.0853644 0.03005408 -0.22592111 -0.08469374 0.113015346 0.089409895 -0.063472115 -0.2369058
-0.030537037 -0.07027752 0.21434788 -0.02835725 0.15346752 0.14682527 -0.11516773 -0.1288266
-0.93435776 -0.035428092 -0.051728193 0.013668579 0.13411053 0.055330504 -0.07204026 0.11464842
0.09666763 0.07645675 0.14687267 0.13954711 -0.2004832 0.10997017 0.0059292642 0.04401805
-0.13530815 0.14595275 0.065000996 -0.099693015 -0.0029579396 0.10429094 -0.36917135 -0.2009344
-0.08694153 -0.043587547 0.060633607 0.05403736 0.10716188 0.04831893 0.030582616 0.0657695
-0.09101481 -0.27545035 -0.11821745 0.27503464 0.083498806 -0.086505726 -0.115273036 -0.08731953
0.072842255 -0.039778896 -0.049099825 -0.38721937 -0.06524812 -0.01582894 -0.13487254 -0.13836266
-0.08286199 0.1164619 -0.102817714 0.08579542 -0.18274029 -0.36846077 -0.21614781 -0.012189246
0.14469983 -0.23633704 0.05926499 0.020100124 -0.04469503 0.1472484 0.1594229 0.02795828
0.17855214 -0.14233202 -0.04977817 -0.084138416 0.13895322 0.062404446 -0.029384254 0.058072176
0.2220496 -0.29370525 -0.04214935 0.07806965 0.12945916 -0.22248448 0.12530535 -0.20892881
0.10054025 -0.03916021 0.10739954 0.119812615 0.048760835 -0.041581355 -0.057200536 0.12898256
-0.13466848 -0.0780604 -0.06185811 0.04735643 0.011870252 -0.32344046 0.005746653 0.008225877
-0.22737174 -0.08112051 0.107999854 0.17577174 0.18582591 0.023599923 -0.14911115 -0.5118288
-0.031038713 -0.09742958 -0.007158772 -0.024160668 -0.070672624 0.19140516 0.33070102 -0.1218525
0.08902698 -0.17309228 0.11547371 0.14403045 0.000634654 0.0028128088 0.14925648 0.05596521
-0.0008242588 0.06463875 0.0922152 0.1084627 -0.03196066 -0.14858736 0.050156724 0.27099267
0.13182019 0.029710596 0.109539546 0.10295258 -0.18542852 0.16933002 0.02681604 -0.12874247
-0.032451198 -0.007426648 -0.16181391 -0.104818545 0.21432923 -0.009563894 -0.032788694 -0.053086635
0.107854076 -0.18537249 -0.1206807 -0.031751517 0.17500508 -0.0023543283 0.123159945 0.09818648
0.042056855 0.11572734 -0.106836125 0.057326194 -0.096328355 -0.057538368 -0.14071783 -0.16751339
0.011222621 -0.020501953 0.038237322 -0.22002271 -0.18535972 0.0668325 0.24310508 -0.02464265
-0.17932053 0.13817559 -0.11974575 -0.095890306 -0.080128744 -0.09327199 -0.120456986 0.044005662
-0.08290858 0.056939494 -0.20172179 0.051640823 0.06691985 0.29338473 0.020227738 -0.029723957
00000000: e3c4 623d 4be5 523d 1ce0 f33d 6348 95be
00000010: 8f18 81bd 6d0d 0cbf d555 5abe 080d 45bd
00000020: a812 e83c 9a15 05be 8ddb 883d 705f 4abe
00000030: 79f7 c6bd e7c9 51bd 4872 763d d67b e5be
00000040: bcec 70bd c23e 223e 880c 243e 19ea 05be
00000050: e1b9 5cbe 21c6 1e3e 0008 09be 945f e03d
00000060: c2a3 87bb 7cdd f13c 263e 25be 7cc7 233c
00000070: 2701 09be 6360 6dbd 4a8f f83b 10af 6abd
00000080: 517f 7d3e 100a 663d 2dad 94bc 746e 90bd
00000090: c0e9 a6bd a03d 523d cbff b9be 57d0 e93d
000000a0: abfe f83c 0fff 21bf 6402 85be e52d 13be
000000b0: ba24 553d a39c 28bd 804a bb3d fff6 633e
000000c0: 38c1 103f 5306 babd baf0 493d 87aa 10be
000000d0: 1037 913d 6888 bcbc 0fc3 d5bc d23c cabd
000000e0: 88d3 ae3d f933 f63c dd57 67be e973 adbd
000000f0: 9774 e73d 891c b73d abfd 81bd 6f97 72be
00000100: cf28 fabc a9ed 8fbd 037e 5b3e 774d e8bc
00000110: 9726 1d3e 5d59 163e 0fdd ebbd 1feb 03be
00000120: 1232 6fbf 0c1d 11bd f1e0 53bd 2df2 5f3c
00000130: 4554 093e 3da2 623d d889 93bd cacc ea3d
00000140: aef9 c53d 5b95 9c3d ca65 163e 70e5 0e3e
00000150: 784b 4dbe 0a38 e13d 464a c23b 454c 343d
00000160: 388e 0abe a374 153e 3e1f 853d da2b ccbd
00000170: fed9 41bb 7d96 d53d 0704 bdbe bfc1 4dbe
00000180: 670e b2bd db88 32bd f25a 783d 4756 5d3d
00000190: b077 db3d 12ea 453d 6588 fa3c 29b2 863d
000001a0: f965 babd d407 8dbe fe1b f2bd 57d1 8c3e
000001b0: 6c01 ab3d ea29 b1bd 4514 ecbd 95d4 b2bd
000001c0: 522e 953d 32ef 22bd e61c 49bd 9e41 c6be
000001d0: cea0 85bd b1ab 81bc 071c 0abe f1ae 0dbe
000001e0: 8cb3 a9bd 9483 ee3d 1892 d2bd 82b5 af3d
000001f0: 4520 3bbe e4a6 bcbe da55 5dbe 67b5 47bc
00000200: 312c 143e 5602 72be d9bf 723d 04a9 a43c
00000210: 2312 37bd 49c8 163e c23f 233e c308 e53c
00000220: 5fd6 363e 7cbf 11be 32e4 4bbd c350 acbd
00000230: c149 0e3e ce9b 7f3d 3fb7 f0bc 17dd 6d3d
00000240: f860 633e 8960 96be cca4 2cbd fbe2 9f3d
00000250: f190 043e f9d2 63be 0c50 003e 6ff1 55be
00000260: 0ce8 cd3d 7566 20bd 4af4 db3d 5160 f53d
00000270: 71b9 473d 3651 2abd 1c4b 6abd 0114 043e
00000280: 89e6 09be 22de 9fbd ee5e 7dbd d1f8 413d
00000290: 727b 423c fd99 a5be 6b4e bc3b d4c5 063c
000002a0: 23d4 68be 8322 a6bd 072f dd3d 82fd 333e
000002b0: 2649 3e3e a054 c13c 98b0 18be 3607 03bf
000002c0: e644 febc 2989 c7bd 2294 eabb 98ec c5bc
000002d0: cfbc 90bd b7ff 433e a551 a93e ce8d f9bd
000002e0: c753 b63d 1a3f 31be 7b7d ec3d b87c 133e
000002f0: e95e 263a 1a57 383b b1d6 183e c73b 653d
00000300: 1213 58ba 5261 843d 53db bc3d b121 de3d
00000310: 2ee9 02bd 4927 18be 2371 4d3d 8dbf 8a3e
00000320: dffb 063e a363 f33c 4556 e03d cdd8 d23d
00000330: f9e0 3dbe d964 2d3e 50ad db3c 11d5 03be
00000340: 8ceb 04bd 3d5b f3bb 8cb2 25be 1bab d6bd
00000350: 1f79 5b3e e1b1 1cbc 704d 06bd 5f71 59bd
00000360: 99e2 dc3d 49d2 3dbe 7127 f7bd e10d 02bd
00000370: 8834 333e 134b 1abb 483b fc3d fe15 c93d
00000380: cf43 2c3d 7502 ed3d e6cc dabd dfce 6a3d
00000390: cd47 c5bd 5aad 6bbd 5618 10be a188 2bbe
000003a0: 16df 373c b6f3 a7bc bd9e 1c3d a24d 61be
000003b0: f0ce 3dbe 7adf 883d 8af0 783e 62df c9bc
000003c0: cd9f 37be e77d 0d3e 433d f5bd 2362 c4bd
000003d0: 8a1a a4bd 6305 bfbd 27b2 f6bd 483f 343d
000003e0: f9cb a9bd 6339 693d 2890 4ebe 5485 533d
000003f0: 460d 893d 8636 963e a4b4 a53c a87f f3bc

linear2.bias f4 [64]
-0.4185142 0.8645957 0.82249004 0.7581599 -0.2990955 0.86855364 0.6838217 0.5916364
0.7962237 0.87569845 -0.7916481 -0.50621325 -0.39339995 0.9433085 -0.5150761 -0.43415245
0.8710538 -0.5372353 -0.76003355 -0.39771128 -0.37404475 0.7759746 0.8137734 0.7340785
0.79560125 -0.35425544 -0.31307533 -0.5180693 0.8507057 0.7735933 -0.5877922 0.7717045
0.7999249 -0.38596222 0.72914517 0.7215741 0.7771343 0.8068025 0.74013466 -0.41418767
-0.76426995 -0.2870899 0.78465796 -0.4190799 -0.31962195 -0.39747298 -0.45834514 0.840324
-0.5135181 0.73695046 -0.25951472 -0.43040106 -0.5973699 -0.54544276 -0.42679492 0.24491127
0.7489856 0.8106817 0.8441148 -0.51910317 0.7854882 -0.41848665 0.73803884 -0.62758815
00000000: 7e47 d6be 2556 5d3f b58e 523f c416 423f
00000010: 0c23 99be 8859 5e3f f00e 2f3f 7c75 173f
00000020: 51d5 4b3f c62d 603f 73a9 4abf 3197 01bf
00000030: b86b c9be aa7c 713f 07dc 03bf 3b49 debe
00000040: 62fd 5e3f 4188 09bf 8f91 42bf d0a0 cbbe
00000050: cb82 bfbe 45a6 463f 7453 503f 92ec 3b3f
00000060: 86ac 4b3f f860 b5be 694b a0be 31a0 04bf
00000070: d9c7 593f 360a 463f 8d79 16bf 6d8e 453f
00000080: e1c7 4c3f d79c c5be 42a9 3a3f 15b9 383f
00000090: 46f2 463f 9c8a 4e3f 7779 3d3f 6810 d4be
000000a0: 32a7 43bf 73fd 92be 58df 483f a491 d6be
000000b0: 7da5 a3be 9481 cbbe 37ac eabe 791f 573f
000000c0: ec75 03bf c9a8 3c3f 1ddf 84be 875d dcbe
000000d0: 3ced 18bf 23a2 0bbf dd84 dabe 05ca 7a3e
000000e0: 85bd 3f3f d688 4f3f e817 583f f2e3 04bf
000000f0: c115 493f e243 d6be 1df0 3c3f 9ea9 20bf

output.weight f4 [1, 64]
-0.41906965 0.40973914 0.27009824 0.29594696 -0.5896855 0.32485342 0.16812445 0.51330537
0.23720634 0.17034113 -0.16718991 -0.2466296 -0.4598756 0.53310555 -0.9681743 -0.55462587
0.34643966 -0.67426676 -0.35926202 -0.4768324 -0.5184271 0.15545756 0.19720164 0.2218859
0.27984577 -1.0477579 -0.2938217 -0.20810077 0.4082237 0.24789226 -0.6130566 0.23690951
0.265066 -0.3062786 0.2088399 0.62746036 0.16150047 0.20700777 0.19895025 -0.30466795
-0.19974174 -3.4487693 0.29549393 -0.35116163 -0.50182307 -0.49329334 -0.45457843 0.39774856
-0.36947912 0.2921101 -0.4625322 -0.5572668 -0.15664828 -1.2439884 -0.52182406 0.42334858
0.17888336 0.19272844 0.16206647 -0.339036 0.23051591 -0.5712141 0.45117214 -0.34395036
00000000: 4c90 d6be 54c9 d13e 514a 8a3e 5c86 973e
00000010: a1f5 16bf 3053 a63e d128 2c3e fb67 033f
00000020: 38e6 723e e86d 2e3e d533 2bbe 788c 7cbe
00000030: d174 ebbe 9b79 083f 45da 77bf f6fb 0dbf
00000040: 8a60 b13e bf9c 2cbf 31f1 b7be 6023 f4be
00000050: a3b7 04bf 4430 1f3e 3aef 493e 0f36 633e
00000060: f247 8f3e ee1c 86bf cc6f 96be 5e18 55be
00000070: b202 d13e 78d7 7d3e 47f1 1cbf 6898 723e
00000080: bbb6 873e 8cd0 9cbe 20da 553e 3ea1 203f
00000090: 6160 253e d8f9 533e 9db9 4b3e 70fd 9bbe
000000a0: 1989 4cbe a3b8 5cc0 fb4a 973e 75cb b3be
000000b0: 7a77 00bf f290 fcbe 81be e8be b3a5 cb3e
000000c0: 5e2c bdbe 748f 953e 05d1 ecbe 09a9 0ebf
000000d0: 6868 20be 033b 9fbf 4396 05bf 25c1 d83e
000000e0: 332d 373e 9b5a 453e c1f4 253e 2096 adbe
000000f0: 5d0c 6c3e 163b 12bf 0900 e73e 431a b0be

linear1.weight f4 [128, 34]
0.058564886 0.08768266 0.021124786 0.14399031 -0.034906197 0.18358871 -0.0380232 0.079885386
0.123217694 -0.025465595 0.069537945 0.022475451 0.08015644 0.021723771 0.0328089 0.15682307
0.061337043 0.1577359 0.122218765 -0.032106146 0.043988742 0.03489956 0.05154928 0.058497462
0.03460893 -0.08447267 0.06961151 -0.14662798 -0.47241628 -0.23070519 0.16922554 -0.13055706
0.108775124 0.15934521 -0.121700056 -0.1639922 -0.16004439 -0.09713029 0.10841159 -0.1642128
0.12364911 -0.34381044 -0.06537691 -0.0771168 -0.116286546 0.06784203 -0.14925241 -0.18869263
-0.048013367 0.0050880355 0.077460326 0.16590449 0.07678417 0.009582634 -0.08000272 0.034010965
0.113578215 0.09828427 0.096185245 0.0938227 -0.025057249 -0.23150876 0.27907866 0.030389903
-0.18905658 -0.0043448457 -0.30148166 -0.020594234 -0.11893763 -0.059756868 -0.16255082 -0.3574913
-0.20762284 -0.18152215 -0.28357315 -0.14729159 -0.36419237 -0.19866912 -0.12566207 -0.13137162
-0.15190563 -0.19191429 0.018589798 -0.20480011 -0.037057985 -0.10628214 -0.089038186 0.055031244
0.034042045 0.10015829 0.11417236 0.12991227 0.0026868274 -0.0020084167 0.12354035 -0.29297924
0.21828073 -0.017010504 0.055368457 -0.101898 0.17432533 0.13632333 0.02315579 0.023657182
0.013197857 0.047691047 0.11082403 -0.12261087 -0.032872688 -0.30634815 0.42485625 -0.05660656
0.33019698 0.13068381 0.012393741 -0.038272925 -0.052522123 1.0912509 0.06738917 0.06694309
0.008574122 -0.05780328 -0.018730013 0.024033776 0.029810753 -0.0049908776 -0.014401871 -0.07273078
-0.20230003 0.13981828 -0.2737294 0.13118792 -0.047632255 0.062093206 -0.0049176705 0.020313736
-0.04257001 0.025285453 -0.1235349 -0.15567762 -0.24660705 0.0004897626 -0.10627906 -0.16367528
-0.20866652 -0.3544604 -0.18721806 -0.18074624 0.017763544 0.14534082 0.1539526 0.13661617
-0.13206826 -0.07665834 0.26908198 0.39623085 0.06987146 0.11085486 0.099901825 0.054864008
0.25907418 0.0048732283 -0.4951165 -0.5659498 0.03331402 0.32147267 0.029784698 -0.2055298
0.2727889 -0.11451787 0.4690357 0.32384214 0.1719601 -0.2636342 -0.3220626 -0.08246109
0.107882775 -0.083630115 -0.4183558 -0.16133046 -0.15956667 -0.03484487 0.24854308 0.07812522
-0.16632889 -0.0139016565 -0.342405 -0.20363046 -0.08716841 0.00045469444 0.030513262 0.030024404
-0.081221 0.0034394888 -0.0792215 -0.025589304 0.059701927 0.2099452 0.08649738 0.20266226
0.004294185 -0.10647555 -0.090757325 0.03421059 0.13051693 0.22952667 0.04012292 -0.05724255
0.01521812 0.0883011 0.089607745 0.19992702 0.038431928 -0.09027402 0.12300685 0.15202135
-0.34455755 -0.005295498 0.26006046 0.041732922 0.07777428 0.06270077 0.015161361 -0.040617768
0.0711624 0.08043072 0.08103489 -0.07322666 0.089822024 0.041192338 0.075852305 -0.067046575
-0.8141251 0.04150655 0.008924692 -0.027170036 -0.04622575 0.045486726 -0.096380785 -0.4137793
-0.009262464 -0.12837966 0.0235063 0.07214355 0.007057307 0.00034400282 -0.018464014 -0.06507818
0.030418992 0.053094637 -0.033756677 0.004697125 0.033671677 -0.034471568 -0.029918171 0.12364618
00000000: bce1 6f3d f792 b33d e30d ad3c 3272 133e
00000010: cdf9 0ebd aefe 3b3e 37be 1bbd f39a a33d
00000020: 8f59 fc3d 399d d0bc e969 8e3d 701e b83c
00000030: 0f29 a43d 0df6 b13c a062 063d 3a96 203e
00000040: 8d3c 7b3d 8585 213e d54d fa3d bc81 03bd
00000050: 8a2d 343d d7f2 0e3d 5625 533d 099b 6f3d
00000060: 18c2 0d3d 0200 adbd 7b90 8e3d a525 16be
00000070: 8ce0 f1be fb3d 6cbe 7649 2d3e c0b0 05be
00000080: 7ec5 de3d 642b 233e e13d f9bd 92ed 27be
00000090: ade2 23be 3fec c6bd e506 de3d 6627 28be
000000a0: bf3b fd3d ec07 b0be 54e4 85bd 6aef 9dbd
000000b0: a427 eebd c3f0 8a3d a0d5 18be a438 41be
000000c0: aaa9 44bd 89b9 a63b 85a3 9e3d dee2 293e
000000d0: 0541 9d3d 7b00 1d3c 77d8 a3bd 154f 0b3d
000000e0: b29b e83d 4349 c93d c5fc c43d 1e26 c03d
000000f0: dc44 cdbc a210 6dbe 66e3 8e3e 3ff4 f83c
00000100: 0c98 41be 355f 8ebb ce5b 9abe 3db5 a8bc
00000110: 9295 f3bd 9ec3 74bd b973 26be 1a09 b7be
00000120: 159b 54be f1e0 39be 8030 91be 9bd3 16be
00000130: 6c77 babe eb6f 4bbe 8fad 00be 4886 06be
00000140: 268d 1bbe 2e85 44be a249 983c 1fb7 51be
00000150: 1dca 17bd 73aa d9bd a759 b6bd 7168 613d
00000160: ac6f 0b3d ca1f cd3d 33d3 e93d b907 053e
00000170: 7c15 303b a49f 03bb b902 fd3d 6001 96be
00000180: fc84 5f3e 9d59 8bbc 09ca 623d e6af d0bd
00000190: 5782 323e 5898 0b3e 36b1 bd3c b5cc c13c
000001a0: d33b 583c b057 433d b6f7 e23d 681b fbbd
000001b0: 83a5 06bd aad9 9cbe c286 d93e 48dc 67bd
000001c0: 940f a93e fad1 053e 1e0f 4b3c 12c4 1cbd
000001d0: 7021 57bd 1cae 8b3f 5503 8a3d 7519 893d
000001e0: 797a 0c3c 22c3 6cbd af6f 99bc 7be2 c43c
000001f0: ae35 f43c 848a a3bb d3f5 6bbc e0f3 94bd
00000200: bd27 4fbe 862c 0f3e 4326 8cbe 2056 063e
00000210: 0a1a 43bd 7255 7e3d 6924 a1bb fe68 a63c
00000220: e45d 2ebd 7023 cf3c deff fcbd f469 1fbe
00000230: 8f86 7cbe 6963 003a d6a8 d9bd 7e9a 27be
00000240: adac 55be d57b b5be 17b6 3fbe 8b15 39be
00000250: da84 913c 39d4 143e c0a5 1d3e 1ce5 0b3e
00000260: e73c 07be 0cff 9cbd 1dc5 893e c5de ca3e
00000270: c518 8f3d df07 e33d 5499 cc3d 15b9 603d
00000280: 5fa5 843e 9aaf 9f3b e97f fdbe 16e2 10bf
00000290: 4874 083d 1198 a43e 0aff f33c 6776 52be
000002a0: fdaa 8b3e 5888 eabd 7325 f03e a3ce a53e
000002b0: 4f16 303e 10fb 86be 64e5 a4be 5ce1 a8bd
000002c0: a5f1 dc3d 4446 abbd bb32 d6be d033 25be
000002d0: 7265 23be 7fb9 0ebd 1482 7e3e 1e00 a03d
000002e0: 1f52 2abe c6c3 63bc b54f afbe 8184 50be
000002f0: 5a85 b2bd 0e64 ee39 f3f6 f93c bdf5 f53c
00000300: 3257 a6bd 0c69 613b e23e a2bd a9a0 d1bc
00000310: 028a 743d e0fb 563e 8a25 b13d b286 4f3e
00000320: 3cb6 8c3b da0f dabd fade b9bd 6720 0c3d
00000330: 3ba6 053e 0a09 6b3e ee57 243d 2a77 6abd
00000340: 6c55 793c 35d7 b43d 4484 b73d abb9 4c3e
00000350: cc6a 1d3d 96e1 b8bd 04eb fb3d 7cab 1b3e
00000360: d969 b0be db85 adbb a526 853e 24f0 2a3d
00000370: 1f48 9f3d 4369 803d 5b67 783c d15e 26bd
00000380: 98bd 913d dcb8 a43d 9ff5 a53d dcf7 95bd
00000390: 9cf4 b73d 4cb9 283d 7458 9b3d b74f 89bd
000003a0: 816a 50bf c602 2a3d df38 123c b293 debc
000003b0: 3657 3dbd 4a50 3a3d 4a63 c5bd e1da d3be
000003c0: 97c1 17bc f575 03be 4990 c03c ffbf 933d
000003d0: fb40 e73b 475b b439 d841 97bc b547 85bd
000003e0: 4031 f93c c379 593d 7144 0abd 57ea 993b
000003f0: 50eb 093d 0f32 0dbd f416 f5bc 353a fd3d

linear1.bias f4 [128]
0.91238695 -0.53989255 -0.35004136 0.5743643 0.07641631 0.12361623 0.701799 -0.45183682
1.048967 -0.47407085 -0.59000874 0.18384898 0.97783566 0.72296554 0.075473055 0.61384076
0.72912985 -0.5104921 -0.5113529 0.6838638 0.9312611 -0.32586974 0.4756531 -0.7454427
0.7652379 0.64480513 0.95435077 0.8057007 0.6527631 0.6139888 0.55758363 0.9112657
-0.27878457 -0.45070615 0.58101434 0.5791265 0.554775 -0.4531008 0.5670009 -0.32128522
-0.6331772 0.44336253 0.7579805 0.4191819 0.91569746 0.6491744 -0.6173158 -0.57184064
-0.32945246 -0.55045456 0.9452688 0.6334918 -0.40434805 0.719357 0.6193668 -0.7704591
0.83290535 -0.6038989 0.2162815 0.6196595 -0.596743 0.56480855 0.7071487 0.28332558
-0.019023191 0.67288506 -0.20088336 0.67551523 0.87478614 -0.61770326 0.8068222 0.82913095
0.093016066 0.500954 0.28511667 0.92807543 -0.5747157 0.6739872 0.52840257 -0.35262415
0.7596392 -0.79636556 -0.41426295 -0.4434091 0.6889114 0.95589936 0.23057696 -0.40167952
0.6913047 -0.15066424 -0.4263133 0.60685945 0.8379442 -0.4849691 0.7205595 0.5084463
0.4032929 0.46381074 -0.5767225 0.8335381 -0.40905297 0.78349787 -0.7565543 -0.26047114
0.6291675 0.58559114 0.62273246 -0.5621612 -0.6107433 0.94478786 0.8535374 -0.30825576
-0.8279284 0.80645794 0.3721363 0.5640602 0.5746398 -0.34431288 0.43758947 0.8435376
0.6400652 -0.44054195 -0.4926983 -0.23690769 0.7411423 0.90282637 0.48048165 -0.22977082
00000000: 3192 693f 6636 0abf 9f38 b3be 8a09 133f
00000010: 2880 9c3d 822a fd3d 19a9 333f 2857 e7be
00000020: 8d44 863f 6ab9 f2be d00a 17bf e842 3c3e
00000030: 7053 7a3f 4514 393f 9e91 9a3d ab24 1d3f
00000040: 41a8 3a3f 9caf 02bf 06e8 02bf b311 2f3f
00000050: 2167 6e3f 66d8 a6be ce88 f33e 55d5 3ebf
00000060: a2e6 433f f311 253f 5550 743f 6742 4e3f
00000070: 7c1b 273f 5f2e 1d3f cdbd 0e3f b548 693f
00000080: dabc 8ebe f5c2 e6be 5bbd 143f a241 143f
00000090: bc05 0e3f d4fc e7be f926 113f 7f7f a4be
000000a0: e717 22bf 6a00 e33e 030b 423f 039f d63e
000000b0: 266b 6a3f 4b30 263f 6908 1ebf 2664 12bf
000000c0: fead a8be 97ea 0cbf 23fd 713f 852c 223f
000000d0: b506 cfbe c827 383f d38e 1e3f cf3c 45bf
000000e0: 4939 553f 1e99 1abf e678 5d3e 01a2 1e3f
000000f0: 26c4 18bf 4b97 103f b207 353f 0d10 913e
00000100: 86d6 9bbc 3242 2c3f 5eb4 4dbe 91ee 2c3f
00000110: fcf1 5f3f cd21 1ebf e68b 4e3f ed41 543f
00000120: 357f be3d 853e 003f d0fa 913e 5a96 6d3f
00000130: 9120 13bf 6d8a 2c3f 6445 073f 278b b4be
00000140: b777 423f 9dde 4bbf 461a d4be 8406 e3be
00000150: 7f5c 303f d2b5 743f 5e1c 6c3e f0a8 cdbe
00000160: 58f9 303f ba47 1abe bd45 dabe 245b 1b3f
00000170: 8383 563f df4d f8be 9676 383f 8929 023f
00000180: 687c ce3e 9a78 ed3e 16a4 13bf c162 553f
00000190: 646f d1be 5193 483f 8bad 41bf 795c 85be
000001a0: 1f11 213f 4de9 153f 656b 1f3f cce9 0fbf
000001b0: ac59 1cbf 9edd 713f 6d81 5a3f b3d3 9dbe
000001c0: 1ef3 53bf 0774 4e3f a688 be3e 4066 103f
000001d0: 981b 133f c749 b0be ba0b e03e 15f2 573f
000001e0: 50db 233f b78e e1be f442 fcbe ee97 72be
000001f0: 80bb 3d3f a11f 673f b101 f63e 0b49 6bbe

linear2.weight f4 [64, 128]
0.055363547 0.051488202 0.1190798 -0.2915679 -0.06303512 -0.54707986 -0.21321805 -0.04810813
0.028329208 -0.12996522 0.06682501 -0.19762969 -0.097151704 -0.05121794 0.06016758 -0.44821042
-0.058819517 0.15844253 0.16020405 -0.13077582 -0.21555282 0.15505268 -0.13381958 0.1095573
-0.0041393945 0.029524557 -0.16136989 0.009996291 -0.13379346 -0.05795325 0.0075854408 -0.05729586
0.24755599 0.05616194 -0.018148983 -0.07052317 -0.08150053 0.0513283 -0.36327967 0.11416691
0.030394873 -0.63279814 -0.25978386 -0.14372976 0.05203698 -0.041165005 0.09145069 0.2226219
0.5654483 -0.090832375 0.04930184 -0.14127551 0.070905805 -0.023014262 -0.026093988 -0.09874882
0.0853644 0.03005408 -0.22592111 -0.08469374 0.113015346 0.089409895 -0.063472115 -0.2369058
-0.030537037 -0.07027752 0.21434788 -0.02835725 0.15346752 0.14682527 -0.11516773 -0.1288266
-0.93435776 -0.035428092 -0.051728193 0.013668579 0.13411053 0.055330504 -0.07204026 0.11464842
0.09666763 0.07645675 0.14687267 0.13954711 -0.2004832 0.10997017 0.0059292642 0.04401805
-0.13530815 0.14595275 0.065000996 -0.099693015 -0.0029579396 0.10429094 -0.36917135 -0.2009344
-0.08694153 -0.043587547 0.060633607 0.05403736 0.10716188 0.04831893 0.030582616 0.0657695
-0.09101481 -0.27545035 -0.11821745 0.27503464 0.083498806 -0.086505726 -0.115273036 -0.08731953
0.072842255 -0.039778896 -0.049099825 -0.38721937 -0.06524812 -0.01582894 -0.13487254 -0.13836266
-0.08286199 0.1164619 -0.102817714 0.08579542 -0.18274029 -0.36846077 -0.21614781 -0.012189246
0.14469983 -0.23633704 0.05926499 0.020100124 -0.04469503 0.1472484 0.1594229 0.02795828
0.17855214 -0.14233202 -0.04977817 -0.084138416 0.13895322 0.062404446 -0.029384254 0.058072176
0.2220496 -0.29370525 -0.04214935 0.07806965 0.12945916 -0.22248448 0.12530535 -0.20892881
0.10054025 -0.03916021 0.10739954 0.119812615 0.048760835 -0.041581355 -0.057200536 0.12898256
-0.13466848 -0.0780604 -0.06185811 0.04735643 0.011870252 -0.32344046 0.005746653 0.008225877
-0.22737174 -0.08112051 0.107999854 0.17577174 0.18582591 0.023599923 -0.14911115 -0.5118288
-0.031038713 -0.09742958 -0.007158772 -0.024160668 -0.070672624 0.19140516 0.33070102 -0.1218525
0.08902698 -0.17309228 0.11547371 0.14403045 0.000634654 0.0028128088 0.14925648 0.05596521
-0.0008242588 0.06463875 0.0922152 0.1084627 -0.03196066 -0.14858736 0.050156724 0.27099267
0.13182019 0.029710596 0.109539546 0.10295258 -0.18542852 0.16933002 0.02681604 -0.12874247
-0.032451198 -0.007426648 -0.16181391 -0.104818545 0.21432923 -0.009563894 -0.032788694 -0.053086635
0.107854076 -0.18537249 -0.1206807 -0.031751517 0.17500508 -0.0023543283 0.123159945 0.09818648
0.042056855 0.11572734 -0.106836125 0.057326194 -0.096328355 -0.057538368 -0.14071783 -0.16751339
0.011222621 -0.020501953 0.038237322 -0.22002271 -0.18535972 0.0668325 0.24310508 -0.02464265
-0.17932053 0.13817559 -0.11974575 -0.095890306 -0.080128744 -0.09327199 -0.120456986 0.044005662
-0.08290858 0.056939494 -0.20172179 0.051640823 0.06691985 0.29338473 0.020227738 -0.029723957
00000000: e3c4 623d 4be5 523d 1ce0 f33d 6348 95be
00000010: 8f18 81bd 6d0d 0cbf d555 5abe 080d 45bd
00000020: a812 e83c 9a15 05be 8ddb 883d 705f 4abe
00000030: 79f7 c6bd e7c9 51bd 4872 763d d67b e5be
00000040: bcec 70bd c23e 223e 880c 243e 19ea 05be
00000050: e1b9 5cbe 21c6 1e3e 0008 09be 945f e03d
00000060: c2a3 87bb 7cdd f13c 263e 25be 7cc7 233c
00000070: 2701 09be 6360 6dbd 4a8f f83b 10af 6abd
00000080: 517f 7d3e 100a 663d 2dad 94bc 746e 90bd
00000090: c0e9 a6bd a03d 523d cbff b9be 57d0 e93d
000000a0: abfe f83c 0fff 21bf 6402 85be e52d 13be
000000b0: ba24 553d a39c 28bd 804a bb3d fff6 633e
000000c0: 38c1 103f 5306 babd baf0 493d 87aa 10be
000000d0: 1037 913d 6888 bcbc 0fc3 d5bc d23c cabd
000000e0: 88d3 ae3d f933 f63c dd57 67be e973 adbd
000000f0: 9774 e73d 891c b73d abfd 81bd 6f97 72be
00000100: cf28 fabc a9ed 8fbd 037e 5b3e 774d e8bc
00000110: 9726 1d3e 5d59 163e 0fdd ebbd 1feb 03be
00000120: 1232 6fbf 0c1d 11bd f1e0 53bd 2df2 5f3c
00000130: 4554 093e 3da2 623d d889 93bd cacc ea3d
00000140: aef9 c53d 5b95 9c3d ca65 163e 70e5 0e3e
00000150: 784b 4dbe 0a38 e13d 464a c23b 454c 343d
00000160: 388e 0abe a374 153e 3e1f 853d da2b ccbd
00000170: fed9 41bb 7d96 d53d 0704 bdbe bfc1 4dbe
00000180: 670e b2bd db88 32bd f25a 783d 4756 5d3d
00000190: b077 db3d 12ea 453d 6588 fa3c 29b2 863d
000001a0: f965 babd d407 8dbe fe1b f2bd 57d1 8c3e
000001b0: 6c01 ab3d ea29 b1bd 4514 ecbd 95d4 b2bd
000001c0: 522e 953d 32ef 22bd e61c 49bd 9e41 c6be
000001d0: cea0 85bd b1ab 81bc 071c 0abe f1ae 0dbe
000001e0: 8cb3 a9bd 9483 ee3d 1892 d2bd 82b5 af3d
000001f0: 4520 3bbe e4a6 bcbe da55 5dbe 67b5 47bc
00000200: 312c 143e 5602 72be d9bf 723d 04a9 a43c
00000210: 2312 37bd 49c8 163e c23f 233e c308 e53c
00000220: 5fd6 363e 7cbf 11be 32e4 4bbd c350 acbd
00000230: c149 0e3e ce9b 7f3d 3fb7 f0bc 17dd 6d3d
00000240: f860 633e 8960 96be cca4 2cbd fbe2 9f3d
00000250: f190 043e f9d2 63be 0c50 003e 6ff1 55be
00000260: 0ce8 cd3d 7566 20bd 4af4 db3d 5160 f53d
00000270: 71b9 473d 3651 2abd 1c4b 6abd 0114 043e
00000280: 89e6 09be 22de 9fbd ee5e 7dbd d1f8 413d
00000290: 727b 423c fd99 a5be 6b4e bc3b d4c5 063c
000002a0: 23d4 68be 8322 a6bd 072f dd3d 82fd 333e
000002b0: 2649 3e3e a054 c13c 98b0 18be 3607 03bf
000002c0: e644 febc 2989 c7bd 2294 eabb 98ec c5bc
000002d0: cfbc 90bd b7ff 433e a551 a93e ce8d f9bd
000002e0: c753 b63d 1a3f 31be 7b7d ec3d b87c 133e
000002f0: e95e 263a 1a57 383b b1d6 183e c73b 653d
00000300: 1213 58ba 5261 843d 53db bc3d b121 de3d
00000310: 2ee9 02bd 4927 18be 2371 4d3d 8dbf 8a3e
00000320: dffb 063e a363 f33c 4556 e03d cdd8 d23d
00000330: f9e0 3dbe d964 2d3e 50ad db3c 11d5 03be
00000340: 8ceb 04bd 3d5b f3bb 8cb2 25be 1bab d6bd
00000350: 1f79 5b3e e1b1 1cbc 704d 06bd 5f71 59bd
00000360: 99e2 dc3d 49d2 3dbe 7127 f7bd e10d 02bd
00000370: 8834 333e 134b 1abb 483b fc3d fe15 c93d
00000380: cf43 2c3d 7502 ed3d e6cc dabd dfce 6a3d
00000390: cd47 c5bd 5aad 6bbd 5618 10be a188 2bbe
000003a0: 16df 373c b6f3 a7bc bd9e 1c3d a24d 61be
000003b0: f0ce 3dbe 7adf 883d 8af0 783e 62df c9bc
000003c0: cd9f 37be e77d 0d3e 433d f5bd 2362 c4bd
000003d0: 8a1a a4bd 6305 bfbd 27b2 f6bd 483f 343d
000003e0: f9cb a9bd 6339 693d 2890 4ebe 5485 533d
000003f0: 460d 893d 8636 963e a4b4 a53c a87f f3bc

linear2.bias f4 [64]
-0.4185142 0.8645957 0.82249004 0.7581599 -0.2990955 0.86855364 0.6838217 0.5916364
0.7962237 0.87569845 -0.7916481 -0.50621325 -0.39339995 0.9433085 -0.5150761 -0.43415245
0.8710538 -0.5372353 -0.76003355 -0.39771128 -0.37404475 0.7759746 0.8137734 0.7340785
0.79560125 -0.35425544 -0.31307533 -0.5180693 0.8507057 0.7735933 -0.5877922 0.7717045
0.7999249 -0.38596222 0.72914517 0.7215741 0.7771343 0.8068025 0.74013466 -0.41418767
-0.76426995 -0.2870899 0.78465796 -0.4190799 -0.31962195 -0.39747298 -0.45834514 0.840324
-0.5135181 0.73695046 -0.25951472 -0.43040106 -0.5973699 -0.54544276 -0.42679492 0.24491127
0.7489856 0.8106817 0.8441148 -0.51910317 0.7854882 -0.41848665 0.73803884 -0.62758815
00000000: 7e47 d6be 2556 5d3f b58e 523f c416 423f
00000010: 0c23 99be 8859 5e3f f00e 2f3f 7c75 173f
00000020: 51d5 4b3f c62d 603f 73a9 4abf 3197 01bf
00000030: b86b c9be aa7c 713f 07dc 03bf 3b49 debe
00000040: 62fd 5e3f 4188 09bf 8f91 42bf d0a0 cbbe
00000050: cb82 bfbe 45a6 463f 7453 503f 92ec 3b3f
00000060: 86ac 4b3f f860 b5be 694b a0be 31a0 04bf
00000070: d9c7 593f 360a 463f 8d79 16bf 6d8e 453f
00000080: e1c7 4c3f d79c c5be 42a9 3a3f 15b9 383f
00000090: 46f2 463f 9c8a 4e3f 7779 3d3f 6810 d4be
000000a0: 32a7 43bf 73fd 92be 58df 483f a491 d6be
000000b0: 7da5 a3be 9481 cbbe 37ac eabe 791f 573f
000000c0: ec75 03bf c9a8 3c3f 1ddf 84be 875d dcbe
000000d0: 3ced 18bf 23a2 0bbf dd84 dabe 05ca 7a3e
000000e0: 85bd 3f3f d688 4f3f e817 583f f2e3 04bf
000000f0: c115 493f e243 d6be 1df0 3c3f 9ea9 20bf

output.weight f4 [1, 64]
-0.41906965 0.40973914 0.27009824 0.29594696 -0.5896855 0.32485342 0.16812445 0.51330537
0.23720634 0.17034113 -0.16718991 -0.2466296 -0.4598756 0.53310555 -0.9681743 -0.55462587
0.34643966 -0.67426676 -0.35926202 -0.4768324 -0.5184271 0.15545756 0.19720164 0.2218859
0.27984577 -1.0477579 -0.2938217 -0.20810077 0.4082237 0.24789226 -0.6130566 0.23690951
0.265066 -0.3062786 0.2088399 0.62746036 0.16150047 0.20700777 0.19895025 -0.30466795
-0.19974174 -3.4487693 0.29549393 -0.35116163 -0.50182307 -0.49329334 -0.45457843 0.39774856
-0.36947912 0.2921101 -0.4625322 -0.5572668 -0.15664828 -1.2439884 -0.52182406 0.42334858
0.17888336 0.19272844 0.16206647 -0.339036 0.23051591 -0.5712141 0.45117214 -0.34395036
00000000: 4c90 d6be 54c9 d13e 514a 8a3e 5c86 973e
00000010: a1f5 16bf 3053 a63e d128 2c3e fb67 033f
00000020: 38e6 723e e86d 2e3e d533 2bbe 788c 7cbe
00000030: d174 ebbe 9b79 083f 45da 77bf f6fb 0dbf
00000040: 8a60 b13e bf9c 2cbf 31f1 b7be 6023 f4be
00000050: a3b7 04bf 4430 1f3e 3aef 493e 0f36 633e
00000060: f247 8f3e ee1c 86bf cc6f 96be 5e18 55be
00000070: b202 d13e 78d7 7d3e 47f1 1cbf 6898 723e
00000080: bbb6 873e 8cd0 9cbe 20da 553e 3ea1 203f
00000090: 6160 253e d8f9 533e 9db9 4b3e 70fd 9bbe
000000a0: 1989 4cbe a3b8 5cc0 fb4a 973e 75cb b3be
000000b0: 7a77 00bf f290 fcbe 81be e8be b3a5 cb3e
000000c0: 5e2c bdbe 748f 953e 05d1 ecbe 09a9 0ebf
000000d0: 6868 20be 033b 9fbf 4396 05bf 25c1 d83e
000000e0: 332d 373e 9b5a 453e c1f4 253e 2096 adbe
000000f0: 5d0c 6c3e 163b 12bf 0900 e73e 431a b0be

exp_avg f4 [128, 34]
4.6169004 0.9312141 0.45188743 0.11135341 0.20168799 -0.3431012 0.2483196 0.12412953
-0.44409123 0.12944609 -0.29091457 -0.7205081 1.3754749 0.017521113 0.09619585 -0.15370171
-0.4952445 -0.61340886 -1.2566837 0.027939208 -0.90037906 -0.55367607 -0.9601203 -1.5091821
-1.9464564 -0.9357357 -0.13456772 -0.102150716 0.023465104 0.08210607 -6.7312474 -3.9729927
-3.5401757 -1.8205482 -2.0053015 -0.69883716 -0.16478987 0.012362387 -0.21020642 -0.20847857
-0.07620044 -0.29460108 0.10183125 0.11723448 0.13571526 0.46404326 -0.6898391 -0.09372361
0.07046555 0.11067504 0.44495732 0.04976677 0.64416295 0.07990569 0.20591262 0.581626
0.35972095 1.7153364 1.3651907 0.6955544 0.10670185 0.01714766 0.31118572 1.052478
0.6196821 0.59572005 0.009783328 0.9015579 -3.4552472 -0.9852991 -0.20313443 -0.0045637283
-0.06497869 0.1084234 -0.15979415 -0.078453645 0.18059511 -0.045016922 0.104565755 0.31394485
-0.44639465 -0.04876499 0.04159024 0.06254691 0.15981025 0.20570348 0.57032996 0.035108533
0.6262174 0.5892186 0.9852056 2.0165834 1.5116246 1.0560269 0.022615163 0.06771786
0.13263409 0.5957275 3.5228505 2.4773922 2.0296667 2.0851746 5.8192773 2.115289
0.38957304 0.0878582 0.14946154 -0.08304414 0.34642634 0.10699583 -0.36962295 0.081128046
-0.17589194 -0.5850798 1.0022855 0.05398439 0.12343861 -0.18204378 -0.12586203 -0.3872082
-1.231621 -0.010607079 -1.274864 -1.3233399 -2.0060692 -3.4431696 -2.8953557 -2.4964461
-0.09735343 -0.06855013 -0.15901712 -1.1105254 -5.5144286 -4.5161357 -2.8951256 -2.8414884
-1.788007 -0.5246533 -0.1026805 0.033710532 -0.0036410857 0.018362068 -0.039770227 0.012242828
0.047270883 0.0060693906 0.006174179 0.004585771 -0.030544236 -0.008821125 0.03973196 0.0049096746
0.019689659 0.10083468 0.11790715 0.11998865 0.30944037 0.2657253 0.42190725 0.9580316
0.8198424 0.5373387 0.0049772775 0.013184583 0.19470268 0.17496002 0.850221 0.038100794
0.56441635 0.49072745 0.15110932 0.096504234 0.0024159718 0.0005414756 0.005758379 0.016441232
0.0065066153 0.015897315 -0.01159591 0.0016776324 -0.0058889575 -0.0296852 0.05735815 -0.003987637
0.03194643 0.000855701 0.02255556 -0.014052636 0.0022142543 -0.018927045 -0.118326 0.01661285
0.022411816 -0.3583989 -0.25965723 -0.22956437 -0.0018036675 -0.008837013 -0.4690351 -0.572057
-0.11227233 -0.22601385 -0.04112145 -0.034885287 2.4708943 0.5259096 0.5315666 0.18790159
0.067708105 -0.18807977 0.2056978 0.18755265 -0.4385777 0.11911185 -0.30093056 -0.8730056
1.3459938 0.03075388 0.13514686 -0.2813462 -0.22460245 -0.45365924 -0.9876923 0.24874991
-0.59598356 -0.30548146 -0.40866208 -0.9445267 -1.1885285 -0.5846668 -0.054185204 -0.08516152
0.0438821 0.12929744 -4.1584473 -2.301567 -2.3452313 -1.8190134 -1.4341716 -0.4032871
-0.08678428 -0.024101436 -0.06549823 0.10705444 -0.07505631 -0.00935867 0.10707647 -0.013841371
0.058742028 0.10633705 -0.15885246 -0.040916592 0.014683465 0.035584208 0.04292555 0.11721284
00000000: a6bd 9340 0c64 6e3f ca5d e73e 420d e43d
00000010: 4c87 4e3e f6aa afbe 7e47 7e3e 9f37 fe3d
00000020: ed5f e3be 848d 043e c1f2 94be 3873 38bf
00000030: 900f b03f 7088 8f3c 5402 c53d fb63 1dbe
00000040: b090 fdbe 5d08 1dbf 03db a0bf c4e0 e43c
00000050: 3e7f 66bf b7bd 0dbf 72ca 75bf e12c c1bf
00000060: 7c25 f9bf 608c 6fbf 1fcc 09be 6534 d1bd
00000070: e439 c03c 3a27 a83d 6166 d7c0 8345 7ec0
00000080: 3d92 62c0 b907 e9bf dc56 00c0 fee6 32bf
00000090: adbe 28be 9c8b 4a3c 5a40 57be 687b 55be
000000a0: fa0e 9cbd f4d5 96be e78c d03d a218 f03d
000000b0: f1f8 0a3e 1497 ed3e 4c99 30bf 2af2 bfbd
000000c0: 3e50 903d 98a9 e23d 72d1 e33e 3ed8 4b3d
000000d0: dde7 243f 98a5 a33d c2da 523e 71e5 143f
000000e0: 582d b83e 2590 db3f 92be ae3f da0f 323f
000000f0: 8086 da3d 4079 8c3c bc53 9f3e 99b7 863f
00000100: 7ca3 1e3f 1c81 183f 404a 203c 80cc 663f
00000110: c522 5dc0 903c 7cbf 7902 50be 548b 95bb
00000120: 8c13 85bd 160d de3d 14a1 23be 4eac a0bd
00000130: eded 383e aa63 38bd 9226 d63d 61bd a03e
00000140: d78d e4be ccbd 47bd 875a 2a3d 9818 803d
00000150: 4ca5 233e efa3 523e 2501 123f f7cd 0f3d
00000160: c94f 203f 08d7 163f 6f36 7c3f b40f 0140
00000170: ea7c c13f e42b 873f 6f43 b93c a9af 8a3d
00000180: 3bd1 073e 9981 183f 6276 6140 988d 1e40
00000190: 0fe6 0140 8073 0540 8537 ba40 e560 0740
000001a0: 1e76 c73e 00ef b33d 720c 193e 0c13 aabd
000001b0: cb5e b13e a120 db3d 383f bdbe 7626 a63d
000001c0: 041d 34be cac7 15bf e44a 803f bc1e 5d3d
000001d0: 62cd fc3d af69 3abe fae1 00be 2740 c6be
000001e0: c2a5 9dbf 50c9 2dbc be2e a3bf 3463 a9bf
000001f0: 7063 00c0 e45c 5cc0 824d 39c0 c6c5 1fc0
00000200: 3c61 c7bd 0364 8cbd 62d5 22be b225 8ebf
00000210: 3376 b0c0 2f84 90c0 bd49 39c0 f2da 35c0
00000220: 6add e4bf ae4f 06bf 274a d2bd 0e14 0a3d
00000230: 489f 6ebb 0c6c 963c 1be6 22bd 2496 483c
00000240: 1d9f 413d bde1 c63b c450 ca3b 3c44 963b
00000250: e837 fabc 7b86 10bc fbbd 223d 56e1 a03b
00000260: 354c a13c 6a82 ce3d 4e79 f13d 9cbc f53d
00000270: f86e 9e3e 260d 883e 3a04 d83e 8f41 753f
00000280: 31e1 513f 078f 093f 6e18 a33b 2604 583c
00000290: 2460 473e b828 333e 15a8 593f 940f 1c3d
000002a0: 977d 103f a140 fb3e 67bc 1a3e 03a4 c53d
000002b0: 4855 1e3b d0f1 0d3a c9b0 bc3b c3af 863c
000002c0: 7235 d53b 163b 823c c6fc 3dbc 01e4 db3a
000002d0: 28f8 c0bb 602e f3bc 61f0 6a3d b9aa 82bb
000002e0: 43da 023d 1f51 603a 70c6 b83c 073d 66bc
000002f0: 061d 113b e40c 9bbc e754 f2bd ac17 883c
00000300: fc98 b73c 1080 b7be cbf1 84be ec12 6bbe
00000310: 0a69 ecba 1ec9 10bc 5e25 f0be 5472 12bf
00000320: 09ef e5bd 2d70 67be f76e 28bd e0e3 0ebd
00000330: 2223 1e40 03a2 063f c014 083f 4669 403e
00000340: 8caa 8a3d fc97 40be 72a2 523e cd0d 403e
00000350: 428d e0be eaf0 f33d 9213 9abe 4c7d 5fbf
00000360: 8649 ac3f 90ef fb3c f063 0a3e 9c0c 90be
00000370: 2ffe 65be 0646 e8be 67d9 7cbf 4cb8 7e3e
00000380: 6192 18bf 1168 9cbe 283c d1be 80cc 71bf
00000390: b421 98bf b9ac 15bf 4ef1 5dbd 2a69 aebd
000003a0: b8bd 333d 8c66 043e 0012 85c0 e04c 13c0
000003b0: 4518 16c0 6ed5 e8bf ef92 b7bf a67b cebe
000003c0: f5bb b1bd 6070 c5bc f023 86bd 5c3f db3d
000003d0: 1fb7 99bd 1b55 19bc e94a db3d ebc6 62bc
000003e0: 7b9b 703d 3dc7 d93d 38aa 22be 2898 27bd
000003f0: ea92 703c bfc0 113d b4d2 2f3d 490d f03d

exp_avg_sq f4 [128, 34]
344.65765 73.69043 4.4807076 1.1968594 1.8702223 8.720023 0.6978366 2.875062
1.1601937 0.8248328 0.82237893 21.774813 89.24266 1.2260249 1.0993254 1.1670274
7.2921224 1.8622966 42.293686 3.1143606 9.178364 22.130226 58.789642 88.58325
128.31949 132.37619 0.41286275 0.7679841 0.19890346 4.734188 1225.4496 1112.6694
633.4991 736.0575 234.39551 33.085125 1.896742 0.45240933 0.47708508 2.1847994
0.3019365 0.8101445 0.27161422 0.24831282 0.29275027 3.9167438 15.277315 0.428239
0.4736454 0.4318775 1.8421209 0.91617167 9.745364 2.0608003 5.361181 15.229467
51.57656 94.2704 59.61923 58.73148 0.15410794 0.28493196 9.420953 49.1915
25.331802 590.76105 8.747582 719.1698 241.41766 29.063852 1.3478986 0.27916536
0.26183367 0.8228525 0.16590323 0.32571843 0.22839549 0.20554486 0.22759566 2.226723
15.854742 0.32472408 0.44992495 0.43117183 1.1742876 0.6364888 6.2053056 1.8743474
5.3031197 14.854324 48.579597 86.25682 57.864834 61.02923 0.04935724 0.2687901
7.1762137 16.176964 339.70862 585.46014 171.94731 487.74606 333.42844 49.18203
3.224078 0.6249453 0.6573701 3.7339075 0.37462813 1.2995337 0.48641112 0.34641078
0.45825782 7.392729 35.67072 0.7018587 1.2382067 0.61529845 3.101359 1.0624734
15.007138 2.735423 8.217905 27.605915 79.2424 133.0593 96.5377 98.43046
0.09347301 0.65414566 3.8994281 40.258896 564.18134 1105.9775 292.2005 974.5502
43.90591 6.194263 0.38391557 0.08162268 0.085662805 0.13733214 0.05175781 0.06069495
0.051191356 0.048783027 0.05455542 0.16908742 1.9098241 0.08356518 0.12996656 0.12409062
0.20250557 0.1699713 0.72718954 0.43109652 1.0615283 2.8537295 9.032744 16.828
7.817075 8.349263 0.006976089 0.04523982 2.355861 2.1042125 38.45927 21.710922
27.892916 22.462194 1.5844094 0.27096844 0.0139839 0.002197848 0.033067156 0.054051142
0.0025780944 0.008448073 0.0018195141 0.01585198 0.0017409909 0.04515495 0.11008086 0.0061961613
0.0056946147 0.004323397 0.009505414 0.010249022 0.06592776 0.0558689 0.15117872 0.34152797
1.4948858 4.901989 1.4865535 1.4611615 0.00017365985 0.0016550535 5.709271 16.475582
0.8433735 16.00009 0.44913256 24.29396 291.20325 40.852737 3.6042385 1.0366786
1.4827962 10.62024 0.7022719 3.3983994 0.99348265 0.6661176 0.75879353 24.17316
102.94869 1.094196 0.99768937 1.1574152 7.6966953 1.6915452 43.006065 3.6007445
9.530061 22.483723 65.03439 75.83651 130.3956 134.40363 0.29899555 0.9236999
0.079029016 24.386726 1002.0815 1201.3823 530.606 929.93207 46.32199 8.0046425
0.3742095 0.07743289 0.08151144 0.32155827 0.048250318 0.09779358 0.05866762 0.059035122
0.06256569 0.7133982 4.6783843 0.08160549 0.1137996 0.11403856 0.32871014 0.15618236
00000000: 2e54 ac43 8061 9342 f561 8f40 b032 993f
00000010: 7263 ef3f 3785 0b41 6ba5 323f 0401 3840
00000020: 3a81 943f 3e28 533f 6d87 523f d132 ae41
00000030: 3e7c b242 62ee 9c3f b2b6 8c3f 2761 953f
00000040: 1159 e940 bc5f ee3f bc2c 2942 af51 4740
00000050: 94da 1241 b40a b141 9828 6b42 a02a b142
00000060: ca51 0043 4e60 0443 bf62 d33e 9b9a 443f
00000070: 59ad 4b3e 787e 9740 632e 9944 6c15 8b44
00000080: f15f 1e44 ae03 3844 4065 6a43 2b57 0442
00000090: 71c8 f23f 32a2 e73e 7f44 f43e c1d3 0b40
000000a0: 6c97 9a3e a165 4f3f 0511 8b3e b745 7e3e
000000b0: 5de3 953e eeab 7a40 e26f 7441 2442 db3e
000000c0: a681 f23e 0c1f dd3e 9eca eb3f 3a8a 6a3f
000000d0: 03ed 1b41 27e4 0340 cb8e ab40 e6ab 7341
000000e0: 664e 4e42 728a bc42 177a 6e42 09ed 6a42
000000f0: 79ce 1d3e 9ae2 913e 39bc 1641 19c4 4442
00000100: 88a7 ca41 b5b0 1344 19f6 0b41 deca 3344
00000110: ec6a 7143 c582 e841 f187 ac3f c3ee 8e3e
00000120: 100f 863e 76a6 523f 89e2 293e 91c4 a63e
00000130: 82e0 693e 5a7a 523e d60e 693e a182 0e40
00000140: 06ad 7d41 3c42 a63e 905c e63e 8ec2 dc3e
00000150: 0e4f 963f eef0 223f dd91 c640 9eea ef3f
00000160: 28b3 a940 50ab 6d41 8251 4242 7e83 ac42
00000170: 9775 6742 ee1d 7442 d12a 4a3d db9e 893e
00000180: 8ba3 e540 6c6a 8141 b4da a943 735d 1244
00000190: 83f2 2b43 7fdf f343 d7b6 a643 66ba 4442
000001a0: 4b57 4e40 6afc 1f3f 6849 283f 57f8 6e40
000001b0: 42cf bf3e 1f57 a63f e10a f93e c15c b13e
000001c0: c5a0 ea3e 3c91 ec40 d1ae 0e42 03ad 333f
000001d0: 8f7d 9e3f 3384 1d3f aa7c 4640 21ff 873f
000001e0: 3d1d 7041 2c11 2f40 8a7c 0341 ead8 dc41
000001f0: 1c7c 9e42 2e0f 0543 4d13 c142 65dc c442
00000200: c76e bf3d 1776 273f 3b90 7940 1c09 2142
00000210: 9b0b 0d44 483f 8a44 aa19 9243 36a3 7344
00000220: a79f 2f42 6737 c640 9590 c43e cb29 a73d
00000230: fb6f af3d cca0 0c3e ffff 533d 459b 783d
00000240: 07ae 513d b6d0 473d 8175 5f3d 4125 2d3e
00000250: 1e75 f43f 3924 ab3d f415 053e 3923 fe3d
00000260: 9f5d 4f3e f50c 2e3e 1829 3a3f afb8 dc3e
00000270: 29e0 873f 81a3 3640 1f86 1041 be9f 8641
00000280: 7a25 fa40 9596 0541 ad97 e43b 644d 393d
00000290: 6dc6 1640 6bab 0640 4bd6 1942 f8af ad41
000002a0: b124 df41 93b2 b341 edcd ca3f 60bc 8a3e
000002b0: ba1c 653c c509 103b 6d71 073d bb64 5d3d
000002c0: 3ff5 283b c969 0a3c c37c ee3a 03dc 813c
000002d0: f631 e43a 66f4 383d 1372 e13d 2b09 cb3b
000002e0: e499 ba3b 48ab 8d3b 99bc 1b3c 84eb 273c
000002f0: 2205 873d cad6 643d 98ce 1a3e c1dc ae3e
00000300: 6b58 bf3f 18dd 9c40 6347 be3f 5707 bb3f
00000310: 7618 3639 61ee d83a 59b2 b640 fecd 8341
00000320: 53e7 573f 2f00 8041 b4f4 e53e 085a c241
00000330: 049a 9143 3469 2342 d8ab 6640 e2b1 843f
00000340: 44cc bd3f 81ec 2941 17c8 333f 607f 5940
00000350: e154 7e3f af86 2a3f 4b40 423f a262 c141
00000360: bbe5 cd42 9d0e 8c3f 9268 7f3f 2e26 943f
00000370: 544b f640 8e84 d83f 3606 2c42 9972 6640
00000380: 217b 1841 aade b341 9c11 8242 4bac 9742
00000390: 4665 0243 5467 0643 f215 993e 9977 6c3f
000003a0: f7d9 a13d 0418 c341 3785 7a44 3c2c 9644
000003b0: c9a6 0444 a77b 6844 b849 3942 0413 0041
000003c0: 6398 bf3e 2395 9e3d 78ef a63d 49a3 a43e
000003d0: 20a2 453d 0048 c83d 754d 703d d0ce 713d
000003e0: 7122 803d 44a1 363f 53b5 9540 c720 a73d
000003f0: c40f e93d 0c8d e93d b24c a83e 45ee 1f3e
