Data/Player1/checkpoint-test7.pth (torch, 338352 bytes, 20 tensors)

linear1.weight f4 [128, 34]
000000 ab be 03 3c fc ce 2f 3c 72 b3 d4 3d 2f 44 56 3e
       0.008041064 0.010730501 0.10385789 0.20924447
000010 cc 91 21 3c 40 c8 98 3d 37 a5 45 bd 06 51 69 be
       0.009861421 0.0746007 -0.048253264 -0.22784814
000020 58 48 48 3e cd 80 32 bd 2c c7 dc bd 01 6c 93 3c
       0.19558847 -0.043579865 -0.107801765 0.017995836
000030 e0 e5 11 be b6 a1 f2 bd e2 32 ec 3d 98 db 96 3e
       -0.14247847 -0.1184725 0.115331426 0.29464412
000040 0a 5c 85 3e ac 60 ae 3d 7a 19 d4 3d 4a c8 e2 bc
       0.26046783 0.085145324 0.10356422 -0.027683396
000050 c3 87 5b 3d 92 e7 06 3e 8f 1f 11 3e 13 a5 0c 3e
       0.05359627 0.13174275 0.14172195 0.13734846
000060 9d 41 14 be 53 4c 1c 3e d6 06 e8 3d 89 f3 05 3e
       -0.14478154 0.1526349 0.11329429 0.13081183
000070 24 d0 37 bd 07 2f 43 be 70 44 85 3d 52 15 67 bc
       -0.044876233 -0.19060908 0.06507194 -0.014104204
000080 94 e7 92 bd 50 d1 aa be 76 42 5a be 09 24 2e 3d
       -0.07173076 -0.33362818 -0.21314415 0.042514835
000090 87 d8 55 3d 12 5a 8e 3d 8b f5 cf 3d 30 0b 14 3d
       0.05220845 0.06950773 0.101542555 0.03614348
0000a0 96 3d 7d 3e e2 4d d0 bc 9a 4d 57 3e e5 4f 25 3e
       0.24730524 -0.025427762 0.21025696 0.16143759
0000b0 63 21 98 3d 79 9f 15 3e 79 3f b8 bd ca 2a 65 be
       0.07428243 0.14611615 -0.089964814 -0.22379604
0000c0 17 0c 3b be 63 0c 71 be 2a 8b 3a bd c7 ef a3 bd
       -0.1826633 -0.23539881 -0.045542873 -0.08004718
0000d0 da 5a 0e 3e 4a 8f a1 3d cf 70 06 bd 3a 0a 06 3e
       0.13901845 0.07888658 -0.032822426 0.13089839
0000e0 19 70 be bd 77 bf c6 3c c4 78 a6 bd 33 9b d1 bc
       -0.09298725 0.02426122 -0.08128503 -0.0255867
0000f0 86 c2 bc 3e d0 d4 47 bb e3 6f 5d bd 6d d8 8c be
       0.3686716 -0.0030491836 -0.05406178 -0.2750887
000100 2d d1 9f bd 11 2e 83 3d ed 2f 18 3e cb cb ed 3d
       -0.07803569 0.06405271 0.14862032 0.11611136
000110 64 29 81 3e 3e 53 8b bd c1 17 c5 be db 19 f6 3d
       0.2522689 -0.068029866 -0.38494685 0.1201665
000120 0e 1b 10 be 4f 01 80 bd 7f be b2 3d 11 94 22 3c
       -0.1407282 -0.062502496 0.087277405 0.009922997
000130 ad 7a 86 3d 4f e9 10 be c6 4a a0 be 28 d4 ca bd
       0.06566367 -0.141515 -0.31307048 -0.09903747
000140 57 a9 b2 3d a5 8e 86 3c 61 92 ac 3e 0e 28 21 3e
       0.08723705 0.01642544 0.33705428 0.15737936
000150 81 8b fe bc 32 6f cd bd 86 7c 8d 3d 83 cb 77 3d
       -0.03107238 -0.100309744 0.069085166 0.06049682
000160 c2 84 ef 3c b5 82 d1 3c f2 b2 9a 3d b8 be cb bc
       0.029238109 0.025575021 0.07553662 -0.024871215
000170 40 68 02 bd e5 5d 07 bd dc fc 56 3e 3c fe 90 be
       -0.0318377 -0.03304853 0.20994896 -0.28318965
000180 23 5d 91 3e d5 e0 e2 3d 55 b0 91 3d 54 fd 8f bd
       0.2839137 0.110780396 0.07113711 -0.070307404
000190 31 39 ce bc aa 2d 81 3a da 66 d7 bb ea d3 4b 3e
       -0.025173755 0.0009855528 -0.00657354 0.19905058
0001a0 d3 3b 3b be ea 48 cc 3b 64 79 d0 3c 06 90 49 bd
       -0.1828454 0.006234278 0.025448509 -0.049209617
0001b0 6a db a4 3d d2 ea ec bd d1 51 a9 3d e4 33 30 3e
       0.080496624 -0.11568226 0.08267558 0.17207295
0001c0 1d 56 55 3e 59 55 5f bd e7 18 e2 3d 93 da c6 3d
       0.20833631 -0.054524753 0.11039906 0.097096585
0001d0 af 18 bd be cf bb 05 3e f1 fe 4a bd 50 54 d2 3e
       -0.36932895 0.13059925 -0.049559537 0.4107995
0001e0 39 77 cb bd 21 31 01 be 17 41 a8 3d aa 10 b1 bd
       -0.09934849 -0.12616397 0.0821554 -0.086457565
0001f0 99 44 a9 3c 3f df 6a bd 70 b7 4f 3e 61 63 35 3d
       0.020662593 -0.05734181 0.2028482 0.04428423
000200 de ff 82 be 2d 24 f0 bd 93 85 10 be cd 5b e3 bc
       -0.25585836 -0.1172565 -0.14113455 -0.027753735
000210 65 35 37 3c e3 be c4 bc a0 c2 a8 bd a8 98 11 3e
       0.011182164 -0.024016803 -0.08240247 0.1421839
000220 6b 8f ed bd d6 68 96 3d 3e 5d 0f 3c 15 17 3c 3e
       -0.115996204 0.073442146 0.008750258 0.1836818
000230 d2 f3 b0 bd 6f 6d 94 3e 93 cb 16 3e f8 fe 25 be
       -0.08640255 0.2898974 0.14726095 -0.16210544
000240 2e a6 d4 3d ef 43 77 3e b5 5e fc bd 9b 15 c2 3c
       0.10383259 0.24147008 -0.123227514 0.023691943
000250 51 bf 64 be 58 43 7e 3b aa 85 0a be 70 02 13 be
       -0.22338606 0.0038797464 -0.13527551 -0.14356399
000260 a6 62 53 3e f8 4b e3 bd a7 2e c4 3d 0e da 19 3e
       0.206431 -0.11098474 0.09579211 0.15024588
000270 c4 d5 31 3e ff 4f 38 bd ca 8b be bd c8 6d 88 3d
       0.17366701 -0.044998165 -0.093040064 0.06661564
000280 67 6b b9 3c be b0 9c 3c 84 0d 6d 3e 2d d4 14 be
       0.022634221 0.019127246 0.23149687 -0.14534064
000290 16 c0 78 3d 84 9b fb bd 47 c4 a4 bd 77 1c b8 bc
       0.060730062 -0.122855216 -0.080452494 -0.02247451
0002a0 78 c1 02 bd 36 3f 2c 3e 26 e8 49 be 45 15 02 be
       -0.031922787 0.16820988 -0.19717464 -0.12703426
0002b0 e9 ed 00 be 0e aa aa bd a0 15 7e 3e 7b 8c 81 bd
       -0.12590756 -0.083332166 0.24812937 -0.06325623
0002c0 88 99 56 3d a8 30 1e bd da a2 84 3e b6 32 d2 bd
       0.052392513 -0.03862062 0.25905496 -0.102635786
0002d0 35 ba 68 bd e8 a4 8a 3e cd d4 f1 bd 7a b5 4a bd
       -0.056818206 0.27078938 -0.11808167 -0.049489476
0002e0 30 71 d4 3d 2e d3 07 3e 92 8b b2 3e c6 14 4a 3e
       0.10373151 0.13264152 0.3487211 0.19734487
0002f0 fa 57 10 3e ee 08 71 3e a9 45 31 3e 31 75 44 3e
       0.1409606 0.23538563 0.1731173 0.1918533
000300 b6 28 89 3d af e8 15 3e c8 72 30 3e 62 b1 04 3e
       0.06697218 0.14639543 0.17231286 0.12958291
000310 b5 6f cd 3d b8 32 47 3e 0d 72 5a bc fe 48 c0 3d
       0.10031072 0.19452941 -0.013332856 0.09388922
000320 ac 27 65 be cc fa d3 be da ec 47 bd f5 07 35 3d
       -0.22378415 -0.4140228 -0.048809864 0.04419704
000330 a7 ec 01 be 0a 78 fc bd 78 df f6 bd d3 bc 1a be
       -0.12687932 -0.12327583 -0.12054342 -0.15111093
000340 97 29 05 be 18 bd 5c be fd 1b 3f bd f1 1a db bd
       -0.13004147 -0.21556509 -0.04665755 -0.10698498
000350 7d 20 01 bc 92 b0 9c bd 7c c0 10 3c ed d9 91 3d
       -0.007881281 -0.076508656 0.008834954 0.07121644
000360 a1 d2 fe bd 71 94 c3 bd d8 14 99 bd de b4 ad bd
       -0.12442518 -0.09549797 -0.07474679 -0.08481763
000370 03 10 87 bd 79 06 eb bd 2f ff c2 bd a8 19 83 bd
       -0.06594851 -0.11475844 -0.09521329 -0.06401378
000380 43 37 84 3d a2 46 64 3e 81 f1 36 bd bf c3 84 bd
       0.06455853 0.2229257 -0.04466391 -0.06482648
000390 14 c9 2a 3d 09 bf 55 3e 11 7f 27 bc e3 b4 e0 3a
       0.04169567 0.20873655 -0.010223166 0.0017143752
0003a0 e2 7c 31 3e fb d2 34 3e 02 35 99 3c fa e3 f5 bc
       0.17332795 0.17658608 0.018702034 -0.030015934
0003b0 c6 b1 b0 bd 2f d4 10 bd 38 07 0d bd cb c0 03 be
       -0.086276576 -0.035358604 -0.034430712 -0.12866513
0003c0 5c 9a 0a 3e ca 3e 8f bd 0e 00 25 bc ea 58 7d 3d
       0.13535446 -0.06994398 -0.010070814 0.061852373
0003d0 a8 0f 38 bd ea 81 1d 3e 14 01 14 3d 02 6e 73 bd
       -0.044936806 0.1538159 0.03613384 -0.059431084
0003e0 90 8c 93 3e 3e 3e 5d 3d 5f 91 80 be 56 f4 5d be
       0.28818178 0.054014437 -0.2511091 -0.21675238
0003f0 04 7a eb 3d 7f a8 44 3d b7 ad 00 be 95 f3 aa bd
       0.11497882 0.048012253 -0.12566267 -0.08347241

linear1.bias f4 [128]
000000 de 07 ce 3e 5f 99 df 3e 35 18 de 3e 8c 74 9b 3d
       0.40240377 0.436717 0.43377843 0.07590589
000010 74 fb 8e 3e c4 24 27 3f bf 40 82 bd b3 5c c8 3e
       0.27926219 0.65290475 -0.063600056 0.39133224
000020 61 42 b0 3e 28 c5 a0 3e d0 dd c2 3e b5 fd 80 3e
       0.34425643 0.31400418 0.38059855 0.25193563
000030 5b d4 8d be 87 fe f3 3e 7e bd 61 3e c9 04 ee 3e
       -0.27701077 0.47655126 0.22044942 0.46488026
000040 df d7 0a be a9 33 84 be 1a 5e d7 3e b0 b3 e0 3e
       -0.13558911 -0.25820664 0.4206398 0.4388709
000050 f5 0b 3d 3e 29 a8 b2 3e f4 0a 70 be 96 f2 aa 3e
       0.18461592 0.3489392 -0.23441678 0.33388203
000060 ea 3d 34 be 9b a5 8c 3e 61 d3 6e 3e 3a f5 1c bd
       -0.17601743 0.27470097 0.23322822 -0.038319804
000070 3c 17 b9 3e 32 89 8c be 1e 00 bb 3e 61 cc 84 3e
       0.3615054 -0.27448422 0.36523527 0.2593718
000080 0e 6f b8 3e bc ee 7b be c9 cb 94 3e b2 2e 8e 3e
       0.36022228 -0.24602789 0.29061726 0.2777
000090 7a 58 99 be 3a ac 81 3c 1d 07 d8 3e 66 b6 26 bc
       -0.29950315 0.015829194 0.42192927 -0.010175323
0000a0 0f a7 9b 3e 18 47 19 be 16 a6 36 3f 3a 34 da 3e
       0.30400893 -0.14968526 0.7134718 0.4261797
0000b0 7e f0 ab be 12 c9 27 be 68 8f 09 bd 0c bf 44 3e
       -0.33581918 -0.16385296 -0.03358403 0.19213504
0000c0 09 74 e5 3e 0f 89 43 be cc 38 00 3f 6f 42 f7 3d
       0.4481509 -0.19095252 0.50086665 0.12073218
0000d0 e5 92 b0 3d b6 f4 c1 3e bf d8 1f 3e 8f 9c 1a 3f
       0.08621768 0.37882012 0.15610026 0.6039514
0000e0 ac a8 17 3f 15 68 9c 3e 68 47 dc 3e 83 50 c3 3e
       0.5924175 0.30548158 0.4302323 0.38147363
0000f0 1d af 01 3f e1 a3 da 3e b0 83 f0 3e c5 85 c7 3e
       0.50657827 0.42703155 0.4697547 0.38969246
000100 a5 49 d2 3e 18 a0 d8 3e 58 64 ca 3e fe 7f 47 3e
       0.4107181 0.42309642 0.3952968 0.19482419
000110 9c 3a b8 3e 25 62 c5 3e a2 fe be 3e e9 59 bd 3e
       0.35982215 0.3855144 0.37303644 0.36982659
000120 8d 4a 52 3e a6 cf 90 be ec ed 4f 3e c7 bd fe 3d
       0.20536251 -0.28283423 0.20305604 0.12438541
000130 ca 8c 9b 3e 03 53 d5 3e 3a 90 89 3e 21 af 59 3e
       0.3038085 0.41664895 0.2686785 0.21258213
000140 9b a0 60 be 37 95 93 3e 45 f7 de bd 7d ae 95 bd
       -0.21936266 0.2882478 -0.10887007 -0.073086716
000150 77 e3 1b 3e 0b d8 c7 3e 39 26 e0 3b 67 23 47 3d
       0.1522349 0.39032015 0.006840494 0.048617747
000160 d2 15 9b 3d cf 3a 35 3e 2c d0 a5 be 55 fd 0f 3d
       0.07572521 0.17698215 -0.32385385 0.035153706
000170 07 2c 00 bc 35 15 31 be b9 d9 da 3e 03 2d 9f 3e
       -0.007822997 -0.17293246 0.42744234 0.3108903
000180 03 90 ad be 6f a8 55 3e 80 b8 d8 3e c6 18 67 be
       -0.33898935 0.20865034 0.42328262 -0.22568044
000190 d1 3f 9c bd 1f 21 12 3f 16 6c 31 bd 36 9e 1c 3f
       -0.076293595 0.5708179 -0.04331597 0.6117891
0001a0 f2 23 9f 3e 5d 28 48 3c ce 3a 4a 3d 43 a2 13 3f
       0.31082112 0.012216655 0.049372487 0.57669467
0001b0 ab f9 8b bc 55 5e e4 3e 7d e6 c7 3e b9 29 c0 be
       -0.017086824 0.4460322 0.39043036 -0.37531832
0001c0 ed ae 9b 3e 6e 21 90 be 8d 50 9c 3e 1d 34 85 3e
       0.30406895 -0.28150505 0.30530205 0.26016322
0001d0 51 39 3b be fd 00 36 be 31 8f 05 be cf ba ee 3e
       -0.18283583 -0.17773814 -0.13042904 0.466269
0001e0 1e 95 ec 3d 22 97 55 be e7 50 ac be 2c 9f 88 3e
       0.11551879 -0.20858434 -0.33655474 0.26683939
0001f0 16 d3 38 3e aa 50 89 3e 7b ad c5 bd 90 05 72 3e
       0.18049273 0.26819354 -0.096522294 0.23634934

linear2.weight f4 [64, 128]
000000 e9 21 03 3e c7 ce cf 3d b3 16 6c 3e 38 44 24 bc
       0.12805904 0.101468615 0.23055534 -0.01002603
000010 14 30 e6 3d c3 50 46 3e ba ac 18 bd f7 a1 6b 3d
       0.11239639 0.19366746 -0.0372741 0.05752751
000020 c0 09 40 3e ce 04 18 3e b8 f3 3d bd 35 5a 5d 3d
       0.1875372 0.14845583 -0.046375006 0.054041106
000030 85 0f df bd 0a 4f 34 bc a5 4d 3c 3e dd 5f 2b 3e
       -0.10891632 -0.0110051725 0.18388994 0.16735788
000040 a9 16 a9 3d 7c 72 85 be 3f 68 81 3d 0f 0d 16 3e
       0.08256275 -0.26063907 0.063187115 0.14653419
000050 07 86 c7 3d a9 1c 01 3d ed c7 1d 3d 7e 58 e9 3d
       0.097423606 0.031521473 0.038520742 0.11393832
000060 63 72 99 bd 80 0b 99 3d 98 27 6f 3e a1 4a 72 3d
       -0.07492521 0.074728966 0.23354948 0.059153203
000070 2b 4b 88 bb b5 a3 36 3c ec 92 1c 3e 35 00 24 3e
       -0.0041593513 0.011147429 0.15290421 0.16015704
000080 df d6 81 3e e4 39 54 be 67 70 b1 3c 25 87 a4 3e
       0.25359246 -0.20725209 0.021660043 0.32134357
000090 a5 07 87 bc cb 16 91 3c 3d 8c fa 3e a2 bb ca be
       -0.016483137 0.017711064 0.48935118 -0.39596277
0000a0 5a 59 70 3e 75 4d 35 bc 85 9c c9 bc 22 c5 34 3e
       0.23471585 -0.0110658305 -0.024610767 0.17653325
0000b0 d3 f6 7c bd 87 75 1e bd 55 37 12 3e c2 17 2f bc
       -0.061758827 -0.0386863 0.1427892 -0.010686817
0000c0 5d dc bf 3d 20 34 c6 3d f6 ab 5d 3e e2 ea b7 3d
       0.09368203 0.09677911 0.21647629 0.08980347
0000d0 5a 5e a7 3d b2 50 18 3e 33 1b d8 3d f6 f4 e2 3d
       0.08172293 0.14874533 0.10552063 0.11081879
0000e0 f5 19 ec 3d bf 25 03 3e 43 6c dd 3d 24 d1 75 3e
       0.115283884 0.12807368 0.10811665 0.24005562
0000f0 00 5e ac 3e 29 35 0d 3e c4 1f 23 3e c9 d2 88 3d
       0.33665466 0.1378981 0.15930086 0.06680829
000100 d5 95 ac 3c c0 8a 65 3e e2 2e 0e 3e d0 63 97 3e
       0.02106754 0.2241621 0.13885072 0.29568338
000110 a2 b6 87 3e fe 8b 83 3e 90 a9 3b 3d 49 ee e1 3d
       0.26506525 0.25692743 0.045816004 0.110317774
000120 92 14 2b 3e bd d8 e7 bd 84 a0 fb 3d 37 43 3d 3e
       0.16707066 -0.113206364 0.12286475 0.18482672
000130 db 20 16 3e 82 48 2f 3e 43 7e 71 3e 3a f2 24 3b
       0.14660971 0.17117503 0.23583321 0.0025168792
000140 70 95 c8 bb df f6 60 3e 91 3a d0 bc d9 74 1d be
       -0.00612133 0.21969174 -0.025418552 -0.15376605
000150 9e 53 4c 3e a3 48 84 3e a1 52 22 be 8a 6f fb 3a
       0.19953772 0.25836667 -0.15851833 0.0019183022
000160 e9 d0 af 3e e0 16 c3 3c 6c 06 7b bd 6d dc 7e 3d
       0.34339073 0.023814619 -0.06128542 0.062221933
000170 ed 2b 62 bd a4 0d af bc 9d ca b0 3d 44 bc 8d 3e
       -0.055217672 -0.021368809 0.086323954 0.27682698
000180 9f b9 bd bb 89 94 98 3d 51 14 a2 3d de c6 8c 3d
       -0.00578995 0.07450206 0.07914031 0.068738684
000190 c9 0b 65 be 64 01 09 3e 54 5a 60 bd 7a 7a c1 3d
       -0.22367777 0.13379437 -0.054773644 0.09447189
0001a0 33 52 3a 3e 5c 46 5c bd 07 cf d5 bd ff e1 df 3e
       0.18195419 -0.053778037 -0.10439878 0.4372711
0001b0 87 03 d0 3b 78 60 d9 3c 06 ab 66 3e d5 57 98 bd
       0.0063480767 0.026535258 0.22526178 -0.07438628
0001c0 85 6a 46 3e c3 d0 91 bd d2 ff fa 3d e3 0d 10 3e
       0.19376571 -0.07119896 0.12255825 0.14067797
0001d0 26 95 a6 3c e9 87 ca bc 4a fb c5 bd ff 86 22 3e
       0.020334791 -0.02472301 -0.0966707 0.1587181
0001e0 cf c5 56 3e 6d 67 8a bd 5b 65 e8 bd 0f ad 88 3d
       0.20973895 -0.06758008 -0.11347457 0.06673633
0001f0 c5 40 af 3d a3 dd 34 3d e5 5d 1f bc aa d3 ff 3d
       0.08557276 0.04415668 -0.009726976 0.124915436
000200 64 32 28 3e cb 0e 0d 3e f2 99 6f 3e 51 10 9a 3b
       0.16425472 0.13775174 0.23398569 0.004701652
000210 eb 8e dd 3d a3 fc 88 3d 3b 0b 8f 3d fc 5e 17 bd
       0.10818275 0.06688812 0.06984564 -0.03695582
000220 77 4e 41 3e 6c 8c 06 bc 0d 3f f1 bc f4 47 30 3e
       0.18877588 -0.00821219 -0.02944901 0.17214948
000230 f9 2a 77 bd de b9 0b 3e 73 6a 67 3e f7 69 2a 3d
       -0.060343716 0.13645121 0.22599201 0.041604962
000240 f9 f1 79 3d 41 d7 1d be 2d 8b 39 3e f9 20 3b 3e
       0.06102178 -0.15414144 0.18119498 0.18274297
000250 11 f6 d6 3c 47 6f c6 3d a0 69 dd bb ad 85 1f 3e
       0.02624038 0.09689193 -0.0067569762 0.15578337
000260 09 96 47 3d 98 4c 36 3c e6 b6 1a 3e 7f 04 4d bd
       0.04872707 0.01112666 0.15108833 -0.050053116
000270 80 d1 5d 3d 68 e4 65 3d f6 5f 5b 3d 23 3a ee 3c
       0.054154873 0.05612603 0.053558312 0.029080456
000280 dd da 41 3e 81 78 75 be 50 b2 e0 3d 6c 91 8c 3e
       0.18931146 -0.2397175 0.109715104 0.27454698
000290 35 f3 17 be 14 af 88 3d fe 4b d2 3e eb b5 d0 be
       -0.1483887 0.066740185 0.41073602 -0.40763792
0002a0 81 85 5d 3e 59 3d ae bc 52 5c f1 3d f8 05 43 3e
       0.21632959 -0.021269487 0.11785187 0.19045246
0002b0 9e da 05 bd 26 64 f9 bc 06 61 61 3d 06 74 b8 3d
       -0.032679193 -0.030443262 0.05502417 0.09006505
0002c0 0b bb 43 3e 07 c0 c9 3d 1f 07 32 3e e5 c1 06 3e
       0.1911432 0.098510794 0.17385529 0.13159902
0002d0 13 00 65 3e cd 02 f0 3d 38 56 32 3d e4 0f 56 3d
       0.2236331 0.11719284 0.043539256 0.05226125
0002e0 cc c8 ed 3d 26 b9 f2 3d e1 4c 0c bc a5 c1 78 3e
       0.116105646 0.118517205 -0.008563251 0.2429262
0002f0 ee 9e 9e 3e ed d8 4e 3d 19 64 22 3e 64 3b da 3d
       0.3098063 0.050499845 0.15858497 0.10655859
000300 6a d3 4c 3d d3 ed 34 3e 6f a7 05 3e e2 10 4c 3e
       0.050006308 0.17668848 0.13052152 0.19928315
000310 43 a1 c9 3e 0d 7e 55 3e a9 9c 01 3e 56 1a 4e 3d
       0.39380845 0.20848866 0.12657417 0.050318085
000320 49 f6 36 3e 5a 9f a3 bd 9d 4a 81 3d d4 58 ba 3d
       0.17867388 -0.07989378 0.063130595 0.09098974
000330 c5 45 ba 3d 04 45 e9 3d 8f e5 35 3e 6c b7 3f 3d
       0.09095339 0.11390117 0.17763351 0.046805784
000340 c0 cf 75 3b e9 3f c7 3d b9 1a e2 bd 95 60 13 be
       0.0037507862 0.09728987 -0.11040253 -0.14392312
000350 a8 47 3a 3e 8a d9 96 3e fc 5d 47 be cb e2 81 3d
       0.18191397 0.29462844 -0.19469446 0.063420855
000360 09 cb 8f 3e 3f e2 90 3d 26 68 ac bd 74 99 11 3e
       0.2808459 0.07074403 -0.08418302 0.14218694
000370 41 de b9 bd ee 0c a0 bd d1 0c 42 3d 4a 37 16 3e
       -0.09075595 -0.07814966 0.047375504 0.14669529
000380 94 b4 5d 3c 28 9b f3 3b 0a f3 42 3c 95 21 57 3d
       0.013531823 0.0074342676 0.011898765 0.05252226
000390 5b d4 33 be f2 8c b1 3d 47 f2 b2 bc cc e1 12 3e
       -0.17561476 0.08669461 -0.021844042 0.14343947
0003a0 8a bd 2d 3e 6a d1 f7 bd 1d 6c 53 bc ab 88 c2 3e
       0.16966835 -0.121004894 -0.012904194 0.37994894
0003b0 2c 1d 4a 3d f8 88 17 3e 01 c7 36 3e 65 42 c6 bd
       0.049344227 0.14798343 0.17849351 -0.096806325
0003c0 ef 06 18 3e fb ae d2 bd 13 da 2c 3e 2f 61 4c 3e
       0.14846395 -0.10287281 0.16880064 0.19958948
0003d0 d5 06 7e 3d aa 70 8a 3c a9 db d7 bd 17 5a 75 3e
       0.062018234 0.016899426 -0.10539944 0.23960148
0003e0 a1 58 73 3e 0d c2 b9 bd 32 5d 3d bd 9d 68 3f 3d
       0.23764278 -0.090702154 -0.046231456 0.046730626
0003f0 95 0a 21 3e 1e 26 b4 3d e8 f8 48 bc be 56 1d 3b
       0.15726693 0.08796333 -0.012266375 0.0024008001

linear2.bias f4 [64]
000000 b8 3c cf 3e 91 b8 90 3e fb ac a8 3e b0 76 4e be
       0.40476012 0.28265813 0.32944474 -0.20162463
000010 ca 09 d9 3e 32 a0 84 3e 87 f0 8a 3e e1 5c a4 3e
       0.4239028 0.2590347 0.27136633 0.3210211
000020 a4 69 23 be 5f 59 41 be 95 c4 0b be 76 a3 45 be
       -0.15958267 -0.18881749 -0.13649209 -0.19300637
000030 31 da 4e be 12 f8 b6 3e 82 0b 88 3e e9 18 a7 3e
       -0.20200421 0.35736138 0.2657128 0.32636192
000040 8a 94 8e 3e fd 96 79 be c2 89 56 be 6a 82 b0 3e
       0.278477 -0.24374004 -0.20950988 0.34474498
000050 21 fc d2 3e 48 69 ae 3e 94 85 1a be e4 e8 8f 3e
       0.41207984 0.34064698 -0.15090019 0.2810737
000060 98 f9 0c be dd c0 92 be 7a 12 cb 3e 72 0e c3 3e
       -0.13767087 -0.28662768 0.39662534 0.38096958
000070 77 22 81 3e cd 76 99 3e 99 c8 87 3e 28 09 7e be
       0.25221607 0.2997345 0.2652023 -0.2480818
000080 cf 96 8e 3e 44 17 07 be a6 a6 d9 3e a6 47 88 be
       0.27849433 -0.13192469 0.42509955 -0.26617163
000090 e6 fd 9d 3e cc c8 b5 3e c2 2b cb 3e cc 7b 89 be
       0.30857772 0.35504758 0.39681822 -0.26852262
0000a0 5f 5e cb bd 96 62 5f be 96 a0 8e be 93 0c ca 3e
       -0.09930109 -0.21814951 -0.27856892 0.39462718
0000b0 50 d6 5a be ad 30 09 be ba 4b ac 3e b0 f5 67 be
       -0.21370816 -0.13397475 0.33651525 -0.22652316
0000c0 fb e2 8f 3e d3 0f a9 3e 5e 07 d9 3e 71 d8 2f be
       0.2810286 0.33019885 0.42388433 -0.1717241
0000d0 99 76 ab bd e8 50 8f 3e 5b b0 8f be 97 25 17 be
       -0.0837223 0.27991414 -0.28064236 -0.14760433
0000e0 71 3c 96 be bf f7 95 be 10 4a 39 be c0 16 78 be
       -0.29342988 -0.29290578 -0.18094659 -0.24227428
0000f0 2a 9b 83 be 89 4d 5c be e2 f4 70 be 57 56 1e be
       -0.25704318 -0.21513952 -0.23530915 -0.15462624

output.weight f4 [1, 64]
000000 6e 0b 55 3e 68 04 38 3e 1c b2 7f 3e 98 a3 8b be
       0.20805141 0.17970431 0.24970287 -0.2727325
000010 65 7e 68 3e 8c 6d 5c 3e f2 65 67 3e 3d 9a 69 3e
       0.22704466 0.21526164 0.22597483 0.22812743
000020 02 f0 87 be c0 04 b7 be 6e 89 b3 be ab cd ce be
       -0.265503 -0.3574581 -0.35065788 -0.40391287
000030 9f 35 b0 be ed 63 7f 3e e5 c8 3d 3e 45 79 27 3e
       -0.3441591 0.24940462 0.18533666 0.16354854
000040 b1 56 84 3e 94 40 a6 be cc cc 19 be 83 18 85 3e
       0.2584739 -0.32471144 -0.1501953 0.25995263
000050 0d 21 60 3e 25 0f 14 3e 2d df a0 be 7a 85 bb 3e
       0.21887608 0.14458902 -0.3142027 0.36625272
000060 bf 45 8c be d5 a8 bf be 2b fd 87 3e 78 cf 13 3e
       -0.27396962 -0.37433496 0.2656034 0.14434612
000070 19 b9 84 3e f8 a0 a5 3e a7 64 82 3e 30 20 c5 be
       0.25922468 0.32349372 0.25467417 -0.3850112
000080 c5 80 75 3e 9b 22 a8 be 58 26 33 3e c0 91 88 be
       0.23974903 -0.32838902 0.17495096 -0.26673698
000090 1a 6f 33 3e ba ac 81 3e 67 d5 5a 3e 52 fb 87 be
       0.1752285 0.25327092 0.21370469 -0.2655893
0000a0 3b 31 8c be c9 0b a0 be a8 91 cc be 1a f6 5d 3e
       -0.2738131 -0.3125899 -0.39954877 0.21675912
0000b0 e6 2a c2 be 9e 62 54 be e6 46 33 3e 5a 3e 91 be
       -0.37923354 -0.20740744 0.17507514 -0.28367883
0000c0 77 c0 b2 3e 29 eb c6 3e f0 85 92 3e f6 be 8f be
       0.34912464 0.38851288 0.2861781 -0.2807538
0000d0 92 61 9c be 93 d6 8b 3e cd d0 6e be b1 0c 7a be
       -0.3054319 0.27312145 -0.23321839 -0.24418904
0000e0 1e d2 f9 bd 2d 9f 1c be 98 da 39 be 49 33 80 be
       -0.1219828 -0.15295096 -0.18149793 -0.25039127
0000f0 45 77 c7 be 16 fb a1 be 25 c8 a3 be fc dc 76 be
       -0.38958183 -0.31636876 -0.31988636 -0.24107736

linear1.weight f4 [128, 34]
000000 ab be 03 3c fc ce 2f 3c 72 b3 d4 3d 2f 44 56 3e
       0.008041064 0.010730501 0.10385789 0.20924447
000010 cc 91 21 3c 40 c8 98 3d 37 a5 45 bd 06 51 69 be
       0.009861421 0.0746007 -0.048253264 -0.22784814
000020 58 48 48 3e cd 80 32 bd 2c c7 dc bd 01 6c 93 3c
       0.19558847 -0.043579865 -0.107801765 0.017995836
000030 e0 e5 11 be b6 a1 f2 bd e2 32 ec 3d 98 db 96 3e
       -0.14247847 -0.1184725 0.115331426 0.29464412
000040 0a 5c 85 3e ac 60 ae 3d 7a 19 d4 3d 4a c8 e2 bc
       0.26046783 0.085145324 0.10356422 -0.027683396
000050 c3 87 5b 3d 92 e7 06 3e 8f 1f 11 3e 13 a5 0c 3e
       0.05359627 0.13174275 0.14172195 0.13734846
000060 9d 41 14 be 53 4c 1c 3e d6 06 e8 3d 89 f3 05 3e
       -0.14478154 0.1526349 0.11329429 0.13081183
000070 24 d0 37 bd 07 2f 43 be 70 44 85 3d 52 15 67 bc
       -0.044876233 -0.19060908 0.06507194 -0.014104204
000080 94 e7 92 bd 50 d1 aa be 76 42 5a be 09 24 2e 3d
       -0.07173076 -0.33362818 -0.21314415 0.042514835
000090 87 d8 55 3d 12 5a 8e 3d 8b f5 cf 3d 30 0b 14 3d
       0.05220845 0.06950773 0.101542555 0.03614348
0000a0 96 3d 7d 3e e2 4d d0 bc 9a 4d 57 3e e5 4f 25 3e
       0.24730524 -0.025427762 0.21025696 0.16143759
0000b0 63 21 98 3d 79 9f 15 3e 79 3f b8 bd ca 2a 65 be
       0.07428243 0.14611615 -0.089964814 -0.22379604
0000c0 17 0c 3b be 63 0c 71 be 2a 8b 3a bd c7 ef a3 bd
       -0.1826633 -0.23539881 -0.045542873 -0.08004718
0000d0 da 5a 0e 3e 4a 8f a1 3d cf 70 06 bd 3a 0a 06 3e
       0.13901845 0.07888658 -0.032822426 0.13089839
0000e0 19 70 be bd 77 bf c6 3c c4 78 a6 bd 33 9b d1 bc
       -0.09298725 0.02426122 -0.08128503 -0.0255867
0000f0 86 c2 bc 3e d0 d4 47 bb e3 6f 5d bd 6d d8 8c be
       0.3686716 -0.0030491836 -0.05406178 -0.2750887
000100 2d d1 9f bd 11 2e 83 3d ed 2f 18 3e cb cb ed 3d
       -0.07803569 0.06405271 0.14862032 0.11611136
000110 64 29 81 3e 3e 53 8b bd c1 17 c5 be db 19 f6 3d
       0.2522689 -0.068029866 -0.38494685 0.1201665
000120 0e 1b 10 be 4f 01 80 bd 7f be b2 3d 11 94 22 3c
       -0.1407282 -0.062502496 0.087277405 0.009922997
000130 ad 7a 86 3d 4f e9 10 be c6 4a a0 be 28 d4 ca bd
       0.06566367 -0.141515 -0.31307048 -0.09903747
000140 57 a9 b2 3d a5 8e 86 3c 61 92 ac 3e 0e 28 21 3e
       0.08723705 0.01642544 0.33705428 0.15737936
000150 81 8b fe bc 32 6f cd bd 86 7c 8d 3d 83 cb 77 3d
       -0.03107238 -0.100309744 0.069085166 0.06049682
000160 c2 84 ef 3c b5 82 d1 3c f2 b2 9a 3d b8 be cb bc
       0.029238109 0.025575021 0.07553662 -0.024871215
000170 40 68 02 bd e5 5d 07 bd dc fc 56 3e 3c fe 90 be
       -0.0318377 -0.03304853 0.20994896 -0.28318965
000180 23 5d 91 3e d5 e0 e2 3d 55 b0 91 3d 54 fd 8f bd
       0.2839137 0.110780396 0.07113711 -0.070307404
000190 31 39 ce bc aa 2d 81 3a da 66 d7 bb ea d3 4b 3e
       -0.025173755 0.0009855528 -0.00657354 0.19905058
0001a0 d3 3b 3b be ea 48 cc 3b 64 79 d0 3c 06 90 49 bd
       -0.1828454 0.006234278 0.025448509 -0.049209617
0001b0 6a db a4 3d d2 ea ec bd d1 51 a9 3d e4 33 30 3e
       0.080496624 -0.11568226 0.08267558 0.17207295
0001c0 1d 56 55 3e 59 55 5f bd e7 18 e2 3d 93 da c6 3d
       0.20833631 -0.054524753 0.11039906 0.097096585
0001d0 af 18 bd be cf bb 05 3e f1 fe 4a bd 50 54 d2 3e
       -0.36932895 0.13059925 -0.049559537 0.4107995
0001e0 39 77 cb bd 21 31 01 be 17 41 a8 3d aa 10 b1 bd
       -0.09934849 -0.12616397 0.0821554 -0.086457565
0001f0 99 44 a9 3c 3f df 6a bd 70 b7 4f 3e 61 63 35 3d
       0.020662593 -0.05734181 0.2028482 0.04428423
000200 de ff 82 be 2d 24 f0 bd 93 85 10 be cd 5b e3 bc
       -0.25585836 -0.1172565 -0.14113455 -0.027753735
000210 65 35 37 3c e3 be c4 bc a0 c2 a8 bd a8 98 11 3e
       0.011182164 -0.024016803 -0.08240247 0.1421839
000220 6b 8f ed bd d6 68 96 3d 3e 5d 0f 3c 15 17 3c 3e
       -0.115996204 0.073442146 0.008750258 0.1836818
000230 d2 f3 b0 bd 6f 6d 94 3e 93 cb 16 3e f8 fe 25 be
       -0.08640255 0.2898974 0.14726095 -0.16210544
000240 2e a6 d4 3d ef 43 77 3e b5 5e fc bd 9b 15 c2 3c
       0.10383259 0.24147008 -0.123227514 0.023691943
000250 51 bf 64 be 58 43 7e 3b aa 85 0a be 70 02 13 be
       -0.22338606 0.0038797464 -0.13527551 -0.14356399
000260 a6 62 53 3e f8 4b e3 bd a7 2e c4 3d 0e da 19 3e
       0.206431 -0.11098474 0.09579211 0.15024588
000270 c4 d5 31 3e ff 4f 38 bd ca 8b be bd c8 6d 88 3d
       0.17366701 -0.044998165 -0.093040064 0.06661564
000280 67 6b b9 3c be b0 9c 3c 84 0d 6d 3e 2d d4 14 be
       0.022634221 0.019127246 0.23149687 -0.14534064
000290 16 c0 78 3d 84 9b fb bd 47 c4 a4 bd 77 1c b8 bc
       0.060730062 -0.122855216 -0.080452494 -0.02247451
0002a0 78 c1 02 bd 36 3f 2c 3e 26 e8 49 be 45 15 02 be
       -0.031922787 0.16820988 -0.19717464 -0.12703426
0002b0 e9 ed 00 be 0e aa aa bd a0 15 7e 3e 7b 8c 81 bd
       -0.12590756 -0.083332166 0.24812937 -0.06325623
0002c0 88 99 56 3d a8 30 1e bd da a2 84 3e b6 32 d2 bd
       0.052392513 -0.03862062 0.25905496 -0.102635786
0002d0 35 ba 68 bd e8 a4 8a 3e cd d4 f1 bd 7a b5 4a bd
       -0.056818206 0.27078938 -0.11808167 -0.049489476
0002e0 30 71 d4 3d 2e d3 07 3e 92 8b b2 3e c6 14 4a 3e
       0.10373151 0.13264152 0.3487211 0.19734487
0002f0 fa 57 10 3e ee 08 71 3e a9 45 31 3e 31 75 44 3e
       0.1409606 0.23538563 0.1731173 0.1918533
000300 b6 28 89 3d af e8 15 3e c8 72 30 3e 62 b1 04 3e
       0.06697218 0.14639543 0.17231286 0.12958291
000310 b5 6f cd 3d b8 32 47 3e 0d 72 5a bc fe 48 c0 3d
       0.10031072 0.19452941 -0.013332856 0.09388922
000320 ac 27 65 be cc fa d3 be da ec 47 bd f5 07 35 3d
       -0.22378415 -0.4140228 -0.048809864 0.04419704
000330 a7 ec 01 be 0a 78 fc bd 78 df f6 bd d3 bc 1a be
       -0.12687932 -0.12327583 -0.12054342 -0.15111093
000340 97 29 05 be 18 bd 5c be fd 1b 3f bd f1 1a db bd
       -0.13004147 -0.21556509 -0.04665755 -0.10698498
000350 7d 20 01 bc 92 b0 9c bd 7c c0 10 3c ed d9 91 3d
       -0.007881281 -0.076508656 0.008834954 0.07121644
000360 a1 d2 fe bd 71 94 c3 bd d8 14 99 bd de b4 ad bd
       -0.12442518 -0.09549797 -0.07474679 -0.08481763
000370 03 10 87 bd 79 06 eb bd 2f ff c2 bd a8 19 83 bd
       -0.06594851 -0.11475844 -0.09521329 -0.06401378
000380 43 37 84 3d a2 46 64 3e 81 f1 36 bd bf c3 84 bd
       0.06455853 0.2229257 -0.04466391 -0.06482648
000390 14 c9 2a 3d 09 bf 55 3e 11 7f 27 bc e3 b4 e0 3a
       0.04169567 0.20873655 -0.010223166 0.0017143752
0003a0 e2 7c 31 3e fb d2 34 3e 02 35 99 3c fa e3 f5 bc
       0.17332795 0.17658608 0.018702034 -0.030015934
0003b0 c6 b1 b0 bd 2f d4 10 bd 38 07 0d bd cb c0 03 be
       -0.086276576 -0.035358604 -0.034430712 -0.12866513
0003c0 5c 9a 0a 3e ca 3e 8f bd 0e 00 25 bc ea 58 7d 3d
       0.13535446 -0.06994398 -0.010070814 0.061852373
0003d0 a8 0f 38 bd ea 81 1d 3e 14 01 14 3d 02 6e 73 bd
       -0.044936806 0.1538159 0.03613384 -0.059431084
0003e0 90 8c 93 3e 3e 3e 5d 3d 5f 91 80 be 56 f4 5d be
       0.28818178 0.054014437 -0.2511091 -0.21675238
0003f0 04 7a eb 3d 7f a8 44 3d b7 ad 00 be 95 f3 aa bd
       0.11497882 0.048012253 -0.12566267 -0.08347241

linear1.bias f4 [128]
000000 de 07 ce 3e 5f 99 df 3e 35 18 de 3e 8c 74 9b 3d
       0.40240377 0.436717 0.43377843 0.07590589
000010 74 fb 8e 3e c4 24 27 3f bf 40 82 bd b3 5c c8 3e
       0.27926219 0.65290475 -0.063600056 0.39133224
000020 61 42 b0 3e 28 c5 a0 3e d0 dd c2 3e b5 fd 80 3e
       0.34425643 0.31400418 0.38059855 0.25193563
000030 5b d4 8d be 87 fe f3 3e 7e bd 61 3e c9 04 ee 3e
       -0.27701077 0.47655126 0.22044942 0.46488026
000040 df d7 0a be a9 33 84 be 1a 5e d7 3e b0 b3 e0 3e
       -0.13558911 -0.25820664 0.4206398 0.4388709
000050 f5 0b 3d 3e 29 a8 b2 3e f4 0a 70 be 96 f2 aa 3e
       0.18461592 0.3489392 -0.23441678 0.33388203
000060 ea 3d 34 be 9b a5 8c 3e 61 d3 6e 3e 3a f5 1c bd
       -0.17601743 0.27470097 0.23322822 -0.038319804
000070 3c 17 b9 3e 32 89 8c be 1e 00 bb 3e 61 cc 84 3e
       0.3615054 -0.27448422 0.36523527 0.2593718
000080 0e 6f b8 3e bc ee 7b be c9 cb 94 3e b2 2e 8e 3e
       0.36022228 -0.24602789 0.29061726 0.2777
000090 7a 58 99 be 3a ac 81 3c 1d 07 d8 3e 66 b6 26 bc
       -0.29950315 0.015829194 0.42192927 -0.010175323
0000a0 0f a7 9b 3e 18 47 19 be 16 a6 36 3f 3a 34 da 3e
       0.30400893 -0.14968526 0.7134718 0.4261797
0000b0 7e f0 ab be 12 c9 27 be 68 8f 09 bd 0c bf 44 3e
       -0.33581918 -0.16385296 -0.03358403 0.19213504
0000c0 09 74 e5 3e 0f 89 43 be cc 38 00 3f 6f 42 f7 3d
       0.4481509 -0.19095252 0.50086665 0.12073218
0000d0 e5 92 b0 3d b6 f4 c1 3e bf d8 1f 3e 8f 9c 1a 3f
       0.08621768 0.37882012 0.15610026 0.6039514
0000e0 ac a8 17 3f 15 68 9c 3e 68 47 dc 3e 83 50 c3 3e
       0.5924175 0.30548158 0.4302323 0.38147363
0000f0 1d af 01 3f e1 a3 da 3e b0 83 f0 3e c5 85 c7 3e
       0.50657827 0.42703155 0.4697547 0.38969246
000100 a5 49 d2 3e 18 a0 d8 3e 58 64 ca 3e fe 7f 47 3e
       0.4107181 0.42309642 0.3952968 0.19482419
000110 9c 3a b8 3e 25 62 c5 3e a2 fe be 3e e9 59 bd 3e
       0.35982215 0.3855144 0.37303644 0.36982659
000120 8d 4a 52 3e a6 cf 90 be ec ed 4f 3e c7 bd fe 3d
       0.20536251 -0.28283423 0.20305604 0.12438541
000130 ca 8c 9b 3e 03 53 d5 3e 3a 90 89 3e 21 af 59 3e
       0.3038085 0.41664895 0.2686785 0.21258213
000140 9b a0 60 be 37 95 93 3e 45 f7 de bd 7d ae 95 bd
       -0.21936266 0.2882478 -0.10887007 -0.073086716
000150 77 e3 1b 3e 0b d8 c7 3e 39 26 e0 3b 67 23 47 3d
       0.1522349 0.39032015 0.006840494 0.048617747
000160 d2 15 9b 3d cf 3a 35 3e 2c d0 a5 be 55 fd 0f 3d
       0.07572521 0.17698215 -0.32385385 0.035153706
000170 07 2c 00 bc 35 15 31 be b9 d9 da 3e 03 2d 9f 3e
       -0.007822997 -0.17293246 0.42744234 0.3108903
000180 03 90 ad be 6f a8 55 3e 80 b8 d8 3e c6 18 67 be
       -0.33898935 0.20865034 0.42328262 -0.22568044
000190 d1 3f 9c bd 1f 21 12 3f 16 6c 31 bd 36 9e 1c 3f
       -0.076293595 0.5708179 -0.04331597 0.6117891
0001a0 f2 23 9f 3e 5d 28 48 3c ce 3a 4a 3d 43 a2 13 3f
       0.31082112 0.012216655 0.049372487 0.57669467
0001b0 ab f9 8b bc 55 5e e4 3e 7d e6 c7 3e b9 29 c0 be
       -0.017086824 0.4460322 0.39043036 -0.37531832
0001c0 ed ae 9b 3e 6e 21 90 be 8d 50 9c 3e 1d 34 85 3e
       0.30406895 -0.28150505 0.30530205 0.26016322
0001d0 51 39 3b be fd 00 36 be 31 8f 05 be cf ba ee 3e
       -0.18283583 -0.17773814 -0.13042904 0.466269
0001e0 1e 95 ec 3d 22 97 55 be e7 50 ac be 2c 9f 88 3e
       0.11551879 -0.20858434 -0.33655474 0.26683939
0001f0 16 d3 38 3e aa 50 89 3e 7b ad c5 bd 90 05 72 3e
       0.18049273 0.26819354 -0.096522294 0.23634934

linear2.weight f4 [64, 128]
000000 e9 21 03 3e c7 ce cf 3d b3 16 6c 3e 38 44 24 bc
       0.12805904 0.101468615 0.23055534 -0.01002603
000010 14 30 e6 3d c3 50 46 3e ba ac 18 bd f7 a1 6b 3d
       0.11239639 0.19366746 -0.0372741 0.05752751
000020 c0 09 40 3e ce 04 18 3e b8 f3 3d bd 35 5a 5d 3d
       0.1875372 0.14845583 -0.046375006 0.054041106
000030 85 0f df bd 0a 4f 34 bc a5 4d 3c 3e dd 5f 2b 3e
       -0.10891632 -0.0110051725 0.18388994 0.16735788
000040 a9 16 a9 3d 7c 72 85 be 3f 68 81 3d 0f 0d 16 3e
       0.08256275 -0.26063907 0.063187115 0.14653419
000050 07 86 c7 3d a9 1c 01 3d ed c7 1d 3d 7e 58 e9 3d
       0.097423606 0.031521473 0.038520742 0.11393832
000060 63 72 99 bd 80 0b 99 3d 98 27 6f 3e a1 4a 72 3d
       -0.07492521 0.074728966 0.23354948 0.059153203
000070 2b 4b 88 bb b5 a3 36 3c ec 92 1c 3e 35 00 24 3e
       -0.0041593513 0.011147429 0.15290421 0.16015704
000080 df d6 81 3e e4 39 54 be 67 70 b1 3c 25 87 a4 3e
       0.25359246 -0.20725209 0.021660043 0.32134357
000090 a5 07 87 bc cb 16 91 3c 3d 8c fa 3e a2 bb ca be
       -0.016483137 0.017711064 0.48935118 -0.39596277
0000a0 5a 59 70 3e 75 4d 35 bc 85 9c c9 bc 22 c5 34 3e
       0.23471585 -0.0110658305 -0.024610767 0.17653325
0000b0 d3 f6 7c bd 87 75 1e bd 55 37 12 3e c2 17 2f bc
       -0.061758827 -0.0386863 0.1427892 -0.010686817
0000c0 5d dc bf 3d 20 34 c6 3d f6 ab 5d 3e e2 ea b7 3d
       0.09368203 0.09677911 0.21647629 0.08980347
0000d0 5a 5e a7 3d b2 50 18 3e 33 1b d8 3d f6 f4 e2 3d
       0.08172293 0.14874533 0.10552063 0.11081879
0000e0 f5 19 ec 3d bf 25 03 3e 43 6c dd 3d 24 d1 75 3e
       0.115283884 0.12807368 0.10811665 0.24005562
0000f0 00 5e ac 3e 29 35 0d 3e c4 1f 23 3e c9 d2 88 3d
       0.33665466 0.1378981 0.15930086 0.06680829
000100 d5 95 ac 3c c0 8a 65 3e e2 2e 0e 3e d0 63 97 3e
       0.02106754 0.2241621 0.13885072 0.29568338
000110 a2 b6 87 3e fe 8b 83 3e 90 a9 3b 3d 49 ee e1 3d
       0.26506525 0.25692743 0.045816004 0.110317774
000120 92 14 2b 3e bd d8 e7 bd 84 a0 fb 3d 37 43 3d 3e
       0.16707066 -0.113206364 0.12286475 0.18482672
000130 db 20 16 3e 82 48 2f 3e 43 7e 71 3e 3a f2 24 3b
       0.14660971 0.17117503 0.23583321 0.0025168792
000140 70 95 c8 bb df f6 60 3e 91 3a d0 bc d9 74 1d be
       -0.00612133 0.21969174 -0.025418552 -0.15376605
000150 9e 53 4c 3e a3 48 84 3e a1 52 22 be 8a 6f fb 3a
       0.19953772 0.25836667 -0.15851833 0.0019183022
000160 e9 d0 af 3e e0 16 c3 3c 6c 06 7b bd 6d dc 7e 3d
       0.34339073 0.023814619 -0.06128542 0.062221933
000170 ed 2b 62 bd a4 0d af bc 9d ca b0 3d 44 bc 8d 3e
       -0.055217672 -0.021368809 0.086323954 0.27682698
000180 9f b9 bd bb 89 94 98 3d 51 14 a2 3d de c6 8c 3d
       -0.00578995 0.07450206 0.07914031 0.068738684
000190 c9 0b 65 be 64 01 09 3e 54 5a 60 bd 7a 7a c1 3d
       -0.22367777 0.13379437 -0.054773644 0.09447189
0001a0 33 52 3a 3e 5c 46 5c bd 07 cf d5 bd ff e1 df 3e
       0.18195419 -0.053778037 -0.10439878 0.4372711
0001b0 87 03 d0 3b 78 60 d9 3c 06 ab 66 3e d5 57 98 bd
       0.0063480767 0.026535258 0.22526178 -0.07438628
0001c0 85 6a 46 3e c3 d0 91 bd d2 ff fa 3d e3 0d 10 3e
       0.19376571 -0.07119896 0.12255825 0.14067797
0001d0 26 95 a6 3c e9 87 ca bc 4a fb c5 bd ff 86 22 3e
       0.020334791 -0.02472301 -0.0966707 0.1587181
0001e0 cf c5 56 3e 6d 67 8a bd 5b 65 e8 bd 0f ad 88 3d
       0.20973895 -0.06758008 -0.11347457 0.06673633
0001f0 c5 40 af 3d a3 dd 34 3d e5 5d 1f bc aa d3 ff 3d
       0.08557276 0.04415668 -0.009726976 0.124915436
000200 64 32 28 3e cb 0e 0d 3e f2 99 6f 3e 51 10 9a 3b
       0.16425472 0.13775174 0.23398569 0.004701652
000210 eb 8e dd 3d a3 fc 88 3d 3b 0b 8f 3d fc 5e 17 bd
       0.10818275 0.06688812 0.06984564 -0.03695582
000220 77 4e 41 3e 6c 8c 06 bc 0d 3f f1 bc f4 47 30 3e
       0.18877588 -0.00821219 -0.02944901 0.17214948
000230 f9 2a 77 bd de b9 0b 3e 73 6a 67 3e f7 69 2a 3d
       -0.060343716 0.13645121 0.22599201 0.041604962
000240 f9 f1 79 3d 41 d7 1d be 2d 8b 39 3e f9 20 3b 3e
       0.06102178 -0.15414144 0.18119498 0.18274297
000250 11 f6 d6 3c 47 6f c6 3d a0 69 dd bb ad 85 1f 3e
       0.02624038 0.09689193 -0.0067569762 0.15578337
000260 09 96 47 3d 98 4c 36 3c e6 b6 1a 3e 7f 04 4d bd
       0.04872707 0.01112666 0.15108833 -0.050053116
000270 80 d1 5d 3d 68 e4 65 3d f6 5f 5b 3d 23 3a ee 3c
       0.054154873 0.05612603 0.053558312 0.029080456
000280 dd da 41 3e 81 78 75 be 50 b2 e0 3d 6c 91 8c 3e
       0.18931146 -0.2397175 0.109715104 0.27454698
000290 35 f3 17 be 14 af 88 3d fe 4b d2 3e eb b5 d0 be
       -0.1483887 0.066740185 0.41073602 -0.40763792
0002a0 81 85 5d 3e 59 3d ae bc 52 5c f1 3d f8 05 43 3e
       0.21632959 -0.021269487 0.11785187 0.19045246
0002b0 9e da 05 bd 26 64 f9 bc 06 61 61 3d 06 74 b8 3d
       -0.032679193 -0.030443262 0.05502417 0.09006505
0002c0 0b bb 43 3e 07 c0 c9 3d 1f 07 32 3e e5 c1 06 3e
       0.1911432 0.098510794 0.17385529 0.13159902
0002d0 13 00 65 3e cd 02 f0 3d 38 56 32 3d e4 0f 56 3d
       0.2236331 0.11719284 0.043539256 0.05226125
0002e0 cc c8 ed 3d 26 b9 f2 3d e1 4c 0c bc a5 c1 78 3e
       0.116105646 0.118517205 -0.008563251 0.2429262
0002f0 ee 9e 9e 3e ed d8 4e 3d 19 64 22 3e 64 3b da 3d
       0.3098063 0.050499845 0.15858497 0.10655859
000300 6a d3 4c 3d d3 ed 34 3e 6f a7 05 3e e2 10 4c 3e
       0.050006308 0.17668848 0.13052152 0.19928315
000310 43 a1 c9 3e 0d 7e 55 3e a9 9c 01 3e 56 1a 4e 3d
       0.39380845 0.20848866 0.12657417 0.050318085
000320 49 f6 36 3e 5a 9f a3 bd 9d 4a 81 3d d4 58 ba 3d
       0.17867388 -0.07989378 0.063130595 0.09098974
000330 c5 45 ba 3d 04 45 e9 3d 8f e5 35 3e 6c b7 3f 3d
       0.09095339 0.11390117 0.17763351 0.046805784
000340 c0 cf 75 3b e9 3f c7 3d b9 1a e2 bd 95 60 13 be
       0.0037507862 0.09728987 -0.11040253 -0.14392312
000350 a8 47 3a 3e 8a d9 96 3e fc 5d 47 be cb e2 81 3d
       0.18191397 0.29462844 -0.19469446 0.063420855
000360 09 cb 8f 3e 3f e2 90 3d 26 68 ac bd 74 99 11 3e
       0.2808459 0.07074403 -0.08418302 0.14218694
000370 41 de b9 bd ee 0c a0 bd d1 0c 42 3d 4a 37 16 3e
       -0.09075595 -0.07814966 0.047375504 0.14669529
000380 94 b4 5d 3c 28 9b f3 3b 0a f3 42 3c 95 21 57 3d
       0.013531823 0.0074342676 0.011898765 0.05252226
000390 5b d4 33 be f2 8c b1 3d 47 f2 b2 bc cc e1 12 3e
       -0.17561476 0.08669461 -0.021844042 0.14343947
0003a0 8a bd 2d 3e 6a d1 f7 bd 1d 6c 53 bc ab 88 c2 3e
       0.16966835 -0.121004894 -0.012904194 0.37994894
0003b0 2c 1d 4a 3d f8 88 17 3e 01 c7 36 3e 65 42 c6 bd
       0.049344227 0.14798343 0.17849351 -0.096806325
0003c0 ef 06 18 3e fb ae d2 bd 13 da 2c 3e 2f 61 4c 3e
       0.14846395 -0.10287281 0.16880064 0.19958948
0003d0 d5 06 7e 3d aa 70 8a 3c a9 db d7 bd 17 5a 75 3e
       0.062018234 0.016899426 -0.10539944 0.23960148
0003e0 a1 58 73 3e 0d c2 b9 bd 32 5d 3d bd 9d 68 3f 3d
       0.23764278 -0.090702154 -0.046231456 0.046730626
0003f0 95 0a 21 3e 1e 26 b4 3d e8 f8 48 bc be 56 1d 3b
       0.15726693 0.08796333 -0.012266375 0.0024008001

linear2.bias f4 [64]
000000 b8 3c cf 3e 91 b8 90 3e fb ac a8 3e b0 76 4e be
       0.40476012 0.28265813 0.32944474 -0.20162463
000010 ca 09 d9 3e 32 a0 84 3e 87 f0 8a 3e e1 5c a4 3e
       0.4239028 0.2590347 0.27136633 0.3210211
000020 a4 69 23 be 5f 59 41 be 95 c4 0b be 76 a3 45 be
       -0.15958267 -0.18881749 -0.13649209 -0.19300637
000030 31 da 4e be 12 f8 b6 3e 82 0b 88 3e e9 18 a7 3e
       -0.20200421 0.35736138 0.2657128 0.32636192
000040 8a 94 8e 3e fd 96 79 be c2 89 56 be 6a 82 b0 3e
       0.278477 -0.24374004 -0.20950988 0.34474498
000050 21 fc d2 3e 48 69 ae 3e 94 85 1a be e4 e8 8f 3e
       0.41207984 0.34064698 -0.15090019 0.2810737
000060 98 f9 0c be dd c0 92 be 7a 12 cb 3e 72 0e c3 3e
       -0.13767087 -0.28662768 0.39662534 0.38096958
000070 77 22 81 3e cd 76 99 3e 99 c8 87 3e 28 09 7e be
       0.25221607 0.2997345 0.2652023 -0.2480818
000080 cf 96 8e 3e 44 17 07 be a6 a6 d9 3e a6 47 88 be
       0.27849433 -0.13192469 0.42509955 -0.26617163
000090 e6 fd 9d 3e cc c8 b5 3e c2 2b cb 3e cc 7b 89 be
       0.30857772 0.35504758 0.39681822 -0.26852262
0000a0 5f 5e cb bd 96 62 5f be 96 a0 8e be 93 0c ca 3e
       -0.09930109 -0.21814951 -0.27856892 0.39462718
0000b0 50 d6 5a be ad 30 09 be ba 4b ac 3e b0 f5 67 be
       -0.21370816 -0.13397475 0.33651525 -0.22652316
0000c0 fb e2 8f 3e d3 0f a9 3e 5e 07 d9 3e 71 d8 2f be
       0.2810286 0.33019885 0.42388433 -0.1717241
0000d0 99 76 ab bd e8 50 8f 3e 5b b0 8f be 97 25 17 be
       -0.0837223 0.27991414 -0.28064236 -0.14760433
0000e0 71 3c 96 be bf f7 95 be 10 4a 39 be c0 16 78 be
       -0.29342988 -0.29290578 -0.18094659 -0.24227428
0000f0 2a 9b 83 be 89 4d 5c be e2 f4 70 be 57 56 1e be
       -0.25704318 -0.21513952 -0.23530915 -0.15462624

output.weight f4 [1, 64]
000000 6e 0b 55 3e 68 04 38 3e 1c b2 7f 3e 98 a3 8b be
       0.20805141 0.17970431 0.24970287 -0.2727325
000010 65 7e 68 3e 8c 6d 5c 3e f2 65 67 3e 3d 9a 69 3e
       0.22704466 0.21526164 0.22597483 0.22812743
000020 02 f0 87 be c0 04 b7 be 6e 89 b3 be ab cd ce be
       -0.265503 -0.3574581 -0.35065788 -0.40391287
000030 9f 35 b0 be ed 63 7f 3e e5 c8 3d 3e 45 79 27 3e
       -0.3441591 0.24940462 0.18533666 0.16354854
000040 b1 56 84 3e 94 40 a6 be cc cc 19 be 83 18 85 3e
       0.2584739 -0.32471144 -0.1501953 0.25995263
000050 0d 21 60 3e 25 0f 14 3e 2d df a0 be 7a 85 bb 3e
       0.21887608 0.14458902 -0.3142027 0.36625272
000060 bf 45 8c be d5 a8 bf be 2b fd 87 3e 78 cf 13 3e
       -0.27396962 -0.37433496 0.2656034 0.14434612
000070 19 b9 84 3e f8 a0 a5 3e a7 64 82 3e 30 20 c5 be
       0.25922468 0.32349372 0.25467417 -0.3850112
000080 c5 80 75 3e 9b 22 a8 be 58 26 33 3e c0 91 88 be
       0.23974903 -0.32838902 0.17495096 -0.26673698
000090 1a 6f 33 3e ba ac 81 3e 67 d5 5a 3e 52 fb 87 be
       0.1752285 0.25327092 0.21370469 -0.2655893
0000a0 3b 31 8c be c9 0b a0 be a8 91 cc be 1a f6 5d 3e
       -0.2738131 -0.3125899 -0.39954877 0.21675912
0000b0 e6 2a c2 be 9e 62 54 be e6 46 33 3e 5a 3e 91 be
       -0.37923354 -0.20740744 0.17507514 -0.28367883
0000c0 77 c0 b2 3e 29 eb c6 3e f0 85 92 3e f6 be 8f be
       0.34912464 0.38851288 0.2861781 -0.2807538
0000d0 92 61 9c be 93 d6 8b 3e cd d0 6e be b1 0c 7a be
       -0.3054319 0.27312145 -0.23321839 -0.24418904
0000e0 1e d2 f9 bd 2d 9f 1c be 98 da 39 be 49 33 80 be
       -0.1219828 -0.15295096 -0.18149793 -0.25039127
0000f0 45 77 c7 be 16 fb a1 be 25 c8 a3 be fc dc 76 be
       -0.38958183 -0.31636876 -0.31988636 -0.24107736

exp_avg f4 [128, 34]
000000 c4 6b ed 3f ec 60 51 3f 30 aa e9 3d 9a c8 d4 bf
       1.8548512 0.81788516 0.11409414 -1.6623719
000010 44 40 55 bf 92 6a 54 3f e5 6e f0 bf 38 bf eb be
       -0.83301187 0.82975113 -1.8783842 -0.46044326
000020 b4 2b c9 3e c8 51 7e 3e e4 ed 26 3e 40 e1 9d 3c
       0.39291155 0.24835885 0.16301686 0.019272447
000030 4e ec b3 3f ee 42 54 3f 2d a2 86 3f 01 8f 80 bf
       1.405649 0.82914627 1.0518242 -1.0043641
000040 f2 cd 86 3f cd 00 32 3e d9 e8 8f 3e 24 3f 7d 3e
       1.05316 0.17383118 0.28107336 0.24731117
000050 54 bc 42 bf 76 25 d5 3f 7c d8 c4 bf 90 0f c3 3e
       -0.76068616 1.6652057 -1.5378566 0.3809781
000060 84 9c 66 bf ca 64 bd 3f 8f 01 c0 bd a2 ad 48 3f
       -0.90082574 1.4796383 -0.09375297 0.7838994
000070 42 fb 1d c0 ae ad 38 3d 54 82 82 40 fc 5e 11 40
       -2.4684606 0.04508751 4.078409 2.2714224
000080 02 eb 91 c0 5c 56 71 c0 fe 8b 29 bf 26 b1 5d 40
       -4.5599375 -3.770896 -0.66229236 3.4639373
000090 d9 80 19 3e b3 db e7 be 8b 83 fe be 2e 11 5c 3e
       0.14990558 -0.45284805 -0.49709734 0.21490929
0000a0 86 ab 89 bf c8 c6 4f be 4a 5f e1 3d 6a 5c 54 be
       -1.075547 -0.20290673 0.11004503 -0.20738378
0000b0 dd b3 3a 3f ca d7 b3 3f e8 51 ca 3e 12 f8 b2 be
       0.729307 1.4050229 0.39515615 -0.34954888
0000c0 3c f1 b6 3e 72 62 b4 be 31 90 97 3d 55 5f 35 bd
       0.35730922 -0.35231358 0.07400549 -0.04428037
0000d0 71 03 58 be 68 bd 2e 3e 31 d4 20 bf 56 71 3f bf
       -0.21095063 0.1706444 -0.6282378 -0.7478231
0000e0 18 96 79 3e c2 92 79 3f d8 9e e6 be e0 c3 ba be
       0.24373662 0.9748956 -0.45043063 -0.36477566
0000f0 8b c7 cf bd 65 bb 1e 3e ad 61 95 bf bc 91 b7 3f
       -0.10145482 0.15501173 -1.1670433 1.434135
000100 06 ef 4e c0 b5 e6 02 40 09 fb ad c0 0b e0 d2 3f
       -3.2333388 2.0453312 -5.436894 1.6474622
000110 a0 e2 5a bf 2b c3 ae 40 25 32 1b 3f 41 56 e0 bf
       -0.8550205 5.461324 0.6062339 -1.7526323
000120 03 f8 44 bf c2 86 9d bf c5 80 35 bf 38 5a b7 bf
       -0.76940936 -1.230675 -0.7089961 -1.4324408
000130 7f 15 56 3f f3 a4 bd be 98 4c b2 3e 6d b9 73 3e
       0.8362655 -0.3703991 0.3482406 0.23801203
000140 11 01 44 40 ba e1 4f 3f 7e 43 bd 3e 9b 8c 44 3f
       3.062565 0.81203806 0.36965555 0.76777047
000150 0e 81 30 3f 72 73 0f 3d 96 98 bb be 09 43 35 3f
       0.6894692 0.035022207 -0.3663985 0.7080541
000160 19 09 50 bf 80 7b 1b 3c f4 a5 51 bf b3 f4 d2 be
       -0.8126388 0.009489894 -0.8189385 -0.41202316
000170 3f a6 6f c0 4c 46 9d c0 9c 34 0a be 94 0b 5e 3e
       -3.7445219 -4.914831 -0.13496631 0.21684104
000180 46 37 67 c0 d2 67 e6 3e 8e 3b 82 c0 b9 d0 85 c0
       -3.6127486 0.45001084 -4.06977 -4.181729
000190 ad 3c 82 c1 e7 c3 fd c0 35 08 63 c0 aa c9 43 40
       -16.279627 -7.930164 -3.547376 3.0591836
0001a0 b0 cd ff 3c 8e 75 80 be 77 1c 39 bf 68 09 df 3e
       0.03122601 -0.25089687 -0.7230906 0.43561864
0001b0 45 8b ba be af 26 e6 3e d9 41 5f be 99 0e 8d be
       -0.3643438 0.44951388 -0.21802463 -0.275502
0001c0 ac a1 98 3e 72 cb be 3f 81 ec 3c bf 92 23 32 bf
       0.29810846 1.4905837 -0.73798376 -0.69585526
0001d0 fd 15 ce 3e a0 f0 b3 bb f2 4f 58 be 88 51 27 3e
       0.4025115 -0.005491331 -0.21124247 0.16339695
0001e0 fc f5 89 bf 4e bd c3 3e d8 42 a9 bf 80 15 84 be
       -1.0778193 0.38230366 -1.3223524 -0.25797653
0001f0 4b 66 14 40 e6 e6 47 40 64 e3 f9 3e e5 ec 12 3f
       2.3187435 3.123468 0.48806298 0.5739272
000200 d9 37 aa be dd 44 30 be bc a2 25 bf 45 66 d4 3f
       -0.33245733 -0.1721377 -0.6470144 1.659371
000210 1e 08 ed 3f 9e 23 e9 40 82 97 9d 40 e3 77 47 41
       1.8518102 7.285598 4.9247446 12.466769
000220 54 71 f0 bf 83 52 1a 40 ea 84 45 bd 53 f6 01 bf
       -1.8784585 2.411286 -0.04822246 -0.50766486
000230 d8 f2 98 be 91 05 54 3f 41 28 87 bf 46 a7 e7 3d
       -0.29872775 0.82820994 -1.055916 0.11311202
000240 58 62 ae 3c 97 11 0a bf a0 56 91 3f 56 bd be 3f
       0.021287128 -0.5393309 1.1354561 1.4901531
000250 b8 b4 03 3f 8e 52 0c bf 6f 2c f4 3e 80 73 7a 3c
       0.5144763 -0.5481347 0.4769015 0.015286326
000260 0f 48 14 3e 85 2e 7b 3e 15 1c 1a bf cc 87 8d bd
       0.14480613 0.24529465 -0.601991 -0.06910667
000270 7b 57 31 bf 38 d1 4b bf 2d 6c 88 3f 6f 30 f7 3f
       -0.6927411 -0.7961612 1.0658013 1.9311656
000280 8c dc 33 3f 90 2e 8b 3e 2e 90 40 be 70 e3 c9 3c
       0.702584 0.27183962 -0.18805 0.024644583
000290 50 46 b1 bf 1d 2b e1 3f b4 90 e7 bf 2e 7c 15 40
       -1.3849583 1.7591282 -1.8091035 2.3357043
0002a0 38 bc 4c c0 a3 37 4b 40 42 4a 91 bf 52 a4 fe 3e
       -3.198988 3.1752708 -1.1350787 0.4973474
0002b0 3c fa bb be 82 40 04 bf 02 81 dc be fa 2b 82 3e
       -0.3671435 -0.5166093 -0.43067175 0.25424176
0002c0 54 3e 73 bf 40 6c 46 bc 3d 7d f3 3d 7a da b1 be
       -0.9501698 -0.01211077 0.11889122 -0.34736997
0002d0 80 9f 70 3b 85 3a cc 3e c7 f3 ae 3f 1b 03 ad 3e
       0.0036716163 0.39888397 1.3668145 0.33791432
0002e0 dd 53 85 3e 7b bb 22 be 0d 86 12 3e 1d fb 70 bd
       0.26040545 -0.1589183 0.14308949 -0.05883323
0002f0 86 3d a6 bf 5a 50 81 be d0 f1 a6 be e3 b0 6c 3f
       -1.2987525 -0.25256616 -0.32606363 0.9245741
000300 a4 b0 32 be 13 c9 16 40 51 73 5a 3f 68 3f b5 bd
       -0.17450196 2.3560226 0.8533221 -0.088499844
000310 83 22 3d 3d 70 e0 24 3e 1f 9b 47 bf c0 e0 85 be
       0.04617549 0.16101241 -0.7797107 -0.26148033
000320 74 b8 01 40 a9 7c 91 3f 9f 3e 25 c0 30 fe 3b be
       2.0268831 1.1366168 -2.581947 -0.18358684
000330 28 65 56 3f ee 21 93 bf a8 5e 34 be be 3c f0 3e
       0.837481 -1.149473 -0.17614233 0.46921343
000340 07 a4 cb 3e e6 73 81 be 5a 79 7a 3f a5 3e fc 3e
       0.3977358 -0.25283736 0.9784142 0.49266544
000350 8e 61 df bd 48 b7 cc 3d 44 7b 9e be 73 50 be bf
       -0.10907279 0.099958956 -0.3095342 -1.4868301
000360 48 c6 2f be 5b f7 40 3e ae d0 17 bf 27 f8 23 3f
       -0.17165482 0.18844359 -0.59302795 0.64050525
000370 b8 08 29 be a0 93 91 be a4 32 55 bf c6 3e 59 be
       -0.16507232 -0.2843294 -0.83280396 -0.21215352
000380 2a c5 e1 3e 41 bf a7 3e 10 36 bb bf d0 60 12 bf
       0.44095737 0.32763103 -1.4625874 -0.57178974
000390 e8 6c 22 be 76 a8 5c bf 21 36 fa 3d d2 89 57 be
       -0.15861857 -0.8619455 0.122173555 -0.21048668
0003a0 fe 97 a6 3f 9d 93 a2 bf 24 ef 8a bf b0 cf 88 c0
       1.3015134 -1.2701298 -1.085423 -4.2753525
0003b0 a4 8f 35 40 22 6f 46 c0 dc bc 0f 3e f7 91 10 40
       2.8368921 -3.100533 0.14036888 2.258909
0003c0 c7 11 dc 3d d2 cb c8 be d6 81 b6 be ba 9f a7 3e
       0.10745578 -0.39218003 -0.35645932 0.3273905
0003d0 8c c4 00 bf 0e 6c 0f be 90 d2 ff 3c ca 9f 1d be
       -0.50299907 -0.14006063 0.031228334 -0.15392986
0003e0 44 7d f7 3e 2a 7e 3d 3f 07 1c e3 3e 5f d3 e3 bd
       0.48337758 0.74020636 0.4435732 -0.111243
0003f0 5f 11 58 3e d8 73 30 be b2 f6 7b 3d 63 dd 8d 3d
       0.21100377 -0.17231691 0.061514564 0.06926992
