Data/Player1/Model-regTest1.pth (torch, 53902 bytes, 5 tensors)

linear1.weight f4 [128, 34]
00000000: 92f5 833d aefd ea3d 3893 393d 0d81 193e
00000010: 84b7 ddbb ad48 343e a10d 0fbd be38 b53d
00000020: 7ea9 e13d 097b 0dbb e59c 7d3d 5bcb 963c
00000030: 087b c03d 48a1 c73b b86d b3b8 7a4f 043e
00000040: e49e 633d 050c 273e 7c7e 033e 0301 4bbd
00000050: 348b 413d 5e29 ae3c c2f9 ff3c fdc3 fa3c
00000060: fa5b 123d e5d5 afbd d716 d63d d37d f0bd
00000070: 72ab 1abf 6027 8abe f5c6 2b3e 558d 0fbe
00000080: db40 d13d 46a8 173e 28a7 0ebe 64b8 41be
00000090: 47bc 0dbe 7b0f 30be ba94 183e 6881 0cbe
000000a0: c7aa 053e 7703 9dbe 0b36 f9bc 866b 0ebe
000000b0: aa22 b8bd 23d5 663d ee3a 02be 615d 13be
000000c0: 1429 d9bd db33 313d bb83 183e 7c67 223e
000000d0: 20d3 c13d 80af 78bc 79f9 74bd dd63 e03c
000000e0: bbbc 1e3e c94c c73d b683 bf3d 87bd a73d
000000f0: 7cb1 e4bd 610d 58be 9a2b 8e3e a747 423d
00000100: d95a 44be c941 7dba 5907 86be 8c4f 66bc
00000110: 986d f1bd 1870 77bd 91f9 15be f2b8 a6be
00000120: e50f 30be 8b19 56be 185a 9dbe 5bcc eebd
00000130: 3ace b8be 93d0 60be 519d fbbd 2718 0abe
00000140: 64e7 1dbe f494 0cbe a9fe bcbc 430d 45be
00000150: e3a1 9fbc bc5f afbd c57e a5bd 18fd 2f3d
00000160: 94e4 5d3c f325 c63d 98f6 f43d 7cac 0a3e
00000170: 9a0e 6e3c 3bd9 c9ba fa1a 353e 31af 91be
00000180: 02e0 5b3e 68f4 723c d43f 723d b88c c6bd
00000190: d663 323e efbc 0f3e 7974 7b3c 3ee9 23bb
000001a0: 2105 42bd 6bca 883d fe64 893d 010e b5bd
000001b0: 07a1 82bd 2322 79be 85ef b23e f4ab 88bd
000001c0: 8453 833e 3c5c 0a3e f84c d539 1708 b7bb
000001d0: 54ac 20be e480 913f eaa9 893d 4c9b 933d
000001e0: 45cb 503d 8a9e e4bc feaf 153c 686f 3f3d
000001f0: a74f b73c f5d2 e13b 5941 a9bb d098 e1bc
00000200: 0136 38be c0ae e73d 9311 a4be 7a67 df3d
00000210: 59e6 54bd 3760 2a3d 59d5 d1bb b214 513c
00000220: aaf4 f7bc a92e 1e3c 73bb cebd 35b7 b1bd
00000230: 1e45 86be 5075 efbc b63e debd 958d 07be
00000240: ede5 96be 0d8b afbe 471f 2abe b009 75be
00000250: ea68 7b3d b130 5c3e 862c 6b3e c529 3c3e
00000260: 9207 25be fde9 0abe 2dae 9e3e d3ff d33e
00000270: 320b 723d 0736 c53d 5c97 a53d ce4c 053d
00000280: 42a4 853e 9d64 11bc 2fca d7be bfdd 1ebf
00000290: 43ad e73c e89f 9e3e 9a51 0a3d a0f8 3fbe
000002a0: 7c23 863e 9673 00be 93f7 fc3e 5ec0 b43e
000002b0: d6ac 943d b17c 93be 3ac0 82be 080e d4bd
000002c0: 5e76 ef3b 02bb d5bc 2ade fcbe 8194 41be
000002d0: cfae 8ebe 9219 24bc 24a9 5b3e e0d3 573d
000002e0: be1d eebd 761b 33bd 2b65 a8be 0683 e4bd
000002f0: 1bb6 36bd 4371 343d 81e3 3bbc 33c6 3dbd
00000300: 1392 5fbd e155 283d c488 81bd 48fe 6c3d
00000310: 61d3 d23d 14dc 773e 9a1b a43d b08d 5b3e
00000320: 0710 37bc 2fd1 fbbd bc03 adbd 1928 753d
00000330: a5c5 e43d 4ac4 763e 62b4 343e 0896 2cbd
00000340: a36b f33c 8b06 913d 812d 973d 0207 433e
00000350: 7a90 403d 2d45 203b 901a e43d 4eda 1c3e
00000360: 3b81 b1be c695 84bc 6905 523e 4f33 013e
00000370: e6a8 673d ce4d b33a 454d 363c a075 a1bd
00000380: 9853 563c 1c25 e33d f9c5 9b3d 28f6 a4bd
00000390: 0a4d 803d f47f 153c 4319 cd3d 8308 57bd
000003a0: eaac 81bf 66f6 3abc 3c1d 26bb 8af2 19bd
000003b0: 48b8 49bd 7371 203d 226d b1bd 453e d6be
000003c0: 514f b9bb 2828 babd 1677 ec3c 8679 713d
000003d0: 6a41 d33c b9f2 d9ba aa0b 48bb 51e7 6abd
000003e0: 5ad2 17bc ce5e 7c3d 8c50 eabc 7b07 043c
000003f0: 21b9 c93c 02dc b7bc d6c0 49bd 1e24 d23d
0.06443323 0.11474167 0.045306414 0.14990635 -0.0067662615 0.17605849 -0.034925107 0.08848713
0.11018656 -0.0021588227 0.061917204 0.018407514 0.09398466 0.0060922243 -8.555822e-05 0.12920943
0.05557145 0.16313179 0.12841219 -0.04956151 0.047251895 0.02125996 0.031247023 0.030611033
0.035732247 -0.08585719 0.10453575 -0.11742749 -0.60417855 -0.26983166 0.16775115 -0.14018758
0.10217448 0.14810285 -0.13930953 -0.18917996 -0.13841353 -0.17193405 0.14900485 -0.1372124
0.13053428 -0.30666706 -0.030421278 -0.13908204 -0.08990987 0.056355607 -0.12717792 -0.1439109
-0.10603538 0.043262344 0.14894001 0.15859789 0.09464097 -0.015178561 -0.05980823 0.027391369
0.15501682 0.097314425 0.09351294 0.08190446 -0.11166665 -0.21098854 0.2776764 0.047431614
-0.1917528 -0.0009660987 -0.2617748 -0.014057051 -0.117884815 -0.060409635 -0.14645983 -0.32562977
-0.17193563 -0.20908181 -0.307328 -0.116600715 -0.36094838 -0.21954565 -0.12285865 -0.13485776
-0.154203 -0.13728696 -0.02307065 -0.1924334 -0.019486373 -0.08563182 -0.0808082 0.04296598
0.013543267 0.09675207 0.119610965 0.1354236 0.0145298485 -0.0015399823 0.17686072 -0.28453973
0.21472171 0.014828779 0.059142902 -0.09694809 0.17420897 0.14036916 0.015347593 -0.002501085
-0.047368173 0.06679233 0.06708716 -0.08840562 -0.0637837 -0.24329428 0.34948364 -0.066734225
0.25649655 0.13511747 0.00040683872 -0.005585681 -0.15690738 1.1367459 0.06721862 0.07207355
0.050975103 -0.027907629 0.009136198 0.046737105 0.022376848 0.006891603 -0.0051652608 -0.027538687
-0.17989351 0.11312628 -0.32044658 0.109084085 -0.05197749 0.041595664 -0.006403607 0.012761282
-0.030268032 0.009654679 -0.10094347 -0.08677522 -0.26224607 -0.029230744 -0.10851805 -0.13237603
-0.29472294 -0.34285775 -0.16613494 -0.23929477 0.06137935 0.2150295 0.22966203 0.18375309
-0.16116169 -0.13565822 0.3099226 0.41406116 0.059092708 0.096294455 0.0808551 0.03254395
0.2610188 -0.008874086 -0.4214644 -0.6205711 0.02828086 0.30981374 0.033769228 -0.18747187
0.26198947 -0.12544093 0.49407634 0.35303015 0.07259528 -0.2880607 -0.25537282 -0.10354239
0.0073078116 -0.026090149 -0.49388248 -0.18904306 -0.27867743 -0.010015862 0.21451241 0.052692294
-0.116267666 -0.04372736 -0.32889685 -0.11157803 -0.044607263 0.044053327 -0.011467815 -0.046331596
-0.054582667 0.041097526 -0.06324914 0.05785969 0.102942236 0.24205047 0.08013077 0.21440768
-0.011173255 -0.12295758 -0.08447978 0.059852693 0.1117051 0.24098316 0.17646936 -0.04213527
0.029714411 0.07081326 0.07381726 0.19045642 0.047012784 0.0024455294 0.11137879 0.15317652
-0.34668908 -0.016184699 0.20509876 0.12617229 0.05655756 0.0013679804 0.011126821 -0.07883763
0.013081454 0.110910624 0.0760612 -0.08054763 0.06264694 0.009124745 0.10014584 -0.05249835
-1.0130894 -0.011411285 -0.0025347015 -0.03758482 -0.04924801 0.039170694 -0.086633936 -0.41844383
-0.005655207 -0.090896904 0.028865378 0.058953784 0.025788028 -0.0016628123 -0.003052453 -0.057349507
-0.00926646 0.06161385 -0.02860286 0.008058424 0.02462441 -0.022443775 -0.04925617 0.10260795

linear1.bias f4 [128]
00000000: c62d 703f f496 0abf dd54 bdbe 66e8 1b3f
00000010: 88c3 653d 4837 153e df05 383f cb78 f1be
00000020: e67c 883f e0cc f8be 1f5e 1cbf 522a 3d3e
00000030: e0bf 803f 2e7f 3f3f 81df a73d f9ff 1d3f
00000040: 4302 453f d358 06bf 1841 0abf b2ce 353f
00000050: 0460 753f 9aca b7be 5ca3 013f 8574 42bf
00000060: b40a 4a3f 7330 2a3f 4940 7c3f cdad 523f
00000070: a64a 303f 97d3 233f b771 103f fa6c 713f
00000080: 90f4 86be c539 f0be cb89 143f f5ef 1b3f
00000090: 8fbb 153f 5a75 e1be df94 153f d5c1 b1be
000000a0: c5a5 28bf f663 e53e 4413 473f ffb1 db3e
000000b0: 5858 723f 3642 2a3f 97ea 22bf 563c 17bf
000000c0: c4e4 b5be 945b 14bf 75f1 763f 6ba3 2b3f
000000d0: ea0b d9be 9100 3a3f 4142 263f abf4 4cbf
000000e0: 6056 5b3f 39e3 21bf 793a 783e 4d31 273f
000000f0: c159 20bf 1ede 103f 055b 3d3f a737 943e
00000100: fc7b e9bc c38e 2f3f 6407 4bbe a853 343f
00000110: 144e 643f 8902 24bf b806 563f d2d8 5a3f
00000120: ac65 103e 76ca 043f 5ff7 973e 7e18 733f
00000130: a2f3 14bf dcb7 2f3f 7e22 0e3f 818f bdbe
00000140: 7ab7 463f 1b0e 52bf 8a95 dabe 2e18 f0be
00000150: 9a09 3b3f 7f3a 793f f651 6f3e 6a4f dfbe
00000160: 934b 393f 21a4 20be 785c e9be 1ad1 203f
00000170: 2f70 5c3f 39af fcbe 17d8 3e3f 4f6a 083f
00000180: b5c0 dd3e 0e1f f63e 9cf7 1abf 297d 5a3f
00000190: 063c d6be 2763 503f 8def 49bf 6f76 94be
000001a0: 43c7 293f b7e6 1e3f f953 263f 197c 16bf
000001b0: 6c8e 1cbf b088 783f af0d 633f 0a2a b5be
000001c0: ae92 5bbf 1314 563f 7f73 cb3e 2201 163f
000001d0: c133 173f e212 b5be 31bb ef3e bb5e 5d3f
000001e0: 8099 253f 20f6 f5be 4abf 00bf e5ea 8abe
000001f0: 6dcf 3d3f 7e75 6c3f 303a 023f 2359 89be
0.93819845 -0.54136586 -0.36978808 0.60901487 0.056094676 0.1457187 0.7188396 -0.4716247
1.0663116 -0.48593807 -0.6108112 0.18473175 1.0058556 0.74803436 0.08196927 0.6171871
0.76956576 -0.52479285 -0.54005575 0.71018517 0.95849633 -0.3589676 0.5063989 -0.75959045
0.7892258 0.6648018 0.9853559 0.8229645 0.68863904 0.63994735 0.56423515 0.9430691
-0.2635846 -0.46919075 0.58022755 0.6091302 0.58489317 -0.44034845 0.58430284 -0.34718195
-0.65877944 0.44802827 0.7776377 0.42909238 0.9466605 0.6650728 -0.63639206 -0.5907644
-0.35526097 -0.5795224 0.96462184 0.6704623 -0.42391902 0.72657114 0.64944845 -0.80060834
0.8567867 -0.6323734 0.24241056 0.653096 -0.62636954 0.56588924 0.7396701 0.2894871
-0.028501503 0.6857721 -0.19827038 0.7044015 0.8918164 -0.6406637 0.83604 0.8548709
0.14101285 0.5187143 0.29680917 0.9495925 -0.58184254 0.6863992 0.5552138 -0.37023547
0.77623713 -0.82052773 -0.42692214 -0.46893448 0.73061526 0.9735488 0.2337111 -0.43615276
0.7238094 -0.1568761 -0.4557836 0.62819064 0.8610868 -0.49352434 0.74548477 0.53287214
0.43311086 0.48070568 -0.6053407 0.8534723 -0.4184267 0.81401294 -0.7888115 -0.28996608
0.66319674 0.6207079 0.6497188 -0.5878311 -0.6115482 0.9708357 0.88692755 -0.35383636
-0.8577069 0.8362438 0.39736554 0.5859548 0.59063345 -0.3536597 0.46822503 0.8647267
0.6468735 -0.4803934 -0.50291884 -0.27132335 0.7414463 0.9236678 0.5087004 -0.26825818

linear2.weight f4 [64, 128]
00000000: 7716 6c3d 32b6 5b3d 6375 013e ea63 89be
00000010: d465 85bd 18d7 25bf a196 60be 7a71 3cbd
00000020: 20c3 c13c fad7 a4bd 4688 8d3d 1147 45be
00000030: 3da1 cfbd 4034 a8bd 696c 6e3d 244d e3be
00000040: 0830 81bd 9fe5 0e3e 3090 2c3e 035f 02be
00000050: 45db 69be 08fe 9b3d bc06 0bbe ec58 d33d
00000060: ed74 89bb 182d 003d 433a 25be d948 01bc
00000070: 897d f5bd 5719 0cbd de32 e23b a310 99bd
00000080: 5ac3 8c3e 3c54 773d 48d0 10bc cc7c 8abd
00000090: 3fab 90bd 39ec f03d 36c0 c4be 63e3 fd3d
000000a0: bee0 153d c945 28bf 42a1 7bbe 8952 0abe
000000b0: c7e0 1b3d bd2c 1dbd b46d b13d 28b1 753e
000000c0: b090 123f 9c5f c7bd f527 593d ad07 c4bd
000000d0: 0602 c43d e2f0 19bd 3b49 e0bc 457d babd
000000e0: 9c41 9c3d a85a c13c d665 89be 503c dcbd
000000f0: 4ff7 8a3d 252c b23d 68c8 c9bd 8c10 60be
00000100: d4ce 1fbd 5617 c1bd dcc1 343e bdf8 01bd
00000110: 866a 1a3e 1745 233e ccb5 f0bd 8996 c8bd
00000120: b75c 69bf 57ab 79bc ed1e 9cbd 12db 92bc
00000130: c38a 1e3e 7c3c 473c 60d8 88bd 4a54 e73d
00000140: ed0e c73d 6e0e d93d 57f4 243e 4ea7 133e
00000150: d728 5cbe 814c a93d dce3 d23b fdb2 3d3d
00000160: a3ae fabd b736 0a3e e3db 943d 2889 00be
00000170: d7ae 0cbc 2822 053e 948a b6be 6243 7abe
00000180: be9a b6bd 439c d2bc 1570 803d 9eb5 473d
00000190: 1101 ca3d 85a0 543d d5bf 053d 5466 823d
000001a0: fb71 15bd 5bbe 93be 2bc3 0dbe 1ecd 823e
000001b0: c377 fa3d 556a c7bd f5c4 00be 111a a2bd
000001c0: 93a1 a83d 84e0 50bd b904 65bd 0a6e c5be
000001d0: e1c6 84bd 7f78 07bd e8fd efbd 418a 19be
000001e0: 57de b9bd b8ac e43d e698 bcbd cc92 bb3d
000001f0: 385d 3bbd e4d2 d0be 2524 69be e783 97bc
00000200: 6c66 233e 7f8f 77be bddc 813d 4efd 28bc
00000210: 739c 07bd b64d 333e dd62 323e c0d9 143d
00000220: af08 3c3e 34f5 f3bd 87f9 4ebd 6790 6bbd
00000230: 356e 123e fe05 883d 5fe5 dcbc ba05 973d
00000240: cb52 743e 74e4 a0be 6ee7 27bd 21ef ad3d
00000250: 1531 fd3d fbeb 53be c8e0 043e 19fc 48be
00000260: f4a0 b83d 91c4 eebc c9c8 c33d 077e 0a3e
00000270: 12ea 7f3d c099 26bd d6cf 99bd f9a7 143e
00000280: 8570 47be da18 99bd 8a77 6abd 277a 933d
00000290: b624 a13c 13e3 a1be 74e0 d63b d68a 9f3c
000002a0: 61e7 55be 3011 a1bd 147e ef3d b17e 6a3e
000002b0: f2b4 4a3e 2ed1 793d f73b 18be 7d39 edbe
000002c0: 4c8e 7abd bc1c 9fbd ed82 ae3b fb50 5cbc
000002d0: 4f3d 64bd 6e1c 463e bb37 ac3e dcdb ebbd
000002e0: 0cb4 da3d 40ef 29be 5f83 cc3d 62b2 243e
000002f0: 1651 fa3b 2ec5 3e3c 99e4 1e3e d2ff 603d
00000300: 4cf7 3fbc 5bb5 643d 8377 c43d f48b e03d
00000310: 06f4 b8bc 4ffc eebd bbea 893d 7b0a 8c3e
00000320: 0d55 283e 9f29 033d 11fe 0b3e bf78 e83d
00000330: ae39 58be 9a94 c43d 73f1 1f3d c641 bdbd
00000340: 1de5 e8bc 6fd6 1ebb 09c3 24be 1eef a1bd
00000350: 38aa 6f3e c211 093c bff2 81bc 05b7 3ebd
00000360: 07e2 c33d 81fc 62be 9ac5 e5bd 7ff4 2abd
00000370: 7d3e 3a3e d92e 793c cfd5 fe3d d2ff c43d
00000380: b626 2d3d 6594 ff3d 3c55 bebd 6835 933d
00000390: 4800 ebbd 5217 38bd ef5e 09be ad53 45be
000003a0: 32f4 943c 41db 22bc 34d0 8c3b a470 67be
000003b0: 4b14 4abe d374 8c3d 7d6e 7e3e 4934 1fbc
000003c0: 575e 2cbe 3c53 163e 2afe dbbd 3383 a3bd
000003d0: 7dee 97bd 1207 99bd e48f b5bd a3ea d23c
000003e0: 2402 84bd 2e55 7b3d 9183 5abe 3476 933d
000003f0: 4209 6e3d b741 9b3e 681d a83a 6fa2 a9bc
0.05763861 0.053640552 0.12642436 -0.2683404 -0.06513563 -0.6478133 -0.2193246 -0.046006657
0.023652613 -0.08049007 0.06910758 -0.19265391 -0.10138176 -0.08213091 0.058208857 -0.4439479
-0.06307989 0.13954781 0.16851878 -0.12731557 -0.22837551 0.07616812 -0.13576788 0.10319695
-0.004194847 0.031293005 -0.16135506 -0.007890903 -0.119868346 -0.034203853 0.0069030365 -0.07473876
0.2749279 0.060383067 -0.008838721 -0.06762084 -0.070639126 0.11763806 -0.38427895 0.12396886
0.036591284 -0.65731484 -0.24573234 -0.13508047 0.03805616 -0.038372744 0.08663502 0.23993361
0.57252026 -0.09735033 0.05301662 -0.095717765 0.095706984 -0.03758324 -0.027378669 -0.091059245
0.076297015 0.023602799 -0.26835507 -0.10753691 0.067854516 0.08699826 -0.098526776 -0.21881312
-0.039015606 -0.09428279 0.17652076 -0.031731356 0.15079698 0.15944324 -0.11753425 -0.09794337
-0.91157097 -0.0152386045 -0.07623086 -0.017926726 0.15482621 0.012160417 -0.06681895 0.11295374
0.09719644 0.10598455 0.16108833 0.1441929 -0.21499954 0.08266545 0.0064358544 0.046313275
-0.122403406 0.13497435 0.072685026 -0.12552321 -0.008586607 0.13001311 -0.35652602 -0.24439767
-0.089162335 -0.025709277 0.06271378 0.048757188 0.09863485 0.051910896 0.03265365 0.06367174
-0.036485653 -0.28856167 -0.13843982 0.25547117 0.12229874 -0.09737078 -0.12575133 -0.07915128
0.08233943 -0.050995365 -0.055912707 -0.38560516 -0.06483246 -0.0330739 -0.11718351 -0.14994146
-0.09075611 0.11165756 -0.092088506 0.09158859 -0.045743197 -0.40785897 -0.22767694 -0.018495513
0.1595704 -0.24175833 0.063409306 -0.010314299 -0.033108186 0.17510113 0.17420526 0.036340475
0.18362688 -0.11912003 -0.050530937 -0.05751076 0.14299853 0.06641768 -0.026964841 0.07374139
0.23859708 -0.31424296 -0.040992193 0.08492876 0.12362877 -0.20695488 0.12976372 -0.19627418
0.09015074 -0.029146465 0.09559781 0.13524638 0.062479086 -0.04067397 -0.07510345 0.14517201
-0.19476517 -0.07475443 -0.057242908 0.07201033 0.019670825 -0.31618556 0.0065575186 0.019475382
-0.20889045 -0.078646064 0.11693969 0.22899891 0.19795588 0.060990505 -0.14866625 -0.46332923
-0.06117086 -0.077691525 0.005325666 -0.013447042 -0.05572253 0.19346783 0.3363627 -0.11516544
0.106788725 -0.16595173 0.099859945 0.16083673 0.0076390607 0.011643691 0.1551689 0.05493147
-0.011716675 0.055837017 0.095931076 0.10964194 -0.022577297 -0.11669218 0.067342244 0.27351746
0.16438694 0.032022115 0.13671137 0.113511555 -0.21115753 0.09598656 0.039048623 -0.09241061
-0.028429562 -0.00242367 -0.16090025 -0.07906936 0.23404777 0.00836605 -0.01586282 -0.04656126
0.09564596 -0.22166635 -0.1121933 -0.041737076 0.181879 0.015208923 0.124431245 0.09619106
0.042273246 0.12479476 -0.09293601 0.07187921 -0.11474663 -0.044944115 -0.1341512 -0.19270201
0.018182848 -0.0099399695 0.0042972807 -0.22601563 -0.19734304 0.0685822 0.24846835 -0.009717056
-0.16832863 0.14680189 -0.10741837 -0.07984009 -0.07418535 -0.07472052 -0.088653356 0.02574665
-0.06445721 0.06136053 -0.21339251 0.0720028 0.058114298 0.30323574 0.0012826147 -0.020707337

linear2.bias f4 [64]
00000000: da97 dcbe 6d8f 673f f2ad 583f ee67 473f
00000010: 1ab7 99be 05cc 643f 415a 333f 17f0 1b3f
00000020: b56c 543f df5f 663f f2a3 4fbf af66 07bf
00000030: 5813 c9be 1952 793f 67a2 03bf eada e0be
00000040: 9e6b 633f 655c 0dbf 9fe0 49bf 48f6 d4be
00000050: 9b9a c2be f59b 4b3f 1873 573f b4b4 3f3f
00000060: 02b6 553f 0783 babe d073 acbe 0d10 0dbf
00000070: 6aa4 623f 6e56 4c3f 23e2 1cbf 33ea 4b3f
00000080: 8e74 553f 7c76 cbbe c6ad 3f3f 7d10 403f
00000090: 0db7 4c3f 652b 543f bf23 443f 979e d4be
000000a0: b9bf 49bf 1b7f 9fbe 4ae0 4d3f a4e7 e0be
000000b0: 277e b1be 0e47 d2be abf2 f5be 2767 5e3f
000000c0: 4840 0bbf 8b0d 453f 369f 8bbe dc53 e1be
000000d0: 9a90 1fbf b44f 0fbf 4f0b dabe 8e69 803e
000000e0: 1ba9 453f 818c 543f fcda 5b3f cfa9 08bf
000000f0: 2876 4f3f f5a7 d7be cddb 403f d2d1 26bf
-0.43084604 0.90453225 0.8464042 0.7789296 -0.30022508 0.8937381 0.7005959 0.60913223
0.82978374 0.8999004 -0.81109536 -0.5289106 -0.3927257 0.97390896 -0.5141968 -0.43917018
0.88836086 -0.5521911 -0.7885837 -0.41594148 -0.3800858 0.79534847 0.84159994 0.74885106
0.83480847 -0.3642809 -0.33682108 -0.55102617 0.88532126 0.7981938 -0.6128256 0.79654235
0.83380973 -0.39738834 0.7487453 0.7502516 0.79966813 0.82878715 0.76617044 -0.41527244
-0.7880817 -0.3115166 0.8042036 -0.43926728 -0.3466656 -0.41069835 -0.48036703 0.8687615
-0.5439496 0.7697379 -0.27269906 -0.44009292 -0.6233002 -0.5598099 -0.42586753 0.25080532
0.7721116 0.8302689 0.8588102 -0.5338411 0.8103967 -0.4212033 0.7533539 -0.6516391

output.weight f4 [1, 64]
00000000: e392 d4be a000 d63e be6c 873e 58a5 943e
00000010: dde8 19bf 62c1 a33e 1c0a 273e 7521 033f
00000020: 2d9a 723e 08e6 293e f701 25be 0b94 79be
00000030: c04e 18bf 925b 083f 7b11 89bf 3c35 10bf
00000040: 394d ae3e c1fe 2fbf 7cf8 babe a4ea f1be
00000050: 8e11 08bf 9929 183e e041 483e 3079 5e3e
00000060: 176e 903e b6a9 97bf 50c2 b9be 758e 5dbe
00000070: f50f d13e 3a4c 793e 74df 1cbf 34fe 6b3e
00000080: 89cc 863e 9434 9abe 1710 4e3e f1f9 1e3f
00000090: 784f 243e 3e08 4f3e 9649 463e e0f3 9ebe
000000a0: 10c7 4dbe 5148 5cc0 1c3f 943e 5fb8 b0be
000000b0: c721 febe d09c fdbe 8f7b e9be 1ed0 cb3e
000000c0: 411e c0be d12a 963e 318b edbe 11db 0fbf
000000d0: f2da 1abe 3608 b1bf 3476 01bf a47c cc3e
000000e0: 93ad 313e 907f 3f3e 6789 243e b405 acbe
000000f0: ac5f 663e 4a2a 30bf f46e e13e 3870 adbe
-0.41518316 0.41797352 0.2645015 0.29032397 -0.60120946 0.31983477 0.1631245 0.51222926
0.23691626 0.16591656 -0.16114031 -0.2437288 -0.5949516 0.53264725 -1.070846 -0.5633123
0.3404329 -0.687481 -0.36517704 -0.4724933 -0.53151786 0.14859618 0.1955638 0.21725917
0.28208992 -1.1848667 -0.3628106 -0.21636374 0.40832487 0.24345484 -0.6127846 0.2304619
0.26327923 -0.3011824 0.20123325 0.6210013 0.1604594 0.20217988 0.19364008 -0.31045437
-0.20095468 -3.4419138 0.289544 -0.34515664 -0.49635145 -0.495337 -0.4560208 0.39807218
-0.37523082 0.2932954 -0.46395257 -0.56193644 -0.15122584 -1.3830631 -0.5057099 0.39938843
0.1735137 0.18701005 0.1606804 -0.335981 0.22497433 -0.6881453 0.44029963 -0.3387468
