Data/Player1/Model-rndTest8.pth (torch, 120468 bytes, 7 tensors)

linear1.weight f4 [128, 34]
0	0xbe284b8a	-0.16435066
1	0xbdf95d6d	-0.12176023
2	0xbdbc8b16	-0.09206216
3	0x3d95a09b	0.07306024
4	0x3ed02583	0.4065362
5	0x3e2f56f9	0.17123021
6	0x3e8d8aef	0.2764506
7	0x3d8dcc59	0.06923742
8	0x3e8f5290	0.27992678
9	0x3e0410cd	0.12897034
10	0xbd7f9b5b	-0.062404018
11	0x3e0d0e86	0.13775072
12	0x3d67563c	0.056478724
13	0x3dfb7bde	0.12279485
14	0xbdb3d4d1	-0.08780826
15	0xbe15f5e2	-0.14644578
16	0xbd32382b	-0.043510597
17	0x3dd6fa23	0.104969285
18	0x3c1ca696	0.009561202
19	0xbe1e2d3b	-0.15446942
20	0xbdb68ee1	-0.08913971
21	0xbd855798	-0.06510848
22	0xbd8a50b4	-0.06753674
23	0xbdc78482	-0.09742071
24	0xbcc2c938	-0.02377759
25	0x3cb397de	0.021923002
26	0x3dc3a487	0.095528655
27	0x3da0951d	0.07840941
28	0xbeaa43f8	-0.3325498
29	0x3d18584e	0.03719359
30	0x3ab2a2b9	0.0013628817
31	0x3c127d59	0.008941018
32	0xbbd9b9e5	-0.006644475
33	0x3c4b9fb1	0.01242821
34	0x3c8c3259	0.017113851
35	0x3dbf015f	0.093264334
36	0xbe5fef01	-0.21868517
37	0xbc1e2477	-0.009652249
38	0xbe00e9ff	-0.12589262
39	0xbdfaa657	-0.12238758
40	0x3e894efc	0.26818073
41	0x3d69cd0b	0.05708031
42	0x3e29b74d	0.1657383
43	0x3e324c7f	0.17411993
44	0xbd90992f	-0.070604675
45	0xbe4bd820	-0.19906664
46	0x3e7f14e7	0.24910317
47	0xbc94df63	-0.018172925
48	0x3db3d3b3	0.08780613
49	0xbe45bb3e	-0.19309708
50	0x3dbaf1e4	0.09128168
51	0x3df1771e	0.11790298
52	0xbe0c4477	-0.13697992
53	0xbd230a01	-0.039804462
54	0x3df01ea3	0.117245935
55	0xbe074706	-0.13210687
56	0x3d8684f4	0.065683275
57	0xbd68726f	-0.056749757
58	0x3d3a7ef5	0.045531232
59	0xbc637f45	-0.013885324
60	0x3dc7a8e3	0.097490095
61	0xbe20ff6d	-0.15722437
62	0xbcaf749a	-0.021417905
63	0xbe0dc9ec	-0.13846558
64	0x3ddbdc8b	0.107354246
65	0xbd18dee5	-0.037321944
66	0x3d8f7492	0.07004656
67	0x3e1fcc85	0.15605362
68	0x3cc1fe82	0.02368093
69	0x3b10136d	0.0021984235
70	0xbce39aaf	-0.02778372
71	0xbda9f002	-0.08297731
72	0x3dbf1d66	0.09331779
73	0x3e798da0	0.24370432
74	0x3befdb7e	0.0073198667
75	0x3e24da32	0.1609886
76	0xbd46ade7	-0.04850569
77	0x3e6e949f	0.23298882
78	0x3e15bd4c	0.14622992
79	0xbe1375a0	-0.14400339
80	0x3e2839a9	0.16428246
81	0x3d36ed24	0.04465975
82	0x3d9fc8d4	0.07801977
83	0xbe12b806	-0.14328012
84	0xbe42977e	-0.19003102
85	0x3cc36668	0.023852542
86	0xbca6198c	-0.020275854
87	0x3dd3e8a9	0.10347111
88	0x3db98379	0.090582795
89	0x3d675c7f	0.056484696
90	0x3dc0d01f	0.09414696
91	0x3d584092	0.052795954
92	0xbda86038	-0.08221477
93	0xbc4db791	-0.012555973
94	0xbe99b620	-0.30021763
95	0x3e3e22ae	0.18567917
96	0x3cdafe65	0.026732633
97	0x3e32a922	0.17447332
98	0x3d848133	0.06469955
99	0xbdb20b19	-0.08693523
100	0x3cc80f24	0.024421282
101	0xbdd662a5	-0.10468034
102	0xbdfe0969	-0.124041386
103	0x3e28f34f	0.16499065
104	0xbd51012b	-0.051026504
105	0x3d12efc6	0.035873197
106	0x3dbb2d69	0.09139521
107	0xbdacab06	-0.08431058
108	0x3d8f9ee7	0.0701273
109	0xbdb67a57	-0.08910053
110	0x3cf8838b	0.030336162
111	0xbdad5f82	-0.08465482
112	0xbba58f3f	-0.0050524767
113	0x3dd29f8b	0.10284337
114	0xbd4bd3a2	-0.049762376
115	0x3daed56c	0.08536801
116	0x3d2dfb09	0.042475734
117	0x3d8b874e	0.06812917
118	0x3dad3cba	0.08458848
119	0xbd596564	-0.05307521
120	0xbc9cb5b9	-0.01912962
121	0x3ce2e519	0.027697133
122	0x3dd2a621	0.10285593
123	0x3ba9f30e	0.005186445
124	0x3b025341	0.001988605
125	0x3d938e02	0.0720482
126	0xbdbfa5c1	-0.09357787
127	0xbe2d9761	-0.16952278
128	0xbe9eb8c3	-0.31000337
129	0xbdeab905	-0.11461071
130	0x3e193360	0.14961004
131	0xbdeb17c5	-0.11479143
132	0x3dd91d3e	0.10601281
133	0x3e06e66a	0.13173833
134	0x3e672ab8	0.2257489
135	0x3df511ee	0.119663104
136	0xbd74e158	-0.059785217
137	0x3e42ff97	0.19042812
138	0xbddf2173	-0.10895052
139	0xbde8c920	-0.113664865
140	0xbb4134e0	-0.002948098
141	0xbd89f3cb	-0.06735953
142	0x3cd3e737	0.025867088
143	0x3cb018da	0.021496225
144	0xbd0fe587	-0.035131004
145	0x3e675bdb	0.22593634
146	0x3e176846	0.14785871
147	0xbda30b53	-0.07961144
148	0x3e03b0a5	0.12860353
149	0xbdf037e1	-0.11729408
150	0xbdf424aa	-0.119210556
151	0x3e4f2e76	0.20232567
152	0x3d7ccb12	0.0617171
153	0x3e7aef29	0.24505295
154	0x3d81972c	0.06327662
155	0x3d354bb9	0.044261668
156	0xbdc4c85a	-0.096085265
157	0x3df79dc2	0.12090637
158	0xbd02aed7	-0.03190502
159	0x3c432921	0.011911661
160	0xbb957333	-0.004560852
161	0xbdd9059b	-0.10596772
162	0xbb890aa1	-0.0041821753
163	0xbe0dad2c	-0.13835591
164	0xbe2736ca	-0.16329494
165	0x3df46084	0.119324714
166	0x3e21e8a1	0.15811397
167	0x3e334773	0.17507724
168	0x3d50b4d0	0.050953686
169	0xbdc52a12	-0.09627165
170	0xbe790d50	-0.24321485
171	0xbe1e2d34	-0.15446931
172	0x3cb4ba67	0.02206154
173	0x3da4067e	0.08009051
174	0xbc9dde07	-0.01927091
175	0xbd20194b	-0.03908662
176	0xbd21151e	-0.03932678
177	0xbd15bf44	-0.03655936
178	0xbdd8e567	-0.1059063
179	0x3d96a82a	0.073562935
180	0x3dcfc6bc	0.101453274
181	0x3e31634a	0.17323032
182	0x3d0d6dc6	0.034528516
183	0x3e2b31de	0.16718242
184	0x3e147d6e	0.14500973
185	0xbd8c9964	-0.068651944
186	0x3e550b9a	0.20805207
187	0xbc97be65	-0.018523404
188	0x3ceb14c3	0.028696423
189	0x3e026fa3	0.12737899
190	0x3deb4ae9	0.11488897
191	0x3d5ea5ac	0.054357216
192	0x3d2fcc97	0.04291972
193	0x3d3075c2	0.043081053
194	0xbd7b3fe3	-0.061340224
195	0xbdbd01d6	-0.09228866
196	0x3e428318	0.18995321
197	0x3d11bf5e	0.035582893
198	0xbe76f108	-0.24115384
199	0xbd9fe4d0	-0.078073144
200	0x3dfbcf4e	0.122953996
201	0xbdb6ca2d	-0.08925281
202	0xbd58369b	-0.05278645
203	0x3e0143ed	0.12623568
204	0xbc382d12	-0.011241214
205	0xbe0eba18	-0.13938177
206	0x3af3acd7	0.0018590939
207	0x3df022b1	0.11725367
208	0xbe1b8235	-0.15186389
209	0xbe13afad	-0.14422484
210	0x3adf2c59	0.0017026766
211	0x3e39e1db	0.18152563
212	0xbdcc1a14	-0.099659115
213	0x3e38fb26	0.18064556
214	0x3dc39e38	0.09551662
215	0x3e318263	0.17334895
216	0x3cb8a055	0.02253739
217	0x3eb0532b	0.34438452
218	0xbe428c5e	-0.18998858
219	0xbdbc323c	-0.09189269
220	0xbdec874e	-0.11549245
221	0xbe395386	-0.18098268
222	0xbd5ef224	-0.054430142
223	0x3d0d33ad	0.03447311
224	0xbda70654	-0.08155504
225	0xbdebbb4e	-0.11510335
226	0xbdf5f1dd	-0.120090224
227	0xbd7a7154	-0.061143234
228	0x3e2b85b0	0.16750216
229	0x3e5cdac2	0.21567824
230	0x3e43766e	0.19088146
231	0x3e3e5db9	0.1859044
232	0xbcbe2467	-0.023210717
233	0xbd9d3a35	-0.07677118
234	0x3da0cf35	0.078520216
235	0xbdd8452a	-0.10560067
236	0xbd766e91	-0.060164038
237	0x3e084305	0.13306816
238	0xbe3b2186	-0.18274507
239	0xbb290ba0	-0.0025794283
240	0xbd106fa4	-0.03526272
241	0xbdd968f8	-0.10615724
242	0xbdb3c4e6	-0.0877779
243	0xbc8f73e1	-0.01751131
244	0xbe045ed4	-0.12926799
245	0xbe459ccb	-0.19298093
246	0xbd937b22	-0.0720122
247	0xbd80a946	-0.06282286
248	0xbe0d183b	-0.13778774
249	0xbc4b3b2a	-0.0124042425
250	0xbc6e6688	-0.014550813
251	0xbdbbc843	-0.09169056
252	0xbdb50821	-0.08839441
253	0xbd85c24c	-0.065312
254	0x3d2e4b2e	0.042552166
255	0xbd94f6f2	-0.072736636

linear1.bias f4 [128]
0	0x3ec2c80b	0.38043246
1	0x3e6bf00f	0.23040794
2	0x3f0125e2	0.5044843
3	0x3e87e903	0.2654496
4	0x3e8e0d3f	0.2774448
5	0x3ee7c424	0.4526683
6	0x3ee69a74	0.45039713
7	0xbe9fca34	-0.31208956
8	0x3ec6f26c	0.38856828
9	0x3f357f11	0.7089701
10	0xbe178160	-0.14795446
11	0x3e624804	0.22097784
12	0xbe2a1f7b	-0.16613571
13	0x3e1856e9	0.14876904
14	0xbed596ad	-0.4171652
15	0x3d96b85a	0.07359381
16	0xbe9dfa99	-0.30855253
17	0x3eeb5ef6	0.45970887
18	0x3eaf97b3	0.34295425
19	0x3ed9f140	0.42566872
20	0x3e9e1871	0.30878022
21	0xbed1e2bb	-0.40993294
22	0x3f024e36	0.5090059
23	0x3ea7996c	0.3273424
24	0x3e47d4c8	0.19514763
25	0x3e6b713b	0.22992413
26	0xbe5203a5	-0.20509203
27	0x3eb4e92d	0.3533415
28	0x3f1c7b35	0.611255
29	0x3e92486e	0.28570884
30	0xbe58b658	-0.21163309
31	0x3ed6ef3f	0.41979405
32	0x3e6b4e7b	0.22979157
33	0xbedd0c62	-0.4317351
34	0x3e1b1661	0.15145256
35	0xbe8928cc	-0.26788938
36	0x3e923403	0.28555307
37	0x3f1c3e92	0.61032975
38	0xbe62bb06	-0.22141656
39	0xbe2ddc0b	-0.16978471
40	0x3f20a6f5	0.62754756
41	0x3f025308	0.50907946
42	0xbe92ce59	-0.28673056
43	0x3ef75ed6	0.48314542
44	0x3f013c84	0.50482965
45	0xbe8b72af	-0.27235934
46	0x3e4d6b5b	0.20060484
47	0x3d8d656a	0.06904109
48	0xbc1994b4	-0.0093738325
49	0x3f168d48	0.5880933
50	0x3e9cb438	0.30606246
51	0xbec02ca1	-0.3753405
52	0xbef7012e	-0.48243088
53	0x3f18983e	0.59607303
54	0x3ea84511	0.32865193
55	0x3efa7e5f	0.48924538
56	0xbe7cbd8f	-0.24681686
57	0xbe19e88f	-0.1503012
58	0x3e7992ab	0.24372356
59	0x3e7c0f02	0.246151
60	0xbded2e1f	-0.115810625
61	0x3f0bf6a9	0.5467325
62	0xbeafa258	-0.34303546
63	0x3ed63e08	0.418442
64	0x3e9a1f6a	0.30102092
65	0x3cbad1dd	0.022805149
66	0x3e7e15b9	0.24812974
67	0x3e8d6fe6	0.27624434
68	0x3e3013c9	0.17195047
69	0x3e97e124	0.29663956
70	0xbe30cf4f	-0.17266582
71	0x3ec91227	0.39271662
72	0xbe7b406f	-0.24536298
73	0xbe18c3fe	-0.14918515
74	0x3ed56df4	0.4168545
75	0x3f0516a9	0.519877
76	0x3ea2d227	0.3180096
77	0x3f0edb63	0.5580351
78	0xbe86d1c1	-0.26331905
79	0x3ecc41ef	0.39894053
80	0x3f062c9b	0.5241181
81	0x3edb1107	0.42786428
82	0xbee153f3	-0.4400936
83	0x3eb7c3a9	0.35891464
84	0x3ed3b5ac	0.41349542
85	0xbe54ba77	-0.20774256
86	0x3e886c5a	0.26645166
87	0xbe976579	-0.29569605
88	0xbdad9e8b	-0.08477505
89	0x3ea9a66b	0.3313478
90	0x3ededf67	0.43529817
91	0x3e32a1b6	0.174445
92	0xbe4c0017	-0.1992191
93	0xbe7e3494	-0.24824744
94	0xbeaa2a6d	-0.33235493
95	0x3d2f4fbb	0.042800646
96	0x3eb0363c	0.34416378
97	0x3ed74600	0.42045593
98	0xbec267ea	-0.37969905
99	0x3e76e459	0.24110545
100	0xbe64b2bd	-0.22333808
101	0x3ea1eea8	0.31627393
102	0x3ea613ed	0.32437077
103	0x3ea6d099	0.32581022
104	0xbdfa3662	-0.12217404
105	0xbd697995	-0.057000715
106	0x3f1f6491	0.6226283
107	0xbd99ee59	-0.07516164
108	0x3ef18a5c	0.47175872
109	0xbe87bdca	-0.26511985
110	0xbdd82db0	-0.10555589
111	0x3ed1a4f4	0.40946162
112	0x3e85016d	0.2597765
113	0xbd2c93f2	-0.04213328
114	0xbe1cef11	-0.15325572
115	0x3f08745d	0.53302556
116	0xbe082b4c	-0.13297766
117	0x3e3e408e	0.18579313
118	0xbe645eb7	-0.22301756
119	0x3f07e5d1	0.53085047
120	0xbd9b37a3	-0.07578971
121	0xbec30e6b	-0.38096938
122	0xbed7b5ce	-0.42130893
123	0x3f40f2af	0.75370306
124	0x3e028ade	0.12748286
125	0x3e03a1a7	0.12854634
126	0x3dba4012	0.09094252
127	0x3eaba1fd	0.33522025

linear2.weight f4 [128, 128]
0	0xbe8d787f	-0.27630994
1	0x3d3a9205	0.04554941
2	0xbe035952	-0.12827042
3	0x3d4545f1	0.048162404
4	0xbc41318d	-0.011791599
5	0xbd23a699	-0.0399538
6	0xbe8c7b70	-0.27437925
7	0x3d9789e4	0.073993474
8	0xbde56f4f	-0.11202871
9	0xbeb73e14	-0.3578955
10	0x3dbb2eab	0.091397606
11	0x3cbf51f9	0.023354517
12	0x3da27604	0.07932666
13	0xbc889a41	-0.016675116
14	0x3dc1d419	0.094642825
15	0x3d2585cf	0.040410813
16	0x3d758901	0.05994511
17	0x3db3c860	0.08778453
18	0xbd0b3811	-0.033989016
19	0xbc323f92	-0.010879414
20	0xbe9fbf47	-0.3120062
21	0x3e2345b7	0.15944563
22	0x3d69419b	0.056947332
23	0xbe923134	-0.28553164
24	0xbd0fad15	-0.035077173
25	0xbd3f0c26	-0.046642445
26	0xbd5cad81	-0.053876404
27	0xbc842865	-0.016132543
28	0xbd896667	-0.06708985
29	0xbddba0c3	-0.10724022
30	0x3d3bbc4e	0.04583388
31	0x3d97780f	0.07395946
32	0xbbe0792f	-0.0068503837
33	0xbbc91b32	-0.006137275
34	0xbe1a0db7	-0.15044294
35	0xbc7f3f67	-0.015579081
36	0xbd8cfaa1	-0.06883741
37	0xbde66b07	-0.112508826
38	0x3e189c0d	0.14903279
39	0x3e45ceda	0.19317189
40	0xbde23de9	-0.11046965
41	0xbca47dc4	-0.020079501
42	0x3d46b3e0	0.048511386
43	0xbe914f17	-0.28380653
44	0xbcff180e	-0.0311394
45	0x3e1cfc9b	0.15330736
46	0x3d72e36b	0.059298914
47	0x3c9c95b9	0.019114362
48	0x3b1da4ed	0.0024054602
49	0xbd8aa708	-0.0677014
50	0xbe16cf46	-0.14727506
51	0x3d1eb313	0.038744997
52	0x3b92b7c0	0.004477471
53	0xbe4de719	-0.20107688
54	0x3da13042	0.078705326
55	0x3d1907e8	0.037361056
56	0x3da6a0b7	0.08136123
57	0x3daeaaac	0.08528647
58	0x3d107099	0.03526363
59	0xbd96790c	-0.073473066
60	0x3d75e7ac	0.060035393
61	0xbcbab114	-0.022789516
62	0xbc815ef7	-0.015792353
63	0xbd1c02cb	-0.0380886
64	0xbdadbdc5	-0.08483461
65	0xbcd34f47	-0.025794638
66	0xbced5724	-0.028972216
67	0xbd29fbf7	-0.041500058
68	0xbd2d2e19	-0.04228029
69	0xbda48b81	-0.08034421
70	0x3db1cfa6	0.08682184
71	0xbc48b40c	-0.012249958
72	0x3e042824	0.12905937
73	0xbd7cb7ba	-0.061698653
74	0xbd1fa76b	-0.03897802
75	0xbda81529	-0.08207161
76	0xbe8dbb56	-0.27681988
77	0xbe0f673f	-0.14004229
78	0x3e0e0ed1	0.1387284
79	0xbdc88bd2	-0.097922936
80	0x3cebc1bd	0.028778905
81	0xbd654f9d	-0.05598413
82	0xbdab857e	-0.08375071
83	0x3d66a563	0.05631007
84	0x3d640855	0.05567201
85	0x3d273817	0.040824976
86	0xbdae2af6	-0.08504288
87	0xbc080854	-0.008302767
88	0x3cae6610	0.021288902
89	0x3c55708b	0.013027321
90	0xbe3047d9	-0.17214908
91	0xbd9251cd	-0.071445085
92	0x3dedd2bf	0.11612462
93	0x3d77bd2b	0.06048314
94	0x3d660e1b	0.056165796
95	0x3be1e924	0.0068942476
96	0xbe0d15f7	-0.1377791
97	0xbe998191	-0.29981664
98	0x3e35333a	0.17695323
99	0xbd876cd0	-0.06612551
100	0x3c98251b	0.01857238
101	0xbd7ba96b	-0.061440866
102	0x3d18f990	0.037347376
103	0xbc89db2b	-0.01682814
104	0x3c8bdf7f	0.017074345
105	0x3db9d426	0.09073667
106	0xbd46b2a7	-0.04851022
107	0x3de2fa0d	0.1108285
108	0xbd897643	-0.0671201
109	0x3bb1daf0	0.0054277107
110	0xbd884071	-0.06652916
111	0xbe856a41	-0.26057628
112	0x3d626a17	0.055276956
113	0xbd09d31b	-0.03364859
114	0x3c4dc7dd	0.012559858
115	0xbe021a40	-0.12705326
116	0x3dcdeffa	0.100555375
117	0xbdaa78c8	-0.083238184
118	0x3d7add78	0.061246365
119	0xbbd7eef8	-0.0065897666
120	0xbdb20f4f	-0.08694326
121	0x3e332633	0.1749504
122	0x3d9d282e	0.07673679
123	0xbd6c279b	-0.05765496
124	0x3d565232	0.05232448
125	0x3d24fa09	0.040277515
126	0xbe371fac	-0.17883176
127	0x3c74bfe1	0.014938326
128	0xbcf0e11c	-0.029404216
129	0x3b230124	0.0024872506
130	0xbde625ac	-0.11237654
131	0xbd9c7db5	-0.07641164
132	0x3d1cd784	0.03829147
133	0xbe2ef9a4	-0.17087418
134	0xbd6bc8ea	-0.057564653
135	0xbdc2390e	-0.094835386
136	0xbd432b19	-0.047648523
137	0xbe372008	-0.17883313
138	0x3db0880f	0.08619701
139	0xbd2beaa0	-0.041971803
140	0xbdbd6c36	-0.09249155
141	0xbd6d498f	-0.05793148
142	0xbde7e3fe	-0.11322783
143	0xbdb4dcc8	-0.08831173
144	0xbd3aabb0	-0.04557389
145	0xbd716c06	-0.05894091
146	0xbd1ec76b	-0.0387644
147	0xbdb20670	-0.08692634
148	0x3c6465e5	0.013940309
149	0xbd1d6879	-0.03842971
150	0x3d40ae3c	0.047041163
151	0xbdaf3edc	-0.08556911
152	0x3c09e42f	0.00841622
153	0xbd208e07	-0.039197948
154	0xbd013f39	-0.031554434
155	0xbdc85717	-0.09782236
156	0xbde5cadb	-0.11220332
157	0xbe2afccf	-0.16698001
158	0xbd4d1a60	-0.05007398
159	0xbda9acad	-0.082848884
160	0xbe1bb9d1	-0.15207602
161	0x3c1cb46c	0.0095645
162	0xbca09eae	-0.019606914
163	0x3ca1f54c	0.019770287
164	0xbd902e8f	-0.0704013
165	0xbda4066a	-0.08009036
166	0x3d608287	0.05481198
167	0x3b82dcc3	0.003993602
168	0xbdb09190	-0.08621514
169	0xbe28f913	-0.16501264
170	0x3d8f9b1b	0.07012006
171	0xbe25cf08	-0.16192257
172	0xbdf0dfc8	-0.11761433
173	0x3d9aeed9	0.07565088
174	0x3d065192	0.032792635
175	0x3d89e2a0	0.067326784
176	0xbda39a57	-0.07988422
177	0xbd22d1ea	-0.03975097
178	0xbda47577	-0.08030217
179	0xbcd2c3f2	-0.0257282
180	0xbcbb157e	-0.022837397
181	0xbd8b123e	-0.06790589
182	0xbdb7ebb3	-0.08980503
183	0xbbe87757	-0.0070943045
184	0xbd51f448	-0.051258355
185	0x3c42db3d	0.011893091
186	0xbd4b0d57	-0.04957327
187	0xbe1361e2	-0.14392808
188	0xbcc3be8a	-0.023894567
189	0xbdb1fd71	-0.08690918
190	0xbd4137fa	-0.047172524
191	0xbd5be887	-0.053688552
192	0xb96c407b	-0.00022530735
193	0x3c9e3b20	0.019315302
194	0xbd082554	-0.033238724
195	0x3cbe7e4f	0.023253588
196	0xbd350b65	-0.04420032
197	0xbd13c165	-0.036073107
198	0xbccfe96d	-0.02537986
199	0xbc632390	-0.013863459
200	0xbdd525b4	-0.10407582
201	0x3cd1e6a0	0.025622666
202	0xbda0a9cc	-0.07844886
203	0x3d245ddf	0.040128585
204	0x3c3659d1	0.011129812
205	0xbd11f1bc	-0.035630926
206	0xbd8ba021	-0.068176515
207	0xbc266175	-0.0101550715
208	0xbb8a2de9	-0.0042168987
209	0xbb597c80	-0.003318578
210	0xbcece58e	-0.028918054
211	0x3c4b0159	0.012390458
212	0xbd9a6f38	-0.075407445
213	0xbd7a65cb	-0.061132234
214	0x3cbe7802	0.023250584
215	0xbd9ef8f0	-0.07762325
216	0x3e48bbbb	0.19602863
217	0xbd090218	-0.033449262
218	0xbe089ac7	-0.13340293
219	0xbe00434b	-0.1252567
220	0x3bf85ea9	0.0075796437
221	0xbd0e1f54	-0.034697846
222	0x3d96b269	0.07358248
223	0xbd72d3ec	-0.059284136
224	0xbddf32b4	-0.10898343
225	0xbd46a5fa	-0.04849813
226	0x3dfb0b86	0.12258057
227	0xbabc3bd9	-0.0014361098
228	0x3ae8d7c9	0.0017764504
229	0xbdc9de43	-0.09856846
230	0x3ce19370	0.027536124
231	0xbd2fc1f0	-0.042909563
232	0xbdbf4d00	-0.093408585
233	0xbd1a619c	-0.037690744
234	0xbdc4da4d	-0.0961195
235	0xbb7e464a	-0.003879922
236	0xbd8cf1ea	-0.06882079
237	0xbd48d886	-0.049034618
238	0x3da60b46	0.08107619
239	0xbe2e1179	-0.16998853
240	0x3c22573b	0.009908493
241	0x3cecbb81	0.028898003
242	0xbd6b44d8	-0.0574387
243	0xbdb88774	-0.09010211
244	0xbd656ec1	-0.056013826
245	0xbea951d2	-0.33070236
246	0x3d599968	0.053124815
247	0x3d5ea0b4	0.054352477
248	0x3eace956	0.3377177
249	0x3db4f69c	0.088360995
250	0xbace0527	-0.0015718088
251	0xbe274157	-0.16333519
252	0xbd3b6128	-0.045746952
253	0xbd800dc7	-0.06252628
254	0x3d3fae31	0.04679698
255	0x3c10aefe	0.008830784

linear2.bias f4 [128]
0	0xbeb591d0	-0.3546281
1	0xbef704c0	-0.4824581
2	0x3eebcbdb	0.46053967
3	0xbe976ced	-0.2957529
4	0x3ee26667	0.44218752
5	0x3f039772	0.5140296
6	0xbe539b40	-0.20664692
7	0xbe99ee0a	-0.30064422
8	0xbeaee000	-0.34155273
9	0x3edfa425	0.4367992
10	0x3ed49120	0.41516972
11	0x3ea7fba6	0.3280918
12	0x3eb56a35	0.35432592
13	0x3f045275	0.5168832
14	0xbe5e9697	-0.21737133
15	0x3ec45fd1	0.38354352
16	0xbdda8fc1	-0.1067195
17	0x3efa23a6	0.48855323
18	0xbe5e042a	-0.21681276
19	0x3ecc6281	0.39918903
20	0x3ee1ae9f	0.44078538
21	0x3eb00ffc	0.34387195
22	0xbe5a5960	-0.21323156
23	0x3ed39693	0.41325817
24	0xbeb18507	-0.34671804
25	0x3ecf15d8	0.40446353
26	0x3e8a030b	0.26955447
27	0xbed17da1	-0.4091616
28	0x3f0041ff	0.501007
29	0xbeb4e7aa	-0.35332996
30	0x3eb8b4f5	0.3607556
31	0x3edfc3dc	0.43704116
32	0x3eda691d	0.4265832
33	0xbe624138	-0.22095191
34	0xbe9e6b90	-0.3094144
35	0x3ec4ebde	0.38461202
36	0x3efa0c08	0.48837304
37	0xbe3ea101	-0.18616106
38	0xbed34861	-0.41266158
39	0x3ec9b9da	0.39399606
40	0xbea01ef6	-0.3127362
41	0xbe939af5	-0.2882916
42	0x3edb18ea	0.42792445
43	0xbeabb7ee	-0.33538765
44	0xbeaced7c	-0.33774936
45	0x3ed0cfc4	0.40783513
46	0xbed1a6cf	-0.40947577
47	0xbe855303	-0.26039895
48	0xbe9d0f61	-0.30675796
49	0xbe5055a5	-0.20345171
50	0xbdebe864	-0.11518934
51	0xbe5c05f3	-0.21486644
52	0xbeb71bc0	-0.3576336
53	0xbee23100	-0.4417801
54	0xbeb8d6b3	-0.36101303
55	0x3ed875d4	0.42277396
56	0xbeb57e67	-0.35448
57	0xbe9f40f7	-0.31104252
58	0x3ed9e69d	0.42558756
59	0x3ed0719c	0.40711677
60	0x3ea6a517	0.3254783
61	0x3e4f609d	0.20251699
62	0x3ef2044f	0.47268912
63	0x3eb8a234	0.3606125
64	0x3ede4664	0.4341308
65	0xbe6370b8	-0.22210968
66	0xbec5a8a7	-0.38605234
67	0x3ed54006	0.41650409
68	0x3ed2d5d5	0.41178766
69	0x3ed408c7	0.41412947
70	0xbec874f7	-0.39151737
71	0x3e8e13f6	0.27749604
72	0x3ee13a88	0.43989968
73	0xbecde4b3	-0.40213546
74	0xbebf7600	-0.37394714
75	0x3efc7074	0.49304545
76	0x3ebaa4f9	0.3645399
77	0xbeb26798	-0.3484466
78	0xbe02fe0e	-0.12792227
79	0x3ec1e827	0.3787243
80	0x3f005645	0.50131637
81	0x3efa6034	0.48901522
82	0xbf0824a5	-0.53180915
83	0xbeba8c53	-0.36435184
84	0x3e49fbb1	0.19724919
85	0x3eba2e8c	0.36363637
86	0x3ea31805	0.31854263
87	0xbec0b850	-0.3764062
88	0x3ea79497	0.32730553
89	0x3eceaa42	0.4036427
90	0xbeaccd09	-0.3375018
91	0xbe5a62ba	-0.21326724
92	0x3ede4eb9	0.43419436
93	0x3eccdc74	0.40011942
94	0xbe7b0f87	-0.24517642
95	0xbe9e1eae	-0.30882782
96	0xbe49b1ad	-0.19696684
97	0x3ea52a09	0.32258633
98	0x3ebec968	0.37263036
99	0x3ecae8a0	0.39630604
100	0xbe6c587a	-0.23080626
101	0x3efc389b	0.49261937
102	0xbe8afd17	-0.27146217
103	0x3ed46ac2	0.414877
104	0xbe317c86	-0.17332658
105	0xbea1108e	-0.31457943
106	0x3eecc62d	0.46244946
107	0x3efd7e8e	0.49510616
108	0x3ec8fc0f	0.39254805
109	0x3ea4d2bd	0.3219203
110	0xbe7e77a0	-0.24850321
111	0x3e781e90	0.24230409
112	0x3e9dbde9	0.30808952
113	0x3e8b804a	0.27246314
114	0x3ea0c71a	0.31401902
115	0x3dbc4a5e	0.09193872
116	0xbec0da6a	-0.37666637
117	0xbec041a8	-0.37550092
118	0xbec28555	-0.3799235
119	0x3e141c7a	0.14463988
120	0x3ec484fa	0.38382703
121	0xbeb0093b	-0.34382042
122	0xbeb58b0e	-0.35457653
123	0x3f217454	0.6306813
124	0x3ef5f226	0.48036307
125	0x3ee2503d	0.44201842
126	0x3ef16a0c	0.4715122
127	0x3ecf46b3	0.40483627

linear3.weight f4 [64, 128]
0	0xbe83ee69	-0.2576783
1	0xbdaf1c32	-0.085503
2	0x3e2bb760	0.16769171
3	0xbc9cef15	-0.019156972
4	0x3e314de1	0.17314865
5	0x3ddf1f34	0.108946234
6	0xbd8df481	-0.06931401
7	0xbd097b63	-0.033564936
8	0xbe88965a	-0.2667721
9	0x3de36580	0.11103344
10	0x3dad3c45	0.08458761
11	0x3eb0b77e	0.34514993
12	0x3a71cc52	0.00092238665
13	0x3df54df7	0.11977761
14	0xbd713029	-0.05888382
15	0x3d9038f4	0.07042113
16	0xbeb2d6f3	-0.34929618
17	0x3d8d1e8b	0.06890591
18	0xbe126c61	-0.14299156
19	0x3e7817f3	0.24227886
20	0x3dc0b97e	0.0941038
21	0x3e3d8eb6	0.18511471
22	0xbe8cc8d2	-0.27496964
23	0x3e79be17	0.2438892
24	0xbdcdc281	-0.10046864
25	0x3df9a10a	0.12188919
26	0x3c232f57	0.009960017
27	0xbea65970	-0.3249011
28	0x3e414594	0.18874198
29	0xbe923ae5	-0.28560558
30	0x3d9e6b5c	0.07735321
31	0x3d8bce20	0.068264246
32	0x3e1b3a4f	0.15158962
33	0xbd2d6ce4	-0.042340174
34	0xbe16ff21	-0.14745761
35	0x3e0ffad3	0.14060526
36	0x3e42ca99	0.19022597
37	0xbe9b6795	-0.30352464
38	0xbe123de4	-0.14281422
39	0x3e14c266	0.14527282
40	0xbac2ff06	-0.0014877028
41	0xbe93593f	-0.28779027
42	0x3dcfb615	0.10142151
43	0x3cfea7a6	0.0310858
44	0xbe2fe26f	-0.17176221
45	0x3d47f402	0.04881669
46	0xbf03e94d	-0.51527864
47	0xbe6c286e	-0.23062298
48	0xbe85a10f	-0.2609944
49	0xbe256ecb	-0.16155545
50	0xbf9e656f	-1.2374705
51	0xbdca75f3	-0.09885778
52	0x3dff4453	0.12464204
53	0xbdb27f60	-0.08715701
54	0xbdea07d6	-0.11427276
55	0x3d215ec0	0.039397
56	0xbe7c5a11	-0.24643733
57	0xbe4e0b9c	-0.20121616
58	0x3e00b002	0.12567142
59	0x3e7d1bcc	0.24717635
60	0x3e2de445	0.16981609
61	0x3e414aa1	0.18876125
62	0x3d2c4e9d	0.04206716
63	0x3cdcbb6f	0.026944844
64	0x3e4110ef	0.18854116
65	0xbea3213c	-0.31861293
66	0xbd738e78	-0.05946204
67	0x3ddd5827	0.10807829
68	0x3dea877f	0.11451625
69	0x3e9fff1b	0.31249318
70	0xbd41cfbd	-0.047317255
71	0x3d0c2b3f	0.03422093
72	0x3dce6ae8	0.100789845
73	0xbddafc59	-0.10692663
74	0xbf196d6a	-0.5993258
75	0x3e51c76a	0.20486227
76	0x3d66bc1f	0.05633175
77	0xbb905be6	-0.0044054864
78	0xbf01f6a1	-0.5076695
79	0x3d1c7f78	0.0382075
80	0x3d960e05	0.07326893
81	0x3db3408e	0.08752547
82	0xbe11dd02	-0.14244464
83	0xbe446a15	-0.19181092
84	0x3cf59705	0.029979238
85	0x3e33c459	0.1755537
86	0x3d952a20	0.07283425
87	0xbed96b73	-0.4246479
88	0x3ce0ede7	0.02745719
89	0x3debcded	0.115138866
90	0xbe056391	-0.13026263
91	0xbe50f7f7	-0.20407091
92	0x3e2bb63b	0.16768734
93	0x3ec4834f	0.3838143
94	0xbd39c656	-0.045355164
95	0xbd0604be	-0.032719366
96	0xbe9493ff	-0.29019162
97	0x3b4c160e	0.0031141075
98	0x3d489ae7	0.04897585
99	0x3eba2f69	0.36364296
100	0xbe27c16f	-0.16382383
101	0x3d04feb3	0.032469463
102	0xbe0e653e	-0.13905808
103	0x3e49136c	0.19636315
104	0xbfb6c046	-1.4277427
105	0xbdf5637f	-0.11981868
106	0x3da7170e	0.08158694
107	0x3e5ebec2	0.21752456
108	0x3d318436	0.043338977
109	0x3e94e5e2	0.29081637
110	0xbeaab3dd	-0.3334035
111	0x3e80948f	0.2511334
112	0x3dc9326f	0.098240726
113	0xba20af19	-0.0006129607
114	0x3def8882	0.11695959
115	0x3b222a2d	0.0024744377
116	0xbeaad742	-0.33367354
117	0xbe17a784	-0.14809996
118	0xbe2f9282	-0.17145732
119	0x3cf8d2a2	0.030373875
120	0x3e255103	0.16144185
121	0xbdcc0ac6	-0.09962992
122	0xbdfb1cad	-0.12261329
123	0x3ea26c7c	0.31723392
124	0x3d8423cd	0.06452141
125	0x3d8cceba	0.068753675
126	0x3e2e20e9	0.17004742
127	0x3dd4b90c	0.103868574
128	0xbebac0b8	-0.36475158
129	0xbe0fda49	-0.14048113
130	0x3c959eba	0.018264163
131	0xbdfb9848	-0.12284905
132	0x3dfb144e	0.12259732
133	0x3d2115db	0.039327484
134	0xbe5d7114	-0.21625167
135	0xbd8b3cb7	-0.0679869
136	0xbe6d3516	-0.23164782
137	0x3d5723c0	0.05252433
138	0x3e527eac	0.20556134
139	0x3e8573ef	0.26065013
140	0x3dfdf8a0	0.12400937
141	0x3e04767f	0.12935828
142	0xbd7e40fe	-0.0620737
143	0x3e0b6c70	0.13615584
144	0xbe9a0bf8	-0.30087256
145	0x3e4b43d9	0.198501
146	0xbdbfce32	-0.093655005
147	0x3e46bda2	0.19408277
148	0x3deff594	0.11716762
149	0x3e481870	0.19540572
150	0xbe436f62	-0.19085458
151	0x3e87326b	0.26405653
152	0xbb373b26	-0.002795884
153	0x3e17304c	0.14764518
154	0xbc4e5133	-0.012592602
155	0xbe86744b	-0.262606
156	0x3e50b426	0.20381221
157	0xbe31a0aa	-0.17346445
158	0x3d461c59	0.04836688
159	0x3df6c752	0.12049736
160	0x3d1d7319	0.038439844
161	0x3d2d0f77	0.042251077
162	0xbe272c8b	-0.16325586
163	0x3e5617db	0.20907538
164	0x3e370580	0.17873192
165	0xbeb8816a	-0.36036235
166	0xbde01039	-0.10940594
167	0x3e183b86	0.14866456
168	0xbc6db031	-0.014507339
169	0xbea47bdc	-0.32125747
170	0x3d05b1ad	0.032640148
171	0xbd25008d	-0.04028373
172	0xbe3cc99f	-0.18436287
173	0x3e0153fc	0.12629694
174	0xbf0136a6	-0.5047401
175	0xbe91debf	-0.28490254
176	0xbdfdd69c	-0.12394449
177	0xbde99431	-0.114052184
178	0xbfb23a28	-1.3923998
179	0xbdc35f1e	-0.095396265
180	0xbc6358cc	-0.013876151
181	0x3cde76d2	0.027156267
182	0xbe159505	-0.14607628
183	0x3def5a7b	0.1168718
184	0xbe062a89	-0.13102163
185	0xbe290e18	-0.16509283
186	0x3c9debce	0.01927748
187	0x3e07a0fa	0.13245001
188	0x3d55191a	0.05202589
189	0x3e1d1029	0.15338196
190	0x3cd4fc88	0.025999323
191	0x3d86dd0a	0.065851286
192	0x3d25f68f	0.04051834
193	0xbe3432b7	-0.17597471
194	0xbdd1a812	-0.10237135
195	0x3cf9bffa	0.03048705
196	0x3dd80967	0.10548668
197	0x3e85fb4c	0.26168287
198	0xbde1c5c9	-0.11024053
199	0x3de182ce	0.11011277
200	0x3dfd5f94	0.12371746
201	0xbe37dd2c	-0.17955464
202	0xbf196df9	-0.5993343
203	0x3e9225a4	0.28544343
204	0x3e2dff3b	0.16991894
205	0xbc5988b6	-0.013277223
206	0xbf01ef87	-0.50756115
207	0x3d2d124b	0.042253774
208	0x3e34692a	0.17618242
209	0x3e119bb0	0.14219546
210	0xbcfba6b5	-0.03071914
211	0xbd9628e0	-0.07332015
212	0x3dd9160d	0.10599909
213	0x3dcbbfe7	0.09948712
214	0x3d154873	0.036446046
215	0xbebefae0	-0.37300777
216	0x3da84b8e	0.08217536
217	0x3e24143f	0.16023348
218	0xbda86a6a	-0.08223422
219	0xbe8f293b	-0.27961144
220	0x3d2b0add	0.041758407
221	0x3e89e3cf	0.26931617
222	0xbd85126a	-0.06497653
223	0xbdb309ea	-0.08742125
224	0xbe8f6268	-0.28004766
225	0x3c262319	0.010140204
226	0x3e1c893b	0.15286724
227	0x3ee49088	0.4464152
228	0xbcd2dba3	-0.025739497
229	0x3e0d7fc1	0.13818265
230	0xbe429782	-0.19003108
231	0x3da12ad8	0.078695
232	0xbfaa7e65	-1.3319823
233	0xbde34ceb	-0.11098655
234	0x3e22ee32	0.15911177
235	0x3e102e97	0.14080273
236	0x3e1600ef	0.14648794
237	0x3eb09f55	0.3449656
238	0xbea70585	-0.326214
239	0x3edf2b08	0.43587518
240	0x3d30ad08	0.043133765
241	0x3e244459	0.16041698
242	0x3d51420d	0.05108838
243	0x3cfd8046	0.030944955
244	0xbea1d5e4	-0.31608498
245	0xbe80a674	-0.25126994
246	0xbe0f57cc	-0.13998336
247	0x3d471e61	0.048612956
248	0x3c3310c8	0.010929294
249	0xbe1f3373	-0.1554697
250	0xbe2332c9	-0.15937342
251	0x3e65ea57	0.22452675
252	0x3d253b8b	0.040339988
253	0x3c9cee76	0.019156676
254	0x3e2f9271	0.17145707
255	0x3e33688d	0.17520352

linear3.bias f4 [64]
0	0x3f060f01	0.52366644
1	0x3efd1a6a	0.49434215
2	0xbe308e64	-0.17241818
3	0x3ee61d20	0.44944096
4	0x3edb8490	0.42874575
5	0xbebb8ed8	-0.3663242
6	0xbeb9cca3	-0.36288938
7	0x3eeb4ade	0.45955557
8	0xbe533c11	-0.20628382
9	0xbe9097e5	-0.28240886
10	0xbdc2db60	-0.09514499
11	0xbeb4b4c4	-0.35294163
12	0xbebc7521	-0.36808112
13	0xbecc9873	-0.3996006
14	0x3f003fa0	0.50097084
15	0xbed4e7f8	-0.41583228
16	0xbe340118	-0.17578542
17	0x3edc45fd	0.43022147
18	0xbe3822f6	-0.17982087
19	0xbeaceba0	-0.33773518
20	0x3eb78774	0.3584553
21	0xbe844cd1	-0.25839856
22	0x3ee6d9ea	0.4508813
23	0x3c6b8fc3	0.014377537
24	0x3f0a2553	0.539632
25	0x3ef5d394	0.48012984
26	0x3ece50b1	0.40295938
27	0x3ec86509	0.39139584
28	0xbe9a3959	-0.30121878
29	0xbe9270d9	-0.2860172
30	0x3ef78fa7	0.48351786
31	0xbe73ade6	-0.23796806
32	0xbe7c83a5	-0.24659593
33	0x3eed959b	0.46403202
34	0xbea0f98a	-0.31440383
35	0xbe8526df	-0.2600622
36	0x3f00ed5b	0.50362176
37	0x3efe6081	0.49683002
38	0xbee3f981	-0.44526294
39	0x3ee69542	0.4503575
40	0x3ee51939	0.44745806
41	0xbe7a2005	-0.24426277
42	0xbe6d85f7	-0.23195635
43	0x3ed2f0d8	0.41199374
44	0x3efabec7	0.48973677
45	0x3ec73f00	0.38915253
46	0xbe79f365	-0.24409254
47	0xbea80cd4	-0.32822287
48	0xbea8612c	-0.32886636
49	0x3ee0c63e	0.43901247
50	0x3f0159b2	0.5052749
51	0x3ee7c8e6	0.4527046
52	0xbd58f581	-0.052968506
53	0xbe880b89	-0.265713
54	0x3ecc99ff	0.3996124
55	0x3ee248d1	0.4419618
56	0xbea0076b	-0.3125566
57	0x3f06cc23	0.5265524
58	0xbeb15852	-0.34637696
59	0x3ef3a580	0.47587204
60	0x3edcdb4c	0.4313606
61	0x3ebf6590	0.37382174
62	0xbeaa4684	-0.33256924
63	0x3f00cab1	0.5030928

output.weight f4 [1, 64]
0	0x3e9f20ae	0.3107962
1	0x3eb6f179	0.35731104
2	0xbe1198f2	-0.142185
3	0x3e52ea2e	0.20597145
4	0x3eb05c63	0.34445485
5	0xbe29ccf4	-0.1658209
6	0xbe6dd759	-0.2322668
7	0x3e9b1dad	0.30296078
8	0xbe9cee08	-0.30650353
9	0xbe45f34c	-0.19331092
10	0xbfb28d08	-1.3949289
11	0xbe7ad1ea	-0.24494138
12	0xbe37a415	-0.17933686
13	0xbe2e39b1	-0.17014195
14	0x3eae1b8d	0.34005395
15	0xbe994161	-0.29932693
16	0xbe582abd	-0.21110053
17	0x3e944474	0.28958476
18	0xbe98f8b1	-0.29877236
19	0xbe5148e4	-0.20437962
20	0x3f057268	0.52127695
21	0xbe817cda	-0.25290567
22	0x3ec0b6b0	0.3763938
23	0xbfc562ac	-1.5420737
24	0x3eb354b8	0.35025573
25	0x3eaef30b	0.34169802
26	0x3e8114a8	0.25211072
27	0x3e8c746a	0.27432567
28	0xbe511c96	-0.20421061
29	0xbe4ff268	-0.20307314
30	0x3e96dd63	0.2946578
31	0xbe617821	-0.22018482
32	0xbe849d90	-0.2590146
33	0x3eb97deb	0.3622888
34	0xbe51273f	-0.20425127
35	0xbe397a15	-0.18112977
36	0x3e99484d	0.29937974
37	0x3e90bc7c	0.28268802
38	0xbe549fd1	-0.2076409
39	0x3f1307e6	0.5743393
40	0x3e84f735	0.25969854
41	0xbe53e4f1	-0.20692803
42	0xbe44a22b	-0.19202487
43	0x3eb9d7dd	0.36297503
44	0x3f0056f3	0.50132674
45	0x3ee9683b	0.45587334
46	0xbeb88e9f	-0.3604631
47	0xbe822f53	-0.2542673
48	0xbe7080a7	-0.23486577
49	0x3ea7f337	0.32802746
50	0x3eafe2e4	0.3435279
51	0x3e9af57b	0.30265412
52	0xbf6efff0	-0.9335928
53	0xbe762ca1	-0.24040462
54	0x3ee7296e	0.45148796
55	0x3ea300e4	0.31836617
56	0xbe39abab	-0.18131892
57	0x3eabc0e1	0.33545592
58	0xbe63978a	-0.22225776
59	0x3e668032	0.2250984
60	0x3e940c7e	0.2891578
61	0x3eaf9a47	0.34297392
62	0xbe5ecb19	-0.21757163
63	0x3e9a8b43	0.30184373
