Data/Player1/Model-test7.pth (torch, 53872 bytes, 5 tensors)

linear1.weight f4 [128, 34]
0.014721078 0.012356574 0.08588858 0.21187711 0.015854944 0.07258133 -0.053923845 -0.23068534
0.1857037 -0.05513792 -0.12383549 0.021784384 -0.16021934 -0.101031 0.11125667 0.30411512
0.26701793 0.078111626 0.11530999 -0.024538256 0.050010666 0.14124407 0.13331282 0.13852866
-0.14706254 0.1492226 0.098711826 0.12739022 -0.018321397 -0.20120277 0.059662234 -0.017114406
-0.07838369 -0.31951025 -0.21070753 0.06275829 0.053163923 0.06643438 0.098884664 0.02402593
0.2502668 -0.035825133 0.21581347 0.15728211 0.06695762 0.15770847 -0.104562 -0.22537968
-0.19024111 -0.2473774 -0.050960883 -0.078581035 0.13589944 0.069217674 -0.047120947 0.1282033
-0.09952037 0.021418942 -0.08681434 -0.032837313 0.35984033 0.002073603 -0.04987688 -0.29532585
-0.07681425 0.061785065 0.148456 0.114855364 0.3124233 -0.0696664 -0.39730674 0.11122946
-0.13799462 -0.051562797 0.07224507 0.013487437 0.046917688 -0.1318407 -0.30955553 -0.09727389
0.08138553 0.01937332 0.38098174 0.14721854 -0.04781402 -0.082230374 0.06881199 0.04973686
0.0071415408 0.02804638 0.061724644 -0.027916076 -0.031957153 -0.03447151 0.18440814 -0.27757376
0.2634781 0.106465355 0.06898955 -0.06569383 -0.025322126 0.004187736 0.0017735095 0.19587065
-0.18499008 0.010977966 0.02960684 -0.05925225 0.07400812 -0.1196379 0.107099794 0.17048132
0.2067637 -0.057969004 0.10632936 0.10474796 -0.39316556 0.12959115 -0.05552713 0.42972717
-0.11207233 -0.121042185 0.068302244 -0.07369033 0.019192638 -0.06114779 0.20089628 0.051699582
-0.2570161 -0.104385585 -0.1300424 -0.03481886 0.012637767 -0.022679146 -0.08089062 0.14109643
-0.1184794 0.0870146 0.0065014837 0.18770571 -0.08097348 0.27418244 0.14638123 -0.17881237
0.11764761 0.23761599 -0.14460494 0.035395168 -0.24440758 0.004086951 -0.13536976 -0.15063003
0.20721008 -0.10608117 0.09783443 0.14504343 0.1619242 -0.044144433 -0.08618826 0.06857675
0.025360933 0.023229035 0.22540003 -0.13177367 0.07472874 -0.13738282 -0.07090241 -0.017297518
-0.028249042 0.16932996 -0.19074944 -0.12788333 -0.13565524 -0.06553304 0.2595114 -0.051421795
0.05579687 -0.047084317 0.2680413 -0.12740295 -0.084258586 0.27939808 -0.1383861 -0.04772127
0.10713325 0.14086439 0.34046146 0.19800922 0.14731792 0.22357818 0.15942693 0.2021122
0.07720726 0.1490994 0.16061136 0.12900744 0.088134624 0.20799926 -0.011856368 0.092732444
-0.23621313 -0.4116113 -0.044909358 0.05461987 -0.1277603 -0.13424036 -0.12506266 -0.14599155
-0.12136494 -0.22764556 -0.046680566 -0.10849678 -0.010553884 -0.06871789 0.024916021 0.07296681
-0.12593608 -0.105996616 -0.084171325 -0.09114505 -0.054924842 -0.100133404 -0.08030107 -0.05205597
0.07939938 0.225047 -0.040713895 -0.06626755 0.043806728 0.21360824 -0.007909337 0.0108149545
0.16941388 0.18695782 0.015227439 -0.03395832 -0.08916246 -0.040331956 -0.028839787 -0.11707255
0.1351539 -0.07816784 -0.012859554 0.058556456 -0.04990147 0.14599653 0.037510507 -0.06500922
0.27579114 0.060293566 -0.26561055 -0.2214129 0.10762947 0.03966012 -0.1301492 -0.08233946
00000000: ad30 713c 3a73 4a3c 5ae6 af3d 50f6 583e
00000010: 3ae2 813c 85a5 943d 40df 5cbd c738 6cbe
00000020: 1c29 3e3e 4dd8 61bd 769d fdbd 2a75 b23c
00000030: 8a10 24be 57e9 cebd 89da e33d fab4 9b3e
00000040: 93b6 883e fdf8 9f3d a527 ec3d 7404 c9bc
00000050: fcd7 4c3d 49a2 103e 2883 083e 75da 0d3e
00000060: 9097 16be cfcd 183e 6d29 ca3d 9572 023e
00000070: c116 96bc 1908 4ebe 6360 743d 8333 8cbc
00000080: a187 a0bd d996 a3be b7c3 57be 6b87 803d
00000090: 6ac2 593d c00e 883d 0b84 ca3d 07d2 c43c
000000a0: f822 803e 60bd 12bd 35fe 5c3e 900e 213e
000000b0: 1421 893d 547e 213e 9a24 d6bd eec9 66be
000000c0: 91ce 42be 8050 7dbe 5cbc 50bd 18ef a0bd
000000d0: 3929 0b3e ffc1 8d3d e501 41bd ba47 033e
000000e0: 56d1 cbbd c776 af3c b7cb b1bd 6b80 06bd
000000f0: fe3c b83e 49e5 073b b34b 4cbd f334 97be
00000100: ca50 9dbd 5612 7d3d da04 183e 4a39 eb3d
00000110: f2f5 9f3e 42ad 8ebd ca6b cbbe 45cc e33d
00000120: 764e 0dbe 8333 53bd 39f5 933d 69fa 5c3c
00000130: c32c 403d 4001 07be 107e 9ebe 8937 c7bd
00000140: 75ad a63d ccb4 9e3c 0a10 c33e 75c0 163e
00000150: a2d8 43bd 6668 a8bd 4ded 8c3d e1b8 4b3d
00000160: 9603 ea3b 86c1 e53c fbd2 7c3d 41b0 e4bc
00000170: 81e5 02bd 0032 0dbd 7dd5 3c3e 261e 8ebe
00000180: 9ae6 863e 820a da3d 654a 8d3d 7d8a 86bd
00000190: 5970 cfbc 4739 893b 1b75 e83a 5192 483e
000001a0: 0a6e 3dbe eddc 333c 0b8a f23c 7db2 72bd
000001b0: 9291 973d b704 f5bd 2357 db3d a892 2e3e
000001c0: ddb9 533e e870 6dbd 35c3 d93d 1986 d63d
000001d0: ff4c c9be 8bb3 043e 6a70 63bd 3305 dc3e
000001e0: 2e86 e5bd f7e4 f7bd 0ce2 8b3d f5ea 96bd
000001f0: e139 9d3c 1b76 7abd c1b7 4d3e f1c2 533d
00000200: 9d97 83be 1cc8 d5bd d629 05be 399e 0ebd
00000210: a30e 4f3c 9ec9 b9bc fba9 a5bd 957b 103e
00000220: 54a5 f2bd b634 b23d 660a d53b ed35 403e
00000230: 6dd5 a5bd a461 8c3e f6e4 153e 971a 37be
00000240: 3bf1 f03d 9b51 733e 5113 14be 86fa 103d
00000250: fb45 7abe d4eb 853b 5f9e 0abe c23e 1abe
00000260: e12e 543e 1641 d9bd 6b5d c83d 4486 143e
00000270: 75cf 253e cbd0 34bd 7883 b0bd f871 8c3d
00000280: bbc1 cf3c d14a be3c 44cf 663e adef 06be
00000290: 620b 993d 15ae 0cbe 4835 91bd 86b3 8dbc
000002a0: 896a e7bc d564 2d3e d253 43be d9f3 02be
000002b0: 35e9 0abe 3036 86bd aede 843e a99f 52bd
000002c0: 428b 643d 7cdb 40bd b63c 893e eb75 02be
000002d0: c48f acbd 440d 8f3e 16b5 0dbe 6177 43bd
000002e0: ad68 db3d c13e 103e f750 ae3e eec2 4a3e
000002f0: 82da 163e aef1 643e d040 233e 80f6 4e3e
00000300: d71e 9e3d 83ad 183e 4e77 243e 871a 043e
00000310: ed7f b43d c2fd 543e 3641 42bc 82ea bd3d
00000320: dbe1 71be b7be d2be e0f2 37bd 16b9 5f3d
00000330: 99d3 02be 4e76 09be 6d10 00be cf7e 15be
00000340: 2f8e f8bd eb1b 69be 1f34 3fbd 8f33 debd
00000350: 33ea 2cbc f7bb 8cbd af1c cc3c 9f6f 953d
00000360: 63f5 00be c114 d9bd 0462 acbd 42aa babd
00000370: dff8 60bd be12 cdbd e374 a4bd a438 55bd
00000380: 249c a23d b972 663e 9dc3 26bd 48b7 87bd
00000390: af6e 333d 1ebc 5a3e 2a96 01bc 3531 313c
000003a0: d57a 2d3e df71 3f3e 827c 793c e117 0bbd
000003b0: cf9a b6bd 1f33 25bd 6b41 ecbc bcc3 efbd
000003c0: c965 0a3e 7616 a0bd e1b0 52bc e5d8 6f3d
000003d0: 7c65 4cbd 1d80 153e 9ea4 193d 8e23 85bd
000003e0: 7f34 8d3e 63f6 763d 1bfe 87be 10ba 62be
000003f0: d76c dc3d a672 223d d545 05be 97a1 a8bd

linear1.bias f4 [128]
0.4350154 0.45476273 0.44814372 0.09091715 0.3053429 0.6875282 -0.08138551 0.4112779
0.37371337 0.3418027 0.40140226 0.28949496 -0.29499477 0.5172016 0.23679885 0.4998431
-0.14619364 -0.27341467 0.44313997 0.4601648 0.21311668 0.37138626 -0.25284812 0.35515687
-0.20245233 0.3008579 0.26047462 -0.02781473 0.38163865 -0.2905593 0.3885669 0.2778889
0.38967523 -0.26560277 0.31574374 0.29266497 -0.31050906 -0.0075231805 0.44112045 -0.029020127
0.32442132 -0.16938183 0.75393677 0.44904372 -0.35412613 -0.1814782 -0.021025427 0.21130303
0.4819615 -0.20292869 0.5285799 0.1417594 0.09807194 0.40613016 0.17477423 0.6371765
0.6470924 0.33285248 0.45201004 0.40229872 0.5293292 0.4503493 0.5046153 0.41567624
0.4341158 0.4427861 0.45103604 0.21602775 0.38004756 0.41169062 0.41086257 0.39228523
0.22053467 -0.30527982 0.2335482 0.14091407 0.323393 0.43945956 0.2942794 0.2361506
-0.237179 0.30680898 -0.13559942 -0.08058843 0.16880673 0.4154774 -0.0020387606 0.068419285
0.100600585 0.19586045 -0.34221005 0.047958363 -0.027098589 -0.19417487 0.4492912 0.33396444
-0.3578322 0.22605337 0.46338665 -0.24458884 -0.08922642 0.6040063 -0.06611992 0.645851
0.3410482 0.0056586415 0.0380434 0.60418373 -0.0060074427 0.4773686 0.40934467 -0.3935353
0.3168123 -0.29856786 0.33079168 0.2762101 -0.2011549 -0.18415464 -0.12729305 0.48621088
0.13220152 -0.22213255 -0.34990978 0.294809 0.1954438 0.29196227 -0.11550505 0.25402462
00000000: 57ba de3e a9d6 e83e 1873 e53e c532 ba3d
00000010: e855 9c3e d901 303f 72ad a6bd 0493 d23e
00000020: 5c57 bf3e c300 af3e 9984 cd3e af38 943e
00000030: 8e09 97be 5367 043f 667b 723e 6feb ff3e
00000040: c9b3 15be 02fd 8bbe 3ee3 e23e b89a eb3e
00000050: 423b 5a3e 5726 be3e 4f75 81be 1fd7 b53e
00000060: aa4f 4fbe 0c0a 9a3e ee5c 853e b7db e3bc
00000070: 2466 c33e 30c4 94be 3ef2 c63e 7447 8e3e
00000080: 8383 c73e 16fd 87be 2aa9 a13e 2fd8 953e
00000090: 0bfb 9ebe 0385 f6bb 8ada e13e 9ebb edbc
000000a0: 8d1a a63e 6e72 2dbe 0002 413f 0fe9 e53e
000000b0: 0550 b5be 6cd5 39be 843d acbc d25f 583e
000000c0: a8c3 f63e 8acc 4fbe 0351 073f 6029 113e
000000d0: f1d9 c83d 4bf0 cf3e 04f8 323e 001e 233f
000000e0: d9a7 253f a46b aa3e dc6d e73e 19fa cd3e
000000f0: 1e82 073f 2f94 e63e 782e 013f 84d3 d43e
00000100: 6d44 de3e dcb4 e23e 32ee e63e 6136 5d3e
00000110: 9895 c23e 1dc9 d23e 945c d23e 9cd9 c83e
00000120: d7d3 613e a34d 9cbe 4227 6f3e c74b 103e
00000130: c493 a53e d800 e13e caab 963e 76d1 713e
00000140: 0ddf 72be 1116 9d3e 93da 0abe 8c0b a5bd
00000150: acdb 2c3e 74b9 d43e ba9c 05bb 691f 8c3d
00000160: ae07 ce3d a48f 483e 2836 afbe fd6f 443d
00000170: dcfd ddbc c7d5 46be 7f09 e63e 63fd aa3e
00000180: c835 b7be 897a 673e 0441 ed3e 7f75 7abe
00000190: 57bc b6bd 28a0 1a3f e169 87bd 7e56 253f
000001a0: df9d ae3e 206c b93b 65d3 1b3d c9ab 1a3f
000001b0: 15da c4bb a869 f43e a095 d13e 757d c9be
000001c0: 3935 a23e e3dd 98be 875d a93e 696b 8d3e
000001d0: 8dfb 4dbe 0993 3cbe 1c59 02be a2f0 f83e
000001e0: d65f 073e b776 63be 6027 b3be 35f1 963e
000001f0: 6b22 483e 147c 953e e98d ecbd 840f 823e

linear2.weight f4 [64, 128]
0.13920672 0.10921686 0.2657012 -0.0074356543 0.12113234 0.20397967 -0.042613935 0.060612652
0.1893527 0.14809975 -0.044881187 0.055283427 -0.11201031 -0.0056774355 0.1883662 0.17445686
0.08550374 -0.26479682 0.079509385 0.15264238 0.097019464 0.036202155 0.036357056 0.12700154
-0.0768643 0.07736693 0.2470903 0.061386395 0.0012306817 0.010782948 0.1604678 0.16984926
0.26178887 -0.21446052 0.026052825 0.33324358 -0.040434107 0.018165872 0.5267083 -0.41781566
0.26593587 -0.014031229 -0.02204752 0.18063417 -0.066371374 -0.035837352 0.14944196 -0.0035260636
0.109221965 0.099453606 0.22767697 0.09557345 0.080199935 0.15184426 0.11900895 0.114521295
0.11916936 0.14317314 0.11238559 0.24570277 0.36430332 0.1429298 0.16527617 0.071790524
0.026242325 0.23288132 0.14119487 0.30416352 0.28170455 0.28371355 0.05111673 0.11633326
0.17142458 -0.1142512 0.12342277 0.19073811 0.15708402 0.1738676 0.23819374 0.0072605642
-0.009403835 0.22823443 -0.02583073 -0.15674649 0.21559961 0.2642287 -0.16907139 0.002730139
0.3659394 0.025558801 -0.059987143 0.07386251 -0.056783736 -0.027787894 0.09223417 0.28361008
-0.0062072002 0.08157702 0.082710676 0.064549506 -0.22351097 0.14379506 -0.06140012 0.09910372
0.19329134 -0.06325905 -0.11213946 0.45920718 0.010371628 0.029956903 0.22795929 -0.07537733
0.19861564 -0.07519586 0.12497677 0.13960737 0.02002858 -0.022191377 -0.10833519 0.17081493
0.20702745 -0.09170725 -0.11948851 0.07060461 0.09001451 0.057855852 -0.0093696555 0.13353164
0.17540169 0.14549993 0.269134 0.0072914115 0.11691816 0.07719926 0.06450367 -0.033871826
0.19059019 -0.008568105 -0.0279563 0.17339027 -0.063439 0.14177881 0.2304674 0.04870208
0.063960984 -0.15830046 0.19751795 0.18885043 0.025835145 0.101572245 -0.008921982 0.16884595
0.04678592 0.013763807 0.1646289 -0.047821153 0.05954381 0.055760175 0.061121404 0.038772322
0.19750996 -0.24692763 0.114106774 0.28644663 -0.17234114 0.067193694 0.4480933 -0.42949265
0.24755214 -0.024236131 0.120414235 0.19455245 -0.03729225 -0.027595224 0.0616777 0.097224295
0.2066819 0.10118402 0.18505508 0.13737041 0.22211023 0.12029126 0.05702815 0.05596328
0.11999021 0.13361529 -0.0042959005 0.24857254 0.3374556 0.055530738 0.16455972 0.11153974
0.055180248 0.18540733 0.13286406 0.20775934 0.41044718 0.23527603 0.1318748 0.056332424
0.18302797 -0.08093974 0.063687064 0.096899435 0.10142599 0.11659315 0.17999288 0.051548418
0.00046681508 0.10583174 -0.11081633 -0.14690441 0.19797546 0.30048954 -0.20524886 0.06423172
0.30339536 0.0724864 -0.082886524 0.15382819 -0.09232205 -0.08456976 0.053284887 0.1534784
0.013113275 0.014509317 0.015467505 0.048330914 -0.17544916 0.09669554 -0.028471762 0.14807004
0.18100487 -0.1304851 -0.020645643 0.4018862 0.05336684 0.15140474 0.18118978 -0.09779857
0.15331286 -0.10687147 0.17121808 0.19851759 0.061710488 0.019429857 -0.117065266 0.25169683
0.23493023 -0.11483215 -0.05224702 0.05059721 0.16170712 0.101661414 -0.0119103575 0.011017639
00000000: 358c 0e3e 17ad df3d fd09 883e caa6 f3bb
00000010: 3b14 f83d 0ce0 503e f38b 2ebd f944 783d
00000020: ade5 413e 76a7 173e 56d5 37bd e070 623d
00000030: a965 e5bd c809 babb 12e3 403e d2a4 323e
00000040: 961c af3d 7393 87be d1d5 a23d 494e 1c3e
00000050: 24b2 c63d b648 143d 23eb 143d b10c 023e
00000060: 086b 9dbd 8e72 9e3d 3d05 7d3e 4d70 7b3d
00000070: d34e a13a f6aa 303c ac51 243e f7ec 2d3e
00000080: 3109 863e 8a9b 5bbe bc6c d53c e79e aa3e
00000090: 3c9e 25bd 98d0 943c 5bd6 063f efeb d5be
000000a0: bf28 883e 3de3 65bc 009d b4bc 2af8 383e
000000b0: b7ed 87bd 30ca 12bd 5007 193e 8815 67bb
000000c0: c4af df3d 55ae cb3d 2724 693e 03bc c33d
000000d0: dd3f a43d 107d 1b3e f7ba f33d 248a ea3d
000000e0: 110f f43d fb9b 123e 6b2a e63d 8299 7b3e
000000f0: f785 ba3e 315c 123e 283e 293e e906 933d
00000100: 25fa d63c 7178 6e3e 6395 103e 52bb 9b3e
00000110: 943b 903e e742 913e c75f 513d 2240 ee3d
00000120: ed89 2f3e 88fc e9bd 14c5 fc3d da50 433e
00000130: a2da 203e 590a 323e 0fe9 733e 07ea ed3b
00000140: 8b12 1abc 49b6 693e f89a d3bc 2782 20be
00000150: 25c6 5c3e fc48 873e 0d21 2dbe 22ec 323b
00000160: 695c bb3e b160 d13c 14b5 75bd 3a45 973d
00000170: 1096 68bd 70a3 e3bc 45e5 bc3d 5735 913e
00000180: c565 cbbb da11 a73d 3764 a93d 8832 843d
00000190: 0fe0 64be 033f 133e b17e 7bbd e4f6 ca3d
000001a0: 2aee 453e f68d 81bd 60a9 e5bd 341d eb3e
000001b0: c3ed 293c 2e68 f53c 296e 693e 6e5f 9abd
000001c0: e661 4b3e 4900 9abd d2f3 ff3d 3cf5 0e3e
000001d0: fa12 a43c b1ca b5bc d7de ddbd 1cea 2e3e
000001e0: 01ff 533e 03d1 bbbd 64b6 f4bd 2699 903d
000001f0: 8759 b83d 42fa 6c3d 2f83 19bc 85bc 083e
00000200: 809c 333e effd 143e efcb 893e cbec ee3b
00000210: ca72 ef3d a51a 9e3d 801a 843d 2fbd 0abd
00000220: 132a 433e 3d61 0cbc 9c04 e5bc 388d 313e
00000230: 4eec 81bd 772e 113e a5ff 6b3e d57b 473d
00000240: fafd 823d 8419 22be 2542 4a3e 0262 413e
00000250: 3aa4 d33c 1c05 d03d 812d 12bc f4e5 2c3e
00000260: 98a2 3f3d 9781 613c 7a94 283e 1de0 43bd
00000270: 36e4 733d c864 643d 705a 7a3d bacf 1e3d
00000280: 0d40 4a3e 99da 7cbe d0b0 e93d 22a9 923e
00000290: 327a 30be d99c 893d 7c6c e53e 76e6 dbbe
000002a0: 4f7e 7d3e da8a c6bc bd9b f63d c238 473e
000002b0: c2bf 18bd 610f e2bc c2a1 7c3d 881d c73d
000002c0: 6ca4 533e 9139 cf3d 147f 3d3e d4aa 0c3e
000002d0: dd70 633e 445b f63d 5996 693d c139 653d
000002e0: 6dbd f53d 72d2 083e a0c4 8cbb cd89 7e3e
000002f0: fbc6 ac3e 3374 633d 5882 283e f26e e43d
00000300: af04 623d 6bdb 3d3e 840d 083e ddbe 543e
00000310: 2226 d23e 33ec 703e 300a 073e d4bc 663d
00000320: af6b 3b3e bcc3 a5bd 5d6e 823d 3673 c63d
00000330: 6eb8 cf3d 64c8 ee3d 0e50 383e 6f24 533d
00000340: dcbe f439 50be d83d acf3 e2bd 1c6e 16be
00000350: 14ba 4a3e c4d9 993e c22c 52be ec8b 833d
00000360: a356 9b3e c073 943d 69c0 a9bd 2385 1d3e
00000370: 5813 bdbd e932 adbd 4141 5a3d 7129 1d3e
00000380: 10d9 563c 7db8 6d3c 6b6b 7d3c a3f6 453d
00000390: f2a8 33be 5008 c63d 9d3d e9bc ac9f 173e
000003a0: 5759 393e e39d 05be 0d21 a9bc 07c4 cd3e
000003b0: 3097 5a3d d809 1b3e d089 393e 9e4a c8bd
000003c0: 0cfe 1c3e 6edf dabd cb53 2f3e 3248 4b3e
000003d0: 23c4 7c3d 5d2b 9f3c eabf efbd 68de 803e
000003e0: 8d91 703e 1e2d ebbd f900 56bd 053f 4f3d
000003f0: 8d96 253e dc33 d03d a923 43bc 5483 343c

linear2.bias f4 [64]
0.430588 0.30848593 0.35527 -0.21783467 0.4497301 0.2848613 0.29719236 0.34684604
-0.1767494 -0.20593756 -0.15338361 -0.21069603 -0.22283384 0.38318497 0.29154015 0.35219443
0.3043007 -0.26037914 -0.22846504 0.37056962 0.43718687 0.36648318 -0.17187105 0.30599108
-0.15521006 -0.3036617 0.42245093 0.4068022 0.2776743 0.32496578 0.29102635 -0.26477692
0.30432087 -0.14878881 0.4509318 -0.28297737 0.3344101 0.38087475 0.42264453 -0.28497958
-0.11660629 -0.23578848 -0.29572228 0.4204542 -0.22619054 -0.152489 0.36234617 -0.24380098
0.30648053 0.354363 0.44970912 -0.1884411 -0.10036951 0.30536804 -0.29841968 -0.16370866
-0.31926247 -0.31873712 -0.19843237 -0.260807 -0.2741516 -0.23199491 -0.25227123 -0.1722855
00000000: 0876 dc3e def1 9d3e f3e5 b53e 0d10 5fbe
00000010: 0643 e63e 57d9 913e 9929 983e ce95 b13e
00000020: cbfd 34be 4ce1 52be 9810 1dbe b3c0 57be
00000030: 8e2e 64be d230 c43e c044 953e d452 b43e
00000040: 4dcd 9b3e 6a50 85be bdf2 69be 4dbb bd3e
00000050: f5d6 df3e afa3 bb3e f7fe 2fbe ddaa 9c3e
00000060: 63ef 1ebe 8c79 9bbe 7d4b d83e 6148 d03e
00000070: 532b 8e3e ea61 a63e 6801 953e d790 87be
00000080: f2cf 9b3e 185c 18be 88e0 e63e 69e2 90be
00000090: cd37 ab3e 0402 c33e dd64 d83e d8e8 91be
000000a0: 47cf eebd 8972 71be e968 97be c645 d73e
000000b0: 7e9e 67be 1426 1cbe 7085 b93e f7a6 79be
000000c0: 04eb 9c3e 116f b53e 4640 e63e b4f6 40be
000000d0: 888e cdbd 3359 9c3e 77ca 98be 3ea3 27be
000000e0: 5f76 a3be 8331 a3be db31 4bbe 7f88 85be
000000f0: 995d 8cbe 1390 6dbe b229 81be 9c6b 30be

output.weight f4 [1, 64]
0.21770307 0.18863335 0.25932276 -0.2925601 0.23686221 0.22444333 0.23534359 0.23708396
-0.2789257 -0.3743294 -0.3711881 -0.42085326 -0.3744063 0.2580334 0.19409244 0.17316182
0.26733583 -0.33909085 -0.16205937 0.26924708 0.2288995 0.15490966 -0.3352757 0.3808949
-0.2898448 -0.3972674 0.27575657 0.15335281 0.26922023 0.33373505 0.2635345 -0.40317115
0.24965212 -0.3444773 0.18486635 -0.28106493 0.18511064 0.26377892 0.22266577 -0.2810915
-0.28830343 -0.32767484 -0.41674185 0.22625634 -0.39358768 -0.22380564 0.18466459 -0.2953248
0.36045986 0.4026336 0.29620093 -0.29714093 -0.3213503 0.2852852 -0.24512185 -0.26008847
-0.13034217 -0.16186118 -0.19312528 -0.26372877 -0.4086211 -0.33152 -0.3359891 -0.25561643
00000000: 8eed 5e3e 1a29 413e f4c5 843e 70ca 95be
00000010: 028c 723e 79d4 653e e9fd 703e 23c6 723e
00000020: 59cf 8ebe 1aa8 bfbe 5e0c bebe 147a d7be
00000030: 2fb2 bfbe f41c 843e 2bc0 463e 5551 313e
00000040: 3ee0 883e 519d adbe e4f2 25be c1da 893e
00000050: a164 6a3e a3a0 1e3e 42a9 abbe a804 c33e
00000060: 8a66 94be a266 cbbe f72f 8d3e 8508 1d3e
00000070: 3cd7 893e 52df aa3e feed 863e 736c cebe
00000080: cea4 7f3e 545f b0be 9b4d 3d3e bee7 8fbe
00000090: a58d 3d3e 080e 873e 7f02 643e 3aeb 8fbe
000000a0: 829c 93be ffc4 a7be 305f d5be beaf 673e
000000b0: 5384 c9be 4e2d 65be b718 3d3e d034 97be
000000c0: 328e b83e fe25 ce3e a6a7 973e db22 98be
000000d0: 0788 a4be e710 923e 3901 7bbe 512a 85be
000000e0: 6b78 05be f0be 25be a2c2 45be 7507 87be
000000f0: c936 d1be fdbc a9be c306 acbe 28e0 82be
