Data/Player1/Model-rndTest14.pth (torch, 120480 bytes, 7 tensors)

linear1.weight f4 [128, 34]
000000 4f d3 44 be a7 b0 f2 3d 47 b8 87 be 9a 13 66 be
       -0.19221233 0.118501 -0.2650778 -0.22468415
000010 9c f8 17 be 33 5d a2 bd ea b5 d2 3c 5a 9c 03 bc
       -0.1484093 -0.079279326 0.025721509 -0.008032883
000020 2a 7f 99 bd f3 6a 83 3e bb 45 23 3e 82 9a 9b 3d
       -0.07494958 0.25667533 0.15944569 0.075978294
000030 e9 81 bd 3c e9 20 8c bd e6 79 05 be 3b 89 60 bb
       0.023133235 -0.068422146 -0.13034782 -0.0034261483
000040 40 0c a7 bc 22 ee 81 bd 80 39 88 be 7c da 9f be
       -0.020391583 -0.06344248 -0.2660637 -0.31221378
000050 3c 51 c0 be 07 45 14 bf b0 0f d3 bd 33 b9 0a be
       -0.37561977 -0.5791783 -0.103057265 -0.1354721
000060 fe 20 b4 bd 0a 41 6c 3d 3d 2d 9a be 30 dc 35 3e
       -0.08795355 0.057679214 -0.3011264 0.17759776
000070 2b 69 b6 3e a0 4e 3a bd 32 77 0a 3e 43 29 2e 3b
       0.35627112 -0.04548514 0.13522032 0.0026574887
000080 53 cc db bc e6 f0 6b 3d d5 89 2d 3e cf 8d 99 3c
       -0.026830828 0.057602786 0.1694711 0.018744377
000090 b0 25 ae 3e ec 50 f6 3c d4 37 2f 3d 41 75 36 be
       0.34013128 0.030067883 0.04277785 -0.17818166
0000a0 78 74 aa 3e cd c0 52 bd 7d 18 af be 06 6a 1c be
       0.33291984 -0.0514534 -0.3419837 -0.1527482
0000b0 b8 ac 5d be fd d6 19 3e a9 57 0c be 2b f0 24 be
       -0.21647918 0.15023418 -0.13705315 -0.16107242
0000c0 74 f8 6e bd 09 2d 85 bb 17 6e 98 3e 88 4c 8b 3c
       -0.058342412 -0.0040642065 0.29771492 0.017004266
0000d0 84 e6 2c bc dd 1d 8d 3e 03 ef fc bd 4b 10 f1 be
       -0.010553006 0.27561846 -0.12350275 -0.47082743
0000e0 2e e9 61 3d 54 c5 5f 3e 21 0d 33 bd 85 bd 21 3e
       0.055154018 0.21852618 -0.043713693 0.15794952
0000f0 b7 aa 6a be 3d 43 34 3d 24 f3 62 3d e1 73 9c be
       -0.22916685 0.044009436 0.05540766 -0.3055716
000100 02 08 09 bd 4e 91 44 3d e3 65 22 3d d2 71 63 be
       -0.033454902 0.047990136 0.039647948 -0.22211388
000110 95 91 ce 3c 6a c6 28 be 88 b1 e5 3d 81 46 4e 3e
       0.025215903 -0.16481939 0.11215502 0.20144083
000120 11 c8 26 3c 7c 28 48 be ad 58 0c 3e 6e 27 8b be
       0.0101795355 -0.19546694 0.13705702 -0.2717852
000130 52 46 46 be 43 fc 72 3d f5 10 17 3e d3 06 b8 3e
       -0.19362763 0.059322607 0.14752562 0.35942706
000140 47 64 06 3d a2 26 21 be 0c fe f6 3d 56 0d 6e 3c
       0.032810476 -0.15737393 0.12060174 0.014529547
000150 54 b2 16 bd 3b d3 48 bd c0 c6 a6 bd 7b 76 4a 3e
       -0.03679116 -0.04902957 -0.08143377 0.19771759
000160 15 65 77 3c cd 44 65 3e 00 b5 ce bc b2 0b 21 3e
       0.015099783 0.22389527 -0.025232792 0.15727118
000170 06 4c 71 3d 22 7c 71 3d 13 12 b2 bd bd 7b 9e 3e
       0.058910392 0.058956273 -0.08694854 0.3095378
000180 88 1d 15 bf 8e 4b 8a be e4 81 62 bd 8f 24 4c 3c
       -0.58248186 -0.2701077 -0.055299655 0.012459888
000190 b1 e7 6b 3c 53 f4 a6 bc 61 40 0c 3e 30 0a b7 bb
       0.014398501 -0.020380175 0.13696434 -0.0055859312
0001a0 23 82 e8 3d dd f1 8d be 88 43 8a be 70 e5 a9 be
       0.113529466 -0.2772359 -0.27004647 -0.3318286
0001b0 c9 f0 c8 3e 23 a2 c8 bd 18 1c 01 be df c5 44 bd
       0.39246204 -0.0979655 -0.12608373 -0.048040267
0001c0 39 11 02 bf ef 27 53 bc 9f 47 d4 3e d9 df 7b 3e
       -0.5080753 -0.012887939 0.41460893 0.2459711
0001d0 05 63 6a 3e 1d 96 59 be ff b6 9a bd dd 61 9f bd
       0.22889335 -0.2124867 -0.07554435 -0.07782338
0001e0 41 af 09 3e dd 33 3d bd d5 4f 22 be f4 6d 9f 3c
       0.1344576 -0.04619204 -0.15850766 0.01946161
0001f0 bf 36 12 bd d8 10 eb 3c 62 2c f1 3d 9c d4 34 bd
       -0.03569674 0.028694555 0.117760435 -0.044148073
000200 8c 05 3a 3f ed 9d 8b 3e e8 af a3 be 17 29 12 3e
       0.72664714 0.27268925 -0.31970143 0.14273487
000210 e4 6b b4 3d d6 99 25 bd ca 2e 04 3e 03 6a ab be
       0.08809641 -0.040429913 0.12908474 -0.33479318
000220 bf e2 b9 3d 97 e4 d1 3d 44 60 8b be 28 0f 33 be
       0.090764515 0.10248678 -0.27221882 -0.1748625
000230 b0 19 5d 3d 94 c8 8f be f6 bc 7f be c7 d9 87 be
       0.053979576 -0.28082716 -0.24974427 -0.26533338
000240 9a ff 8a be 9e fe 2c be ce c3 a6 be 19 ea 05 be
       -0.27148134 -0.16894004 -0.32571262 -0.13077582
000250 64 9e 0d be 06 af 9e 3d e5 24 4a bd 75 51 a2 be
       -0.13829952 0.07748227 -0.04935159 -0.31702772
000260 3e d6 57 be e0 a7 67 be 48 62 bd bd cf 41 fc 3d
       -0.2107782 -0.22622633 -0.09247261 0.123172395
000270 80 b7 9c bd db 30 87 be 15 83 b3 3b 4b 86 47 be
       -0.07652187 -0.2640446 0.0054782727 -0.19484822
000280 95 94 1f 3e 9f 3a 4d bc 44 03 83 be c7 ef 8f bc
       0.15584023 -0.012526183 -0.2558843 -0.01757039
000290 74 ad 6b 3e 11 10 4d be f8 aa 9b 3d 7c dc 10 be
       0.23015386 -0.2002566 0.07600969 -0.14146608
0002a0 6c e2 44 be 6b 49 a2 3d 6a 07 b0 3c c7 82 a2 3e
       -0.19226998 0.079241596 0.02148791 0.317404
0002b0 0c 33 18 3f 03 b6 a0 3d f0 3d 05 3f 2a c3 95 bc
       0.5945289 0.07847216 0.52047634 -0.018281538
0002c0 84 e1 96 be bd d2 90 be 21 6d 2f bd 38 b3 46 3d
       -0.2946893 -0.2828578 -0.042828683 0.04851076
0002d0 cb cb 3f bd 20 66 b7 bc fc 20 4e be 50 9a 29 bf
       -0.04682521 -0.022387564 -0.2012977 -0.6625109
0002e0 58 71 3e 3d f7 5e 37 3d 53 95 a3 3e 3c 70 56 3e
       0.04649481 0.0447683 0.31949863 0.20941252
0002f0 ef 1c c8 bc 05 00 7d be c3 06 8e bc 80 6c 8a be
       -0.02442786 -0.24707039 -0.017337209 -0.27035904
000300 25 67 0e be 2e 60 20 3e 3f d0 62 3e 19 3a 59 3d
       -0.13906534 0.1566169 0.22149752 0.053033922
000310 ba 6b c9 be b7 79 51 3e cb 6c 94 be 6c b5 2a be
       -0.3934 0.20456587 -0.28989252 -0.1667077
000320 54 5e 02 3e e4 f4 69 3d d7 9c 02 be 3f a9 c6 3d
       0.12731296 0.05711831 -0.12755142 0.0970025
000330 02 74 31 be e4 71 12 be c0 81 73 bd 6d ab 85 be
       -0.1732941 -0.14301258 -0.05944991 -0.2610735
000340 3a 98 38 3e 13 f5 84 3e 86 ec e4 bd 58 9f 06 3e
       0.1802682 0.25968227 -0.11177926 0.13146722
000350 90 19 e3 3d 8a f9 5c be 12 d4 35 3e 36 ae dc bc
       0.1108886 -0.21579567 0.1775668 -0.026938539
000360 ca 3d ae bb 23 79 43 be b7 5d bc bd b8 fd 67 3e
       -0.0053174244 -0.19089179 -0.09197562 0.2265538
000370 49 73 05 3c 90 e5 90 3d f1 1a 86 be 4b d0 ec bd
       0.008145162 0.070750356 -0.2619243 -0.11563166
000380 c4 f0 49 be 9d 9e 91 bd b9 d6 14 3d 72 98 7c be
       -0.19720751 -0.07110331 0.036337588 -0.24667528
000390 f3 10 9a 3d eb 28 45 be d3 80 e9 be 15 22 79 be
       0.07522764 -0.1925389 -0.45606098 -0.24329408
0003a0 6e 99 b6 3d 24 a3 f5 bd 91 78 44 3e 2a 20 32 3d
       0.08915983 -0.11994007 0.19186617 0.043487705
0003b0 74 2e cb bd 7a 92 2c 3d 4e b4 d5 3d 3c fb ba bc
       -0.099209696 0.04213188 0.10434781 -0.022824876
0003c0 ef 57 bc be 9f 86 0d 3e 5a d4 11 3f ed 98 4d bc
       -0.36785838 0.13820885 0.5696465 -0.012548667
0003d0 0f fb 5e be 69 d5 a9 3e d3 be 89 be 2b aa 12 be
       -0.21775459 0.33170632 -0.269034 -0.14322726
0003e0 80 8b 12 3c 5e fa 13 be 25 96 37 be 43 16 96 bd
       0.008944392 -0.14450976 -0.1792837 -0.07328465
0003f0 27 f7 f4 bd 5e 54 43 bd 64 db c0 bd 61 0a 39 3f
       -0.11961203 -0.04768788 -0.094168454 0.7228146

linear1.bias f4 [128]
000000 1a 3f 44 be c6 65 80 3e 81 bb f4 3e 33 72 8b 3e
       -0.19164696 0.25077647 0.47799304 0.27235565
000010 06 e4 a1 bc 98 56 42 3c b0 c1 c7 be 52 00 6c 3e
       -0.01976205 0.011861466 -0.3901496 0.23046997
000020 be 33 e4 3e df 62 7f be 74 24 92 3d 4a 8f ca 3e
       0.44570726 -0.2494006 0.07135859 0.39562446
000030 25 42 0b be 16 bc 9d 3d 92 39 53 3d a8 1e d9 3e
       -0.13599451 0.0770189 0.051568575 0.424062
000040 40 14 6d be 29 de 97 bd 91 ff 09 3e f4 8c 42 be
       -0.23152256 -0.074154206 0.13476397 -0.18999082
000050 84 df 93 3d d9 1c a5 bd b5 e8 05 3d fe 29 38 be
       0.072203666 -0.08062143 0.03269263 -0.17984769
000060 ae c4 12 bd 04 a0 8b 3e 7f 2f 2a 3e 3c 35 3c 3e
       -0.0358321 0.2727052 0.16619681 0.18379682
000070 09 d0 0b be 4b 15 9d 3d 33 d9 4b 3c de 34 12 3f
       -0.13653578 0.07670077 0.012441921 0.5711192
000080 c2 25 ba 3c 51 ad 48 3e e8 ba 53 3e 3b 9e 29 3e
       0.022723082 0.19597365 0.20676768 0.16564266
000090 13 d5 82 bd 6b ac 24 3d cd ef 9a 3e 5d e0 13 be
       -0.06388297 0.040203493 0.30261078 -0.14441057
0000a0 ba a9 08 be a4 e8 f4 3d c3 0f 81 be 38 6b ef bd
       -0.13345996 0.11958435 -0.25207338 -0.11690372
0000b0 06 33 3a be c7 1c e4 3e 11 10 0e 3e 67 de a8 3e
       -0.18183526 0.44553205 0.13873316 0.3298218
0000c0 c1 8d 90 3e 73 5b 8b 3e 8c 0f 7f b7 c9 75 05 3d
       0.2823315 0.27218208 -1.5202804e-05 0.03258303
0000d0 b6 70 4b bc c0 4a 17 3e a9 f0 ad 3e 1c e1 16 3e
       -0.012417009 0.14774609 0.33972672 0.1473431
0000e0 85 3f 95 bc e4 87 28 3e e6 40 c7 be 81 0d 69 be
       -0.018218765 0.16458088 -0.389167 -0.22759058
0000f0 be 55 03 be ad 63 9c 3d c7 bd e3 3e 0a e8 46 3e
       -0.12825677 0.07636199 0.44480726 0.19424453
000100 6a d3 56 3d 75 70 f0 be 2e 4e be 3e 72 1b 84 3e
       0.052447714 -0.46960798 0.3716902 0.2580219
000110 2e d4 05 be bb 69 7e 3e d5 8d a0 bd 84 9b 1b be
       -0.13069221 0.2484502 -0.07839552 -0.15196043
000120 54 02 1a 3f b7 0e 6f be 9a 0c 51 be 6b b6 86 3e
       0.601598 -0.23345457 -0.20414963 0.2631105
000130 38 d3 bb be ca 92 75 be ac 4f 5a 3e 5c d6 0d 3f
       -0.36684585 -0.23981777 0.21319455 0.5540521
000140 75 d2 df 3d 76 3c 42 be e7 02 b0 bd f2 6b 25 3e
       0.10928813 -0.18968377 -0.085943036 0.16154459
000150 25 61 cd bd b5 70 26 be ae 47 44 3d 08 b8 c8 3e
       -0.100282945 -0.16253932 0.04791992 0.39202905
000160 68 35 3b be 2e df 9b 3e 42 de 7a be 4e 29 8c 3e
       -0.18282092 0.3044371 -0.24498847 0.27375263
000170 58 1d 9c 3e 6a f8 9e 3d 22 a6 7d bd 32 ff 0b 3e
       0.30491138 0.07762225 -0.061926015 0.13671568
000180 a0 df 1d 3e b4 8e a4 3d 15 77 52 bd ae 05 e4 3d
       0.15417337 0.08035031 -0.051383097 0.11133896
000190 0b dd 66 3e d3 5c 49 bd a6 85 fb bd ed 60 be 3e
       0.22545259 -0.04916079 -0.12281351 0.37183324
0001a0 d3 76 26 3f a2 c6 19 be 5f 96 2a be 05 34 e7 3c
       0.6502506 -0.15017179 -0.16658925 0.028223047
0001b0 06 57 de bd 2f 94 96 3e ef 54 21 3e 90 af 32 3e
       -0.10856442 0.2940993 0.15755056 0.17449784
0001c0 92 43 41 be d6 3b a4 be f2 b2 dd 3d f8 08 69 3e
       -0.18873432 -0.320769 0.10825147 0.22757328
0001d0 c6 61 8a 3e 89 b6 44 3f 65 7d bb bd fb 38 d2 3e
       0.2702772 0.76841027 -0.091547765 0.41059098
0001e0 dd cf ae bd e0 b1 eb bd 8d 1d 26 3e 97 44 09 be
       -0.085357405 -0.11508536 0.1622221 -0.13405071
0001f0 8c 6c c3 be 3f 62 70 bd 57 5e d7 bd 05 29 98 3e
       -0.38168752 -0.058687445 -0.10516041 0.29718795

linear2.weight f4 [128, 128]
000000 91 a8 a2 bd 35 9f f0 bd bf 6a ce 3d 23 30 28 3e
       -0.07942308 -0.11749116 0.10078954 0.16424613
000010 69 91 1a be 2a dd 70 bd 65 6e c6 3d cb d2 5b 3d
       -0.15094532 -0.05880467 0.09689025 0.053667825
000020 96 9f fd bd e9 ff 83 3d 42 46 39 be 40 2d b4 bd
       -0.12383954 0.06445295 -0.18093207 -0.08797693
000030 3f 97 b8 be bc 6d 6c 3c b6 37 86 bd 4a ae 68 be
       -0.36052892 0.01443046 -0.06553595 -0.22722736
000040 db 4a ec 3d b5 50 c9 bd d2 44 08 be 49 45 b9 be
       0.11537715 -0.09829847 -0.13307503 -0.36185673
000050 57 19 d8 3e 58 be ef 3d 02 7d 8a 3e db 1c 5c bd
       0.42206833 0.11706227 0.27048498 -0.053738456
000060 73 0c ae bd 2f 95 85 3e 74 29 10 3d 70 2d 26 3e
       -0.08498468 0.2609038 0.035195783 0.1622827
000070 3e 02 00 3e 11 59 3d bd 85 9d db bd 8b 7c 9f 3e
       0.12500855 -0.04622752 -0.10723404 0.31149706
000080 af 6e 91 bd d5 1a 85 3d 05 b4 99 bd ff cc 0a be
       -0.07101189 0.064992584 -0.07505039 -0.13554762
000090 cd 63 f0 bd 12 46 97 3e 43 ac 37 3d 0e 0e ab 3d
       -0.117377855 0.29545647 0.044842016 0.0835229
0000a0 78 27 81 3e cc 89 24 3e e9 4f 7d 3d 53 ba 1f 3d
       0.25225425 0.1606819 0.061843786 0.038996052
0000b0 a7 35 35 be 23 49 2b be 30 fa cd 3d af 61 6c 3e
       -0.17696248 -0.16727118 0.10057485 0.23084138
0000c0 2e 09 32 bd 68 0f 23 3d c8 b7 c6 3c b7 a7 f4 bd
       -0.043465786 0.039809614 0.024257556 -0.119460516
0000d0 20 cb c1 3b 54 a4 25 3d 10 cd 20 3e b3 29 70 bb
       0.005914107 0.04043992 0.15703225 -0.0036645948
0000e0 c0 35 c0 3d 2d dd 79 3d 51 e7 ed bc 0d f7 6c 3c
       0.09385252 0.061001945 -0.029040964 0.014463198
0000f0 da 74 6a be ce 28 17 be b2 02 6b 3d 3a 0a 00 3e
       -0.22896138 -0.1476166 0.057375617 0.12503901
000100 85 b6 a2 bd c4 e6 e2 be 11 93 60 be 18 c6 66 bb
       -0.07944969 -0.44316685 -0.21931101 -0.0035213288
000110 58 fb 82 3e 4b f6 06 3e 41 a5 eb bd f3 e9 38 be
       0.25582385 0.13179891 -0.11506129 -0.18057995
000120 b0 d1 89 3e 01 8f 0a 3c 92 aa d2 bd 90 65 8e bd
       0.2691779 0.008456946 -0.1028644 -0.06952965
000130 49 b4 c1 bd 94 dd 8a be 0c 85 c5 3c 45 03 92 3d
       -0.09458215 -0.27122176 0.024111293 0.0712953
000140 27 c9 bc 3d cb c4 78 3c c8 e8 f0 3d 5b ce 61 3e
       0.09218054 0.015183638 0.117631495 0.22051375
000150 37 cc 2f 3c c6 1d 9d 3d 55 be 81 3c e1 fc f5 3d
       0.010729841 0.076716945 0.015837828 0.120111234
000160 79 d7 bf bd 96 ed fc 3d f4 9c e0 bc 28 0a d0 3d
       -0.0936727 0.123500034 -0.027418591 0.10158187
000170 90 b5 a0 3d 7c f3 6d 3e 7f 1f 15 be ef d5 9d 3d
       0.0784713 0.23237413 -0.14562796 0.0770682
000180 24 6c f6 bd fa 3c 4e bd 26 86 c4 3c da c9 15 3e
       -0.12032345 -0.05035112 0.023989748 0.14627782
000190 06 96 69 bd d5 d8 e5 bd bb f2 2c be 6c cd 09 bc
       -0.05702784 -0.11222998 -0.1688947 -0.008410793
0001a0 ff d4 97 3e eb b1 25 be 70 c9 14 be fd ad ca 3d
       0.2965469 -0.16181152 -0.14529967 0.09896467
0001b0 ad bf 92 be 4f f8 1e 3c 25 c1 7c 3e cf 92 bc be
       -0.28661862 0.009702756 0.24683054 -0.36830756
0001c0 1d 10 86 be da bc bc be f1 4b 26 be cf e3 90 bd
       -0.26184168 -0.36862832 -0.16239907 -0.07074701
0001d0 83 3a 10 3e 77 b5 a9 3e 19 94 60 bd 4e e9 77 3d
       0.1408482 0.3314626 -0.054828737 0.06052523
0001e0 8f 66 ea bd f6 b5 49 be 95 94 a2 3d 0e 94 d6 3d
       -0.11445343 -0.19698319 0.07938496 0.10477458
0001f0 6a 53 37 be c1 e4 dd bd 12 01 8e bc e3 e2 a7 bc
       -0.17902914 -0.10834647 -0.017334495 -0.02049393
000200 ed b0 29 be c8 5b 12 3e 4c e4 ac 3d c5 2a 7c 3e
       -0.16571398 0.14292824 0.08441982 0.2462569
000210 b2 27 d2 be 08 57 fb bc 16 87 b3 be 17 c2 6a 3e
       -0.4104591 -0.030681148 -0.35064 0.22925602
000220 f2 7e 4d 3e d8 27 2b 3e 1e 43 2d 3c 64 00 95 3e
       0.20067957 0.16714418 0.010575084 0.2910186
000230 95 ae 3b be 4d b4 27 bc 1a 52 78 3d 16 a9 8e 3e
       -0.18328317 -0.010235858 0.060625173 0.27863377
000240 8c a8 17 3e 60 1c aa bd 77 10 19 be c2 43 80 3e
       0.1481039 -0.08306193 -0.14947687 0.25051695
000250 75 27 bf ba 50 21 b6 bd 1b 47 ad 3d 9f cb ef bd
       -0.0014583903 -0.088930726 0.08460828 -0.117087595
000260 e1 a7 7b be 5b b3 bd 3b ab 27 8f bd fb 8d 20 3d
       -0.2457576 0.005789203 -0.06989988 0.039197903
000270 8f e1 6b be e9 94 32 3e e8 2a 16 3d 0f 8a 82 bd
       -0.23035263 0.17439617 0.036662012 -0.06373989
000280 68 6a fd 3d 17 7a 84 3d 90 b8 42 be 04 89 f9 bd
       0.12373811 0.06468599 -0.19015718 -0.12184337
000290 fb 20 33 be 6e 77 57 be 21 83 78 3d 72 15 ac 3c
       -0.1749305 -0.21041653 0.06067193 0.02100632
0002a0 bd 75 0c bf da b0 dc 3c 08 6c ae be 41 6d aa be
       -0.54867154 0.026939798 -0.34066796 -0.3328648
0002b0 f4 07 53 be e9 95 a6 3c bf 1a ed be 01 e3 d1 3e
       -0.20608503 0.020335155 -0.46309468 0.40993503
0002c0 63 84 ca be dd 6f 73 bd fa 94 b3 bd 27 48 a7 3c
       -0.39554128 -0.059432853 -0.087686494 0.020420147
0002d0 7a 95 74 be a2 a2 09 3d 23 ac 6a be 00 e3 dd 3d
       -0.23885146 0.033602364 -0.22917227 0.108343124
0002e0 54 b8 e0 bd 84 af 47 3e ab d6 8c 3d 17 bb 89 be
       -0.10972658 0.19500548 0.06876882 -0.2690055
0002f0 b1 da e9 3c 74 b2 86 be e1 00 9d 3e e0 80 6c bd
       0.028546663 -0.26308024 0.30664733 -0.057740092
000300 91 9b 8c 3d 89 60 9e bd 5b ce 09 3d 0d aa b8 bd
       0.068656094 -0.07733256 0.03364406 -0.090168096
000310 27 7a 8d 3d 1e b8 55 3e 93 50 2b 3e 95 0e a0 be
       0.06908064 0.20871016 0.16729955 -0.31261125
000320 a7 27 95 3e d1 da 2e 3e 55 3b 7b bd e5 1b c7 3d
       0.29131815 0.1707566 -0.06133588 0.09722117
000330 30 52 01 be 47 72 b0 3d bf 9a 68 3d 9a 80 21 3d
       -0.12629008 0.08615547 0.056788202 0.039429285
000340 51 98 46 3c 6b f4 0b be 0a dc 35 be 6d 08 94 3d
       0.012121276 -0.13667457 -0.1775972 0.072281696
000350 39 34 f6 be f0 ce 0c 3e 99 98 ea bd e2 b1 57 3b
       -0.48086718 0.13750815 -0.11454887 0.0032912423
000360 7c 82 bc bc b4 4a a1 3c f3 f7 1f 3d ce a8 12 be
       -0.023011439 0.019688942 0.039054822 -0.14322206
000370 e0 d5 dd 3d 64 f7 37 3e af 79 b9 3c 93 2f 24 3d
       0.10831809 0.17965466 0.022641031 0.040084433
000380 06 db 70 3e da 01 37 be 2b 8d d5 bd 65 37 cb bb
       0.23521051 -0.178718 -0.10427316 -0.006201672
000390 88 6c 82 be a2 0c 08 be 3c bd 69 3e 96 14 ed bd
       -0.25473428 -0.13286069 0.22826093 -0.11576192
0003a0 db a4 01 3e 27 31 55 bc 9a c3 4a 3d e8 75 92 bc
       0.12660544 -0.013012207 0.049502946 -0.017878488
0003b0 9e 08 9c bd 2e 7d 85 3e 32 01 38 be 40 75 b9 bd
       -0.07618831 0.26072067 -0.17969206 -0.09055567
0003c0 51 9d ae be bb c8 57 3c bc 45 d8 3c 61 af df bd
       -0.34104398 0.0131704165 0.02640044 -0.10922123
0003d0 72 35 a3 3d 66 1d e3 3d 26 a0 3b be bb d7 0b 3c
       0.07969178 0.11089592 -0.1832281 0.008535321
0003e0 2f 60 db bc ba c2 23 be 40 d0 aa 3c 39 16 ba bd
       -0.026779262 -0.15992251 0.020851254 -0.0908627
0003f0 fb e8 4c 3c f5 ec ee 3d 15 48 cd 3e e4 de 45 3e
       0.012506719 0.1166629 0.40094057 0.19323307

linear2.bias f4 [128]
000000 f8 1c ef 3e 23 21 55 be 7a 98 7f bb 29 58 02 3f
       0.4670179 -0.20813422 -0.0039000795 0.5091577
000010 54 53 89 bd 37 6b 37 be cd fa 44 3e 2c ab 16 3f
       -0.06705347 -0.17911993 0.19236298 0.5885494
000020 9b fc b1 be 94 7b f0 3d 10 f9 cc 3e a3 58 05 3f
       -0.34763035 0.11742321 0.4003377 0.52088374
000030 5c 27 43 be 53 4b 6d 3c 16 79 bf bb 4a 20 a8 be
       -0.19057983 0.014483291 -0.005843292 -0.32837135
000040 45 de 13 3d 81 b1 16 3f e8 1b f5 3d 55 bf 30 bd
       0.036100645 0.588646 0.11968213 -0.04315122
000050 41 06 72 bd 81 fd f4 ba 97 45 a3 3d 3d 7d 1e 3e
       -0.059087995 -0.0018691273 0.079722576 0.15477462
000060 56 c9 a5 be 55 81 d9 3d 4b 41 0d 3d 0d 77 dc 3d
       -0.3238017 0.10620371 0.034486096 0.10764895
000070 e0 d1 70 be 73 9f 86 be 54 9c 90 be bf b4 f0 3e
       -0.23517561 -0.26293525 -0.2824427 0.47012898
000080 22 0e d4 3e e2 03 6f be 05 7a cc bd 7e 8c 76 be
       0.41417032 -0.23341325 -0.09984211 -0.24077031
000090 85 9f 7b be 46 48 a6 be 46 8a 74 3e 8a 1f 1d be
       -0.2457257 -0.32477015 0.23880872 -0.15344062
0000a0 38 fa a9 be 98 d7 42 be b7 88 9b 3e ae e6 80 3e
       -0.33198714 -0.19027555 0.30377743 0.25175995
0000b0 e9 98 4a bd ae 75 c8 bd 17 fc 72 3e 17 17 12 be
       -0.049462233 -0.097880706 0.23728977 -0.1426662
0000c0 0b 58 73 3d 16 2b 7c 3e 1f 38 71 3d fb ee de 3d
       0.059410136 0.24625811 0.058891412 0.10885426
0000d0 15 ad b7 3d 55 e7 7a be 6e 2b dd 3e 48 f5 ec bd
       0.0896856 -0.24502309 0.43197197 -0.11570221
0000e0 e4 19 60 be 56 fe 1e be 1b a6 14 be c6 b7 94 bd
       -0.21884876 -0.15526709 -0.14516489 -0.072616145
0000f0 eb 79 6b bd bb 82 a1 3e 19 23 18 3e 7a 3f b3 3e
       -0.057489317 0.31545052 0.14857139 0.35009366
000100 44 78 a8 be 71 7d 24 be 87 ca ee 3e c5 d6 bf 3e
       -0.32904255 -0.16063477 0.4663889 0.37468544
000110 58 a5 9d be 97 c8 cf 3e 11 e5 9c 3e a5 f0 4a bd
       -0.3079021 0.40582725 0.30643514 -0.049545903
000120 83 7e 3d 3e a0 2c c8 3e 24 ad de 3e 3a 9d dc 3e
       0.18505292 0.39096546 0.4349147 0.43088704
000130 71 93 89 3d 32 62 c0 be e1 d4 31 bc 2b d7 77 3e
       0.06717575 -0.37574917 -0.010853977 0.24203174
000140 8e 58 34 be 54 74 fc 3e a9 20 86 be 7b 2b 0a be
       -0.17611906 0.493075 -0.26196793 -0.13493149
000150 17 7d 74 be 99 4b 5d be b2 9e 49 3d e1 72 17 3e
       -0.23875843 -0.2161087 0.04922361 0.14789917
000160 be fc 1a 3e 73 a2 72 bd 01 86 70 3d de 5e a8 be
       0.15135476 -0.059236955 0.058721546 -0.32884878
000170 74 60 9f 3d f5 b2 fa be 29 4e 28 3d a6 63 ae 3e
       0.07782069 -0.48964658 0.041090164 0.340604
000180 8e 6d b0 bc 2f 52 15 3e 4d c8 b8 be 40 32 b7 3e
       -0.021536615 0.14582132 -0.36090317 0.35780525
000190 a7 74 70 3c f8 ea 98 3e 3d 2e 08 be a3 29 ba 3e
       0.01467625 0.29866767 -0.13298889 0.3635989
0001a0 f0 db c1 3d 39 ac 5d 3e 8c 63 c1 3e 71 a5 d2 be
       0.09465778 0.21647729 0.3777126 -0.41141847
0001b0 6e 2c 1f 3e ce 51 fc bd ab 22 ed bd a3 af 77 be
       0.15544292 -0.123202905 -0.11578878 -0.24188094
0001c0 f1 f6 ce 3c 03 17 b1 3e 5e 4a b4 bd f8 b9 ce 3e
       0.025264235 0.3458787 -0.08803247 0.40376258
0001d0 26 f2 36 3e 73 03 27 3e 1a b0 99 3e 2b aa bf 3e
       0.1786581 0.1630991 0.30017167 0.37434515
0001e0 da 90 a0 be e3 97 db bd 41 c5 e2 be 75 f6 9d bc
       -0.31360513 -0.107223295 -0.44291118 -0.019282559
0001f0 a7 02 37 3d ae 21 64 bd 2a bb 9f be ca f8 09 3e
       0.044680264 -0.055696182 -0.31197482 0.13473812

linear3.weight f4 [64, 128]
000000 c6 2d 1b bd ab b6 ba 3d a3 07 b8 be fd 5a 58 bd
       -0.03788545 0.091168724 -0.35943326 -0.05282115
000010 64 69 20 3e 2f 0c 89 be ab cd 27 3e 4b 2e 23 3c
       0.15665203 -0.26767108 0.1638705 0.009959768
000020 e5 0a 50 3c e8 95 1c 3e db c3 29 bd ed 9f c3 bd
       0.01269791 0.1529156 -0.041446548 -0.09551988
000030 50 0d a0 bd e5 58 5b 3d 5b 13 aa bc 50 c4 9e bd
       -0.07815039 0.053551573 -0.020761183 -0.077522874
000040 63 b7 8e 3e 52 50 5f 3d ca 84 8f 3d 43 8c 23 3e
       0.27874288 0.05451996 0.070077494 0.15971474
000050 c7 27 97 be 2b f7 5f 3e f1 13 5e 3e 7a e8 e1 bc
       -0.29522535 0.21871631 0.21687295 -0.027576674
000060 2b 15 0f bf 9c 48 a9 bc 43 1f 86 be 6d 22 9c 3d
       -0.55891675 -0.020664506 -0.26195726 0.07623754
000070 ab 91 22 3e 0a a0 0b 3b da 60 f5 3c 2d 4c 1d bd
       0.1587588 0.0021305108 0.029953409 -0.038402725
000080 26 e9 5c 3d e2 5e 07 be bf de ac 3d 0c 52 00 be
       0.053933285 -0.13219789 0.08440923 -0.12531298
000090 62 12 f4 3d 55 ae 8d 3d 12 f7 e6 3d e3 e4 71 3e
       0.11917569 0.06918017 0.11277594 0.2362247
0000a0 09 38 8c be 71 26 fc 3d 5b 99 a6 bd 1d f5 47 bd
       -0.273865 0.123120196 -0.08134719 -0.048817743
0000b0 96 69 34 be 0b 86 a2 bd cf 0e 9a 3d 79 9b 2e bd
       -0.17618403 -0.07935723 0.07522356 -0.04262874
0000c0 1d e6 11 3d af d0 26 3e fb 91 c2 bd 98 ce 25 3c
       0.035619844 0.16290544 -0.095005 0.010120057
0000d0 95 65 19 3e c5 7d a3 3e 0d 30 00 bd 82 ee 61 3e
       0.14980157 0.31931892 -0.031295825 0.2206364
0000e0 7a e8 6c bc 8c 7d 1f 3d 37 77 69 3e 3d 63 dd bd
       -0.014459724 0.03893809 0.22799383 -0.10809944
0000f0 99 61 7f bd 66 c1 b1 3b e9 6d 26 be 32 9e ca bd
       -0.062348936 0.005424666 -0.16252865 -0.098934546
000100 68 01 17 3d c8 37 83 3e 99 a9 61 3d 28 e5 20 be
       0.036866575 0.25628495 0.05509338 -0.15712416
000110 d9 c0 49 3e 73 2a ad be 94 ec fb 3d 89 53 2d 3e
       0.19702472 -0.3382145 0.12300983 0.16926397
000120 80 77 8a 3e 12 1b da 3d 30 2a 95 3c a7 99 a6 bd
       0.27044296 0.106496945 0.018208593 -0.081347756
000130 89 ce 0d 3e a1 42 5f 3d aa a1 1a bd 99 6b 0b bd
       0.13848318 0.0545069 -0.03775183 -0.03403816
000140 3f aa cb bd 68 4d 3d be 81 13 6b bc 6f f0 4d 3d
       -0.09944581 -0.1848656 -0.014347912 0.050278123
000150 e3 dd 19 be d9 bc ce be 1e 60 90 be 10 a8 8e 3d
       -0.1502605 -0.40378454 -0.28198332 0.06965649
000160 57 e4 1f be 08 86 c7 be 27 9c 36 3e 45 79 2b be
       -0.15614448 -0.38969445 0.17833005 -0.1674548
000170 65 f8 a3 3e 9e 66 ae bd 90 3c a0 bc 01 bd 56 3d
       0.32025447 -0.085156664 -0.019560128 0.052426342
000180 b0 98 d5 3d d1 8b 23 3c c4 ab c9 3d 0e 4b d4 be
       0.104295135 0.009982065 0.09847215 -0.41463512
000190 c0 7c 56 be d3 db 3e 3e c4 7a dd bd 50 4f 2b be
       -0.20946026 0.18638544 -0.10814431 -0.16729474
0001a0 fa db 0a 3e 66 8d f1 3b 67 3d 3e be 4e 67 f4 3d
       0.13560477 0.0073715923 -0.1857811 0.11933766
0001b0 15 31 a9 bd df a2 23 3e c4 2a a4 be 01 a6 e8 bd
       -0.08261315 0.15980099 -0.32063878 -0.11359788
0001c0 3f 6c 3e 3e b0 fe 6a 3e 8f 3b 03 3b 6a 5e c5 3d
       0.1859598 0.22948718 0.0020024513 0.09637149
0001d0 89 60 55 3d 58 3b eb be c3 b2 fb 3c ab 6d e2 bc
       0.052094016 -0.45943713 0.030724889 -0.027640184
0001e0 4c f9 0f b9 a0 12 90 bd 8a f6 74 bd ba 67 43 3e
       -0.00013730413 -0.070348024 -0.05980543 0.19082537
0001f0 04 6b 32 3e 55 c7 e7 bc 12 6d 07 be 92 f4 d4 bc
       0.17423636 -0.028293291 -0.13225201 -0.025995526
000200 1e c6 8d bd 0b fc 96 bd c4 a9 d8 3d 79 30 b3 bd
       -0.069225535 -0.07372292 0.10579255 -0.0874948
000210 bb 20 a0 3e 1d 9c cb bd 18 0e 0b 3e 26 61 04 be
       0.3127497 -0.099418856 0.13579595 -0.12927684
000220 e2 aa b4 bd fe 44 28 bd e7 9c d2 be 06 47 95 be
       -0.08821656 -0.04108142 -0.41135332 -0.2915575
000230 a3 e8 56 3e 11 f5 40 be 93 5d bd 3d 9a cc 65 3d
       0.20987181 -0.18843485 0.092463635 0.056103326
000240 c9 3a e3 3c 63 18 3e be 6f 69 6c be bd e1 7b be
       0.027737992 -0.1856399 -0.23087095 -0.24597831
000250 6a 66 30 3d 94 59 61 bd 4a b3 ca bd df 59 e2 bd
       0.04306642 -0.05501707 -0.09897478 -0.11052298
000260 cc 68 a0 3c 0b bf 12 be 85 b0 b8 3d e9 50 b1 3d
       0.019581221 -0.1433069 0.090180434 0.086580105
000270 e0 e9 80 bb 49 ff 58 be 8f e0 c9 bd da 1d 6d bc
       -0.00393413 -0.21191134 -0.09857284 -0.014472449
000280 2d 80 52 be ca 8a 1b be 73 a7 a3 bd a1 9e 44 3e
       -0.20556708 -0.15189663 -0.07990923 0.19201137
000290 4c 52 18 be 8b 9b 0a be bb b5 22 be 60 66 7b 3c
       -0.14875144 -0.13535897 -0.15889637 0.015344232
0002a0 50 8c 57 3e 7e e5 4f bd ac 7d 2a 3d 72 50 10 3e
       0.21049619 -0.05075597 0.041623756 0.14093187
0002b0 e1 34 36 be 10 f5 9b 3d 03 2b 7f be c4 ae 22 3e
       -0.17793609 0.07615101 -0.24918751 0.1588698
0002c0 09 dc cf bd ae 1c b9 be f4 0f 0b 3d 5b 69 07 3d
       -0.1014939 -0.36154693 0.03395076 0.03305946
0002d0 0c 5a 35 bd 45 48 89 bd d2 05 c7 be 34 36 a7 3d
       -0.04427533 -0.067032374 -0.38871628 0.08164635
0002e0 8e 35 d2 bc fc 47 3a be 0d e2 89 bc e1 e1 fa bb
       -0.025660302 -0.18191522 -0.016831422 -0.0076563214
0002f0 a1 07 bf 3d 96 21 a6 be ff 27 0a be 7a 9f b5 be
       0.09327627 -0.324475 -0.1349182 -0.35473233
000300 1a 23 90 be 51 40 c2 bd 36 0f a8 be 06 92 09 bf
       -0.2815178 -0.09484924 -0.32824105 -0.5373844
000310 c6 00 ca bb 41 7f 00 bf a1 d8 97 bd a9 0a 30 3d
       -0.006164643 -0.50194174 -0.074143656 0.042978916
000320 be 22 e7 3d d5 0a 5c be 7d 35 a4 bd 3a f5 a2 bd
       0.112859234 -0.21488507 -0.080180146 -0.079569295
000330 e7 46 5d 3d 17 07 b8 3d b1 00 85 3d 05 6e 31 3e
       0.054022696 0.08985727 0.064942725 0.17327125
000340 db 46 c0 bd 76 62 9e be 03 20 cd bb 39 8e 86 bd
       -0.093885146 -0.30934495 -0.0062599196 -0.065700956
000350 ee f7 2f 3d a6 17 31 be be b2 17 bc e9 23 5f 3d
       0.042961054 -0.17294177 -0.009258924 0.054477606
000360 71 71 5c 3d a4 e6 24 3d 2b 28 6f be c5 1c 16 3e
       0.053819124 0.04025902 -0.23355167 0.14659412
000370 9c e0 c9 3d 36 c5 b6 bd 7b e9 b6 3d e6 10 87 be
       0.09857294 -0.08924334 0.089312516 -0.2638008
000380 db b1 c4 bd 1e c2 4b be e7 11 12 be 77 bb 1f 3e
       -0.09604236 -0.19898269 -0.14264642 0.15598856
000390 6d f4 64 3d bd fa 28 be 61 2a a6 bd dd ee 18 bf
       0.055897165 -0.16501899 -0.08113552 -0.59739476
0003a0 7d e2 43 3e 84 59 5e be 8a 3f 69 be ea 63 ba 3d
       0.19129367 -0.21713835 -0.22778144 0.09101088
0003b0 1f 39 64 be cd 05 6e 3e 75 0d c9 3d 44 e2 d9 3c
       -0.22287415 0.232444 0.0981702 0.02659715
0003c0 15 f2 4a 3e 24 0b 9d be 67 a8 64 3b 2a d0 5e be
       0.1981891 -0.30672562 0.0034890415 -0.21759096
0003d0 ee 65 32 3e af 2f 19 3e 3d 91 24 3e 13 6c 0a 3e
       0.17421696 0.14959596 0.16071029 0.1351779
0003e0 c0 e5 f7 bd 5d 89 15 3e ad 13 17 bc 4e 95 25 3e
       -0.12104368 0.14603181 -0.009221 0.16170236
0003f0 ec 11 6d 3d 13 a1 21 3e 7e b4 12 3e 54 bf 34 be
       0.05787842 0.15784101 0.14326665 -0.17651111

linear3.bias f4 [64]
000000 02 8b c3 3e d1 ff 36 3d 0e 6b a4 3d dc ad 36 3f
       0.38191992 0.04467756 0.080282316 0.7135904
000010 fa 61 0d bd 37 ae 9d 3d 43 de 02 3e db 0e c0 3e
       -0.034517266 0.076992445 0.12780099 0.37511334
000020 99 db da bd a2 b6 58 be f2 91 8c 3c 59 23 b4 bd
       -0.10686416 -0.21163419 0.017159436 -0.087958045
000030 40 33 b3 3e f9 3b 67 bd ff 9c 98 bc d0 17 31 3f
       0.35000038 -0.05645368 -0.01862955 0.6917696
000040 b0 32 d0 be 4c a6 f8 bc e5 61 37 be d8 15 95 3d
       -0.40663671 -0.030352734 -0.17908438 0.07279557
000050 92 53 17 be c9 a7 d7 3e 34 50 3e 3d 63 7d a6 3e
       -0.14777973 0.42120197 0.046463206 0.32517537
000060 46 ab 6c 3d 66 d4 1c 3d 16 a3 f7 bd 74 12 8f be
       0.057780527 0.038288496 -0.12091653 -0.27943766
000070 72 3c 57 be 00 dc 2b 3f 9d 69 9c be ca 2d 05 3e
       -0.21019152 0.6713257 -0.30549327 0.13005748
000080 fb a8 58 3d cd 50 a2 bb 5b 48 10 be 1d 2c 11 3f
       0.052895527 -0.00495348 -0.14090101 0.56707937
000090 7c 57 23 3f b5 22 20 3c 95 29 43 bd ab bb 1f 3f
       0.63805366 0.0097739 -0.047647078 0.62395734
0000a0 87 bd d0 be 5d 67 4c be 0a 7e b2 3e c6 8c a4 3e
       -0.40769598 -0.19961305 0.34861785 0.32138652
0000b0 02 db a7 bd 50 28 14 3d 7d a9 86 be 79 4e ce 3d
       -0.08196069 0.036171257 -0.26301184 0.10073561
0000c0 1c c0 df 3c 5c 44 fa 3d d4 42 a1 bd f2 30 6a bd
       0.027313285 0.1222007 -0.078740746 -0.057175584
0000d0 e1 8a 2a 3f 40 1b 18 3d 17 7e 2b 3f 78 5c 9b bd
       0.6661816 0.037135363 0.6698927 -0.075859964
0000e0 c8 30 c1 3c ef d2 0e be 02 e4 38 bd f6 42 55 3e
       0.023582831 -0.13947652 -0.04513932 0.20826325
0000f0 03 66 b0 3e 0b 16 6c be a2 01 86 3d 2a dc 25 3f
       0.3445283 -0.23055284 0.0654328 0.6478907

output.weight f4 [1, 64]
000000 ac 70 a6 3e 6a 2e 36 be f4 89 0b be 46 8b 5b 3e
       0.32507837 -0.17791143 -0.13626844 0.21439847
000010 6f 9d d3 bd 3c 38 d3 bd 7c 32 38 3e 91 59 aa 3e
       -0.103327624 -0.1031346 0.17988008 0.3327146
000020 c2 e7 88 3e 8a ac 2e be d9 e6 27 bf 72 0f 1a be
       0.26739317 -0.17058006 -0.6558662 -0.15044954
000030 40 eb fc 3d 5f 41 01 bf d2 d2 66 be 4e 1d 11 3e
       0.12349558 -0.50490373 -0.22541359 0.14171335
000040 b1 bd ac be ab a9 ba 3e 74 83 a8 be 23 bb 90 be
       -0.33738473 0.3645757 -0.3291279 -0.28267774
000050 40 d3 2c be ff 9a 93 3e c3 75 10 be b6 02 05 3e
       -0.1687746 0.2882919 -0.14107423 0.12989315
000060 ae 90 ea be f8 b3 0b be a8 6e 77 be 27 7f f4 be
       -0.45813507 -0.13642871 -0.24163306 -0.4775326
000070 28 08 02 bf 93 f0 4e 3e 04 e7 07 bf 48 34 0f be
       -0.50793695 0.2020896 -0.53086877 -0.13984787
000080 05 ca 29 be da 3e f1 be 48 d1 29 be 46 ee 3b 3e
       -0.1658097 -0.47118264 -0.1658374 0.18352613
000090 61 68 3b 3e e4 77 f9 3e cf 11 aa be d7 4a e7 3d
       0.18301536 0.48724282 -0.33216712 0.112935714
0000a0 eb d3 e2 be 27 5d 53 3f 0d d3 89 3e 6f 70 88 3e
       -0.44302306 0.82564014 0.2691883 0.2664828
0000b0 6c 93 fa be 1f 35 df be 9d bd 1f be a4 49 26 be
       -0.489406 -0.43595216 -0.15599675 -0.16239029
0000c0 4b 0a 87 be 57 27 69 be d6 59 1b be 39 97 9e 3e
       -0.2637504 -0.22768913 -0.15170988 0.3097475
0000d0 17 3c 96 3d 03 6d 1b be ba 08 20 3e ca 21 29 bf
       0.0733568 -0.15178303 0.15628329 -0.66067183
0000e0 fb 3c 02 be 08 a5 db be e6 ba a4 be 42 e4 8a 3e
       -0.12718575 -0.42899346 -0.32173842 0.27127272
0000f0 39 70 44 3e fc 85 cc be b9 0f 02 be 2a 82 52 3e
       0.19183435 -0.39945972 -0.1270131 0.20557466
