Data/Player1/Model-regTest2.pth (torch, 53902 bytes, 5 tensors)

linear1.weight f4 [128, 34]
00000000: 27ce febd 02bf 94bd aacd d0bd 0199 c0bc
00000010: 9da9 d1bc 38c7 8e3d f40f b9bd 4648 86bd
00000020: 0e8c a83d 8525 19bc 45f0 9d3d c060 1d3e
00000030: f007 cebc b2f0 4dbd 2b24 213d 8491 5e3e
00000040: 1149 1f3d a068 90bd 137e 1cbd 98a4 56bd
00000050: 43c5 2c3e 471b 7d3e 54fd 093e 60c2 073e
00000060: e9fb f03d 580f 0ebb d79b 20be 227d 893c
00000070: cf07 03c0 56d9 17be f212 d33c b147 453d
00000080: 05e3 a8bd 25e5 3bbd ae4c cebe 1b18 5ebe
00000090: 728a cfbc ff96 82bd 0cd6 42bd 844f e8bd
000000a0: df6e cbbc 7e78 b03c 35fb 37be 5e4c 2fbe
000000b0: 68a9 00be 99d9 25be 6574 89be 5548 05be
000000c0: 6369 41be 8bf1 21be 1cf2 723c 1b2a 53be
000000d0: cd2f e1bd b990 9d3b cdc3 bbbc 5b8a e53e
000000e0: cc40 c03d c89b ffbd a256 40bc 7b8f c6bd
000000f0: 4d65 21bf 2f8e e5bd 5554 0f3f 32e5 76be
00000100: 8e0b 093d 97c6 5dbd 6215 243c 742e 0e3e
00000110: 5421 8cbe 2a89 1abb 390f bcbe 08ef aebe
00000120: b92a 64be c4bc ddbd 01db 8f3d 36df 0dbb
00000130: d488 ac3d 2f8a 5f3e 22bb 67be a1fb 323d
00000140: fa58 b7bd 361b 81bd 47b8 39be baa8 a7be
00000150: 77e7 64be 7a66 1fbd 401b c0bd b305 163e
00000160: ecec d53d 9653 bc3d 3bd2 9d3d c166 57bd
00000170: ab3c c3bd a4cc 723d 583f 8b3e 7e13 d4be
00000180: 3f53 8a3e 370d b3bd 2e6c a2be 94e8 67bd
00000190: 1d22 08bc f715 233e 2f83 20bd 3030 3fbe
000001a0: 531e 2abe 2f8f e6bd e23c 6fbe d9d5 fcbc
000001b0: f283 60bd b549 55be 9d12 f23c 5e64 443b
000001c0: 0fe3 1abe 2118 a6bd ecaf d6bc 2f14 7ebd
000001d0: 5274 823d da41 50bd 7656 3cbd 06f6 5a3d
000001e0: 20be 433b 8d66 41bd ecff 98bd 37b4 d9bd
000001f0: d6fc 153d f9b5 6e3e 1efc 7f3d b801 82bd
00000200: a518 0d3e 9437 553d f58a 6c3e 724e 20be
00000210: 6eac 23be bdee 1b3d 4a41 9f3d 9af3 8f3d
00000220: f23b 86be 7dba 1ebe 9bf8 35be 07f0 4ebd
00000230: 4182 2bbe 7813 44be 854c dfbc ee00 d3bd
00000240: d7b9 e6bc 40bb 1ebe 53a2 4dbd f1a8 0fbe
00000250: 49a0 36be c8af 34bd f169 073d f0a5 a1bd
00000260: c3c5 973d f285 733d 8d8f 58be 28e6 b73b
00000270: 27d1 ee3d 8036 203e 0aa7 ab3e d341 023e
00000280: 4887 023d 1b82 7fbc b499 a8be 8f78 f9bd
00000290: 030f 8b3c 8fb5 85be a4de 18bd bae2 043d
000002a0: 8789 b83c 365b a43d c59b 70bd d88f 52be
000002b0: 265c 33bd 3614 09be 14a5 3cbe c3d6 20be
000002c0: aa07 0abd 734c 22be 8da0 85be 6859 a1bc
000002d0: 4127 f7bd ef92 5cbd 5f55 d4bd bacf 01be
000002e0: a96c 39bd e9d5 4d3d 5034 eabd e602 2dbe
000002f0: e879 a2bd 0deb 5a3e 07bc 183e 34c2 8cbc
00000300: 0539 473e 5520 933d d063 04be 0d87 dbbd
00000310: 2082 3fbc b97e 183e 95d0 4c3b 67f7 aabc
00000320: 8860 183e 6de5 373d 6ae1 593d 53f0 fd3c
00000330: d9e5 87bd 715a 0b3b b460 65bd bad6 e4bd
00000340: c860 a9bd 15ad 273d 51ec 3bbe bd28 593d
00000350: 34f3 0dbe ed68 d4bc 5a40 a2be 829e 97be
00000360: f5fa 163d 298c df3c 8022 26be c41e cfbd
00000370: 1d90 a1be 6cf2 cdbd 8263 17be 8f86 843d
00000380: 529c ffbb e678 323d 100d 643e 7b3a 9b3e
00000390: 1021 7d3d 90f2 ae3d e7ab 2ebc 49c0 80be
000003a0: 7aaf e6bc cb67 2c3e 3131 c93d edd5 83bd
000003b0: 9bb4 88bd eea0 c53d 1152 d83c 0523 7b3c
000003c0: 16e2 63bd 75ff f9bd 6610 b4bd 8a06 8ebe
000003d0: b516 9a3e 053d 4f3e f728 3abe 189a 6e3e
000003e0: 3a37 c43d 9c49 0d3e fcf0 753d c167 a1bd
000003f0: 9b40 14be 0874 3c3e 99c1 653e a3a9 143d
-0.12441664 -0.07262994 -0.10195477 -0.023510458 -0.025593573 0.06971592 -0.09036246 -0.06556754
0.08229838 -0.009347324 0.077118434 0.15368938 -0.02515027 -0.050278373 0.039341133 0.21735197
0.03888804 -0.07051206 -0.03820617 -0.052403063 0.16872124 0.24717437 0.13475543 0.13257742
0.11766798 -0.0021676626 -0.15684448 0.0167833 -2.0473516 -0.14829001 0.02576587 0.048164073
-0.082464255 -0.045872826 -0.40292877 -0.21688883 -0.02533457 -0.063764565 -0.047567412 -0.113432914
-0.02483314 0.02154183 -0.17966922 -0.17118976 -0.12564623 -0.16196288 -0.26846614 -0.13015874
-0.18887858 -0.15814798 0.014828231 -0.2062153 -0.109954454 0.004808512 -0.022920514 0.4483212
0.09387359 -0.12480885 -0.011739405 -0.096953355 -0.630452 -0.1120876 0.55988055 -0.24110869
0.033458285 -0.05414447 0.010014864 0.13884908 -0.27369177 -0.0023580291 -0.36730364 -0.3416674
-0.22281922 -0.1082702 0.070241936 -0.0021647937 0.084245354 0.21830057 -0.22629979 0.043697003
-0.08952518 -0.06304018 -0.18136702 -0.32745916 -0.22353922 -0.03891609 -0.093801975 0.14650612
0.1044558 0.0919563 0.07706114 -0.052588228 -0.09533056 0.05927719 0.27196765 -0.4142112
0.27016637 -0.08742755 -0.3172316 -0.05661829 -0.0083089145 0.15926348 -0.039187606 -0.18670726
-0.1661313 -0.11257779 -0.23363069 -0.03086369 -0.054813333 -0.20828898 0.029549891 0.002996705
-0.15125678 -0.08110071 -0.026206933 -0.062030967 0.063698426 -0.05084405 -0.045980893 0.053457282
0.0029867962 -0.04721694 -0.07470688 -0.106300764 0.036618076 0.23311605 0.062496297 -0.06347984
0.13778932 0.052054957 0.23099883 -0.15654925 -0.15983745 0.038069475 0.07776125 0.07028885
-0.2621761 -0.15500827 -0.17770617 -0.050521877 -0.16748907 -0.19148052 -0.027258167 -0.10302912
-0.028164787 -0.15501118 -0.050203633 -0.1402929 -0.17834581 -0.04411295 0.033060018 -0.07892978
0.07410767 0.059453912 -0.2114851 0.0056121536 0.116609864 0.1564579 0.33525878 0.12720422
0.031867296 -0.015594984 -0.32929766 -0.12181198 0.016974932 -0.2611508 -0.0373217 0.032442786
0.022526516 0.080252096 -0.058742303 -0.20562685 -0.04378905 -0.13386616 -0.18422347 -0.15706925
-0.033698715 -0.15849476 -0.26099053 -0.019695953 -0.12068034 -0.053851064 -0.10367846 -0.12676898
-0.045269642 0.05025283 -0.11435759 -0.16895637 -0.07933408 0.21378727 0.14915477 -0.017182447
0.19455345 0.07183901 -0.129287 -0.10719118 -0.011688739 0.14892091 0.0031252254 -0.020869924
0.14880574 0.04489653 0.053193487 0.030998385 -0.06635637 0.0021263624 -0.056000426 -0.11173768
-0.08270413 0.04093655 -0.18351866 0.053017367 -0.13862306 -0.025928939 -0.3168972 -0.2961312
0.036860425 0.027288513 -0.16224098 -0.1011329 -0.31555262 -0.10056004 -0.14784053 0.064709775
-0.0078006173 0.04357233 0.22270608 0.30318055 0.06179911 0.08542359 -0.010661102 -0.25146702
-0.028159846 0.16836469 0.09823836 -0.064372875 -0.06675073 0.096498355 0.02640632 0.0153281735
-0.055635534 -0.12206928 -0.0879219 -0.27739364 0.3009545 0.20238121 -0.1817969 0.2330097
0.09580846 0.13797611 0.060044274 -0.078811176 -0.1447777 0.18403637 0.22437133 0.03629459

linear1.bias f4 [128]
00000000: 5bd0 19bf e038 1cbe 6ae6 afbd 123a edbe
00000010: b423 4cbf 5ae0 37bf 562d 33bf 01e6 033e
00000020: dcd0 2b3e 5a3e 1e3f e328 683f ce7b 543f
00000030: e708 703f bc57 e7be 3c4e 803f 58d2 8e3e
00000040: 8752 273f 585e 6cbf 0486 673f ee9c 573f
00000050: 4189 233f f194 5ebe 1254 33bf 2f78 4b3f
00000060: fac9 4f3f d042 abbe 020c fbbe 08a8 c13e
00000070: 378d 13bf 57eb 533f 9c6b 583f 827f 44bf
00000080: 9514 563f 091b 083e 0fd6 453f 0a74 2cbe
00000090: e4af 3f3f f37d 9f3e fccb 07bf 1ac9 003f
000000a0: 5424 cf3e 3acc 9cbe ec57 113f ae2c 883e
000000b0: 3fc7 66bf 6450 513f 0732 113f be2f 46bf
000000c0: d038 b13e 8b4d 13bf 059c c4be 5a98 adbe
000000d0: dba2 78be 6c43 283c 2710 513f 1db9 2b3f
000000e0: b65d 39bf 580b 663f 85ac 1bbf 873c 0fbf
000000f0: f1af 2e3f a83b 1f3f 305d b83a 4cf2 833f
00000100: 37a7 8abd 5269 debe 1e44 6d3f 13b6 433f
00000110: 840f 47bf a1e1 4fbe cc63 8b3f 42d2 f73e
00000120: 2465 9dbe 3284 96be a8cb 213e b7da edbe
00000130: 2fc8 0e3f 905c 443f b6db 50bf a3c2 9abd
00000140: e272 433f fa57 f63e 01f8 63bf ccb3 613f
00000150: 072e 10bf 28c1 0ebf 7f65 95be 1f05 b6be
00000160: de2f 493f a4cb 813f 135d b93e d80b 0dbf
00000170: dd03 1a3f 3031 d83e 8313 493f 439c 123f
00000180: 56eb be3e 51d9 3a3f 2297 4fbf 3ecd 6b3e
00000190: 782b aa3e 3f78 103f 5a06 273f b439 48be
000001a0: dd4b 583f 6f3f be3e e26b ec3e 103d f93e
000001b0: 9a53 b93e 7f30 133f 767a 5ebf 43ca 1dbf
000001c0: 6f70 1e3f f3f8 523f a616 b7bd c4b0 833f
000001d0: 48c8 693f 5de6 5e3f 6441 ec3e 0047 a53e
000001e0: 8efc 453f dc04 31bf 98da d9be fc10 003f
000001f0: f7b6 bbbe 7731 f9be 7404 cfbe 610c aa3e
-0.6008355 -0.15256071 -0.0858887 -0.46333367 -0.7974198 -0.7182671 -0.6999105 0.12880708
0.16778892 0.6181389 0.9068739 0.8300141 0.93763584 -0.45184124 1.0023875 0.27894855
0.653603 -0.9233146 0.90438867 0.8422383 0.6388131 -0.21736504 -0.70050156 0.7948026
0.81167567 -0.3344941 -0.490326 0.3782351 -0.5763735 0.82780975 0.845392 -0.7675706
0.83625156 0.13291563 0.7727975 -0.1684114 0.7487776 0.3115078 -0.5304563 0.50306857
0.40457404 -0.30624563 0.56774783 0.26596588 -0.90147775 0.8176329 0.5671696 -0.774166
0.34613657 -0.57540196 -0.38400283 -0.33905298 -0.24280874 0.010269981 0.8166527 0.67079335
-0.72408617 0.8986106 -0.6081012 -0.5595173 0.68237215 0.62200403 0.0014065858 1.0308318
-0.06770175 -0.43439728 0.92682064 0.764497 -0.7775805 -0.20300914 1.088983 0.484026
-0.30741227 -0.29397732 0.15800345 -0.4645593 0.55774206 0.7670374 -0.8158525 -0.07556655
0.7634717 0.48113996 -0.890503 0.88164973 -0.5632023 -0.55763483 -0.29178998 -0.35550782
0.78588665 1.0140271 0.36203822 -0.550962 0.60162145 0.42225027 0.785454 0.57269686
0.37288922 0.7298785 -0.81089985 0.23027512 0.3323629 0.5643348 0.65244067 -0.19553262
0.8449076 0.3715777 0.46176058 0.486794 0.36196595 0.57495874 -0.8690561 -0.6163675
0.6189031 0.82411116 -0.08939867 1.028832 0.9132123 0.87070256 0.4614364 0.3228073
0.7733849 -0.6914804 -0.42549586 0.50025916 -0.3666303 -0.4867055 -0.40433085 0.3321257

linear2.weight f4 [64, 128]
00000000: d580 d9be 52c3 74bf f58f 2cbf d8f3 81bf
00000010: 9200 11bf 0147 29bf eca2 9f3e 9c92 2c3e
00000020: c830 22be 08f0 03bf 4096 e13b 262a f03d
00000030: f9e2 d2be 3918 03bf 25c5 5d3d 4705 51bf
00000040: d022 59bf f41f e03c d5d6 febe 21a6 a63c
00000050: 61f1 0639 330d a23e ca5b e0be 150e 22be
00000060: 0894 15bf 904f 45bf 6b60 90ba 4ae9 c03e
00000070: 5b47 94bf 41b6 adbe 242f a3be 75cf 60be
00000080: d335 9abd 20d8 f43e d298 b13e 3c3d 1f3f
00000090: 2d0f f2be 8d63 acbe ce53 0b3e bb83 1bbe
000000a0: 0b88 5fbe 33b0 663e 79e9 b9be 7042 7d3e
000000b0: 55a5 9eb9 1c15 77bd 1ad0 44bc eb3d 53be
000000c0: 85b7 a33e cdef 74bf bbff cd3e 3b5f 413e
000000d0: 492a 313e 9236 963d f72c 1abe 6c44 253e
000000e0: 452c 423e c055 cdbd b87f bcbf e37f 5d3d
000000f0: a50f 2abf 752b 6cbd 57fd 32bd 5088 28bf
00000100: f778 283e 5835 6c3e 2052 553e b204 7b3d
00000110: 719e 3c3e 35fd 47be 4734 09bf a491 99bf
00000120: 0e83 343d 93c9 623b 2e9e 48be 4e26 fcbf
00000130: 2f8f 0c3e 360d 13be cbd5 b43d b37b 8fbd
00000140: 4e69 da3d bde7 e3be 6c62 163e 75b1 1bbf
00000150: 62a1 6fbe 5dac d13d 0d58 abbe d10c 7bbd
00000160: b9a9 e63d b0a8 ec3d 4fe4 89bf 6ce7 f2bd
00000170: 73bd 24be 68c0 05bf a84a 9fbe 8f76 963e
00000180: d725 e8be 73f4 f1bd dd35 47bc 9500 57bf
00000190: 9183 acbf 09b4 63bf 8754 2dbe b1c8 743f
000001a0: bf5d 32be 1a7a 323e 69e4 86be 0499 d9be
000001b0: 6041 d1be 1a7c 463e 6af9 ad3e caa7 683e
000001c0: 9b74 6cbf f0d5 0ebf 7473 cebd 34d7 e2be
000001d0: 8ce7 07be 2612 903d 5f70 7abf a3ff eebe
000001e0: ef08 dfbd 83ee 44be 42d7 f93d acf1 42bf
000001f0: e625 6e3c c112 df3d c5d0 4fbe 7c0e 573e
00000200: d970 203c 1921 253e 16c2 003e e391 6f3c
00000210: 22be d93d d8f5 44bd 570c abbc 23bb 203e
00000220: b642 3cbe 3529 383d f769 193e e790 f2bd
00000230: 9bc4 2f3b 89fb c83d a6b2 d83d b4e4 89be
00000240: 3330 a4bb 86de e73c bb1a a53c e785 3ebe
00000250: 7922 c9bd 2575 3a3e 6b77 b43d 7141 c43d
00000260: e862 103e a92e 8f3d 12f0 c13b b4f9 04be
00000270: 8ed0 f23d 013a e73d c68c 1d3d e983 0d3e
00000280: 7a48 edbd 58bf 31be 1bdd 71bd 545c edbe
00000290: 3a54 3e3d e45c bd3d 61a6 45bd 63dc 373e
000002a0: bfba 493d c0a1 433d 903b 253e 2d16 8a3d
000002b0: 73f8 893d 2544 cb3d fd4e e83d 9a53 a73d
000002c0: 3486 dbbc 235d 28bc 4acc bbbd 4208 91bd
000002d0: 7308 a4bd 3dce 5d3d b39d 1e3e dbf7 9abb
000002e0: 7032 523d 3dd8 a83d 5d46 8e3b 37b2 0fbc
000002f0: f6b2 f63c bb32 66bd 7f23 71bc 768d ff3d
00000300: 3ec0 0a3d 2402 59bd 5d92 e03d b9fb 58bd
00000310: 3704 463e 96cc 503e ac91 543e d917 e03d
00000320: 501e 043e 6434 533d bcd8 afbe 9281 443d
00000330: b716 ffbd d957 ecbb 4ac2 703c 85af 05bf
00000340: 753b 523e 74e6 903d 26b5 48bc 19ef 5b3e
00000350: 5a7e 3abe 52c0 4e3c 148c 1cbd 1ead cc3d
00000360: 4bd6 4dbd 7152 c53d 7242 f53d 4fc8 03be
00000370: 60bb 0e3d 524a 01be 8346 433d 4872 aabd
00000380: 6bf8 2c3e 94f3 0d3e ce25 38be c66c 053e
00000390: a7a9 6f3d 7c1f 023c 9115 703c dd8a 90bf
000003a0: a995 8fbd 9232 5dbd 4e7f a3be 014a 933c
000003b0: 57a8 eabe 706c ffbd b6a5 953e eb19 9fbd
000003c0: 572b 31be 8621 053e b8ea 34be 53ac a23d
000003d0: 39bb a83d 6420 e53c 322c c5bd 2fcb 173e
000003e0: 842c 11bc 9097 f5bc 6dfa 57be 0982 67bd
000003f0: 1470 d9bd 1dd9 6d3d 5305 183e f1f0 9dbc
-0.42481104 -0.95610535 -0.6740716 -1.015254 -0.56641495 -0.6612397 0.31178987 0.16852802
-0.15838921 -0.51538134 0.0068843663 0.11726789 -0.4118879 -0.51208836 0.05414309 -0.8164868
-0.84818745 0.027358986 -0.4977328 0.020342888 0.00012869156 0.31650695 -0.4382003 -0.15825684
-0.58429 -0.7707453 -0.0011015063 0.37677985 -1.1584276 -0.3392811 -0.31871903 -0.21954139
-0.075297974 0.4782114 0.34686905 0.6220281 -0.47277203 -0.336697 0.13606188 -0.1518697
-0.2182924 0.22528152 -0.36310938 0.24732375 -0.0003025929 -0.060322866 -0.012012506 -0.20629089
0.31975952 -0.95678407 0.4023417 0.18883984 0.17301287 0.07334627 -0.15056215 0.16139382
0.189622 -0.10026121 -1.4726477 0.05407704 -0.6643012 -0.05765863 -0.043698635 -0.65832996
0.16452394 0.23067224 0.2083211 0.061283775 0.18419816 -0.19530185 -0.53595394 -1.1997571
0.044070296 0.003460501 -0.19591591 -1.969919 0.13726495 -0.14360508 0.0882984 -0.07006016
0.106646165 -0.4451274 0.14685982 -0.6081765 -0.23401406 0.10237954 -0.33465615 -0.06129152
0.11262841 0.11555612 -1.0772799 -0.118605465 -0.16087894 -0.52246714 -0.31111646 0.29387328
-0.4534137 -0.11814203 -0.012158838 -0.83985263 -1.3477651 -0.88946587 -0.16926776 0.9561873
-0.17418574 0.1742939 -0.26346138 -0.42499554 -0.4087019 0.19383278 0.3397935 0.22720256
-0.92365426 -0.5579519 -0.10080615 -0.44304812 -0.13271922 0.070347115 -0.97827715 -0.4667941
-0.10890376 -0.1923161 0.1219926 -0.7615001 0.014535403 0.10892249 -0.20294483 0.21001619
0.00979253 0.16125907 0.12574038 0.014622184 0.10631968 -0.048086017 -0.020879908 0.15696387
-0.18384823 0.044961173 0.14981829 -0.11844044 0.0026820067 0.098136015 0.105809495 -0.269323
-0.0050106286 0.02830435 0.020154348 -0.18605767 -0.09821028 0.1820875 0.0881184 0.095827945
0.1410023 0.069913216 0.005918511 -0.12985879 0.11856185 0.1129036 0.03846433 0.13819851
-0.115860894 -0.17358148 -0.059048753 -0.46359503 0.046467043 0.09246233 -0.048254374 0.17955165
0.04925036 0.04776168 0.16136003 0.06742511 0.06736841 0.09925107 0.11343191 0.081702426
-0.026797391 -0.010276112 -0.091698244 -0.07081653 -0.08009424 0.054151762 0.15489845 -0.0047292537
0.051317632 0.08244369 0.004341884 -0.008770517 0.030114632 -0.056200724 -0.014717936 0.124781534
0.033874743 -0.052980557 0.109654166 -0.052974436 0.19337545 0.20390543 0.20758694 0.109420486
0.12902188 0.051563635 -0.34345043 0.04797513 -0.124555044 -0.0072126207 0.01469476 -0.52220947
0.20530494 0.070752054 -0.01225022 0.21477927 -0.18212262 0.012619095 -0.038219526 0.09993957
-0.050253194 0.09634865 0.11975564 -0.1286938 0.034846663 -0.12626007 0.047674667 -0.08322579
0.16891639 0.13862449 -0.17983171 0.13029775 0.058511402 0.007942077 0.014653579 -1.1292378
-0.07010967 -0.054003306 -0.31933063 0.017979624 -0.45831558 -0.12471855 0.2922799 -0.07768615
-0.17301689 0.1300107 -0.17667663 0.079430245 0.08238835 0.027969547 -0.0962757 0.14823602
-0.008860711 -0.029979497 -0.21091624 -0.056520496 -0.1061708 0.058068383 0.14845781 -0.019279929

linear2.bias f4 [64]
00000000: 4961 d4be d4b1 5a3f 86d9 653f e4dc d7be
00000010: 241d 253f 1112 683f b6d6 473f 79dc c2be
00000020: 81d8 3b3f 00f4 19bf cfb0 623f bd94 6e3f
00000030: eeb5 4d3f d2e2 00bf 7f3c 653f 729c 583f
00000040: fa25 453f b766 413f f476 f5be e9ae e1be
00000050: a2c3 6e3f 2639 633f 6f9c 14bf f8d1 4c3f
00000060: cd48 1ebf 1cde e4be 188f dbbe a5e2 4c3f
00000070: aa21 403f 48bf 12bf dc76 fabe 1a8e 663f
00000080: a7ef 1fbf 4d2f 673f 38cf 5f3f 9065 e8be
00000090: 1a08 f5be eff4 363e 2153 19bf 8d85 5bbf
000000a0: 44a9 503f 3e0e 3f3f b7a5 513f 038e 26bf
000000b0: f916 663f d993 603f 4f01 3dbf 3f24 25bf
000000c0: 0a28 4d3f 13dc f0be ac0c 1ebf d0eb 2e3f
000000d0: 1435 22bf 8e16 5b3f ee5f 14bf 1dd1 0dbf
000000e0: 2d83 3a3f 52fd 14bf 3724 1fbf 1aff 08bf
000000f0: 4fc9 14bf 8a66 0ebf b918 a2be b278 5b3f
-0.41480473 0.85427594 0.8978504 -0.42160714 0.6449759 0.9065257 0.78062 -0.38058832
0.73377234 -0.6013794 0.8855104 0.93195707 0.8035573 -0.503461 0.89545435 0.84613717
0.7701107 0.75547355 -0.47942317 -0.44078758 0.9326726 0.88759077 -0.580512 0.80007887
-0.61829835 -0.44700706 -0.4288261 0.8003333 0.7505137 -0.5732312 -0.48918808 0.9006058
-0.62475055 0.9030655 0.87425566 -0.45389986 -0.47857744 0.17866872 -0.5989247 -0.8575066
0.8150828 0.74631107 0.81893486 -0.6506044 0.89878803 0.877256 -0.7383012 -0.6450843
0.8013922 -0.47042903 -0.61738086 0.6832857 -0.6336224 0.8558129 -0.5795888 -0.55397207
0.7285641 -0.58199036 -0.62164634 -0.53514254 -0.5811967 -0.5562521 -0.31659487 0.8573104

output.weight f4 [1, 64]
00000000: 1e22 3ac0 177d 8c3e 7fe6 403e 922c 41bf
00000010: ffce dc3e e98d 323f 2007 c93e bbef 80bf
00000020: 6850 7b3f 3da5 84bf 3500 1b3e b885 353f
00000030: 9f22 653e 0697 ffbe 0dc8 9b3e b0f7 cc3e
00000040: 7454 cf3e 8fad 513e 9e84 efbe 104c 3bbf
00000050: e77b ee3e df0d 9b3e 8bdc 3fbf 3eb6 fc3e
00000060: 80a7 20bf 3dde 2fbf c547 a4bf 623b ed3e
00000070: 72eb bc3e c1d4 04bf c04d 15bf 0a17 f03e
00000080: 1225 ddbe d993 de3e 401b a53e 89a1 66bf
00000090: 38b3 2ebf 1745 6d3f d270 2abf 43f9 27be
000000a0: d8d9 e63e f825 d23e 5da2 1f3f 87a3 ddbe
000000b0: 8e81 db3e 63e3 893e d1bf ccbe 2fe5 59bf
000000c0: 8798 363e 2a55 30bf 11bd 84bf 5d57 203f
000000d0: d82d 0abf b986 5b3e 8058 82bf 9de9 60bf
000000e0: 3c0b 5f3e 4545 36bf ae7c 91bf d27b ffbe
000000f0: cb4f 1ebf fe09 0ebf a479 9cbf a1ac dc3e
-2.9083323 0.27439186 0.18837927 -0.75458634 0.43126675 0.6974779 0.39263248 -1.007316
0.98169565 -1.0362927 0.15136798 0.70907164 0.22376488 -0.4991991 0.30426064 0.4003272
0.4049412 0.20476364 -0.46780866 -0.7316294 0.46578905 0.3028402 -0.74945897 0.4935779
-0.62755585 -0.68698484 -1.2834402 0.46334368 0.3689838 -0.51887137 -0.5832176 0.46892577
-0.43192345 0.43472174 0.32247353 -0.90090233 -0.68242216 0.9268355 -0.665784 -0.1640368
0.45088077 0.41044593 0.6235712 -0.43288824 0.4287228 0.26931295 -0.39990094 -0.8511533
0.17831622 -0.6887995 -1.0370198 0.62633306 -0.539762 0.21438111 -1.0183258 -0.87856466
0.2178163 -0.71199447 -1.1366174 -0.49899155 -0.61840504 -0.55483997 -1.2224622 0.43100455
