Data/Player1/Model-test5.pth (torch, 53872 bytes, 5 tensors)

linear1.weight f4 [128, 34]
0	0xbe5a0237	-0.21289907
1	0xbf733504	-0.9500277
2	0xbe59962b	-0.21248691
3	0x3edddc3e	0.43332094
4	0xbe43e336	-0.19129643
5	0xbe7e9f5c	-0.24865478
6	0xbe42d292	-0.19025639
7	0xbeeec57d	-0.46635047
8	0xbf773eee	-0.965804
9	0x3d069464	0.03285636
10	0xbeb9c16c	-0.36280382
11	0xc01daf77	-2.4638345
12	0xbed98f4c	-0.4249214
13	0x3e96d60f	0.2946019
14	0x3da04721	0.07826067
15	0x3b01bb49	0.0019795469
16	0xbfea87b5	-1.8322664
17	0x3f9dbf04	1.2323918
18	0x3e87f739	0.26555803
19	0x3f244de8	0.64181376
20	0x3f268e64	0.6506102
21	0x3fb47254	1.409739
22	0x3f5fe4e3	0.8745863
23	0x3fa5e7ef	1.2961406
24	0x3e026907	0.12735377
25	0xbdf6dfbc	-0.12054393
26	0xbfba8dae	-1.4574487
27	0xbfe1e81c	-1.7648959
28	0xc033dcae	-2.8103442
29	0x3e32b300	0.17451096
30	0x3e2e58b8	0.17026031
31	0xbcbf497f	-0.023350475
32	0xbd779af9	-0.060450528
33	0xbe015cc6	-0.12633047
34	0x3e78532c	0.24250478
35	0x3fbf1e10	1.4931049
36	0xbc57bcb1	-0.013167546
37	0x3f608253	0.8769886
38	0xbea517d7	-0.3224475
39	0xbf59ad01	-0.8502961
40	0xbedd9a4c	-0.43281782
41	0x3ee62092	0.44946724
42	0x3e9a65a7	0.3015568
43	0x40048af1	2.0709803
44	0x400fed68	2.2488651
45	0xbf3ebd6f	-0.745078
46	0x3f5e7201	0.86892706
47	0xbfe63124	-1.7983747
48	0x3fa86fce	1.315912
49	0xbe860091	-0.26172307
50	0xbfc758f6	-1.5574024
51	0xc01a4e1b	-2.4110172
52	0xbdc8b6c0	-0.09800482
53	0x3ed0858e	0.40726894
54	0xc03496a8	-2.8216953
55	0xbebd81d3	-0.3701311
56	0x3f55d20e	0.83523643
57	0x3dd89620	0.10575509
58	0x3eac6626	0.33671683
59	0xbe963de2	-0.29344088
60	0x3f398492	0.7246791
61	0x3e44e25a	0.19226971
62	0xc02cf4be	-2.7024379
63	0xbed41844	-0.41424763
64	0x3e16ddbd	0.14733024
65	0x3dcfb096	0.10141103
66	0x3d24cf5c	0.040236816
67	0xbd3b3c53	-0.045711827
68	0x3e97ba66	0.29634398
69	0xbd0a3ec5	-0.033751268
70	0xbd712354	-0.058871582
71	0xbd21cad2	-0.039500065
72	0xbddf36e5	-0.10899142
73	0x3f0a7d6c	0.5409763
74	0xbe6ae3f6	-0.22938523
75	0xbe843877	-0.2582433
76	0x3e2517ad	0.16122313
77	0xbf7089fa	-0.93960536
78	0xbdf3a09a	-0.11895867
79	0x3e71d4a7	0.23616277
80	0xbf22710f	-0.63453764
81	0xbee5934a	-0.44838935
82	0x3d0b3a02	0.033990867
83	0xbf913fda	-1.1347611
84	0x3ef4d439	0.47818163
85	0xbf82faf1	-1.0232831
86	0x3ecca9fb	0.39973435
87	0xbf7b8d9e	-0.98262966
88	0xbfb3b660	-1.4040031
89	0xc08e7771	-4.4520802
90	0xc00080d9	-2.0078642
91	0xbf1f7ceb	-0.62299985
92	0x3a80b1d4	0.0009818622
93	0x3e9e1b51	0.30880216
94	0xbfd11623	-1.633488
95	0x4063572d	3.5521958
96	0x4092e2f4	4.5902042
97	0xbe1498df	-0.1451144
98	0xbdda052f	-0.1064552
99	0x3dd63a06	0.10460286
100	0xbd982066	-0.074280545
101	0x3db756e2	0.089521185
102	0xbec960c6	-0.39331645
103	0xbe24beb5	-0.16088374
104	0xbe82a245	-0.25514427
105	0x3f08812d	0.53322107
106	0x3df43f75	0.11926166
107	0x3f870aea	1.0550206
108	0x40188366	2.38302
109	0x3f1fecc7	0.6247067
110	0x4014d4de	2.3254924
111	0x3feb7e07	1.8397835
112	0x3f17d3a4	0.5930731
113	0x3f687150	0.907979
114	0x3f9cc2e6	1.2246978
115	0x3e2c40e1	0.16821624
116	0x3f78f299	0.97245175
117	0x3e8753b1	0.2643104
118	0x3d36d251	0.044634167
119	0xbe543348	-0.20722687
120	0xbdac1529	-0.084024735
121	0x3ed3d89d	0.413762
122	0xbf3ee55b	-0.7456872
123	0xbf33a46e	-0.70172775
124	0xbec1b766	-0.37835234
125	0xbf56d37d	-0.83916456
126	0x3e758826	0.23977718
127	0x3f11dd71	0.5697852
128	0x3fb51fe4	1.4150357
129	0x3fbb460a	1.4630749
130	0xc05a6dbc	-3.4129477
131	0xbe7751cc	-0.24152297
132	0xbd48a357	-0.048983898
133	0xbddb3de4	-0.10705164
134	0xbcdbae7f	-0.026816605
135	0x3d84a458	0.064766586
136	0x3dbb7389	0.09152896
137	0x3eafd64a	0.34343177
138	0x3f7f2493	0.9966518
139	0x3db71a5e	0.08940576
140	0xbe935e2c	-0.28782785
141	0x3f0ffe69	0.56247574
142	0x3e86be94	0.26317275
143	0xbfd1ef90	-1.6401234
144	0xbfa33b79	-1.2752525
145	0xbd1adce9	-0.037808333
146	0xbeaece40	-0.3414173
147	0x3bed224f	0.007236756
148	0x3eaa0188	0.33204293
149	0x3f6aa2d9	0.91654736
150	0xbf4c91db	-0.7991006
151	0x3ef254cf	0.4733033
152	0xc0280408	-2.625246
153	0x3f4b9875	0.79529506
154	0x3f2cb779	0.6746746
155	0x3fed018b	1.8516096
156	0xbe9de4c8	-0.3083861
157	0xc0123db2	-2.2850156
158	0xbdfe589c	-0.12419245
159	0xc022e623	-2.5452964
160	0xbe3dd619	-0.18538703
161	0xbeca48b6	-0.395086
162	0x3f71e1a2	0.94484913
163	0x3f5f5527	0.8723931
164	0xbf20b089	-0.6276937
165	0xbeff70b7	-0.49890682
166	0xbe04426a	-0.1291596
167	0xbdf8fe88	-0.12157923
168	0x3dbf5294	0.093419224
169	0xbe6e6221	-0.2327962
170	0xbeed45b6	-0.46342248
171	0x3fa69e21	1.3017007
172	0x3f7caaf8	0.9869838
173	0x3e4c6e3b	0.19963925
174	0x3e77e0cd	0.24206848
175	0x3dde8fb2	0.108672515
176	0xbf907f4e	-1.128885
177	0x3e00497e	0.12528035
178	0xbf01b3b4	-0.5066483
179	0xbfa965a3	-1.3234142
180	0x3f894d1a	1.0726655
181	0xbdfbd84b	-0.12297114
182	0xbfd93d0e	-1.6971757
183	0xbd746d8b	-0.05967478
184	0x3f02e237	0.51126426
185	0xbfbc3fc3	-1.4706959
186	0xbf52930b	-0.8225562
187	0x3e79c8cc	0.24393004
188	0x3e818f72	0.25304753
189	0x3f442d1c	0.7663133
190	0xbf3272e3	-0.69706553
191	0xbe120e88	-0.14263356
192	0x3f7004b9	0.93757206
193	0xbebe673b	-0.37188134
194	0x3e1c836f	0.15284513
195	0xbce5f85e	-0.028072532
196	0x3fa940ac	1.3222861
197	0xbebff9c8	-0.37495255
198	0xbfd8ffaf	-1.6953028
199	0x3ca7178a	0.020396966
200	0xbfeb278a	-1.8371441
201	0xbefcaba9	-0.49349716
202	0xbfc35c11	-1.5262471
203	0xbe2d3175	-0.16913398
204	0x3d87b9ae	0.066272125
205	0xbe4d5b7c	-0.2005443
206	0xbeda64d6	-0.42655057
207	0xbf3f656a	-0.7476412
208	0xbef31627	-0.47477838
209	0x3f744a1b	0.95425576
210	0xbed045ce	-0.40678257
211	0xbf199ce9	-0.6000505
212	0x3eea1d4c	0.45725477
213	0xbfa9c8e1	-1.3264428
214	0x3f92658e	1.1437242
215	0x3f0d8a61	0.55289274
216	0x3fcd444e	1.603647
217	0xbf166bf8	-0.587585
218	0x3f8ed13b	1.1157602
219	0x3eb8a709	0.36064938
220	0x3f34e10b	0.7065589
221	0x3fda7f43	1.7070087
222	0x3f0bacb8	0.5456042
223	0xbef19665	-0.47185054
224	0xbedf76cf	-0.4364533
225	0x3f833c3e	1.025276
226	0x3ec38c83	0.3819314
227	0x3e2a542c	0.16633672
228	0xbe36d370	-0.17854095
229	0xbe9f4f60	-0.31115246
230	0xc0020471	-2.031521
231	0xbf96b99e	-1.1775396
232	0xc0e8502e	-7.2597876
233	0x3f447553	0.7674152
234	0x3aedf584	0.0018154834
235	0xbdbf954f	-0.0935465
236	0xbeb881c2	-0.36036497
237	0x3df807b5	0.12110845
238	0xbf788f4e	-0.97093666
239	0xbf460836	-0.7735628
240	0xbf0d6c75	-0.5524362
241	0xbfb04f2b	-1.377416
242	0xbfc15fa8	-1.5107317
243	0xbf91f607	-1.1403207
244	0xbf55598b	-0.83339757
245	0xc00d0b3e	-2.2038112
246	0xbea5282c	-0.3225721
247	0xbf648690	-0.89267826
248	0xbff1adaf	-1.8881129
249	0xbfc07905	-1.5036932
250	0xbfa29a58	-1.2703352
251	0xbf76573f	-0.96226877
252	0xbf2f9481	-0.68585974
253	0x3e56b75c	0.20968384
254	0xbf1c50aa	-0.61060584
255	0xbf84e5b9	-1.0382606

linear1.bias f4 [128]
0	0xbfac8513	-1.3478111
1	0xbfbb77b4	-1.4645905
2	0x3d9c9267	0.076451115
3	0x4030b72c	2.76118
4	0xbe979d89	-0.29612377
5	0x3ecf8418	0.40530467
6	0xbe9d7868	-0.30755925
7	0xbfb93379	-1.4468833
8	0xbfc49db2	-1.5360625
9	0xbf1893d3	-0.5960056
10	0xbf1800cd	-0.5937622
11	0x3f141115	0.57838565
12	0x3f5955f6	0.8489679
13	0xbec6ef92	-0.38854653
14	0x3f932f0c	1.1498733
15	0x3d3843bc	0.04498647
16	0x3dd4e2c5	0.10394815
17	0xbd910d93	-0.07082667
18	0x3fba15c6	1.4537895
19	0xbeb738b0	-0.35785437
20	0xbdac3939	-0.08409352
21	0x3fea0d5d	1.8285328
22	0x3db4b6f2	0.088239565
23	0x3fda5b49	1.7059108
24	0x3f23e7bd	0.6402548
25	0x3f03135f	0.5120143
26	0x3e431ccc	0.19053954
27	0xbf020de1	-0.5080243
28	0xbfdbe4b6	-1.7179172
29	0xbe83e3bc	-0.25759685
30	0x3ec10c9c	0.37704933
31	0x3e1e4c83	0.15458874
32	0xbf227eaa	-0.63474524
33	0x3e29a8b2	0.16568258
34	0xbdba250a	-0.09089096
35	0xbf04d198	-0.51882315
36	0xbd9f5c18	-0.07781237
37	0x3c643904	0.013929609
38	0x3dd71ccf	0.10503542
39	0x3de43e42	0.11144687
40	0xbf996aa4	-1.1985669
41	0xbf9570ff	-1.1675109
42	0x3fe50f18	1.7895231
43	0xbf0833de	-0.53204143
44	0x3f468bb1	0.775569
45	0x3f079de5	0.529753
46	0x3e2c4d8b	0.16826455
47	0x3f31f81f	0.6951923
48	0xbf1993da	-0.5999123
49	0xbf8b3be8	-1.0877657
50	0xbface5cf	-1.3507632
51	0x3fb60c4a	1.42225
52	0xbf488a99	-0.78336483
53	0xbd1c9398	-0.038226694
54	0x3f898a09	1.074525
55	0x3ee493d2	0.44644028
56	0xbee6da22	-0.45088297
57	0xbf9d55d7	-1.2291821
58	0x3facdc4c	1.3504729
59	0xbe0c2f31	-0.13689877
60	0x3e4f5390	0.2024672
61	0xbdf52a9e	-0.11971019
62	0xbeb46033	-0.35229644
63	0xbfc1d2fd	-1.5142514
64	0xbf0e848e	-0.5567101
65	0xbe17a7b4	-0.14810067
66	0xbeb65f7e	-0.3561973
67	0xbed2cf2c	-0.41173685
68	0x40149760	2.3217392
69	0xbfa854a5	-1.3150831
70	0x3f7c6fb7	0.98607963
71	0xbede28f7	-0.4339063
72	0x3e42ed88	0.19035923
73	0xbeac5303	-0.33657083
74	0x3f92927a	1.1450951
75	0x3f9ccd52	1.2250159
76	0xbd3b0311	-0.04565722
77	0x3f119bd3	0.56878394
78	0xbfb82157	-1.4385175
79	0x3fc61719	1.5475799
80	0x3cbb9266	0.022896957
81	0x3f23f424	0.64044404
82	0xbfa1b0df	-1.2632102
83	0x3f650acc	0.894696
84	0x3f463576	0.77425325
85	0x3d9d2951	0.07673896
86	0x3f445110	0.7668619
87	0xbf6bf790	-0.92174625
88	0xbfa86d00	-1.3158264
89	0xbf31a33d	-0.69389707
90	0xbf2b328f	-0.6687402
91	0x3cbe4765	0.023227403
92	0xbdd5d157	-0.10440319
93	0x3fff1b46	1.9930198
94	0xbd4827ed	-0.0488662
95	0x3e17fe21	0.14843036
96	0xbf69e8fb	-0.91371125
97	0x3fd5d0d8	1.6704359
98	0xbdd4c39b	-0.10388871
99	0x400f1989	2.2359335
100	0xbc50b393	-0.012738126
101	0xbece7b9d	-0.40328684
102	0x3e906908	0.28205132
103	0xbf7ffa23	-0.99991053
104	0xbecaaf67	-0.39586946
105	0xbf3af5fd	-0.730316
106	0x3d9ea2c9	0.077458926
107	0x3e04a201	0.12952425
108	0x3ef837bf	0.4848003
109	0xbf0976fa	-0.5369717
110	0x3fcc528b	1.596269
111	0xbf91960b	-1.1373914
112	0x3ea913d3	0.33022937
113	0xbfbb4223	-1.4629558
114	0xbf145eb0	-0.5795698
115	0x3e3e2aa5	0.18570955
116	0xbf53879c	-0.826288
117	0x3f517d5b	0.818319
118	0xbe9f4d57	-0.31113693
119	0x3f5d1a5a	0.86368334
120	0x3df846b6	0.12122862
121	0x3f54d4da	0.83137286
122	0x3e32c9b6	0.17459759
123	0xbf27eb6d	-0.65593606
124	0xbfb0cf79	-1.3813316
125	0xbedbe9c0	-0.42951775
126	0x3ee28640	0.4424305
127	0xbd89839b	-0.06714555

linear2.weight f4 [64, 128]
0	0xbf276097	-0.6538176
1	0xbeaf548c	-0.34244192
2	0xbec7a265	-0.38991085
3	0xbeb3e7eb	-0.35137877
4	0xbfaea77c	-1.3644862
5	0x3c29b74b	0.010358642
6	0xbdcfd7ef	-0.10148608
7	0xbf1cca86	-0.61246526
8	0xbfcc0fdc	-1.594234
9	0xbed496a8	-0.41521192
10	0xbe9e4b8d	-0.30917016
11	0xbf802938	-1.0012579
12	0xbf4a9442	-0.79132473
13	0x3d186855	0.037208874
14	0x3b8be2fb	0.0042690015
15	0x3f11373b	0.567249
16	0xbf9061db	-1.1279863
17	0x3eaad31b	0.33364186
18	0xbfbe8b8a	-1.4886334
19	0x3ee132b8	0.43984008
20	0x3e32df62	0.17468026
21	0x3d15d286	0.036577724
22	0xbf4a5da5	-0.7904914
23	0xbecb586a	-0.39715892
24	0x3e29e155	0.16589864
25	0xbf5dbd1b	-0.8661668
26	0x3e8c488f	0.27399108
27	0xbd192b8f	-0.037395056
28	0x3e699e82	0.22814372
29	0xbef7ec22	-0.48422343
30	0xbe0da76f	-0.13833402
31	0xbeb87dcd	-0.36033478
32	0xbf848474	-1.0352921
33	0xbd67dedb	-0.056609016
34	0xbfda18f7	-1.7038869
35	0xbdfc3acd	-0.12315903
36	0xbf5f6b75	-0.8727334
37	0xbffccdd9	-1.975032
38	0xbf1e98ab	-0.619517
39	0xbff63a42	-1.9236529
40	0xbece190e	-0.4025349
41	0x3f250d82	0.64473736
42	0xbe97c56d	-0.2964281
43	0xbc9d47cf	-0.01919928
44	0xbf306901	-0.68910223
45	0xbf14fb33	-0.581958
46	0x3e33fc2f	0.17576669
47	0x3f0b03cc	0.5430267
48	0xbe1aaaad	-0.1510417
49	0xbf95ddb1	-1.170828
50	0x3ed36830	0.41290426
51	0x3d00848f	0.031376418
52	0x3ec904bc	0.39261425
53	0xbfdd4e2f	-1.7289485
54	0x3ec9ee74	0.39439738
55	0xbf12e901	-0.57386786
56	0xbfb46a05	-1.4094855
57	0x3dcf277d	0.10114954
58	0xbf8849d4	-1.064753
59	0xbca0b442	-0.019617204
60	0xbf38246d	-0.7193058
61	0xbf07e997	-0.53090805
62	0x3eca3e67	0.39500734
63	0xbe367387	-0.17817508
64	0xbf835129	-1.0259143
65	0xc001f59d	-2.030616
66	0x3f9187cf	1.136957
67	0xbed55cbd	-0.41672316
68	0xbfacad83	-1.3490452
69	0xc038a8f2	-2.8853116
70	0x3f9849ac	1.1897483
71	0xbe482d45	-0.19548519
72	0x3f0852de	0.53251445
73	0xbf04efce	-0.5192841
74	0xbf52ee12	-0.82394516
75	0xbdb0221e	-0.08600257
76	0x3df12f6e	0.117766246
77	0xbe5cfc19	-0.21580543
78	0xbe819145	-0.25306144
79	0x3eaf3aa0	0.34224415
80	0xc00d6ce9	-2.2097723
81	0xbedeeeba	-0.4354151
82	0xbe8cf33d	-0.27529326
83	0xbf0aa67e	-0.54160297
84	0xbf3288bd	-0.69739896
85	0xbf0c3440	-0.5476723
86	0xbf2b3e27	-0.6689171
87	0xbf9a0067	-1.2031373
88	0xbfda5fd2	-1.7060492
89	0xbf7a5f8c	-0.9780204
90	0xbf0ec8e3	-0.5577528
91	0xbf700c4a	-0.9376875
92	0xbf8921b6	-1.0713413
93	0xbebee487	-0.37283728
94	0xbe6fa3ec	-0.23402375
95	0xbf3456de	-0.7044505
96	0x3f5236cb	0.8211486
97	0xbee68723	-0.45024976
98	0xbf1ecc7a	-0.62030756
99	0xbf9a77be	-1.2067792
100	0xbdd66a73	-0.10469522
101	0x3f08c72f	0.5342893
102	0xbf2114db	-0.6292245
103	0x3d0b5581	0.03401709
104	0xbf96b81c	-1.1774936
105	0xbfc4d3e7	-1.5377167
106	0xbf62b41f	-0.8855609
107	0xbe2bfce5	-0.1679569
108	0x3f28adbb	0.6589009
109	0xbefdd774	-0.4957844
110	0xbf8de838	-1.1086493
111	0xbbb02c75	-0.0053763934
112	0xbea85040	-0.32873726
113	0xc09c1379	-4.877377
114	0x3ecc8703	0.39946756
115	0xbfa8449e	-1.314594
116	0xbdc80013	-0.09765639
117	0x3e128bf5	0.14311202
118	0xbed45c1c	-0.41476524
119	0x3d6cf998	0.05785522
120	0xbff29cb6	-1.8954074
121	0x3ece9c4a	0.40353614
122	0xbd88b52a	-0.06675179
123	0xbf6e96c5	-0.93198806
124	0xbbd81540	-0.00659433
125	0xbe69ba18	-0.22824895
126	0xbf080e6f	-0.53147024
127	0xbfa3c885	-1.2795569
128	0x3f2b47c6	0.6690639
129	0xbe7c1eb1	-0.24621083
130	0x3d8b684d	0.06807003
131	0xbf72cc62	-0.94843113
132	0xbe25a276	-0.16175255
133	0xbeb29118	-0.34876323
134	0x3d3fa2c9	0.046786103
135	0xbf4e754d	-0.80647737
136	0xbdc7dd2e	-0.097589836
137	0xbf3964f5	-0.72419673
138	0xbf1619b5	-0.58632976
139	0xbe7a5c20	-0.24449205
140	0xbe315ffc	-0.17321771
141	0x3e2d51ad	0.16925688
142	0xbeb055b6	-0.34440392
143	0x3dbbf15d	0.09176896
144	0xbdea5c6c	-0.11443409
145	0xbf30eb96	-0.69109476
146	0xbfeb256d	-1.8370796
147	0x3f4d1850	0.8011522
148	0x3f86ea32	1.0540221
149	0xbff8395e	-1.9392507
150	0x3ee22500	0.44168854
151	0xbf47aeee	-0.78001297
152	0x3f3fc8f8	0.7491603
153	0xbf49d06c	-0.7883365
154	0x3f3b19a8	0.73086023
155	0x3f0e1ee0	0.5551586
156	0x3eaa59ae	0.33271545
157	0xbc9da67a	-0.019244421
158	0xbf945b1c	-1.1590304
159	0x3f8403c4	1.0313649
160	0x3f4f8afd	0.81071454
161	0x3e20f915	0.15720017
162	0xbe687adf	-0.22703122
163	0x3f10de88	0.56589556
164	0x3c0e4c16	0.0086851325
165	0x3e7f83d0	0.24952626
166	0x3e7ec36c	0.24879235
167	0xbefb614f	-0.49097678
168	0x3ea549aa	0.32282764
169	0x3d1ba9b3	0.038003635
170	0x3f26a62f	0.65097326
171	0x3fb73bef	1.4315165
172	0xbed6f921	-0.41986945
173	0xbebf1d1a	-0.3732689
174	0x3e06d3fb	0.13166802
175	0xbf7252ee	-0.9465779
176	0x3f939461	1.1529657
177	0x3ef80d4e	0.4844765
178	0x3e61a95c	0.22037262
179	0xbe9ea76d	-0.3098711
180	0x3c0151b2	0.007893013
181	0x3f3dd23e	0.7414893
182	0x3e019aed	0.12656756
183	0xbd98a88d	-0.074540235
184	0xbde99ffd	-0.114074685
185	0xbec055b4	-0.37565386
186	0xbefc142c	-0.4923414
187	0x3e7b76e8	0.24557078
188	0xbe6569d8	-0.22403657
189	0xbf320934	-0.6954529
190	0x3e61b4e5	0.22041662
191	0xbf88253e	-1.0636365
192	0xbf0adb86	-0.54241216
193	0xbdcdebb3	-0.10054722
194	0x3e9236d8	0.28557467
195	0x3e2ad127	0.16681348
196	0xbf75bd8b	-0.95992345
197	0x3e770950	0.24124646
198	0xbdff4218	-0.12463778
199	0x3ef98c25	0.48739734
200	0x3e0550ca	0.130191
201	0xbe8a8d7c	-0.2706107
202	0xbfa72915	-1.3059412
203	0xbf9b0a91	-1.21126
204	0xbc050f9f	-0.0081214
205	0xbf97e1dd	-1.1865803
206	0xbe2f07b0	-0.17092776
207	0xbe10579d	-0.14095922
208	0xbf531004	-0.8244631
209	0xbf420871	-0.7579413
210	0x3e76f111	0.24115397
211	0xbedad5f2	-0.42741352
212	0x3e33f12b	0.17572467
213	0xbe14738b	-0.14497201
214	0xbec7d413	-0.39028987
215	0x3eb923d2	0.3616014
216	0xbea8c0ce	-0.32959598
217	0xbf47efee	-0.7810048
218	0x3e80edbf	0.25181386
219	0xbeab3db0	-0.334455
220	0xbe586122	-0.21130803
221	0xbfa13ecd	-1.259729
222	0xbf62a6d8	-0.88535833
223	0xbd0a29d1	-0.033731285
224	0xbf1b5ddf	-0.6069011
225	0xbe3266e1	-0.17422058
226	0x3e6144e5	0.21998937
227	0xbea0cdbd	-0.31406966
228	0x3f8c1951	1.0945226
229	0xbe9bfb5e	-0.30465215
230	0x3fd60962	1.6721613
231	0xbf550b80	-0.8322067
232	0xbeadae37	-0.33921978
233	0xbefea0c3	-0.49732026
234	0xbe7d763e	-0.24752137
235	0xbf47bd90	-0.78023624
236	0x3f032682	0.51230633
237	0x3f6a40b6	0.9150499
238	0xbfabe161	-1.3428155
239	0xbdc995ff	-0.098430626
240	0xbece4c81	-0.40292743
241	0xbe50ff21	-0.20409824
242	0xbec9e9bb	-0.39436135
243	0xbf4eb077	-0.80738014
244	0xbf1f273d	-0.6216925
245	0xbf2a42dd	-0.66508275
246	0xbe6e2467	-0.23256074
247	0xbdcdaf18	-0.10043162
248	0xbf3a048f	-0.72663206
249	0x3ed8a147	0.42310545
250	0xbf64187b	-0.89099854
251	0x3f16bdd7	0.5888342
252	0x3ee482ec	0.44631135
253	0x3e607e33	0.21923141
254	0xbe7c6b0d	-0.24650212
255	0xbec62642	-0.38701063

linear2.bias f4 [64]
0	0xbf7e4040	-0.9931679
1	0xc01a2646	-2.408586
2	0xc03117f6	-2.7670875
3	0x3f930d59	1.1488448
4	0xbf8edd6f	-1.1161326
5	0xbeb05dc4	-0.34446537
6	0x3f017dfc	0.5058286
7	0x3fcbca5e	1.5921133
8	0xbf33316f	-0.69997305
9	0xbffb329c	-1.962482
10	0xbf7f5eac	-0.9975383
11	0xbf097188	-0.5368886
12	0xbfb2f15d	-1.3979908
13	0xc0101ebb	-2.2518756
14	0xbea12378	-0.31472373
15	0xbf0e0591	-0.55477244
16	0xbfd7b632	-1.6852477
17	0xbcc6fb48	-0.024289742
18	0xc0248580	-2.5706482
19	0x3f8cac68	1.0990114
20	0x3f58fa70	0.8475714
21	0x3f507d17	0.8144087
22	0x40042868	2.0649662
23	0x3eb4d797	0.35320732
24	0x401b5f2d	2.427684
25	0xbf248b99	-0.6427551
26	0x403fc224	2.9962244
27	0xbf888551	-1.0665685
28	0x3f7481e7	0.95510715
29	0xbfb9df74	-1.4521317
30	0x3f886092	1.0654471
31	0xbf9432a9	-1.157796
32	0xc00506a4	-2.0785303
33	0xbf8d79a0	-1.1052742
34	0xbe93c6be	-0.28862566
35	0xbfc74a21	-1.5569497
36	0xbf42f73f	-0.7615852
37	0x3ce48088	0.02789332
38	0xc06a6e72	-3.662991
39	0xbeee1238	-0.46498275
40	0xc000aec8	-2.0106678
41	0xbfdc0677	-1.7189473
42	0xbe7c8868	-0.2466141
43	0x3efe2482	0.49637228
44	0xbd3e70fa	-0.04649446
45	0xbfdd3fd0	-1.7285099
46	0xc010b864	-2.2612543
47	0xbf15c55d	-0.5850428
48	0xbfc27e7d	-1.5194851
49	0x3f5d0f12	0.8635112
50	0xbfaa56b8	-1.3307714
51	0x3fb762b0	1.4326992
52	0xc02d7027	-2.7099702
53	0x3f2d09a9	0.67592865
54	0x40557383	3.3351753
55	0xbf639312	-0.88896286
56	0x3fb26109	1.3935863
57	0xbf723f7e	-0.9462813
58	0x3fae0f98	1.3598509
59	0xbf3014e9	-0.68781906
60	0x3ee0dccf	0.43918464
61	0x3fbc99a8	1.4734392
62	0x4066dd82	3.6072698
63	0x404ae3e3	3.170159

output.weight f4 [1, 64]
0	0xbf999ffd	-1.200195
1	0xbf855ca9	-1.0418903
2	0xbf217266	-0.63065183
3	0x3f17a138	0.59230375
4	0xbf2677cc	-0.65026546
5	0xbf426e23	-0.75949305
6	0x3fc2f7a0	1.5231819
7	0x3f0f06ef	0.55869955
8	0xbf06edc8	-0.52706575
9	0xbf83d1da	-1.0298417
10	0xbf24698b	-0.64223546
11	0xbecb02c6	-0.39650553
12	0xbf96f52f	-1.1793574
13	0xbf47dbb5	-0.7806962
14	0xbed93dcf	-0.4242997
15	0xbf1e6a7a	-0.6188122
16	0xbf8246c6	-1.0177848
17	0x3f9784bb	1.1837381
18	0xbf454412	-0.7705699
19	0x3eaed9ef	0.34150645
20	0x3eccdefd	0.40013877
21	0x3f81c2c4	1.0137563
22	0x3e9c36a5	0.3051044
23	0x3f26c3d7	0.6514258
24	0x3e55f62e	0.20894691
25	0xbf7609ef	-0.9610891
26	0x3e58350c	0.21113986
27	0xbf28ad5b	-0.6588952
28	0x3f7d8d2c	0.99043536
29	0xbf686831	-0.90783983
30	0x3fb51236	1.4146183
31	0xbf433f85	-0.762688
32	0xbf7696c9	-0.9632383
33	0xbf0e7a3b	-0.5565526
34	0xbf2c0409	-0.6719366
35	0xbf94d336	-1.1626956
36	0xbf1eb642	-0.61996853
37	0xbf2b7733	-0.6697876
38	0xbe29e7ff	-0.16592406
39	0xbeb320b4	-0.34985888
40	0xbf112445	-0.5669597
41	0xbf20d6d3	-0.62827796
42	0xbf090340	-0.53520584
43	0x3f94fa47	1.1638879
44	0xbe992c07	-0.29916403
45	0xbf2dc817	-0.6788344
46	0xbf989c5e	-1.192272
47	0x3fcd2892	1.6028006
48	0xbeb5fde1	-0.35545257
49	0x3eee66d0	0.46562815
50	0xbf5ed515	-0.8704389
51	0x3f4b4e75	0.7941659
52	0xc00fd80e	-2.247562
53	0x3fa4131e	1.2818334
54	0x3e392391	0.18079974
55	0xbf330e49	-0.6994367
56	0x3f3c8660	0.7364254
57	0xbf8dc9b1	-1.1077176
58	0x3fc02488	1.5011148
59	0xbe486c4f	-0.19572566
60	0x3f453bcd	0.77044374
61	0x3f10d900	0.56581116
62	0x3e2efa7e	0.17087743
63	0x3e348b38	0.17631233
