Data/test1.pth (torch, 53063 bytes, 5 tensors)

linear1.weight f4 [128, 34]
0	0x4035393b	2.831618
1	0x3fd7a229	1.6846362
2	0xbfe966c0	-1.8234482
3	0xc0675207	-3.6143816
4	0x40db9d95	6.862986
5	0x3fee555f	1.8619803
6	0x40338e4e	2.8055606
7	0xbed02c6f	-0.406589
8	0xc147c6df	-12.4860525
9	0xc1849b92	-16.575962
10	0xc0b99670	-5.799614
11	0xc1682331	-14.508592
12	0xc096f235	-4.7170663
13	0xc07d02ba	-3.9532914
14	0xc086d014	-4.2129
15	0x3d9e7c19	0.077385135
16	0x3f396160	0.7241421
17	0x412a1ae6	10.631567
18	0x3f1b5f8a	0.60692656
19	0xbfc801d4	-1.5625558
20	0x41045be5	8.272435
21	0xc0ebdd65	-7.3707757
22	0xc10d776b	-8.841655
23	0xc15d8f95	-13.847554
24	0xc1c43346	-24.525036
25	0xc19821d1	-19.016512
26	0x41848120	16.56305
27	0xc1841bd7	-16.513594
28	0x3ffec8ee	1.9905069
29	0xbfa79c3a	-1.3094552
30	0xbfe62316	-1.7979457
31	0xc01f7c09	-2.4919455
32	0xbf8ba142	-1.0908587
33	0xbf027189	-0.5095449
34	0x3f016429	0.5054346
35	0x3fda9087	1.7075356
36	0x400b4ccb	2.176562
37	0xc0ef9305	-7.4866967
38	0xc1418f73	-12.097522
39	0x41390f0f	11.566176
40	0x4100309e	8.011869
41	0xbf7c59b5	-0.9857438
42	0xc124e37e	-10.30554
43	0xc0cc607e	-6.386779
44	0xc14665c5	-12.399846
45	0xc13bbce7	-11.733619
46	0xc01e0e17	-2.46961
47	0xc09d1ec5	-4.910006
48	0xc12939e9	-10.576638
49	0x4055cf5f	3.340782
50	0xbf4b627e	-0.7944716
51	0x410ddb30	8.866013
52	0xc12cb9ed	-10.795392
53	0xc13b22b4	-11.695972
54	0x40c5b685	6.17853
55	0xc09bffc1	-4.87497
56	0xc16aa56a	-14.665384
57	0xbddc150e	-0.10746203
58	0xc200399e	-32.056267
59	0xc21281f8	-36.626923
60	0xc0c84c07	-6.2592807
61	0xc19bebfa	-19.490223
62	0xc1291c7f	-10.569457
63	0xc16959f2	-14.584459
64	0xc045cb28	-3.0905247
65	0xc09ae6f4	-4.8406925
66	0xbf31a507	-0.69392437
67	0xc001e4e6	-2.0295959
68	0xc09411b7	-4.6271625
69	0xc05cba03	-3.4488533
70	0xc0c17052	-6.044961
71	0x3da3dcaf	0.080010764
72	0xc1549145	-13.285466
73	0x410be9fe	8.744627
74	0x408fcc35	4.4936776
75	0x411c7311	9.778092
76	0xc12e92bd	-10.910825
77	0xc0ff2cdb	-7.9742255
78	0xc103df19	-8.241967
79	0x40923378	4.568783
80	0x3f15e5e6	0.5855392
81	0xc0cab987	-6.3351474
82	0xc0cd3461	-6.412644
83	0x416366d0	14.212601
84	0xc14f0a78	-12.940056
85	0x409780d6	4.734477
86	0xc0c3f6e7	-6.1238894
87	0xc1144091	-9.265763
88	0xc1284e58	-10.519127
89	0xc0c43451	-6.1313863
90	0xc180bfa4	-16.093575
91	0x405f1672	3.485745
92	0xc20d2ad1	-35.291813
93	0xc2132c0f	-36.793026
94	0x411da9ce	9.853956
95	0xc1467b19	-12.405053
96	0xc1c0f06a	-24.11739
97	0xc19ffcad	-19.998377
98	0xbfe9f145	-1.8276755
99	0xc082af07	-4.0838656
100	0x3f918485	1.1368567
101	0xc0a6e052	-5.214883
102	0x40a2493e	5.0714407
103	0x408d7b4f	4.4213023
104	0x40f08055	7.5156655
105	0x40cd4724	6.414934
106	0x40d20a58	6.5637627
107	0x40e59d86	7.175479
108	0xc0962615	-4.6921487
109	0xc0fdca82	-7.93097
110	0x40cb40e8	6.351673
111	0xbfc718f3	-1.5554489
112	0x401fe27d	2.4981987
113	0xc17dbbed	-15.85838
114	0x4142ce9c	12.175442
115	0x402b0ee2	2.6727834
116	0x40b8f828	5.7802925
117	0xc1074a13	-8.455585
118	0xc0b70309	-5.7191205
119	0x412b18cb	10.693553
120	0x3f5d9aad	0.8656414
121	0x41048c1b	8.284205
122	0xc066de6a	-3.607325
123	0x407710bb	3.8603961
124	0xc1006d55	-8.026692
125	0xc0dc6af6	-6.8880568
126	0xc1d0df70	-26.1091
127	0xc1c83f05	-25.030771
128	0xc0208945	-2.5083783
129	0xc14e9d46	-12.913397
130	0xc0f1ff2e	-7.5624
131	0xc19761f8	-18.922836
132	0xc0d5d280	-6.681946
133	0xbdbd59fc	-0.09245679
134	0xc006e3a5	-2.1076443
135	0x400c6d5b	2.1941745
136	0x40f9faf0	7.811882
137	0x40f5832e	7.672263
138	0x4053266e	3.2992206
139	0xc0271855	-2.61086
140	0x40bd35f5	5.9128366
141	0x41767cdd	15.405484
142	0xc1312679	-11.071893
143	0xc00e058f	-2.2190893
144	0xc1817348	-16.18129
145	0x408c60c4	4.386812
146	0xbf8ba6ce	-1.091028
147	0xc0e33c17	-7.101085
148	0xbfdf7590	-1.7457752
149	0x3f83da71	1.0301038
150	0xc0a46101	-5.1368413
151	0x4107bb77	8.483268
152	0x404b52af	3.1769216
153	0xc176e654	-15.431232
154	0xbfc4d105	-1.5376288
155	0xc1b18e12	-22.19437
156	0x3ecf3082	0.40466696
157	0xc0fe11fe	-7.9396963
158	0xc11ee26d	-9.93028
159	0xc13f9c7d	-11.975705
160	0xc1b55af9	-22.66942
161	0xc1910f10	-18.132355
162	0x40330aa9	2.7975256
163	0xc1a96ae9	-21.177202
164	0xc05b5bf5	-3.4274876
165	0xc155e1b6	-13.367605
166	0xc03efca2	-2.9841695
167	0xc037001f	-2.8593824
168	0xbfa95010	-1.3227558
169	0x4018d06a	2.3877206
170	0xbf7754b0	-0.966136
171	0x40f34704	7.602419
172	0xc08417ef	-4.1279216
173	0xbf9b8cae	-1.2152307
174	0xc00b0b0d	-2.1725495
175	0x3eb91765	0.3615066
176	0xbf5c5dbf	-0.86080545
177	0x3fa8d579	1.3190147
178	0xc09a7df9	-4.8278775
179	0xc11e2c06	-9.885748
180	0x4105e31f	8.3679495
181	0xc14c6453	-12.774493
182	0x40a6458a	5.1959887
183	0xc05f0de0	-3.4852219
184	0xbec4b27b	-0.3841742
185	0xc0699e2b	-3.6502788
186	0x40c1b323	6.0531173
187	0x40075172	2.114346
188	0xbf9d429c	-1.2285953
189	0xc1025c29	-8.1475
190	0xc0a96f99	-5.2948728
191	0xc08e042d	-4.4380097
192	0xc0f8fe3e	-7.7810354
193	0xc177a400	-15.477539
194	0xc21e769c	-39.61583
195	0xc20d7df8	-35.373016
196	0x410fba64	8.983006
197	0xc1e72038	-28.890732
198	0xc0c90075	-6.281306
199	0xc1306b52	-11.026201
200	0xc001a997	-2.025976
201	0xc02dc8b6	-2.7153754
202	0xc09fd891	-4.9951863
203	0xc098af99	-4.7714353
204	0x403654d0	2.8489265
205	0xc006e2d3	-2.1075943
206	0xc03c897d	-2.9458916
207	0x41616bea	14.088846
208	0xc13e8f7b	-11.910029
209	0x4122f1f7	10.184073
210	0x40f13410	7.5376053
211	0x40b45ae1	5.6360936
212	0x3f957bfb	1.1678461
213	0x3fc6b9ce	1.5525453
214	0xc14012dc	-12.004604
215	0xc159cdf5	-13.6127825
216	0x40a1cadd	5.0560136
217	0x4135e30b	11.36793
218	0x3f9163fd	1.1358639
219	0xbffbc0c5	-1.9668204
220	0x416bfb69	14.748879
221	0x4080d04f	4.0254283
222	0xc128bd4d	-10.546216
223	0xc106796e	-8.404646
224	0x408939b3	4.2882934
225	0xc15bf92f	-13.748336
226	0xc0b134e5	-5.537707
227	0x407027c5	3.7524273
228	0xc201d11f	-32.45422
229	0xc2161277	-37.518032
230	0xc22c30a1	-43.04749
231	0xc1c2cce5	-24.350046
232	0xc17ccd53	-15.800128
233	0xc16af357	-14.684409
234	0xc0fed16d	-7.9630647
235	0xc0cf087c	-6.4697857
236	0xc11218cf	-9.131057
237	0xc0453a5e	-3.0816875
238	0x3f0ecaf9	0.5577846
239	0x40e41976	7.128108
240	0x405cbf2d	3.4491684
241	0x41363507	11.387946
242	0xc149854f	-12.595046
243	0x415ed304	13.9265175
244	0x411675e9	9.403787
245	0x4166b96b	14.420268
246	0xc168dfab	-14.554606
247	0xc0285140	-2.629959
248	0x411cd5cf	9.802199
249	0xc1071cd5	-8.444539
250	0x4154960b	13.286632
251	0xbd98921d	-0.07449744
252	0x3eaba5ae	0.3352484
253	0x418fd6a2	17.979801
254	0xbfed5d95	-1.8544184
255	0xc12e99d5	-10.912557

linear1.bias f4 [128]
0	0xc1ed21f1	-29.641573
1	0xc234e2d5	-45.221516
2	0xc216cdb5	-37.700886
3	0xc218fb9a	-38.245705
4	0xc2471376	-49.769005
5	0xc238415a	-46.06382
6	0xc22cc47c	-43.19188
7	0xc2633c0c	-56.80864
8	0xc22174dc	-40.36412
9	0xc224c8d8	-41.196136
10	0xc21159e0	-36.33777
11	0xc284fbbc	-66.49167
12	0xc22f33fd	-43.80077
13	0xc23c6145	-47.09499
14	0xc1cfcb06	-25.974133
15	0xc1ce7f08	-25.812027
16	0xc2186a3e	-38.103752
17	0xc25f893d	-55.88402
18	0xc225de92	-41.467354
19	0xc276e431	-61.722843
20	0x42546a11	53.10358
21	0xc2198337	-38.37814
22	0xc26175d3	-56.365063
23	0xc2219380	-40.394043
24	0x40686923	3.631417
25	0xc2712ed9	-60.29575
26	0x417437ab	15.263591
27	0xc2596fc9	-54.359165
28	0xc2884e45	-68.15287
29	0xc228152d	-42.02068
30	0xc23dab27	-47.41714
31	0xc25065a4	-52.09926
32	0xc2847d3b	-66.24459
33	0xc2493ee6	-50.311424
34	0xc2163363	-37.550182
35	0xc25ca59a	-55.16172
36	0xc22dda62	-43.463264
37	0xc25b0c12	-54.761787
38	0xc27a8bf6	-62.63668
39	0xc2431cf1	-48.778263
40	0xc24000f5	-48.000935
41	0xc2504801	-52.070316
42	0xc1c6af71	-24.835665
43	0xc272b93c	-60.680893
44	0xc2260b71	-41.511173
45	0xc1e84cf8	-29.037582
46	0xc23e49a7	-47.571926
47	0xc227bac6	-41.932396
48	0xc1fc52ae	-31.54037
49	0xc236a6c6	-45.662865
50	0xc2896e6e	-68.71568
51	0xc22f1422	-43.76966
52	0xc20e309c	-35.54747
53	0xc24b4ce5	-50.825092
54	0xc25dffb7	-55.49972
55	0xc22cf30e	-43.23736
56	0xc288deb2	-68.43495
57	0xc2078ce5	-33.887592
58	0xc23ffc6a	-47.9965
59	0xc221c505	-40.4424
60	0xc22179e9	-40.369053
61	0xc224504c	-41.078415
62	0xc21f0f61	-39.76502
63	0xc26c3e31	-59.060734
64	0xc27a0edc	-62.51451
65	0xc2090975	-34.259235
66	0xc2176bcf	-37.85528
67	0xc2663eff	-57.56152
68	0xc22a68d9	-42.60239
69	0xc255b2d1	-53.424625
70	0xc26bc2a7	-58.94009
71	0xc2099822	-34.398567
72	0xc25920de	-54.282097
73	0xc202f7bc	-32.74193
74	0xc2832949	-65.580635
75	0xc22c0b56	-43.01107
76	0xc25b6bd0	-54.855286
77	0xc241d7ff	-48.460934
78	0xc243a3fb	-48.910137
79	0xc2613934	-56.305862
80	0xc2366a22	-45.603645
81	0xc28c4ecf	-70.15392
82	0xc239fa60	-46.494507
83	0xc21089f3	-36.134716
84	0xc1e946e7	-29.15962
85	0xc22d744a	-43.363564
86	0xc2886baf	-68.21032
87	0xc211799c	-36.36876
88	0xc23dd9d3	-47.46272
89	0xc225965b	-41.39683
90	0xc1998718	-19.190964
91	0xc23190f1	-44.391544
92	0xc22e52d2	-43.58088
93	0xc242e4d3	-48.72346
94	0xc220a766	-40.163475
95	0xc22af2b0	-42.737
96	0xc211a20a	-36.40824
97	0xc23fd331	-47.95624
98	0xc21dffca	-39.499794
99	0xc23e15de	-47.521355
100	0xc22fc5ae	-43.943047
101	0xc22a8c52	-42.63703
102	0xc1c7a199	-24.953905
103	0xc21b6928	-38.85269
104	0xc2168ca8	-37.63736
105	0xc212b497	-36.676357
106	0xc21a6245	-38.595966
107	0xc2328b69	-44.636143
108	0xc23f2daa	-47.794594
109	0xc21e5ed7	-39.592617
110	0xc26be396	-58.97225
111	0xc20eb260	-35.674194
112	0xc224f2fd	-41.237293
113	0xc25d2540	-55.286377
114	0xc247f2d4	-49.987137
115	0xc200d91f	-32.212032
116	0xc26f0ccd	-59.7625
117	0xc21ebafd	-39.682606
118	0xc266c698	-57.69394
119	0xc21a211f	-38.532345
120	0xc23032de	-44.049675
121	0xc27f5e8c	-63.84233
122	0xc20f36d5	-35.803547
123	0xc2601568	-56.020905
124	0xc20b158c	-34.77104
125	0xc2281fd6	-42.03109
126	0xc24d6b68	-51.35489
127	0xc20c29a6	-35.040672

linear2.weight f4 [64, 128]
0	0x40e1eb86	7.0600004
1	0x40fabc4e	7.8354864
2	0x3ee86f5d	0.45397463
3	0x3fdce165	1.7256285
4	0x4101e436	8.118216
5	0x4034af59	2.8232024
6	0x4015e378	2.3420086
7	0x3ff14ade	1.8850973
8	0x412ec7a5	10.923741
9	0x3efcb7ef	0.4935908
10	0xc0dc8eea	-6.8924456
11	0x4171f7a9	15.122964
12	0x410da564	8.852879
13	0x41054b5e	8.3309
14	0x40c05a36	6.011012
15	0xc08afc26	-4.34328
16	0x40b4af2a	5.6463823
17	0xbf399b2e	-0.7250241
18	0x40bbdf83	5.871034
19	0x4178db41	15.553529
20	0xc013f89d	-2.3120492
21	0x4082e8f5	4.090937
22	0x4118d17c	9.551144
23	0x4106467b	8.392207
24	0x40fd6c20	7.919449
25	0x40eddb9e	7.4330587
26	0x40f73cb6	7.726161
27	0x40ab66e7	5.3563113
28	0x418d7633	17.682714
29	0xc10c0365	-8.750829
30	0x411f80bd	9.96893
31	0x40ae56ed	5.448111
32	0x41614e63	14.081637
33	0x4140e311	12.055436
34	0x40850531	4.1568837
35	0x4005b716	2.0892997
36	0x4172f1b1	15.184007
37	0x4037ef96	2.8739982
38	0x40695e1b	3.6463687
39	0x4198dccc	19.107811
40	0x40a4b52d	5.147116
41	0x405c2677	3.4398477
42	0x40845e49	4.1365094
43	0x40a37cb0	5.1089706
44	0x3f9a6fa9	1.2065326
45	0x40ecfa30	7.4055405
46	0x3fb64d6b	1.4242376
47	0xbfdd492a	-1.7287953
48	0xc0fcc77a	-7.89935
49	0x4123a6ec	10.228252
50	0x4175becb	15.35908
51	0x40e7b47c	7.240782
52	0xc0d4ae4f	-6.646278
53	0xc0f12566	-7.5358152
54	0x41e00286	28.001232
55	0x400ec193	2.2305648
56	0x3ec0a753	0.37627658
57	0x4117be82	9.484011
58	0x41970e32	18.881931
59	0x409abc0b	4.8354545
60	0x417157be	15.083921
61	0x41497051	12.589921
62	0x41329408	11.16114
63	0x414c605b	12.773524
64	0x4078fe96	3.8905387
65	0x40a89256	5.2678633
66	0xc0f7bb59	-7.7416196
67	0x40d2141f	6.564956
68	0xc01a18ca	-2.407763
69	0x40e4ccaa	7.1499834
70	0x409c3bc1	4.882294
71	0x412b60e1	10.711152
72	0x40f59760	7.6747284
73	0x41080ae3	8.502658
74	0x40ff9443	7.9868484
75	0x3fd897b4	1.6921296
76	0x409d92c2	4.924165
77	0x4068800d	3.6328156
78	0x40089a78	2.134428
79	0x40f5850e	7.672492
80	0x40f45e4e	7.636512
81	0x418e4ad8	17.786545
82	0x41479cef	12.475814
83	0x3f65c9fd	0.89761335
84	0xc1321c68	-11.131935
85	0x402c9687	2.6966875
86	0x419227cf	18.269438
87	0xbfabe9b4	-1.3430696
88	0x41626988	14.150764
89	0x3fcb17cd	1.5866638
90	0xc0a3996a	-5.1124773
91	0x404a99dc	3.1656408
92	0x40ec4c27	7.384296
93	0xc0d4fd64	-6.6559315
94	0x40518f0d	3.2743561
95	0x40142a5a	2.315085
96	0xc088dbb8	-4.276821
97	0x40e37d1d	7.1090226
98	0x41372fc7	11.449164
99	0xc07d0b7d	-3.9538262
100	0x40d6c4f2	6.711541
101	0x410fd083	8.988406
102	0x40d6304d	6.693396
103	0x3e7c41b7	0.24634443
104	0x4158e3e7	13.55564
105	0x40b7c152	5.7423487
106	0x41001911	8.00612
107	0x411b9162	9.722994
108	0x416bdc3e	14.74127
109	0x40bf1027	5.9707217
110	0x40da61e8	6.8244514
111	0xc0c2cb13	-6.0872893
112	0xc0dd7439	-6.9204373
113	0xc0007dca	-2.0076776
114	0x4170a6ee	15.040754
115	0x411d2a74	9.822865
116	0x4110422e	9.016157
117	0xc13a1d72	-11.632189
118	0x3c12e3da	0.008965457
119	0x4099fe4c	4.812292
120	0xc049a552	-3.1507154
121	0x403a640c	2.9123564
122	0xc10b7a43	-8.717349
123	0x40c23eb6	6.070155
124	0xbfb07aac	-1.3787436
125	0x40bb958e	5.862006
126	0x40461071	3.0947535
127	0x40915053	4.541055
128	0xbe3d36c7	-0.18477927
129	0xbf7762df	-0.9663524
130	0xbc558edc	-0.013034549
131	0x40a95b60	5.292404
132	0x3eaa7180	0.3328972
133	0xbf35e176	-0.7104715
134	0xc09ea652	-4.957803
135	0x40b31660	5.5964813
136	0x406348ef	3.5513265
137	0x415e4760	13.892426
138	0xbff14a67	-1.8850831
139	0x3ffddbc3	1.9832691
140	0x40a873ed	5.264151
141	0x408371a4	4.107622
142	0xc17452aa	-15.270182
143	0x41859321	16.69684
144	0x404a0ac0	3.1569061
145	0xc0187f62	-2.3827748
146	0xc02c34eb	-2.6907299
147	0x4034e9d6	2.8267722
148	0xc1115f7c	-9.085812
149	0x3f1dc19c	0.6162355
150	0x4049f4de	3.1555705
151	0x406cb2c3	3.6984107
152	0xc1059e1a	-8.351099
153	0x40c3605e	6.1055136
154	0xc0dca5e2	-6.8952494
155	0xc00d9b69	-2.2126105
156	0x3ffaec32	1.9603331
157	0xbec423f5	-0.38308683
158	0x40b21b1b	5.565809
159	0x4010dd8b	2.263522
160	0x41191724	9.56815
161	0x41192557	9.571616
162	0xc04c8e62	-3.1961904
163	0xc12e676d	-10.90025
164	0x3f0e4fbd	0.5559042
165	0x3fe13dc9	1.759698
166	0x40396578	2.8968182
167	0x400358fd	2.0523064
168	0x3e46ac31	0.19401623
169	0xc0b8667a	-5.7625093
170	0x3f82671c	1.0187716
171	0x401944e6	2.3948302
172	0x3f256d54	0.64619946
173	0xc0043235	-2.0655644
174	0x3dae2a02	0.08504106
175	0x41141228	9.254433
176	0x404fbcce	3.2458987
177	0xc0cddbd7	-6.433086
178	0x4049bd51	3.15218
179	0x40e4299d	7.1300797
180	0xc06e230f	-3.7208898
181	0xbf4248e9	-0.758925
182	0x413c51ad	11.76994
183	0x4113f660	9.24765
184	0x406c3787	3.6908891
185	0x3ad7562c	0.001642888
186	0x407165f5	3.771848
187	0xc0d37e8b	-6.609197
188	0xc0092480	-2.1428528
189	0xbf91aea3	-1.138142
190	0xc0fc81a6	-7.890826
191	0x40a410f7	5.127071
192	0xc05e3ac3	-3.4723365
193	0x3fc18530	1.5118771
194	0xbed8dc34	-0.42355502
195	0x40944cbd	4.6343675
196	0x4091b1d7	4.552959
197	0x408bdc6b	4.3706565
198	0xc0622c45	-3.533952
199	0x40a7af55	5.240153
200	0x3f943d93	1.1581291
201	0xc0592199	-3.3926756
202	0xc0a30c9d	-5.0952897
203	0x412123f2	10.071276
204	0xbf6f8c20	-0.9357319
205	0x40bce86f	5.9033732
206	0xc07b03c2	-3.9221044
207	0x3f004ec6	0.501202
208	0x3fe50386	1.78917
209	0x3f8ce98d	1.1008774
210	0x40a61a59	5.1907163
211	0x3ecbf914	0.3983847
212	0xc05d16ba	-3.4545121
213	0x3d99f4db	0.075174056
214	0x402b413f	2.6758573
215	0xc0bd2b55	-5.9115396
216	0xbfa66d82	-1.3002169
217	0x4108cbf4	8.549793
218	0x40012fa3	2.0185325
219	0x4024c583	2.5745552
220	0x40ab0d44	5.3453693
221	0xc0c3e971	-6.1222463
222	0x41895286	17.165295
223	0x40a48f4c	5.1424923
224	0x407895da	3.8841462
225	0x40a8c26a	5.273732
226	0xc0e0588a	-7.010808
227	0xbee3b284	-0.44472134
228	0x404f506c	3.2392836
229	0x40e2d5ed	7.088614
230	0x409bf568	4.873707
231	0x3f1308f9	0.57435566
232	0x40d2ba4a	6.5852404
233	0x418f6f20	17.92926
234	0x4042ee1d	3.0457833
235	0xbfc49081	-1.5356599
236	0x40664b3e	3.5983424
237	0x4040ca45	3.0123456
238	0x41055f70	8.3358
239	0xc125cf58	-10.363121
240	0x404102b9	3.0157912
241	0xc0b3b2b7	-5.615566
242	0x3e95432b	0.29152808
243	0xbf7cf396	-0.9880918
244	0x4091a7dc	4.5517406
245	0xc0998cdc	-4.7984447
246	0x40927f21	4.5780187
247	0xc134c58d	-11.29823
248	0x408f54b2	4.479089
249	0x40acdf27	5.4022403
250	0xc0ee26b2	-7.4422235
251	0xc06c701f	-3.6943433
252	0xc11f401a	-9.95315
253	0x4078a320	3.8849564
254	0x4145addb	12.354945
255	0x4137e9a0	11.494537

linear2.bias f4 [64]
0	0xc1c538e2	-24.652775
1	0xc1c5a1b9	-24.703966
2	0xc1fddc08	-31.732437
3	0xc192dee1	-18.358828
4	0xc15d7fb2	-13.843676
5	0xc15a1008	-13.628914
6	0xc18f3511	-17.900911
7	0xc1706c02	-15.026369
8	0xc128b02a	-10.543009
9	0x40a67148	5.2013283
10	0x407de193	3.966893
11	0xc18301a8	-16.375809
12	0xc1f48c1a	-30.568409
13	0xc19f4860	-19.91034
14	0xc1eb21b7	-29.391462
15	0xc18cec3d	-17.61535
16	0xc23bc436	-46.941612
17	0xc1c3724e	-24.430813
18	0xc220b606	-40.177757
19	0xc19914fd	-19.135248
20	0xc1183e55	-9.515218
21	0xc216fc0b	-37.746136
22	0xc1681535	-14.5051775
23	0xc1a1c119	-20.219286
24	0xc19b1522	-19.385319
25	0xc197dd21	-18.982973
26	0xc101f1f7	-8.121573
27	0xc0ea21ca	-7.3166246
28	0xc0ba754f	-5.82682
29	0xc20d53b3	-35.331738
30	0xc2177881	-37.86768
31	0xc184db79	-16.607164
32	0xc18fa753	-17.956701
33	0xc2083972	-34.0561
34	0xc194ee63	-18.6164
35	0xc19f6d5d	-19.9284
36	0xc1e6f3f4	-28.869118
37	0xc2024d73	-32.575634
38	0xc1c33d09	-24.404802
39	0xc1a68522	-20.815006
40	0xc1ec8913	-29.56693
41	0xc221e8b8	-40.477264
42	0xc1e02777	-28.01927
43	0xc00ff9d2	-2.2496228
44	0xc0e14bb4	-7.040491
45	0x40166215	2.3497365
46	0xc20f4471	-35.816837
47	0xc1d7c11c	-26.969292
48	0xc1bb666a	-23.425007
49	0xc1b825eb	-23.018515
50	0xc1b1349c	-22.150688
51	0xc1c5cfa1	-24.726381
52	0xc1a7f714	-20.995644
53	0xc0e1903e	-7.0488577
54	0xc024c88b	-2.5747402
55	0xc235442e	-45.31658
56	0xc1e03c36	-28.0294
57	0xc15661e4	-13.398899
58	0xc1ef739f	-29.931456
59	0xc20fdd5e	-35.96618
60	0xc1b6c48d	-22.845972
61	0xc21c85b8	-39.130585
62	0xc1edd221	-29.727602
63	0xc2011e7b	-32.279766

output.weight f4 [1, 64]
0	0xc03008f5	-2.7505467
1	0x40b91b72	5.7846003
2	0xbf3e8fad	-0.7443798
3	0x410bdce8	8.741432
4	0x3e50a8e2	0.20376924
5	0xc040ab14	-3.0104418
6	0x40902990	4.5050735
7	0x3f5d9c6c	0.86566806
8	0x4017d596	2.3724113
9	0x402ac830	2.6684685
10	0xc0891e87	-4.2849765
11	0x40542af8	3.3151226
12	0xbf1ca153	-0.6118366
13	0x3f23387d	0.6375807
14	0xbf243217	-0.6413893
15	0xbfb60158	-1.421916
16	0x40b3292e	5.598777
17	0xc0824e69	-4.0720716
18	0x401a8aac	2.4147139
19	0xc08161fe	-4.043212
20	0xc04bb50e	-3.1829257
21	0xbf8088fe	-1.0041807
22	0x40210a22	2.5162435
23	0xbee29423	-0.44253644
24	0xc00aabbe	-2.1667323
25	0xbf9d59da	-1.2293046
26	0xbff4327b	-1.9077905
27	0x3ff0ff53	1.8827919
28	0xc0988768	-4.766529
29	0x3efdbc60	0.4955778
30	0x3fa474bf	1.2848128
31	0x3fe59b0b	1.793794
32	0x3f818f79	1.0121909
33	0x3fc8b6ce	1.5680788
34	0x40b91f25	5.785052
35	0x3f1b35d8	0.60629034
36	0xbfa76f9c	-1.3080935
37	0x40b42b20	5.6302643
38	0x3eed4e88	0.46348977
39	0x3fdced83	1.7259983
40	0xbe0e00e7	-0.13867532
41	0x400ae8a5	2.1704495
42	0x3fe7ba77	1.810378
43	0xc0600acd	-3.5006592
44	0xbfaae2a6	-1.3350418
45	0x40217eac	2.5233564
46	0x3fb651f2	1.4243758
47	0x3efe308b	0.4964641
48	0xc09bd0da	-4.8692446
49	0x3e5801ca	0.21094432
50	0xc071e431	-3.7795527
51	0x40695c38	3.6462536
52	0xc03baac7	-2.9322984
53	0xc0660181	-3.5938418
54	0x407cc7ad	3.9496872
55	0x4049d4f5	3.1536229
56	0x3f66b492	0.9011928
57	0xbfe57f8e	-1.7929552
58	0x3c974e7a	0.018470038
59	0x3e7c8716	0.24660906
60	0x3f9e2beb	1.2357153
61	0x3fe082eb	1.7539953
62	0x40484740	3.1293488
63	0x3e575747	0.21029387
